==========mod==========
#[version = "0.0.5"]
def @func_14005(%var_13983: Tensor[(1352), int16]) -> (Tensor[(980), float64], Tensor[(104), int16], Tensor[(1352), int16]) {
  %0 = @func_5278() /* ty=(Tensor[(13, 13, 8), float32], Tensor[(7, 14, 10), float64], Tensor[(980), float64], Tensor[(11, 10, 4), float32], Tensor[(440), float32]) */;
  %1 = cast(%var_13983, dtype="int16") /* ty=Tensor[(1352), int16] */;
  %2 = reshape(%1, newshape=[1352]) /* ty=Tensor[(1352), int16] */;
  %3 = @func_3011(%2) /* ty=(Tensor[(104), int16], Tensor[(13, 13, 8), float32], Tensor[(1352), int16]) */;
  %4 = %0.2;
  %5 = %3.0;
  (%4, %5, %var_13983)
}

def @func_11072() -> Tensor[(13, 13, 8), float32] {
  %6 = @func_2548() /* ty=(Tensor[(13, 13, 8), float32], Tensor[(13, 13, 8), float32]) */;
  %6.0
}

def @func_316(%var_311: Tensor[(4, 5, 15), float32]) -> Tensor[(4, 5, 15), float32] {
  %7 = cast(meta[relay.Constant][0] /* ty=Tensor[(4, 5, 15), float32] */, dtype="float32") /* ty=Tensor[(4, 5, 15), float32] */;
  %8 = shape_of(%var_311, dtype="int32") /* ty=Tensor[(3), int32] */;
  %9 = cast(%var_311, dtype="float32") /* ty=Tensor[(4, 5, 15), float32] */;
  %10 = dyn.reshape(%7, %8, newshape=[]) /* ty=Tensor[(?, ?, ?), float32] */;
  floor_divide(%9, %10) /* ty=Tensor[(4, 5, 15), float32] */
}

def @func_7047(%var_7011: Tensor[(104), int16]) -> (Tensor[(104), float64], Tensor[(5, 9, 8), float32], Tensor[(360), float32]) {
  %11 = @func_4642() /* ty=(Tensor[(104), int16],) */;
  %12 = %11.0;
  %13 = cast(%var_7011, dtype="float64") /* ty=Tensor[(104), float64] */;
  %14 = shape_of(%12, dtype="int32") /* ty=Tensor[(1), int32] */;
  %15 = cast(%12, dtype="float64") /* ty=Tensor[(104), float64] */;
  %16 = dyn.reshape(%13, %14, newshape=[]) /* ty=Tensor[(?), float64] */;
  %17 = cast(meta[relay.Constant][1] /* ty=Tensor[(360), float32] */, dtype="float32") /* ty=Tensor[(360), float32] */;
  %18 = reshape(%17, newshape=[5, 9, 8]) /* ty=Tensor[(5, 9, 8), float32] */;
  %19 = @func_6600(%18) /* ty=(Tensor[(5, 9, 8), float32],) */;
  %20 = divide(%15, %16) /* ty=Tensor[(104), float64] */;
  %21 = %19.0;
  (%20, %21, meta[relay.Constant][1] /* ty=Tensor[(360), float32] */)
}

def @func_10875() -> (Tensor[(13, 13, 8), float32], Tensor[(13, 13, 8), float64], Tensor[(360), uint8], Tensor[(13, 13, 8), bool], Tensor[(13, 13, 8), float32], Tensor[(13, 13, 8), float32], Tensor[(13, 13, 8), float32], Tensor[(13, 13, 8), float32], Tensor[(104), int16]) {
  %22 = @func_7006() /* ty=(Tensor[(13, 13, 8), float32],) */;
  %23 = @func_6843() /* ty=(Tensor[(13, 13, 8), float64], Tensor[(13, 13, 8), float32], Tensor[(13, 13, 8), float32]) */;
  %24 = @func_3547() /* ty=(Tensor[(13, 13, 8), float32], Tensor[(13, 13, 8), bool], Tensor[(104), int16], Tensor[(13, 13, 8), float32]) */;
  %25 = @func_9874() /* ty=(Tensor[(104), int16], Tensor[(13, 13, 8), float32]) */;
  %26 = @func_5515() /* ty=(Tensor[(13, 13, 8), float32], Tensor[(13, 13, 8), float32]) */;
  %27 = @func_4642() /* ty=(Tensor[(104), int16],) */;
  %28 = %22.0;
  %29 = %23.0;
  %30 = @func_4572() /* ty=Tensor[(360), uint8] */;
  %31 = %24.1;
  %32 = %25.1;
  %33 = %26.1;
  %34 = @func_6804() /* ty=Tensor[(13, 13, 8), float32] */;
  %35 = @func_5750() /* ty=Tensor[(13, 13, 8), float32] */;
  %36 = %27.0;
  (%28, %29, %30, %31, %32, %33, %34, %35, %36)
}

def @func_3388(%var_3368: Tensor[(286), float32]) -> (Tensor[(13, 13, 8), float32], Tensor[(13, 11, 2), float64], Tensor[(286), float64]) {
  %37 = @func_3309() /* ty=(Tensor[(13, 13, 8), float32], Tensor[(10, 9, 4), bool], Tensor[(360), uint8]) */;
  %38 = cast(%var_3368, dtype="float32") /* ty=Tensor[(286), float32] */;
  %39 = reshape(%38, newshape=[13, 11, 2]) /* ty=Tensor[(13, 11, 2), float32] */;
  %40 = @func_2201(%39) /* ty=(Tensor[(13, 11, 2), float64], Tensor[(104), int16]) */;
  %41 = cast(%var_3368, dtype="float64") /* ty=Tensor[(286), float64] */;
  %42 = %37.0;
  %43 = %40.0;
  %44 = atan(%41) /* ty=Tensor[(286), float64] */;
  (%42, %43, %44)
}

def @func_14396(%var_14389: Tensor[(54), bool]) -> (Tensor[(54), bool],) {
  %45 = @func_12709() /* ty=(Tensor[(54), bool],) */;
  %46 = %45.0;
  %47 = cast(%var_14389, dtype="bool") /* ty=Tensor[(54), bool] */;
  %48 = shape_of(%46, dtype="int32") /* ty=Tensor[(1), int32] */;
  %49 = cast(%46, dtype="bool") /* ty=Tensor[(54), bool] */;
  %50 = dyn.reshape(%47, %48, newshape=[]) /* ty=Tensor[(?), bool] */;
  %51 = logical_or(%49, %50) /* ty=Tensor[(54), bool] */;
  (%51,)
}

def @func_15054() -> (Tensor[(14, 7, ?), int64], Tensor[(13, 13, 8), bool]) {
  %52 = @func_6193() /* ty=(Tensor[(14, 7, 1), float64],) */;
  %53 = %52.0;
  %54 = cast(%53, dtype="float32") /* ty=Tensor[(14, 7, 1), float32] */;
  %55 = atanh(%54) /* ty=Tensor[(14, 7, 1), float32] */;
  %56 = cast(%55, dtype="float32") /* ty=Tensor[(14, 7, 1), float32] */;
  %57 = asinh(%56) /* ty=Tensor[(14, 7, 1), float32] */;
  %58 = cast(%55, dtype="int64") /* ty=Tensor[(14, 7, 1), int64] */;
  %59 = shape_of(%57, dtype="int32") /* ty=Tensor[(3), int32] */;
  %60 = cast(%57, dtype="int64") /* ty=Tensor[(14, 7, 1), int64] */;
  %61 = dyn.reshape(%58, %59, newshape=[]) /* ty=Tensor[(?, ?, ?), int64] */;
  %62 = add(%60, %61) /* ty=Tensor[(14, 7, ?), int64] */;
  %63 = @func_4365() /* ty=Tensor[(13, 13, 8), bool] */;
  (%62, %63)
}

def @func_14420() -> (Tensor[(13, 13, 8), float32],) {
  %64 = @func_7515() /* ty=(Tensor[(13, 13, 8), float32],) */;
  %65 = %64.0;
  (%65,)
}

def @func_14810(%var_14717: Tensor[(9, 1, 3), float32]) -> (Tensor[(13, 13, 8), uint8], Tensor[(135), float64], Tensor[(13, 13, 8), bool], Tensor[(13, 13, 8), bool], int32, Tensor[(1, 144), int32], Tensor[(9, ?, 3), bool]) {
  %66 = @func_1955() /* ty=(Tensor[(13, 13, 8), uint8],) */;
  %67 = @func_2788() /* ty=(Tensor[(13, 13, 8), bool],) */;
  %68 = cast(4 /* ty=int32 */, dtype="int32") /* ty=int32 */;
  %69 = cast(meta[relay.Constant][2] /* ty=Tensor[(1, 144), int32] */, dtype="int32") /* ty=Tensor[(1, 144), int32] */;
  %70 = reshape(%68, newshape=[]) /* ty=int32 */;
  %71 = reshape(%69, newshape=[12, 3, 4]) /* ty=Tensor[(12, 3, 4), int32] */;
  %72 = @func_12178(%70, %71) /* ty=(Tensor[(135), float64], Tensor[(2704), float64], Tensor[(13, 13, 8), bool], Tensor[(12, 3, 4), float64]) */;
  %73 = cast(%var_14717, dtype="float32") /* ty=Tensor[(9, 1, 3), float32] */;
  %74 = sqrt(%73) /* ty=Tensor[(9, 1, 3), float32] */;
  %75 = cast(%74, dtype="float64") /* ty=Tensor[(9, 1, 3), float64] */;
  %76 = acosh(%75) /* ty=Tensor[(9, 1, 3), float64] */;
  %77 = cast(%74, dtype="float64") /* ty=Tensor[(9, 1, 3), float64] */;
  %78 = shape_of(%76, dtype="int32") /* ty=Tensor[(3), int32] */;
  %79 = cast(%76, dtype="float64") /* ty=Tensor[(9, 1, 3), float64] */;
  %80 = dyn.reshape(%77, %78, newshape=[]) /* ty=Tensor[(?, ?, ?), float64] */;
  %81 = subtract(%79, %80) /* ty=Tensor[(9, ?, 3), float64] */;
  %82 = cast(%81, dtype="bool") /* ty=Tensor[(9, ?, 3), bool] */;
  %83 = shape_of(%74, dtype="int32") /* ty=Tensor[(3), int32] */;
  %84 = cast(%74, dtype="bool") /* ty=Tensor[(9, 1, 3), bool] */;
  %85 = dyn.reshape(%82, %83, newshape=[]) /* ty=Tensor[(?, ?, ?), bool] */;
  %86 = %66.0;
  %87 = @func_12616() /* ty=Tensor[(135), float64] */;
  %88 = %67.0;
  %89 = %72.2;
  %90 = logical_or(%84, %85) /* ty=Tensor[(9, ?, 3), bool] */;
  (%86, %87, %88, %89, 4 /* ty=int32 */, meta[relay.Constant][2] /* ty=Tensor[(1, 144), int32] */, %90)
}

def @func_9523() -> (Tensor[(300), float32], Tensor[(13, 13, 8), float32], Tensor[(13, 13, 8), float32]) {
  %91 = @func_5244() /* ty=(Tensor[(13, 13, 8), float32], Tensor[(13, 13, 8), float32], Tensor[(13, 13, 8), float32]) */;
  %92 = @func_5066() /* ty=Tensor[(300), float32] */;
  %93 = @func_5462() /* ty=Tensor[(13, 13, 8), float32] */;
  %94 = %91.0;
  (%92, %93, %94)
}

def @func_2548() -> (Tensor[(13, 13, 8), float32], Tensor[(13, 13, 8), float32]) {
  %95 = @func_2220() /* ty=(Tensor[(13, 13, 8), float32], Tensor[(4, 5, 15), float32], Tensor[(300), float32]) */;
  %96 = @func_2378() /* ty=(Tensor[(13, 13, 8), float32],) */;
  %97 = %95.0;
  %98 = %96.0;
  (%97, %98)
}

def @func_3011(%var_3009: Tensor[(1352), int16]) -> (Tensor[(104), int16], Tensor[(13, 13, 8), float32], Tensor[(1352), int16]) {
  %99 = @func_1602() /* ty=(Tensor[(7, 9, 15), float64], Tensor[(13, 13, 8), float32], Tensor[(104), int16], Tensor[(1352), int16]) */;
  %100 = %99.2;
  %101 = cast(%100, dtype="int16") /* ty=Tensor[(104), int16] */;
  %102 = cast(%var_3009, dtype="int16") /* ty=Tensor[(1352), int16] */;
  %103 = reshape(%101, newshape=[13, 1, 8]) /* ty=Tensor[(13, 1, 8), int16] */;
  %104 = reshape(%102, newshape=[13, 13, 8]) /* ty=Tensor[(13, 13, 8), int16] */;
  %105 = @func_1527(%103, %104) /* ty=(Tensor[(13, 13, 8), bool], Tensor[(13, 13, 8), float32]) */;
  %106 = %105.1;
  (%100, %106, %var_3009)
}

def @func_15233() -> (Tensor[(13, 13, 8), bool], Tensor[(13, 13, 8), bool], Tensor[(13, 13, 8), uint8]) {
  %107 = @func_9975() /* ty=(Tensor[(13, 13, 8), bool],) */;
  %108 = @func_3862() /* ty=(Tensor[(13, 13, 8), bool], Tensor[(13, 13, 8), bool]) */;
  %109 = @func_4560() /* ty=(Tensor[(13, 13, 8), uint8], Tensor[(13, 13, 8), float32], Tensor[(13, 13, 8), float32]) */;
  %110 = %107.0;
  %111 = %108.0;
  %112 = %109.0;
  (%110, %111, %112)
}

def @func_9552() -> (Tensor[(300), float32], Tensor[(104), int16], Tensor[(1352), int16], Tensor[(440), float32], Tensor[(440), float32]) {
  %113 = cast(meta[relay.Constant][3] /* ty=Tensor[(1352), int16] */, dtype="int16") /* ty=Tensor[(1352), int16] */;
  %114 = reshape(%113, newshape=[1352]) /* ty=Tensor[(1352), int16] */;
  %115 = @func_3011(%114) /* ty=(Tensor[(104), int16], Tensor[(13, 13, 8), float32], Tensor[(1352), int16]) */;
  %116 = cast(meta[relay.Constant][4] /* ty=Tensor[(440), float32] */, dtype="float32") /* ty=Tensor[(440), float32] */;
  %117 = reshape(%116, newshape=[440]) /* ty=Tensor[(440), float32] */;
  %118 = @func_3028(%117) /* ty=(Tensor[(13, 13, 8), bool], Tensor[(11, 10, 4), float32], Tensor[(440), float32]) */;
  %119 = @func_5066() /* ty=Tensor[(300), float32] */;
  %120 = %115.0;
  %121 = %118.2;
  (%119, %120, meta[relay.Constant][3] /* ty=Tensor[(1352), int16] */, %121, meta[relay.Constant][4] /* ty=Tensor[(440), float32] */)
}

def @func_5278() -> (Tensor[(13, 13, 8), float32], Tensor[(7, 14, 10), float64], Tensor[(980), float64], Tensor[(11, 10, 4), float32], Tensor[(440), float32]) {
  %122 = @func_3745() /* ty=(Tensor[(13, 13, 8), float32], Tensor[(13, 13, 8), float32]) */;
  %123 = cast(meta[relay.Constant][5] /* ty=Tensor[(980), float64] */, dtype="float64") /* ty=Tensor[(980), float64] */;
  %124 = reshape(%123, newshape=[7, 14, 10]) /* ty=Tensor[(7, 14, 10), float64] */;
  %125 = cast(meta[relay.Constant][6] /* ty=Tensor[(440), float32] */, dtype="float32") /* ty=Tensor[(440), float32] */;
  %126 = cast(meta[relay.Constant][6] /* ty=Tensor[(440), float32] */, dtype="float32") /* ty=Tensor[(440), float32] */;
  %127 = reshape(%125, newshape=[11, 10, 4]) /* ty=Tensor[(11, 10, 4), float32] */;
  %128 = reshape(%126, newshape=[11, 10, 4]) /* ty=Tensor[(11, 10, 4), float32] */;
  %129 = %122.1;
  %130 = @func_3911(%124) /* ty=Tensor[(7, 14, 10), float64] */;
  %131 = @func_173(%127, %128) /* ty=Tensor[(11, 10, 4), float32] */;
  (%129, %130, meta[relay.Constant][5] /* ty=Tensor[(980), float64] */, %131, meta[relay.Constant][6] /* ty=Tensor[(440), float32] */)
}

def @func_5319() -> (Tensor[(13, 13, 8), bool],) {
  %132 = @func_3862() /* ty=(Tensor[(13, 13, 8), bool], Tensor[(13, 13, 8), bool]) */;
  %133 = %132.0;
  (%133,)
}

def @func_4127(%var_4110: Tensor[(7, 13, 14), float32]) -> (Tensor[(7, 13, 14), int16],) {
  %134 = cast(%var_4110, dtype="float32") /* ty=Tensor[(7, 13, 14), float32] */;
  %135 = sin(%134) /* ty=Tensor[(7, 13, 14), float32] */;
  %136 = cast(%var_4110, dtype="int16") /* ty=Tensor[(7, 13, 14), int16] */;
  %137 = shape_of(%135, dtype="int32") /* ty=Tensor[(3), int32] */;
  %138 = cast(%135, dtype="int16") /* ty=Tensor[(7, 13, 14), int16] */;
  %139 = dyn.reshape(%136, %137, newshape=[]) /* ty=Tensor[(?, ?, ?), int16] */;
  %140 = multiply(%138, %139) /* ty=Tensor[(7, 13, 14), int16] */;
  (%140,)
}

def @func_16093() -> Tensor[(13, 13, 8), bool] {
  @func_13582() /* ty=Tensor[(13, 13, 8), bool] */
}

def @func_10897() -> (Tensor[(7, 9, 15), float64],) {
  %141 = @func_3455() /* ty=(Tensor[(7, 9, 15), float64],) */;
  %142 = %141.0;
  (%142,)
}

def @func_14319() -> (Tensor[(13, 13, 8), float32],) {
  %143 = @func_8404() /* ty=(Tensor[(13, 13, 8), float32],) */;
  %144 = %143.0;
  (%144,)
}

def @func_9806(%var_9767: float32, %var_9768: Tensor[(14, 16, 14), float32]) -> (Tensor[(14, 16, 14), float32], Tensor[(13, 13, 8), float32], Tensor[(11, 10, 4), float32], Tensor[(1155), int8]) {
  %145 = cast(%var_9767, dtype="float32") /* ty=float32 */;
  %146 = cast(%var_9768, dtype="float32") /* ty=Tensor[(14, 16, 14), float32] */;
  %147 = @func_9249() /* ty=(Tensor[(13, 13, 8), float32], Tensor[(13, 13, 8), float32], Tensor[(360), uint8], Tensor[(300), float32], Tensor[(2, 180), uint8]) */;
  %148 = cast(meta[relay.Constant][7] /* ty=Tensor[(1155), int8] */, dtype="int8") /* ty=Tensor[(1155), int8] */;
  %149 = cast(meta[relay.Constant][7] /* ty=Tensor[(1155), int8] */, dtype="int8") /* ty=Tensor[(1155), int8] */;
  %150 = reshape(%148, newshape=[11, 15, 7]) /* ty=Tensor[(11, 15, 7), int8] */;
  %151 = reshape(%149, newshape=[11, 15, 7]) /* ty=Tensor[(11, 15, 7), int8] */;
  %152 = @func_257(%150, %151) /* ty=(Tensor[(11, 15, 7), uint16], Tensor[(11, 15, 7), uint64], Tensor[(11, 10, 4), float32], Tensor[(5, 88), float32], Tensor[(11, 10, 4), float32], Tensor[(11, 15, 7), float64]) */;
  %153 = floor_mod(%145, %146) /* ty=Tensor[(14, 16, 14), float32] */;
  %154 = %147.1;
  %155 = %152.2;
  (%153, %154, %155, meta[relay.Constant][7] /* ty=Tensor[(1155), int8] */)
}

def @func_5462() -> Tensor[(13, 13, 8), float32] {
  %156 = @func_2512() /* ty=(Tensor[(13, 13, 8), float32],) */;
  %157 = %156.0;
  %158 = cast(%157, dtype="float32") /* ty=Tensor[(13, 13, 8), float32] */;
  log(%158) /* ty=Tensor[(13, 13, 8), float32] */
}

def @func_14570(%var_14563: Tensor[(300), float32], %var_14567: Tensor[(36, 10), uint8]) -> (Tensor[(13, 13, 8), uint8], Tensor[(104), int16], Tensor[(300), float32], Tensor[(300), float32], Tensor[(36, 10), uint8]) {
  %159 = @func_9353() /* ty=(Tensor[(13, 13, 8), uint8],) */;
  %160 = cast(%var_14563, dtype="float32") /* ty=Tensor[(300), float32] */;
  %161 = reshape(%160, newshape=[1, 300]) /* ty=Tensor[(1, 300), float32] */;
  %162 = @func_14279(%161) /* ty=(Tensor[(13, 13, 8), uint8], Tensor[(13, 13, 8), float32], Tensor[(360), float32], Tensor[(104), int16], Tensor[(4, 5, 15), float32], Tensor[(1, 300), float32]) */;
  %163 = cast(%var_14563, dtype="float32") /* ty=Tensor[(300), float32] */;
  %164 = cast(%var_14567, dtype="uint8") /* ty=Tensor[(36, 10), uint8] */;
  %165 = reshape(%163, newshape=[300]) /* ty=Tensor[(300), float32] */;
  %166 = reshape(%164, newshape=[360]) /* ty=Tensor[(360), uint8] */;
  %167 = @func_4949(%165, %166) /* ty=(Tensor[(13, 13, 8), float32], Tensor[(11, 10, 4), float32], Tensor[(300), float32], Tensor[(360), uint8], Tensor[(13, 13, 8), float32]) */;
  %168 = %159.0;
  %169 = %162.3;
  %170 = %167.2;
  (%168, %169, %var_14563, %170, %var_14567)
}

def @func_15971(%var_15927: bool, %var_15928: Tensor[(2), bool]) -> (Tensor[(13, 13, 8), float32], Tensor[(2, 1), bool], bool, Tensor[(2), bool], Tensor[(7, 9, 15), float64], Tensor[(13, 13, 8), float32]) {
  %171 = @func_9523() /* ty=(Tensor[(300), float32], Tensor[(13, 13, 8), float32], Tensor[(13, 13, 8), float32]) */;
  %172 = cast(%var_15927, dtype="bool") /* ty=bool */;
  %173 = cast(%var_15928, dtype="bool") /* ty=Tensor[(2), bool] */;
  %174 = reshape(%172, newshape=[]) /* ty=bool */;
  %175 = reshape(%173, newshape=[2, 1]) /* ty=Tensor[(2, 1), bool] */;
  %176 = @func_7141(%174, %175) /* ty=(Tensor[(2, 1), bool], Tensor[(13, 13, 8), bool], Tensor[(54), float64]) */;
  %177 = @func_3455() /* ty=(Tensor[(7, 9, 15), float64],) */;
  %178 = @func_9874() /* ty=(Tensor[(104), int16], Tensor[(13, 13, 8), float32]) */;
  %179 = %171.1;
  %180 = %176.0;
  %181 = %177.0;
  %182 = %178.1;
  (%179, %180, %var_15927, %var_15928, %181, %182)
}

def @func_8034() -> (Tensor[(13, 13, 8), float32], Tensor[(13, 13, 8), float32]) {
  %183 = @func_5030() /* ty=(Tensor[(13, 13, 8), float32], Tensor[(13, 13, 8), float32]) */;
  %184 = @func_6870() /* ty=Tensor[(13, 13, 8), float32] */;
  %185 = %183.0;
  (%184, %185)
}

def @func_9353() -> (Tensor[(13, 13, 8), uint8],) {
  %186 = @func_6008() /* ty=(Tensor[(13, 13, 8), float32], Tensor[(13, 13, 8), uint8]) */;
  %187 = %186.1;
  (%187,)
}

def @func_8856() -> (Tensor[(13, 13, 8), float32], Tensor[(13, 13, 8), bool], Tensor[(9, 3, 5), float64], Tensor[(135), float64]) {
  %188 = @func_8276() /* ty=(Tensor[(13, 13, 8), float32],) */;
  %189 = @func_3862() /* ty=(Tensor[(13, 13, 8), bool], Tensor[(13, 13, 8), bool]) */;
  %190 = cast(meta[relay.Constant][8] /* ty=Tensor[(135), float64] */, dtype="float64") /* ty=Tensor[(135), float64] */;
  %191 = reshape(%190, newshape=[9, 3, 5]) /* ty=Tensor[(9, 3, 5), float64] */;
  %192 = %188.0;
  %193 = %189.1;
  %194 = @func_3225(%191) /* ty=Tensor[(9, 3, 5), float64] */;
  (%192, %193, %194, meta[relay.Constant][8] /* ty=Tensor[(135), float64] */)
}

def @func_13476() -> (Tensor[(13, 13, 8), float32], Tensor[(13, 13, 8), float32]) {
  %195 = @func_1602() /* ty=(Tensor[(7, 9, 15), float64], Tensor[(13, 13, 8), float32], Tensor[(104), int16], Tensor[(1352), int16]) */;
  %196 = @func_2429() /* ty=Tensor[(13, 13, 8), float32] */;
  %197 = %195.1;
  (%196, %197)
}

def @func_14911() -> (Tensor[(13, 13, 8), float32], Tensor[(13, 13, 8), float32], Tensor[(13, 13, 8), float32]) {
  %198 = @func_4182() /* ty=(Tensor[(13, 13, 8), float32], Tensor[(13, 13, 8), float32]) */;
  %199 = @func_2220() /* ty=(Tensor[(13, 13, 8), float32], Tensor[(4, 5, 15), float32], Tensor[(300), float32]) */;
  %200 = @func_4489() /* ty=Tensor[(13, 13, 8), float32] */;
  %201 = %198.1;
  %202 = %199.0;
  (%200, %201, %202)
}

def @func_13409() -> (Tensor[(13, 13, 8), uint8],) {
  %203 = @func_6008() /* ty=(Tensor[(13, 13, 8), float32], Tensor[(13, 13, 8), uint8]) */;
  %204 = %203.1;
  (%204,)
}

def @func_3469() -> (Tensor[(13, 13, 8), uint8],) {
  %205 = @func_1955() /* ty=(Tensor[(13, 13, 8), uint8],) */;
  %206 = %205.0;
  (%206,)
}

def @func_13339(%var_13298: Tensor[(440), float32]) -> (Tensor[(13, 13, 8), uint8], Tensor[(11, 10, 4), float32], Tensor[(440), float32], Tensor[(13, 13, 8), float32], Tensor[(13, 13, 8), float32]) {
  %207 = @func_12047() /* ty=(Tensor[(13, 13, 8), uint8],) */;
  %208 = cast(%var_13298, dtype="float32") /* ty=Tensor[(440), float32] */;
  %209 = cast(%var_13298, dtype="float32") /* ty=Tensor[(440), float32] */;
  %210 = reshape(%208, newshape=[11, 10, 4]) /* ty=Tensor[(11, 10, 4), float32] */;
  %211 = reshape(%209, newshape=[11, 10, 4]) /* ty=Tensor[(11, 10, 4), float32] */;
  %212 = @func_6977() /* ty=(Tensor[(13, 13, 8), float32],) */;
  %213 = %207.0;
  %214 = @func_173(%210, %211) /* ty=Tensor[(11, 10, 4), float32] */;
  %215 = %212.0;
  %216 = @func_5750() /* ty=Tensor[(13, 13, 8), float32] */;
  (%213, %214, %var_13298, %215, %216)
}

def @func_13428() -> Tensor[(13, 13, 8), float32] {
  %217 = @func_4849() /* ty=(Tensor[(13, 13, 8), float32],) */;
  %217.0
}

def @func_3890() -> (Tensor[(13, 13, 8), float32],) {
  %218 = @func_2602() /* ty=Tensor[(13, 13, 8), float32] */;
  (%218,)
}

def @func_13829() -> (Tensor[(13, 13, 8), float32], Tensor[(13, 13, 8), uint8], Tensor[(13, 13, 8), float32]) {
  %219 = @func_10382() /* ty=(Tensor[(13, 13, 8), float32],) */;
  %220 = @func_13409() /* ty=(Tensor[(13, 13, 8), uint8],) */;
  %221 = @func_13476() /* ty=(Tensor[(13, 13, 8), float32], Tensor[(13, 13, 8), float32]) */;
  %222 = %219.0;
  %223 = %220.0;
  %224 = %221.1;
  (%222, %223, %224)
}

def @func_4182() -> (Tensor[(13, 13, 8), float32], Tensor[(13, 13, 8), float32]) {
  %225 = @func_3773() /* ty=Tensor[(13, 13, 8), float32] */;
  %226 = @func_3978() /* ty=Tensor[(13, 13, 8), float32] */;
  (%225, %226)
}

def @func_4771(%var_4659: Tensor[(432), float64], %var_4660: Tensor[(1, 440), float32], %var_4673: Tensor[(120), int64]) -> (Tensor[(13, 13, 8), float32], Tensor[(432), float64], Tensor[(13, 13, 8), float32], Tensor[(120), int64], Tensor[(360), uint8], Tensor[(13, 13, 8), float32], Tensor[(?, 440), int16], Tensor[(13, 13, 8), float32]) {
  %227 = @func_4191() /* ty=(Tensor[(13, 13, 8), float32], Tensor[(13, 13, 8), float32]) */;
  %228 = cast(%var_4673, dtype="int64") /* ty=Tensor[(120), int64] */;
  %229 = reshape(%228, newshape=[10, 4, 3]) /* ty=Tensor[(10, 4, 3), int64] */;
  %230 = @func_3703(%229) /* ty=(Tensor[(10, 4, 3), int64], Tensor[(13, 13, 8), float32], Tensor[(1440), uint16], Tensor[(300), float32], Tensor[(360), uint8], Tensor[(7, 9, 15), float64], Tensor[(13, 13, 8), float32]) */;
  %231 = @func_4182() /* ty=(Tensor[(13, 13, 8), float32], Tensor[(13, 13, 8), float32]) */;
  %232 = cast(%var_4659, dtype="float64") /* ty=Tensor[(432), float64] */;
  %233 = cast(%var_4660, dtype="float32") /* ty=Tensor[(1, 440), float32] */;
  %234 = reshape(%232, newshape=[12, 4, 9]) /* ty=Tensor[(12, 4, 9), float64] */;
  %235 = reshape(%233, newshape=[220, 2]) /* ty=Tensor[(220, 2), float32] */;
  %236 = @func_2282(%234, %235) /* ty=(Tensor[(12, 4, 9), float64], Tensor[(11, 10, 4), float32], Tensor[(220, 2), float32]) */;
  %237 = %236.2;
  %238 = cast(%237, dtype="float32") /* ty=Tensor[(220, 2), float32] */;
  %239 = shape_of(%var_4660, dtype="int32") /* ty=Tensor[(2), int32] */;
  %240 = cast(%var_4660, dtype="float32") /* ty=Tensor[(1, 440), float32] */;
  %241 = dyn.reshape(%238, %239, newshape=[]) /* ty=Tensor[(?, ?), float32] */;
  %242 = floor_divide(%240, %241) /* ty=Tensor[(?, 440), float32] */;
  %243 = cast(%242, dtype="float32") /* ty=Tensor[(?, 440), float32] */;
  %244 = exp(%243) /* ty=Tensor[(?, 440), float32] */;
  %245 = cast(%242, dtype="int16") /* ty=Tensor[(?, 440), int16] */;
  %246 = shape_of(%244, dtype="int32") /* ty=Tensor[(2), int32] */;
  %247 = cast(%244, dtype="int16") /* ty=Tensor[(?, 440), int16] */;
  %248 = dyn.reshape(%245, %246, newshape=[]) /* ty=Tensor[(?, ?), int16] */;
  %249 = %227.1;
  %250 = %230.6;
  %251 = @func_4572() /* ty=Tensor[(360), uint8] */;
  %252 = %231.0;
  %253 = subtract(%247, %248) /* ty=Tensor[(?, 440), int16] */;
  %254 = @func_2602() /* ty=Tensor[(13, 13, 8), float32] */;
  (%249, %var_4659, %250, %var_4673, %251, %252, %253, %254)
}

def @func_4642() -> (Tensor[(104), int16],) {
  %255 = @func_1602() /* ty=(Tensor[(7, 9, 15), float64], Tensor[(13, 13, 8), float32], Tensor[(104), int16], Tensor[(1352), int16]) */;
  %256 = %255.2;
  (%256,)
}

def @func_6977() -> (Tensor[(13, 13, 8), float32],) {
  %257 = @func_2378() /* ty=(Tensor[(13, 13, 8), float32],) */;
  %258 = %257.0;
  (%258,)
}

def @func_6843() -> (Tensor[(13, 13, 8), float64], Tensor[(13, 13, 8), float32], Tensor[(13, 13, 8), float32]) {
  %259 = @func_5515() /* ty=(Tensor[(13, 13, 8), float32], Tensor[(13, 13, 8), float32]) */;
  %260 = @func_2378() /* ty=(Tensor[(13, 13, 8), float32],) */;
  %261 = @func_5903() /* ty=Tensor[(13, 13, 8), float64] */;
  %262 = %259.1;
  %263 = %260.0;
  (%261, %262, %263)
}

def @func_9606(%var_9592: Tensor[(12, 13, 16), float64]) -> Tensor[(12, 13, 16), float64] {
  %264 = cast(%var_9592, dtype="float64") /* ty=Tensor[(12, 13, 16), float64] */;
  %265 = shape_of(meta[relay.Constant][9] /* ty=Tensor[(12, 13, 16), float64] */, dtype="int32") /* ty=Tensor[(3), int32] */;
  %266 = cast(meta[relay.Constant][9] /* ty=Tensor[(12, 13, 16), float64] */, dtype="float64") /* ty=Tensor[(12, 13, 16), float64] */;
  %267 = dyn.reshape(%264, %265, newshape=[]) /* ty=Tensor[(?, ?, ?), float64] */;
  floor_divide(%266, %267) /* ty=Tensor[(12, 13, 16), float64] */
}

def @func_6449() -> (Tensor[(13, 13, 8), float32],) {
  %268 = @func_3773() /* ty=Tensor[(13, 13, 8), float32] */;
  (%268,)
}

def @func_11924() -> (Tensor[(13, 13, 8), float32], Tensor[(13, 13, 8), float32]) {
  %269 = @func_10441() /* ty=(Tensor[(13, 13, 8), float32],) */;
  %270 = @func_2648() /* ty=(Tensor[(13, 13, 8), float32],) */;
  %271 = %269.0;
  %272 = %270.0;
  (%271, %272)
}

def @func_11431() -> Tensor[(13, 13, 8), float32] {
  %273 = @func_7515() /* ty=(Tensor[(13, 13, 8), float32],) */;
  %273.0
}

def @func_7872() -> Tensor[(300), float32] {
  %274 = @func_2220() /* ty=(Tensor[(13, 13, 8), float32], Tensor[(4, 5, 15), float32], Tensor[(300), float32]) */;
  %274.2
}

def @func_3455() -> (Tensor[(7, 9, 15), float64],) {
  %275 = @func_1602() /* ty=(Tensor[(7, 9, 15), float64], Tensor[(13, 13, 8), float32], Tensor[(104), int16], Tensor[(1352), int16]) */;
  %276 = %275.0;
  (%276,)
}

def @func_3862() -> (Tensor[(13, 13, 8), bool], Tensor[(13, 13, 8), bool]) {
  %277 = @func_2788() /* ty=(Tensor[(13, 13, 8), bool],) */;
  %278 = @func_2788() /* ty=(Tensor[(13, 13, 8), bool],) */;
  %279 = %277.0;
  %280 = %278.0;
  (%279, %280)
}

def @func_6673(%var_6664: Tensor[(286), float32]) -> (Tensor[(13, 13, 8), uint8], Tensor[(13, 13, 8), float32], Tensor[(286), float32]) {
  %281 = @func_3469() /* ty=(Tensor[(13, 13, 8), uint8],) */;
  %282 = cast(%var_6664, dtype="float32") /* ty=Tensor[(286), float32] */;
  %283 = reshape(%282, newshape=[26, 11]) /* ty=Tensor[(26, 11), float32] */;
  %284 = @func_5733(%283) /* ty=(Tensor[(13, 13, 8), float32], Tensor[(13, 13, 8), float32], Tensor[(13, 11, 2), float64], Tensor[(26, 11), float32]) */;
  %285 = %281.0;
  %286 = %284.1;
  (%285, %286, %var_6664)
}

def @func_1955() -> (Tensor[(13, 13, 8), uint8],) {
  %287 = @func_1785() /* ty=Tensor[(13, 13, 8), float32] */;
  %288 = cast(%287, dtype="float32") /* ty=Tensor[(13, 13, 8), float32] */;
  %289 = acosh(%288) /* ty=Tensor[(13, 13, 8), float32] */;
  %290 = cast(%287, dtype="uint8") /* ty=Tensor[(13, 13, 8), uint8] */;
  %291 = shape_of(%289, dtype="int32") /* ty=Tensor[(3), int32] */;
  %292 = cast(%289, dtype="uint8") /* ty=Tensor[(13, 13, 8), uint8] */;
  %293 = dyn.reshape(%290, %291, newshape=[]) /* ty=Tensor[(?, ?, ?), uint8] */;
  %294 = subtract(%292, %293) /* ty=Tensor[(13, 13, 8), uint8] */;
  (%294,)
}

def @func_2378() -> (Tensor[(13, 13, 8), float32],) {
  %295 = @func_2250() /* ty=Tensor[(13, 13, 8), float32] */;
  (%295,)
}

def @func_12992() -> (Tensor[(13, 13, 8), float32], Tensor[(13, 13, 8), uint8]) {
  %296 = @func_3745() /* ty=(Tensor[(13, 13, 8), float32], Tensor[(13, 13, 8), float32]) */;
  %297 = @func_5608() /* ty=(Tensor[(13, 13, 8), float32], Tensor[(13, 13, 8), uint8], Tensor[(54), float64]) */;
  %298 = %296.1;
  %299 = %297.1;
  (%298, %299)
}

def @func_4796() -> Tensor[(13, 13, 8), float32] {
  @func_3773() /* ty=Tensor[(13, 13, 8), float32] */
}

def @func_12923() -> (Tensor[(300), float32],) {
  %300 = @func_12514() /* ty=(Tensor[(6, 7, 3), float64], Tensor[(300), float32], Tensor[(7, 9, 15), float64], Tensor[(360), uint8], Tensor[(13, 13, 8), float32], Tensor[(220, 2), float32], Tensor[(432), float64], Tensor[(5, 88), float32]) */;
  %301 = %300.1;
  (%301,)
}

def @func_13798() -> (Tensor[(13, 13, 8), float32], Tensor[(13, 13, 8), bool], Tensor[(13, 13, 8), float64]) {
  %302 = @func_13476() /* ty=(Tensor[(13, 13, 8), float32], Tensor[(13, 13, 8), float32]) */;
  %303 = @func_5319() /* ty=(Tensor[(13, 13, 8), bool],) */;
  %304 = %302.1;
  %305 = %303.0;
  %306 = @func_5903() /* ty=Tensor[(13, 13, 8), float64] */;
  (%304, %305, %306)
}

def @func_13524() -> (Tensor[(135), float64],) {
  %307 = @func_10144() /* ty=(Tensor[(135), float64],) */;
  %308 = %307.0;
  (%308,)
}

def @func_2429() -> Tensor[(13, 13, 8), float32] {
  @func_2250() /* ty=Tensor[(13, 13, 8), float32] */
}

def @func_6193() -> (Tensor[(14, 7, 1), float64],) {
  %309 = cast(meta[relay.Constant][10] /* ty=Tensor[(14, 7, 1), float64] */, dtype="float64") /* ty=Tensor[(14, 7, 1), float64] */;
  %310 = sigmoid(%309) /* ty=Tensor[(14, 7, 1), float64] */;
  (%310,)
}

def @func_14213() -> (Tensor[(13, 13, 8), uint8], Tensor[(54), float64], Tensor[(208), float32], Tensor[(13, 13, 8), float32], Tensor[(13, 13, 8), float32], Tensor[(13, 13, 8), bool]) {
  %311 = @func_14118() /* ty=(Tensor[(13, 13, 8), uint8],) */;
  %312 = cast(meta[relay.Constant][11] /* ty=Tensor[(208), float32] */, dtype="float32") /* ty=Tensor[(208), float32] */;
  %313 = reshape(%312, newshape=[2, 8, 13]) /* ty=Tensor[(2, 8, 13), float32] */;
  %314 = @func_9398(%313) /* ty=(Tensor[(2, 8, 13), float32], Tensor[(54), float64], bool, Tensor[(2), bool]) */;
  %315 = @func_11247() /* ty=(Tensor[(360), uint8], Tensor[(13, 13, 8), float32], Tensor[(13, 13, 8), float32], Tensor[(13, 13, 8), float32], Tensor[(13, 13, 8), float32], Tensor[(13, 13, 8), float32], Tensor[(432), float64], Tensor[(440), float32], Tensor[(120), int64], Tensor[(13, 13, 8), float32]) */;
  %316 = @func_5319() /* ty=(Tensor[(13, 13, 8), bool],) */;
  %317 = %311.0;
  %318 = %314.1;
  %319 = %315.1;
  %320 = @func_5561() /* ty=Tensor[(13, 13, 8), float32] */;
  %321 = %316.0;
  (%317, %318, meta[relay.Constant][11] /* ty=Tensor[(208), float32] */, %319, %320, %321)
}

def @func_5030() -> (Tensor[(13, 13, 8), float32], Tensor[(13, 13, 8), float32]) {
  %322 = @func_4849() /* ty=(Tensor[(13, 13, 8), float32],) */;
  %323 = @func_3649() /* ty=Tensor[(13, 13, 8), float32] */;
  %324 = %322.0;
  (%323, %324)
}

def @func_15083() -> (Tensor[(300), float32],) {
  %325 = @func_12923() /* ty=(Tensor[(300), float32],) */;
  %326 = %325.0;
  (%326,)
}

def @func_10300() -> (Tensor[(13, 13, 8), float32], Tensor[(440), float32]) {
  %327 = @func_5278() /* ty=(Tensor[(13, 13, 8), float32], Tensor[(7, 14, 10), float64], Tensor[(980), float64], Tensor[(11, 10, 4), float32], Tensor[(440), float32]) */;
  %328 = @func_5462() /* ty=Tensor[(13, 13, 8), float32] */;
  %329 = %327.4;
  (%328, %329)
}

def @func_10743() -> (Tensor[(13, 13, 8), float32],) {
  %330 = @func_5608() /* ty=(Tensor[(13, 13, 8), float32], Tensor[(13, 13, 8), uint8], Tensor[(54), float64]) */;
  %331 = %330.0;
  (%331,)
}

def @func_10144() -> (Tensor[(135), float64],) {
  %332 = @func_7436() /* ty=(Tensor[(13, 13, 8), float32], Tensor[(13, 13, 8), float32], Tensor[(9, 3, 5), float64], Tensor[(135), float64]) */;
  %333 = %332.3;
  (%333,)
}

def @func_6295() -> (Tensor[(13, 13, 8), float32], Tensor[(54), float32], Tensor[(54), float64], Tensor[(13, 13, 8), float32]) {
  %334 = cast(meta[relay.Constant][12] /* ty=Tensor[(54), float64] */, dtype="float64") /* ty=Tensor[(54), float64] */;
  %335 = reshape(%334, newshape=[54]) /* ty=Tensor[(54), float64] */;
  %336 = @func_5015(%335) /* ty=(Tensor[(13, 13, 8), float32], Tensor[(360), uint8], Tensor[(54), float32]) */;
  %337 = @func_5515() /* ty=(Tensor[(13, 13, 8), float32], Tensor[(13, 13, 8), float32]) */;
  %338 = @func_1785() /* ty=Tensor[(13, 13, 8), float32] */;
  %339 = %336.2;
  %340 = %337.0;
  (%338, %339, meta[relay.Constant][12] /* ty=Tensor[(54), float64] */, %340)
}

def @func_3028(%var_3026: Tensor[(440), float32]) -> (Tensor[(13, 13, 8), bool], Tensor[(11, 10, 4), float32], Tensor[(440), float32]) {
  %341 = @func_2788() /* ty=(Tensor[(13, 13, 8), bool],) */;
  %342 = cast(%var_3026, dtype="float32") /* ty=Tensor[(440), float32] */;
  %343 = cast(%var_3026, dtype="float32") /* ty=Tensor[(440), float32] */;
  %344 = reshape(%342, newshape=[11, 10, 4]) /* ty=Tensor[(11, 10, 4), float32] */;
  %345 = reshape(%343, newshape=[11, 10, 4]) /* ty=Tensor[(11, 10, 4), float32] */;
  %346 = %341.0;
  %347 = @func_173(%344, %345) /* ty=Tensor[(11, 10, 4), float32] */;
  (%346, %347, %var_3026)
}

def @func_5244() -> (Tensor[(13, 13, 8), float32], Tensor[(13, 13, 8), float32], Tensor[(13, 13, 8), float32]) {
  %348 = @func_2762() /* ty=(Tensor[(300), float32], Tensor[(300), float32], Tensor[(13, 13, 8), float32]) */;
  %349 = @func_5030() /* ty=(Tensor[(13, 13, 8), float32], Tensor[(13, 13, 8), float32]) */;
  %350 = %348.2;
  %351 = %349.1;
  %352 = @func_4460() /* ty=Tensor[(13, 13, 8), float32] */;
  (%350, %351, %352)
}

def @func_3745() -> (Tensor[(13, 13, 8), float32], Tensor[(13, 13, 8), float32]) {
  %353 = @func_2548() /* ty=(Tensor[(13, 13, 8), float32], Tensor[(13, 13, 8), float32]) */;
  %354 = @func_1955() /* ty=(Tensor[(13, 13, 8), uint8],) */;
  %355 = %354.0;
  %356 = cast(%355, dtype="float32") /* ty=Tensor[(13, 13, 8), float32] */;
  %357 = %353.1;
  %358 = acos(%356) /* ty=Tensor[(13, 13, 8), float32] */;
  (%357, %358)
}

def @func_8925() -> Tensor[(13, 13, 8), float32] {
  %359 = @func_8276() /* ty=(Tensor[(13, 13, 8), float32],) */;
  %359.0
}

def @func_15327() -> Tensor[(13, 13, 8), float32] {
  %360 = @func_14420() /* ty=(Tensor[(13, 13, 8), float32],) */;
  %360.0
}

def @func_15184() -> (Tensor[(13, 13, 8), float32], Tensor[(13, 13, 8), bool], Tensor[(7, 9, 15), float64]) {
  %361 = @func_2788() /* ty=(Tensor[(13, 13, 8), bool],) */;
  %362 = @func_5396() /* ty=(Tensor[(7, 9, 15), float64],) */;
  %363 = @func_4460() /* ty=Tensor[(13, 13, 8), float32] */;
  %364 = %361.0;
  %365 = %362.0;
  (%363, %364, %365)
}

def @func_8112() -> Tensor[(13, 13, 8), float32] {
  %366 = @func_4182() /* ty=(Tensor[(13, 13, 8), float32], Tensor[(13, 13, 8), float32]) */;
  %366.0
}

def @func_10926() -> (Tensor[(2, 180), uint8], Tensor[(13, 13, 8), float32], Tensor[(13, 13, 8), bool]) {
  %367 = @func_9249() /* ty=(Tensor[(13, 13, 8), float32], Tensor[(13, 13, 8), float32], Tensor[(360), uint8], Tensor[(300), float32], Tensor[(2, 180), uint8]) */;
  %368 = %367.4;
  %369 = @func_8925() /* ty=Tensor[(13, 13, 8), float32] */;
  %370 = @func_6720() /* ty=Tensor[(13, 13, 8), bool] */;
  (%368, %369, %370)
}

def @func_12616() -> Tensor[(135), float64] {
  %371 = @func_10144() /* ty=(Tensor[(135), float64],) */;
  %371.0
}

def @func_15850() -> (Tensor[(13, 13, 8), uint8], Tensor[(13, 13, 8), float32]) {
  %372 = @func_12660() /* ty=(Tensor[(13, 13, 8), float32], Tensor[(13, 13, 8), bool], Tensor[(13, 13, 8), uint8]) */;
  %373 = %372.2;
  %374 = @func_3773() /* ty=Tensor[(13, 13, 8), float32] */;
  (%373, %374)
}

def @func_14881(%var_14840: Tensor[(300), float32]) -> (Tensor[(300), bool], Tensor[(13, 13, 8), float32], Tensor[(13, 13, 8), float32]) {
  %375 = @func_12923() /* ty=(Tensor[(300), float32],) */;
  %376 = %375.0;
  %377 = cast(%var_14840, dtype="bool") /* ty=Tensor[(300), bool] */;
  %378 = shape_of(%376, dtype="int32") /* ty=Tensor[(1), int32] */;
  %379 = cast(%376, dtype="bool") /* ty=Tensor[(300), bool] */;
  %380 = dyn.reshape(%377, %378, newshape=[]) /* ty=Tensor[(?), bool] */;
  %381 = @func_11828() /* ty=(Tensor[(13, 13, 8), float32], Tensor[(13, 13, 8), bool]) */;
  %382 = less(%379, %380) /* ty=Tensor[(300), bool] */;
  %383 = cast(%382, dtype="float32") /* ty=Tensor[(300), float32] */;
  %384 = reshape(%383, newshape=[1, 300]) /* ty=Tensor[(1, 300), float32] */;
  %385 = @func_14279(%384) /* ty=(Tensor[(13, 13, 8), uint8], Tensor[(13, 13, 8), float32], Tensor[(360), float32], Tensor[(104), int16], Tensor[(4, 5, 15), float32], Tensor[(1, 300), float32]) */;
  %386 = %381.0;
  %387 = %385.1;
  (%382, %386, %387)
}

def @func_16145() -> (Tensor[(13, 13, 8), float32],) {
  %388 = @func_5030() /* ty=(Tensor[(13, 13, 8), float32], Tensor[(13, 13, 8), float32]) */;
  %389 = %388.0;
  (%389,)
}

def @func_7006() -> (Tensor[(13, 13, 8), float32],) {
  %390 = @func_3649() /* ty=Tensor[(13, 13, 8), float32] */;
  (%390,)
}

def @func_6050() -> (Tensor[(13, 13, 8), uint8],) {
  %391 = @func_4560() /* ty=(Tensor[(13, 13, 8), uint8], Tensor[(13, 13, 8), float32], Tensor[(13, 13, 8), float32]) */;
  %392 = %391.0;
  (%392,)
}

def @func_9249() -> (Tensor[(13, 13, 8), float32], Tensor[(13, 13, 8), float32], Tensor[(360), uint8], Tensor[(300), float32], Tensor[(2, 180), uint8]) {
  %393 = @func_5750() /* ty=Tensor[(13, 13, 8), float32] */;
  %394 = cast(%393, dtype="float32") /* ty=Tensor[(13, 13, 8), float32] */;
  %395 = @func_5244() /* ty=(Tensor[(13, 13, 8), float32], Tensor[(13, 13, 8), float32], Tensor[(13, 13, 8), float32]) */;
  %396 = cast(meta[relay.Constant][13] /* ty=Tensor[(300), float32] */, dtype="float32") /* ty=Tensor[(300), float32] */;
  %397 = cast(meta[relay.Constant][14] /* ty=Tensor[(2, 180), uint8] */, dtype="uint8") /* ty=Tensor[(2, 180), uint8] */;
  %398 = reshape(%396, newshape=[300]) /* ty=Tensor[(300), float32] */;
  %399 = reshape(%397, newshape=[360]) /* ty=Tensor[(360), uint8] */;
  %400 = @func_4949(%398, %399) /* ty=(Tensor[(13, 13, 8), float32], Tensor[(11, 10, 4), float32], Tensor[(300), float32], Tensor[(360), uint8], Tensor[(13, 13, 8), float32]) */;
  %401 = asinh(%394) /* ty=Tensor[(13, 13, 8), float32] */;
  %402 = %395.2;
  %403 = %400.3;
  (%401, %402, %403, meta[relay.Constant][13] /* ty=Tensor[(300), float32] */, meta[relay.Constant][14] /* ty=Tensor[(2, 180), uint8] */)
}

def @func_7821() -> Tensor[(13, 13, 8), float32] {
  @func_3649() /* ty=Tensor[(13, 13, 8), float32] */
}

def @func_2282(%var_2265: Tensor[(12, 4, 9), float64], %var_2279: Tensor[(220, 2), float32]) -> (Tensor[(12, 4, 9), float64], Tensor[(11, 10, 4), float32], Tensor[(220, 2), float32]) {
  %404 = cast(%var_2265, dtype="float64") /* ty=Tensor[(12, 4, 9), float64] */;
  %405 = cast(%var_2279, dtype="float32") /* ty=Tensor[(220, 2), float32] */;
  %406 = cast(%var_2279, dtype="float32") /* ty=Tensor[(220, 2), float32] */;
  %407 = reshape(%405, newshape=[11, 10, 4]) /* ty=Tensor[(11, 10, 4), float32] */;
  %408 = reshape(%406, newshape=[11, 10, 4]) /* ty=Tensor[(11, 10, 4), float32] */;
  %409 = log10(%404) /* ty=Tensor[(12, 4, 9), float64] */;
  %410 = @func_173(%407, %408) /* ty=Tensor[(11, 10, 4), float32] */;
  (%409, %410, %var_2279)
}

def @func_4560() -> (Tensor[(13, 13, 8), uint8], Tensor[(13, 13, 8), float32], Tensor[(13, 13, 8), float32]) {
  %411 = @func_1955() /* ty=(Tensor[(13, 13, 8), uint8],) */;
  %412 = @func_3745() /* ty=(Tensor[(13, 13, 8), float32], Tensor[(13, 13, 8), float32]) */;
  %413 = %411.0;
  %414 = %412.0;
  %415 = @func_4460() /* ty=Tensor[(13, 13, 8), float32] */;
  (%413, %414, %415)
}

def @func_303(%var_277: Tensor[(10, 9, 4), uint8]) -> (Tensor[(10, 9, 4), bool],) {
  %416 = cast(meta[relay.Constant][15] /* ty=Tensor[(10, 9, 4), uint8] */, dtype="bool") /* ty=Tensor[(10, 9, 4), bool] */;
  %417 = shape_of(%var_277, dtype="int32") /* ty=Tensor[(3), int32] */;
  %418 = cast(%var_277, dtype="bool") /* ty=Tensor[(10, 9, 4), bool] */;
  %419 = dyn.reshape(%416, %417, newshape=[]) /* ty=Tensor[(?, ?, ?), bool] */;
  %420 = less_equal(%418, %419) /* ty=Tensor[(10, 9, 4), bool] */;
  (%420,)
}

def @func_8404() -> (Tensor[(13, 13, 8), float32],) {
  %421 = @func_8316() /* ty=Tensor[(13, 13, 8), float32] */;
  (%421,)
}

def @func_13846() -> Tensor[(13, 13, 8), float32] {
  %422 = @func_10875() /* ty=(Tensor[(13, 13, 8), float32], Tensor[(13, 13, 8), float64], Tensor[(360), uint8], Tensor[(13, 13, 8), bool], Tensor[(13, 13, 8), float32], Tensor[(13, 13, 8), float32], Tensor[(13, 13, 8), float32], Tensor[(13, 13, 8), float32], Tensor[(104), int16]) */;
  %422.0
}

def @func_5608() -> (Tensor[(13, 13, 8), float32], Tensor[(13, 13, 8), uint8], Tensor[(54), float64]) {
  %423 = cast(meta[relay.Constant][16] /* ty=Tensor[(54), float64] */, dtype="float64") /* ty=Tensor[(54), float64] */;
  %424 = reshape(%423, newshape=[54]) /* ty=Tensor[(54), float64] */;
  %425 = @func_2030(%424) /* ty=(Tensor[(13, 13, 8), uint8], Tensor[(7, 9, 15), float64], Tensor[(10, 9, 4), bool], Tensor[(360), uint8], Tensor[(1, 9, 6), float64], Tensor[(54), float64]) */;
  %426 = @func_1785() /* ty=Tensor[(13, 13, 8), float32] */;
  %427 = %425.0;
  (%426, %427, meta[relay.Constant][16] /* ty=Tensor[(54), float64] */)
}

def @func_5798() -> (Tensor[(13, 13, 8), float32], Tensor[(13, 13, 8), float32], Tensor[(104), int16], Tensor[(13, 13, 8), uint8]) {
  %428 = @func_3309() /* ty=(Tensor[(13, 13, 8), float32], Tensor[(10, 9, 4), bool], Tensor[(360), uint8]) */;
  %429 = @func_5244() /* ty=(Tensor[(13, 13, 8), float32], Tensor[(13, 13, 8), float32], Tensor[(13, 13, 8), float32]) */;
  %430 = %429.1;
  %431 = cast(%430, dtype="int16") /* ty=Tensor[(13, 13, 8), int16] */;
  %432 = reshape(%431, newshape=[1352]) /* ty=Tensor[(1352), int16] */;
  %433 = @func_3011(%432) /* ty=(Tensor[(104), int16], Tensor[(13, 13, 8), float32], Tensor[(1352), int16]) */;
  %434 = @func_5608() /* ty=(Tensor[(13, 13, 8), float32], Tensor[(13, 13, 8), uint8], Tensor[(54), float64]) */;
  %435 = %428.0;
  %436 = %433.0;
  %437 = %434.1;
  (%435, %430, %436, %437)
}

def @func_14042(%var_14030: Tensor[(104), int16]) -> (Tensor[(11, 15, 2), float64], Tensor[(13, 13, 8), bool], Tensor[(104), int16], Tensor[(1352), int16]) {
  %438 = @func_12304() /* ty=(Tensor[(11, 15, 2), float64], Tensor[(3, 5, 8), int32], Tensor[(120), int32], Tensor[(13, 13, 8), float32], Tensor[(13, 13, 8), float32], Tensor[(13, 13, 8), float32]) */;
  %439 = cast(%var_14030, dtype="int16") /* ty=Tensor[(104), int16] */;
  %440 = cast(meta[relay.Constant][17] /* ty=Tensor[(1352), int16] */, dtype="int16") /* ty=Tensor[(1352), int16] */;
  %441 = reshape(%439, newshape=[13, 1, 8]) /* ty=Tensor[(13, 1, 8), int16] */;
  %442 = reshape(%440, newshape=[13, 13, 8]) /* ty=Tensor[(13, 13, 8), int16] */;
  %443 = @func_1527(%441, %442) /* ty=(Tensor[(13, 13, 8), bool], Tensor[(13, 13, 8), float32]) */;
  %444 = %438.0;
  %445 = %443.0;
  (%444, %445, %var_14030, meta[relay.Constant][17] /* ty=Tensor[(1352), int16] */)
}

def @func_11139(%var_11137: Tensor[(91, 14), float32]) -> (Tensor[(13, 13, 8), float32], Tensor[(7, 9, 15), float64], Tensor[(7, 13, 14), int16], Tensor[(91, 14), float32]) {
  %446 = @func_6325() /* ty=(Tensor[(13, 13, 8), float32], Tensor[(13, 13, 8), float32]) */;
  %447 = @func_3455() /* ty=(Tensor[(7, 9, 15), float64],) */;
  %448 = cast(%var_11137, dtype="float32") /* ty=Tensor[(91, 14), float32] */;
  %449 = reshape(%448, newshape=[7, 13, 14]) /* ty=Tensor[(7, 13, 14), float32] */;
  %450 = @func_4127(%449) /* ty=(Tensor[(7, 13, 14), int16],) */;
  %451 = %446.0;
  %452 = %447.0;
  %453 = %450.0;
  (%451, %452, %453, %var_11137)
}

def @func_15679() -> Tensor[(13, 13, 8), float32] {
  @func_2429() /* ty=Tensor[(13, 13, 8), float32] */
}

def @func_3773() -> Tensor[(13, 13, 8), float32] {
  %454 = @func_3309() /* ty=(Tensor[(13, 13, 8), float32], Tensor[(10, 9, 4), bool], Tensor[(360), uint8]) */;
  %454.0
}

def @func_3649() -> Tensor[(13, 13, 8), float32] {
  @func_2602() /* ty=Tensor[(13, 13, 8), float32] */
}

def @func_3911(%var_3906: Tensor[(7, 14, 10), float64]) -> Tensor[(7, 14, 10), float64] {
  %455 = cast(meta[relay.Constant][18] /* ty=Tensor[(7, 14, 10), float64] */, dtype="float64") /* ty=Tensor[(7, 14, 10), float64] */;
  %456 = shape_of(%var_3906, dtype="int32") /* ty=Tensor[(3), int32] */;
  %457 = cast(%var_3906, dtype="float64") /* ty=Tensor[(7, 14, 10), float64] */;
  %458 = dyn.reshape(%455, %456, newshape=[]) /* ty=Tensor[(?, ?, ?), float64] */;
  divide(%457, %458) /* ty=Tensor[(7, 14, 10), float64] */
}

def @func_4099(%var_4059: Tensor[(7, 4, 13), int32], %var_4076: Tensor[(7, 4, 13), int32]) -> (Tensor[(7, 4, 13), bool], Tensor[(7, 4, 13), float32], Tensor[(360), uint8]) {
  %459 = cast(%var_4059, dtype="bool") /* ty=Tensor[(7, 4, 13), bool] */;
  %460 = shape_of(meta[relay.Constant][19] /* ty=Tensor[(7, 4, 13), int32] */, dtype="int32") /* ty=Tensor[(3), int32] */;
  %461 = cast(meta[relay.Constant][19] /* ty=Tensor[(7, 4, 13), int32] */, dtype="bool") /* ty=Tensor[(7, 4, 13), bool] */;
  %462 = dyn.reshape(%459, %460, newshape=[]) /* ty=Tensor[(?, ?, ?), bool] */;
  %463 = cast(%var_4076, dtype="float32") /* ty=Tensor[(7, 4, 13), float32] */;
  %464 = shape_of(%var_4059, dtype="int32") /* ty=Tensor[(3), int32] */;
  %465 = cast(%var_4059, dtype="float32") /* ty=Tensor[(7, 4, 13), float32] */;
  %466 = dyn.reshape(%463, %464, newshape=[]) /* ty=Tensor[(?, ?, ?), float32] */;
  %467 = @func_3309() /* ty=(Tensor[(13, 13, 8), float32], Tensor[(10, 9, 4), bool], Tensor[(360), uint8]) */;
  %468 = less_equal(%461, %462) /* ty=Tensor[(7, 4, 13), bool] */;
  %469 = divide(%465, %466) /* ty=Tensor[(7, 4, 13), float32] */;
  %470 = %467.2;
  (%468, %469, %470)
}

def @func_4849() -> (Tensor[(13, 13, 8), float32],) {
  %471 = @func_3745() /* ty=(Tensor[(13, 13, 8), float32], Tensor[(13, 13, 8), float32]) */;
  %472 = %471.0;
  (%472,)
}

def @func_1527(%var_1510: Tensor[(13, 1, 8), int16], %var_1511: Tensor[(13, 13, 8), int16]) -> (Tensor[(13, 13, 8), bool], Tensor[(13, 13, 8), float32]) {
  %473 = cast(%var_1510, dtype="bool") /* ty=Tensor[(13, 1, 8), bool] */;
  %474 = cast(%var_1511, dtype="bool") /* ty=Tensor[(13, 13, 8), bool] */;
  %475 = cast(%var_1510, dtype="float32") /* ty=Tensor[(13, 1, 8), float32] */;
  %476 = cast(%var_1511, dtype="float32") /* ty=Tensor[(13, 13, 8), float32] */;
  %477 = less_equal(%473, %474) /* ty=Tensor[(13, 13, 8), bool] */;
  %478 = multiply(%475, %476) /* ty=Tensor[(13, 13, 8), float32] */;
  (%477, %478)
}

def @func_4025(%var_4013: Tensor[(1352), int16], %var_4023: Tensor[(300), float32]) -> (Tensor[(104), int16], Tensor[(13, 13, 8), float32], Tensor[(1352), int16], Tensor[(13, 13, 8), float32], Tensor[(4, 5, 15), float32], Tensor[(300), float32]) {
  %479 = @func_1602() /* ty=(Tensor[(7, 9, 15), float64], Tensor[(13, 13, 8), float32], Tensor[(104), int16], Tensor[(1352), int16]) */;
  %480 = %479.2;
  %481 = cast(%480, dtype="int16") /* ty=Tensor[(104), int16] */;
  %482 = cast(%var_4013, dtype="int16") /* ty=Tensor[(1352), int16] */;
  %483 = reshape(%481, newshape=[13, 1, 8]) /* ty=Tensor[(13, 1, 8), int16] */;
  %484 = reshape(%482, newshape=[13, 13, 8]) /* ty=Tensor[(13, 13, 8), int16] */;
  %485 = @func_1527(%483, %484) /* ty=(Tensor[(13, 13, 8), bool], Tensor[(13, 13, 8), float32]) */;
  %486 = @func_2378() /* ty=(Tensor[(13, 13, 8), float32],) */;
  %487 = cast(%var_4023, dtype="float32") /* ty=Tensor[(300), float32] */;
  %488 = reshape(%487, newshape=[4, 5, 15]) /* ty=Tensor[(4, 5, 15), float32] */;
  %489 = %485.1;
  %490 = %486.0;
  %491 = @func_316(%488) /* ty=Tensor[(4, 5, 15), float32] */;
  (%480, %489, %var_4013, %490, %491, %var_4023)
}

def @func_8681() -> Tensor[(54), float64] {
  %492 = @func_6295() /* ty=(Tensor[(13, 13, 8), float32], Tensor[(54), float32], Tensor[(54), float64], Tensor[(13, 13, 8), float32]) */;
  %492.2
}

def @func_5015(%var_4985: Tensor[(54), float64]) -> (Tensor[(13, 13, 8), float32], Tensor[(360), uint8], Tensor[(54), float32]) {
  %493 = cast(%var_4985, dtype="float64") /* ty=Tensor[(54), float64] */;
  %494 = reshape(%493, newshape=[54]) /* ty=Tensor[(54), float64] */;
  %495 = @func_2030(%494) /* ty=(Tensor[(13, 13, 8), uint8], Tensor[(7, 9, 15), float64], Tensor[(10, 9, 4), bool], Tensor[(360), uint8], Tensor[(1, 9, 6), float64], Tensor[(54), float64]) */;
  %496 = cast(%var_4985, dtype="float32") /* ty=Tensor[(54), float32] */;
  %497 = @func_4460() /* ty=Tensor[(13, 13, 8), float32] */;
  %498 = %495.3;
  %499 = sqrt(%496) /* ty=Tensor[(54), float32] */;
  (%497, %498, %499)
}

def @func_9003() -> (Tensor[(7, 14, 10), float64],) {
  %500 = @func_5278() /* ty=(Tensor[(13, 13, 8), float32], Tensor[(7, 14, 10), float64], Tensor[(980), float64], Tensor[(11, 10, 4), float32], Tensor[(440), float32]) */;
  %501 = %500.1;
  (%501,)
}

def @func_11530() -> Tensor[(13, 13, 8), float32] {
  %502 = @func_10056() /* ty=(Tensor[(13, 13, 8), float32],) */;
  %502.0
}

def @func_15531() -> (Tensor[(8, 9, 8), uint8],) {
  %503 = cast(meta[relay.Constant][20] /* ty=Tensor[(8, 1, 8), uint8] */, dtype="uint8") /* ty=Tensor[(8, 1, 8), uint8] */;
  %504 = cast(meta[relay.Constant][21] /* ty=Tensor[(8, 9, 8), uint8] */, dtype="uint8") /* ty=Tensor[(8, 9, 8), uint8] */;
  %505 = maximum(%503, %504) /* ty=Tensor[(8, 9, 8), uint8] */;
  (%505,)
}

def @func_2030(%var_2015: Tensor[(54), float64]) -> (Tensor[(13, 13, 8), uint8], Tensor[(7, 9, 15), float64], Tensor[(10, 9, 4), bool], Tensor[(360), uint8], Tensor[(1, 9, 6), float64], Tensor[(54), float64]) {
  %506 = @func_1955() /* ty=(Tensor[(13, 13, 8), uint8],) */;
  %507 = @func_1602() /* ty=(Tensor[(7, 9, 15), float64], Tensor[(13, 13, 8), float32], Tensor[(104), int16], Tensor[(1352), int16]) */;
  %508 = cast(meta[relay.Constant][22] /* ty=Tensor[(360), uint8] */, dtype="uint8") /* ty=Tensor[(360), uint8] */;
  %509 = reshape(%508, newshape=[10, 9, 4]) /* ty=Tensor[(10, 9, 4), uint8] */;
  %510 = @func_303(%509) /* ty=(Tensor[(10, 9, 4), bool],) */;
  %511 = cast(%var_2015, dtype="float64") /* ty=Tensor[(54), float64] */;
  %512 = reshape(%511, newshape=[1, 9, 6]) /* ty=Tensor[(1, 9, 6), float64] */;
  %513 = @func_1566(%512) /* ty=(Tensor[(1, 9, 6), float64],) */;
  %514 = %506.0;
  %515 = %507.0;
  %516 = %510.0;
  %517 = %513.0;
  (%514, %515, %516, meta[relay.Constant][22] /* ty=Tensor[(360), uint8] */, %517, %var_2015)
}

def @func_15405() -> (Tensor[(13, 13, 8), bool],) {
  %518 = @func_6720() /* ty=Tensor[(13, 13, 8), bool] */;
  (%518,)
}

def @func_14279(%var_14258: Tensor[(1, 300), float32]) -> (Tensor[(13, 13, 8), uint8], Tensor[(13, 13, 8), float32], Tensor[(360), float32], Tensor[(104), int16], Tensor[(4, 5, 15), float32], Tensor[(1, 300), float32]) {
  %519 = @func_1955() /* ty=(Tensor[(13, 13, 8), uint8],) */;
  %520 = @func_10110() /* ty=(Tensor[(13, 13, 8), float32],) */;
  %521 = cast(meta[relay.Constant][23] /* ty=Tensor[(104), int16] */, dtype="int16") /* ty=Tensor[(104), int16] */;
  %522 = reshape(%521, newshape=[104]) /* ty=Tensor[(104), int16] */;
  %523 = @func_7047(%522) /* ty=(Tensor[(104), float64], Tensor[(5, 9, 8), float32], Tensor[(360), float32]) */;
  %524 = %519.0;
  %525 = cast(%524, dtype="int16") /* ty=Tensor[(13, 13, 8), int16] */;
  %526 = cast(%var_14258, dtype="float32") /* ty=Tensor[(1, 300), float32] */;
  %527 = reshape(%525, newshape=[1352]) /* ty=Tensor[(1352), int16] */;
  %528 = reshape(%526, newshape=[300]) /* ty=Tensor[(300), float32] */;
  %529 = @func_4025(%527, %528) /* ty=(Tensor[(104), int16], Tensor[(13, 13, 8), float32], Tensor[(1352), int16], Tensor[(13, 13, 8), float32], Tensor[(4, 5, 15), float32], Tensor[(300), float32]) */;
  %530 = %520.0;
  %531 = %523.2;
  %532 = %529.4;
  (%524, %530, %531, meta[relay.Constant][23] /* ty=Tensor[(104), int16] */, %532, %var_14258)
}

def @func_5903() -> Tensor[(13, 13, 8), float64] {
  %533 = @func_4365() /* ty=Tensor[(13, 13, 8), bool] */;
  %534 = cast(%533, dtype="float64") /* ty=Tensor[(13, 13, 8), float64] */;
  exp(%534) /* ty=Tensor[(13, 13, 8), float64] */
}

def @func_15616() -> (Tensor[(7, 14, 10), float64],) {
  %535 = @func_9003() /* ty=(Tensor[(7, 14, 10), float64],) */;
  %536 = %535.0;
  (%536,)
}

def @func_3309() -> (Tensor[(13, 13, 8), float32], Tensor[(10, 9, 4), bool], Tensor[(360), uint8]) {
  %537 = @func_2512() /* ty=(Tensor[(13, 13, 8), float32],) */;
  %538 = cast(meta[relay.Constant][24] /* ty=Tensor[(360), uint8] */, dtype="uint8") /* ty=Tensor[(360), uint8] */;
  %539 = reshape(%538, newshape=[10, 9, 4]) /* ty=Tensor[(10, 9, 4), uint8] */;
  %540 = @func_303(%539) /* ty=(Tensor[(10, 9, 4), bool],) */;
  %541 = %537.0;
  %542 = %540.0;
  (%541, %542, meta[relay.Constant][24] /* ty=Tensor[(360), uint8] */)
}

def @func_4441() -> (Tensor[(13, 13, 8), bool], Tensor[(9, 3, 5), float64], Tensor[(135), float64]) {
  %543 = @func_2788() /* ty=(Tensor[(13, 13, 8), bool],) */;
  %544 = cast(meta[relay.Constant][25] /* ty=Tensor[(135), float64] */, dtype="float64") /* ty=Tensor[(135), float64] */;
  %545 = reshape(%544, newshape=[9, 3, 5]) /* ty=Tensor[(9, 3, 5), float64] */;
  %546 = %543.0;
  %547 = @func_3225(%545) /* ty=Tensor[(9, 3, 5), float64] */;
  (%546, %547, meta[relay.Constant][25] /* ty=Tensor[(135), float64] */)
}

def @func_12514() -> (Tensor[(6, 7, 3), float64], Tensor[(300), float32], Tensor[(7, 9, 15), float64], Tensor[(360), uint8], Tensor[(13, 13, 8), float32], Tensor[(220, 2), float32], Tensor[(432), float64], Tensor[(5, 88), float32]) {
  %548 = @func_5396() /* ty=(Tensor[(7, 9, 15), float64],) */;
  %549 = cast(meta[relay.Constant][26] /* ty=Tensor[(432), float64] */, dtype="float64") /* ty=Tensor[(432), float64] */;
  %550 = cast(meta[relay.Constant][27] /* ty=Tensor[(5, 88), float32] */, dtype="float32") /* ty=Tensor[(5, 88), float32] */;
  %551 = reshape(%549, newshape=[12, 4, 9]) /* ty=Tensor[(12, 4, 9), float64] */;
  %552 = reshape(%550, newshape=[220, 2]) /* ty=Tensor[(220, 2), float32] */;
  %553 = @func_2282(%551, %552) /* ty=(Tensor[(12, 4, 9), float64], Tensor[(11, 10, 4), float32], Tensor[(220, 2), float32]) */;
  %554 = @func_12366() /* ty=Tensor[(6, 7, 3), float64] */;
  %555 = @func_5066() /* ty=Tensor[(300), float32] */;
  %556 = %548.0;
  %557 = @func_4572() /* ty=Tensor[(360), uint8] */;
  %558 = @func_6234() /* ty=Tensor[(13, 13, 8), float32] */;
  %559 = %553.2;
  (%554, %555, %556, %557, %558, %559, meta[relay.Constant][26] /* ty=Tensor[(432), float64] */, meta[relay.Constant][27] /* ty=Tensor[(5, 88), float32] */)
}

def @func_4949(%var_4915: Tensor[(300), float32], %var_4916: Tensor[(360), uint8]) -> (Tensor[(13, 13, 8), float32], Tensor[(11, 10, 4), float32], Tensor[(300), float32], Tensor[(360), uint8], Tensor[(13, 13, 8), float32]) {
  %560 = @func_2762() /* ty=(Tensor[(300), float32], Tensor[(300), float32], Tensor[(13, 13, 8), float32]) */;
  %561 = cast(%var_4915, dtype="float32") /* ty=Tensor[(300), float32] */;
  %562 = cast(%var_4916, dtype="uint8") /* ty=Tensor[(360), uint8] */;
  %563 = reshape(%561, newshape=[300]) /* ty=Tensor[(300), float32] */;
  %564 = reshape(%562, newshape=[360]) /* ty=Tensor[(360), uint8] */;
  %565 = @func_2632(%563, %564) /* ty=(Tensor[(13, 13, 8), float32], Tensor[(11, 10, 4), float32], Tensor[(1440), uint16], Tensor[(300), float32], Tensor[(360), uint8]) */;
  %566 = @func_3615() /* ty=(Tensor[(13, 13, 8), float32],) */;
  %567 = %560.2;
  %568 = %565.1;
  %569 = %566.0;
  (%567, %568, %var_4915, %var_4916, %569)
}

def @func_2602() -> Tensor[(13, 13, 8), float32] {
  @func_2250() /* ty=Tensor[(13, 13, 8), float32] */
}

def @func_10628(%var_10621: Tensor[(12, 9, 14), bool], %var_10622: Tensor[(12, 9, 14), bool]) -> Tensor[(12, 9, 14), bool] {
  %570 = cast(%var_10622, dtype="bool") /* ty=Tensor[(12, 9, 14), bool] */;
  %571 = shape_of(%var_10621, dtype="int32") /* ty=Tensor[(3), int32] */;
  %572 = cast(%var_10621, dtype="bool") /* ty=Tensor[(12, 9, 14), bool] */;
  %573 = dyn.reshape(%570, %571, newshape=[]) /* ty=Tensor[(?, ?, ?), bool] */;
  logical_or(%572, %573) /* ty=Tensor[(12, 9, 14), bool] */
}

def @func_10702(%var_10688: Tensor[(16, 13, 13), float64], %var_10689: Tensor[(16, 13, 13), float64]) -> (Tensor[(16, 13, 13), float64], Tensor[(135), float64]) {
  %574 = cast(%var_10689, dtype="float64") /* ty=Tensor[(16, 13, 13), float64] */;
  %575 = shape_of(%var_10688, dtype="int32") /* ty=Tensor[(3), int32] */;
  %576 = cast(%var_10688, dtype="float64") /* ty=Tensor[(16, 13, 13), float64] */;
  %577 = dyn.reshape(%574, %575, newshape=[]) /* ty=Tensor[(?, ?, ?), float64] */;
  %578 = @func_10144() /* ty=(Tensor[(135), float64],) */;
  %579 = maximum(%576, %577) /* ty=Tensor[(16, 13, 13), float64] */;
  %580 = %578.0;
  (%579, %580)
}

def @func_7758() -> Tensor[(13, 13, 8), float32] {
  %581 = @func_2220() /* ty=(Tensor[(13, 13, 8), float32], Tensor[(4, 5, 15), float32], Tensor[(300), float32]) */;
  %581.0
}

def @func_8871() -> (Tensor[(13, 13, 8), float32],) {
  %582 = @func_3978() /* ty=Tensor[(13, 13, 8), float32] */;
  (%582,)
}

def @func_15833() -> (Tensor[(13, 13, 8), bool], Tensor[(12, 4, 9), float64], Tensor[(432), float64], Tensor[(440), float32], Tensor[(104), int8], Tensor[(13, 13, 8), float64], Tensor[(13, 11, 2), float64], Tensor[(286), float32], Tensor[(13, 13, 8), float32], Tensor[(7, 9, 15), float64], Tensor[(13, 13, 8), float32], int32, Tensor[(144), int32], Tensor[(286), float64]) {
  %583 = @func_15233() /* ty=(Tensor[(13, 13, 8), bool], Tensor[(13, 13, 8), bool], Tensor[(13, 13, 8), uint8]) */;
  %584 = cast(meta[relay.Constant][28] /* ty=Tensor[(432), float64] */, dtype="float64") /* ty=Tensor[(432), float64] */;
  %585 = cast(meta[relay.Constant][29] /* ty=Tensor[(440), float32] */, dtype="float32") /* ty=Tensor[(440), float32] */;
  %586 = reshape(%584, newshape=[12, 4, 9]) /* ty=Tensor[(12, 4, 9), float64] */;
  %587 = reshape(%585, newshape=[220, 2]) /* ty=Tensor[(220, 2), float32] */;
  %588 = @func_2282(%586, %587) /* ty=(Tensor[(12, 4, 9), float64], Tensor[(11, 10, 4), float32], Tensor[(220, 2), float32]) */;
  %589 = @func_4642() /* ty=(Tensor[(104), int16],) */;
  %590 = %589.0;
  %591 = cast(meta[relay.Constant][30] /* ty=Tensor[(104), int16] */, dtype="int8") /* ty=Tensor[(104), int8] */;
  %592 = shape_of(%590, dtype="int32") /* ty=Tensor[(1), int32] */;
  %593 = cast(%590, dtype="int8") /* ty=Tensor[(104), int8] */;
  %594 = dyn.reshape(%591, %592, newshape=[]) /* ty=Tensor[(?), int8] */;
  %595 = cast(meta[relay.Constant][31] /* ty=Tensor[(286), float32] */, dtype="float32") /* ty=Tensor[(286), float32] */;
  %596 = reshape(%595, newshape=[13, 11, 2]) /* ty=Tensor[(13, 11, 2), float32] */;
  %597 = @func_2201(%596) /* ty=(Tensor[(13, 11, 2), float64], Tensor[(104), int16]) */;
  %598 = @func_13476() /* ty=(Tensor[(13, 13, 8), float32], Tensor[(13, 13, 8), float32]) */;
  %599 = @func_5396() /* ty=(Tensor[(7, 9, 15), float64],) */;
  %600 = cast(8 /* ty=int32 */, dtype="int32") /* ty=int32 */;
  %601 = cast(meta[relay.Constant][32] /* ty=Tensor[(144), int32] */, dtype="int32") /* ty=Tensor[(144), int32] */;
  %602 = reshape(%600, newshape=[]) /* ty=int32 */;
  %603 = reshape(%601, newshape=[144]) /* ty=Tensor[(144), int32] */;
  %604 = @func_14155(%602, %603) /* ty=(Tensor[(13, 13, 8), float32], Tensor[(13, 13, 8), bool], int32, Tensor[(144), int32]) */;
  %605 = %597.0;
  %606 = cast(%605, dtype="float32") /* ty=Tensor[(13, 11, 2), float32] */;
  %607 = reshape(%606, newshape=[286]) /* ty=Tensor[(286), float32] */;
  %608 = @func_3388(%607) /* ty=(Tensor[(13, 13, 8), float32], Tensor[(13, 11, 2), float64], Tensor[(286), float64]) */;
  %609 = %608.2;
  %610 = cast(%609, dtype="float64") /* ty=Tensor[(286), float64] */;
  %611 = %583.1;
  %612 = %588.0;
  %613 = logical_xor(%593, %594) /* ty=Tensor[(104), int8] */;
  %614 = @func_5903() /* ty=Tensor[(13, 13, 8), float64] */;
  %615 = %598.1;
  %616 = %599.0;
  %617 = %604.0;
  %618 = log(%610) /* ty=Tensor[(286), float64] */;
  (%611, %612, meta[relay.Constant][28] /* ty=Tensor[(432), float64] */, meta[relay.Constant][29] /* ty=Tensor[(440), float32] */, %613, %614, %605, meta[relay.Constant][31] /* ty=Tensor[(286), float32] */, %615, %616, %617, 8 /* ty=int32 */, meta[relay.Constant][32] /* ty=Tensor[(144), int32] */, %618)
}

def @func_16284() -> Tensor[(13, 13, 8), float32] {
  %619 = @func_8871() /* ty=(Tensor[(13, 13, 8), float32],) */;
  %619.0
}

def @func_6949() -> (Tensor[(13, 13, 8), float64],) {
  %620 = @func_3890() /* ty=(Tensor[(13, 13, 8), float32],) */;
  %621 = %620.0;
  %622 = cast(meta[relay.Constant][33] /* ty=Tensor[(13, 13, 8), float32] */, dtype="float64") /* ty=Tensor[(13, 13, 8), float64] */;
  %623 = shape_of(%621, dtype="int32") /* ty=Tensor[(3), int32] */;
  %624 = cast(%621, dtype="float64") /* ty=Tensor[(13, 13, 8), float64] */;
  %625 = dyn.reshape(%622, %623, newshape=[]) /* ty=Tensor[(?, ?, ?), float64] */;
  %626 = mod(%624, %625) /* ty=Tensor[(13, 13, 8), float64] */;
  (%626,)
}

def @func_2250() -> Tensor[(13, 13, 8), float32] {
  @func_1785() /* ty=Tensor[(13, 13, 8), float32] */
}

def @func_12407(%var_12400: Tensor[(6, 1, 4), float32]) -> Tensor[(6, 1, 4), float32] {
  %627 = cast(%var_12400, dtype="float32") /* ty=Tensor[(6, 1, 4), float32] */;
  rsqrt(%627) /* ty=Tensor[(6, 1, 4), float32] */
}

def @func_3703(%var_3656: Tensor[(10, 4, 3), int64]) -> (Tensor[(10, 4, 3), int64], Tensor[(13, 13, 8), float32], Tensor[(1440), uint16], Tensor[(300), float32], Tensor[(360), uint8], Tensor[(7, 9, 15), float64], Tensor[(13, 13, 8), float32]) {
  %628 = cast(meta[relay.Constant][34] /* ty=Tensor[(10, 4, 1), int64] */, dtype="int64") /* ty=Tensor[(10, 4, 1), int64] */;
  %629 = cast(%var_3656, dtype="int64") /* ty=Tensor[(10, 4, 3), int64] */;
  %630 = cast(meta[relay.Constant][35] /* ty=Tensor[(300), float32] */, dtype="float32") /* ty=Tensor[(300), float32] */;
  %631 = cast(meta[relay.Constant][36] /* ty=Tensor[(360), uint8] */, dtype="uint8") /* ty=Tensor[(360), uint8] */;
  %632 = reshape(%630, newshape=[300]) /* ty=Tensor[(300), float32] */;
  %633 = reshape(%631, newshape=[360]) /* ty=Tensor[(360), uint8] */;
  %634 = @func_2632(%632, %633) /* ty=(Tensor[(13, 13, 8), float32], Tensor[(11, 10, 4), float32], Tensor[(1440), uint16], Tensor[(300), float32], Tensor[(360), uint8]) */;
  %635 = @func_3455() /* ty=(Tensor[(7, 9, 15), float64],) */;
  %636 = @func_2429() /* ty=Tensor[(13, 13, 8), float32] */;
  %637 = cast(%636, dtype="int16") /* ty=Tensor[(13, 13, 8), int16] */;
  %638 = reshape(%637, newshape=[1352]) /* ty=Tensor[(1352), int16] */;
  %639 = @func_3011(%638) /* ty=(Tensor[(104), int16], Tensor[(13, 13, 8), float32], Tensor[(1352), int16]) */;
  %640 = left_shift(%628, %629) /* ty=Tensor[(10, 4, 3), int64] */;
  %641 = %634.2;
  %642 = %635.0;
  %643 = %639.1;
  (%640, %636, %641, meta[relay.Constant][35] /* ty=Tensor[(300), float32] */, meta[relay.Constant][36] /* ty=Tensor[(360), uint8] */, %642, %643)
}

def @func_11247() -> (Tensor[(360), uint8], Tensor[(13, 13, 8), float32], Tensor[(13, 13, 8), float32], Tensor[(13, 13, 8), float32], Tensor[(13, 13, 8), float32], Tensor[(13, 13, 8), float32], Tensor[(432), float64], Tensor[(440), float32], Tensor[(120), int64], Tensor[(13, 13, 8), float32]) {
  %644 = @func_7606() /* ty=(Tensor[(13, 13, 8), float32], Tensor[(13, 13, 8), float32], Tensor[(13, 13, 8), float32]) */;
  %645 = @func_9874() /* ty=(Tensor[(104), int16], Tensor[(13, 13, 8), float32]) */;
  %646 = @func_2378() /* ty=(Tensor[(13, 13, 8), float32],) */;
  %647 = cast(meta[relay.Constant][37] /* ty=Tensor[(432), float64] */, dtype="float64") /* ty=Tensor[(432), float64] */;
  %648 = cast(meta[relay.Constant][38] /* ty=Tensor[(440), float32] */, dtype="float32") /* ty=Tensor[(440), float32] */;
  %649 = cast(meta[relay.Constant][39] /* ty=Tensor[(120), int64] */, dtype="int64") /* ty=Tensor[(120), int64] */;
  %650 = reshape(%647, newshape=[432]) /* ty=Tensor[(432), float64] */;
  %651 = reshape(%648, newshape=[1, 440]) /* ty=Tensor[(1, 440), float32] */;
  %652 = reshape(%649, newshape=[120]) /* ty=Tensor[(120), int64] */;
  %653 = @func_4771(%650, %651, %652) /* ty=(Tensor[(13, 13, 8), float32], Tensor[(432), float64], Tensor[(13, 13, 8), float32], Tensor[(120), int64], Tensor[(360), uint8], Tensor[(13, 13, 8), float32], Tensor[(?, 440), int16], Tensor[(13, 13, 8), float32]) */;
  %654 = @func_4572() /* ty=Tensor[(360), uint8] */;
  %655 = %644.2;
  %656 = @func_1785() /* ty=Tensor[(13, 13, 8), float32] */;
  %657 = %645.1;
  %658 = %646.0;
  %659 = %653.7;
  %660 = @func_5462() /* ty=Tensor[(13, 13, 8), float32] */;
  (%654, %655, %656, %657, %658, %659, meta[relay.Constant][37] /* ty=Tensor[(432), float64] */, meta[relay.Constant][38] /* ty=Tensor[(440), float32] */, meta[relay.Constant][39] /* ty=Tensor[(120), int64] */, %660)
}

def @func_16246() -> (Tensor[(13, 13, 8), float32],) {
  %661 = @func_4796() /* ty=Tensor[(13, 13, 8), float32] */;
  (%661,)
}

def @func_16313() -> (Tensor[(13, 13, 8), float32],) {
  %662 = @func_7436() /* ty=(Tensor[(13, 13, 8), float32], Tensor[(13, 13, 8), float32], Tensor[(9, 3, 5), float64], Tensor[(135), float64]) */;
  %663 = %662.1;
  (%663,)
}

def @func_9287() -> Tensor[(13, 13, 8), bool] {
  @func_4055() /* ty=Tensor[(13, 13, 8), bool] */
}

def @func_12366() -> Tensor[(6, 7, 3), float64] {
  %664 = cast(meta[relay.Constant][40] /* ty=Tensor[(6, 7, 3), float64] */, dtype="float64") /* ty=Tensor[(6, 7, 3), float64] */;
  tan(%664) /* ty=Tensor[(6, 7, 3), float64] */
}

def @func_6870() -> Tensor[(13, 13, 8), float32] {
  %665 = @func_4389() /* ty=(Tensor[(13, 13, 8), float32], Tensor[(104), int16]) */;
  %665.0
}

def @func_12864(%var_12856: Tensor[(432), float64], %var_12857: Tensor[(440), float32]) -> (Tensor[(300), float32], Tensor[(120), int64], Tensor[(432), float64], Tensor[(440), float32], Tensor[(120), int64]) {
  %666 = cast(%var_12856, dtype="float64") /* ty=Tensor[(432), float64] */;
  %667 = cast(%var_12857, dtype="float32") /* ty=Tensor[(440), float32] */;
  %668 = cast(meta[relay.Constant][41] /* ty=Tensor[(120), int64] */, dtype="int64") /* ty=Tensor[(120), int64] */;
  %669 = reshape(%666, newshape=[432]) /* ty=Tensor[(432), float64] */;
  %670 = reshape(%667, newshape=[1, 440]) /* ty=Tensor[(1, 440), float32] */;
  %671 = reshape(%668, newshape=[120]) /* ty=Tensor[(120), int64] */;
  %672 = @func_4771(%669, %670, %671) /* ty=(Tensor[(13, 13, 8), float32], Tensor[(432), float64], Tensor[(13, 13, 8), float32], Tensor[(120), int64], Tensor[(360), uint8], Tensor[(13, 13, 8), float32], Tensor[(?, 440), int16], Tensor[(13, 13, 8), float32]) */;
  %673 = @func_5066() /* ty=Tensor[(300), float32] */;
  %674 = %672.3;
  (%673, %674, %var_12856, %var_12857, meta[relay.Constant][41] /* ty=Tensor[(120), int64] */)
}

def @func_4191() -> (Tensor[(13, 13, 8), float32], Tensor[(13, 13, 8), float32]) {
  %675 = @func_2602() /* ty=Tensor[(13, 13, 8), float32] */;
  %676 = @func_2429() /* ty=Tensor[(13, 13, 8), float32] */;
  (%675, %676)
}

def @func_9209(%var_9197: Tensor[(360), uint8]) -> (Tensor[(13, 13, 8), float32], Tensor[(13, 13, 8), float32], Tensor[(104), float64], Tensor[(104), int16], Tensor[(13, 13, 8), float32], Tensor[(6, 20), int64], Tensor[(13, 13, 8), float32], Tensor[(13, 13, 8), float32], Tensor[(9, 10, 16), uint16], Tensor[(10, 30), float32], Tensor[(360), uint8], Tensor[(11, 10, 4), float32], Tensor[(110, 4), float32]) {
  %677 = @func_4389() /* ty=(Tensor[(13, 13, 8), float32], Tensor[(104), int16]) */;
  %678 = @func_2378() /* ty=(Tensor[(13, 13, 8), float32],) */;
  %679 = cast(meta[relay.Constant][42] /* ty=Tensor[(104), int16] */, dtype="int16") /* ty=Tensor[(104), int16] */;
  %680 = reshape(%679, newshape=[104]) /* ty=Tensor[(104), int16] */;
  %681 = @func_7047(%680) /* ty=(Tensor[(104), float64], Tensor[(5, 9, 8), float32], Tensor[(360), float32]) */;
  %682 = cast(meta[relay.Constant][43] /* ty=Tensor[(6, 20), int64] */, dtype="int64") /* ty=Tensor[(6, 20), int64] */;
  %683 = reshape(%682, newshape=[10, 4, 3]) /* ty=Tensor[(10, 4, 3), int64] */;
  %684 = @func_3703(%683) /* ty=(Tensor[(10, 4, 3), int64], Tensor[(13, 13, 8), float32], Tensor[(1440), uint16], Tensor[(300), float32], Tensor[(360), uint8], Tensor[(7, 9, 15), float64], Tensor[(13, 13, 8), float32]) */;
  %685 = cast(meta[relay.Constant][44] /* ty=Tensor[(10, 30), float32] */, dtype="float32") /* ty=Tensor[(10, 30), float32] */;
  %686 = cast(%var_9197, dtype="uint8") /* ty=Tensor[(360), uint8] */;
  %687 = reshape(%685, newshape=[300]) /* ty=Tensor[(300), float32] */;
  %688 = reshape(%686, newshape=[360]) /* ty=Tensor[(360), uint8] */;
  %689 = @func_2073(%687, %688) /* ty=(Tensor[(13, 13, 8), int64], Tensor[(9, 10, 16), uint16], Tensor[(1440), uint16], Tensor[(300), float32], Tensor[(360), uint8]) */;
  %690 = cast(meta[relay.Constant][45] /* ty=Tensor[(110, 4), float32] */, dtype="float32") /* ty=Tensor[(110, 4), float32] */;
  %691 = cast(meta[relay.Constant][45] /* ty=Tensor[(110, 4), float32] */, dtype="float32") /* ty=Tensor[(110, 4), float32] */;
  %692 = reshape(%690, newshape=[11, 10, 4]) /* ty=Tensor[(11, 10, 4), float32] */;
  %693 = reshape(%691, newshape=[11, 10, 4]) /* ty=Tensor[(11, 10, 4), float32] */;
  %694 = %677.0;
  %695 = %678.0;
  %696 = %681.0;
  %697 = %684.6;
  %698 = @func_5561() /* ty=Tensor[(13, 13, 8), float32] */;
  %699 = @func_4489() /* ty=Tensor[(13, 13, 8), float32] */;
  %700 = %689.1;
  %701 = @func_173(%692, %693) /* ty=Tensor[(11, 10, 4), float32] */;
  (%694, %695, %696, meta[relay.Constant][42] /* ty=Tensor[(104), int16] */, %697, meta[relay.Constant][43] /* ty=Tensor[(6, 20), int64] */, %698, %699, %700, meta[relay.Constant][44] /* ty=Tensor[(10, 30), float32] */, %var_9197, %701, meta[relay.Constant][45] /* ty=Tensor[(110, 4), float32] */)
}

def @func_10056() -> (Tensor[(13, 13, 8), float32],) {
  %702 = @func_6325() /* ty=(Tensor[(13, 13, 8), float32], Tensor[(13, 13, 8), float32]) */;
  %703 = %702.1;
  (%703,)
}

def @func_5561() -> Tensor[(13, 13, 8), float32] {
  %704 = @func_2548() /* ty=(Tensor[(13, 13, 8), float32], Tensor[(13, 13, 8), float32]) */;
  %704.0
}

def @func_8316() -> Tensor[(13, 13, 8), float32] {
  @func_5561() /* ty=Tensor[(13, 13, 8), float32] */
}

def @func_12126() -> (Tensor[(13, 13, 8), float32],) {
  %705 = @func_8871() /* ty=(Tensor[(13, 13, 8), float32],) */;
  %706 = %705.0;
  (%706,)
}

def @func_2788() -> (Tensor[(13, 13, 8), bool],) {
  %707 = @func_2429() /* ty=Tensor[(13, 13, 8), float32] */;
  %708 = cast(meta[relay.Constant][46] /* ty=Tensor[(13, 13, 8), float32] */, dtype="bool") /* ty=Tensor[(13, 13, 8), bool] */;
  %709 = shape_of(%707, dtype="int32") /* ty=Tensor[(3), int32] */;
  %710 = cast(%707, dtype="bool") /* ty=Tensor[(13, 13, 8), bool] */;
  %711 = dyn.reshape(%708, %709, newshape=[]) /* ty=Tensor[(?, ?, ?), bool] */;
  %712 = logical_and(%710, %711) /* ty=Tensor[(13, 13, 8), bool] */;
  (%712,)
}

def @func_11093() -> (Tensor[(13, 13, 8), float32],) {
  %713 = @func_10743() /* ty=(Tensor[(13, 13, 8), float32],) */;
  %714 = %713.0;
  (%714,)
}

def @func_7295() -> Tensor[(13, 13, 8), float32] {
  @func_3773() /* ty=Tensor[(13, 13, 8), float32] */
}

def @func_9975() -> (Tensor[(13, 13, 8), bool],) {
  %715 = @func_8856() /* ty=(Tensor[(13, 13, 8), float32], Tensor[(13, 13, 8), bool], Tensor[(9, 3, 5), float64], Tensor[(135), float64]) */;
  %716 = %715.1;
  (%716,)
}

def @func_6687() -> (Tensor[(13, 13, 8), bool],) {
  %717 = @func_5319() /* ty=(Tensor[(13, 13, 8), bool],) */;
  %718 = %717.0;
  (%718,)
}

def @func_1566(%var_1556: Tensor[(1, 9, 6), float64]) -> (Tensor[(1, 9, 6), float64],) {
  %719 = cast(%var_1556, dtype="float64") /* ty=Tensor[(1, 9, 6), float64] */;
  %720 = log(%719) /* ty=Tensor[(1, 9, 6), float64] */;
  (%720,)
}

def @func_3547() -> (Tensor[(13, 13, 8), float32], Tensor[(13, 13, 8), bool], Tensor[(104), int16], Tensor[(13, 13, 8), float32]) {
  %721 = @func_2548() /* ty=(Tensor[(13, 13, 8), float32], Tensor[(13, 13, 8), float32]) */;
  %722 = cast(meta[relay.Constant][47] /* ty=Tensor[(104), int16] */, dtype="int16") /* ty=Tensor[(104), int16] */;
  %723 = %721.1;
  %724 = cast(%723, dtype="int16") /* ty=Tensor[(13, 13, 8), int16] */;
  %725 = reshape(%722, newshape=[13, 1, 8]) /* ty=Tensor[(13, 1, 8), int16] */;
  %726 = reshape(%724, newshape=[13, 13, 8]) /* ty=Tensor[(13, 13, 8), int16] */;
  %727 = @func_1527(%725, %726) /* ty=(Tensor[(13, 13, 8), bool], Tensor[(13, 13, 8), float32]) */;
  %728 = @func_2512() /* ty=(Tensor[(13, 13, 8), float32],) */;
  %729 = %727.0;
  %730 = %728.0;
  (%723, %729, meta[relay.Constant][47] /* ty=Tensor[(104), int16] */, %730)
}

def @func_6008() -> (Tensor[(13, 13, 8), float32], Tensor[(13, 13, 8), uint8]) {
  %731 = @func_5515() /* ty=(Tensor[(13, 13, 8), float32], Tensor[(13, 13, 8), float32]) */;
  %732 = @func_3469() /* ty=(Tensor[(13, 13, 8), uint8],) */;
  %733 = %731.1;
  %734 = %732.0;
  (%733, %734)
}

def @func_4389() -> (Tensor[(13, 13, 8), float32], Tensor[(104), int16]) {
  %735 = @func_2602() /* ty=Tensor[(13, 13, 8), float32] */;
  %736 = cast(%735, dtype="int16") /* ty=Tensor[(13, 13, 8), int16] */;
  %737 = reshape(%736, newshape=[1352]) /* ty=Tensor[(1352), int16] */;
  %738 = @func_3011(%737) /* ty=(Tensor[(104), int16], Tensor[(13, 13, 8), float32], Tensor[(1352), int16]) */;
  %739 = %738.0;
  (%735, %739)
}

def @func_6163(%var_6149: Tensor[(54), float64]) -> (Tensor[(13, 13, 8), float32], Tensor[(11, 10, 4), float64], Tensor[(13, 13, 8), bool], Tensor[(13, 13, 8), float32], Tensor[(54), float64]) {
  %740 = @func_5188() /* ty=(Tensor[(13, 13, 8), float32], Tensor[(4, 5, 15), float32], Tensor[(300), float32], Tensor[(13, 13, 8), float32], Tensor[(13, 13, 8), float32], Tensor[(11, 10, 4), float32], Tensor[(7, 165), int8]) */;
  %741 = @func_5188() /* ty=(Tensor[(13, 13, 8), float32], Tensor[(4, 5, 15), float32], Tensor[(300), float32], Tensor[(13, 13, 8), float32], Tensor[(13, 13, 8), float32], Tensor[(11, 10, 4), float32], Tensor[(7, 165), int8]) */;
  %742 = %741.5;
  %743 = cast(%742, dtype="float32") /* ty=Tensor[(11, 10, 4), float32] */;
  %744 = cosh(%743) /* ty=Tensor[(11, 10, 4), float32] */;
  %745 = cast(%744, dtype="float64") /* ty=Tensor[(11, 10, 4), float64] */;
  %746 = cast(%var_6149, dtype="float64") /* ty=Tensor[(54), float64] */;
  %747 = reshape(%746, newshape=[54]) /* ty=Tensor[(54), float64] */;
  %748 = @func_4280(%747) /* ty=(Tensor[(13, 13, 8), float32], Tensor[(13, 13, 8), float64], Tensor[(360), uint8], Tensor[(54), float64]) */;
  %749 = %740.3;
  %750 = asinh(%745) /* ty=Tensor[(11, 10, 4), float64] */;
  %751 = @func_4055() /* ty=Tensor[(13, 13, 8), bool] */;
  %752 = %748.0;
  (%749, %750, %751, %752, %var_6149)
}

def @func_1602() -> (Tensor[(7, 9, 15), float64], Tensor[(13, 13, 8), float32], Tensor[(104), int16], Tensor[(1352), int16]) {
  %753 = cast(meta[relay.Constant][48] /* ty=Tensor[(7, 9, 15), float64] */, dtype="float64") /* ty=Tensor[(7, 9, 15), float64] */;
  %754 = cast(meta[relay.Constant][49] /* ty=Tensor[(104), int16] */, dtype="int16") /* ty=Tensor[(104), int16] */;
  %755 = cast(meta[relay.Constant][50] /* ty=Tensor[(1352), int16] */, dtype="int16") /* ty=Tensor[(1352), int16] */;
  %756 = reshape(%754, newshape=[13, 1, 8]) /* ty=Tensor[(13, 1, 8), int16] */;
  %757 = reshape(%755, newshape=[13, 13, 8]) /* ty=Tensor[(13, 13, 8), int16] */;
  %758 = @func_1527(%756, %757) /* ty=(Tensor[(13, 13, 8), bool], Tensor[(13, 13, 8), float32]) */;
  %759 = sqrt(%753) /* ty=Tensor[(7, 9, 15), float64] */;
  %760 = %758.1;
  (%759, %760, meta[relay.Constant][49] /* ty=Tensor[(104), int16] */, meta[relay.Constant][50] /* ty=Tensor[(1352), int16] */)
}

def @func_6600(%var_6597: Tensor[(5, 9, 8), float32]) -> (Tensor[(5, 9, 8), float32],) {
  %761 = cast(%var_6597, dtype="float32") /* ty=Tensor[(5, 9, 8), float32] */;
  %762 = atanh(%761) /* ty=Tensor[(5, 9, 8), float32] */;
  (%762,)
}

def @func_10110() -> (Tensor[(13, 13, 8), float32],) {
  %763 = @func_8276() /* ty=(Tensor[(13, 13, 8), float32],) */;
  %764 = %763.0;
  (%764,)
}

def @func_4807(%var_4801: Tensor[(3, 5, 8), int32]) -> (Tensor[(3, 5, 8), int32],) {
  %765 = cast(%var_4801, dtype="int32") /* ty=Tensor[(3, 5, 8), int32] */;
  %766 = shape_of(meta[relay.Constant][51] /* ty=Tensor[(3, 5, 8), int32] */, dtype="int32") /* ty=Tensor[(3), int32] */;
  %767 = cast(meta[relay.Constant][51] /* ty=Tensor[(3, 5, 8), int32] */, dtype="int32") /* ty=Tensor[(3, 5, 8), int32] */;
  %768 = dyn.reshape(%765, %766, newshape=[]) /* ty=Tensor[(?, ?, ?), int32] */;
  %769 = add(%767, %768) /* ty=Tensor[(3, 5, 8), int32] */;
  (%769,)
}

def @func_173(%var_162: Tensor[(11, 10, 4), float32], %var_163: Tensor[(11, 10, 4), float32]) -> Tensor[(11, 10, 4), float32] {
  %770 = cast(%var_163, dtype="float32") /* ty=Tensor[(11, 10, 4), float32] */;
  %771 = shape_of(%var_162, dtype="int32") /* ty=Tensor[(3), int32] */;
  %772 = cast(%var_162, dtype="float32") /* ty=Tensor[(11, 10, 4), float32] */;
  %773 = dyn.reshape(%770, %771, newshape=[]) /* ty=Tensor[(?, ?, ?), float32] */;
  floor_divide(%772, %773) /* ty=Tensor[(11, 10, 4), float32] */
}

def @func_10642() -> (Tensor[(7, 165), int8],) {
  %774 = @func_5188() /* ty=(Tensor[(13, 13, 8), float32], Tensor[(4, 5, 15), float32], Tensor[(300), float32], Tensor[(13, 13, 8), float32], Tensor[(13, 13, 8), float32], Tensor[(11, 10, 4), float32], Tensor[(7, 165), int8]) */;
  %775 = %774.6;
  (%775,)
}

def @func_2762() -> (Tensor[(300), float32], Tensor[(300), float32], Tensor[(13, 13, 8), float32]) {
  %776 = @func_2220() /* ty=(Tensor[(13, 13, 8), float32], Tensor[(4, 5, 15), float32], Tensor[(300), float32]) */;
  %777 = @func_2220() /* ty=(Tensor[(13, 13, 8), float32], Tensor[(4, 5, 15), float32], Tensor[(300), float32]) */;
  %778 = %776.2;
  %779 = %777.2;
  %780 = @func_2602() /* ty=Tensor[(13, 13, 8), float32] */;
  (%778, %779, %780)
}

def @func_6804() -> Tensor[(13, 13, 8), float32] {
  @func_6234() /* ty=Tensor[(13, 13, 8), float32] */
}

def @func_6720() -> Tensor[(13, 13, 8), bool] {
  %781 = @func_6687() /* ty=(Tensor[(13, 13, 8), bool],) */;
  %781.0
}

def @func_6498(%var_6467: Tensor[(360), uint8], %var_6491: Tensor[(14, 7, 360), float32]) -> (Tensor[(10, 9, 4), bool], Tensor[(13, 13, 8), float32], Tensor[(14, 7, 360), int64]) {
  %782 = cast(%var_6467, dtype="uint8") /* ty=Tensor[(360), uint8] */;
  %783 = reshape(%782, newshape=[10, 9, 4]) /* ty=Tensor[(10, 9, 4), uint8] */;
  %784 = @func_303(%783) /* ty=(Tensor[(10, 9, 4), bool],) */;
  %785 = @func_5188() /* ty=(Tensor[(13, 13, 8), float32], Tensor[(4, 5, 15), float32], Tensor[(300), float32], Tensor[(13, 13, 8), float32], Tensor[(13, 13, 8), float32], Tensor[(11, 10, 4), float32], Tensor[(7, 165), int8]) */;
  %786 = @func_6193() /* ty=(Tensor[(14, 7, 1), float64],) */;
  %787 = %786.0;
  %788 = cast(%787, dtype="float64") /* ty=Tensor[(14, 7, 1), float64] */;
  %789 = cast(%var_6467, dtype="float64") /* ty=Tensor[(360), float64] */;
  %790 = floor_mod(%788, %789) /* ty=Tensor[(14, 7, 360), float64] */;
  %791 = cast(%790, dtype="float32") /* ty=Tensor[(14, 7, 360), float32] */;
  %792 = log10(%791) /* ty=Tensor[(14, 7, 360), float32] */;
  %793 = cast(%var_6491, dtype="int64") /* ty=Tensor[(14, 7, 360), int64] */;
  %794 = shape_of(%792, dtype="int32") /* ty=Tensor[(3), int32] */;
  %795 = cast(%792, dtype="int64") /* ty=Tensor[(14, 7, 360), int64] */;
  %796 = dyn.reshape(%793, %794, newshape=[]) /* ty=Tensor[(?, ?, ?), int64] */;
  %797 = %784.0;
  %798 = %785.4;
  %799 = right_shift(%795, %796) /* ty=Tensor[(14, 7, 360), int64] */;
  (%797, %798, %799)
}

def @func_10469() -> (Tensor[(360), uint8], Tensor[(13, 13, 8), bool], Tensor[(14, 7, 1), float64]) {
  %800 = @func_6193() /* ty=(Tensor[(14, 7, 1), float64],) */;
  %801 = @func_4572() /* ty=Tensor[(360), uint8] */;
  %802 = @func_6720() /* ty=Tensor[(13, 13, 8), bool] */;
  %803 = %800.0;
  (%801, %802, %803)
}

def @func_4280(%var_4278: Tensor[(54), float64]) -> (Tensor[(13, 13, 8), float32], Tensor[(13, 13, 8), float64], Tensor[(360), uint8], Tensor[(54), float64]) {
  %804 = @func_2512() /* ty=(Tensor[(13, 13, 8), float32],) */;
  %805 = %804.0;
  %806 = cast(%805, dtype="float32") /* ty=Tensor[(13, 13, 8), float32] */;
  %807 = cos(%806) /* ty=Tensor[(13, 13, 8), float32] */;
  %808 = cast(%807, dtype="float64") /* ty=Tensor[(13, 13, 8), float64] */;
  %809 = log10(%808) /* ty=Tensor[(13, 13, 8), float64] */;
  %810 = cast(%809, dtype="float64") /* ty=Tensor[(13, 13, 8), float64] */;
  %811 = cast(%var_4278, dtype="float64") /* ty=Tensor[(54), float64] */;
  %812 = reshape(%811, newshape=[54]) /* ty=Tensor[(54), float64] */;
  %813 = @func_2030(%812) /* ty=(Tensor[(13, 13, 8), uint8], Tensor[(7, 9, 15), float64], Tensor[(10, 9, 4), bool], Tensor[(360), uint8], Tensor[(1, 9, 6), float64], Tensor[(54), float64]) */;
  %814 = @func_2250() /* ty=Tensor[(13, 13, 8), float32] */;
  %815 = log2(%810) /* ty=Tensor[(13, 13, 8), float64] */;
  %816 = %813.3;
  (%814, %815, %816, %var_4278)
}

def @func_16232() -> (Tensor[(300), float32],) {
  %817 = @func_15083() /* ty=(Tensor[(300), float32],) */;
  %818 = %817.0;
  (%818,)
}

def @func_8233(%var_8227: Tensor[(364), int32]) -> (Tensor[(13, 13, 8), float32], Tensor[(13, 13, 8), float32], Tensor[(13, 13, 8), float32], Tensor[(7, 4, 13), bool], Tensor[(364), int32]) {
  %819 = @func_2378() /* ty=(Tensor[(13, 13, 8), float32],) */;
  %820 = @func_5608() /* ty=(Tensor[(13, 13, 8), float32], Tensor[(13, 13, 8), uint8], Tensor[(54), float64]) */;
  %821 = cast(%var_8227, dtype="int32") /* ty=Tensor[(364), int32] */;
  %822 = cast(%var_8227, dtype="int32") /* ty=Tensor[(364), int32] */;
  %823 = reshape(%821, newshape=[7, 4, 13]) /* ty=Tensor[(7, 4, 13), int32] */;
  %824 = reshape(%822, newshape=[7, 4, 13]) /* ty=Tensor[(7, 4, 13), int32] */;
  %825 = @func_4099(%823, %824) /* ty=(Tensor[(7, 4, 13), bool], Tensor[(7, 4, 13), float32], Tensor[(360), uint8]) */;
  %826 = %819.0;
  %827 = @func_3773() /* ty=Tensor[(13, 13, 8), float32] */;
  %828 = %820.0;
  %829 = %825.0;
  (%826, %827, %828, %829, %var_8227)
}

def @func_7452() -> (Tensor[(13, 13, 8), float32], Tensor[(13, 13, 8), float32]) {
  %830 = @func_7006() /* ty=(Tensor[(13, 13, 8), float32],) */;
  %831 = @func_4560() /* ty=(Tensor[(13, 13, 8), uint8], Tensor[(13, 13, 8), float32], Tensor[(13, 13, 8), float32]) */;
  %832 = %830.0;
  %833 = %831.1;
  (%832, %833)
}

def @func_1743(%var_1719: Tensor[(54), float64], %var_1726: Tensor[(1440), uint16], %var_1728: Tensor[(360), uint8], %var_1739: Tensor[(385, 3), int8]) -> (Tensor[(104), int16], Tensor[(1, 9, 6), float64], Tensor[(54), float64], Tensor[(300), float32], Tensor[(1440), uint16], Tensor[(10, 30), float32], Tensor[(360), uint8], Tensor[(10, 9, 4), bool], Tensor[(11, 10, 4), float32], Tensor[(385, 3), int8]) {
  %834 = @func_1602() /* ty=(Tensor[(7, 9, 15), float64], Tensor[(13, 13, 8), float32], Tensor[(104), int16], Tensor[(1352), int16]) */;
  %835 = cast(%var_1719, dtype="float64") /* ty=Tensor[(54), float64] */;
  %836 = reshape(%835, newshape=[1, 9, 6]) /* ty=Tensor[(1, 9, 6), float64] */;
  %837 = @func_1566(%836) /* ty=(Tensor[(1, 9, 6), float64],) */;
  %838 = cast(%var_1726, dtype="uint16") /* ty=Tensor[(1440), uint16] */;
  %839 = cast(meta[relay.Constant][52] /* ty=Tensor[(10, 30), float32] */, dtype="float32") /* ty=Tensor[(10, 30), float32] */;
  %840 = cast(%var_1728, dtype="uint8") /* ty=Tensor[(360), uint8] */;
  %841 = reshape(%838, newshape=[9, 10, 16]) /* ty=Tensor[(9, 10, 16), uint16] */;
  %842 = reshape(%839, newshape=[300]) /* ty=Tensor[(300), float32] */;
  %843 = reshape(%840, newshape=[360, 1]) /* ty=Tensor[(360, 1), uint8] */;
  %844 = @func_709(%841, %842, %843) /* ty=(Tensor[(9, 10, 16), uint16], Tensor[(11, 10, 4), float32], Tensor[(1155), int8], Tensor[(9, 10, 16), float64], Tensor[(11, 15, 7), uint64], Tensor[(11, 10, 4), float32], Tensor[(4, 5, 15), float32], Tensor[(300), float32], Tensor[(10, 9, 4), bool], Tensor[(360, 1), uint8], Tensor[(11, 10, 4), float32]) */;
  %845 = cast(%var_1726, dtype="uint16") /* ty=Tensor[(1440), uint16] */;
  %846 = cast(meta[relay.Constant][52] /* ty=Tensor[(10, 30), float32] */, dtype="float32") /* ty=Tensor[(10, 30), float32] */;
  %847 = cast(%var_1728, dtype="uint8") /* ty=Tensor[(360), uint8] */;
  %848 = reshape(%845, newshape=[9, 10, 16]) /* ty=Tensor[(9, 10, 16), uint16] */;
  %849 = reshape(%846, newshape=[300]) /* ty=Tensor[(300), float32] */;
  %850 = reshape(%847, newshape=[360, 1]) /* ty=Tensor[(360, 1), uint8] */;
  %851 = @func_709(%848, %849, %850) /* ty=(Tensor[(9, 10, 16), uint16], Tensor[(11, 10, 4), float32], Tensor[(1155), int8], Tensor[(9, 10, 16), float64], Tensor[(11, 15, 7), uint64], Tensor[(11, 10, 4), float32], Tensor[(4, 5, 15), float32], Tensor[(300), float32], Tensor[(10, 9, 4), bool], Tensor[(360, 1), uint8], Tensor[(11, 10, 4), float32]) */;
  %852 = cast(%var_1739, dtype="int8") /* ty=Tensor[(385, 3), int8] */;
  %853 = cast(%var_1739, dtype="int8") /* ty=Tensor[(385, 3), int8] */;
  %854 = reshape(%852, newshape=[11, 15, 7]) /* ty=Tensor[(11, 15, 7), int8] */;
  %855 = reshape(%853, newshape=[11, 15, 7]) /* ty=Tensor[(11, 15, 7), int8] */;
  %856 = @func_257(%854, %855) /* ty=(Tensor[(11, 15, 7), uint16], Tensor[(11, 15, 7), uint64], Tensor[(11, 10, 4), float32], Tensor[(5, 88), float32], Tensor[(11, 10, 4), float32], Tensor[(11, 15, 7), float64]) */;
  %857 = %834.2;
  %858 = %837.0;
  %859 = %844.7;
  %860 = %851.8;
  %861 = %856.2;
  (%857, %858, %var_1719, %859, %var_1726, meta[relay.Constant][52] /* ty=Tensor[(10, 30), float32] */, %var_1728, %860, %861, %var_1739)
}

def @func_7436() -> (Tensor[(13, 13, 8), float32], Tensor[(13, 13, 8), float32], Tensor[(9, 3, 5), float64], Tensor[(135), float64]) {
  %862 = @func_6977() /* ty=(Tensor[(13, 13, 8), float32],) */;
  %863 = @func_6843() /* ty=(Tensor[(13, 13, 8), float64], Tensor[(13, 13, 8), float32], Tensor[(13, 13, 8), float32]) */;
  %864 = cast(meta[relay.Constant][53] /* ty=Tensor[(135), float64] */, dtype="float64") /* ty=Tensor[(135), float64] */;
  %865 = reshape(%864, newshape=[9, 3, 5]) /* ty=Tensor[(9, 3, 5), float64] */;
  %866 = %862.0;
  %867 = %863.1;
  %868 = @func_3225(%865) /* ty=Tensor[(9, 3, 5), float64] */;
  (%866, %867, %868, meta[relay.Constant][53] /* ty=Tensor[(135), float64] */)
}

def @func_8456(%var_8439: Tensor[(9, 1, 7), uint16], %var_8440: Tensor[(9, 6, 7), uint16]) -> (Tensor[(9, 6, 7), uint16], Tensor[(9, 1, 7), float32]) {
  %869 = cast(%var_8439, dtype="uint16") /* ty=Tensor[(9, 1, 7), uint16] */;
  %870 = cast(%var_8440, dtype="uint16") /* ty=Tensor[(9, 6, 7), uint16] */;
  %871 = cast(%var_8439, dtype="float32") /* ty=Tensor[(9, 1, 7), float32] */;
  %872 = bitwise_and(%869, %870) /* ty=Tensor[(9, 6, 7), uint16] */;
  %873 = log2(%871) /* ty=Tensor[(9, 1, 7), float32] */;
  (%872, %873)
}

def @func_2073(%var_2069: Tensor[(300), float32], %var_2070: Tensor[(360), uint8]) -> (Tensor[(13, 13, 8), int64], Tensor[(9, 10, 16), uint16], Tensor[(1440), uint16], Tensor[(300), float32], Tensor[(360), uint8]) {
  %874 = @func_1602() /* ty=(Tensor[(7, 9, 15), float64], Tensor[(13, 13, 8), float32], Tensor[(104), int16], Tensor[(1352), int16]) */;
  %875 = %874.1;
  %876 = cast(meta[relay.Constant][54] /* ty=Tensor[(13, 13, 8), float32] */, dtype="int64") /* ty=Tensor[(13, 13, 8), int64] */;
  %877 = shape_of(%875, dtype="int32") /* ty=Tensor[(3), int32] */;
  %878 = cast(%875, dtype="int64") /* ty=Tensor[(13, 13, 8), int64] */;
  %879 = dyn.reshape(%876, %877, newshape=[]) /* ty=Tensor[(?, ?, ?), int64] */;
  %880 = cast(meta[relay.Constant][55] /* ty=Tensor[(1440), uint16] */, dtype="uint16") /* ty=Tensor[(1440), uint16] */;
  %881 = cast(%var_2069, dtype="float32") /* ty=Tensor[(300), float32] */;
  %882 = cast(%var_2070, dtype="uint8") /* ty=Tensor[(360), uint8] */;
  %883 = reshape(%880, newshape=[9, 10, 16]) /* ty=Tensor[(9, 10, 16), uint16] */;
  %884 = reshape(%881, newshape=[300]) /* ty=Tensor[(300), float32] */;
  %885 = reshape(%882, newshape=[360, 1]) /* ty=Tensor[(360, 1), uint8] */;
  %886 = @func_709(%883, %884, %885) /* ty=(Tensor[(9, 10, 16), uint16], Tensor[(11, 10, 4), float32], Tensor[(1155), int8], Tensor[(9, 10, 16), float64], Tensor[(11, 15, 7), uint64], Tensor[(11, 10, 4), float32], Tensor[(4, 5, 15), float32], Tensor[(300), float32], Tensor[(10, 9, 4), bool], Tensor[(360, 1), uint8], Tensor[(11, 10, 4), float32]) */;
  %887 = bitwise_or(%878, %879) /* ty=Tensor[(13, 13, 8), int64] */;
  %888 = %886.0;
  (%887, %888, meta[relay.Constant][55] /* ty=Tensor[(1440), uint16] */, %var_2069, %var_2070)
}

def @func_7956(%var_7938: Tensor[(35280), float32]) -> (Tensor[(13, 13, 8), float32], Tensor[(104), int16], Tensor[(13, 13, 8), float32], Tensor[(6, 60), uint8], Tensor[(35280), float32]) {
  %889 = @func_4642() /* ty=(Tensor[(104), int16],) */;
  %890 = cast(meta[relay.Constant][56] /* ty=Tensor[(6, 60), uint8] */, dtype="uint8") /* ty=Tensor[(6, 60), uint8] */;
  %891 = cast(%var_7938, dtype="float32") /* ty=Tensor[(35280), float32] */;
  %892 = reshape(%890, newshape=[360]) /* ty=Tensor[(360), uint8] */;
  %893 = reshape(%891, newshape=[14, 7, 360]) /* ty=Tensor[(14, 7, 360), float32] */;
  %894 = @func_6498(%892, %893) /* ty=(Tensor[(10, 9, 4), bool], Tensor[(13, 13, 8), float32], Tensor[(14, 7, 360), int64]) */;
  %895 = @func_4796() /* ty=Tensor[(13, 13, 8), float32] */;
  %896 = %889.0;
  %897 = %894.1;
  (%895, %896, %897, meta[relay.Constant][56] /* ty=Tensor[(6, 60), uint8] */, %var_7938)
}

def @func_4489() -> Tensor[(13, 13, 8), float32] {
  %898 = @func_2648() /* ty=(Tensor[(13, 13, 8), float32],) */;
  %898.0
}

def @func_5188() -> (Tensor[(13, 13, 8), float32], Tensor[(4, 5, 15), float32], Tensor[(300), float32], Tensor[(13, 13, 8), float32], Tensor[(13, 13, 8), float32], Tensor[(11, 10, 4), float32], Tensor[(7, 165), int8]) {
  %899 = cast(meta[relay.Constant][57] /* ty=Tensor[(300), float32] */, dtype="float32") /* ty=Tensor[(300), float32] */;
  %900 = reshape(%899, newshape=[4, 5, 15]) /* ty=Tensor[(4, 5, 15), float32] */;
  %901 = @func_2548() /* ty=(Tensor[(13, 13, 8), float32], Tensor[(13, 13, 8), float32]) */;
  %902 = cast(meta[relay.Constant][58] /* ty=Tensor[(7, 165), int8] */, dtype="int8") /* ty=Tensor[(7, 165), int8] */;
  %903 = cast(meta[relay.Constant][58] /* ty=Tensor[(7, 165), int8] */, dtype="int8") /* ty=Tensor[(7, 165), int8] */;
  %904 = reshape(%902, newshape=[11, 15, 7]) /* ty=Tensor[(11, 15, 7), int8] */;
  %905 = reshape(%903, newshape=[11, 15, 7]) /* ty=Tensor[(11, 15, 7), int8] */;
  %906 = @func_257(%904, %905) /* ty=(Tensor[(11, 15, 7), uint16], Tensor[(11, 15, 7), uint64], Tensor[(11, 10, 4), float32], Tensor[(5, 88), float32], Tensor[(11, 10, 4), float32], Tensor[(11, 15, 7), float64]) */;
  %907 = @func_2250() /* ty=Tensor[(13, 13, 8), float32] */;
  %908 = @func_316(%900) /* ty=Tensor[(4, 5, 15), float32] */;
  %909 = %901.0;
  %910 = @func_3773() /* ty=Tensor[(13, 13, 8), float32] */;
  %911 = %906.4;
  (%907, %908, meta[relay.Constant][57] /* ty=Tensor[(300), float32] */, %909, %910, %911, meta[relay.Constant][58] /* ty=Tensor[(7, 165), int8] */)
}

def @func_7515() -> (Tensor[(13, 13, 8), float32],) {
  %912 = @func_3773() /* ty=Tensor[(13, 13, 8), float32] */;
  (%912,)
}

def @func_13260() -> (Tensor[(135), float64], Tensor[(13, 13, 8), float32], Tensor[(338, 4), int16]) {
  %913 = @func_10144() /* ty=(Tensor[(135), float64],) */;
  %914 = cast(meta[relay.Constant][59] /* ty=Tensor[(338, 4), int16] */, dtype="int16") /* ty=Tensor[(338, 4), int16] */;
  %915 = reshape(%914, newshape=[1352]) /* ty=Tensor[(1352), int16] */;
  %916 = @func_3011(%915) /* ty=(Tensor[(104), int16], Tensor[(13, 13, 8), float32], Tensor[(1352), int16]) */;
  %917 = %913.0;
  %918 = %916.1;
  (%917, %918, meta[relay.Constant][59] /* ty=Tensor[(338, 4), int16] */)
}

def @func_6234() -> Tensor[(13, 13, 8), float32] {
  %919 = @func_5278() /* ty=(Tensor[(13, 13, 8), float32], Tensor[(7, 14, 10), float64], Tensor[(980), float64], Tensor[(11, 10, 4), float32], Tensor[(440), float32]) */;
  %919.0
}

def @func_9058() -> (Tensor[(13, 13, 8), float32], Tensor[(360), float32], Tensor[(104), float64], Tensor[(14, 7, 1), float64], Tensor[(13, 13, 8), float32]) {
  %920 = cast(meta[relay.Constant][60] /* ty=Tensor[(104), int16] */, dtype="int16") /* ty=Tensor[(104), int16] */;
  %921 = reshape(%920, newshape=[104]) /* ty=Tensor[(104), int16] */;
  %922 = @func_7047(%921) /* ty=(Tensor[(104), float64], Tensor[(5, 9, 8), float32], Tensor[(360), float32]) */;
  %923 = cast(meta[relay.Constant][60] /* ty=Tensor[(104), int16] */, dtype="float64") /* ty=Tensor[(104), float64] */;
  %924 = @func_6193() /* ty=(Tensor[(14, 7, 1), float64],) */;
  %925 = @func_5975() /* ty=Tensor[(13, 13, 8), float32] */;
  %926 = %922.2;
  %927 = atanh(%923) /* ty=Tensor[(104), float64] */;
  %928 = %924.0;
  %929 = @func_7758() /* ty=Tensor[(13, 13, 8), float32] */;
  (%925, %926, %927, %928, %929)
}

def @func_5515() -> (Tensor[(13, 13, 8), float32], Tensor[(13, 13, 8), float32]) {
  %930 = @func_4182() /* ty=(Tensor[(13, 13, 8), float32], Tensor[(13, 13, 8), float32]) */;
  %931 = @func_5462() /* ty=Tensor[(13, 13, 8), float32] */;
  %932 = %930.1;
  (%931, %932)
}

def @func_4572() -> Tensor[(360), uint8] {
  %933 = @func_3309() /* ty=(Tensor[(13, 13, 8), float32], Tensor[(10, 9, 4), bool], Tensor[(360), uint8]) */;
  %933.2
}

def @func_11298() -> (Tensor[(104), int16],) {
  %934 = @func_1602() /* ty=(Tensor[(7, 9, 15), float64], Tensor[(13, 13, 8), float32], Tensor[(104), int16], Tensor[(1352), int16]) */;
  %935 = %934.2;
  (%935,)
}

def @main(%var_16366: Tensor[(11, 12, 10), uint32], %var_16367: Tensor[(11, 12, 10), uint32]) -> (Tensor[(11, 12, 10), bool],) {
  %936 = cast(%var_16367, dtype="bool") /* ty=Tensor[(11, 12, 10), bool] */;
  %937 = shape_of(%var_16366, dtype="int32") /* ty=Tensor[(3), int32] */;
  %938 = cast(%var_16366, dtype="bool") /* ty=Tensor[(11, 12, 10), bool] */;
  %939 = dyn.reshape(%936, %937, newshape=[]) /* ty=Tensor[(?, ?, ?), bool] */;
  %940 = greater(%938, %939) /* ty=Tensor[(11, 12, 10), bool] */;
  (%940,)
}

def @func_13582() -> Tensor[(13, 13, 8), bool] {
  %941 = @func_11828() /* ty=(Tensor[(13, 13, 8), float32], Tensor[(13, 13, 8), bool]) */;
  %941.1
}

def @func_11710() -> (Tensor[(13, 13, 8), float32], Tensor[(11, 10, 4), float32], Tensor[(1155), bool]) {
  %942 = @func_7452() /* ty=(Tensor[(13, 13, 8), float32], Tensor[(13, 13, 8), float32]) */;
  %943 = cast(meta[relay.Constant][61] /* ty=Tensor[(1155), int8] */, dtype="int8") /* ty=Tensor[(1155), int8] */;
  %944 = cast(meta[relay.Constant][61] /* ty=Tensor[(1155), int8] */, dtype="int8") /* ty=Tensor[(1155), int8] */;
  %945 = reshape(%943, newshape=[11, 15, 7]) /* ty=Tensor[(11, 15, 7), int8] */;
  %946 = reshape(%944, newshape=[11, 15, 7]) /* ty=Tensor[(11, 15, 7), int8] */;
  %947 = @func_257(%945, %946) /* ty=(Tensor[(11, 15, 7), uint16], Tensor[(11, 15, 7), uint64], Tensor[(11, 10, 4), float32], Tensor[(5, 88), float32], Tensor[(11, 10, 4), float32], Tensor[(11, 15, 7), float64]) */;
  %948 = cast(meta[relay.Constant][61] /* ty=Tensor[(1155), int8] */, dtype="float64") /* ty=Tensor[(1155), float64] */;
  %949 = log(%948) /* ty=Tensor[(1155), float64] */;
  %950 = cast(meta[relay.Constant][61] /* ty=Tensor[(1155), int8] */, dtype="int8") /* ty=Tensor[(1155), int8] */;
  %951 = cast(%949, dtype="int8") /* ty=Tensor[(1155), int8] */;
  %952 = reshape(%950, newshape=[11, 15, 7]) /* ty=Tensor[(11, 15, 7), int8] */;
  %953 = reshape(%951, newshape=[11, 15, 7]) /* ty=Tensor[(11, 15, 7), int8] */;
  %954 = @func_257(%952, %953) /* ty=(Tensor[(11, 15, 7), uint16], Tensor[(11, 15, 7), uint64], Tensor[(11, 10, 4), float32], Tensor[(5, 88), float32], Tensor[(11, 10, 4), float32], Tensor[(11, 15, 7), float64]) */;
  %955 = %954.0;
  %956 = cast(%955, dtype="bool") /* ty=Tensor[(11, 15, 7), bool] */;
  %957 = shape_of(%949, dtype="int32") /* ty=Tensor[(1), int32] */;
  %958 = cast(%949, dtype="bool") /* ty=Tensor[(1155), bool] */;
  %959 = dyn.reshape(%956, %957, newshape=[]) /* ty=Tensor[(?), bool] */;
  %960 = %942.1;
  %961 = %947.2;
  %962 = greater_equal(%958, %959) /* ty=Tensor[(1155), bool] */;
  (%960, %961, %962)
}

def @func_10619() -> (Tensor[(13, 13, 8), float32], Tensor[(13, 13, 8), float32], Tensor[(1, 286), float32], Tensor[(1352), int16]) {
  %963 = @func_4389() /* ty=(Tensor[(13, 13, 8), float32], Tensor[(104), int16]) */;
  %964 = cast(meta[relay.Constant][62] /* ty=Tensor[(1, 286), float32] */, dtype="float32") /* ty=Tensor[(1, 286), float32] */;
  %965 = reshape(%964, newshape=[26, 11]) /* ty=Tensor[(26, 11), float32] */;
  %966 = @func_5733(%965) /* ty=(Tensor[(13, 13, 8), float32], Tensor[(13, 13, 8), float32], Tensor[(13, 11, 2), float64], Tensor[(26, 11), float32]) */;
  %967 = %963.0;
  %968 = cast(%967, dtype="int16") /* ty=Tensor[(13, 13, 8), int16] */;
  %969 = reshape(%968, newshape=[1352]) /* ty=Tensor[(1352), int16] */;
  %970 = @func_3011(%969) /* ty=(Tensor[(104), int16], Tensor[(13, 13, 8), float32], Tensor[(1352), int16]) */;
  %971 = %966.0;
  %972 = %970.2;
  (%967, %971, meta[relay.Constant][62] /* ty=Tensor[(1, 286), float32] */, %972)
}

def @func_1785() -> Tensor[(13, 13, 8), float32] {
  %973 = @func_1602() /* ty=(Tensor[(7, 9, 15), float64], Tensor[(13, 13, 8), float32], Tensor[(104), int16], Tensor[(1352), int16]) */;
  %973.1
}

def @func_11416(%var_11408: Tensor[(1155), float64]) -> (Tensor[(13, 13, 8), uint8], Tensor[(7, 4, 13), bool], Tensor[(364), int32], float32, Tensor[(3136), float32], Tensor[(1155), int64]) {
  %974 = @func_10724() /* ty=(Tensor[(13, 13, 8), uint8],) */;
  %975 = cast(meta[relay.Constant][63] /* ty=Tensor[(364), int32] */, dtype="int32") /* ty=Tensor[(364), int32] */;
  %976 = reshape(%975, newshape=[364]) /* ty=Tensor[(364), int32] */;
  %977 = @func_8233(%976) /* ty=(Tensor[(13, 13, 8), float32], Tensor[(13, 13, 8), float32], Tensor[(13, 13, 8), float32], Tensor[(7, 4, 13), bool], Tensor[(364), int32]) */;
  %978 = cast(-3.09999f /* ty=float32 */, dtype="float32") /* ty=float32 */;
  %979 = cast(meta[relay.Constant][64] /* ty=Tensor[(3136), float32] */, dtype="float32") /* ty=Tensor[(3136), float32] */;
  %980 = reshape(%978, newshape=[]) /* ty=float32 */;
  %981 = reshape(%979, newshape=[14, 16, 14]) /* ty=Tensor[(14, 16, 14), float32] */;
  %982 = @func_9806(%980, %981) /* ty=(Tensor[(14, 16, 14), float32], Tensor[(13, 13, 8), float32], Tensor[(11, 10, 4), float32], Tensor[(1155), int8]) */;
  %983 = %982.3;
  %984 = cast(%983, dtype="float64") /* ty=Tensor[(1155), float64] */;
  %985 = erf(%984) /* ty=Tensor[(1155), float64] */;
  %986 = cast(%var_11408, dtype="int64") /* ty=Tensor[(1155), int64] */;
  %987 = shape_of(%985, dtype="int32") /* ty=Tensor[(1), int32] */;
  %988 = cast(%985, dtype="int64") /* ty=Tensor[(1155), int64] */;
  %989 = dyn.reshape(%986, %987, newshape=[]) /* ty=Tensor[(?), int64] */;
  %990 = %974.0;
  %991 = %977.3;
  %992 = maximum(%988, %989) /* ty=Tensor[(1155), int64] */;
  (%990, %991, meta[relay.Constant][63] /* ty=Tensor[(364), int32] */, -3.09999f /* ty=float32 */, meta[relay.Constant][64] /* ty=Tensor[(3136), float32] */, %992)
}

def @func_8820(%var_8800: Tensor[(364), int32], %var_8815: Tensor[(704), bool]) -> (Tensor[(13, 13, 8), float32], Tensor[(7, 4, 13), bool], Tensor[(364), int32], Tensor[(13, 13, 8), bool], Tensor[(13, 13, 8), float32], Tensor[(11, 4, 16), uint32], Tensor[(704), bool]) {
  %993 = @func_3890() /* ty=(Tensor[(13, 13, 8), float32],) */;
  %994 = cast(%var_8800, dtype="int32") /* ty=Tensor[(364), int32] */;
  %995 = cast(%var_8800, dtype="int32") /* ty=Tensor[(364), int32] */;
  %996 = reshape(%994, newshape=[7, 4, 13]) /* ty=Tensor[(7, 4, 13), int32] */;
  %997 = reshape(%995, newshape=[7, 4, 13]) /* ty=Tensor[(7, 4, 13), int32] */;
  %998 = @func_4099(%996, %997) /* ty=(Tensor[(7, 4, 13), bool], Tensor[(7, 4, 13), float32], Tensor[(360), uint8]) */;
  %999 = @func_4182() /* ty=(Tensor[(13, 13, 8), float32], Tensor[(13, 13, 8), float32]) */;
  %1000 = cast(%var_8815, dtype="bool") /* ty=Tensor[(704), bool] */;
  %1001 = reshape(%1000, newshape=[704]) /* ty=Tensor[(704), bool] */;
  %1002 = @func_6114(%1001) /* ty=(Tensor[(11, 4, 16), uint32], Tensor[(10, 9, 4), float64], Tensor[(704), uint64], Tensor[(980), bool]) */;
  %1003 = %993.0;
  %1004 = %998.0;
  %1005 = @func_4055() /* ty=Tensor[(13, 13, 8), bool] */;
  %1006 = %999.1;
  %1007 = %1002.0;
  (%1003, %1004, %var_8800, %1005, %1006, %1007, %var_8815)
}

def @func_2648() -> (Tensor[(13, 13, 8), float32],) {
  %1008 = @func_2220() /* ty=(Tensor[(13, 13, 8), float32], Tensor[(4, 5, 15), float32], Tensor[(300), float32]) */;
  %1009 = %1008.0;
  (%1009,)
}

def @func_15517() -> Tensor[(300), float32] {
  %1010 = @func_2762() /* ty=(Tensor[(300), float32], Tensor[(300), float32], Tensor[(13, 13, 8), float32]) */;
  %1010.0
}

def @func_4365() -> Tensor[(13, 13, 8), bool] {
  %1011 = @func_3862() /* ty=(Tensor[(13, 13, 8), bool], Tensor[(13, 13, 8), bool]) */;
  %1011.1
}

def @func_2632(%var_2624: Tensor[(300), float32], %var_2625: Tensor[(360), uint8]) -> (Tensor[(13, 13, 8), float32], Tensor[(11, 10, 4), float32], Tensor[(1440), uint16], Tensor[(300), float32], Tensor[(360), uint8]) {
  %1012 = cast(meta[relay.Constant][65] /* ty=Tensor[(1440), uint16] */, dtype="uint16") /* ty=Tensor[(1440), uint16] */;
  %1013 = cast(%var_2624, dtype="float32") /* ty=Tensor[(300), float32] */;
  %1014 = cast(%var_2625, dtype="uint8") /* ty=Tensor[(360), uint8] */;
  %1015 = reshape(%1012, newshape=[9, 10, 16]) /* ty=Tensor[(9, 10, 16), uint16] */;
  %1016 = reshape(%1013, newshape=[300]) /* ty=Tensor[(300), float32] */;
  %1017 = reshape(%1014, newshape=[360, 1]) /* ty=Tensor[(360, 1), uint8] */;
  %1018 = @func_709(%1015, %1016, %1017) /* ty=(Tensor[(9, 10, 16), uint16], Tensor[(11, 10, 4), float32], Tensor[(1155), int8], Tensor[(9, 10, 16), float64], Tensor[(11, 15, 7), uint64], Tensor[(11, 10, 4), float32], Tensor[(4, 5, 15), float32], Tensor[(300), float32], Tensor[(10, 9, 4), bool], Tensor[(360, 1), uint8], Tensor[(11, 10, 4), float32]) */;
  %1019 = @func_2250() /* ty=Tensor[(13, 13, 8), float32] */;
  %1020 = %1018.5;
  (%1019, %1020, meta[relay.Constant][65] /* ty=Tensor[(1440), uint16] */, %var_2624, %var_2625)
}

def @func_6114(%var_6097: Tensor[(704), bool]) -> (Tensor[(11, 4, 16), uint32], Tensor[(10, 9, 4), float64], Tensor[(704), uint64], Tensor[(980), bool]) {
  %1021 = cast(meta[relay.Constant][66] /* ty=Tensor[(704), bool] */, dtype="bool") /* ty=Tensor[(704), bool] */;
  %1022 = cast(meta[relay.Constant][66] /* ty=Tensor[(704), bool] */, dtype="bool") /* ty=Tensor[(704), bool] */;
  %1023 = reshape(%1021, newshape=[11, 4, 16]) /* ty=Tensor[(11, 4, 16), bool] */;
  %1024 = reshape(%1022, newshape=[11, 4, 16]) /* ty=Tensor[(11, 4, 16), bool] */;
  %1025 = @func_3309() /* ty=(Tensor[(13, 13, 8), float32], Tensor[(10, 9, 4), bool], Tensor[(360), uint8]) */;
  %1026 = %1025.1;
  %1027 = cast(%1026, dtype="float64") /* ty=Tensor[(10, 9, 4), float64] */;
  %1028 = cast(%var_6097, dtype="uint64") /* ty=Tensor[(704), uint64] */;
  %1029 = shape_of(meta[relay.Constant][66] /* ty=Tensor[(704), bool] */, dtype="int32") /* ty=Tensor[(1), int32] */;
  %1030 = cast(meta[relay.Constant][66] /* ty=Tensor[(704), bool] */, dtype="uint64") /* ty=Tensor[(704), uint64] */;
  %1031 = dyn.reshape(%1028, %1029, newshape=[]) /* ty=Tensor[(?), uint64] */;
  %1032 = cast(meta[relay.Constant][67] /* ty=Tensor[(980), float64] */, dtype="float64") /* ty=Tensor[(980), float64] */;
  %1033 = reshape(%1032, newshape=[7, 14, 10]) /* ty=Tensor[(7, 14, 10), float64] */;
  %1034 = @func_3911(%1033) /* ty=Tensor[(7, 14, 10), float64] */;
  %1035 = cast(%1034, dtype="bool") /* ty=Tensor[(7, 14, 10), bool] */;
  %1036 = shape_of(meta[relay.Constant][67] /* ty=Tensor[(980), float64] */, dtype="int32") /* ty=Tensor[(1), int32] */;
  %1037 = cast(meta[relay.Constant][67] /* ty=Tensor[(980), float64] */, dtype="bool") /* ty=Tensor[(980), bool] */;
  %1038 = dyn.reshape(%1035, %1036, newshape=[]) /* ty=Tensor[(?), bool] */;
  %1039 = @func_3242(%1023, %1024) /* ty=Tensor[(11, 4, 16), uint32] */;
  %1040 = acos(%1027) /* ty=Tensor[(10, 9, 4), float64] */;
  %1041 = bitwise_or(%1030, %1031) /* ty=Tensor[(704), uint64] */;
  %1042 = less_equal(%1037, %1038) /* ty=Tensor[(980), bool] */;
  (%1039, %1040, %1041, %1042)
}

def @func_12660() -> (Tensor[(13, 13, 8), float32], Tensor[(13, 13, 8), bool], Tensor[(13, 13, 8), uint8]) {
  %1043 = @func_4560() /* ty=(Tensor[(13, 13, 8), uint8], Tensor[(13, 13, 8), float32], Tensor[(13, 13, 8), float32]) */;
  %1044 = @func_2602() /* ty=Tensor[(13, 13, 8), float32] */;
  %1045 = @func_6720() /* ty=Tensor[(13, 13, 8), bool] */;
  %1046 = %1043.0;
  (%1044, %1045, %1046)
}

def @func_11828() -> (Tensor[(13, 13, 8), float32], Tensor[(13, 13, 8), bool]) {
  %1047 = @func_6449() /* ty=(Tensor[(13, 13, 8), float32],) */;
  %1048 = @func_8856() /* ty=(Tensor[(13, 13, 8), float32], Tensor[(13, 13, 8), bool], Tensor[(9, 3, 5), float64], Tensor[(135), float64]) */;
  %1049 = %1047.0;
  %1050 = %1048.1;
  (%1049, %1050)
}

def @func_11952() -> Tensor[(360), uint8] {
  %1051 = @func_9249() /* ty=(Tensor[(13, 13, 8), float32], Tensor[(13, 13, 8), float32], Tensor[(360), uint8], Tensor[(300), float32], Tensor[(2, 180), uint8]) */;
  %1051.2
}

def @func_4055() -> Tensor[(13, 13, 8), bool] {
  %1052 = @func_3547() /* ty=(Tensor[(13, 13, 8), float32], Tensor[(13, 13, 8), bool], Tensor[(104), int16], Tensor[(13, 13, 8), float32]) */;
  %1052.1
}

def @func_15597(%var_15587: Tensor[(13, 5, 4), float32]) -> (Tensor[(13, 5, 4), float32],) {
  %1053 = cast(%var_15587, dtype="float32") /* ty=Tensor[(13, 5, 4), float32] */;
  %1054 = log10(%1053) /* ty=Tensor[(13, 5, 4), float32] */;
  (%1054,)
}

def @func_13024() -> Tensor[(13, 13, 8), uint8] {
  %1055 = @func_12047() /* ty=(Tensor[(13, 13, 8), uint8],) */;
  %1055.0
}

def @func_15465() -> (Tensor[(13, 13, 8), float32], Tensor[(13, 13, 8), float32], Tensor[(104), int16]) {
  %1056 = @func_6325() /* ty=(Tensor[(13, 13, 8), float32], Tensor[(13, 13, 8), float32]) */;
  %1057 = @func_13476() /* ty=(Tensor[(13, 13, 8), float32], Tensor[(13, 13, 8), float32]) */;
  %1058 = @func_4389() /* ty=(Tensor[(13, 13, 8), float32], Tensor[(104), int16]) */;
  %1059 = %1056.1;
  %1060 = %1057.0;
  %1061 = %1058.1;
  (%1059, %1060, %1061)
}

def @func_3225(%var_3221: Tensor[(9, 3, 5), float64]) -> Tensor[(9, 3, 5), float64] {
  %1062 = cast(%var_3221, dtype="float64") /* ty=Tensor[(9, 3, 5), float64] */;
  %1063 = shape_of(meta[relay.Constant][68] /* ty=Tensor[(9, 3, 5), float64] */, dtype="int32") /* ty=Tensor[(3), int32] */;
  %1064 = cast(meta[relay.Constant][68] /* ty=Tensor[(9, 3, 5), float64] */, dtype="float64") /* ty=Tensor[(9, 3, 5), float64] */;
  %1065 = dyn.reshape(%1062, %1063, newshape=[]) /* ty=Tensor[(?, ?, ?), float64] */;
  floor_mod(%1064, %1065) /* ty=Tensor[(9, 3, 5), float64] */
}

def @func_2999(%var_2954: Tensor[(13, 13, 8), float32]) -> (Tensor[(13, 13, 8), uint16], Tensor[(13, 13, 8), float32], Tensor[(13, 13, 8), float32], Tensor[(13, 13, 8), float32], Tensor[(1440), uint16], Tensor[(300), float32], Tensor[(180, 2), uint8]) {
  %1066 = @func_2429() /* ty=Tensor[(13, 13, 8), float32] */;
  %1067 = cast(%var_2954, dtype="uint16") /* ty=Tensor[(13, 13, 8), uint16] */;
  %1068 = shape_of(%1066, dtype="int32") /* ty=Tensor[(3), int32] */;
  %1069 = cast(%1066, dtype="uint16") /* ty=Tensor[(13, 13, 8), uint16] */;
  %1070 = dyn.reshape(%1067, %1068, newshape=[]) /* ty=Tensor[(?, ?, ?), uint16] */;
  %1071 = @func_2378() /* ty=(Tensor[(13, 13, 8), float32],) */;
  %1072 = @func_2220() /* ty=(Tensor[(13, 13, 8), float32], Tensor[(4, 5, 15), float32], Tensor[(300), float32]) */;
  %1073 = cast(meta[relay.Constant][69] /* ty=Tensor[(300), float32] */, dtype="float32") /* ty=Tensor[(300), float32] */;
  %1074 = cast(meta[relay.Constant][70] /* ty=Tensor[(180, 2), uint8] */, dtype="uint8") /* ty=Tensor[(180, 2), uint8] */;
  %1075 = reshape(%1073, newshape=[300]) /* ty=Tensor[(300), float32] */;
  %1076 = reshape(%1074, newshape=[360]) /* ty=Tensor[(360), uint8] */;
  %1077 = @func_2073(%1075, %1076) /* ty=(Tensor[(13, 13, 8), int64], Tensor[(9, 10, 16), uint16], Tensor[(1440), uint16], Tensor[(300), float32], Tensor[(360), uint8]) */;
  %1078 = bitwise_xor(%1069, %1070) /* ty=Tensor[(13, 13, 8), uint16] */;
  %1079 = @func_1785() /* ty=Tensor[(13, 13, 8), float32] */;
  %1080 = %1071.0;
  %1081 = %1072.0;
  %1082 = %1077.2;
  (%1078, %1079, %1080, %1081, %1082, meta[relay.Constant][69] /* ty=Tensor[(300), float32] */, meta[relay.Constant][70] /* ty=Tensor[(180, 2), uint8] */)
}

def @func_7187(%var_7164: Tensor[(13, 13, 8), float32], %var_7170: Tensor[(360), uint8], %var_7171: Tensor[(2, 17640), float32]) -> (Tensor[(13, 13, 8), float32], Tensor[(13, 13, 8), uint64], Tensor[(14, 7, 360), int64], Tensor[(360), uint8], Tensor[(2, 17640), float32], Tensor[(13, 13, 8), uint8]) {
  %1083 = @func_3615() /* ty=(Tensor[(13, 13, 8), float32],) */;
  %1084 = @func_4796() /* ty=Tensor[(13, 13, 8), float32] */;
  %1085 = cast(%var_7164, dtype="uint64") /* ty=Tensor[(13, 13, 8), uint64] */;
  %1086 = shape_of(%1084, dtype="int32") /* ty=Tensor[(3), int32] */;
  %1087 = cast(%1084, dtype="uint64") /* ty=Tensor[(13, 13, 8), uint64] */;
  %1088 = dyn.reshape(%1085, %1086, newshape=[]) /* ty=Tensor[(?, ?, ?), uint64] */;
  %1089 = cast(%var_7170, dtype="uint8") /* ty=Tensor[(360), uint8] */;
  %1090 = cast(%var_7171, dtype="float32") /* ty=Tensor[(2, 17640), float32] */;
  %1091 = reshape(%1089, newshape=[360]) /* ty=Tensor[(360), uint8] */;
  %1092 = reshape(%1090, newshape=[14, 7, 360]) /* ty=Tensor[(14, 7, 360), float32] */;
  %1093 = @func_6498(%1091, %1092) /* ty=(Tensor[(10, 9, 4), bool], Tensor[(13, 13, 8), float32], Tensor[(14, 7, 360), int64]) */;
  %1094 = @func_3469() /* ty=(Tensor[(13, 13, 8), uint8],) */;
  %1095 = %1083.0;
  %1096 = maximum(%1087, %1088) /* ty=Tensor[(13, 13, 8), uint64] */;
  %1097 = %1093.2;
  %1098 = %1094.0;
  (%1095, %1096, %1097, %var_7170, %var_7171, %1098)
}

def @func_7803() -> (Tensor[(13, 13, 8), float32],) {
  %1099 = @func_3745() /* ty=(Tensor[(13, 13, 8), float32], Tensor[(13, 13, 8), float32]) */;
  %1100 = %1099.1;
  %1101 = cast(%1100, dtype="float32") /* ty=Tensor[(13, 13, 8), float32] */;
  %1102 = sqrt(%1101) /* ty=Tensor[(13, 13, 8), float32] */;
  (%1102,)
}

def @func_3615() -> (Tensor[(13, 13, 8), float32],) {
  %1103 = @func_2250() /* ty=Tensor[(13, 13, 8), float32] */;
  (%1103,)
}

def @func_5066() -> Tensor[(300), float32] {
  %1104 = @func_2220() /* ty=(Tensor[(13, 13, 8), float32], Tensor[(4, 5, 15), float32], Tensor[(300), float32]) */;
  %1104.2
}

def @func_9398(%var_9365: Tensor[(2, 8, 13), float32]) -> (Tensor[(2, 8, 13), float32], Tensor[(54), float64], bool, Tensor[(2), bool]) {
  %1105 = cast(meta[relay.Constant][71] /* ty=Tensor[(2, 8, 13), float32] */, dtype="float32") /* ty=Tensor[(2, 8, 13), float32] */;
  %1106 = shape_of(%var_9365, dtype="int32") /* ty=Tensor[(3), int32] */;
  %1107 = cast(%var_9365, dtype="float32") /* ty=Tensor[(2, 8, 13), float32] */;
  %1108 = dyn.reshape(%1105, %1106, newshape=[]) /* ty=Tensor[(?, ?, ?), float32] */;
  %1109 = cast(True /* ty=bool */, dtype="bool") /* ty=bool */;
  %1110 = cast(meta[relay.Constant][72] /* ty=Tensor[(2), bool] */, dtype="bool") /* ty=Tensor[(2), bool] */;
  %1111 = reshape(%1109, newshape=[]) /* ty=bool */;
  %1112 = reshape(%1110, newshape=[2, 1]) /* ty=Tensor[(2, 1), bool] */;
  %1113 = @func_7141(%1111, %1112) /* ty=(Tensor[(2, 1), bool], Tensor[(13, 13, 8), bool], Tensor[(54), float64]) */;
  %1114 = floor_divide(%1107, %1108) /* ty=Tensor[(2, 8, 13), float32] */;
  %1115 = %1113.2;
  (%1114, %1115, True /* ty=bool */, meta[relay.Constant][72] /* ty=Tensor[(2), bool] */)
}

def @func_10592() -> Tensor[(13, 13, 8), float32] {
  %1116 = @func_10441() /* ty=(Tensor[(13, 13, 8), float32],) */;
  %1116.0
}

def @func_12709() -> (Tensor[(54), bool],) {
  %1117 = @func_8681() /* ty=Tensor[(54), float64] */;
  %1118 = cast(meta[relay.Constant][73] /* ty=Tensor[(54), float64] */, dtype="bool") /* ty=Tensor[(54), bool] */;
  %1119 = shape_of(%1117, dtype="int32") /* ty=Tensor[(1), int32] */;
  %1120 = cast(%1117, dtype="bool") /* ty=Tensor[(54), bool] */;
  %1121 = dyn.reshape(%1118, %1119, newshape=[]) /* ty=Tensor[(?), bool] */;
  %1122 = less_equal(%1120, %1121) /* ty=Tensor[(54), bool] */;
  (%1122,)
}

def @func_10382() -> (Tensor[(13, 13, 8), float32],) {
  %1123 = @func_7803() /* ty=(Tensor[(13, 13, 8), float32],) */;
  %1124 = %1123.0;
  (%1124,)
}

def @func_4460() -> Tensor[(13, 13, 8), float32] {
  @func_3773() /* ty=Tensor[(13, 13, 8), float32] */
}

def @func_9874() -> (Tensor[(104), int16], Tensor[(13, 13, 8), float32]) {
  %1125 = @func_3547() /* ty=(Tensor[(13, 13, 8), float32], Tensor[(13, 13, 8), bool], Tensor[(104), int16], Tensor[(13, 13, 8), float32]) */;
  %1126 = @func_8871() /* ty=(Tensor[(13, 13, 8), float32],) */;
  %1127 = %1125.2;
  %1128 = %1126.0;
  (%1127, %1128)
}

def @func_16022() -> Tensor[(13, 13, 8), bool] {
  @func_4365() /* ty=Tensor[(13, 13, 8), bool] */
}

def @func_2201(%var_2156: Tensor[(13, 11, 2), float32]) -> (Tensor[(13, 11, 2), float64], Tensor[(104), int16]) {
  %1129 = cast(%var_2156, dtype="float32") /* ty=Tensor[(13, 11, 2), float32] */;
  %1130 = sinh(%1129) /* ty=Tensor[(13, 11, 2), float32] */;
  %1131 = cast(%1130, dtype="float64") /* ty=Tensor[(13, 11, 2), float64] */;
  %1132 = shape_of(%var_2156, dtype="int32") /* ty=Tensor[(3), int32] */;
  %1133 = cast(%var_2156, dtype="float64") /* ty=Tensor[(13, 11, 2), float64] */;
  %1134 = dyn.reshape(%1131, %1132, newshape=[]) /* ty=Tensor[(?, ?, ?), float64] */;
  %1135 = @func_1602() /* ty=(Tensor[(7, 9, 15), float64], Tensor[(13, 13, 8), float32], Tensor[(104), int16], Tensor[(1352), int16]) */;
  %1136 = multiply(%1133, %1134) /* ty=Tensor[(13, 11, 2), float64] */;
  %1137 = %1135.2;
  (%1136, %1137)
}

def @func_13066() -> Tensor[(300), float32] {
  %1138 = @func_12514() /* ty=(Tensor[(6, 7, 3), float64], Tensor[(300), float32], Tensor[(7, 9, 15), float64], Tensor[(360), uint8], Tensor[(13, 13, 8), float32], Tensor[(220, 2), float32], Tensor[(432), float64], Tensor[(5, 88), float32]) */;
  %1138.1
}

def @func_2512() -> (Tensor[(13, 13, 8), float32],) {
  %1139 = @func_2429() /* ty=Tensor[(13, 13, 8), float32] */;
  (%1139,)
}

def @func_13718() -> (Tensor[(13, 13, 8), bool], Tensor[(13, 13, 8), float32], Tensor[(13, 13, 8), float32]) {
  %1140 = @func_3862() /* ty=(Tensor[(13, 13, 8), bool], Tensor[(13, 13, 8), bool]) */;
  %1141 = @func_8871() /* ty=(Tensor[(13, 13, 8), float32],) */;
  %1142 = @func_10382() /* ty=(Tensor[(13, 13, 8), float32],) */;
  %1143 = %1140.1;
  %1144 = %1141.0;
  %1145 = %1142.0;
  (%1143, %1144, %1145)
}

def @func_5975() -> Tensor[(13, 13, 8), float32] {
  @func_5750() /* ty=Tensor[(13, 13, 8), float32] */
}

def @func_12304() -> (Tensor[(11, 15, 2), float64], Tensor[(3, 5, 8), int32], Tensor[(120), int32], Tensor[(13, 13, 8), float32], Tensor[(13, 13, 8), float32], Tensor[(13, 13, 8), float32]) {
  %1146 = cast(meta[relay.Constant][74] /* ty=Tensor[(11, 15, 2), float64] */, dtype="float64") /* ty=Tensor[(11, 15, 2), float64] */;
  %1147 = cast(meta[relay.Constant][75] /* ty=Tensor[(120), int32] */, dtype="int32") /* ty=Tensor[(120), int32] */;
  %1148 = reshape(%1147, newshape=[3, 5, 8]) /* ty=Tensor[(3, 5, 8), int32] */;
  %1149 = @func_4807(%1148) /* ty=(Tensor[(3, 5, 8), int32],) */;
  %1150 = @func_6977() /* ty=(Tensor[(13, 13, 8), float32],) */;
  %1151 = log10(%1146) /* ty=Tensor[(11, 15, 2), float64] */;
  %1152 = %1149.0;
  %1153 = @func_8925() /* ty=Tensor[(13, 13, 8), float32] */;
  %1154 = @func_5750() /* ty=Tensor[(13, 13, 8), float32] */;
  %1155 = %1150.0;
  (%1151, %1152, meta[relay.Constant][75] /* ty=Tensor[(120), int32] */, %1153, %1154, %1155)
}

def @func_3978() -> Tensor[(13, 13, 8), float32] {
  %1156 = @func_3547() /* ty=(Tensor[(13, 13, 8), float32], Tensor[(13, 13, 8), bool], Tensor[(104), int16], Tensor[(13, 13, 8), float32]) */;
  %1156.0
}

def @func_5396() -> (Tensor[(7, 9, 15), float64],) {
  %1157 = @func_3455() /* ty=(Tensor[(7, 9, 15), float64],) */;
  %1158 = %1157.0;
  %1159 = cast(%1158, dtype="float64") /* ty=Tensor[(7, 9, 15), float64] */;
  %1160 = acosh(%1159) /* ty=Tensor[(7, 9, 15), float64] */;
  (%1160,)
}

def @func_14155(%var_14143: int32, %var_14144: Tensor[(144), int32]) -> (Tensor[(13, 13, 8), float32], Tensor[(13, 13, 8), bool], int32, Tensor[(144), int32]) {
  %1161 = @func_13017() /* ty=(Tensor[(13, 13, 8), float32],) */;
  %1162 = cast(%var_14143, dtype="int32") /* ty=int32 */;
  %1163 = cast(%var_14144, dtype="int32") /* ty=Tensor[(144), int32] */;
  %1164 = reshape(%1162, newshape=[]) /* ty=int32 */;
  %1165 = reshape(%1163, newshape=[12, 3, 4]) /* ty=Tensor[(12, 3, 4), int32] */;
  %1166 = @func_12178(%1164, %1165) /* ty=(Tensor[(135), float64], Tensor[(2704), float64], Tensor[(13, 13, 8), bool], Tensor[(12, 3, 4), float64]) */;
  %1167 = %1161.0;
  %1168 = %1166.2;
  (%1167, %1168, %var_14143, %var_14144)
}

def @func_8276() -> (Tensor[(13, 13, 8), float32],) {
  %1169 = @func_5561() /* ty=Tensor[(13, 13, 8), float32] */;
  (%1169,)
}

def @func_12047() -> (Tensor[(13, 13, 8), uint8],) {
  %1170 = @func_3469() /* ty=(Tensor[(13, 13, 8), uint8],) */;
  %1171 = %1170.0;
  (%1171,)
}

def @func_14118() -> (Tensor[(13, 13, 8), uint8],) {
  %1172 = @func_12660() /* ty=(Tensor[(13, 13, 8), float32], Tensor[(13, 13, 8), bool], Tensor[(13, 13, 8), uint8]) */;
  %1173 = %1172.2;
  (%1173,)
}

def @func_6325() -> (Tensor[(13, 13, 8), float32], Tensor[(13, 13, 8), float32]) {
  %1174 = @func_4182() /* ty=(Tensor[(13, 13, 8), float32], Tensor[(13, 13, 8), float32]) */;
  %1175 = %1174.1;
  %1176 = @func_5462() /* ty=Tensor[(13, 13, 8), float32] */;
  (%1175, %1176)
}

def @func_5733(%var_5729: Tensor[(26, 11), float32]) -> (Tensor[(13, 13, 8), float32], Tensor[(13, 13, 8), float32], Tensor[(13, 11, 2), float64], Tensor[(26, 11), float32]) {
  %1177 = @func_4182() /* ty=(Tensor[(13, 13, 8), float32], Tensor[(13, 13, 8), float32]) */;
  %1178 = @func_1785() /* ty=Tensor[(13, 13, 8), float32] */;
  %1179 = cast(%1178, dtype="float32") /* ty=Tensor[(13, 13, 8), float32] */;
  %1180 = cast(%var_5729, dtype="float32") /* ty=Tensor[(26, 11), float32] */;
  %1181 = reshape(%1180, newshape=[286]) /* ty=Tensor[(286), float32] */;
  %1182 = @func_3388(%1181) /* ty=(Tensor[(13, 13, 8), float32], Tensor[(13, 11, 2), float64], Tensor[(286), float64]) */;
  %1183 = %1177.1;
  %1184 = cosh(%1179) /* ty=Tensor[(13, 13, 8), float32] */;
  %1185 = %1182.1;
  (%1183, %1184, %1185, %var_5729)
}

def @func_7141(%var_7131: bool, %var_7132: Tensor[(2, 1), bool]) -> (Tensor[(2, 1), bool], Tensor[(13, 13, 8), bool], Tensor[(54), float64]) {
  %1186 = cast(%var_7131, dtype="bool") /* ty=bool */;
  %1187 = cast(%var_7132, dtype="bool") /* ty=Tensor[(2, 1), bool] */;
  %1188 = cast(meta[relay.Constant][76] /* ty=Tensor[(54), float64] */, dtype="float64") /* ty=Tensor[(54), float64] */;
  %1189 = reshape(%1188, newshape=[54]) /* ty=Tensor[(54), float64] */;
  %1190 = @func_6163(%1189) /* ty=(Tensor[(13, 13, 8), float32], Tensor[(11, 10, 4), float64], Tensor[(13, 13, 8), bool], Tensor[(13, 13, 8), float32], Tensor[(54), float64]) */;
  %1191 = logical_and(%1186, %1187) /* ty=Tensor[(2, 1), bool] */;
  %1192 = %1190.2;
  (%1191, %1192, meta[relay.Constant][76] /* ty=Tensor[(54), float64] */)
}

def @func_11759(%var_11731: uint8, %var_11732: Tensor[(5, 2, 13), uint8]) -> Tensor[(5, 2, 13), bool] {
  %1193 = cast(%var_11731, dtype="bool") /* ty=bool */;
  %1194 = cast(%var_11732, dtype="bool") /* ty=Tensor[(5, 2, 13), bool] */;
  less(%1193, %1194) /* ty=Tensor[(5, 2, 13), bool] */
}

def @func_5750() -> Tensor[(13, 13, 8), float32] {
  %1195 = @func_2762() /* ty=(Tensor[(300), float32], Tensor[(300), float32], Tensor[(13, 13, 8), float32]) */;
  %1195.2
}

def @func_10441() -> (Tensor[(13, 13, 8), float32],) {
  %1196 = @func_8034() /* ty=(Tensor[(13, 13, 8), float32], Tensor[(13, 13, 8), float32]) */;
  %1197 = %1196.1;
  (%1197,)
}

def @func_7606() -> (Tensor[(13, 13, 8), float32], Tensor[(13, 13, 8), float32], Tensor[(13, 13, 8), float32]) {
  %1198 = @func_6870() /* ty=Tensor[(13, 13, 8), float32] */;
  %1199 = @func_5561() /* ty=Tensor[(13, 13, 8), float32] */;
  %1200 = @func_4460() /* ty=Tensor[(13, 13, 8), float32] */;
  (%1198, %1199, %1200)
}

def @func_257(%var_225: Tensor[(11, 15, 7), int8], %var_226: Tensor[(11, 15, 7), int8]) -> (Tensor[(11, 15, 7), uint16], Tensor[(11, 15, 7), uint64], Tensor[(11, 10, 4), float32], Tensor[(5, 88), float32], Tensor[(11, 10, 4), float32], Tensor[(11, 15, 7), float64]) {
  %1201 = cast(%var_226, dtype="int8") /* ty=Tensor[(11, 15, 7), int8] */;
  %1202 = shape_of(%var_225, dtype="int32") /* ty=Tensor[(3), int32] */;
  %1203 = cast(%var_225, dtype="int8") /* ty=Tensor[(11, 15, 7), int8] */;
  %1204 = dyn.reshape(%1201, %1202, newshape=[]) /* ty=Tensor[(?, ?, ?), int8] */;
  %1205 = bitwise_and(%1203, %1204) /* ty=Tensor[(11, 15, 7), int8] */;
  %1206 = cast(%1205, dtype="uint16") /* ty=Tensor[(11, 15, 7), uint16] */;
  %1207 = shape_of(%var_226, dtype="int32") /* ty=Tensor[(3), int32] */;
  %1208 = cast(%var_226, dtype="uint16") /* ty=Tensor[(11, 15, 7), uint16] */;
  %1209 = dyn.reshape(%1206, %1207, newshape=[]) /* ty=Tensor[(?, ?, ?), uint16] */;
  %1210 = cast(%var_226, dtype="uint64") /* ty=Tensor[(11, 15, 7), uint64] */;
  %1211 = shape_of(%1205, dtype="int32") /* ty=Tensor[(3), int32] */;
  %1212 = cast(%1205, dtype="uint64") /* ty=Tensor[(11, 15, 7), uint64] */;
  %1213 = dyn.reshape(%1210, %1211, newshape=[]) /* ty=Tensor[(?, ?, ?), uint64] */;
  %1214 = cast(meta[relay.Constant][77] /* ty=Tensor[(5, 88), float32] */, dtype="float32") /* ty=Tensor[(5, 88), float32] */;
  %1215 = cast(meta[relay.Constant][77] /* ty=Tensor[(5, 88), float32] */, dtype="float32") /* ty=Tensor[(5, 88), float32] */;
  %1216 = reshape(%1214, newshape=[11, 10, 4]) /* ty=Tensor[(11, 10, 4), float32] */;
  %1217 = reshape(%1215, newshape=[11, 10, 4]) /* ty=Tensor[(11, 10, 4), float32] */;
  %1218 = @func_173(%1216, %1217) /* ty=Tensor[(11, 10, 4), float32] */;
  %1219 = cast(%1218, dtype="float32") /* ty=Tensor[(11, 10, 4), float32] */;
  %1220 = cast(meta[relay.Constant][77] /* ty=Tensor[(5, 88), float32] */, dtype="float32") /* ty=Tensor[(5, 88), float32] */;
  %1221 = reshape(%1219, newshape=[11, 10, 4]) /* ty=Tensor[(11, 10, 4), float32] */;
  %1222 = reshape(%1220, newshape=[11, 10, 4]) /* ty=Tensor[(11, 10, 4), float32] */;
  %1223 = cast(%var_226, dtype="float64") /* ty=Tensor[(11, 15, 7), float64] */;
  %1224 = multiply(%1208, %1209) /* ty=Tensor[(11, 15, 7), uint16] */;
  %1225 = right_shift(%1212, %1213) /* ty=Tensor[(11, 15, 7), uint64] */;
  %1226 = @func_173(%1221, %1222) /* ty=Tensor[(11, 10, 4), float32] */;
  %1227 = acos(%1223) /* ty=Tensor[(11, 15, 7), float64] */;
  (%1224, %1225, %1218, meta[relay.Constant][77] /* ty=Tensor[(5, 88), float32] */, %1226, %1227)
}

def @func_10724() -> (Tensor[(13, 13, 8), uint8],) {
  %1228 = @func_6050() /* ty=(Tensor[(13, 13, 8), uint8],) */;
  %1229 = %1228.0;
  (%1229,)
}

def @func_14353() -> (Tensor[(13, 13, 8), float32],) {
  %1230 = @func_7006() /* ty=(Tensor[(13, 13, 8), float32],) */;
  %1231 = %1230.0;
  (%1231,)
}

def @func_709(%var_614: Tensor[(9, 10, 16), uint16], %var_678: Tensor[(300), float32], %var_694: Tensor[(360, 1), uint8]) -> (Tensor[(9, 10, 16), uint16], Tensor[(11, 10, 4), float32], Tensor[(1155), int8], Tensor[(9, 10, 16), float64], Tensor[(11, 15, 7), uint64], Tensor[(11, 10, 4), float32], Tensor[(4, 5, 15), float32], Tensor[(300), float32], Tensor[(10, 9, 4), bool], Tensor[(360, 1), uint8], Tensor[(11, 10, 4), float32]) {
  %1232 = cast(%var_614, dtype="uint16") /* ty=Tensor[(9, 10, 16), uint16] */;
  %1233 = shape_of(meta[relay.Constant][78] /* ty=Tensor[(9, 10, 16), uint16] */, dtype="int32") /* ty=Tensor[(3), int32] */;
  %1234 = cast(meta[relay.Constant][78] /* ty=Tensor[(9, 10, 16), uint16] */, dtype="uint16") /* ty=Tensor[(9, 10, 16), uint16] */;
  %1235 = dyn.reshape(%1232, %1233, newshape=[]) /* ty=Tensor[(?, ?, ?), uint16] */;
  %1236 = cast(meta[relay.Constant][79] /* ty=Tensor[(1155), int8] */, dtype="int8") /* ty=Tensor[(1155), int8] */;
  %1237 = cast(meta[relay.Constant][79] /* ty=Tensor[(1155), int8] */, dtype="int8") /* ty=Tensor[(1155), int8] */;
  %1238 = reshape(%1236, newshape=[11, 15, 7]) /* ty=Tensor[(11, 15, 7), int8] */;
  %1239 = reshape(%1237, newshape=[11, 15, 7]) /* ty=Tensor[(11, 15, 7), int8] */;
  %1240 = @func_257(%1238, %1239) /* ty=(Tensor[(11, 15, 7), uint16], Tensor[(11, 15, 7), uint64], Tensor[(11, 10, 4), float32], Tensor[(5, 88), float32], Tensor[(11, 10, 4), float32], Tensor[(11, 15, 7), float64]) */;
  %1241 = cast(meta[relay.Constant][78] /* ty=Tensor[(9, 10, 16), uint16] */, dtype="float64") /* ty=Tensor[(9, 10, 16), float64] */;
  %1242 = cast(meta[relay.Constant][79] /* ty=Tensor[(1155), int8] */, dtype="int8") /* ty=Tensor[(1155), int8] */;
  %1243 = cast(meta[relay.Constant][79] /* ty=Tensor[(1155), int8] */, dtype="int8") /* ty=Tensor[(1155), int8] */;
  %1244 = reshape(%1242, newshape=[11, 15, 7]) /* ty=Tensor[(11, 15, 7), int8] */;
  %1245 = reshape(%1243, newshape=[11, 15, 7]) /* ty=Tensor[(11, 15, 7), int8] */;
  %1246 = @func_257(%1244, %1245) /* ty=(Tensor[(11, 15, 7), uint16], Tensor[(11, 15, 7), uint64], Tensor[(11, 10, 4), float32], Tensor[(5, 88), float32], Tensor[(11, 10, 4), float32], Tensor[(11, 15, 7), float64]) */;
  %1247 = %1240.4;
  %1248 = cast(%1247, dtype="float32") /* ty=Tensor[(11, 10, 4), float32] */;
  %1249 = cast(%1247, dtype="float32") /* ty=Tensor[(11, 10, 4), float32] */;
  %1250 = cast(%1247, dtype="float32") /* ty=Tensor[(11, 10, 4), float32] */;
  %1251 = reshape(%1249, newshape=[11, 10, 4]) /* ty=Tensor[(11, 10, 4), float32] */;
  %1252 = reshape(%1250, newshape=[11, 10, 4]) /* ty=Tensor[(11, 10, 4), float32] */;
  %1253 = @func_173(%1251, %1252) /* ty=Tensor[(11, 10, 4), float32] */;
  %1254 = cast(%1253, dtype="float32") /* ty=Tensor[(11, 10, 4), float32] */;
  %1255 = reshape(%1248, newshape=[11, 10, 4]) /* ty=Tensor[(11, 10, 4), float32] */;
  %1256 = reshape(%1254, newshape=[11, 10, 4]) /* ty=Tensor[(11, 10, 4), float32] */;
  %1257 = cast(%var_678, dtype="float32") /* ty=Tensor[(300), float32] */;
  %1258 = reshape(%1257, newshape=[4, 5, 15]) /* ty=Tensor[(4, 5, 15), float32] */;
  %1259 = cast(%var_694, dtype="uint8") /* ty=Tensor[(360, 1), uint8] */;
  %1260 = reshape(%1259, newshape=[10, 9, 4]) /* ty=Tensor[(10, 9, 4), uint8] */;
  %1261 = @func_303(%1260) /* ty=(Tensor[(10, 9, 4), bool],) */;
  %1262 = cast(%1253, dtype="float32") /* ty=Tensor[(11, 10, 4), float32] */;
  %1263 = left_shift(%1234, %1235) /* ty=Tensor[(9, 10, 16), uint16] */;
  %1264 = cosh(%1241) /* ty=Tensor[(9, 10, 16), float64] */;
  %1265 = %1246.1;
  %1266 = @func_173(%1255, %1256) /* ty=Tensor[(11, 10, 4), float32] */;
  %1267 = @func_316(%1258) /* ty=Tensor[(4, 5, 15), float32] */;
  %1268 = %1261.0;
  %1269 = log10(%1262) /* ty=Tensor[(11, 10, 4), float32] */;
  (%1263, %1247, meta[relay.Constant][79] /* ty=Tensor[(1155), int8] */, %1264, %1265, %1266, %1267, %var_678, %1268, %var_694, %1269)
}

def @func_3242(%var_3229: Tensor[(11, 4, 16), bool], %var_3230: Tensor[(11, 4, 16), bool]) -> Tensor[(11, 4, 16), uint32] {
  %1270 = cast(%var_3230, dtype="bool") /* ty=Tensor[(11, 4, 16), bool] */;
  %1271 = shape_of(%var_3229, dtype="int32") /* ty=Tensor[(3), int32] */;
  %1272 = cast(%var_3229, dtype="bool") /* ty=Tensor[(11, 4, 16), bool] */;
  %1273 = dyn.reshape(%1270, %1271, newshape=[]) /* ty=Tensor[(?, ?, ?), bool] */;
  %1274 = logical_and(%1272, %1273) /* ty=Tensor[(11, 4, 16), bool] */;
  %1275 = cast(%1274, dtype="uint32") /* ty=Tensor[(11, 4, 16), uint32] */;
  %1276 = shape_of(%var_3230, dtype="int32") /* ty=Tensor[(3), int32] */;
  %1277 = cast(%var_3230, dtype="uint32") /* ty=Tensor[(11, 4, 16), uint32] */;
  %1278 = dyn.reshape(%1275, %1276, newshape=[]) /* ty=Tensor[(?, ?, ?), uint32] */;
  left_shift(%1277, %1278) /* ty=Tensor[(11, 4, 16), uint32] */
}

def @func_13946() -> (Tensor[(104), int16], Tensor[(13, 13, 8), uint8]) {
  %1279 = @func_4642() /* ty=(Tensor[(104), int16],) */;
  %1280 = @func_6050() /* ty=(Tensor[(13, 13, 8), uint8],) */;
  %1281 = %1279.0;
  %1282 = %1280.0;
  (%1281, %1282)
}

def @func_2220() -> (Tensor[(13, 13, 8), float32], Tensor[(4, 5, 15), float32], Tensor[(300), float32]) {
  %1283 = @func_1602() /* ty=(Tensor[(7, 9, 15), float64], Tensor[(13, 13, 8), float32], Tensor[(104), int16], Tensor[(1352), int16]) */;
  %1284 = cast(meta[relay.Constant][80] /* ty=Tensor[(300), float32] */, dtype="float32") /* ty=Tensor[(300), float32] */;
  %1285 = reshape(%1284, newshape=[4, 5, 15]) /* ty=Tensor[(4, 5, 15), float32] */;
  %1286 = %1283.1;
  %1287 = @func_316(%1285) /* ty=Tensor[(4, 5, 15), float32] */;
  (%1286, %1287, meta[relay.Constant][80] /* ty=Tensor[(300), float32] */)
}

def @func_15574(%var_15565: Tensor[(9, 9, 8), uint8]) -> (Tensor[(9, 9, 8), uint8],) {
  %1288 = cast(meta[relay.Constant][81] /* ty=Tensor[(9, 9, 8), uint8] */, dtype="uint8") /* ty=Tensor[(9, 9, 8), uint8] */;
  %1289 = shape_of(%var_15565, dtype="int32") /* ty=Tensor[(3), int32] */;
  %1290 = cast(%var_15565, dtype="uint8") /* ty=Tensor[(9, 9, 8), uint8] */;
  %1291 = dyn.reshape(%1288, %1289, newshape=[]) /* ty=Tensor[(?, ?, ?), uint8] */;
  %1292 = add(%1290, %1291) /* ty=Tensor[(9, 9, 8), uint8] */;
  (%1292,)
}

def @func_11608() -> (Tensor[(9, 9, 2), float32], Tensor[(13, 13, 8), float32], Tensor[(7, 9, 15), float64], Tensor[(13, 13, 8), uint8]) {
  %1293 = cast(meta[relay.Constant][82] /* ty=Tensor[(9, 9, 2), float32] */, dtype="float32") /* ty=Tensor[(9, 9, 2), float32] */;
  %1294 = @func_3455() /* ty=(Tensor[(7, 9, 15), float64],) */;
  %1295 = @func_1955() /* ty=(Tensor[(13, 13, 8), uint8],) */;
  %1296 = log2(%1293) /* ty=Tensor[(9, 9, 2), float32] */;
  %1297 = @func_3773() /* ty=Tensor[(13, 13, 8), float32] */;
  %1298 = %1294.0;
  %1299 = %1295.0;
  (%1296, %1297, %1298, %1299)
}

def @func_11022(%var_10970: Tensor[(7, 13, 3), int8]) -> (Tensor[(7, 13, 3), int8], Tensor[(13, 13, 8), float32], Tensor[(13, 13, 8), bool], Tensor[(704), uint64], Tensor[(704), bool], Tensor[(13, 13, 8), bool]) {
  %1300 = cast(meta[relay.Constant][83] /* ty=int8 */, dtype="int8") /* ty=int8 */;
  %1301 = cast(%var_10970, dtype="int8") /* ty=Tensor[(7, 13, 3), int8] */;
  %1302 = @func_9523() /* ty=(Tensor[(300), float32], Tensor[(13, 13, 8), float32], Tensor[(13, 13, 8), float32]) */;
  %1303 = @func_5319() /* ty=(Tensor[(13, 13, 8), bool],) */;
  %1304 = cast(meta[relay.Constant][84] /* ty=Tensor[(704), bool] */, dtype="bool") /* ty=Tensor[(704), bool] */;
  %1305 = reshape(%1304, newshape=[704]) /* ty=Tensor[(704), bool] */;
  %1306 = @func_6114(%1305) /* ty=(Tensor[(11, 4, 16), uint32], Tensor[(10, 9, 4), float64], Tensor[(704), uint64], Tensor[(980), bool]) */;
  %1307 = @func_8856() /* ty=(Tensor[(13, 13, 8), float32], Tensor[(13, 13, 8), bool], Tensor[(9, 3, 5), float64], Tensor[(135), float64]) */;
  %1308 = left_shift(%1300, %1301) /* ty=Tensor[(7, 13, 3), int8] */;
  %1309 = %1302.1;
  %1310 = %1303.0;
  %1311 = %1306.2;
  %1312 = %1307.1;
  (%1308, %1309, %1310, %1311, meta[relay.Constant][84] /* ty=Tensor[(704), bool] */, %1312)
}

def @func_14299(%var_14290: uint8, %var_14291: Tensor[(7, 9, 10), uint8]) -> (Tensor[(7, 9, 10), bool],) {
  %1313 = cast(%var_14290, dtype="bool") /* ty=bool */;
  %1314 = cast(%var_14291, dtype="bool") /* ty=Tensor[(7, 9, 10), bool] */;
  %1315 = less_equal(%1313, %1314) /* ty=Tensor[(7, 9, 10), bool] */;
  (%1315,)
}

def @func_14652(%var_14625: Tensor[(8, 6, 5), uint8], %var_14626: Tensor[(8, 6, 5), uint8], %var_14636: Tensor[(1352), float32], %var_14641: Tensor[(364), int32]) -> (Tensor[(8, 6, 5), uint8], Tensor[(360), uint8], Tensor[(1352), float32], Tensor[(360), uint8], Tensor[(35280), float32], Tensor[(360), uint8], Tensor[(364), int32]) {
  %1316 = cast(%var_14626, dtype="uint8") /* ty=Tensor[(8, 6, 5), uint8] */;
  %1317 = shape_of(%var_14625, dtype="int32") /* ty=Tensor[(3), int32] */;
  %1318 = cast(%var_14625, dtype="uint8") /* ty=Tensor[(8, 6, 5), uint8] */;
  %1319 = dyn.reshape(%1316, %1317, newshape=[]) /* ty=Tensor[(?, ?, ?), uint8] */;
  %1320 = cast(%var_14636, dtype="float32") /* ty=Tensor[(1352), float32] */;
  %1321 = cast(meta[relay.Constant][85] /* ty=Tensor[(360), uint8] */, dtype="uint8") /* ty=Tensor[(360), uint8] */;
  %1322 = cast(meta[relay.Constant][86] /* ty=Tensor[(35280), float32] */, dtype="float32") /* ty=Tensor[(35280), float32] */;
  %1323 = reshape(%1320, newshape=[13, 13, 8]) /* ty=Tensor[(13, 13, 8), float32] */;
  %1324 = reshape(%1321, newshape=[360]) /* ty=Tensor[(360), uint8] */;
  %1325 = reshape(%1322, newshape=[2, 17640]) /* ty=Tensor[(2, 17640), float32] */;
  %1326 = @func_7187(%1323, %1324, %1325) /* ty=(Tensor[(13, 13, 8), float32], Tensor[(13, 13, 8), uint64], Tensor[(14, 7, 360), int64], Tensor[(360), uint8], Tensor[(2, 17640), float32], Tensor[(13, 13, 8), uint8]) */;
  %1327 = cast(%var_14641, dtype="int32") /* ty=Tensor[(364), int32] */;
  %1328 = cast(%var_14641, dtype="int32") /* ty=Tensor[(364), int32] */;
  %1329 = reshape(%1327, newshape=[7, 4, 13]) /* ty=Tensor[(7, 4, 13), int32] */;
  %1330 = reshape(%1328, newshape=[7, 4, 13]) /* ty=Tensor[(7, 4, 13), int32] */;
  %1331 = @func_4099(%1329, %1330) /* ty=(Tensor[(7, 4, 13), bool], Tensor[(7, 4, 13), float32], Tensor[(360), uint8]) */;
  %1332 = left_shift(%1318, %1319) /* ty=Tensor[(8, 6, 5), uint8] */;
  %1333 = %1326.3;
  %1334 = %1331.2;
  (%1332, %1333, %var_14636, meta[relay.Constant][85] /* ty=Tensor[(360), uint8] */, meta[relay.Constant][86] /* ty=Tensor[(35280), float32] */, %1334, %var_14641)
}

def @func_5655(%var_5629: uint32) -> (Tensor[(16, 11, 5), uint32],) {
  %1335 = cast(%var_5629, dtype="uint32") /* ty=uint32 */;
  %1336 = cast(meta[relay.Constant][87] /* ty=Tensor[(16, 11, 5), uint32] */, dtype="uint32") /* ty=Tensor[(16, 11, 5), uint32] */;
  %1337 = logical_xor(%1335, %1336) /* ty=Tensor[(16, 11, 5), uint32] */;
  (%1337,)
}

def @func_12178(%var_12135: int32, %var_12136: Tensor[(12, 3, 4), int32]) -> (Tensor[(135), float64], Tensor[(2704), float64], Tensor[(13, 13, 8), bool], Tensor[(12, 3, 4), float64]) {
  %1338 = cast(meta[relay.Constant][88] /* ty=Tensor[(2704), float64] */, dtype="float64") /* ty=Tensor[(2704), float64] */;
  %1339 = cast(meta[relay.Constant][88] /* ty=Tensor[(2704), float64] */, dtype="float64") /* ty=Tensor[(2704), float64] */;
  %1340 = reshape(%1338, newshape=[16, 13, 13]) /* ty=Tensor[(16, 13, 13), float64] */;
  %1341 = reshape(%1339, newshape=[16, 13, 13]) /* ty=Tensor[(16, 13, 13), float64] */;
  %1342 = @func_10702(%1340, %1341) /* ty=(Tensor[(16, 13, 13), float64], Tensor[(135), float64]) */;
  %1343 = @func_6687() /* ty=(Tensor[(13, 13, 8), bool],) */;
  %1344 = cast(%var_12135, dtype="bool") /* ty=bool */;
  %1345 = cast(%var_12136, dtype="bool") /* ty=Tensor[(12, 3, 4), bool] */;
  %1346 = equal(%1344, %1345) /* ty=Tensor[(12, 3, 4), bool] */;
  %1347 = cast(%1346, dtype="float64") /* ty=Tensor[(12, 3, 4), float64] */;
  %1348 = %1342.1;
  %1349 = %1343.0;
  %1350 = tan(%1347) /* ty=Tensor[(12, 3, 4), float64] */;
  (%1348, meta[relay.Constant][88] /* ty=Tensor[(2704), float64] */, %1349, %1350)
}

def @func_14466() -> (Tensor[(135), float64], Tensor[(13, 13, 8), float32]) {
  %1351 = @func_13524() /* ty=(Tensor[(135), float64],) */;
  %1352 = @func_10382() /* ty=(Tensor[(13, 13, 8), float32],) */;
  %1353 = %1351.0;
  %1354 = %1352.0;
  (%1353, %1354)
}

def @func_13017() -> (Tensor[(13, 13, 8), float32],) {
  %1355 = @func_3649() /* ty=Tensor[(13, 13, 8), float32] */;
  (%1355,)
}

def @func_6379() -> Tensor[(13, 13, 8), float32] {
  @func_5975() /* ty=Tensor[(13, 13, 8), float32] */
}

/* For debugging purposes the metadata section has been omitted.
 * If you would like to see the full metadata section you can set the 
 * option to `True` when invoking `astext`. 
 */
===================================
==========mutated_mod==========
#[version = "0.0.5"]
def @func_1787() -> Tensor[(13, 13, 8), float32] {
  @func_1785() /* ty=Tensor[(13, 13, 8), float32] */
}

def @func_7759() -> Tensor[(13, 13, 8), float32] {
  %1 = fn () -> Tensor[(13, 13, 8), float32] {
    %0 = @func_2220() /* ty=(Tensor[(13, 13, 8), float32], Tensor[(4, 5, 15), float32], Tensor[(300), float32]) */;
    %0.0
  };
  %1() /* ty=Tensor[(13, 13, 8), float32] */
}

def @func_2251() -> Tensor[(13, 13, 8), float32] {
  %2 = fn () -> Tensor[(13, 13, 8), float32] {
    @func_1785() /* ty=Tensor[(13, 13, 8), float32] */
  };
  %2() /* ty=Tensor[(13, 13, 8), float32] */
}

def @func_3388(%var_3368: Tensor[(286), float32]) -> (Tensor[(13, 13, 8), float32], Tensor[(13, 11, 2), float64], Tensor[(286), float64]) {
  %3 = @func_3309() /* ty=(Tensor[(13, 13, 8), float32], Tensor[(10, 9, 4), bool], Tensor[(360), uint8]) */;
  %4 = cast(%var_3368, dtype="float32") /* ty=Tensor[(286), float32] */;
  %5 = reshape(%4, newshape=[13, 11, 2]) /* ty=Tensor[(13, 11, 2), float32] */;
  %6 = @func_2201(%5) /* ty=(Tensor[(13, 11, 2), float64], Tensor[(104), int16]) */;
  %7 = cast(%var_3368, dtype="float64") /* ty=Tensor[(286), float64] */;
  %8 = %3.0;
  %9 = %6.0;
  %10 = atan(%7) /* ty=Tensor[(286), float64] */;
  (%8, %9, %10)
}

def @func_1569(%var_1567: Tensor[(1, 9, 6), float64]) -> (Tensor[(1, 9, 6), float64],) {
  @func_1566(%var_1567) /* ty=(Tensor[(1, 9, 6), float64],) */
}

def @func_3470() -> (Tensor[(13, 13, 8), uint8],) {
  %13 = fn () -> (Tensor[(13, 13, 8), uint8],) {
    %11 = @func_1955() /* ty=(Tensor[(13, 13, 8), uint8],) */;
    %12 = %11.0;
    (%12,)
  };
  %13() /* ty=(Tensor[(13, 13, 8), uint8],) */
}

def @func_4280(%var_4278: Tensor[(54), float64]) -> (Tensor[(13, 13, 8), float32], Tensor[(13, 13, 8), float64], Tensor[(360), uint8], Tensor[(54), float64]) {
  %14 = @func_2512() /* ty=(Tensor[(13, 13, 8), float32],) */;
  %15 = %14.0;
  %16 = cast(%15, dtype="float32") /* ty=Tensor[(13, 13, 8), float32] */;
  %17 = cos(%16) /* ty=Tensor[(13, 13, 8), float32] */;
  %18 = cast(%17, dtype="float64") /* ty=Tensor[(13, 13, 8), float64] */;
  %19 = log10(%18) /* ty=Tensor[(13, 13, 8), float64] */;
  %20 = cast(%19, dtype="float64") /* ty=Tensor[(13, 13, 8), float64] */;
  %21 = cast(%var_4278, dtype="float64") /* ty=Tensor[(54), float64] */;
  %22 = reshape(%21, newshape=[54]) /* ty=Tensor[(54), float64] */;
  %23 = @func_2030(%22) /* ty=(Tensor[(13, 13, 8), uint8], Tensor[(7, 9, 15), float64], Tensor[(10, 9, 4), bool], Tensor[(360), uint8], Tensor[(1, 9, 6), float64], Tensor[(54), float64]) */;
  %24 = @func_2250() /* ty=Tensor[(13, 13, 8), float32] */;
  %25 = log2(%20) /* ty=Tensor[(13, 13, 8), float64] */;
  %26 = %23.3;
  (%24, %25, %26, %var_4278)
}

def @func_6451() -> (Tensor[(13, 13, 8), float32],) {
  @func_6449() /* ty=(Tensor[(13, 13, 8), float32],) */
}

def @func_8235(%var_8234: Tensor[(364), int32]) -> (Tensor[(13, 13, 8), float32], Tensor[(13, 13, 8), float32], Tensor[(13, 13, 8), float32], Tensor[(7, 4, 13), bool], Tensor[(364), int32]) {
  %38 = fn (%var_8227: Tensor[(364), int32]) -> (Tensor[(13, 13, 8), float32], Tensor[(13, 13, 8), float32], Tensor[(13, 13, 8), float32], Tensor[(7, 4, 13), bool], Tensor[(364), int32]) {
    %27 = @func_2378() /* ty=(Tensor[(13, 13, 8), float32],) */;
    %28 = @func_5608() /* ty=(Tensor[(13, 13, 8), float32], Tensor[(13, 13, 8), uint8], Tensor[(54), float64]) */;
    %29 = cast(%var_8227, dtype="int32") /* ty=Tensor[(364), int32] */;
    %30 = cast(%var_8227, dtype="int32") /* ty=Tensor[(364), int32] */;
    %31 = reshape(%29, newshape=[7, 4, 13]) /* ty=Tensor[(7, 4, 13), int32] */;
    %32 = reshape(%30, newshape=[7, 4, 13]) /* ty=Tensor[(7, 4, 13), int32] */;
    %33 = @func_4099(%31, %32) /* ty=(Tensor[(7, 4, 13), bool], Tensor[(7, 4, 13), float32], Tensor[(360), uint8]) */;
    %34 = %27.0;
    %35 = @func_3773() /* ty=Tensor[(13, 13, 8), float32] */;
    %36 = %28.0;
    %37 = %33.0;
    (%34, %35, %36, %37, %var_8227)
  };
  %38(%var_8234) /* ty=(Tensor[(13, 13, 8), float32], Tensor[(13, 13, 8), float32], Tensor[(13, 13, 8), float32], Tensor[(7, 4, 13), bool], Tensor[(364), int32]) */
}

def @func_4574() -> Tensor[(360), uint8] {
  @func_4572() /* ty=Tensor[(360), uint8] */
}

def @func_14812(%var_14811: Tensor[(9, 1, 3), float32]) -> (Tensor[(13, 13, 8), uint8], Tensor[(135), float64], Tensor[(13, 13, 8), bool], Tensor[(13, 13, 8), bool], int32, Tensor[(1, 144), int32], Tensor[(9, ?, 3), bool]) {
  %64 = fn (%var_14717: Tensor[(9, 1, 3), float32]) -> (Tensor[(13, 13, 8), uint8], Tensor[(135), float64], Tensor[(13, 13, 8), bool], Tensor[(13, 13, 8), bool], int32, Tensor[(1, 144), int32], Tensor[(9, ?, 3), bool]) {
    %39 = @func_1955() /* ty=(Tensor[(13, 13, 8), uint8],) */;
    %40 = @func_2788() /* ty=(Tensor[(13, 13, 8), bool],) */;
    %41 = cast(4 /* ty=int32 */, dtype="int32") /* ty=int32 */;
    %42 = cast(meta[relay.Constant][0] /* ty=Tensor[(1, 144), int32] */, dtype="int32") /* ty=Tensor[(1, 144), int32] */;
    %43 = reshape(%41, newshape=[]) /* ty=int32 */;
    %44 = reshape(%42, newshape=[12, 3, 4]) /* ty=Tensor[(12, 3, 4), int32] */;
    %45 = @func_12178(%43, %44) /* ty=(Tensor[(135), float64], Tensor[(2704), float64], Tensor[(13, 13, 8), bool], Tensor[(12, 3, 4), float64]) */;
    %46 = cast(%var_14717, dtype="float32") /* ty=Tensor[(9, 1, 3), float32] */;
    %47 = sqrt(%46) /* ty=Tensor[(9, 1, 3), float32] */;
    %48 = cast(%47, dtype="float64") /* ty=Tensor[(9, 1, 3), float64] */;
    %49 = acosh(%48) /* ty=Tensor[(9, 1, 3), float64] */;
    %50 = cast(%47, dtype="float64") /* ty=Tensor[(9, 1, 3), float64] */;
    %51 = shape_of(%49, dtype="int32") /* ty=Tensor[(3), int32] */;
    %52 = cast(%49, dtype="float64") /* ty=Tensor[(9, 1, 3), float64] */;
    %53 = dyn.reshape(%50, %51, newshape=[]) /* ty=Tensor[(?, ?, ?), float64] */;
    %54 = subtract(%52, %53) /* ty=Tensor[(9, ?, 3), float64] */;
    %55 = cast(%54, dtype="bool") /* ty=Tensor[(9, ?, 3), bool] */;
    %56 = shape_of(%47, dtype="int32") /* ty=Tensor[(3), int32] */;
    %57 = cast(%47, dtype="bool") /* ty=Tensor[(9, 1, 3), bool] */;
    %58 = dyn.reshape(%55, %56, newshape=[]) /* ty=Tensor[(?, ?, ?), bool] */;
    %59 = %39.0;
    %60 = @func_12616() /* ty=Tensor[(135), float64] */;
    %61 = %40.0;
    %62 = %45.2;
    %63 = logical_or(%57, %58) /* ty=Tensor[(9, ?, 3), bool] */;
    (%59, %60, %61, %62, 4 /* ty=int32 */, meta[relay.Constant][0] /* ty=Tensor[(1, 144), int32] */, %63)
  };
  %64(%var_14811) /* ty=(Tensor[(13, 13, 8), uint8], Tensor[(135), float64], Tensor[(13, 13, 8), bool], Tensor[(13, 13, 8), bool], int32, Tensor[(1, 144), int32], Tensor[(9, ?, 3), bool]) */
}

def @func_3914(%var_3912: Tensor[(7, 14, 10), float64]) -> Tensor[(7, 14, 10), float64] {
  @func_3911(%var_3912) /* ty=Tensor[(7, 14, 10), float64] */
}

def @func_5067() -> Tensor[(300), float32] {
  %66 = fn () -> Tensor[(300), float32] {
    %65 = @func_2220() /* ty=(Tensor[(13, 13, 8), float32], Tensor[(4, 5, 15), float32], Tensor[(300), float32]) */;
    %65.2
  };
  %66() /* ty=Tensor[(300), float32] */
}

def @func_6379() -> Tensor[(13, 13, 8), float32] {
  @func_5975() /* ty=Tensor[(13, 13, 8), float32] */
}

def @func_6296() -> (Tensor[(13, 13, 8), float32], Tensor[(54), float32], Tensor[(54), float64], Tensor[(13, 13, 8), float32]) {
  %74 = fn () -> (Tensor[(13, 13, 8), float32], Tensor[(54), float32], Tensor[(54), float64], Tensor[(13, 13, 8), float32]) {
    %67 = cast(meta[relay.Constant][1] /* ty=Tensor[(54), float64] */, dtype="float64") /* ty=Tensor[(54), float64] */;
    %68 = reshape(%67, newshape=[54]) /* ty=Tensor[(54), float64] */;
    %69 = @func_5015(%68) /* ty=(Tensor[(13, 13, 8), float32], Tensor[(360), uint8], Tensor[(54), float32]) */;
    %70 = @func_5515() /* ty=(Tensor[(13, 13, 8), float32], Tensor[(13, 13, 8), float32]) */;
    %71 = @func_1785() /* ty=Tensor[(13, 13, 8), float32] */;
    %72 = %69.2;
    %73 = %70.0;
    (%71, %72, meta[relay.Constant][1] /* ty=Tensor[(54), float64] */, %73)
  };
  %74() /* ty=(Tensor[(13, 13, 8), float32], Tensor[(54), float32], Tensor[(54), float64], Tensor[(13, 13, 8), float32]) */
}

def @func_9250() -> (Tensor[(13, 13, 8), float32], Tensor[(13, 13, 8), float32], Tensor[(360), uint8], Tensor[(300), float32], Tensor[(2, 180), uint8]) {
  %86 = fn () -> (Tensor[(13, 13, 8), float32], Tensor[(13, 13, 8), float32], Tensor[(360), uint8], Tensor[(300), float32], Tensor[(2, 180), uint8]) {
    %75 = @func_5750() /* ty=Tensor[(13, 13, 8), float32] */;
    %76 = cast(%75, dtype="float32") /* ty=Tensor[(13, 13, 8), float32] */;
    %77 = @func_5244() /* ty=(Tensor[(13, 13, 8), float32], Tensor[(13, 13, 8), float32], Tensor[(13, 13, 8), float32]) */;
    %78 = cast(meta[relay.Constant][2] /* ty=Tensor[(300), float32] */, dtype="float32") /* ty=Tensor[(300), float32] */;
    %79 = cast(meta[relay.Constant][3] /* ty=Tensor[(2, 180), uint8] */, dtype="uint8") /* ty=Tensor[(2, 180), uint8] */;
    %80 = reshape(%78, newshape=[300]) /* ty=Tensor[(300), float32] */;
    %81 = reshape(%79, newshape=[360]) /* ty=Tensor[(360), uint8] */;
    %82 = @func_4949(%80, %81) /* ty=(Tensor[(13, 13, 8), float32], Tensor[(11, 10, 4), float32], Tensor[(300), float32], Tensor[(360), uint8], Tensor[(13, 13, 8), float32]) */;
    %83 = asinh(%76) /* ty=Tensor[(13, 13, 8), float32] */;
    %84 = %77.2;
    %85 = %82.3;
    (%83, %84, %85, meta[relay.Constant][2] /* ty=Tensor[(300), float32] */, meta[relay.Constant][3] /* ty=Tensor[(2, 180), uint8] */)
  };
  %86() /* ty=(Tensor[(13, 13, 8), float32], Tensor[(13, 13, 8), float32], Tensor[(360), uint8], Tensor[(300), float32], Tensor[(2, 180), uint8]) */
}

def @func_2512() -> (Tensor[(13, 13, 8), float32],) {
  %87 = @func_2429() /* ty=Tensor[(13, 13, 8), float32] */;
  (%87,)
}

def @func_11025(%var_11023: Tensor[(7, 13, 3), int8]) -> (Tensor[(7, 13, 3), int8], Tensor[(13, 13, 8), float32], Tensor[(13, 13, 8), bool], Tensor[(704), uint64], Tensor[(704), bool], Tensor[(13, 13, 8), bool]) {
  @func_11022(%var_11023) /* ty=(Tensor[(7, 13, 3), int8], Tensor[(13, 13, 8), float32], Tensor[(13, 13, 8), bool], Tensor[(704), uint64], Tensor[(704), bool], Tensor[(13, 13, 8), bool]) */
}

def @func_16095() -> Tensor[(13, 13, 8), bool] {
  @func_16093() /* ty=Tensor[(13, 13, 8), bool] */
}

def @func_14422() -> (Tensor[(13, 13, 8), float32],) {
  @func_14420() /* ty=(Tensor[(13, 13, 8), float32],) */
}

def @func_12711() -> (Tensor[(54), bool],) {
  @func_12709() /* ty=(Tensor[(54), bool],) */
}

def @func_11022(%var_10970: Tensor[(7, 13, 3), int8]) -> (Tensor[(7, 13, 3), int8], Tensor[(13, 13, 8), float32], Tensor[(13, 13, 8), bool], Tensor[(704), uint64], Tensor[(704), bool], Tensor[(13, 13, 8), bool]) {
  %88 = cast(meta[relay.Constant][4] /* ty=int8 */, dtype="int8") /* ty=int8 */;
  %89 = cast(%var_10970, dtype="int8") /* ty=Tensor[(7, 13, 3), int8] */;
  %90 = @func_9523() /* ty=(Tensor[(300), float32], Tensor[(13, 13, 8), float32], Tensor[(13, 13, 8), float32]) */;
  %91 = @func_5319() /* ty=(Tensor[(13, 13, 8), bool],) */;
  %92 = cast(meta[relay.Constant][5] /* ty=Tensor[(704), bool] */, dtype="bool") /* ty=Tensor[(704), bool] */;
  %93 = reshape(%92, newshape=[704]) /* ty=Tensor[(704), bool] */;
  %94 = @func_6114(%93) /* ty=(Tensor[(11, 4, 16), uint32], Tensor[(10, 9, 4), float64], Tensor[(704), uint64], Tensor[(980), bool]) */;
  %95 = @func_8856() /* ty=(Tensor[(13, 13, 8), float32], Tensor[(13, 13, 8), bool], Tensor[(9, 3, 5), float64], Tensor[(135), float64]) */;
  %96 = left_shift(%88, %89) /* ty=Tensor[(7, 13, 3), int8] */;
  %97 = %90.1;
  %98 = %91.0;
  %99 = %94.2;
  %100 = %95.1;
  (%96, %97, %98, %99, meta[relay.Constant][5] /* ty=Tensor[(704), bool] */, %100)
}

def @func_4390() -> (Tensor[(13, 13, 8), float32], Tensor[(104), int16]) {
  %106 = fn () -> (Tensor[(13, 13, 8), float32], Tensor[(104), int16]) {
    %101 = @func_2602() /* ty=Tensor[(13, 13, 8), float32] */;
    %102 = cast(%101, dtype="int16") /* ty=Tensor[(13, 13, 8), int16] */;
    %103 = reshape(%102, newshape=[1352]) /* ty=Tensor[(1352), int16] */;
    %104 = @func_3011(%103) /* ty=(Tensor[(104), int16], Tensor[(13, 13, 8), float32], Tensor[(1352), int16]) */;
    %105 = %104.0;
    (%101, %105)
  };
  %106() /* ty=(Tensor[(13, 13, 8), float32], Tensor[(104), int16]) */
}

def @func_4562() -> (Tensor[(13, 13, 8), uint8], Tensor[(13, 13, 8), float32], Tensor[(13, 13, 8), float32]) {
  @func_4560() /* ty=(Tensor[(13, 13, 8), uint8], Tensor[(13, 13, 8), float32], Tensor[(13, 13, 8), float32]) */
}

def @func_3391(%var_3389: Tensor[(286), float32]) -> (Tensor[(13, 13, 8), float32], Tensor[(13, 11, 2), float64], Tensor[(286), float64]) {
  @func_3388(%var_3389) /* ty=(Tensor[(13, 13, 8), float32], Tensor[(13, 11, 2), float64], Tensor[(286), float64]) */
}

def @func_6498(%var_6467: Tensor[(360), uint8], %var_6491: Tensor[(14, 7, 360), float32]) -> (Tensor[(10, 9, 4), bool], Tensor[(13, 13, 8), float32], Tensor[(14, 7, 360), int64]) {
  %107 = cast(%var_6467, dtype="uint8") /* ty=Tensor[(360), uint8] */;
  %108 = reshape(%107, newshape=[10, 9, 4]) /* ty=Tensor[(10, 9, 4), uint8] */;
  %109 = @func_303(%108) /* ty=(Tensor[(10, 9, 4), bool],) */;
  %110 = @func_5188() /* ty=(Tensor[(13, 13, 8), float32], Tensor[(4, 5, 15), float32], Tensor[(300), float32], Tensor[(13, 13, 8), float32], Tensor[(13, 13, 8), float32], Tensor[(11, 10, 4), float32], Tensor[(7, 165), int8]) */;
  %111 = @func_6193() /* ty=(Tensor[(14, 7, 1), float64],) */;
  %112 = %111.0;
  %113 = cast(%112, dtype="float64") /* ty=Tensor[(14, 7, 1), float64] */;
  %114 = cast(%var_6467, dtype="float64") /* ty=Tensor[(360), float64] */;
  %115 = floor_mod(%113, %114) /* ty=Tensor[(14, 7, 360), float64] */;
  %116 = cast(%115, dtype="float32") /* ty=Tensor[(14, 7, 360), float32] */;
  %117 = log10(%116) /* ty=Tensor[(14, 7, 360), float32] */;
  %118 = cast(%var_6491, dtype="int64") /* ty=Tensor[(14, 7, 360), int64] */;
  %119 = shape_of(%117, dtype="int32") /* ty=Tensor[(3), int32] */;
  %120 = cast(%117, dtype="int64") /* ty=Tensor[(14, 7, 360), int64] */;
  %121 = dyn.reshape(%118, %119, newshape=[]) /* ty=Tensor[(?, ?, ?), int64] */;
  %122 = %109.0;
  %123 = %110.4;
  %124 = right_shift(%120, %121) /* ty=Tensor[(14, 7, 360), int64] */;
  (%122, %123, %124)
}

def @func_16314() -> (Tensor[(13, 13, 8), float32],) {
  %127 = fn () -> (Tensor[(13, 13, 8), float32],) {
    %125 = @func_7436() /* ty=(Tensor[(13, 13, 8), float32], Tensor[(13, 13, 8), float32], Tensor[(9, 3, 5), float64], Tensor[(135), float64]) */;
    %126 = %125.1;
    (%126,)
  };
  %127() /* ty=(Tensor[(13, 13, 8), float32],) */
}

…
def @func_3745() -> (Tensor[(13, 13, 8), float32], Tensor[(13, 13, 8), float32]) {
  %1102 = @func_2548() /* ty=(Tensor[(13, 13, 8), float32], Tensor[(13, 13, 8), float32]) */;
  %1103 = @func_1955() /* ty=(Tensor[(13, 13, 8), uint8],) */;
  %1104 = %1103.0;
  %1105 = cast(%1104, dtype="float32") /* ty=Tensor[(13, 13, 8), float32] */;
  %1106 = %1102.1;
  %1107 = acos(%1105) /* ty=Tensor[(13, 13, 8), float32] */;
  (%1106, %1107)
}

def @func_13798() -> (Tensor[(13, 13, 8), float32], Tensor[(13, 13, 8), bool], Tensor[(13, 13, 8), float64]) {
  %1108 = @func_13476() /* ty=(Tensor[(13, 13, 8), float32], Tensor[(13, 13, 8), float32]) */;
  %1109 = @func_5319() /* ty=(Tensor[(13, 13, 8), bool],) */;
  %1110 = %1108.1;
  %1111 = %1109.0;
  %1112 = @func_5903() /* ty=Tensor[(13, 13, 8), float64] */;
  (%1110, %1111, %1112)
}

def @func_11074() -> Tensor[(13, 13, 8), float32] {
  @func_11072() /* ty=Tensor[(13, 13, 8), float32] */
}

def @func_7008() -> (Tensor[(13, 13, 8), float32],) {
  @func_7006() /* ty=(Tensor[(13, 13, 8), float32],) */
}

def @func_14570(%var_14563: Tensor[(300), float32], %var_14567: Tensor[(36, 10), uint8]) -> (Tensor[(13, 13, 8), uint8], Tensor[(104), int16], Tensor[(300), float32], Tensor[(300), float32], Tensor[(36, 10), uint8]) {
  %1113 = @func_9353() /* ty=(Tensor[(13, 13, 8), uint8],) */;
  %1114 = cast(%var_14563, dtype="float32") /* ty=Tensor[(300), float32] */;
  %1115 = reshape(%1114, newshape=[1, 300]) /* ty=Tensor[(1, 300), float32] */;
  %1116 = @func_14279(%1115) /* ty=(Tensor[(13, 13, 8), uint8], Tensor[(13, 13, 8), float32], Tensor[(360), float32], Tensor[(104), int16], Tensor[(4, 5, 15), float32], Tensor[(1, 300), float32]) */;
  %1117 = cast(%var_14563, dtype="float32") /* ty=Tensor[(300), float32] */;
  %1118 = cast(%var_14567, dtype="uint8") /* ty=Tensor[(36, 10), uint8] */;
  %1119 = reshape(%1117, newshape=[300]) /* ty=Tensor[(300), float32] */;
  %1120 = reshape(%1118, newshape=[360]) /* ty=Tensor[(360), uint8] */;
  %1121 = @func_4949(%1119, %1120) /* ty=(Tensor[(13, 13, 8), float32], Tensor[(11, 10, 4), float32], Tensor[(300), float32], Tensor[(360), uint8], Tensor[(13, 13, 8), float32]) */;
  %1122 = %1113.0;
  %1123 = %1116.3;
  %1124 = %1121.2;
  (%1122, %1123, %var_14563, %1124, %var_14567)
}

def @func_8681() -> Tensor[(54), float64] {
  %1125 = @func_6295() /* ty=(Tensor[(13, 13, 8), float32], Tensor[(54), float32], Tensor[(54), float64], Tensor[(13, 13, 8), float32]) */;
  %1125.2
}

def @func_10743() -> (Tensor[(13, 13, 8), float32],) {
  %1126 = @func_5608() /* ty=(Tensor[(13, 13, 8), float32], Tensor[(13, 13, 8), uint8], Tensor[(54), float64]) */;
  %1127 = %1126.0;
  (%1127,)
}

def @func_4191() -> (Tensor[(13, 13, 8), float32], Tensor[(13, 13, 8), float32]) {
  %1128 = @func_2602() /* ty=Tensor[(13, 13, 8), float32] */;
  %1129 = @func_2429() /* ty=Tensor[(13, 13, 8), float32] */;
  (%1128, %1129)
}

def @func_4491() -> Tensor[(13, 13, 8), float32] {
  @func_4489() /* ty=Tensor[(13, 13, 8), float32] */
}

def @func_2030(%var_2015: Tensor[(54), float64]) -> (Tensor[(13, 13, 8), uint8], Tensor[(7, 9, 15), float64], Tensor[(10, 9, 4), bool], Tensor[(360), uint8], Tensor[(1, 9, 6), float64], Tensor[(54), float64]) {
  %1130 = @func_1955() /* ty=(Tensor[(13, 13, 8), uint8],) */;
  %1131 = @func_1602() /* ty=(Tensor[(7, 9, 15), float64], Tensor[(13, 13, 8), float32], Tensor[(104), int16], Tensor[(1352), int16]) */;
  %1132 = cast(meta[relay.Constant][66] /* ty=Tensor[(360), uint8] */, dtype="uint8") /* ty=Tensor[(360), uint8] */;
  %1133 = reshape(%1132, newshape=[10, 9, 4]) /* ty=Tensor[(10, 9, 4), uint8] */;
  %1134 = @func_303(%1133) /* ty=(Tensor[(10, 9, 4), bool],) */;
  %1135 = cast(%var_2015, dtype="float64") /* ty=Tensor[(54), float64] */;
  %1136 = reshape(%1135, newshape=[1, 9, 6]) /* ty=Tensor[(1, 9, 6), float64] */;
  %1137 = @func_1566(%1136) /* ty=(Tensor[(1, 9, 6), float64],) */;
  %1138 = %1130.0;
  %1139 = %1131.0;
  %1140 = %1134.0;
  %1141 = %1137.0;
  (%1138, %1139, %1140, meta[relay.Constant][66] /* ty=Tensor[(360), uint8] */, %1141, %var_2015)
}

def @func_13582() -> Tensor[(13, 13, 8), bool] {
  %1142 = @func_11828() /* ty=(Tensor[(13, 13, 8), float32], Tensor[(13, 13, 8), bool]) */;
  %1142.1
}

def @func_5904() -> Tensor[(13, 13, 8), float64] {
  %1145 = fn () -> Tensor[(13, 13, 8), float64] {
    %1143 = @func_4365() /* ty=Tensor[(13, 13, 8), bool] */;
    %1144 = cast(%1143, dtype="float64") /* ty=Tensor[(13, 13, 8), float64] */;
    exp(%1144) /* ty=Tensor[(13, 13, 8), float64] */
  };
  %1145() /* ty=Tensor[(13, 13, 8), float64] */
}

def @func_10056() -> (Tensor[(13, 13, 8), float32],) {
  %1146 = @func_6325() /* ty=(Tensor[(13, 13, 8), float32], Tensor[(13, 13, 8), float32]) */;
  %1147 = %1146.1;
  (%1147,)
}

def @func_3617() -> (Tensor[(13, 13, 8), float32],) {
  @func_3615() /* ty=(Tensor[(13, 13, 8), float32],) */
}

def @func_8858() -> (Tensor[(13, 13, 8), float32], Tensor[(13, 13, 8), bool], Tensor[(9, 3, 5), float64], Tensor[(135), float64]) {
  @func_8856() /* ty=(Tensor[(13, 13, 8), float32], Tensor[(13, 13, 8), bool], Tensor[(9, 3, 5), float64], Tensor[(135), float64]) */
}

def @func_7454() -> (Tensor[(13, 13, 8), float32], Tensor[(13, 13, 8), float32]) {
  @func_7452() /* ty=(Tensor[(13, 13, 8), float32], Tensor[(13, 13, 8), float32]) */
}

def @func_5609() -> (Tensor[(13, 13, 8), float32], Tensor[(13, 13, 8), uint8], Tensor[(54), float64]) {
  %1153 = fn () -> (Tensor[(13, 13, 8), float32], Tensor[(13, 13, 8), uint8], Tensor[(54), float64]) {
    %1148 = cast(meta[relay.Constant][67] /* ty=Tensor[(54), float64] */, dtype="float64") /* ty=Tensor[(54), float64] */;
    %1149 = reshape(%1148, newshape=[54]) /* ty=Tensor[(54), float64] */;
    %1150 = @func_2030(%1149) /* ty=(Tensor[(13, 13, 8), uint8], Tensor[(7, 9, 15), float64], Tensor[(10, 9, 4), bool], Tensor[(360), uint8], Tensor[(1, 9, 6), float64], Tensor[(54), float64]) */;
    %1151 = @func_1785() /* ty=Tensor[(13, 13, 8), float32] */;
    %1152 = %1150.0;
    (%1151, %1152, meta[relay.Constant][67] /* ty=Tensor[(54), float64] */)
  };
  %1153() /* ty=(Tensor[(13, 13, 8), float32], Tensor[(13, 13, 8), uint8], Tensor[(54), float64]) */
}

def @func_6806() -> Tensor[(13, 13, 8), float32] {
  @func_6804() /* ty=Tensor[(13, 13, 8), float32] */
}

def @func_7437() -> (Tensor[(13, 13, 8), float32], Tensor[(13, 13, 8), float32], Tensor[(9, 3, 5), float64], Tensor[(135), float64]) {
  %1161 = fn () -> (Tensor[(13, 13, 8), float32], Tensor[(13, 13, 8), float32], Tensor[(9, 3, 5), float64], Tensor[(135), float64]) {
    %1154 = @func_6977() /* ty=(Tensor[(13, 13, 8), float32],) */;
    %1155 = @func_6843() /* ty=(Tensor[(13, 13, 8), float64], Tensor[(13, 13, 8), float32], Tensor[(13, 13, 8), float32]) */;
    %1156 = cast(meta[relay.Constant][68] /* ty=Tensor[(135), float64] */, dtype="float64") /* ty=Tensor[(135), float64] */;
    %1157 = reshape(%1156, newshape=[9, 3, 5]) /* ty=Tensor[(9, 3, 5), float64] */;
    %1158 = %1154.0;
    %1159 = %1155.1;
    %1160 = @func_3225(%1157) /* ty=Tensor[(9, 3, 5), float64] */;
    (%1158, %1159, %1160, meta[relay.Constant][68] /* ty=Tensor[(135), float64] */)
  };
  %1161() /* ty=(Tensor[(13, 13, 8), float32], Tensor[(13, 13, 8), float32], Tensor[(9, 3, 5), float64], Tensor[(135), float64]) */
}

def @func_3227(%var_3226: Tensor[(9, 3, 5), float64]) -> Tensor[(9, 3, 5), float64] {
  %1166 = fn (%var_3221: Tensor[(9, 3, 5), float64]) -> Tensor[(9, 3, 5), float64] {
    %1162 = cast(%var_3221, dtype="float64") /* ty=Tensor[(9, 3, 5), float64] */;
    %1163 = shape_of(meta[relay.Constant][69] /* ty=Tensor[(9, 3, 5), float64] */, dtype="int32") /* ty=Tensor[(3), int32] */;
    %1164 = cast(meta[relay.Constant][69] /* ty=Tensor[(9, 3, 5), float64] */, dtype="float64") /* ty=Tensor[(9, 3, 5), float64] */;
    %1165 = dyn.reshape(%1162, %1163, newshape=[]) /* ty=Tensor[(?, ?, ?), float64] */;
    floor_mod(%1164, %1165) /* ty=Tensor[(9, 3, 5), float64] */
  };
  %1166(%var_3226) /* ty=Tensor[(9, 3, 5), float64] */
}

def @func_7144(%var_7142: bool, %var_7143: Tensor[(2, 1), bool]) -> (Tensor[(2, 1), bool], Tensor[(13, 13, 8), bool], Tensor[(54), float64]) {
  %1174 = fn (%var_7131: bool, %var_7132: Tensor[(2, 1), bool]) -> (Tensor[(2, 1), bool], Tensor[(13, 13, 8), bool], Tensor[(54), float64]) {
    %1167 = cast(%var_7131, dtype="bool") /* ty=bool */;
    %1168 = cast(%var_7132, dtype="bool") /* ty=Tensor[(2, 1), bool] */;
    %1169 = cast(meta[relay.Constant][70] /* ty=Tensor[(54), float64] */, dtype="float64") /* ty=Tensor[(54), float64] */;
    %1170 = reshape(%1169, newshape=[54]) /* ty=Tensor[(54), float64] */;
    %1171 = @func_6163(%1170) /* ty=(Tensor[(13, 13, 8), float32], Tensor[(11, 10, 4), float64], Tensor[(13, 13, 8), bool], Tensor[(13, 13, 8), float32], Tensor[(54), float64]) */;
    %1172 = logical_and(%1167, %1168) /* ty=Tensor[(2, 1), bool] */;
    %1173 = %1171.2;
    (%1172, %1173, meta[relay.Constant][70] /* ty=Tensor[(54), float64] */)
  };
  %1174(%var_7142, %var_7143) /* ty=(Tensor[(2, 1), bool], Tensor[(13, 13, 8), bool], Tensor[(54), float64]) */
}

def @func_14657(%var_14653: Tensor[(8, 6, 5), uint8], %var_14654: Tensor[(8, 6, 5), uint8], %var_14655: Tensor[(1352), float32], %var_14656: Tensor[(364), int32]) -> (Tensor[(8, 6, 5), uint8], Tensor[(360), uint8], Tensor[(1352), float32], Tensor[(360), uint8], Tensor[(35280), float32], Tensor[(360), uint8], Tensor[(364), int32]) {
  %1194 = fn (%var_14625: Tensor[(8, 6, 5), uint8], %var_14626: Tensor[(8, 6, 5), uint8], %var_14636: Tensor[(1352), float32], %var_14641: Tensor[(364), int32]) -> (Tensor[(8, 6, 5), uint8], Tensor[(360), uint8], Tensor[(1352), float32], Tensor[(360), uint8], Tensor[(35280), float32], Tensor[(360), uint8], Tensor[(364), int32]) {
    %1175 = cast(%var_14626, dtype="uint8") /* ty=Tensor[(8, 6, 5), uint8] */;
    %1176 = shape_of(%var_14625, dtype="int32") /* ty=Tensor[(3), int32] */;
    %1177 = cast(%var_14625, dtype="uint8") /* ty=Tensor[(8, 6, 5), uint8] */;
    %1178 = dyn.reshape(%1175, %1176, newshape=[]) /* ty=Tensor[(?, ?, ?), uint8] */;
    %1179 = cast(%var_14636, dtype="float32") /* ty=Tensor[(1352), float32] */;
    %1180 = cast(meta[relay.Constant][71] /* ty=Tensor[(360), uint8] */, dtype="uint8") /* ty=Tensor[(360), uint8] */;
    %1181 = cast(meta[relay.Constant][72] /* ty=Tensor[(35280), float32] */, dtype="float32") /* ty=Tensor[(35280), float32] */;
    %1182 = reshape(%1179, newshape=[13, 13, 8]) /* ty=Tensor[(13, 13, 8), float32] */;
    %1183 = reshape(%1180, newshape=[360]) /* ty=Tensor[(360), uint8] */;
    %1184 = reshape(%1181, newshape=[2, 17640]) /* ty=Tensor[(2, 17640), float32] */;
    %1185 = @func_7187(%1182, %1183, %1184) /* ty=(Tensor[(13, 13, 8), float32], Tensor[(13, 13, 8), uint64], Tensor[(14, 7, 360), int64], Tensor[(360), uint8], Tensor[(2, 17640), float32], Tensor[(13, 13, 8), uint8]) */;
    %1186 = cast(%var_14641, dtype="int32") /* ty=Tensor[(364), int32] */;
    %1187 = cast(%var_14641, dtype="int32") /* ty=Tensor[(364), int32] */;
    %1188 = reshape(%1186, newshape=[7, 4, 13]) /* ty=Tensor[(7, 4, 13), int32] */;
    %1189 = reshape(%1187, newshape=[7, 4, 13]) /* ty=Tensor[(7, 4, 13), int32] */;
    %1190 = @func_4099(%1188, %1189) /* ty=(Tensor[(7, 4, 13), bool], Tensor[(7, 4, 13), float32], Tensor[(360), uint8]) */;
    %1191 = left_shift(%1177, %1178) /* ty=Tensor[(8, 6, 5), uint8] */;
    %1192 = %1185.3;
    %1193 = %1190.2;
    (%1191, %1192, %var_14636, meta[relay.Constant][71] /* ty=Tensor[(360), uint8] */, meta[relay.Constant][72] /* ty=Tensor[(35280), float32] */, %1193, %var_14641)
  };
  %1194(%var_14653, %var_14654, %var_14655, %var_14656) /* ty=(Tensor[(8, 6, 5), uint8], Tensor[(360), uint8], Tensor[(1352), float32], Tensor[(360), uint8], Tensor[(35280), float32], Tensor[(360), uint8], Tensor[(364), int32]) */
}

def @func_4442() -> (Tensor[(13, 13, 8), bool], Tensor[(9, 3, 5), float64], Tensor[(135), float64]) {
  %1200 = fn () -> (Tensor[(13, 13, 8), bool], Tensor[(9, 3, 5), float64], Tensor[(135), float64]) {
    %1195 = @func_2788() /* ty=(Tensor[(13, 13, 8), bool],) */;
    %1196 = cast(meta[relay.Constant][73] /* ty=Tensor[(135), float64] */, dtype="float64") /* ty=Tensor[(135), float64] */;
    %1197 = reshape(%1196, newshape=[9, 3, 5]) /* ty=Tensor[(9, 3, 5), float64] */;
    %1198 = %1195.0;
    %1199 = @func_3225(%1197) /* ty=Tensor[(9, 3, 5), float64] */;
    (%1198, %1199, meta[relay.Constant][73] /* ty=Tensor[(135), float64] */)
  };
  %1200() /* ty=(Tensor[(13, 13, 8), bool], Tensor[(9, 3, 5), float64], Tensor[(135), float64]) */
}

def @func_8856() -> (Tensor[(13, 13, 8), float32], Tensor[(13, 13, 8), bool], Tensor[(9, 3, 5), float64], Tensor[(135), float64]) {
  %1201 = @func_8276() /* ty=(Tensor[(13, 13, 8), float32],) */;
  %1202 = @func_3862() /* ty=(Tensor[(13, 13, 8), bool], Tensor[(13, 13, 8), bool]) */;
  %1203 = cast(meta[relay.Constant][74] /* ty=Tensor[(135), float64] */, dtype="float64") /* ty=Tensor[(135), float64] */;
  %1204 = reshape(%1203, newshape=[9, 3, 5]) /* ty=Tensor[(9, 3, 5), float64] */;
  %1205 = %1201.0;
  %1206 = %1202.1;
  %1207 = @func_3225(%1204) /* ty=Tensor[(9, 3, 5), float64] */;
  (%1205, %1206, %1207, meta[relay.Constant][74] /* ty=Tensor[(135), float64] */)
}

def @func_14320() -> (Tensor[(13, 13, 8), float32],) {
  %1210 = fn () -> (Tensor[(13, 13, 8), float32],) {
    %1208 = @func_8404() /* ty=(Tensor[(13, 13, 8), float32],) */;
    %1209 = %1208.0;
    (%1209,)
  };
  %1210() /* ty=(Tensor[(13, 13, 8), float32],) */
}

def @func_14466() -> (Tensor[(135), float64], Tensor[(13, 13, 8), float32]) {
  %1211 = @func_13524() /* ty=(Tensor[(135), float64],) */;
  %1212 = @func_10382() /* ty=(Tensor[(13, 13, 8), float32],) */;
  %1213 = %1211.0;
  %1214 = %1212.0;
  (%1213, %1214)
}

def @func_4797() -> Tensor[(13, 13, 8), float32] {
  %1215 = fn () -> Tensor[(13, 13, 8), float32] {
    @func_3773() /* ty=Tensor[(13, 13, 8), float32] */
  };
  %1215() /* ty=Tensor[(13, 13, 8), float32] */
}

def @func_8456(%var_8439: Tensor[(9, 1, 7), uint16], %var_8440: Tensor[(9, 6, 7), uint16]) -> (Tensor[(9, 6, 7), uint16], Tensor[(9, 1, 7), float32]) {
  %1216 = cast(%var_8439, dtype="uint16") /* ty=Tensor[(9, 1, 7), uint16] */;
  %1217 = cast(%var_8440, dtype="uint16") /* ty=Tensor[(9, 6, 7), uint16] */;
  %1218 = cast(%var_8439, dtype="float32") /* ty=Tensor[(9, 1, 7), float32] */;
  %1219 = bitwise_and(%1216, %1217) /* ty=Tensor[(9, 6, 7), uint16] */;
  %1220 = log2(%1218) /* ty=Tensor[(9, 1, 7), float32] */;
  (%1219, %1220)
}

def @func_8873() -> (Tensor[(13, 13, 8), float32],) {
  @func_8871() /* ty=(Tensor[(13, 13, 8), float32],) */
}

def @func_257(%var_225: Tensor[(11, 15, 7), int8], %var_226: Tensor[(11, 15, 7), int8]) -> (Tensor[(11, 15, 7), uint16], Tensor[(11, 15, 7), uint64], Tensor[(11, 10, 4), float32], Tensor[(5, 88), float32], Tensor[(11, 10, 4), float32], Tensor[(11, 15, 7), float64]) {
  %1221 = cast(%var_226, dtype="int8") /* ty=Tensor[(11, 15, 7), int8] */;
  %1222 = shape_of(%var_225, dtype="int32") /* ty=Tensor[(3), int32] */;
  %1223 = cast(%var_225, dtype="int8") /* ty=Tensor[(11, 15, 7), int8] */;
  %1224 = dyn.reshape(%1221, %1222, newshape=[]) /* ty=Tensor[(?, ?, ?), int8] */;
  %1225 = bitwise_and(%1223, %1224) /* ty=Tensor[(11, 15, 7), int8] */;
  %1226 = cast(%1225, dtype="uint16") /* ty=Tensor[(11, 15, 7), uint16] */;
  %1227 = shape_of(%var_226, dtype="int32") /* ty=Tensor[(3), int32] */;
  %1228 = cast(%var_226, dtype="uint16") /* ty=Tensor[(11, 15, 7), uint16] */;
  %1229 = dyn.reshape(%1226, %1227, newshape=[]) /* ty=Tensor[(?, ?, ?), uint16] */;
  %1230 = cast(%var_226, dtype="uint64") /* ty=Tensor[(11, 15, 7), uint64] */;
  %1231 = shape_of(%1225, dtype="int32") /* ty=Tensor[(3), int32] */;
  %1232 = cast(%1225, dtype="uint64") /* ty=Tensor[(11, 15, 7), uint64] */;
  %1233 = dyn.reshape(%1230, %1231, newshape=[]) /* ty=Tensor[(?, ?, ?), uint64] */;
  %1234 = cast(meta[relay.Constant][75] /* ty=Tensor[(5, 88), float32] */, dtype="float32") /* ty=Tensor[(5, 88), float32] */;
  %1235 = cast(meta[relay.Constant][75] /* ty=Tensor[(5, 88), float32] */, dtype="float32") /* ty=Tensor[(5, 88), float32] */;
  %1236 = reshape(%1234, newshape=[11, 10, 4]) /* ty=Tensor[(11, 10, 4), float32] */;
  %1237 = reshape(%1235, newshape=[11, 10, 4]) /* ty=Tensor[(11, 10, 4), float32] */;
  %1238 = @func_173(%1236, %1237) /* ty=Tensor[(11, 10, 4), float32] */;
  %1239 = cast(%1238, dtype="float32") /* ty=Tensor[(11, 10, 4), float32] */;
  %1240 = cast(meta[relay.Constant][75] /* ty=Tensor[(5, 88), float32] */, dtype="float32") /* ty=Tensor[(5, 88), float32] */;
  %1241 = reshape(%1239, newshape=[11, 10, 4]) /* ty=Tensor[(11, 10, 4), float32] */;
  %1242 = reshape(%1240, newshape=[11, 10, 4]) /* ty=Tensor[(11, 10, 4), float32] */;
  %1243 = cast(%var_226, dtype="float64") /* ty=Tensor[(11, 15, 7), float64] */;
  %1244 = multiply(%1228, %1229) /* ty=Tensor[(11, 15, 7), uint16] */;
  %1245 = right_shift(%1232, %1233) /* ty=Tensor[(11, 15, 7), uint64] */;
  %1246 = @func_173(%1241, %1242) /* ty=Tensor[(11, 10, 4), float32] */;
  %1247 = acos(%1243) /* ty=Tensor[(11, 15, 7), float64] */;
  (%1244, %1245, %1238, meta[relay.Constant][75] /* ty=Tensor[(5, 88), float32] */, %1246, %1247)
}

def @func_15681() -> Tensor[(13, 13, 8), float32] {
  @func_15679() /* ty=Tensor[(13, 13, 8), float32] */
}

def @func_10876() -> (Tensor[(13, 13, 8), float32], Tensor[(13, 13, 8), float64], Tensor[(360), uint8], Tensor[(13, 13, 8), bool], Tensor[(13, 13, 8), float32], Tensor[(13, 13, 8), float32], Tensor[(13, 13, 8), float32], Tensor[(13, 13, 8), float32], Tensor[(104), int16]) {
  %1263 = fn () -> (Tensor[(13, 13, 8), float32], Tensor[(13, 13, 8), float64], Tensor[(360), uint8], Tensor[(13, 13, 8), bool], Tensor[(13, 13, 8), float32], Tensor[(13, 13, 8), float32], Tensor[(13, 13, 8), float32], Tensor[(13, 13, 8), float32], Tensor[(104), int16]) {
    %1248 = @func_7006() /* ty=(Tensor[(13, 13, 8), float32],) */;
    %1249 = @func_6843() /* ty=(Tensor[(13, 13, 8), float64], Tensor[(13, 13, 8), float32], Tensor[(13, 13, 8), float32]) */;
    %1250 = @func_3547() /* ty=(Tensor[(13, 13, 8), float32], Tensor[(13, 13, 8), bool], Tensor[(104), int16], Tensor[(13, 13, 8), float32]) */;
    %1251 = @func_9874() /* ty=(Tensor[(104), int16], Tensor[(13, 13, 8), float32]) */;
    %1252 = @func_5515() /* ty=(Tensor[(13, 13, 8), float32], Tensor[(13, 13, 8), float32]) */;
    %1253 = @func_4642() /* ty=(Tensor[(104), int16],) */;
    %1254 = %1248.0;
    %1255 = %1249.0;
    %1256 = @func_4572() /* ty=Tensor[(360), uint8] */;
    %1257 = %1250.1;
    %1258 = %1251.1;
    %1259 = %1252.1;
    %1260 = @func_6804() /* ty=Tensor[(13, 13, 8), float32] */;
    %1261 = @func_5750() /* ty=Tensor[(13, 13, 8), float32] */;
    %1262 = %1253.0;
    (%1254, %1255, %1256, %1257, %1258, %1259, %1260, %1261, %1262)
  };
  %1263() /* ty=(Tensor[(13, 13, 8), float32], Tensor[(13, 13, 8), float64], Tensor[(360), uint8], Tensor[(13, 13, 8), bool], Tensor[(13, 13, 8), float32], Tensor[(13, 13, 8), float32], Tensor[(13, 13, 8), float32], Tensor[(13, 13, 8), float32], Tensor[(104), int16]) */
}

def @func_1955() -> (Tensor[(13, 13, 8), uint8],) {
  %1264 = @func_1785() /* ty=Tensor[(13, 13, 8), float32] */;
  %1265 = cast(%1264, dtype="float32") /* ty=Tensor[(13, 13, 8), float32] */;
  %1266 = acosh(%1265) /* ty=Tensor[(13, 13, 8), float32] */;
  %1267 = cast(%1264, dtype="uint8") /* ty=Tensor[(13, 13, 8), uint8] */;
  %1268 = shape_of(%1266, dtype="int32") /* ty=Tensor[(3), int32] */;
  %1269 = cast(%1266, dtype="uint8") /* ty=Tensor[(13, 13, 8), uint8] */;
  %1270 = dyn.reshape(%1267, %1268, newshape=[]) /* ty=Tensor[(?, ?, ?), uint8] */;
  %1271 = subtract(%1269, %1270) /* ty=Tensor[(13, 13, 8), uint8] */;
  (%1271,)
}

def @func_14468() -> (Tensor[(135), float64], Tensor[(13, 13, 8), float32]) {
  @func_14466() /* ty=(Tensor[(135), float64], Tensor[(13, 13, 8), float32]) */
}

def @func_5562() -> Tensor[(13, 13, 8), float32] {
  %1273 = fn () -> Tensor[(13, 13, 8), float32] {
    %1272 = @func_2548() /* ty=(Tensor[(13, 13, 8), float32], Tensor[(13, 13, 8), float32]) */;
    %1272.0
  };
  %1273() /* ty=Tensor[(13, 13, 8), float32] */
}

def @func_5464() -> Tensor[(13, 13, 8), float32] {
  @func_5462() /* ty=Tensor[(13, 13, 8), float32] */
}

def @func_2603() -> Tensor[(13, 13, 8), float32] {
  %1274 = fn () -> Tensor[(13, 13, 8), float32] {
    @func_2250() /* ty=Tensor[(13, 13, 8), float32] */
  };
  %1274() /* ty=Tensor[(13, 13, 8), float32] */
}

def @func_16248() -> (Tensor[(13, 13, 8), float32],) {
  @func_16246() /* ty=(Tensor[(13, 13, 8), float32],) */
}

def @func_6951() -> (Tensor[(13, 13, 8), float64],) {
  @func_6949() /* ty=(Tensor[(13, 13, 8), float64],) */
}

def @func_3310() -> (Tensor[(13, 13, 8), float32], Tensor[(10, 9, 4), bool], Tensor[(360), uint8]) {
  %1281 = fn () -> (Tensor[(13, 13, 8), float32], Tensor[(10, 9, 4), bool], Tensor[(360), uint8]) {
    %1275 = @func_2512() /* ty=(Tensor[(13, 13, 8), float32],) */;
    %1276 = cast(meta[relay.Constant][76] /* ty=Tensor[(360), uint8] */, dtype="uint8") /* ty=Tensor[(360), uint8] */;
    %1277 = reshape(%1276, newshape=[10, 9, 4]) /* ty=Tensor[(10, 9, 4), uint8] */;
    %1278 = @func_303(%1277) /* ty=(Tensor[(10, 9, 4), bool],) */;
    %1279 = %1275.0;
    %1280 = %1278.0;
    (%1279, %1280, meta[relay.Constant][76] /* ty=Tensor[(360), uint8] */)
  };
  %1281() /* ty=(Tensor[(13, 13, 8), float32], Tensor[(10, 9, 4), bool], Tensor[(360), uint8]) */
}

def @func_4193() -> (Tensor[(13, 13, 8), float32], Tensor[(13, 13, 8), float32]) {
  @func_4191() /* ty=(Tensor[(13, 13, 8), float32], Tensor[(13, 13, 8), float32]) */
}

def @func_4489() -> Tensor[(13, 13, 8), float32] {
  %1282 = @func_2648() /* ty=(Tensor[(13, 13, 8), float32],) */;
  %1282.0
}

def @func_16093() -> Tensor[(13, 13, 8), bool] {
  @func_13582() /* ty=Tensor[(13, 13, 8), bool] */
}

def @func_16146() -> (Tensor[(13, 13, 8), float32],) {
  %1285 = fn () -> (Tensor[(13, 13, 8), float32],) {
    %1283 = @func_5030() /* ty=(Tensor[(13, 13, 8), float32], Tensor[(13, 13, 8), float32]) */;
    %1284 = %1283.0;
    (%1284,)
  };
  %1285() /* ty=(Tensor[(13, 13, 8), float32],) */
}

def @func_12924() -> (Tensor[(300), float32],) {
  %1288 = fn () -> (Tensor[(300), float32],) {
    %1286 = @func_12514() /* ty=(Tensor[(6, 7, 3), float64], Tensor[(300), float32], Tensor[(7, 9, 15), float64], Tensor[(360), uint8], Tensor[(13, 13, 8), float32], Tensor[(220, 2), float32], Tensor[(432), float64], Tensor[(5, 88), float32]) */;
    %1287 = %1286.1;
    (%1287,)
  };
  %1288() /* ty=(Tensor[(300), float32],) */
}

def @func_15406() -> (Tensor[(13, 13, 8), bool],) {
  %1290 = fn () -> (Tensor[(13, 13, 8), bool],) {
    %1289 = @func_6720() /* ty=Tensor[(13, 13, 8), bool] */;
    (%1289,)
  };
  %1290() /* ty=(Tensor[(13, 13, 8), bool],) */
}

def @func_13430() -> Tensor[(13, 13, 8), float32] {
  @func_13428() /* ty=Tensor[(13, 13, 8), float32] */
}

def @func_3615() -> (Tensor[(13, 13, 8), float32],) {
  %1291 = @func_2250() /* ty=Tensor[(13, 13, 8), float32] */;
  (%1291,)
}

def @func_3862() -> (Tensor[(13, 13, 8), bool], Tensor[(13, 13, 8), bool]) {
  %1292 = @func_2788() /* ty=(Tensor[(13, 13, 8), bool],) */;
  %1293 = @func_2788() /* ty=(Tensor[(13, 13, 8), bool],) */;
  %1294 = %1292.0;
  %1295 = %1293.0;
  (%1294, %1295)
}

def @func_7296() -> Tensor[(13, 13, 8), float32] {
  %1296 = fn () -> Tensor[(13, 13, 8), float32] {
    @func_3773() /* ty=Tensor[(13, 13, 8), float32] */
  };
  %1296() /* ty=Tensor[(13, 13, 8), float32] */
}

def @func_6008() -> (Tensor[(13, 13, 8), float32], Tensor[(13, 13, 8), uint8]) {
  %1297 = @func_5515() /* ty=(Tensor[(13, 13, 8), float32], Tensor[(13, 13, 8), float32]) */;
  %1298 = @func_3469() /* ty=(Tensor[(13, 13, 8), uint8],) */;
  %1299 = %1297.1;
  %1300 = %1298.0;
  (%1299, %1300)
}

def @func_14005(%var_13983: Tensor[(1352), int16]) -> (Tensor[(980), float64], Tensor[(104), int16], Tensor[(1352), int16]) {
  %1301 = @func_5278() /* ty=(Tensor[(13, 13, 8), float32], Tensor[(7, 14, 10), float64], Tensor[(980), float64], Tensor[(11, 10, 4), float32], Tensor[(440), float32]) */;
  %1302 = cast(%var_13983, dtype="int16") /* ty=Tensor[(1352), int16] */;
  %1303 = reshape(%1302, newshape=[1352]) /* ty=Tensor[(1352), int16] */;
  %1304 = @func_3011(%1303) /* ty=(Tensor[(104), int16], Tensor[(13, 13, 8), float32], Tensor[(1352), int16]) */;
  %1305 = %1301.2;
  %1306 = %1304.0;
  (%1305, %1306, %var_13983)
}

def @func_6116(%var_6115: Tensor[(704), bool]) -> (Tensor[(11, 4, 16), uint32], Tensor[(10, 9, 4), float64], Tensor[(704), uint64], Tensor[(980), bool]) {
  %1329 = fn (%var_6097: Tensor[(704), bool]) -> (Tensor[(11, 4, 16), uint32], Tensor[(10, 9, 4), float64], Tensor[(704), uint64], Tensor[(980), bool]) {
    %1307 = cast(meta[relay.Constant][77] /* ty=Tensor[(704), bool] */, dtype="bool") /* ty=Tensor[(704), bool] */;
    %1308 = cast(meta[relay.Constant][77] /* ty=Tensor[(704), bool] */, dtype="bool") /* ty=Tensor[(704), bool] */;
    %1309 = reshape(%1307, newshape=[11, 4, 16]) /* ty=Tensor[(11, 4, 16), bool] */;
    %1310 = reshape(%1308, newshape=[11, 4, 16]) /* ty=Tensor[(11, 4, 16), bool] */;
    %1311 = @func_3309() /* ty=(Tensor[(13, 13, 8), float32], Tensor[(10, 9, 4), bool], Tensor[(360), uint8]) */;
    %1312 = %1311.1;
    %1313 = cast(%1312, dtype="float64") /* ty=Tensor[(10, 9, 4), float64] */;
    %1314 = cast(%var_6097, dtype="uint64") /* ty=Tensor[(704), uint64] */;
    %1315 = shape_of(meta[relay.Constant][77] /* ty=Tensor[(704), bool] */, dtype="int32") /* ty=Tensor[(1), int32] */;
    %1316 = cast(meta[relay.Constant][77] /* ty=Tensor[(704), bool] */, dtype="uint64") /* ty=Tensor[(704), uint64] */;
    %1317 = dyn.reshape(%1314, %1315, newshape=[]) /* ty=Tensor[(?), uint64] */;
    %1318 = cast(meta[relay.Constant][78] /* ty=Tensor[(980), float64] */, dtype="float64") /* ty=Tensor[(980), float64] */;
    %1319 = reshape(%1318, newshape=[7, 14, 10]) /* ty=Tensor[(7, 14, 10), float64] */;
    %1320 = @func_3911(%1319) /* ty=Tensor[(7, 14, 10), float64] */;
    %1321 = cast(%1320, dtype="bool") /* ty=Tensor[(7, 14, 10), bool] */;
    %1322 = shape_of(meta[relay.Constant][78] /* ty=Tensor[(980), float64] */, dtype="int32") /* ty=Tensor[(1), int32] */;
    %1323 = cast(meta[relay.Constant][78] /* ty=Tensor[(980), float64] */, dtype="bool") /* ty=Tensor[(980), bool] */;
    %1324 = dyn.reshape(%1321, %1322, newshape=[]) /* ty=Tensor[(?), bool] */;
    %1325 = @func_3242(%1309, %1310) /* ty=Tensor[(11, 4, 16), uint32] */;
    %1326 = acos(%1313) /* ty=Tensor[(10, 9, 4), float64] */;
    %1327 = bitwise_or(%1316, %1317) /* ty=Tensor[(704), uint64] */;
    %1328 = less_equal(%1323, %1324) /* ty=Tensor[(980), bool] */;
    (%1325, %1326, %1327, %1328)
  };
  %1329(%var_6115) /* ty=(Tensor[(11, 4, 16), uint32], Tensor[(10, 9, 4), float64], Tensor[(704), uint64], Tensor[(980), bool]) */
}

def @func_6236() -> Tensor[(13, 13, 8), float32] {
  @func_6234() /* ty=Tensor[(13, 13, 8), float32] */
}

def @func_7874() -> Tensor[(300), float32] {
  @func_7872() /* ty=Tensor[(300), float32] */
}

def @func_3979() -> Tensor[(13, 13, 8), float32] {
  %1331 = fn () -> Tensor[(13, 13, 8), float32] {
    %1330 = @func_3547() /* ty=(Tensor[(13, 13, 8), float32], Tensor[(13, 13, 8), bool], Tensor[(104), int16], Tensor[(13, 13, 8), float32]) */;
    %1330.0
  };
  %1331() /* ty=Tensor[(13, 13, 8), float32] */
}

def @func_4283(%var_4281: Tensor[(54), float64]) -> (Tensor[(13, 13, 8), float32], Tensor[(13, 13, 8), float64], Tensor[(360), uint8], Tensor[(54), float64]) {
  @func_4280(%var_4281) /* ty=(Tensor[(13, 13, 8), float32], Tensor[(13, 13, 8), float64], Tensor[(360), uint8], Tensor[(54), float64]) */
}

def @func_12992() -> (Tensor[(13, 13, 8), float32], Tensor[(13, 13, 8), uint8]) {
  %1332 = @func_3745() /* ty=(Tensor[(13, 13, 8), float32], Tensor[(13, 13, 8), float32]) */;
  %1333 = @func_5608() /* ty=(Tensor[(13, 13, 8), float32], Tensor[(13, 13, 8), uint8], Tensor[(54), float64]) */;
  %1334 = %1332.1;
  %1335 = %1333.1;
  (%1334, %1335)
}

def @func_1743(%var_1719: Tensor[(54), float64], %var_1726: Tensor[(1440), uint16], %var_1728: Tensor[(360), uint8], %var_1739: Tensor[(385, 3), int8]) -> (Tensor[(104), int16], Tensor[(1, 9, 6), float64], Tensor[(54), float64], Tensor[(300), float32], Tensor[(1440), uint16], Tensor[(10, 30), float32], Tensor[(360), uint8], Tensor[(10, 9, 4), bool], Tensor[(11, 10, 4), float32], Tensor[(385, 3), int8]) {
  %1336 = @func_1602() /* ty=(Tensor[(7, 9, 15), float64], Tensor[(13, 13, 8), float32], Tensor[(104), int16], Tensor[(1352), int16]) */;
  %1337 = cast(%var_1719, dtype="float64") /* ty=Tensor[(54), float64] */;
  %1338 = reshape(%1337, newshape=[1, 9, 6]) /* ty=Tensor[(1, 9, 6), float64] */;
  %1339 = @func_1566(%1338) /* ty=(Tensor[(1, 9, 6), float64],) */;
  %1340 = cast(%var_1726, dtype="uint16") /* ty=Tensor[(1440), uint16] */;
  %1341 = cast(meta[relay.Constant][79] /* ty=Tensor[(10, 30), float32] */, dtype="float32") /* ty=Tensor[(10, 30), float32] */;
  %1342 = cast(%var_1728, dtype="uint8") /* ty=Tensor[(360), uint8] */;
  %1343 = reshape(%1340, newshape=[9, 10, 16]) /* ty=Tensor[(9, 10, 16), uint16] */;
  %1344 = reshape(%1341, newshape=[300]) /* ty=Tensor[(300), float32] */;
  %1345 = reshape(%1342, newshape=[360, 1]) /* ty=Tensor[(360, 1), uint8] */;
  %1346 = @func_709(%1343, %1344, %1345) /* ty=(Tensor[(9, 10, 16), uint16], Tensor[(11, 10, 4), float32], Tensor[(1155), int8], Tensor[(9, 10, 16), float64], Tensor[(11, 15, 7), uint64], Tensor[(11, 10, 4), float32], Tensor[(4, 5, 15), float32], Tensor[(300), float32], Tensor[(10, 9, 4), bool], Tensor[(360, 1), uint8], Tensor[(11, 10, 4), float32]) */;
  %1347 = cast(%var_1726, dtype="uint16") /* ty=Tensor[(1440), uint16] */;
  %1348 = cast(meta[relay.Constant][79] /* ty=Tensor[(10, 30), float32] */, dtype="float32") /* ty=Tensor[(10, 30), float32] */;
  %1349 = cast(%var_1728, dtype="uint8") /* ty=Tensor[(360), uint8] */;
  %1350 = reshape(%1347, newshape=[9, 10, 16]) /* ty=Tensor[(9, 10, 16), uint16] */;
  %1351 = reshape(%1348, newshape=[300]) /* ty=Tensor[(300), float32] */;
  %1352 = reshape(%1349, newshape=[360, 1]) /* ty=Tensor[(360, 1), uint8] */;
  %1353 = @func_709(%1350, %1351, %1352) /* ty=(Tensor[(9, 10, 16), uint16], Tensor[(11, 10, 4), float32], Tensor[(1155), int8], Tensor[(9, 10, 16), float64], Tensor[(11, 15, 7), uint64], Tensor[(11, 10, 4), float32], Tensor[(4, 5, 15), float32], Tensor[(300), float32], Tensor[(10, 9, 4), bool], Tensor[(360, 1), uint8], Tensor[(11, 10, 4), float32]) */;
  %1354 = cast(%var_1739, dtype="int8") /* ty=Tensor[(385, 3), int8] */;
  %1355 = cast(%var_1739, dtype="int8") /* ty=Tensor[(385, 3), int8] */;
  %1356 = reshape(%1354, newshape=[11, 15, 7]) /* ty=Tensor[(11, 15, 7), int8] */;
  %1357 = reshape(%1355, newshape=[11, 15, 7]) /* ty=Tensor[(11, 15, 7), int8] */;
  %1358 = @func_257(%1356, %1357) /* ty=(Tensor[(11, 15, 7), uint16], Tensor[(11, 15, 7), uint64], Tensor[(11, 10, 4), float32], Tensor[(5, 88), float32], Tensor[(11, 10, 4), float32], Tensor[(11, 15, 7), float64]) */;
  %1359 = %1336.2;
  %1360 = %1339.0;
  %1361 = %1346.7;
  %1362 = %1353.8;
  %1363 = %1358.2;
  (%1359, %1360, %var_1719, %1361, %var_1726, meta[relay.Constant][79] /* ty=Tensor[(10, 30), float32] */, %var_1728, %1362, %1363, %var_1739)
}

def @func_14159(%var_14157: int32, %var_14158: Tensor[(144), int32]) -> (Tensor[(13, 13, 8), float32], Tensor[(13, 13, 8), bool], int32, Tensor[(144), int32]) {
  @func_14155(%var_14157, %var_14158) /* ty=(Tensor[(13, 13, 8), float32], Tensor[(13, 13, 8), bool], int32, Tensor[(144), int32]) */
}

def @func_6195() -> (Tensor[(14, 7, 1), float64],) {
  @func_6193() /* ty=(Tensor[(14, 7, 1), float64],) */
}

def @func_12368() -> Tensor[(6, 7, 3), float64] {
  @func_12366() /* ty=Tensor[(6, 7, 3), float64] */
}

def @func_13525() -> (Tensor[(135), float64],) {
  %1366 = fn () -> (Tensor[(135), float64],) {
    %1364 = @func_10144() /* ty=(Tensor[(135), float64],) */;
    %1365 = %1364.0;
    (%1365,)
  };
  %1366() /* ty=(Tensor[(135), float64],) */
}

def @func_13948() -> (Tensor[(104), int16], Tensor[(13, 13, 8), uint8]) {
  @func_13946() /* ty=(Tensor[(104), int16], Tensor[(13, 13, 8), uint8]) */
}

def @func_5752() -> Tensor[(13, 13, 8), float32] {
  @func_5750() /* ty=Tensor[(13, 13, 8), float32] */
}

def @func_4129(%var_4128: Tensor[(7, 13, 14), float32]) -> (Tensor[(7, 13, 14), int16],) {
  %1374 = fn (%var_4110: Tensor[(7, 13, 14), float32]) -> (Tensor[(7, 13, 14), int16],) {
    %1367 = cast(%var_4110, dtype="float32") /* ty=Tensor[(7, 13, 14), float32] */;
    %1368 = sin(%1367) /* ty=Tensor[(7, 13, 14), float32] */;
    %1369 = cast(%var_4110, dtype="int16") /* ty=Tensor[(7, 13, 14), int16] */;
    %1370 = shape_of(%1368, dtype="int32") /* ty=Tensor[(3), int32] */;
    %1371 = cast(%1368, dtype="int16") /* ty=Tensor[(7, 13, 14), int16] */;
    %1372 = dyn.reshape(%1369, %1370, newshape=[]) /* ty=Tensor[(?, ?, ?), int16] */;
    %1373 = multiply(%1371, %1372) /* ty=Tensor[(7, 13, 14), int16] */;
    (%1373,)
  };
  %1374(%var_4128) /* ty=(Tensor[(7, 13, 14), int16],) */
}

def @func_9554() -> (Tensor[(300), float32], Tensor[(104), int16], Tensor[(1352), int16], Tensor[(440), float32], Tensor[(440), float32]) {
  @func_9552() /* ty=(Tensor[(300), float32], Tensor[(104), int16], Tensor[(1352), int16], Tensor[(440), float32], Tensor[(440), float32]) */
}

def @func_15833() -> (Tensor[(13, 13, 8), bool], Tensor[(12, 4, 9), float64], Tensor[(432), float64], Tensor[(440), float32], Tensor[(104), int8], Tensor[(13, 13, 8), float64], Tensor[(13, 11, 2), float64], Tensor[(286), float32], Tensor[(13, 13, 8), float32], Tensor[(7, 9, 15), float64], Tensor[(13, 13, 8), float32], int32, Tensor[(144), int32], Tensor[(286), float64]) {
  %1375 = @func_15233() /* ty=(Tensor[(13, 13, 8), bool], Tensor[(13, 13, 8), bool], Tensor[(13, 13, 8), uint8]) */;
  %1376 = cast(meta[relay.Constant][80] /* ty=Tensor[(432), float64] */, dtype="float64") /* ty=Tensor[(432), float64] */;
  %1377 = cast(meta[relay.Constant][81] /* ty=Tensor[(440), float32] */, dtype="float32") /* ty=Tensor[(440), float32] */;
  %1378 = reshape(%1376, newshape=[12, 4, 9]) /* ty=Tensor[(12, 4, 9), float64] */;
  %1379 = reshape(%1377, newshape=[220, 2]) /* ty=Tensor[(220, 2), float32] */;
  %1380 = @func_2282(%1378, %1379) /* ty=(Tensor[(12, 4, 9), float64], Tensor[(11, 10, 4), float32], Tensor[(220, 2), float32]) */;
  %1381 = @func_4642() /* ty=(Tensor[(104), int16],) */;
  %1382 = %1381.0;
  %1383 = cast(meta[relay.Constant][82] /* ty=Tensor[(104), int16] */, dtype="int8") /* ty=Tensor[(104), int8] */;
  %1384 = shape_of(%1382, dtype="int32") /* ty=Tensor[(1), int32] */;
  %1385 = cast(%1382, dtype="int8") /* ty=Tensor[(104), int8] */;
  %1386 = dyn.reshape(%1383, %1384, newshape=[]) /* ty=Tensor[(?), int8] */;
  %1387 = cast(meta[relay.Constant][83] /* ty=Tensor[(286), float32] */, dtype="float32") /* ty=Tensor[(286), float32] */;
  %1388 = reshape(%1387, newshape=[13, 11, 2]) /* ty=Tensor[(13, 11, 2), float32] */;
  %1389 = @func_2201(%1388) /* ty=(Tensor[(13, 11, 2), float64], Tensor[(104), int16]) */;
  %1390 = @func_13476() /* ty=(Tensor[(13, 13, 8), float32], Tensor[(13, 13, 8), float32]) */;
  %1391 = @func_5396() /* ty=(Tensor[(7, 9, 15), float64],) */;
  %1392 = cast(8 /* ty=int32 */, dtype="int32") /* ty=int32 */;
  %1393 = cast(meta[relay.Constant][84] /* ty=Tensor[(144), int32] */, dtype="int32") /* ty=Tensor[(144), int32] */;
  %1394 = reshape(%1392, newshape=[]) /* ty=int32 */;
  %1395 = reshape(%1393, newshape=[144]) /* ty=Tensor[(144), int32] */;
  %1396 = @func_14155(%1394, %1395) /* ty=(Tensor[(13, 13, 8), float32], Tensor[(13, 13, 8), bool], int32, Tensor[(144), int32]) */;
  %1397 = %1389.0;
  %1398 = cast(%1397, dtype="float32") /* ty=Tensor[(13, 11, 2), float32] */;
  %1399 = reshape(%1398, newshape=[286]) /* ty=Tensor[(286), float32] */;
  %1400 = @func_3388(%1399) /* ty=(Tensor[(13, 13, 8), float32], Tensor[(13, 11, 2), float64], Tensor[(286), float64]) */;
  %1401 = %1400.2;
  %1402 = cast(%1401, dtype="float64") /* ty=Tensor[(286), float64] */;
  %1403 = %1375.1;
  %1404 = %1380.0;
  %1405 = logical_xor(%1385, %1386) /* ty=Tensor[(104), int8] */;
  %1406 = @func_5903() /* ty=Tensor[(13, 13, 8), float64] */;
  %1407 = %1390.1;
  %1408 = %1391.0;
  %1409 = %1396.0;
  %1410 = log(%1402) /* ty=Tensor[(286), float64] */;
  (%1403, %1404, meta[relay.Constant][80] /* ty=Tensor[(432), float64] */, meta[relay.Constant][81] /* ty=Tensor[(440), float32] */, %1405, %1406, %1397, meta[relay.Constant][83] /* ty=Tensor[(286), float32] */, %1407, %1408, %1409, 8 /* ty=int32 */, meta[relay.Constant][84] /* ty=Tensor[(144), int32] */, %1410)
}

def @func_5245() -> (Tensor[(13, 13, 8), float32], Tensor[(13, 13, 8), float32], Tensor[(13, 13, 8), float32]) {
  %1416 = fn () -> (Tensor[(13, 13, 8), float32], Tensor[(13, 13, 8), float32], Tensor[(13, 13, 8), float32]) {
    %1411 = @func_2762() /* ty=(Tensor[(300), float32], Tensor[(300), float32], Tensor[(13, 13, 8), float32]) */;
    %1412 = @func_5030() /* ty=(Tensor[(13, 13, 8), float32], Tensor[(13, 13, 8), float32]) */;
    %1413 = %1411.2;
    %1414 = %1412.1;
    %1415 = @func_4460() /* ty=Tensor[(13, 13, 8), float32] */;
    (%1413, %1414, %1415)
  };
  %1416() /* ty=(Tensor[(13, 13, 8), float32], Tensor[(13, 13, 8), float32], Tensor[(13, 13, 8), float32]) */
}

def @func_8927() -> Tensor[(13, 13, 8), float32] {
  @func_8925() /* ty=Tensor[(13, 13, 8), float32] */
}

def @func_7803() -> (Tensor[(13, 13, 8), float32],) {
  %1417 = @func_3745() /* ty=(Tensor[(13, 13, 8), float32], Tensor[(13, 13, 8), float32]) */;
  %1418 = %1417.1;
  %1419 = cast(%1418, dtype="float32") /* ty=Tensor[(13, 13, 8), float32] */;
  %1420 = sqrt(%1419) /* ty=Tensor[(13, 13, 8), float32] */;
  (%1420,)
}

def @func_12366() -> Tensor[(6, 7, 3), float64] {
  %1421 = cast(meta[relay.Constant][85] /* ty=Tensor[(6, 7, 3), float64] */, dtype="float64") /* ty=Tensor[(6, 7, 3), float64] */;
  tan(%1421) /* ty=Tensor[(6, 7, 3), float64] */
}

def @func_7872() -> Tensor[(300), float32] {
  %1422 = @func_2220() /* ty=(Tensor[(13, 13, 8), float32], Tensor[(4, 5, 15), float32], Tensor[(300), float32]) */;
  %1422.2
}

def @func_10643() -> (Tensor[(7, 165), int8],) {
  %1425 = fn () -> (Tensor[(7, 165), int8],) {
    %1423 = @func_5188() /* ty=(Tensor[(13, 13, 8), float32], Tensor[(4, 5, 15), float32], Tensor[(300), float32], Tensor[(13, 13, 8), float32], Tensor[(13, 13, 8), float32], Tensor[(11, 10, 4), float32], Tensor[(7, 165), int8]) */;
    %1424 = %1423.6;
    (%1424,)
  };
  %1425() /* ty=(Tensor[(7, 165), int8],) */
}

def @func_318(%var_317: Tensor[(4, 5, 15), float32]) -> Tensor[(4, 5, 15), float32] {
  %1430 = fn (%var_311: Tensor[(4, 5, 15), float32]) -> Tensor[(4, 5, 15), float32] {
    %1426 = cast(meta[relay.Constant][86] /* ty=Tensor[(4, 5, 15), float32] */, dtype="float32") /* ty=Tensor[(4, 5, 15), float32] */;
    %1427 = shape_of(%var_311, dtype="int32") /* ty=Tensor[(3), int32] */;
    %1428 = cast(%var_311, dtype="float32") /* ty=Tensor[(4, 5, 15), float32] */;
    %1429 = dyn.reshape(%1426, %1427, newshape=[]) /* ty=Tensor[(?, ?, ?), float32] */;
    floor_divide(%1428, %1429) /* ty=Tensor[(4, 5, 15), float32] */
  };
  %1430(%var_317) /* ty=Tensor[(4, 5, 15), float32] */
}

def @func_13829() -> (Tensor[(13, 13, 8), float32], Tensor[(13, 13, 8), uint8], Tensor[(13, 13, 8), float32]) {
  %1431 = @func_10382() /* ty=(Tensor[(13, 13, 8), float32],) */;
  %1432 = @func_13409() /* ty=(Tensor[(13, 13, 8), uint8],) */;
  %1433 = @func_13476() /* ty=(Tensor[(13, 13, 8), float32], Tensor[(13, 13, 8), float32]) */;
  %1434 = %1431.0;
  %1435 = %1432.0;
  %1436 = %1433.1;
  (%1434, %1435, %1436)
}

def @func_15056() -> (Tensor[(14, 7, ?), int64], Tensor[(13, 13, 8), bool]) {
  @func_15054() /* ty=(Tensor[(14, 7, ?), int64], Tensor[(13, 13, 8), bool]) */
}

def @func_10145() -> (Tensor[(135), float64],) {
  %1439 = fn () -> (Tensor[(135), float64],) {
    %1437 = @func_7436() /* ty=(Tensor[(13, 13, 8), float32], Tensor[(13, 13, 8), float32], Tensor[(9, 3, 5), float64], Tensor[(135), float64]) */;
    %1438 = %1437.3;
    (%1438,)
  };
  %1439() /* ty=(Tensor[(135), float64],) */
}

def @func_15597(%var_15587: Tensor[(13, 5, 4), float32]) -> (Tensor[(13, 5, 4), float32],) {
  %1440 = cast(%var_15587, dtype="float32") /* ty=Tensor[(13, 5, 4), float32] */;
  %1441 = log10(%1440) /* ty=Tensor[(13, 5, 4), float32] */;
  (%1441,)
}

def @func_10384() -> (Tensor[(13, 13, 8), float32],) {
  @func_10382() /* ty=(Tensor[(13, 13, 8), float32],) */
}

def @func_13848() -> Tensor[(13, 13, 8), float32] {
  @func_13846() /* ty=Tensor[(13, 13, 8), float32] */
}

def @func_6844() -> (Tensor[(13, 13, 8), float64], Tensor[(13, 13, 8), float32], Tensor[(13, 13, 8), float32]) {
  %1447 = fn () -> (Tensor[(13, 13, 8), float64], Tensor[(13, 13, 8), float32], Tensor[(13, 13, 8), float32]) {
    %1442 = @func_5515() /* ty=(Tensor[(13, 13, 8), float32], Tensor[(13, 13, 8), float32]) */;
    %1443 = @func_2378() /* ty=(Tensor[(13, 13, 8), float32],) */;
    %1444 = @func_5903() /* ty=Tensor[(13, 13, 8), float64] */;
    %1445 = %1442.1;
    %1446 = %1443.0;
    (%1444, %1445, %1446)
  };
  %1447() /* ty=(Tensor[(13, 13, 8), float64], Tensor[(13, 13, 8), float32], Tensor[(13, 13, 8), float32]) */
}

def @func_6949() -> (Tensor[(13, 13, 8), float64],) {
  %1448 = @func_3890() /* ty=(Tensor[(13, 13, 8), float32],) */;
  %1449 = %1448.0;
  %1450 = cast(meta[relay.Constant][87] /* ty=Tensor[(13, 13, 8), float32] */, dtype="float64") /* ty=Tensor[(13, 13, 8), float64] */;
  %1451 = shape_of(%1449, dtype="int32") /* ty=Tensor[(3), int32] */;
  %1452 = cast(%1449, dtype="float64") /* ty=Tensor[(13, 13, 8), float64] */;
  %1453 = dyn.reshape(%1450, %1451, newshape=[]) /* ty=Tensor[(?, ?, ?), float64] */;
  %1454 = mod(%1452, %1453) /* ty=Tensor[(13, 13, 8), float64] */;
  (%1454,)
}

def @func_12709() -> (Tensor[(54), bool],) {
  %1455 = @func_8681() /* ty=Tensor[(54), float64] */;
  %1456 = cast(meta[relay.Constant][88] /* ty=Tensor[(54), float64] */, dtype="bool") /* ty=Tensor[(54), bool] */;
  %1457 = shape_of(%1455, dtype="int32") /* ty=Tensor[(1), int32] */;
  %1458 = cast(%1455, dtype="bool") /* ty=Tensor[(54), bool] */;
  %1459 = dyn.reshape(%1456, %1457, newshape=[]) /* ty=Tensor[(?), bool] */;
  %1460 = less_equal(%1458, %1459) /* ty=Tensor[(54), bool] */;
  (%1460,)
}

def @func_5515() -> (Tensor[(13, 13, 8), float32], Tensor[(13, 13, 8), float32]) {
  %1461 = @func_4182() /* ty=(Tensor[(13, 13, 8), float32], Tensor[(13, 13, 8), float32]) */;
  %1462 = @func_5462() /* ty=Tensor[(13, 13, 8), float32] */;
  %1463 = %1461.1;
  (%1462, %1463)
}

def @func_6720() -> Tensor[(13, 13, 8), bool] {
  %1464 = @func_6687() /* ty=(Tensor[(13, 13, 8), bool],) */;
  %1464.0
}

def @func_11072() -> Tensor[(13, 13, 8), float32] {
  %1465 = @func_2548() /* ty=(Tensor[(13, 13, 8), float32], Tensor[(13, 13, 8), float32]) */;
  %1465.0
}

def @func_6673(%var_6664: Tensor[(286), float32]) -> (Tensor[(13, 13, 8), uint8], Tensor[(13, 13, 8), float32], Tensor[(286), float32]) {
  %1466 = @func_3469() /* ty=(Tensor[(13, 13, 8), uint8],) */;
  %1467 = cast(%var_6664, dtype="float32") /* ty=Tensor[(286), float32] */;
  %1468 = reshape(%1467, newshape=[26, 11]) /* ty=Tensor[(26, 11), float32] */;
  %1469 = @func_5733(%1468) /* ty=(Tensor[(13, 13, 8), float32], Tensor[(13, 13, 8), float32], Tensor[(13, 11, 2), float64], Tensor[(26, 11), float32]) */;
  %1470 = %1466.0;
  %1471 = %1469.1;
  (%1470, %1471, %var_6664)
}

def @func_3864() -> (Tensor[(13, 13, 8), bool], Tensor[(13, 13, 8), bool]) {
  @func_3862() /* ty=(Tensor[(13, 13, 8), bool], Tensor[(13, 13, 8), bool]) */
}

def @func_13718() -> (Tensor[(13, 13, 8), bool], Tensor[(13, 13, 8), float32], Tensor[(13, 13, 8), float32]) {
  %1472 = @func_3862() /* ty=(Tensor[(13, 13, 8), bool], Tensor[(13, 13, 8), bool]) */;
  %1473 = @func_8871() /* ty=(Tensor[(13, 13, 8), float32],) */;
  %1474 = @func_10382() /* ty=(Tensor[(13, 13, 8), float32],) */;
  %1475 = %1472.1;
  %1476 = %1473.0;
  %1477 = %1474.0;
  (%1475, %1476, %1477)
}

def @func_2430() -> Tensor[(13, 13, 8), float32] {
  %1478 = fn () -> Tensor[(13, 13, 8), float32] {
    @func_2250() /* ty=Tensor[(13, 13, 8), float32] */
  };
  %1478() /* ty=Tensor[(13, 13, 8), float32] */
}

/* For debugging purposes the metadata section has been omitted.
 * If you would like to see the full metadata section you can set the 
 * option to `True` when invoking `astext`. 
 *//home/yujunzhe/Hirgen_generated/tvm0.8_test/HirGen541/build/output.py:4883: DeprecationWarning: legacy graph executor behavior of producing json / lib / params will be removed in the next release. Please see documents of tvm.contrib.graph_executor.GraphModule for the  new recommended usage.
  graph, lib, params = relay.build(mod, target='llvm')
/home/yujunzhe/tvm/python/tvm/contrib/graph_runtime.py:25: UserWarning: This function has been moved to tvm.contrib.graph_executor and will be removed in the next TVM release
  warnings.warn(

===================================
Traceback (most recent call last):
  File "/home/yujunzhe/Hirgen_generated/tvm0.8_test/HirGen541/build/output.py", line 4888, in <module>
    graph, lib, params = relay.build(mod, target='cuda')
  File "/home/yujunzhe/tvm/python/tvm/relay/build_module.py", line 369, in build
    executor_config, runtime_mod, params = bld_mod.build(
  File "/home/yujunzhe/tvm/python/tvm/relay/build_module.py", line 177, in build
    self._build(mod, target, target_host, executor, mod_name)
  File "/home/yujunzhe/tvm/python/tvm/_ffi/_ctypes/packed_func.py", line 237, in __call__
    raise get_last_ffi_error()
tvm._ffi.base.TVMError: Traceback (most recent call last):
  7: TVMFuncCall
  6: std::_Function_handler<void (tvm::runtime::TVMArgs, tvm::runtime::TVMRetValue*), tvm::relay::backend::RelayBuildModule::GetFunction(std::__cxx11::basic_string<char, std::char_traits<char>, std::allocator<char> > const&, tvm::runtime::ObjectPtr<tvm::runtime::Object> const&)::{lambda(tvm::runtime::TVMArgs, tvm::runtime::TVMRetValue*)#3}>::_M_invoke(std::_Any_data const&, tvm::runtime::TVMArgs&&, tvm::runtime::TVMRetValue*&&)
  5: tvm::relay::backend::RelayBuildModule::BuildRelay(tvm::IRModule, std::unordered_map<std::__cxx11::basic_string<char, std::char_traits<char>, std::allocator<char> >, tvm::runtime::NDArray, std::hash<std::__cxx11::basic_string<char, std::char_traits<char>, std::allocator<char> > >, std::equal_to<std::__cxx11::basic_string<char, std::char_traits<char>, std::allocator<char> > >, std::allocator<std::pair<std::__cxx11::basic_string<char, std::char_traits<char>, std::allocator<char> > const, tvm::runtime::NDArray> > > const&, tvm::runtime::String)
  4: tvm::build(tvm::runtime::Map<tvm::Target, tvm::IRModule, void, void> const&, tvm::Target const&)
  3: tvm::codegen::Build(tvm::IRModule, tvm::Target)
  2: tvm::runtime::TypedPackedFunc<tvm::runtime::Module (tvm::IRModule, tvm::Target)>::AssignTypedLambda<tvm::runtime::Module (*)(tvm::IRModule, tvm::Target)>(tvm::runtime::Module (*)(tvm::IRModule, tvm::Target), std::__cxx11::basic_string<char, std::char_traits<char>, std::allocator<char> >)::{lambda(tvm::runtime::TVMArgs const&, tvm::runtime::TVMRetValue*)#1}::operator()(tvm::runtime::TVMArgs const&, tvm::runtime::TVMRetValue*) const
  1: tvm::codegen::BuildCUDA(tvm::IRModule, tvm::Target)
  0: std::_Function_handler<void (tvm::runtime::TVMArgs, tvm::runtime::TVMRetValue*), TVMFuncCreateFromCFunc::{lambda(tvm::runtime::TVMArgs, tvm::runtime::TVMRetValue*)#2}>::_M_invoke(std::_Any_data const&, tvm::runtime::TVMArgs&&, tvm::runtime::TVMRetValue*&&) [clone .cold]
  File "/home/yujunzhe/tvm/python/tvm/_ffi/_ctypes/packed_func.py", line 81, in cfun
    rv = local_pyfunc(*pyargs)
  File "/home/yujunzhe/tvm/python/tvm/autotvm/measure/measure_methods.py", line 789, in tvm_callback_cuda_compile
    ptx = nvcc.compile_cuda(code, target=target, arch=AutotvmGlobalScope.current.cuda_target_arch)
  File "/home/yujunzhe/tvm/python/tvm/contrib/nvcc.py", line 108, in compile_cuda
    raise RuntimeError(msg)
RuntimeError: 
#ifdef _WIN32
  using uint = unsigned int;
  using uchar = unsigned char;
  using ushort = unsigned short;
  using int64_t = long long;
  using uint64_t = unsigned long long;
#else
  #define uint unsigned int
  #define uchar unsigned char
  #define ushort unsigned short
  #define int64_t long long
  #define uint64_t unsigned long long
#endif
extern "C" __global__ void __launch_bounds__(1024) tvmgen_default_fused_cast_cast_reshape_greater_kernel0(signed char* __restrict__ T_greater, uint* __restrict__ placeholder, uint* __restrict__ placeholder1) {
  if (((((int)blockIdx.x) * 1024) + ((int)threadIdx.x)) < 1320) {
    T_greater[(((((int)blockIdx.x) * 1024) + ((int)threadIdx.x)))] = ((signed char)(((bool)placeholder[(((((int)blockIdx.x) * 1024) + ((int)threadIdx.x)))]) < ((bool)placeholder1[(((((int)blockIdx.x) * 1024) + ((int)threadIdx.x)))])));
  }
}


Compilation error:
In file included from /usr/local/cuda/bin/../targets/x86_64-linux/include/cuda_runtime.h:82,
                 from <command-line>:
/usr/local/cuda/bin/../targets/x86_64-linux/include/crt/host_config.h:143:2: error: #error -- unsupported GNU version! gcc versions later than 12 are not supported! The nvcc flag '-allow-unsupported-compiler' can be used to override this version check; however, using an unsupported host compiler may cause compilation failure or incorrect run time execution. Use at your own risk.
  143 | #error -- unsupported GNU version! gcc versions later than 12 are not supported! The nvcc flag '-allow-unsupported-compiler' can be used to override this version check; however, using an unsupported host compiler may cause compilation failure or incorrect run time execution. Use at your own risk.
      |  ^~~~~

