==========mod==========
#[version = "0.0.5"]
def @func_3541() -> (Tensor[(5, 14, 3), float32], Tensor[(5, 14, 3), float32], Tensor[(5, 14, 3), float32]) {
  %0 = @func_855() /* ty=(Tensor[(5, 14, 3), float32], Tensor[(5, 14, 3), float32]) */;
  %1 = @func_1870() /* ty=(Tensor[(5, 14, 3), float32],) */;
  %2 = @func_2276() /* ty=Tensor[(5, 14, 3), bool] */;
  %3 = cast(%2, dtype="float32") /* ty=Tensor[(5, 14, 3), float32] */;
  %4 = %0.1;
  %5 = %1.0;
  %6 = atan(%3) /* ty=Tensor[(5, 14, 3), float32] */;
  (%4, %5, %6)
}

def @func_13574() -> (Tensor[(5, 14, 3), float32],) {
  %7 = @func_2603() /* ty=(Tensor[(5, 14, 3), float32],) */;
  %8 = %7.0;
  (%8,)
}

def @func_31261(%var_31185: Tensor[(2, 5, 9), int32]) -> (Tensor[(5, 14, 3), float32], Tensor[(2, 5, 9), bool], Tensor[(5, 14, 3), int8], Tensor[(5, 14, 3), float32]) {
  %9 = @func_23596() /* ty=(Tensor[(5, 14, 3), float32],) */;
  %10 = cast(%var_31185, dtype="int32") /* ty=Tensor[(2, 5, 9), int32] */;
  %11 = shape_of(meta[relay.Constant][0] /* ty=Tensor[(2, 5, 9), int32] */, dtype="int32") /* ty=Tensor[(3), int32] */;
  %12 = cast(meta[relay.Constant][0] /* ty=Tensor[(2, 5, 9), int32] */, dtype="int32") /* ty=Tensor[(2, 5, 9), int32] */;
  %13 = dyn.reshape(%10, %11, newshape=[]) /* ty=Tensor[(?, ?, ?), int32] */;
  %14 = left_shift(%12, %13) /* ty=Tensor[(2, 5, 9), int32] */;
  %15 = cast(meta[relay.Constant][0] /* ty=Tensor[(2, 5, 9), int32] */, dtype="bool") /* ty=Tensor[(2, 5, 9), bool] */;
  %16 = shape_of(%14, dtype="int32") /* ty=Tensor[(3), int32] */;
  %17 = cast(%14, dtype="bool") /* ty=Tensor[(2, 5, 9), bool] */;
  %18 = dyn.reshape(%15, %16, newshape=[]) /* ty=Tensor[(?, ?, ?), bool] */;
  %19 = @func_1870() /* ty=(Tensor[(5, 14, 3), float32],) */;
  %20 = %9.0;
  %21 = less(%17, %18) /* ty=Tensor[(2, 5, 9), bool] */;
  %22 = @func_22940() /* ty=Tensor[(5, 14, 3), int8] */;
  %23 = %19.0;
  (%20, %21, %22, %23)
}

def @func_3032() -> Tensor[(5, 14, 3), float32] {
  %24 = @func_1995() /* ty=(Tensor[(5, 14, 3), float32],) */;
  %24.0
}

def @func_4999() -> Tensor[(5, 14, 3), float32] {
  %25 = @func_1870() /* ty=(Tensor[(5, 14, 3), float32],) */;
  %25.0
}

def @func_24888() -> (Tensor[(15, 16, 4), uint32],) {
  %26 = @func_14056() /* ty=(Tensor[(15, 16, 4), uint32], Tensor[(15, 11, 11), float64]) */;
  %27 = %26.0;
  (%27,)
}

def @func_6431() -> Tensor[(5, 14, 3), float32] {
  %28 = @func_5304() /* ty=(Tensor[(5, 14, 3), float32], Tensor[(5, 14, 3), float32]) */;
  %28.0
}

def @func_3961(%var_3953: Tensor[(5, 14, 3), float32]) -> (Tensor[(5, 14, 3), bool],) {
  %29 = @func_2364() /* ty=Tensor[(5, 14, 3), float32] */;
  %30 = cast(%var_3953, dtype="bool") /* ty=Tensor[(5, 14, 3), bool] */;
  %31 = shape_of(%29, dtype="int32") /* ty=Tensor[(3), int32] */;
  %32 = cast(%29, dtype="bool") /* ty=Tensor[(5, 14, 3), bool] */;
  %33 = dyn.reshape(%30, %31, newshape=[]) /* ty=Tensor[(?, ?, ?), bool] */;
  %34 = greater(%32, %33) /* ty=Tensor[(5, 14, 3), bool] */;
  (%34,)
}

def @func_7110() -> (Tensor[(5, 14, 3), float32], Tensor[(5, 14, 3), float32]) {
  %35 = @func_5849() /* ty=(Tensor[(5, 14, 3), float32], Tensor[(5, 14, 3), float32]) */;
  %36 = @func_3329() /* ty=(Tensor[(15, 16, 4), float32], Tensor[(5, 14, 3), float32], Tensor[(5, 14, 3), bool]) */;
  %37 = %35.1;
  %38 = %36.1;
  (%37, %38)
}

def @func_14752() -> (Tensor[(5, 14, 3), int8],) {
  %39 = @func_5627() /* ty=(Tensor[(5, 14, 3), float32], Tensor[(5, 14, 3), int8]) */;
  %40 = %39.1;
  (%40,)
}

def @func_19868() -> (Tensor[(5, 14, 3), float32], Tensor[(5, 14, 3), float32]) {
  %41 = @func_8309() /* ty=(Tensor[(5, 14, 3), float32], Tensor[(15, 16, 4), float32]) */;
  %42 = %41.0;
  %43 = @func_4018() /* ty=Tensor[(5, 14, 3), float32] */;
  (%42, %43)
}

def @func_4205() -> (Tensor[(5, 14, 3), float32],) {
  %44 = @func_1912() /* ty=(Tensor[(5, 14, 3), float32],) */;
  %45 = %44.0;
  (%45,)
}

def @func_23387() -> (Tensor[(5, 14, 3), int8],) {
  %46 = @func_4336() /* ty=(Tensor[(5, 14, 3), int8],) */;
  %47 = %46.0;
  (%47,)
}

def @func_29685() -> Tensor[(5, 14, 3), float32] {
  %48 = @func_4164() /* ty=(Tensor[(15, 16, 4), float32], Tensor[(5, 14, 3), float32], Tensor[(5, 14, 3), float64]) */;
  %48.1
}

def @func_5440() -> (Tensor[(5, 14, 3), int8],) {
  %49 = @func_2946() /* ty=(Tensor[(5, 14, 3), float64], Tensor[(5, 14, 3), int8]) */;
  %50 = %49.1;
  (%50,)
}

def @func_3329() -> (Tensor[(15, 16, 4), float32], Tensor[(5, 14, 3), float32], Tensor[(5, 14, 3), bool]) {
  %51 = @func_2603() /* ty=(Tensor[(5, 14, 3), float32],) */;
  %52 = %51.0;
  %53 = cast(%52, dtype="float32") /* ty=Tensor[(5, 14, 3), float32] */;
  %54 = reshape(%53, newshape=[5, 14, 3]) /* ty=Tensor[(5, 14, 3), float32] */;
  %55 = @func_2431() /* ty=Tensor[(15, 16, 4), float32] */;
  %56 = @func_1196(%54) /* ty=Tensor[(5, 14, 3), bool] */;
  (%55, %52, %56)
}

def @func_5047() -> (Tensor[(5, 14, 3), float32],) {
  %57 = @func_1070() /* ty=(Tensor[(5, 14, 3), float32],) */;
  %58 = %57.0;
  (%58,)
}

def @func_7493() -> (Tensor[(5, 14, 3), float32], Tensor[(5, 14, 3), float32]) {
  %59 = @func_887() /* ty=(Tensor[(5, 14, 3), float32], Tensor[(5, 14, 3), int8]) */;
  %60 = @func_7282() /* ty=(Tensor[(5, 14, 3), float32],) */;
  %61 = %59.0;
  %62 = %60.0;
  (%61, %62)
}

def @func_27116() -> (Tensor[(15, 16, 4), float32], Tensor[(5, 14, 3), float32]) {
  %63 = @func_8309() /* ty=(Tensor[(5, 14, 3), float32], Tensor[(15, 16, 4), float32]) */;
  %64 = %63.1;
  %65 = @func_692() /* ty=Tensor[(5, 14, 3), float32] */;
  (%64, %65)
}

def @func_7319() -> (Tensor[(5, 14, 3), float32], Tensor[(5, 14, 3), float32]) {
  %66 = @func_6499() /* ty=(Tensor[(5, 14, 3), float32], Tensor[(5, 14, 3), float32]) */;
  %67 = @func_5703() /* ty=(Tensor[(5, 14, 3), float32], Tensor[(5, 14, 3), float32]) */;
  %68 = %66.0;
  %69 = %67.0;
  (%68, %69)
}

def @func_10293() -> (Tensor[(5, 14, 3), float32], Tensor[(5, 14, 3), int8]) {
  %70 = @func_8339() /* ty=(Tensor[(5, 14, 3), float32], Tensor[(5, 14, 3), float32]) */;
  %71 = @func_5440() /* ty=(Tensor[(5, 14, 3), int8],) */;
  %72 = %70.1;
  %73 = %71.0;
  (%72, %73)
}

def @func_16411() -> (Tensor[(5, 14, 3), int8], Tensor[(5, 14, 3), bool], Tensor[(5, 14, 3), float32], Tensor[(5, 14, 3), float32]) {
  %74 = @func_12879() /* ty=(Tensor[(5, 14, 3), float32], Tensor[(5, 14, 3), int8]) */;
  %75 = @func_2566() /* ty=(Tensor[(5, 14, 3), bool],) */;
  %76 = @func_15360() /* ty=(Tensor[(5, 14, 3), float32],) */;
  %77 = @func_2853() /* ty=(Tensor[(5, 14, 3), float32],) */;
  %78 = %74.1;
  %79 = %75.0;
  %80 = %76.0;
  %81 = %77.0;
  (%78, %79, %80, %81)
}

def @func_21164() -> (Tensor[(5, 14, 3), float32], Tensor[(5, 14, 3), float32], Tensor[(5, 14, 3), float32]) {
  %82 = @func_14331() /* ty=(Tensor[(5, 14, 3), float32],) */;
  %83 = @func_8114() /* ty=(Tensor[(5, 14, 3), float32], Tensor[(5, 14, 3), float32]) */;
  %84 = @func_15360() /* ty=(Tensor[(5, 14, 3), float32],) */;
  %85 = %82.0;
  %86 = %83.1;
  %87 = %84.0;
  (%85, %86, %87)
}

def @func_29569() -> Tensor[(5, 14, 3), float32] {
  @func_3987() /* ty=Tensor[(5, 14, 3), float32] */
}

def @func_30951() -> (Tensor[(5, 14, 3), float32], Tensor[(5, 14, 3), float32], Tensor[(5, 14, 3), float32]) {
  %88 = @func_7998() /* ty=(Tensor[(5, 14, 3), float32],) */;
  %89 = @func_14150() /* ty=(Tensor[(5, 14, 3), float32], Tensor[(5, 14, 3), float32], Tensor[(5, 14, 3), float32]) */;
  %90 = @func_9786() /* ty=(Tensor[(5, 14, 3), float32], Tensor[(5, 14, 3), float32]) */;
  %91 = %88.0;
  %92 = %89.2;
  %93 = %90.0;
  (%91, %92, %93)
}

def @func_9557() -> Tensor[(5, 14, 3), float32] {
  %94 = @func_7110() /* ty=(Tensor[(5, 14, 3), float32], Tensor[(5, 14, 3), float32]) */;
  %94.0
}

def @func_11789(%var_11733: uint16) -> (Tensor[(5, 14, 3), float32], uint16, uint16, Tensor[(5, 14, 3), bool], Tensor[(15, 16, 4), float32]) {
  %95 = @func_8339() /* ty=(Tensor[(5, 14, 3), float32], Tensor[(5, 14, 3), float32]) */;
  %96 = cast(%var_11733, dtype="uint16") /* ty=uint16 */;
  %97 = reshape(%96, newshape=[]) /* ty=uint16 */;
  %98 = @func_7866(%97) /* ty=(Tensor[(5, 14, 3), float32], Tensor[(5, 14, 3), float32], uint16, Tensor[(72), uint16]) */;
  %99 = %95.0;
  %100 = %98.2;
  %101 = @func_5832() /* ty=Tensor[(5, 14, 3), bool] */;
  %102 = @func_2431() /* ty=Tensor[(15, 16, 4), float32] */;
  (%99, %100, %var_11733, %101, %102)
}

def @func_3870(%var_3858: Tensor[(1430), float64]) -> (Tensor[(5, 14, 3), float32], Tensor[(5, 14, 3), float32], Tensor[(5, 14, 3), float32], Tensor[(1430), float64], Tensor[(1430), float64], Tensor[(1430), float64]) {
  %103 = @func_2213() /* ty=(Tensor[(5, 14, 3), float32],) */;
  %104 = @func_3382() /* ty=(Tensor[(5, 14, 3), float32],) */;
  %105 = @func_2014() /* ty=(Tensor[(5, 14, 3), float32],) */;
  %106 = cast(%var_3858, dtype="float64") /* ty=Tensor[(1430), float64] */;
  %107 = reshape(%106, newshape=[1430]) /* ty=Tensor[(1430), float64] */;
  %108 = @func_3148(%107) /* ty=(Tensor[(5, 14, 3), float32], Tensor[(10, 13, 11), float64], Tensor[(1430), float64], Tensor[(5, 14, 3), float32]) */;
  %109 = @func_1365() /* ty=(Tensor[(5, 14, 3), float32], Tensor[(1430), float64], Tensor[(10, 13, 11), float64], Tensor[(5, 14, 3), float32], Tensor[(5, 14, 3), float64], Tensor[(5, 14, 3), float32], Tensor[(5, 14, 3), float32]) */;
  %110 = %103.0;
  %111 = %104.0;
  %112 = %105.0;
  %113 = %108.2;
  %114 = %109.1;
  (%110, %111, %112, %113, %var_3858, %114)
}

def @func_20142() -> Tensor[(5, 14, 3), int8] {
  %115 = @func_5343() /* ty=(Tensor[(5, 14, 3), int8],) */;
  %115.0
}

def @func_18324() -> Tensor[(5, 14, 3), bool] {
  %116 = @func_8892() /* ty=(Tensor[(5, 14, 3), float32], Tensor[(5, 14, 3), bool]) */;
  %116.1
}

def @func_9060() -> Tensor[(5, 14, 3), float32] {
  %117 = @func_9034() /* ty=(Tensor[(5, 14, 3), float32], Tensor[(5, 14, 3), float32]) */;
  %117.1
}

def @func_21187() -> (Tensor[(5, 14, 3), float32], Tensor[(5, 14, 3), float32], Tensor[(5, 14, 3), float32], uint16, Tensor[(72), uint16]) {
  %118 = @func_5047() /* ty=(Tensor[(5, 14, 3), float32],) */;
  %119 = cast(meta[relay.Constant][1] /* ty=uint16 */, dtype="uint16") /* ty=uint16 */;
  %120 = cast(meta[relay.Constant][2] /* ty=Tensor[(72), uint16] */, dtype="uint16") /* ty=Tensor[(72), uint16] */;
  %121 = reshape(%119, newshape=[]) /* ty=uint16 */;
  %122 = reshape(%120, newshape=[6, 1, 12]) /* ty=Tensor[(6, 1, 12), uint16] */;
  %123 = @func_6135(%121, %122) /* ty=(Tensor[(6, 1, 12), uint16], Tensor[(5, 14, 3), float32], Tensor[(5, 14, 3), float32], Tensor[(5, 14, 3), float32]) */;
  %124 = @func_6857() /* ty=Tensor[(5, 14, 3), float32] */;
  %125 = %118.0;
  %126 = %123.3;
  (%124, %125, %126, meta[relay.Constant][1] /* ty=uint16 */, meta[relay.Constant][2] /* ty=Tensor[(72), uint16] */)
}

def @func_7586() -> (Tensor[(5, 14, 3), float32],) {
  %127 = @func_498() /* ty=(Tensor[(5, 14, 3), float32],) */;
  %128 = %127.0;
  (%128,)
}

def @func_18606() -> Tensor[(5, 14, 3), bool] {
  %129 = @func_2566() /* ty=(Tensor[(5, 14, 3), bool],) */;
  %129.0
}

def @func_21835(%var_21799: float32, %var_21800: Tensor[(10, 9, 15), float32]) -> Tensor[(10, 9, 15), float32] {
  %130 = cast(%var_21799, dtype="bool") /* ty=bool */;
  %131 = cast(%var_21800, dtype="bool") /* ty=Tensor[(10, 9, 15), bool] */;
  %132 = less_equal(%130, %131) /* ty=Tensor[(10, 9, 15), bool] */;
  %133 = cast(%132, dtype="float32") /* ty=Tensor[(10, 9, 15), float32] */;
  log10(%133) /* ty=Tensor[(10, 9, 15), float32] */
}

def @func_22525() -> (Tensor[(5, 14, 3), bool], Tensor[(5, 14, 3), float32]) {
  %134 = @func_4559() /* ty=(Tensor[(5, 14, 3), bool], Tensor[(5, 14, 3), bool]) */;
  %135 = @func_16411() /* ty=(Tensor[(5, 14, 3), int8], Tensor[(5, 14, 3), bool], Tensor[(5, 14, 3), float32], Tensor[(5, 14, 3), float32]) */;
  %136 = %134.1;
  %137 = %135.3;
  (%136, %137)
}

def @func_30081() -> Tensor[(5, 14, 3), float32] {
  %138 = @func_7319() /* ty=(Tensor[(5, 14, 3), float32], Tensor[(5, 14, 3), float32]) */;
  %138.0
}

def @func_7771(%var_7758: Tensor[(11, 130), float64], %var_7766: Tensor[(11, 130), float64]) -> (Tensor[(5, 14, 3), float32], Tensor[(5, 14, 3), float32], Tensor[(11, 130), int64], Tensor[(143, 10), uint16], Tensor[(11, 130), bool], Tensor[(11, 130), bool]) {
  %139 = @func_6976() /* ty=(Tensor[(15, 16, 4), float32], Tensor[(5, 14, 3), float32], Tensor[(1430), float64], Tensor[(1430), float64], Tensor[(5, 14, 3), float32], Tensor[(10, 13, 11), float32]) */;
  %140 = cast(meta[relay.Constant][3] /* ty=Tensor[(11, 130), float64] */, dtype="float64") /* ty=Tensor[(11, 130), float64] */;
  %141 = reshape(%140, newshape=[1430]) /* ty=Tensor[(1430), float64] */;
  %142 = @func_6340(%141) /* ty=(Tensor[(5, 14, 3), int8], Tensor[(5, 14, 3), float32], Tensor[(5, 14, 3), int8], Tensor[(5, 14, 3), float32], Tensor[(5, 14, 3), float32], Tensor[(5, 14, 3), float32], Tensor[(5, 14, 3), bool], Tensor[(5, 14, 3), float32], Tensor[(1430), float64]) */;
  %143 = %142.8;
  %144 = cast(%143, dtype="int64") /* ty=Tensor[(1430), int64] */;
  %145 = shape_of(meta[relay.Constant][3] /* ty=Tensor[(11, 130), float64] */, dtype="int32") /* ty=Tensor[(2), int32] */;
  %146 = cast(meta[relay.Constant][3] /* ty=Tensor[(11, 130), float64] */, dtype="int64") /* ty=Tensor[(11, 130), int64] */;
  %147 = dyn.reshape(%144, %145, newshape=[]) /* ty=Tensor[(?, ?), int64] */;
  %148 = bitwise_and(%146, %147) /* ty=Tensor[(11, 130), int64] */;
  %149 = cast(%148, dtype="float64") /* ty=Tensor[(11, 130), float64] */;
  %150 = reshape(%149, newshape=[143, 10]) /* ty=Tensor[(143, 10), float64] */;
  %151 = @func_6676(%150) /* ty=(Tensor[(143, 10), uint16], Tensor[(5, 14, 3), float32], Tensor[(143, 10), float32]) */;
  %152 = cast(%var_7758, dtype="bool") /* ty=Tensor[(11, 130), bool] */;
  %153 = shape_of(meta[relay.Constant][3] /* ty=Tensor[(11, 130), float64] */, dtype="int32") /* ty=Tensor[(2), int32] */;
  %154 = cast(meta[relay.Constant][3] /* ty=Tensor[(11, 130), float64] */, dtype="bool") /* ty=Tensor[(11, 130), bool] */;
  %155 = dyn.reshape(%152, %153, newshape=[]) /* ty=Tensor[(?, ?), bool] */;
  %156 = cast(%var_7766, dtype="bool") /* ty=Tensor[(11, 130), bool] */;
  %157 = shape_of(meta[relay.Constant][3] /* ty=Tensor[(11, 130), float64] */, dtype="int32") /* ty=Tensor[(2), int32] */;
  %158 = cast(meta[relay.Constant][3] /* ty=Tensor[(11, 130), float64] */, dtype="bool") /* ty=Tensor[(11, 130), bool] */;
  %159 = dyn.reshape(%156, %157, newshape=[]) /* ty=Tensor[(?, ?), bool] */;
  %160 = @func_6180() /* ty=Tensor[(5, 14, 3), float32] */;
  %161 = %139.1;
  %162 = %151.0;
  %163 = greater_equal(%154, %155) /* ty=Tensor[(11, 130), bool] */;
  %164 = not_equal(%158, %159) /* ty=Tensor[(11, 130), bool] */;
  (%160, %161, %148, %162, %163, %164)
}

def @func_5773() -> (Tensor[(15, 16, 4), float32], Tensor[(5, 14, 3), float32], Tensor[(15, 16, 4), uint32]) {
  %165 = @func_5520() /* ty=(Tensor[(15, 16, 4), float32], Tensor[(5, 14, 3), float32]) */;
  %166 = @func_3382() /* ty=(Tensor[(5, 14, 3), float32],) */;
  %167 = %165.0;
  %168 = cast(%167, dtype="float32") /* ty=Tensor[(15, 16, 4), float32] */;
  %169 = reshape(%168, newshape=[15, 16, 4]) /* ty=Tensor[(15, 16, 4), float32] */;
  %170 = @func_3929(%169) /* ty=(Tensor[(15, 16, 4), uint32],) */;
  %171 = %166.0;
  %172 = %170.0;
  (%167, %171, %172)
}

def @func_24796() -> (Tensor[(5, 14, 3), float32], Tensor[(5, 14, 3), float32], Tensor[(1430), float32]) {
  %173 = @func_6842() /* ty=(Tensor[(5, 14, 3), float32], Tensor[(5, 14, 3), float32], Tensor[(5, 14, 3), float32], Tensor[(5, 14, 3), float64]) */;
  %174 = @func_21463() /* ty=(Tensor[(5, 14, 3), float32], Tensor[(5, 14, 3), float32], Tensor[(5, 14, 3), float32]) */;
  %175 = @func_12523() /* ty=(Tensor[(5, 14, 3), float32], Tensor[(1430), float32]) */;
  %176 = %173.1;
  %177 = %174.1;
  %178 = %175.1;
  (%176, %177, %178)
}

def @func_16800() -> Tensor[(5, 14, 3), float64] {
  %179 = @func_14211() /* ty=(Tensor[(5, 14, 3), float32], Tensor[(5, 14, 3), float64]) */;
  %179.1
}

def @func_14456() -> Tensor[(5, 14, 3), float32] {
  %180 = @func_10882() /* ty=(Tensor[(5, 14, 3), float32],) */;
  %180.0
}

def @func_23495() -> (Tensor[(5, 14, 3), float32], Tensor[(5, 14, 3), float32]) {
  %181 = @func_5603() /* ty=(Tensor[(5, 14, 3), bool], Tensor[(5, 14, 3), float32], Tensor[(5, 14, 3), float32]) */;
  %182 = @func_4999() /* ty=Tensor[(5, 14, 3), float32] */;
  %183 = %181.1;
  (%182, %183)
}

def @func_19974() -> Tensor[(5, 14, 3), float32] {
  %184 = @func_14150() /* ty=(Tensor[(5, 14, 3), float32], Tensor[(5, 14, 3), float32], Tensor[(5, 14, 3), float32]) */;
  %184.0
}

def @func_27727(%var_27722: Tensor[(1430), float64]) -> (Tensor[(5, 14, 3), float32], Tensor[(5, 14, 3), float32], Tensor[(5, 14, 3), float32], Tensor[(5, 14, 3), float32], Tensor[(1430), float64]) {
  %185 = @func_17420() /* ty=(Tensor[(5, 14, 3), float32],) */;
  %186 = cast(%var_27722, dtype="float64") /* ty=Tensor[(1430), float64] */;
  %187 = reshape(%186, newshape=[143, 10]) /* ty=Tensor[(143, 10), float64] */;
  %188 = @func_24148(%187) /* ty=(Tensor[(5, 14, 3), float32], Tensor[(143, 10), uint16], Tensor[(5, 14, 3), float32], Tensor[(5, 14, 3), float32], Tensor[(5, 14, 3), int8], Tensor[(143, 10), bool], Tensor[(5, 14, 3), float64]) */;
  %189 = @func_2677() /* ty=Tensor[(5, 14, 3), float32] */;
  %190 = %185.0;
  %191 = @func_24293() /* ty=Tensor[(5, 14, 3), float32] */;
  %192 = %188.2;
  (%189, %190, %191, %192, %var_27722)
}

def @func_18210() -> (Tensor[(5, 14, 3), float32],) {
  %193 = @func_3987() /* ty=Tensor[(5, 14, 3), float32] */;
  (%193,)
}

def @func_9345() -> (Tensor[(5, 14, 3), float32], Tensor[(5, 14, 3), float32], Tensor[(5, 14, 3), float32]) {
  %194 = @func_6006() /* ty=(Tensor[(5, 14, 3), float32],) */;
  %195 = @func_5029() /* ty=Tensor[(5, 14, 3), float32] */;
  %196 = @func_2364() /* ty=Tensor[(5, 14, 3), float32] */;
  %197 = %194.0;
  (%195, %196, %197)
}

def @func_19489() -> Tensor[(5, 14, 3), float32] {
  %198 = @func_12279() /* ty=(Tensor[(5, 14, 3), float32], Tensor[(5, 14, 3), float32]) */;
  %198.0
}

def @func_19640() -> (Tensor[(5, 14, 3), float32], Tensor[(5, 14, 3), float32]) {
  %199 = @func_8852() /* ty=(Tensor[(5, 14, 3), float32],) */;
  %200 = @func_9877() /* ty=Tensor[(5, 14, 3), float32] */;
  %201 = %199.0;
  (%200, %201)
}

def @func_13218() -> Tensor[(5, 14, 3), float32] {
  %202 = @func_8339() /* ty=(Tensor[(5, 14, 3), float32], Tensor[(5, 14, 3), float32]) */;
  %202.0
}

def @func_27976() -> (Tensor[(5, 14, 3), float32], Tensor[(5, 14, 3), float32], Tensor[(5, 14, 3), float32]) {
  %203 = @func_9008() /* ty=(Tensor[(5, 14, 3), float32], Tensor[(5, 14, 3), float32]) */;
  %204 = @func_3195() /* ty=(Tensor[(5, 14, 3), float32],) */;
  %205 = %203.1;
  %206 = @func_14026() /* ty=Tensor[(5, 14, 3), float32] */;
  %207 = %204.0;
  (%205, %206, %207)
}

def @func_13545() -> Tensor[(5, 14, 3), float32] {
  %208 = @func_8852() /* ty=(Tensor[(5, 14, 3), float32],) */;
  %208.0
}

def @func_29929() -> (Tensor[(5, 14, 3), float32],) {
  %209 = @func_8114() /* ty=(Tensor[(5, 14, 3), float32], Tensor[(5, 14, 3), float32]) */;
  %210 = %209.1;
  (%210,)
}

def @func_30012() -> (Tensor[(5, 14, 3), float32],) {
  %211 = @func_21697() /* ty=(Tensor[(5, 14, 3), float32], Tensor[(15, 16, 4), float64], Tensor[(5, 14, 3), float32]) */;
  %212 = %211.2;
  (%212,)
}

def @func_18128(%var_18121: Tensor[(1430), float64]) -> (Tensor[(5, 14, 3), float32], Tensor[(5, 14, 3), float32], Tensor[(1430), float64], Tensor[(5, 14, 3), float32]) {
  %213 = @func_1912() /* ty=(Tensor[(5, 14, 3), float32],) */;
  %214 = cast(%var_18121, dtype="float64") /* ty=Tensor[(1430), float64] */;
  %215 = reshape(%214, newshape=[1430]) /* ty=Tensor[(1430), float64] */;
  %216 = @func_11222(%215) /* ty=(Tensor[(5, 14, 3), float32], Tensor[(5, 14, 3), float32], Tensor[(1430), float64]) */;
  %217 = @func_7028() /* ty=(Tensor[(5, 14, 3), float32],) */;
  %218 = %213.0;
  %219 = %216.0;
  %220 = %217.0;
  (%218, %219, %var_18121, %220)
}

def @func_23083() -> (Tensor[(1008), uint8], Tensor[(5, 14, 3), int8]) {
  %221 = @func_19397() /* ty=(Tensor[(5, 14, 3), float32], Tensor[(15, 16, 4), float32], Tensor[(5, 14, 3), float32], Tensor[(14, 6, 12), bool], Tensor[(1008), uint8]) */;
  %222 = @func_8715() /* ty=(Tensor[(5, 14, 3), float32], Tensor[(5, 14, 3), int8], Tensor[(5, 14, 3), float32]) */;
  %223 = %221.4;
  %224 = %222.1;
  (%223, %224)
}

def @func_20074() -> (Tensor[(5, 14, 3), float32], Tensor[(5, 14, 3), bool]) {
  %225 = @func_3742() /* ty=(Tensor[(5, 14, 3), float32],) */;
  %226 = %225.0;
  %227 = @func_2276() /* ty=Tensor[(5, 14, 3), bool] */;
  (%226, %227)
}

def @func_7866(%var_7852: uint16) -> (Tensor[(5, 14, 3), float32], Tensor[(5, 14, 3), float32], uint16, Tensor[(72), uint16]) {
  %228 = @func_467() /* ty=(Tensor[(5, 14, 3), float32],) */;
  %229 = cast(%var_7852, dtype="uint16") /* ty=uint16 */;
  %230 = cast(meta[relay.Constant][4] /* ty=Tensor[(72), uint16] */, dtype="uint16") /* ty=Tensor[(72), uint16] */;
  %231 = reshape(%229, newshape=[]) /* ty=uint16 */;
  %232 = reshape(%230, newshape=[6, 1, 12]) /* ty=Tensor[(6, 1, 12), uint16] */;
  %233 = @func_6135(%231, %232) /* ty=(Tensor[(6, 1, 12), uint16], Tensor[(5, 14, 3), float32], Tensor[(5, 14, 3), float32], Tensor[(5, 14, 3), float32]) */;
  %234 = %228.0;
  %235 = %233.1;
  (%234, %235, %var_7852, meta[relay.Constant][4] /* ty=Tensor[(72), uint16] */)
}

def @func_13819(%var_13710: uint16, %var_13767: Tensor[(1430, 9), float32], %var_13788: Tensor[(1430, 9), float64]) -> (Tensor[(5, 14, 3), float32], uint16, uint16, Tensor[(5, 14, 3), float32], Tensor[(5, 14, 3), float32], Tensor[(1430), float64], Tensor[(1430, 9), bool], Tensor[(1430, 9), bool], Tensor[(1430, 9), float64]) {
  %236 = @func_5324() /* ty=(Tensor[(5, 14, 3), float32], Tensor[(5, 14, 3), float32]) */;
  %237 = cast(%var_13710, dtype="uint16") /* ty=uint16 */;
  %238 = reshape(%237, newshape=[]) /* ty=uint16 */;
  %239 = @func_11789(%238) /* ty=(Tensor[(5, 14, 3), float32], uint16, uint16, Tensor[(5, 14, 3), bool], Tensor[(15, 16, 4), float32]) */;
  %240 = @func_9008() /* ty=(Tensor[(5, 14, 3), float32], Tensor[(5, 14, 3), float32]) */;
  %241 = cast(meta[relay.Constant][5] /* ty=Tensor[(1430, 1), float64] */, dtype="float64") /* ty=Tensor[(1430, 1), float64] */;
  %242 = reshape(%241, newshape=[1430]) /* ty=Tensor[(1430), float64] */;
  %243 = @func_2813(%242) /* ty=(Tensor[(5, 14, 3), float32], Tensor[(5, 14, 3), float64], Tensor[(5, 14, 3), float32], Tensor[(5, 14, 3), float32], Tensor[(1430), float64]) */;
  %244 = @func_10956() /* ty=(Tensor[(1430), float64], Tensor[(5, 14, 3), float32]) */;
  %245 = cast(meta[relay.Constant][5] /* ty=Tensor[(1430, 1), float64] */, dtype="float32") /* ty=Tensor[(1430, 1), float32] */;
  %246 = atan(%245) /* ty=Tensor[(1430, 1), float32] */;
  %247 = cast(%246, dtype="bool") /* ty=Tensor[(1430, 1), bool] */;
  %248 = cast(%var_13767, dtype="bool") /* ty=Tensor[(1430, 9), bool] */;
  %249 = greater(%247, %248) /* ty=Tensor[(1430, 9), bool] */;
  %250 = cast(%249, dtype="float64") /* ty=Tensor[(1430, 9), float64] */;
  %251 = log10(%250) /* ty=Tensor[(1430, 9), float64] */;
  %252 = cast(%var_13788, dtype="bool") /* ty=Tensor[(1430, 9), bool] */;
  %253 = shape_of(%251, dtype="int32") /* ty=Tensor[(2), int32] */;
  %254 = cast(%251, dtype="bool") /* ty=Tensor[(1430, 9), bool] */;
  %255 = dyn.reshape(%252, %253, newshape=[]) /* ty=Tensor[(?, ?), bool] */;
  %256 = cast(meta[relay.Constant][6] /* ty=Tensor[(1430, 9), float64] */, dtype="bool") /* ty=Tensor[(1430, 9), bool] */;
  %257 = shape_of(%251, dtype="int32") /* ty=Tensor[(2), int32] */;
  %258 = cast(%251, dtype="bool") /* ty=Tensor[(1430, 9), bool] */;
  %259 = dyn.reshape(%256, %257, newshape=[]) /* ty=Tensor[(?, ?), bool] */;
  %260 = cast(meta[relay.Constant][6] /* ty=Tensor[(1430, 9), float64] */, dtype="float64") /* ty=Tensor[(1430, 9), float64] */;
  %261 = shape_of(%251, dtype="int32") /* ty=Tensor[(2), int32] */;
  %262 = cast(%251, dtype="float64") /* ty=Tensor[(1430, 9), float64] */;
  %263 = dyn.reshape(%260, %261, newshape=[]) /* ty=Tensor[(?, ?), float64] */;
  %264 = %236.0;
  %265 = %239.1;
  %266 = %240.0;
  %267 = %243.3;
  %268 = %244.0;
  %269 = less(%254, %255) /* ty=Tensor[(1430, 9), bool] */;
  %270 = greater_equal(%258, %259) /* ty=Tensor[(1430, 9), bool] */;
  %271 = subtract(%262, %263) /* ty=Tensor[(1430, 9), float64] */;
  (%264, %265, %var_13710, %266, %267, %268, %269, %270, %271)
}

def @func_31894() -> Tensor[(5, 14, 3), float32] {
  %272 = @func_8852() /* ty=(Tensor[(5, 14, 3), float32],) */;
  %272.0
}

def @func_18391() -> (Tensor[(5, 14, 3), float32],) {
  %273 = @func_5047() /* ty=(Tensor[(5, 14, 3), float32],) */;
  %274 = %273.0;
  (%274,)
}

def @func_20093() -> (Tensor[(5, 14, 3), float32],) {
  %275 = @func_8852() /* ty=(Tensor[(5, 14, 3), float32],) */;
  %276 = %275.0;
  (%276,)
}

def @func_31517() -> Tensor[(5, 14, 3), float32] {
  %277 = @func_17588() /* ty=(Tensor[(15, 16, 4), float32], Tensor[(5, 14, 3), float32]) */;
  %277.1
}

def @func_7410() -> (Tensor[(5, 14, 3), int16], Tensor[(5, 14, 3), float32], Tensor[(5, 14, 3), float32]) {
  %278 = @func_2276() /* ty=Tensor[(5, 14, 3), bool] */;
  %279 = cast(meta[relay.Constant][7] /* ty=Tensor[(5, 14, 3), bool] */, dtype="int16") /* ty=Tensor[(5, 14, 3), int16] */;
  %280 = shape_of(%278, dtype="int32") /* ty=Tensor[(3), int32] */;
  %281 = cast(%278, dtype="int16") /* ty=Tensor[(5, 14, 3), int16] */;
  %282 = dyn.reshape(%279, %280, newshape=[]) /* ty=Tensor[(?, ?, ?), int16] */;
  %283 = logical_xor(%281, %282) /* ty=Tensor[(5, 14, 3), int16] */;
  %284 = cast(%283, dtype="float32") /* ty=Tensor[(5, 14, 3), float32] */;
  %285 = reshape(%284, newshape=[5, 14, 3]) /* ty=Tensor[(5, 14, 3), float32] */;
  %286 = @func_4936(%285) /* ty=(Tensor[(15, 16, 4), float32], Tensor[(5, 14, 3), uint64], Tensor[(5, 14, 3), float32], Tensor[(15, 16, 4), uint32], Tensor[(5, 14, 3), float32], Tensor[(5, 14, 3), float32], Tensor[(5, 14, 3), float32]) */;
  %287 = @func_6857() /* ty=Tensor[(5, 14, 3), float32] */;
  %288 = %286.4;
  (%283, %287, %288)
}

def @func_12599() -> (Tensor[(5, 14, 3), bool], Tensor[(5, 14, 3), float32], Tensor[(5, 14, 3), int16], Tensor[(5, 14, 3), float32]) {
  %289 = @func_10363() /* ty=(Tensor[(5, 14, 3), bool], Tensor[(5, 14, 3), float32]) */;
  %290 = @func_5849() /* ty=(Tensor[(5, 14, 3), float32], Tensor[(5, 14, 3), float32]) */;
  %291 = @func_7410() /* ty=(Tensor[(5, 14, 3), int16], Tensor[(5, 14, 3), float32], Tensor[(5, 14, 3), float32]) */;
  %292 = @func_8276() /* ty=(Tensor[(5, 14, 3), float32], Tensor[(5, 14, 3), float32]) */;
  %293 = %289.0;
  %294 = %290.0;
  %295 = %291.0;
  %296 = %292.1;
  (%293, %294, %295, %296)
}

def @func_14211() -> (Tensor[(5, 14, 3), float32], Tensor[(5, 14, 3), float64]) {
  %297 = @func_7157() /* ty=(Tensor[(5, 14, 3), float32], Tensor[(5, 14, 3), float32]) */;
  %298 = @func_4164() /* ty=(Tensor[(15, 16, 4), float32], Tensor[(5, 14, 3), float32], Tensor[(5, 14, 3), float64]) */;
  %299 = %297.0;
  %300 = %298.2;
  (%299, %300)
}

def @func_8525() -> (Tensor[(5, 14, 3), float32], Tensor[(5, 14, 3), float32], Tensor[(5, 14, 3), int8], Tensor[(15, 16, 4), float32]) {
  %301 = @func_5202() /* ty=(Tensor[(5, 14, 3), float32],) */;
  %302 = @func_4455() /* ty=(Tensor[(5, 14, 3), float32], Tensor[(5, 14, 3), float32], Tensor[(15, 16, 4), float32]) */;
  %303 = @func_5842() /* ty=Tensor[(5, 14, 3), float32] */;
  %304 = %301.0;
  %305 = @func_8229() /* ty=Tensor[(5, 14, 3), int8] */;
  %306 = %302.2;
  (%303, %304, %305, %306)
}

def @func_16552() -> (Tensor[(5, 14, 3), float32], Tensor[(5, 14, 3), float32]) {
  %307 = @func_3700() /* ty=(Tensor[(5, 14, 3), float32], Tensor[(5, 14, 3), bool], Tensor[(5, 14, 3), float32]) */;
  %308 = @func_5387() /* ty=(Tensor[(5, 14, 3), float32], Tensor[(5, 14, 3), float32], Tensor[(5, 14, 3), bool], Tensor[(5, 14, 3), float32]) */;
  %309 = %307.0;
  %310 = %308.0;
  (%309, %310)
}

def @func_23744() -> Tensor[(5, 14, 3), float32] {
  %311 = @func_18391() /* ty=(Tensor[(5, 14, 3), float32],) */;
  %311.0
}

def @func_14181() -> (Tensor[(5, 14, 3), int8],) {
  %312 = @func_8229() /* ty=Tensor[(5, 14, 3), int8] */;
  (%312,)
}

def @func_25006() -> Tensor[(5, 14, 3), float32] {
  %313 = @func_19397() /* ty=(Tensor[(5, 14, 3), float32], Tensor[(15, 16, 4), float32], Tensor[(5, 14, 3), float32], Tensor[(14, 6, 12), bool], Tensor[(1008), uint8]) */;
  %313.2
}

def @func_25406() -> (Tensor[(5, 14, 3), float32], Tensor[(5, 14, 3), float32]) {
  %314 = @func_10521() /* ty=(Tensor[(5, 14, 3), float32], Tensor[(5, 14, 3), float32]) */;
  %315 = %314.1;
  %316 = @func_25263() /* ty=Tensor[(5, 14, 3), float32] */;
  (%315, %316)
}

def @func_24239() -> (Tensor[(5, 14, 3), float32], Tensor[(5, 14, 3), float32]) {
  %317 = @func_17420() /* ty=(Tensor[(5, 14, 3), float32],) */;
  %318 = @func_7665() /* ty=(Tensor[(5, 14, 3), float32],) */;
  %319 = %317.0;
  %320 = %318.0;
  (%319, %320)
}

def @func_9126() -> (Tensor[(5, 14, 3), float32],) {
  %321 = @func_7110() /* ty=(Tensor[(5, 14, 3), float32], Tensor[(5, 14, 3), float32]) */;
  %322 = %321.1;
  (%322,)
}

def @func_19728() -> (Tensor[(5, 14, 3), float32], Tensor[(5, 14, 3), float32], Tensor[(15, 16, 4), float32], Tensor[(5, 14, 3), float32], Tensor[(5, 14, 3), float32]) {
  %323 = @func_18391() /* ty=(Tensor[(5, 14, 3), float32],) */;
  %324 = @func_6395() /* ty=(Tensor[(5, 14, 3), float32],) */;
  %325 = @func_19593() /* ty=(Tensor[(15, 16, 4), float32],) */;
  %326 = @func_15490() /* ty=(Tensor[(5, 14, 3), float32], Tensor[(5, 14, 3), float32]) */;
  %327 = @func_15164() /* ty=(Tensor[(5, 14, 3), float32],) */;
  %328 = %323.0;
  %329 = %324.0;
  %330 = %325.0;
  %331 = %326.0;
  %332 = %327.0;
  (%328, %329, %330, %331, %332)
}

def @func_9366() -> (Tensor[(1430), float64],) {
  %333 = @func_6976() /* ty=(Tensor[(15, 16, 4), float32], Tensor[(5, 14, 3), float32], Tensor[(1430), float64], Tensor[(1430), float64], Tensor[(5, 14, 3), float32], Tensor[(10, 13, 11), float32]) */;
  %334 = %333.3;
  (%334,)
}

def @func_32758() -> (Tensor[(5, 14, 3), float32], Tensor[(5, 14, 3), float32], Tensor[(5, 14, 3), float32]) {
  %335 = @func_12738() /* ty=(Tensor[(5, 14, 3), float32], Tensor[(5, 14, 3), float32], Tensor[(1430, 1), float64]) */;
  %336 = @func_24239() /* ty=(Tensor[(5, 14, 3), float32], Tensor[(5, 14, 3), float32]) */;
  %337 = %335.0;
  %338 = @func_23744() /* ty=Tensor[(5, 14, 3), float32] */;
  %339 = %336.0;
  (%337, %338, %339)
}

def @func_13338() -> Tensor[(5, 14, 3), float32] {
  %340 = @func_7493() /* ty=(Tensor[(5, 14, 3), float32], Tensor[(5, 14, 3), float32]) */;
  %340.0
}

def @func_14691() -> Tensor[(5, 14, 3), float32] {
  %341 = @func_8339() /* ty=(Tensor[(5, 14, 3), float32], Tensor[(5, 14, 3), float32]) */;
  %341.1
}

def @func_32575() -> Tensor[(5, 14, 3), float32] {
  @func_1923() /* ty=Tensor[(5, 14, 3), float32] */
}

def @func_7998() -> (Tensor[(5, 14, 3), float32],) {
  %342 = @func_2908() /* ty=Tensor[(5, 14, 3), float32] */;
  (%342,)
}

def @func_17482() -> (Tensor[(5, 14, 3), float32],) {
  %343 = @func_7110() /* ty=(Tensor[(5, 14, 3), float32], Tensor[(5, 14, 3), float32]) */;
  %344 = %343.0;
  (%344,)
}

def @func_18483() -> (Tensor[(5, 14, 3), float32],) {
  %345 = @func_6857() /* ty=Tensor[(5, 14, 3), float32] */;
  (%345,)
}

def @func_19048() -> (Tensor[(5, 14, 3), float32], Tensor[(5, 14, 3), float32], Tensor[(5, 14, 3), float32]) {
  %346 = @func_9609() /* ty=(Tensor[(5, 14, 3), bool], Tensor[(5, 14, 3), float32]) */;
  %347 = @func_5849() /* ty=(Tensor[(5, 14, 3), float32], Tensor[(5, 14, 3), float32]) */;
  %348 = @func_6180() /* ty=Tensor[(5, 14, 3), float32] */;
  %349 = %346.1;
  %350 = %347.1;
  (%348, %349, %350)
}

def @func_21586() -> Tensor[(5, 14, 3), bool] {
  %351 = @func_2566() /* ty=(Tensor[(5, 14, 3), bool],) */;
  %351.0
}

def @func_31316() -> (Tensor[(5, 14, 3), float32], Tensor[(15, 16, 4), float64], Tensor[(5, 14, 3), bool], Tensor[(5, 14, 3), float32]) {
  %352 = @func_23876() /* ty=(Tensor[(5, 14, 3), int8], Tensor[(5, 14, 3), bool], Tensor[(5, 14, 3), float32]) */;
  %353 = @func_26516() /* ty=(Tensor[(5, 14, 3), float32], Tensor[(5, 14, 3), float32], Tensor[(5, 14, 3), float32]) */;
  %354 = @func_2364() /* ty=Tensor[(5, 14, 3), float32] */;
  %355 = @func_17150() /* ty=Tensor[(15, 16, 4), float64] */;
  %356 = %352.1;
  %357 = %353.2;
  (%354, %355, %356, %357)
}

def @func_11091(%var_11035: Tensor[(1430), float64], %var_11040: Tensor[(1430), int8]) -> (Tensor[(5, 14, 3), float64], Tensor[(5, 14, 3), int8], Tensor[(5, 14, 3), float32], Tensor[(5, 14, 3), float32], Tensor[(1430), uint16], Tensor[(1430), float32], Tensor[(1430), float64]) {
  %358 = @func_4164() /* ty=(Tensor[(15, 16, 4), float32], Tensor[(5, 14, 3), float32], Tensor[(5, 14, 3), float64]) */;
  %359 = @func_8801() /* ty=(Tensor[(5, 14, 3), int8], Tensor[(5, 14, 3), float32]) */;
  %360 = cast(meta[relay.Constant][8] /* ty=Tensor[(1430), float64] */, dtype="float64") /* ty=Tensor[(1430), float64] */;
  %361 = reshape(%360, newshape=[1430]) /* ty=Tensor[(1430), float64] */;
  %362 = @func_773(%361) /* ty=(Tensor[(5, 14, 3), float32], Tensor[(10, 13, 11), float64], Tensor[(1430), float64]) */;
  %363 = cast(%var_11035, dtype="int8") /* ty=Tensor[(1430), int8] */;
  %364 = shape_of(meta[relay.Constant][8] /* ty=Tensor[(1430), float64] */, dtype="int32") /* ty=Tensor[(1), int32] */;
  %365 = cast(meta[relay.Constant][8] /* ty=Tensor[(1430), float64] */, dtype="int8") /* ty=Tensor[(1430), int8] */;
  %366 = dyn.reshape(%363, %364, newshape=[]) /* ty=Tensor[(?), int8] */;
  %367 = add(%365, %366) /* ty=Tensor[(1430), int8] */;
  %368 = cast(%var_11040, dtype="uint16") /* ty=Tensor[(1430), uint16] */;
  %369 = shape_of(%367, dtype="int32") /* ty=Tensor[(1), int32] */;
  %370 = cast(%367, dtype="uint16") /* ty=Tensor[(1430), uint16] */;
  %371 = dyn.reshape(%368, %369, newshape=[]) /* ty=Tensor[(?), uint16] */;
  %372 = cast(%var_11035, dtype="float32") /* ty=Tensor[(1430), float32] */;
  %373 = cast(%var_11035, dtype="float64") /* ty=Tensor[(1430), float64] */;
  %374 = shape_of(meta[relay.Constant][8] /* ty=Tensor[(1430), float64] */, dtype="int32") /* ty=Tensor[(1), int32] */;
  %375 = cast(meta[relay.Constant][8] /* ty=Tensor[(1430), float64] */, dtype="float64") /* ty=Tensor[(1430), float64] */;
  %376 = dyn.reshape(%373, %374, newshape=[]) /* ty=Tensor[(?), float64] */;
  %377 = %358.2;
  %378 = %359.0;
  %379 = @func_2677() /* ty=Tensor[(5, 14, 3), float32] */;
  %380 = %362.0;
  %381 = right_shift(%370, %371) /* ty=Tensor[(1430), uint16] */;
  %382 = sin(%372) /* ty=Tensor[(1430), float32] */;
  %383 = divide(%375, %376) /* ty=Tensor[(1430), float64] */;
  (%377, %378, %379, %380, %381, %382, %383)
}

def @func_23801() -> (Tensor[(5, 14, 3), float32],) {
  %384 = @func_18210() /* ty=(Tensor[(5, 14, 3), float32],) */;
  %385 = %384.0;
  (%385,)
}

def @func_20018() -> (Tensor[(5, 14, 3), float32], Tensor[(5, 14, 3), float32]) {
  %386 = @func_18958() /* ty=(Tensor[(5, 14, 3), float32],) */;
  %387 = @func_8114() /* ty=(Tensor[(5, 14, 3), float32], Tensor[(5, 14, 3), float32]) */;
  %388 = %386.0;
  %389 = %387.1;
  (%388, %389)
}

def @func_25288() -> (Tensor[(5, 14, 3), float32],) {
  %390 = @func_20897() /* ty=(Tensor[(5, 14, 3), float32], Tensor[(5, 14, 3), float32]) */;
  %391 = %390.1;
  (%391,)
}

def @func_4559() -> (Tensor[(5, 14, 3), bool], Tensor[(5, 14, 3), bool]) {
  %392 = @func_2566() /* ty=(Tensor[(5, 14, 3), bool],) */;
  %393 = @func_4110() /* ty=(Tensor[(5, 14, 3), bool],) */;
  %394 = %392.0;
  %395 = %393.0;
  (%394, %395)
}

def @func_9544() -> Tensor[(15, 16, 4), float32] {
  %396 = @func_4164() /* ty=(Tensor[(15, 16, 4), float32], Tensor[(5, 14, 3), float32], Tensor[(5, 14, 3), float64]) */;
  %397 = %396.0;
  %398 = cast(%397, dtype="float32") /* ty=Tensor[(15, 16, 4), float32] */;
  rsqrt(%398) /* ty=Tensor[(15, 16, 4), float32] */
}

def @func_4110() -> (Tensor[(5, 14, 3), bool],) {
  %399 = @func_2566() /* ty=(Tensor[(5, 14, 3), bool],) */;
  %400 = %399.0;
  (%400,)
}

def @func_30125() -> (Tensor[(5, 14, 3), float32],) {
  %401 = @func_2853() /* ty=(Tensor[(5, 14, 3), float32],) */;
  %402 = %401.0;
  (%402,)
}

def @func_16122() -> (Tensor[(5, 14, 3), float32], Tensor[(5, 14, 3), int8], Tensor[(5, 14, 3), float32], Tensor[(5, 14, 3), float32]) {
  %403 = @func_14429() /* ty=(Tensor[(5, 14, 3), float32],) */;
  %404 = @func_12879() /* ty=(Tensor[(5, 14, 3), float32], Tensor[(5, 14, 3), int8]) */;
  %405 = @func_12738() /* ty=(Tensor[(5, 14, 3), float32], Tensor[(5, 14, 3), float32], Tensor[(1430, 1), float64]) */;
  %406 = @func_12279() /* ty=(Tensor[(5, 14, 3), float32], Tensor[(5, 14, 3), float32]) */;
  %407 = %403.0;
  %408 = %404.1;
  %409 = %405.0;
  %410 = %406.0;
  (%407, %408, %409, %410)
}

def @func_26067() -> (Tensor[(5, 14, 3), float32],) {
  %411 = @func_5703() /* ty=(Tensor[(5, 14, 3), float32], Tensor[(5, 14, 3), float32]) */;
  %412 = %411.0;
  (%412,)
}

def @func_580(%var_570: Tensor[(5, 14, 3), float32]) -> Tensor[(5, 14, 3), int8] {
  %413 = @func_498() /* ty=(Tensor[(5, 14, 3), float32],) */;
  %414 = %413.0;
  %415 = cast(%var_570, dtype="int8") /* ty=Tensor[(5, 14, 3), int8] */;
  %416 = shape_of(%414, dtype="int32") /* ty=Tensor[(3), int32] */;
  %417 = cast(%414, dtype="int8") /* ty=Tensor[(5, 14, 3), int8] */;
  %418 = dyn.reshape(%415, %416, newshape=[]) /* ty=Tensor[(?, ?, ?), int8] */;
  bitwise_xor(%417, %418) /* ty=Tensor[(5, 14, 3), int8] */
}

def @func_5304() -> (Tensor[(5, 14, 3), float32], Tensor[(5, 14, 3), float32]) {
  %419 = @func_1870() /* ty=(Tensor[(5, 14, 3), float32],) */;
  %420 = @func_2213() /* ty=(Tensor[(5, 14, 3), float32],) */;
  %421 = %419.0;
  %422 = %420.0;
  (%421, %422)
}

def @func_12879() -> (Tensor[(5, 14, 3), float32], Tensor[(5, 14, 3), int8]) {
  %423 = @func_11411() /* ty=(Tensor[(5, 14, 3), float32], Tensor[(5, 14, 3), float32]) */;
  %424 = @func_5440() /* ty=(Tensor[(5, 14, 3), int8],) */;
  %425 = %423.0;
  %426 = %424.0;
  (%425, %426)
}

def @func_15101() -> (Tensor[(5, 14, 3), bool],) {
  %427 = @func_2566() /* ty=(Tensor[(5, 14, 3), bool],) */;
  %428 = %427.0;
  (%428,)
}

def @func_29596() -> (Tensor[(15, 16, 4), float32],) {
  %429 = @func_24629() /* ty=(Tensor[(15, 16, 4), float32],) */;
  %430 = %429.0;
  (%430,)
}

def @func_17308() -> (Tensor[(5, 14, 3), float64],) {
  %431 = @func_13635() /* ty=Tensor[(5, 14, 3), float64] */;
  (%431,)
}

def @func_33070() -> (Tensor[(5, 14, 3), float32], Tensor[(5, 14, 3), float32]) {
  %432 = @func_14533() /* ty=(Tensor[(15, 16, 4), float32], Tensor[(5, 14, 3), bool], Tensor[(5, 14, 3), float32]) */;
  %433 = @func_3434() /* ty=(Tensor[(5, 14, 3), float32],) */;
  %434 = %432.2;
  %435 = %433.0;
  (%434, %435)
}

def @func_9911() -> (Tensor[(5, 14, 3), bool], Tensor[(5, 14, 3), float32]) {
  %436 = @func_3700() /* ty=(Tensor[(5, 14, 3), float32], Tensor[(5, 14, 3), bool], Tensor[(5, 14, 3), float32]) */;
  %437 = %436.1;
  %438 = @func_8645() /* ty=Tensor[(5, 14, 3), float32] */;
  (%437, %438)
}

def @func_28548() -> (Tensor[(5, 14, 3), float32],) {
  %439 = @func_9786() /* ty=(Tensor[(5, 14, 3), float32], Tensor[(5, 14, 3), float32]) */;
  %440 = %439.0;
  (%440,)
}

def @func_5520() -> (Tensor[(15, 16, 4), float32], Tensor[(5, 14, 3), float32]) {
  %441 = @func_4164() /* ty=(Tensor[(15, 16, 4), float32], Tensor[(5, 14, 3), float32], Tensor[(5, 14, 3), float64]) */;
  %442 = @func_3987() /* ty=Tensor[(5, 14, 3), float32] */;
  %443 = cast(%442, dtype="float32") /* ty=Tensor[(5, 14, 3), float32] */;
  %444 = %441.0;
  %445 = atanh(%443) /* ty=Tensor[(5, 14, 3), float32] */;
  (%444, %445)
}

def @func_13030() -> Tensor[(5, 14, 3), float32] {
  %446 = @func_4313() /* ty=(Tensor[(5, 14, 3), float32],) */;
  %446.0
}

def @func_10897() -> (Tensor[(5, 14, 3), bool],) {
  %447 = @func_9609() /* ty=(Tensor[(5, 14, 3), bool], Tensor[(5, 14, 3), float32]) */;
  %448 = %447.0;
  (%448,)
}

def @func_6006() -> (Tensor[(5, 14, 3), float32],) {
  %449 = @func_2853() /* ty=(Tensor[(5, 14, 3), float32],) */;
  %450 = %449.0;
  (%450,)
}

def @func_26183() -> (Tensor[(5, 14, 3), bool], Tensor[(5, 14, 3), bool], Tensor[(5, 14, 3), float32]) {
  %451 = @func_25117() /* ty=(Tensor[(15, 16, 4), float32], Tensor[(5, 14, 3), bool]) */;
  %452 = @func_2553() /* ty=(Tensor[(5, 14, 3), float32], Tensor[(5, 14, 3), float32]) */;
  %453 = %451.1;
  %454 = @func_18324() /* ty=Tensor[(5, 14, 3), bool] */;
  %455 = %452.0;
  (%453, %454, %455)
}

def @func_5810() -> Tensor[(5, 14, 3), float32] {
  %456 = @func_3195() /* ty=(Tensor[(5, 14, 3), float32],) */;
  %456.0
}

def @func_25263() -> Tensor[(5, 14, 3), float32] {
  %457 = @func_6188() /* ty=(Tensor[(5, 14, 3), float32],) */;
  %457.0
}

def @func_2946() -> (Tensor[(5, 14, 3), float64], Tensor[(5, 14, 3), int8]) {
  %458 = @func_2603() /* ty=(Tensor[(5, 14, 3), float32],) */;
  %459 = %458.0;
  %460 = cast(%459, dtype="float64") /* ty=Tensor[(5, 14, 3), float64] */;
  %461 = @func_887() /* ty=(Tensor[(5, 14, 3), float32], Tensor[(5, 14, 3), int8]) */;
  %462 = exp(%460) /* ty=Tensor[(5, 14, 3), float64] */;
  %463 = %461.1;
  (%462, %463)
}

def @func_27865() -> (Tensor[(5, 14, 3), int8], Tensor[(5, 14, 3), float32]) {
  %464 = @func_10293() /* ty=(Tensor[(5, 14, 3), float32], Tensor[(5, 14, 3), int8]) */;
  %465 = @func_2853() /* ty=(Tensor[(5, 14, 3), float32],) */;
  %466 = %464.1;
  %467 = %465.0;
  (%466, %467)
}

def @func_4091() -> Tensor[(5, 14, 3), float32] {
  %468 = @func_2853() /* ty=(Tensor[(5, 14, 3), float32],) */;
  %468.0
}

def @func_30354() -> (Tensor[(5, 14, 3), float32], Tensor[(5, 14, 3), float32]) {
  %469 = @func_19494() /* ty=(Tensor[(5, 14, 3), float32],) */;
  %470 = @func_26699() /* ty=Tensor[(5, 14, 3), float32] */;
  %471 = %469.0;
  (%470, %471)
}

def @func_2213() -> (Tensor[(5, 14, 3), float32],) {
  %472 = @func_692() /* ty=Tensor[(5, 14, 3), float32] */;
  (%472,)
}

def @func_5627() -> (Tensor[(5, 14, 3), float32], Tensor[(5, 14, 3), int8]) {
  %473 = @func_3382() /* ty=(Tensor[(5, 14, 3), float32],) */;
  %474 = @func_5440() /* ty=(Tensor[(5, 14, 3), int8],) */;
  %475 = %473.0;
  %476 = %474.0;
  (%475, %476)
}

def @func_10521() -> (Tensor[(5, 14, 3), float32], Tensor[(5, 14, 3), float32]) {
  %477 = @func_4770() /* ty=(Tensor[(5, 14, 3), float32], Tensor[(5, 14, 3), bool], Tensor[(5, 14, 3), float32]) */;
  %478 = @func_9557() /* ty=Tensor[(5, 14, 3), float32] */;
  %479 = %477.0;
  (%478, %479)
}

def @func_5149() -> (Tensor[(5, 14, 3), float32], Tensor[(5, 14, 3), float32], Tensor[(15, 16, 4), float32]) {
  %480 = @func_3796() /* ty=(Tensor[(5, 14, 3), float32],) */;
  %481 = @func_4164() /* ty=(Tensor[(15, 16, 4), float32], Tensor[(5, 14, 3), float32], Tensor[(5, 14, 3), float64]) */;
  %482 = @func_3032() /* ty=Tensor[(5, 14, 3), float32] */;
  %483 = %480.0;
  %484 = %481.0;
  (%482, %483, %484)
}

def @func_22843(%var_22830: Tensor[(1, 2, 9), uint8]) -> (Tensor[(4, 2, 9), bool],) {
  %485 = cast(%var_22830, dtype="bool") /* ty=Tensor[(1, 2, 9), bool] */;
  %486 = cast(meta[relay.Constant][9] /* ty=Tensor[(4, 2, 9), uint8] */, dtype="bool") /* ty=Tensor[(4, 2, 9), bool] */;
  %487 = equal(%485, %486) /* ty=Tensor[(4, 2, 9), bool] */;
  (%487,)
}

def @func_5703() -> (Tensor[(5, 14, 3), float32], Tensor[(5, 14, 3), float32]) {
  %488 = @func_4018() /* ty=Tensor[(5, 14, 3), float32] */;
  %489 = @func_3987() /* ty=Tensor[(5, 14, 3), float32] */;
  (%488, %489)
}

def @func_9609() -> (Tensor[(5, 14, 3), bool], Tensor[(5, 14, 3), float32]) {
  %490 = @func_2566() /* ty=(Tensor[(5, 14, 3), bool],) */;
  %491 = @func_887() /* ty=(Tensor[(5, 14, 3), float32], Tensor[(5, 14, 3), int8]) */;
  %492 = %490.0;
  %493 = %491.0;
  (%492, %493)
}

def @func_25907() -> (Tensor[(5, 14, 3), float32], Tensor[(5, 14, 3), float64]) {
  %494 = @func_2213() /* ty=(Tensor[(5, 14, 3), float32],) */;
  %495 = @func_22175() /* ty=(Tensor[(5, 14, 3), float64], Tensor[(5, 14, 3), float32]) */;
  %496 = %494.0;
  %497 = %495.0;
  (%496, %497)
}

def @func_25661() -> Tensor[(5, 14, 3), float32] {
  %498 = @func_5703() /* ty=(Tensor[(5, 14, 3), float32], Tensor[(5, 14, 3), float32]) */;
  %498.0
}

def @func_1408(%var_1381: Tensor[(143, 10), float64]) -> (Tensor[(5, 14, 3), float32], Tensor[(10, 13, 11), float64], Tensor[(143, 10), float64], Tensor[(10, 13, 11), float64]) {
  %499 = @func_498() /* ty=(Tensor[(5, 14, 3), float32],) */;
  %500 = cast(%var_1381, dtype="float64") /* ty=Tensor[(143, 10), float64] */;
  %501 = reshape(%500, newshape=[1430]) /* ty=Tensor[(1430), float64] */;
  %502 = @func_773(%501) /* ty=(Tensor[(5, 14, 3), float32], Tensor[(10, 13, 11), float64], Tensor[(1430), float64]) */;
  %503 = cast(%var_1381, dtype="float64") /* ty=Tensor[(143, 10), float64] */;
  %504 = reshape(%503, newshape=[10, 13, 11]) /* ty=Tensor[(10, 13, 11), float64] */;
  %505 = %499.0;
  %506 = %502.1;
  %507 = @func_745(%504) /* ty=Tensor[(10, 13, 11), float64] */;
  (%505, %506, %var_1381, %507)
}

def @func_2431() -> Tensor[(15, 16, 4), float32] {
  %508 = cast(meta[relay.Constant][10] /* ty=Tensor[(15, 16, 4), float32] */, dtype="float32") /* ty=Tensor[(15, 16, 4), float32] */;
  acosh(%508) /* ty=Tensor[(15, 16, 4), float32] */
}

def @func_24559(%var_24531: Tensor[(14, 14, 11), bool]) -> (Tensor[(14, 14, 11), bool],) {
  %509 = cast(meta[relay.Constant][11] /* ty=Tensor[(14, 14, 11), bool] */, dtype="bool") /* ty=Tensor[(14, 14, 11), bool] */;
  %510 = shape_of(%var_24531, dtype="int32") /* ty=Tensor[(3), int32] */;
  %511 = cast(%var_24531, dtype="bool") /* ty=Tensor[(14, 14, 11), bool] */;
  %512 = dyn.reshape(%509, %510, newshape=[]) /* ty=Tensor[(?, ?, ?), bool] */;
  %513 = logical_and(%511, %512) /* ty=Tensor[(14, 14, 11), bool] */;
  (%513,)
}

def @func_32648() -> (Tensor[(15, 16, 4), float64],) {
  %514 = @func_17150() /* ty=Tensor[(15, 16, 4), float64] */;
  (%514,)
}

def @func_18562() -> Tensor[(5, 14, 3), float32] {
  %515 = @func_8276() /* ty=(Tensor[(5, 14, 3), float32], Tensor[(5, 14, 3), float32]) */;
  %515.1
}

def @func_13482() -> (Tensor[(5, 14, 3), float32], Tensor[(5, 14, 3), float32], Tensor[(5, 14, 3), int8], Tensor[(5, 14, 3), int8], Tensor[(5, 14, 3), float32], Tensor[(5, 14, 3), float32]) {
  %516 = @func_3195() /* ty=(Tensor[(5, 14, 3), float32],) */;
  %517 = @func_3796() /* ty=(Tensor[(5, 14, 3), float32],) */;
  %518 = @func_8715() /* ty=(Tensor[(5, 14, 3), float32], Tensor[(5, 14, 3), int8], Tensor[(5, 14, 3), float32]) */;
  %519 = %516.0;
  %520 = cast(%519, dtype="float32") /* ty=Tensor[(5, 14, 3), float32] */;
  %521 = reshape(%520, newshape=[5, 14, 3]) /* ty=Tensor[(5, 14, 3), float32] */;
  %522 = @func_5149() /* ty=(Tensor[(5, 14, 3), float32], Tensor[(5, 14, 3), float32], Tensor[(15, 16, 4), float32]) */;
  %523 = @func_12599() /* ty=(Tensor[(5, 14, 3), bool], Tensor[(5, 14, 3), float32], Tensor[(5, 14, 3), int16], Tensor[(5, 14, 3), float32]) */;
  %524 = %517.0;
  %525 = %518.1;
  %526 = @func_580(%521) /* ty=Tensor[(5, 14, 3), int8] */;
  %527 = %522.1;
  %528 = %523.1;
  (%519, %524, %525, %526, %527, %528)
}

def @func_17012() -> (Tensor[(5, 14, 3), float32], Tensor[(84, 1), float64], uint16) {
  %529 = cast(meta[relay.Constant][12] /* ty=uint16 */, dtype="uint16") /* ty=uint16 */;
  %530 = reshape(%529, newshape=[]) /* ty=uint16 */;
  %531 = @func_15081(%530) /* ty=(Tensor[(5, 14, 3), float32], Tensor[(14, 2, 3), float64], Tensor[(84, 1), float64], Tensor[(5, 14, 3), float32], uint16, Tensor[(5, 14, 3), float32]) */;
  %532 = @func_13338() /* ty=Tensor[(5, 14, 3), float32] */;
  %533 = %531.2;
  (%532, %533, meta[relay.Constant][12] /* ty=uint16 */)
}

def @func_10084(%var_10048: Tensor[(960), float32]) -> (Tensor[(5, 14, 3), float32], Tensor[(5, 14, 3), float32], Tensor[(5, 14, 3), float32], Tensor[(5, 14, 3), bool], Tensor[(5, 14, 3), bool], Tensor[(5, 14, 3), float32], Tensor[(960), float32], Tensor[(960), float32], Tensor[(5, 14, 3), float32]) {
  %534 = @func_8852() /* ty=(Tensor[(5, 14, 3), float32],) */;
  %535 = @func_9911() /* ty=(Tensor[(5, 14, 3), bool], Tensor[(5, 14, 3), float32]) */;
  %536 = @func_9786() /* ty=(Tensor[(5, 14, 3), float32], Tensor[(5, 14, 3), float32]) */;
  %537 = @func_4770() /* ty=(Tensor[(5, 14, 3), float32], Tensor[(5, 14, 3), bool], Tensor[(5, 14, 3), float32]) */;
  %538 = %537.1;
  %539 = cast(%538, dtype="float32") /* ty=Tensor[(5, 14, 3), float32] */;
  %540 = reshape(%539, newshape=[5, 14, 3]) /* ty=Tensor[(5, 14, 3), float32] */;
  %541 = @func_9034() /* ty=(Tensor[(5, 14, 3), float32], Tensor[(5, 14, 3), float32]) */;
  %542 = cast(%var_10048, dtype="float32") /* ty=Tensor[(960), float32] */;
  %543 = reshape(%542, newshape=[960]) /* ty=Tensor[(960), float32] */;
  %544 = @func_5250(%543) /* ty=(Tensor[(5, 14, 3), float32], Tensor[(5, 14, 3), float32], Tensor[(15, 16, 4), uint32], Tensor[(960), float32]) */;
  %545 = %534.0;
  %546 = %535.1;
  %547 = %536.0;
  %548 = @func_1196(%540) /* ty=Tensor[(5, 14, 3), bool] */;
  %549 = %541.0;
  %550 = %544.3;
  %551 = @func_5842() /* ty=Tensor[(5, 14, 3), float32] */;
  (%545, %546, %547, %538, %548, %549, %550, %var_10048, %551)
}

def @func_25533() -> (Tensor[(5, 14, 3), float32],) {
  %552 = @func_6188() /* ty=(Tensor[(5, 14, 3), float32],) */;
  %553 = %552.0;
  (%553,)
}

def @func_28884() -> (Tensor[(5, 14, 3), bool], Tensor[(5, 14, 3), float32], Tensor[(5, 14, 3), float32]) {
  %554 = @func_4770() /* ty=(Tensor[(5, 14, 3), float32], Tensor[(5, 14, 3), bool], Tensor[(5, 14, 3), float32]) */;
  %555 = @func_17714() /* ty=(Tensor[(5, 14, 3), float32], Tensor[(5, 14, 3), float32], Tensor[(5, 14, 3), float32], Tensor[(5, 14, 3), float32]) */;
  %556 = @func_27741() /* ty=(Tensor[(5, 14, 3), float32], Tensor[(5, 14, 3), int8]) */;
  %557 = %554.1;
  %558 = %555.3;
  %559 = %556.0;
  (%557, %558, %559)
}

def @func_5387() -> (Tensor[(5, 14, 3), float32], Tensor[(5, 14, 3), float32], Tensor[(5, 14, 3), bool], Tensor[(5, 14, 3), float32]) {
  %560 = @func_5149() /* ty=(Tensor[(5, 14, 3), float32], Tensor[(5, 14, 3), float32], Tensor[(15, 16, 4), float32]) */;
  %561 = @func_5047() /* ty=(Tensor[(5, 14, 3), float32],) */;
  %562 = @func_4559() /* ty=(Tensor[(5, 14, 3), bool], Tensor[(5, 14, 3), bool]) */;
  %563 = %560.1;
  %564 = %561.0;
  %565 = %562.0;
  %566 = @func_3032() /* ty=Tensor[(5, 14, 3), float32] */;
  (%563, %564, %565, %566)
}

def @func_26038() -> (Tensor[(5, 14, 3), int8], Tensor[(5, 14, 3), float32]) {
  %567 = @func_14181() /* ty=(Tensor[(5, 14, 3), int8],) */;
  %568 = %567.0;
  %569 = @func_7001() /* ty=Tensor[(5, 14, 3), float32] */;
  (%568, %569)
}

def @func_30783() -> (Tensor[(5, 14, 3), float32],) {
  %570 = @func_3796() /* ty=(Tensor[(5, 14, 3), float32],) */;
  %571 = %570.0;
  (%571,)
}

def @func_6857() -> Tensor[(5, 14, 3), float32] {
  @func_3032() /* ty=Tensor[(5, 14, 3), float32] */
}

def @func_16042() -> (Tensor[(5, 14, 3), float32], Tensor[(5, 14, 3), float32]) {
  %572 = @func_13383() /* ty=(Tensor[(5, 14, 3), float32],) */;
  %573 = @func_15360() /* ty=(Tensor[(5, 14, 3), float32],) */;
  %574 = %572.0;
  %575 = %573.0;
  (%574, %575)
}

def @func_9217() -> (Tensor[(5, 14, 3), bool], Tensor[(5, 14, 3), int8], Tensor[(840), float32]) {
  %576 = cast(meta[relay.Constant][13] /* ty=Tensor[(840), float32] */, dtype="float32") /* ty=Tensor[(840), float32] */;
  %577 = reshape(%576, newshape=[7, 12, 10]) /* ty=Tensor[(7, 12, 10), float32] */;
  %578 = @func_1670(%577) /* ty=(Tensor[(5, 14, 3), int8], Tensor[(7, 12, 10), float32], Tensor[(5, 14, 3), float32]) */;
  %579 = @func_7263() /* ty=Tensor[(5, 14, 3), bool] */;
  %580 = %578.0;
  (%579, %580, meta[relay.Constant][13] /* ty=Tensor[(840), float32] */)
}

def @func_22205(%var_22194: Tensor[(8, 9, 8), float32]) -> (Tensor[(8, 9, 8), float32],) {
  %581 = cast(%var_22194, dtype="float32") /* ty=Tensor[(8, 9, 8), float32] */;
  %582 = rsqrt(%581) /* ty=Tensor[(8, 9, 8), float32] */;
  (%582,)
}

def @func_32263() -> (Tensor[(15, 16, 4), float32], Tensor[(5, 14, 3), float32], Tensor[(5, 14, 3), float32], Tensor[(5, 14, 3), float32], Tensor[(15, 16, 4), uint32], Tensor[(5, 14, 3), float32]) {
  %583 = @func_4164() /* ty=(Tensor[(15, 16, 4), float32], Tensor[(5, 14, 3), float32], Tensor[(5, 14, 3), float64]) */;
  %584 = @func_19786() /* ty=(Tensor[(5, 14, 3), float32],) */;
  %585 = @func_8276() /* ty=(Tensor[(5, 14, 3), float32], Tensor[(5, 14, 3), float32]) */;
  %586 = @func_19786() /* ty=(Tensor[(5, 14, 3), float32],) */;
  %587 = @func_5773() /* ty=(Tensor[(15, 16, 4), float32], Tensor[(5, 14, 3), float32], Tensor[(15, 16, 4), uint32]) */;
  %588 = @func_22100() /* ty=(Tensor[(5, 14, 3), float32], Tensor[(15, 16, 4), uint32], Tensor[(5, 14, 3), float32], Tensor[(5, 14, 3), float32]) */;
  %589 = %583.0;
  %590 = %584.0;
  %591 = %585.1;
  %592 = %586.0;
  %593 = %587.2;
  %594 = %588.0;
  (%589, %590, %591, %592, %593, %594)
}

def @func_24629() -> (Tensor[(15, 16, 4), float32],) {
  %595 = @func_15527() /* ty=Tensor[(15, 16, 4), float32] */;
  (%595,)
}

def @func_3796() -> (Tensor[(5, 14, 3), float32],) {
  %596 = @func_3541() /* ty=(Tensor[(5, 14, 3), float32], Tensor[(5, 14, 3), float32], Tensor[(5, 14, 3), float32]) */;
  %597 = %596.0;
  (%597,)
}

def @func_12800(%var_12770: Tensor[(9, 4, 12), uint32]) -> (Tensor[(9, 4, 12), uint32], Tensor[(5, 14, 3), bool]) {
  %598 = cast(meta[relay.Constant][14] /* ty=uint32 */, dtype="uint32") /* ty=uint32 */;
  %599 = cast(%var_12770, dtype="uint32") /* ty=Tensor[(9, 4, 12), uint32] */;
  %600 = add(%598, %599) /* ty=Tensor[(9, 4, 12), uint32] */;
  %601 = @func_7263() /* ty=Tensor[(5, 14, 3), bool] */;
  (%600, %601)
}

def @func_33119() -> (Tensor[(5, 14, 3), int8], Tensor[(5, 14, 3), float32], Tensor[(5, 14, 3), float32]) {
  %602 = @func_14181() /* ty=(Tensor[(5, 14, 3), int8],) */;
  %603 = @func_17714() /* ty=(Tensor[(5, 14, 3), float32], Tensor[(5, 14, 3), float32], Tensor[(5, 14, 3), float32], Tensor[(5, 14, 3), float32]) */;
  %604 = @func_31974() /* ty=(Tensor[(5, 14, 3), float32],) */;
  %605 = %602.0;
  %606 = %603.2;
  %607 = %604.0;
  (%605, %606, %607)
}

def @func_26315() -> Tensor[(5, 14, 3), float32] {
  %608 = @func_12879() /* ty=(Tensor[(5, 14, 3), float32], Tensor[(5, 14, 3), int8]) */;
  %608.0
}

def @func_4455() -> (Tensor[(5, 14, 3), float32], Tensor[(5, 14, 3), float32], Tensor[(15, 16, 4), float32]) {
  %609 = @func_467() /* ty=(Tensor[(5, 14, 3), float32],) */;
  %610 = @func_855() /* ty=(Tensor[(5, 14, 3), float32], Tensor[(5, 14, 3), float32]) */;
  %611 = @func_4164() /* ty=(Tensor[(15, 16, 4), float32], Tensor[(5, 14, 3), float32], Tensor[(5, 14, 3), float64]) */;
  %612 = %609.0;
  %613 = %610.1;
  %614 = %611.0;
  (%612, %613, %614)
}

def @func_7824(%var_7814: Tensor[(14, 6, 11), float64]) -> (Tensor[(14, 6, 11), float64],) {
  %615 = cast(%var_7814, dtype="float64") /* ty=Tensor[(14, 6, 11), float64] */;
  %616 = asinh(%615) /* ty=Tensor[(14, 6, 11), float64] */;
  (%616,)
}

def @func_28478() -> (Tensor[(5, 14, 3), bool], Tensor[(5, 14, 3), float32], Tensor[(5, 14, 3), bool]) {
  %617 = @func_3329() /* ty=(Tensor[(15, 16, 4), float32], Tensor[(5, 14, 3), float32], Tensor[(5, 14, 3), bool]) */;
  %618 = @func_3382() /* ty=(Tensor[(5, 14, 3), float32],) */;
  %619 = @func_11139() /* ty=(Tensor[(5, 14, 3), float32], Tensor[(5, 14, 3), bool]) */;
  %620 = %617.2;
  %621 = %618.0;
  %622 = %619.1;
  (%620, %621, %622)
}

def @func_25675() -> (Tensor[(5, 14, 3), float32], Tensor[(5, 14, 3), float32]) {
  %623 = @func_15884() /* ty=(Tensor[(5, 14, 3), bool], Tensor[(5, 14, 3), float32]) */;
  %624 = %623.1;
  %625 = @func_4350() /* ty=Tensor[(5, 14, 3), float32] */;
  (%624, %625)
}

def @func_18101() -> (Tensor[(5, 14, 3), float32], Tensor[(5, 14, 3), float32]) {
  %626 = @func_16537() /* ty=(Tensor[(5, 14, 3), float32],) */;
  %627 = %626.0;
  %628 = @func_2364() /* ty=Tensor[(5, 14, 3), float32] */;
  (%627, %628)
}

def @func_22995(%var_22953: uint16) -> (Tensor[(5, 14, 3), float32], Tensor[(5, 14, 3), float32], Tensor[(5, 14, 3), float32], uint16, Tensor[(12870), float32], Tensor[(5, 14, 3), float32], Tensor[(5, 14, 3), float32], Tensor[(5, 14, 3), float32]) {
  %629 = @func_20897() /* ty=(Tensor[(5, 14, 3), float32], Tensor[(5, 14, 3), float32]) */;
  %630 = cast(%var_22953, dtype="uint16") /* ty=uint16 */;
  %631 = cast(meta[relay.Constant][15] /* ty=Tensor[(12870), float32] */, dtype="float32") /* ty=Tensor[(12870), float32] */;
  %632 = cast(meta[relay.Constant][15] /* ty=Tensor[(12870), float32] */, dtype="float64") /* ty=Tensor[(12870), float64] */;
  %633 = reshape(%630, newshape=[]) /* ty=uint16 */;
  %634 = reshape(%631, newshape=[1430, 9]) /* ty=Tensor[(1430, 9), float32] */;
  %635 = reshape(%632, newshape=[1430, 9]) /* ty=Tensor[(1430, 9), float64] */;
  %636 = @func_13819(%633, %634, %635) /* ty=(Tensor[(5, 14, 3), float32], uint16, uint16, Tensor[(5, 14, 3), float32], Tensor[(5, 14, 3), float32], Tensor[(1430), float64], Tensor[(1430, 9), bool], Tensor[(1430, 9), bool], Tensor[(1430, 9), float64]) */;
  %637 = @func_5773() /* ty=(Tensor[(15, 16, 4), float32], Tensor[(5, 14, 3), float32], Tensor[(15, 16, 4), uint32]) */;
  %638 = @func_9877() /* ty=Tensor[(5, 14, 3), float32] */;
  %639 = %629.0;
  %640 = %636.4;
  %641 = @func_6857() /* ty=Tensor[(5, 14, 3), float32] */;
  %642 = %637.1;
  %643 = @func_13218() /* ty=Tensor[(5, 14, 3), float32] */;
  (%638, %639, %640, %var_22953, meta[relay.Constant][15] /* ty=Tensor[(12870), float32] */, %641, %642, %643)
}

def @func_23844() -> (Tensor[(5, 14, 3), float32], Tensor[(14, 6, 12), bool]) {
  %644 = @func_19397() /* ty=(Tensor[(5, 14, 3), float32], Tensor[(15, 16, 4), float32], Tensor[(5, 14, 3), float32], Tensor[(14, 6, 12), bool], Tensor[(1008), uint8]) */;
  %645 = @func_8645() /* ty=Tensor[(5, 14, 3), float32] */;
  %646 = %644.3;
  (%645, %646)
}

def @func_2853() -> (Tensor[(5, 14, 3), float32],) {
  %647 = @func_2512() /* ty=Tensor[(5, 14, 3), float32] */;
  (%647,)
}

def @func_8276() -> (Tensor[(5, 14, 3), float32], Tensor[(5, 14, 3), float32]) {
  %648 = @func_1912() /* ty=(Tensor[(5, 14, 3), float32],) */;
  %649 = @func_6842() /* ty=(Tensor[(5, 14, 3), float32], Tensor[(5, 14, 3), float32], Tensor[(5, 14, 3), float32], Tensor[(5, 14, 3), float64]) */;
  %650 = %648.0;
  %651 = %649.2;
  (%650, %651)
}

def @func_21237() -> (Tensor[(5, 14, 3), float32], Tensor[(5, 14, 3), float32]) {
  %652 = @func_5149() /* ty=(Tensor[(5, 14, 3), float32], Tensor[(5, 14, 3), float32], Tensor[(15, 16, 4), float32]) */;
  %653 = @func_17331() /* ty=Tensor[(5, 14, 3), float32] */;
  %654 = %652.1;
  (%653, %654)
}

def @func_21992() -> Tensor[(5, 14, 3), float32] {
  %655 = @func_12738() /* ty=(Tensor[(5, 14, 3), float32], Tensor[(5, 14, 3), float32], Tensor[(1430, 1), float64]) */;
  %655.0
}

def @func_31460() -> (Tensor[(5, 14, 3), float32], uint16) {
  %656 = @func_28268() /* ty=(uint16, Tensor[(5, 14, 3), float32]) */;
  %657 = @func_17729() /* ty=Tensor[(5, 14, 3), float32] */;
  %658 = %656.0;
  (%657, %658)
}

def @func_23619() -> (Tensor[(5, 14, 3), float32],) {
  %659 = @func_1365() /* ty=(Tensor[(5, 14, 3), float32], Tensor[(1430), float64], Tensor[(10, 13, 11), float64], Tensor[(5, 14, 3), float32], Tensor[(5, 14, 3), float64], Tensor[(5, 14, 3), float32], Tensor[(5, 14, 3), float32]) */;
  %660 = %659.5;
  (%660,)
}

def @func_5849() -> (Tensor[(5, 14, 3), float32], Tensor[(5, 14, 3), float32]) {
  %661 = @func_3742() /* ty=(Tensor[(5, 14, 3), float32],) */;
  %662 = %661.0;
  %663 = @func_5029() /* ty=Tensor[(5, 14, 3), float32] */;
  (%662, %663)
}

def @func_5842() -> Tensor[(5, 14, 3), float32] {
  %664 = @func_5387() /* ty=(Tensor[(5, 14, 3), float32], Tensor[(5, 14, 3), float32], Tensor[(5, 14, 3), bool], Tensor[(5, 14, 3), float32]) */;
  %664.3
}

def @func_26673() -> (Tensor[(5, 14, 3), float32], Tensor[(5, 14, 3), bool], Tensor[(12870), float32], Tensor[(5, 14, 3), int8]) {
  %665 = @func_15440() /* ty=(Tensor[(5, 14, 3), float32], Tensor[(5, 14, 3), float32], Tensor[(5, 14, 3), float64]) */;
  %666 = cast(meta[relay.Constant][16] /* ty=Tensor[(12870), float32] */, dtype="float32") /* ty=Tensor[(12870), float32] */;
  %667 = reshape(%666, newshape=[12870]) /* ty=Tensor[(12870), float32] */;
  %668 = @func_14268(%667) /* ty=(Tensor[(5, 14, 3), bool], uint16, uint16, Tensor[(5, 14, 3), float32], Tensor[(5, 14, 3), bool], Tensor[(12870), float64]) */;
  %669 = @func_8715() /* ty=(Tensor[(5, 14, 3), float32], Tensor[(5, 14, 3), int8], Tensor[(5, 14, 3), float32]) */;
  %670 = %665.1;
  %671 = %668.0;
  %672 = %669.1;
  (%670, %671, meta[relay.Constant][16] /* ty=Tensor[(12870), float32] */, %672)
}

def @func_9235() -> (Tensor[(143, 10), float64],) {
  %673 = @func_2336() /* ty=(Tensor[(5, 14, 3), int8], Tensor[(5, 14, 3), float64], Tensor[(5, 14, 3), float32], Tensor[(143, 10), float64]) */;
  %674 = %673.3;
  (%674,)
}

def @func_23713(%var_23704: Tensor[(588), int64]) -> (Tensor[(5, 14, 3), int8], Tensor[(7, 6, 14), int64], Tensor[(588), int64]) {
  %675 = @func_10293() /* ty=(Tensor[(5, 14, 3), float32], Tensor[(5, 14, 3), int8]) */;
  %676 = cast(%var_23704, dtype="int64") /* ty=Tensor[(588), int64] */;
  %677 = cast(%var_23704, dtype="int64") /* ty=Tensor[(588), int64] */;
  %678 = reshape(%676, newshape=[7, 6, 14]) /* ty=Tensor[(7, 6, 14), int64] */;
  %679 = reshape(%677, newshape=[7, 6, 14]) /* ty=Tensor[(7, 6, 14), int64] */;
  %680 = @func_17102(%678, %679) /* ty=(Tensor[(7, 6, 14), int64], Tensor[(5, 14, 3), float32], Tensor[(5, 14, 3), float32], Tensor[(1430), float64], Tensor[(5, 14, 3), float32]) */;
  %681 = %675.1;
  %682 = %680.0;
  (%681, %682, %var_23704)
}

def @func_9034() -> (Tensor[(5, 14, 3), float32], Tensor[(5, 14, 3), float32]) {
  %683 = @func_3796() /* ty=(Tensor[(5, 14, 3), float32],) */;
  %684 = @func_7641() /* ty=(Tensor[(5, 14, 3), float32], Tensor[(15, 16, 4), float32]) */;
  %685 = %683.0;
  %686 = %684.0;
  (%685, %686)
}

def @func_18887() -> (Tensor[(5, 14, 3), float32], Tensor[(5, 14, 3), float32], Tensor[(5, 14, 3), float32]) {
  %687 = @func_15490() /* ty=(Tensor[(5, 14, 3), float32], Tensor[(5, 14, 3), float32]) */;
  %688 = @func_7319() /* ty=(Tensor[(5, 14, 3), float32], Tensor[(5, 14, 3), float32]) */;
  %689 = @func_10363() /* ty=(Tensor[(5, 14, 3), bool], Tensor[(5, 14, 3), float32]) */;
  %690 = %687.0;
  %691 = %688.0;
  %692 = %689.1;
  (%690, %691, %692)
}

def @func_29151() -> (Tensor[(5, 14, 3), float32], Tensor[(5, 14, 3), float32]) {
  %693 = @func_4455() /* ty=(Tensor[(5, 14, 3), float32], Tensor[(5, 14, 3), float32], Tensor[(15, 16, 4), float32]) */;
  %694 = @func_9034() /* ty=(Tensor[(5, 14, 3), float32], Tensor[(5, 14, 3), float32]) */;
  %695 = %693.0;
  %696 = %694.0;
  (%695, %696)
}

def @func_467() -> (Tensor[(5, 14, 3), float32],) {
  %697 = cast(meta[relay.Constant][17] /* ty=Tensor[(5, 14, 3), float32] */, dtype="float32") /* ty=Tensor[(5, 14, 3), float32] */;
  %698 = sqrt(%697) /* ty=Tensor[(5, 14, 3), float32] */;
  (%698,)
}

def @func_24523(%var_24412: Tensor[(2, 15, 10), float64], %var_24413: Tensor[(2, 15, 10), float64], %var_24460: Tensor[(960), float32], %var_24511: Tensor[(1430), float64]) -> (Tensor[(2, 15, 10), float64], Tensor[(5, 14, 3), float32], Tensor[(5, 14, 3), float32], Tensor[(15, 16, 4), uint32], Tensor[(960), float32], Tensor[(5, 14, 3), float32], Tensor[(5, 14, 3), float32], Tensor[(5, 14, 3), float32], Tensor[(5, 14, 3), int8], Tensor[(11, 130), int64], Tensor[(1430), float64]) {
  %699 = cast(%var_24413, dtype="float64") /* ty=Tensor[(2, 15, 10), float64] */;
  %700 = shape_of(%var_24412, dtype="int32") /* ty=Tensor[(3), int32] */;
  %701 = cast(%var_24412, dtype="float64") /* ty=Tensor[(2, 15, 10), float64] */;
  %702 = dyn.reshape(%699, %700, newshape=[]) /* ty=Tensor[(?, ?, ?), float64] */;
  %703 = @func_5934() /* ty=(Tensor[(5, 14, 3), bool], Tensor[(5, 14, 3), float32], Tensor[(1430), float32], Tensor[(5, 14, 3), float32]) */;
  %704 = @func_11139() /* ty=(Tensor[(5, 14, 3), float32], Tensor[(5, 14, 3), bool]) */;
  %705 = cast(%var_24460, dtype="float32") /* ty=Tensor[(960), float32] */;
  %706 = reshape(%705, newshape=[15, 16, 4]) /* ty=Tensor[(15, 16, 4), float32] */;
  %707 = @func_3929(%706) /* ty=(Tensor[(15, 16, 4), uint32],) */;
  %708 = @func_5149() /* ty=(Tensor[(5, 14, 3), float32], Tensor[(5, 14, 3), float32], Tensor[(15, 16, 4), float32]) */;
  %709 = @func_3700() /* ty=(Tensor[(5, 14, 3), float32], Tensor[(5, 14, 3), bool], Tensor[(5, 14, 3), float32]) */;
  %710 = @func_3434() /* ty=(Tensor[(5, 14, 3), float32],) */;
  %711 = cast(%var_24511, dtype="float64") /* ty=Tensor[(1430), float64] */;
  %712 = cast(%var_24511, dtype="float64") /* ty=Tensor[(1430), float64] */;
  %713 = reshape(%711, newshape=[11, 130]) /* ty=Tensor[(11, 130), float64] */;
  %714 = reshape(%712, newshape=[11, 130]) /* ty=Tensor[(11, 130), float64] */;
  %715 = @func_7771(%713, %714) /* ty=(Tensor[(5, 14, 3), float32], Tensor[(5, 14, 3), float32], Tensor[(11, 130), int64], Tensor[(143, 10), uint16], Tensor[(11, 130), bool], Tensor[(11, 130), bool]) */;
  %716 = divide(%701, %702) /* ty=Tensor[(2, 15, 10), float64] */;
  %717 = %703.1;
  %718 = %704.0;
  %719 = %707.0;
  %720 = %708.0;
  %721 = %709.2;
  %722 = %710.0;
  %723 = @func_20142() /* ty=Tensor[(5, 14, 3), int8] */;
  %724 = %715.2;
  (%716, %717, %718, %719, %var_24460, %720, %721, %722, %723, %724, %var_24511)
}

def @func_1923() -> Tensor[(5, 14, 3), float32] {
  %725 = @func_1870() /* ty=(Tensor[(5, 14, 3), float32],) */;
  %725.0
}

def @func_21503() -> (Tensor[(5, 14, 3), float32], Tensor[(5, 14, 3), float32], Tensor[(5, 14, 3), float32]) {
  %726 = @func_12279() /* ty=(Tensor[(5, 14, 3), float32], Tensor[(5, 14, 3), float32]) */;
  %727 = @func_3742() /* ty=(Tensor[(5, 14, 3), float32],) */;
  %728 = @func_18101() /* ty=(Tensor[(5, 14, 3), float32], Tensor[(5, 14, 3), float32]) */;
  %729 = %726.1;
  %730 = %727.0;
  %731 = %728.1;
  (%729, %730, %731)
}

def @func_11621() -> (Tensor[(5, 14, 3), bool], Tensor[(5, 14, 3), float32], Tensor[(5, 14, 3), float32], Tensor[(5, 14, 3), float32], Tensor[(5, 14, 3), float32]) {
  %732 = @func_2566() /* ty=(Tensor[(5, 14, 3), bool],) */;
  %733 = @func_5047() /* ty=(Tensor[(5, 14, 3), float32],) */;
  %734 = @func_9786() /* ty=(Tensor[(5, 14, 3), float32], Tensor[(5, 14, 3), float32]) */;
  %735 = @func_10826() /* ty=(Tensor[(5, 14, 3), float32], Tensor[(5, 14, 3), int8], Tensor[(5, 14, 3), float32]) */;
  %736 = @func_8114() /* ty=(Tensor[(5, 14, 3), float32], Tensor[(5, 14, 3), float32]) */;
  %737 = %732.0;
  %738 = %733.0;
  %739 = %734.1;
  %740 = %735.0;
  %741 = %736.1;
  (%737, %738, %739, %740, %741)
}

def @func_25611(%var_25581: Tensor[(7, 2, 4), int16]) -> (Tensor[(7, 2, 4), int16], Tensor[(7, 2, 4), bool]) {
  %742 = cast(%var_25581, dtype="int16") /* ty=Tensor[(7, 2, 4), int16] */;
  %743 = shape_of(meta[relay.Constant][18] /* ty=Tensor[(7, 2, 4), int16] */, dtype="int32") /* ty=Tensor[(3), int32] */;
  %744 = cast(meta[relay.Constant][18] /* ty=Tensor[(7, 2, 4), int16] */, dtype="int16") /* ty=Tensor[(7, 2, 4), int16] */;
  %745 = dyn.reshape(%742, %743, newshape=[]) /* ty=Tensor[(?, ?, ?), int16] */;
  %746 = cast(%var_25581, dtype="bool") /* ty=Tensor[(7, 2, 4), bool] */;
  %747 = shape_of(meta[relay.Constant][18] /* ty=Tensor[(7, 2, 4), int16] */, dtype="int32") /* ty=Tensor[(3), int32] */;
  %748 = cast(meta[relay.Constant][18] /* ty=Tensor[(7, 2, 4), int16] */, dtype="bool") /* ty=Tensor[(7, 2, 4), bool] */;
  %749 = dyn.reshape(%746, %747, newshape=[]) /* ty=Tensor[(?, ?, ?), bool] */;
  %750 = maximum(%744, %745) /* ty=Tensor[(7, 2, 4), int16] */;
  %751 = less_equal(%748, %749) /* ty=Tensor[(7, 2, 4), bool] */;
  (%750, %751)
}

def @func_16883() -> Tensor[(5, 14, 3), float32] {
  %752 = @func_2853() /* ty=(Tensor[(5, 14, 3), float32],) */;
  %752.0
}

def @func_8852() -> (Tensor[(5, 14, 3), float32],) {
  %753 = @func_2014() /* ty=(Tensor[(5, 14, 3), float32],) */;
  %754 = %753.0;
  (%754,)
}

def @func_27417() -> Tensor[(5, 14, 3), float32] {
  @func_18562() /* ty=Tensor[(5, 14, 3), float32] */
}

def @func_19149(%var_19091: Tensor[(5, 6, 4), float64]) -> (Tensor[(5, 6, 4), float64], Tensor[(1430), float64], Tensor[(5, 14, 3), float32], Tensor[(5, 14, 3), int8]) {
  %755 = cast(%var_19091, dtype="float64") /* ty=Tensor[(5, 6, 4), float64] */;
  %756 = @func_9366() /* ty=(Tensor[(1430), float64],) */;
  %757 = @func_5934() /* ty=(Tensor[(5, 14, 3), bool], Tensor[(5, 14, 3), float32], Tensor[(1430), float32], Tensor[(5, 14, 3), float32]) */;
  %758 = @func_5343() /* ty=(Tensor[(5, 14, 3), int8],) */;
  %759 = log2(%755) /* ty=Tensor[(5, 6, 4), float64] */;
  %760 = %756.0;
  %761 = %757.3;
  %762 = %758.0;
  (%759, %760, %761, %762)
}

def @func_25706() -> Tensor[(5, 14, 3), float32] {
  %763 = @func_2603() /* ty=(Tensor[(5, 14, 3), float32],) */;
  %763.0
}

def @func_26761() -> Tensor[(5, 14, 3), float32] {
  %764 = @func_5324() /* ty=(Tensor[(5, 14, 3), float32], Tensor[(5, 14, 3), float32]) */;
  %764.1
}

def @func_3195() -> (Tensor[(5, 14, 3), float32],) {
  %765 = @func_2603() /* ty=(Tensor[(5, 14, 3), float32],) */;
  %766 = %765.0;
  (%766,)
}

def @func_14984() -> Tensor[(5, 14, 3), float32] {
  %767 = @func_5304() /* ty=(Tensor[(5, 14, 3), float32], Tensor[(5, 14, 3), float32]) */;
  %767.1
}

def @func_11222(%var_11218: Tensor[(1430), float64]) -> (Tensor[(5, 14, 3), float32], Tensor[(5, 14, 3), float32], Tensor[(1430), float64]) {
  %768 = @func_3700() /* ty=(Tensor[(5, 14, 3), float32], Tensor[(5, 14, 3), bool], Tensor[(5, 14, 3), float32]) */;
  %769 = cast(%var_11218, dtype="float64") /* ty=Tensor[(1430), float64] */;
  %770 = reshape(%769, newshape=[143, 10]) /* ty=Tensor[(143, 10), float64] */;
  %771 = @func_6676(%770) /* ty=(Tensor[(143, 10), uint16], Tensor[(5, 14, 3), float32], Tensor[(143, 10), float32]) */;
  %772 = %768.2;
  %773 = %771.1;
  (%772, %773, %var_11218)
}

def @func_17150() -> Tensor[(15, 16, 4), float64] {
  %774 = @func_14952() /* ty=(Tensor[(15, 16, 4), float32],) */;
  %775 = %774.0;
  %776 = cast(%775, dtype="float64") /* ty=Tensor[(15, 16, 4), float64] */;
  sinh(%776) /* ty=Tensor[(15, 16, 4), float64] */
}

def @func_20829() -> (Tensor[(5, 14, 3), bool], Tensor[(5, 14, 3), float32]) {
  %777 = @func_9609() /* ty=(Tensor[(5, 14, 3), bool], Tensor[(5, 14, 3), float32]) */;
  %778 = @func_467() /* ty=(Tensor[(5, 14, 3), float32],) */;
  %779 = %777.0;
  %780 = %778.0;
  (%779, %780)
}

def @func_12161() -> (Tensor[(5, 14, 3), float32],) {
  %781 = @func_3382() /* ty=(Tensor[(5, 14, 3), float32],) */;
  %782 = %781.0;
  (%782,)
}

def @func_28129() -> (Tensor[(5, 14, 3), int8],) {
  %783 = @func_23083() /* ty=(Tensor[(1008), uint8], Tensor[(5, 14, 3), int8]) */;
  %784 = %783.1;
  (%784,)
}

def @func_22345() -> (Tensor[(5, 14, 3), float32], Tensor[(5, 14, 3), float64], Tensor[(5, 14, 3), float32], Tensor[(5, 14, 3), float32], Tensor[(5, 14, 3), bool], Tensor[(143, 10), float64]) {
  %785 = @func_17647() /* ty=(Tensor[(5, 14, 3), float64],) */;
  %786 = @func_3742() /* ty=(Tensor[(5, 14, 3), float32],) */;
  %787 = @func_8559() /* ty=(Tensor[(5, 14, 3), float32], Tensor[(5, 14, 3), float32]) */;
  %788 = cast(meta[relay.Constant][19] /* ty=Tensor[(143, 10), float64] */, dtype="float64") /* ty=Tensor[(143, 10), float64] */;
  %789 = reshape(%788, newshape=[1430]) /* ty=Tensor[(1430), float64] */;
  %790 = @func_6340(%789) /* ty=(Tensor[(5, 14, 3), int8], Tensor[(5, 14, 3), float32], Tensor[(5, 14, 3), int8], Tensor[(5, 14, 3), float32], Tensor[(5, 14, 3), float32], Tensor[(5, 14, 3), float32], Tensor[(5, 14, 3), bool], Tensor[(5, 14, 3), float32], Tensor[(1430), float64]) */;
  %791 = @func_13218() /* ty=Tensor[(5, 14, 3), float32] */;
  %792 = %785.0;
  %793 = %786.0;
  %794 = %787.1;
  %795 = %790.6;
  (%791, %792, %793, %794, %795, meta[relay.Constant][19] /* ty=Tensor[(143, 10), float64] */)
}

def @func_15884() -> (Tensor[(5, 14, 3), bool], Tensor[(5, 14, 3), float32]) {
  %796 = @func_5832() /* ty=Tensor[(5, 14, 3), bool] */;
  %797 = @func_6180() /* ty=Tensor[(5, 14, 3), float32] */;
  (%796, %797)
}

def @func_7243() -> (Tensor[(5, 14, 3), float32], Tensor[(5, 14, 3), float32], Tensor[(5, 14, 3), float32], Tensor[(5, 14, 3), float32]) {
  %798 = @func_7157() /* ty=(Tensor[(5, 14, 3), float32], Tensor[(5, 14, 3), float32]) */;
  %799 = @func_2014() /* ty=(Tensor[(5, 14, 3), float32],) */;
  %800 = @func_6499() /* ty=(Tensor[(5, 14, 3), float32], Tensor[(5, 14, 3), float32]) */;
  %801 = @func_2553() /* ty=(Tensor[(5, 14, 3), float32], Tensor[(5, 14, 3), float32]) */;
  %802 = %798.1;
  %803 = %799.0;
  %804 = %800.0;
  %805 = %801.1;
  (%802, %803, %804, %805)
}

def @func_10110() -> (Tensor[(5, 14, 3), float32], Tensor[(5, 14, 3), float32]) {
  %806 = @func_7243() /* ty=(Tensor[(5, 14, 3), float32], Tensor[(5, 14, 3), float32], Tensor[(5, 14, 3), float32], Tensor[(5, 14, 3), float32]) */;
  %807 = @func_2603() /* ty=(Tensor[(5, 14, 3), float32],) */;
  %808 = %806.1;
  %809 = %807.0;
  (%808, %809)
}

def @func_13134() -> (Tensor[(5, 14, 3), float32],) {
  %810 = @func_1995() /* ty=(Tensor[(5, 14, 3), float32],) */;
  %811 = %810.0;
  (%811,)
}

def @func_18261() -> Tensor[(5, 14, 3), float32] {
  %812 = @func_855() /* ty=(Tensor[(5, 14, 3), float32], Tensor[(5, 14, 3), float32]) */;
  %812.1
}

def @func_18853() -> (Tensor[(5, 14, 3), float32],) {
  %813 = @func_4205() /* ty=(Tensor[(5, 14, 3), float32],) */;
  %814 = %813.0;
  (%814,)
}

def @func_7665() -> (Tensor[(5, 14, 3), float32],) {
  %815 = @func_3329() /* ty=(Tensor[(15, 16, 4), float32], Tensor[(5, 14, 3), float32], Tensor[(5, 14, 3), bool]) */;
  %816 = %815.1;
  (%816,)
}

def @func_453(%var_409: Tensor[(14, 6, 12), uint8], %var_410: Tensor[(14, 6, 12), uint8]) -> (Tensor[(14, 6, 12), bool], Tensor[(14, 6, 12), float64]) {
  %817 = cast(%var_410, dtype="bool") /* ty=Tensor[(14, 6, 12), bool] */;
  %818 = shape_of(%var_409, dtype="int32") /* ty=Tensor[(3), int32] */;
  %819 = cast(%var_409, dtype="bool") /* ty=Tensor[(14, 6, 12), bool] */;
  %820 = dyn.reshape(%817, %818, newshape=[]) /* ty=Tensor[(?, ?, ?), bool] */;
  %821 = cast(%var_410, dtype="float64") /* ty=Tensor[(14, 6, 12), float64] */;
  %822 = equal(%819, %820) /* ty=Tensor[(14, 6, 12), bool] */;
  %823 = erf(%821) /* ty=Tensor[(14, 6, 12), float64] */;
  (%822, %823)
}

def @func_31494() -> (Tensor[(5, 14, 3), float32],) {
  %824 = @func_11411() /* ty=(Tensor[(5, 14, 3), float32], Tensor[(5, 14, 3), float32]) */;
  %825 = %824.1;
  (%825,)
}

def @func_10956() -> (Tensor[(1430), float64], Tensor[(5, 14, 3), float32]) {
  %826 = @func_9366() /* ty=(Tensor[(1430), float64],) */;
  %827 = @func_2553() /* ty=(Tensor[(5, 14, 3), float32], Tensor[(5, 14, 3), float32]) */;
  %828 = %826.0;
  %829 = %827.1;
  (%828, %829)
}

def @func_17714() -> (Tensor[(5, 14, 3), float32], Tensor[(5, 14, 3), float32], Tensor[(5, 14, 3), float32], Tensor[(5, 14, 3), float32]) {
  %830 = @func_16222() /* ty=(Tensor[(5, 14, 3), float32],) */;
  %831 = @func_12523() /* ty=(Tensor[(5, 14, 3), float32], Tensor[(1430), float32]) */;
  %832 = @func_16042() /* ty=(Tensor[(5, 14, 3), float32], Tensor[(5, 14, 3), float32]) */;
  %833 = @func_8339() /* ty=(Tensor[(5, 14, 3), float32], Tensor[(5, 14, 3), float32]) */;
  %834 = %830.0;
  %835 = %831.0;
  %836 = %832.0;
  %837 = %833.1;
  (%834, %835, %836, %837)
}

def @func_18930() -> (Tensor[(5, 14, 3), float32],) {
  %838 = @func_5934() /* ty=(Tensor[(5, 14, 3), bool], Tensor[(5, 14, 3), float32], Tensor[(1430), float32], Tensor[(5, 14, 3), float32]) */;
  %839 = %838.1;
  (%839,)
}

def @func_27345(%var_27284: Tensor[(1, 5, 11), float64]) -> (Tensor[(1, 5, 11), float64], Tensor[(5, 14, 3), float32], Tensor[(5, 14, 3), int8], Tensor[(5, 14, 3), float32], Tensor[(5, 14, 3), float32]) {
  %840 = cast(%var_27284, dtype="float64") /* ty=Tensor[(1, 5, 11), float64] */;
  %841 = @func_19786() /* ty=(Tensor[(5, 14, 3), float32],) */;
  %842 = %841.0;
  %843 = cast(%842, dtype="float32") /* ty=Tensor[(5, 14, 3), float32] */;
  %844 = reshape(%843, newshape=[5, 14, 3]) /* ty=Tensor[(5, 14, 3), float32] */;
  %845 = @func_5520() /* ty=(Tensor[(15, 16, 4), float32], Tensor[(5, 14, 3), float32]) */;
  %846 = sigmoid(%840) /* ty=Tensor[(1, 5, 11), float64] */;
  %847 = @func_580(%844) /* ty=Tensor[(5, 14, 3), int8] */;
  %848 = %845.1;
  %849 = @func_25263() /* ty=Tensor[(5, 14, 3), float32] */;
  (%846, %842, %847, %848, %849)
}

def @func_9008() -> (Tensor[(5, 14, 3), float32], Tensor[(5, 14, 3), float32]) {
  %850 = @func_2014() /* ty=(Tensor[(5, 14, 3), float32],) */;
  %851 = @func_1923() /* ty=Tensor[(5, 14, 3), float32] */;
  %852 = %850.0;
  (%851, %852)
}

def @func_21361() -> (Tensor[(5, 14, 3), float32],) {
  %853 = @func_13574() /* ty=(Tensor[(5, 14, 3), float32],) */;
  %854 = %853.0;
  (%854,)
}

def @func_5029() -> Tensor[(5, 14, 3), float32] {
  %855 = @func_3541() /* ty=(Tensor[(5, 14, 3), float32], Tensor[(5, 14, 3), float32], Tensor[(5, 14, 3), float32]) */;
  %855.0
}

def @func_18649() -> (Tensor[(5, 14, 3), int8], Tensor[(5, 14, 3), float32]) {
  %856 = @func_5440() /* ty=(Tensor[(5, 14, 3), int8],) */;
  %857 = @func_5324() /* ty=(Tensor[(5, 14, 3), float32], Tensor[(5, 14, 3), float32]) */;
  %858 = %856.0;
  %859 = %857.0;
  (%858, %859)
}

def @func_16247() -> (Tensor[(5, 14, 3), float32], Tensor[(5, 14, 3), float32]) {
  %860 = @func_5202() /* ty=(Tensor[(5, 14, 3), float32],) */;
  %861 = @func_5324() /* ty=(Tensor[(5, 14, 3), float32], Tensor[(5, 14, 3), float32]) */;
  %862 = %860.0;
  %863 = %861.0;
  (%862, %863)
}

def @func_24148(%var_24121: Tensor[(143, 10), float64]) -> (Tensor[(5, 14, 3), float32], Tensor[(143, 10), uint16], Tensor[(5, 14, 3), float32], Tensor[(5, 14, 3), float32], Tensor[(5, 14, 3), int8], Tensor[(143, 10), bool], Tensor[(5, 14, 3), float64]) {
  %864 = @func_23682() /* ty=(Tensor[(5, 14, 3), float32],) */;
  %865 = @func_9235() /* ty=(Tensor[(143, 10), float64],) */;
  %866 = %865.0;
  %867 = cast(meta[relay.Constant][20] /* ty=Tensor[(143, 10), float64] */, dtype="uint16") /* ty=Tensor[(143, 10), uint16] */;
  %868 = shape_of(%866, dtype="int32") /* ty=Tensor[(2), int32] */;
  %869 = cast(%866, dtype="uint16") /* ty=Tensor[(143, 10), uint16] */;
  %870 = dyn.reshape(%867, %868, newshape=[]) /* ty=Tensor[(?, ?), uint16] */;
  %871 = @func_5934() /* ty=(Tensor[(5, 14, 3), bool], Tensor[(5, 14, 3), float32], Tensor[(1430), float32], Tensor[(5, 14, 3), float32]) */;
  %872 = @func_3195() /* ty=(Tensor[(5, 14, 3), float32],) */;
  %873 = @func_6095() /* ty=(Tensor[(15, 16, 4), float32], Tensor[(5, 14, 3), int8], Tensor[(5, 14, 3), float32]) */;
  %874 = cast(%var_24121, dtype="bool") /* ty=Tensor[(143, 10), bool] */;
  %875 = shape_of(meta[relay.Constant][20] /* ty=Tensor[(143, 10), float64] */, dtype="int32") /* ty=Tensor[(2), int32] */;
  %876 = cast(meta[relay.Constant][20] /* ty=Tensor[(143, 10), float64] */, dtype="bool") /* ty=Tensor[(143, 10), bool] */;
  %877 = dyn.reshape(%874, %875, newshape=[]) /* ty=Tensor[(?, ?), bool] */;
  %878 = @func_1365() /* ty=(Tensor[(5, 14, 3), float32], Tensor[(1430), float64], Tensor[(10, 13, 11), float64], Tensor[(5, 14, 3), float32], Tensor[(5, 14, 3), float64], Tensor[(5, 14, 3), float32], Tensor[(5, 14, 3), float32]) */;
  %879 = %864.0;
  %880 = minimum(%869, %870) /* ty=Tensor[(143, 10), uint16] */;
  %881 = %871.3;
  %882 = %872.0;
  %883 = %873.1;
  %884 = logical_or(%876, %877) /* ty=Tensor[(143, 10), bool] */;
  %885 = %878.4;
  (%879, %880, %881, %882, %883, %884, %885)
}

def @func_31384() -> (Tensor[(5, 14, 3), float32], Tensor[(5, 14, 3), float32]) {
  %886 = @func_20512() /* ty=Tensor[(5, 14, 3), float32] */;
  %887 = @func_29569() /* ty=Tensor[(5, 14, 3), float32] */;
  (%886, %887)
}

def @func_18311(%var_18300: Tensor[(72), uint16]) -> (Tensor[(5, 14, 3), float32], Tensor[(5, 14, 3), float32], Tensor[(5, 14, 3), float32], Tensor[(72), uint16]) {
  %888 = @func_4492() /* ty=(Tensor[(5, 14, 3), float32], Tensor[(15, 16, 4), float32], Tensor[(5, 14, 3), bool]) */;
  %889 = cast(%var_18300, dtype="uint16") /* ty=Tensor[(72), uint16] */;
  %890 = reshape(%889, newshape=[72]) /* ty=Tensor[(72), uint16] */;
  %891 = @func_15215(%890) /* ty=(Tensor[(5, 14, 3), float32], Tensor[(5, 14, 3), float32], Tensor[(5, 14, 3), float32], uint16, Tensor[(72), uint16]) */;
  %892 = %888.0;
  %893 = @func_7001() /* ty=Tensor[(5, 14, 3), float32] */;
  %894 = %891.0;
  (%892, %893, %894, %var_18300)
}

def @func_8339() -> (Tensor[(5, 14, 3), float32], Tensor[(5, 14, 3), float32]) {
  %895 = @func_5880() /* ty=(Tensor[(5, 14, 3), float32], Tensor[(5, 14, 3), int8], Tensor[(5, 14, 3), float32]) */;
  %896 = @func_7493() /* ty=(Tensor[(5, 14, 3), float32], Tensor[(5, 14, 3), float32]) */;
  %897 = %895.0;
  %898 = %896.1;
  (%897, %898)
}

def @func_2603() -> (Tensor[(5, 14, 3), float32],) {
  %899 = @func_1923() /* ty=Tensor[(5, 14, 3), float32] */;
  (%899,)
}

def @func_5202() -> (Tensor[(5, 14, 3), float32],) {
  %900 = @func_4091() /* ty=Tensor[(5, 14, 3), float32] */;
  (%900,)
}

def @func_15978(%var_15912: Tensor[(10, 4, 2), int64]) -> (Tensor[(10, 4, 2), uint32], Tensor[(5, 14, 3), float32], Tensor[(10, 4, 2), float64], Tensor[(5, 14, 3), float32], Tensor[(5, 14, 3), uint64]) {
  %901 = cast(meta[relay.Constant][21] /* ty=Tensor[(10, 4, 2), int64] */, dtype="int64") /* ty=Tensor[(10, 4, 2), int64] */;
  %902 = shape_of(%var_15912, dtype="int32") /* ty=Tensor[(3), int32] */;
  %903 = cast(%var_15912, dtype="int64") /* ty=Tensor[(10, 4, 2), int64] */;
  %904 = dyn.reshape(%901, %902, newshape=[]) /* ty=Tensor[(?, ?, ?), int64] */;
  %905 = right_shift(%903, %904) /* ty=Tensor[(10, 4, 2), int64] */;
  %906 = cast(%var_15912, dtype="float64") /* ty=Tensor[(10, 4, 2), float64] */;
  %907 = shape_of(meta[relay.Constant][21] /* ty=Tensor[(10, 4, 2), int64] */, dtype="int32") /* ty=Tensor[(3), int32] */;
  %908 = cast(meta[relay.Constant][21] /* ty=Tensor[(10, 4, 2), int64] */, dtype="float64") /* ty=Tensor[(10, 4, 2), float64] */;
  %909 = dyn.reshape(%906, %907, newshape=[]) /* ty=Tensor[(?, ?, ?), float64] */;
  %910 = floor_divide(%908, %909) /* ty=Tensor[(10, 4, 2), float64] */;
  %911 = cast(%910, dtype="uint32") /* ty=Tensor[(10, 4, 2), uint32] */;
  %912 = shape_of(%905, dtype="int32") /* ty=Tensor[(3), int32] */;
  %913 = cast(%905, dtype="uint32") /* ty=Tensor[(10, 4, 2), uint32] */;
  %914 = dyn.reshape(%911, %912, newshape=[]) /* ty=Tensor[(?, ?, ?), uint32] */;
  %915 = @func_7665() /* ty=(Tensor[(5, 14, 3), float32],) */;
  %916 = cast(%910, dtype="float32") /* ty=Tensor[(10, 4, 2), float32] */;
  %917 = log10(%916) /* ty=Tensor[(10, 4, 2), float32] */;
  %918 = cast(%917, dtype="float64") /* ty=Tensor[(10, 4, 2), float64] */;
  %919 = @func_10882() /* ty=(Tensor[(5, 14, 3), float32],) */;
  %920 = %915.0;
  %921 = cast(%920, dtype="float32") /* ty=Tensor[(5, 14, 3), float32] */;
  %922 = reshape(%921, newshape=[5, 14, 3]) /* ty=Tensor[(5, 14, 3), float32] */;
  %923 = @func_4936(%922) /* ty=(Tensor[(15, 16, 4), float32], Tensor[(5, 14, 3), uint64], Tensor[(5, 14, 3), float32], Tensor[(15, 16, 4), uint32], Tensor[(5, 14, 3), float32], Tensor[(5, 14, 3), float32], Tensor[(5, 14, 3), float32]) */;
  %924 = bitwise_and(%913, %914) /* ty=Tensor[(10, 4, 2), uint32] */;
  %925 = log2(%918) /* ty=Tensor[(10, 4, 2), float64] */;
  %926 = %919.0;
  %927 = %923.1;
  (%924, %920, %925, %926, %927)
}

def @func_20897() -> (Tensor[(5, 14, 3), float32], Tensor[(5, 14, 3), float32]) {
  %928 = @func_498() /* ty=(Tensor[(5, 14, 3), float32],) */;
  %929 = @func_9060() /* ty=Tensor[(5, 14, 3), float32] */;
  %930 = %928.0;
  (%929, %930)
}

def @func_26516() -> (Tensor[(5, 14, 3), float32], Tensor[(5, 14, 3), float32], Tensor[(5, 14, 3), float32]) {
  %931 = @func_20982() /* ty=(Tensor[(5, 14, 3), float32], Tensor[(5, 14, 3), float32], Tensor[(5, 14, 3), float32], uint16, Tensor[(5, 14, 3), float32], Tensor[(15, 16, 4), uint32]) */;
  %932 = @func_13574() /* ty=(Tensor[(5, 14, 3), float32],) */;
  %933 = @func_9171() /* ty=(Tensor[(5, 14, 3), float32],) */;
  %934 = %931.1;
  %935 = %932.0;
  %936 = %933.0;
  (%934, %935, %936)
}

def @func_20982() -> (Tensor[(5, 14, 3), float32], Tensor[(5, 14, 3), float32], Tensor[(5, 14, 3), float32], uint16, Tensor[(5, 14, 3), float32], Tensor[(15, 16, 4), uint32]) {
  %937 = @func_19868() /* ty=(Tensor[(5, 14, 3), float32], Tensor[(5, 14, 3), float32]) */;
  %938 = @func_12599() /* ty=(Tensor[(5, 14, 3), bool], Tensor[(5, 14, 3), float32], Tensor[(5, 14, 3), int16], Tensor[(5, 14, 3), float32]) */;
  %939 = cast(meta[relay.Constant][22] /* ty=uint16 */, dtype="uint16") /* ty=uint16 */;
  %940 = reshape(%939, newshape=[]) /* ty=uint16 */;
  %941 = @func_17954(%940) /* ty=(Tensor[(5, 14, 3), float32], Tensor[(5, 14, 3), float32], Tensor[(5, 14, 3), float32], uint16) */;
  %942 = @func_6095() /* ty=(Tensor[(15, 16, 4), float32], Tensor[(5, 14, 3), int8], Tensor[(5, 14, 3), float32]) */;
  %943 = @func_5773() /* ty=(Tensor[(15, 16, 4), float32], Tensor[(5, 14, 3), float32], Tensor[(15, 16, 4), uint32]) */;
  %944 = %937.1;
  %945 = %938.1;
  %946 = %941.0;
  %947 = %942.2;
  %948 = %943.2;
  (%944, %945, %946, meta[relay.Constant][22] /* ty=uint16 */, %947, %948)
}

def @func_17369() -> (Tensor[(5, 14, 3), float32], Tensor[(5, 14, 3), bool]) {
  %949 = @func_9171() /* ty=(Tensor[(5, 14, 3), float32],) */;
  %950 = @func_3329() /* ty=(Tensor[(15, 16, 4), float32], Tensor[(5, 14, 3), float32], Tensor[(5, 14, 3), bool]) */;
  %951 = %949.0;
  %952 = %950.2;
  (%951, %952)
}

def @func_28268() -> (uint16, Tensor[(5, 14, 3), float32]) {
  %953 = @func_20982() /* ty=(Tensor[(5, 14, 3), float32], Tensor[(5, 14, 3), float32], Tensor[(5, 14, 3), float32], uint16, Tensor[(5, 14, 3), float32], Tensor[(15, 16, 4), uint32]) */;
  %954 = %953.3;
  %955 = @func_11942() /* ty=Tensor[(5, 14, 3), float32] */;
  (%954, %955)
}

def @func_29988() -> (Tensor[(5, 14, 3), float32], Tensor[(5, 14, 3), float32], Tensor[(5, 14, 3), float32]) {
  %956 = @func_18930() /* ty=(Tensor[(5, 14, 3), float32],) */;
  %957 = @func_2853() /* ty=(Tensor[(5, 14, 3), float32],) */;
  %958 = @func_19786() /* ty=(Tensor[(5, 14, 3), float32],) */;
  %959 = %956.0;
  %960 = %957.0;
  %961 = %958.0;
  (%959, %960, %961)
}

def @func_19397() -> (Tensor[(5, 14, 3), float32], Tensor[(15, 16, 4), float32], Tensor[(5, 14, 3), float32], Tensor[(14, 6, 12), bool], Tensor[(1008), uint8]) {
  %962 = @func_2249() /* ty=(Tensor[(5, 14, 3), float32], Tensor[(5, 14, 3), bool], Tensor[(5, 14, 3), float32]) */;
  %963 = @func_14533() /* ty=(Tensor[(15, 16, 4), float32], Tensor[(5, 14, 3), bool], Tensor[(5, 14, 3), float32]) */;
  %964 = @func_10476() /* ty=(Tensor[(5, 14, 3), float32],) */;
  %965 = cast(meta[relay.Constant][23] /* ty=Tensor[(1008), uint8] */, dtype="uint8") /* ty=Tensor[(1008), uint8] */;
  %966 = cast(meta[relay.Constant][23] /* ty=Tensor[(1008), uint8] */, dtype="uint8") /* ty=Tensor[(1008), uint8] */;
  %967 = reshape(%965, newshape=[14, 6, 12]) /* ty=Tensor[(14, 6, 12), uint8] */;
  %968 = reshape(%966, newshape=[14, 6, 12]) /* ty=Tensor[(14, 6, 12), uint8] */;
  %969 = @func_453(%967, %968) /* ty=(Tensor[(14, 6, 12), bool], Tensor[(14, 6, 12), float64]) */;
  %970 = %962.2;
  %971 = %963.0;
  %972 = %964.0;
  %973 = %969.0;
  (%970, %971, %972, %973, meta[relay.Constant][23] /* ty=Tensor[(1008), uint8] */)
}

def @func_17331() -> Tensor[(5, 14, 3), float32] {
  @func_1764() /* ty=Tensor[(5, 14, 3), float32] */
}

def @func_7282() -> (Tensor[(5, 14, 3), float32],) {
  %974 = @func_3987() /* ty=Tensor[(5, 14, 3), float32] */;
  (%974,)
}

def @func_21697() -> (Tensor[(5, 14, 3), float32], Tensor[(15, 16, 4), float64], Tensor[(5, 14, 3), float32]) {
  %975 = @func_2014() /* ty=(Tensor[(5, 14, 3), float32],) */;
  %976 = %975.0;
  %977 = @func_17150() /* ty=Tensor[(15, 16, 4), float64] */;
  %978 = @func_18278() /* ty=Tensor[(5, 14, 3), float32] */;
  (%976, %977, %978)
}

def @func_32365() -> Tensor[(5, 14, 3), float32] {
  %979 = @func_19868() /* ty=(Tensor[(5, 14, 3), float32], Tensor[(5, 14, 3), float32]) */;
  %979.0
}

def @func_27664() -> (Tensor[(5, 14, 3), float32], Tensor[(5, 14, 3), float32], Tensor[(5, 14, 3), float32], Tensor[(5, 14, 3), float32], Tensor[(5, 14, 3), float32], Tensor[(5, 14, 3), float32]) {
  %980 = @func_25964() /* ty=(Tensor[(5, 14, 3), float32],) */;
  %981 = @func_11192() /* ty=(Tensor[(5, 14, 3), float32], Tensor[(5, 14, 3), float32], Tensor[(5, 14, 3), float32]) */;
  %982 = @func_20829() /* ty=(Tensor[(5, 14, 3), bool], Tensor[(5, 14, 3), float32]) */;
  %983 = @func_467() /* ty=(Tensor[(5, 14, 3), float32],) */;
  %984 = @func_2853() /* ty=(Tensor[(5, 14, 3), float32],) */;
  %985 = %980.0;
  %986 = %981.0;
  %987 = %982.1;
  %988 = @func_25661() /* ty=Tensor[(5, 14, 3), float32] */;
  %989 = %983.0;
  %990 = %984.0;
  (%985, %986, %987, %988, %989, %990)
}

def @func_17420() -> (Tensor[(5, 14, 3), float32],) {
  %991 = @func_16122() /* ty=(Tensor[(5, 14, 3), float32], Tensor[(5, 14, 3), int8], Tensor[(5, 14, 3), float32], Tensor[(5, 14, 3), float32]) */;
  %992 = %991.3;
  (%992,)
}

def @func_24758(%var_24751: Tensor[(1430), float64]) -> Tensor[(1430), int32] {
  %993 = @func_9366() /* ty=(Tensor[(1430), float64],) */;
  %994 = %993.0;
  %995 = cast(%var_24751, dtype="int32") /* ty=Tensor[(1430), int32] */;
  %996 = shape_of(%994, dtype="int32") /* ty=Tensor[(1), int32] */;
  %997 = cast(%994, dtype="int32") /* ty=Tensor[(1430), int32] */;
  %998 = dyn.reshape(%995, %996, newshape=[]) /* ty=Tensor[(?), int32] */;
  logical_xor(%997, %998) /* ty=Tensor[(1430), int32] */
}

def @func_22100() -> (Tensor[(5, 14, 3), float32], Tensor[(15, 16, 4), uint32], Tensor[(5, 14, 3), float32], Tensor[(5, 14, 3), float32]) {
  %999 = @func_13383() /* ty=(Tensor[(5, 14, 3), float32],) */;
  %1000 = @func_5773() /* ty=(Tensor[(15, 16, 4), float32], Tensor[(5, 14, 3), float32], Tensor[(15, 16, 4), uint32]) */;
  %1001 = @func_12479() /* ty=(Tensor[(5, 14, 3), float32], Tensor[(5, 14, 3), float32], Tensor[(5, 14, 3), float32], Tensor[(5, 14, 3), bool]) */;
  %1002 = %999.0;
  %1003 = %1000.2;
  %1004 = @func_21992() /* ty=Tensor[(5, 14, 3), float32] */;
  %1005 = %1001.2;
  (%1002, %1003, %1004, %1005)
}

def @func_22476() -> (Tensor[(5, 14, 3), float32], Tensor[(5, 14, 3), float32]) {
  %1006 = @func_13899() /* ty=(Tensor[(5, 14, 3), float32],) */;
  %1007 = %1006.0;
  %1008 = @func_7001() /* ty=Tensor[(5, 14, 3), float32] */;
  (%1007, %1008)
}

def @func_8393(%var_8368: Tensor[(8, 4, 9), float64]) -> (Tensor[(8, 4, 9), float64], Tensor[(5, 14, 3), float32], Tensor[(5, 14, 3), bool]) {
  %1009 = cast(%var_8368, dtype="float64") /* ty=Tensor[(8, 4, 9), float64] */;
  %1010 = @func_5773() /* ty=(Tensor[(15, 16, 4), float32], Tensor[(5, 14, 3), float32], Tensor[(15, 16, 4), uint32]) */;
  %1011 = @func_4559() /* ty=(Tensor[(5, 14, 3), bool], Tensor[(5, 14, 3), bool]) */;
  %1012 = asin(%1009) /* ty=Tensor[(8, 4, 9), float64] */;
  %1013 = %1010.1;
  %1014 = %1011.1;
  (%1012, %1013, %1014)
}

def @func_692() -> Tensor[(5, 14, 3), float32] {
  %1015 = @func_467() /* ty=(Tensor[(5, 14, 3), float32],) */;
  %1015.0
}

def @func_22940() -> Tensor[(5, 14, 3), int8] {
  %1016 = @func_663() /* ty=(Tensor[(5, 14, 3), float32], Tensor[(5, 14, 3), int8], Tensor[(5, 14, 3), int8], Tensor[(5, 14, 3), float32]) */;
  %1016.1
}

def @func_29923() -> (Tensor[(5, 14, 3), int8],) {
  %1017 = @func_14181() /* ty=(Tensor[(5, 14, 3), int8],) */;
  %1018 = %1017.0;
  (%1018,)
}

def @func_4018() -> Tensor[(5, 14, 3), float32] {
  %1019 = @func_2553() /* ty=(Tensor[(5, 14, 3), float32], Tensor[(5, 14, 3), float32]) */;
  %1019.0
}

def @func_3382() -> (Tensor[(5, 14, 3), float32],) {
  %1020 = @func_2553() /* ty=(Tensor[(5, 14, 3), float32], Tensor[(5, 14, 3), float32]) */;
  %1021 = %1020.0;
  (%1021,)
}

def @func_27805(%var_27785: uint16) -> (Tensor[(5, 14, 3), int8], Tensor[(5, 14, 3), float32], uint16, Tensor[(5, 14, 3), float32]) {
  %1022 = cast(%var_27785, dtype="uint16") /* ty=uint16 */;
  %1023 = reshape(%1022, newshape=[]) /* ty=uint16 */;
  %1024 = @func_7866(%1023) /* ty=(Tensor[(5, 14, 3), float32], Tensor[(5, 14, 3), float32], uint16, Tensor[(72), uint16]) */;
  %1025 = @func_22940() /* ty=Tensor[(5, 14, 3), int8] */;
  %1026 = %1024.1;
  %1027 = @func_17729() /* ty=Tensor[(5, 14, 3), float32] */;
  (%1025, %1026, %var_27785, %1027)
}

def @func_30671() -> (Tensor[(15, 16, 4), float32], Tensor[(5, 14, 3), float32]) {
  %1028 = @func_6095() /* ty=(Tensor[(15, 16, 4), float32], Tensor[(5, 14, 3), int8], Tensor[(5, 14, 3), float32]) */;
  %1029 = @func_25389() /* ty=(Tensor[(5, 14, 3), float32], Tensor[(5, 14, 3), bool], Tensor[(5, 14, 3), float32], Tensor[(5, 14, 3), float32], Tensor[(132), uint32]) */;
  %1030 = %1028.0;
  %1031 = %1029.0;
  (%1030, %1031)
}

def @func_23507() -> (Tensor[(5, 14, 3), float32], Tensor[(5, 14, 3), float32]) {
  %1032 = @func_8525() /* ty=(Tensor[(5, 14, 3), float32], Tensor[(5, 14, 3), float32], Tensor[(5, 14, 3), int8], Tensor[(15, 16, 4), float32]) */;
  %1033 = @func_13545() /* ty=Tensor[(5, 14, 3), float32] */;
  %1034 = %1032.1;
  (%1033, %1034)
}

def @func_9520(%var_9501: Tensor[(96, 1), float32]) -> (Tensor[(5, 14, 3), float32], Tensor[(210), float32], Tensor[(96, 1), float32], Tensor[(143, 10), float64], Tensor[(11, 130), float64]) {
  %1035 = @func_3796() /* ty=(Tensor[(5, 14, 3), float32],) */;
  %1036 = cast(%var_9501, dtype="float32") /* ty=Tensor[(96, 1), float32] */;
  %1037 = %1035.0;
  %1038 = cast(%1037, dtype="float32") /* ty=Tensor[(5, 14, 3), float32] */;
  %1039 = reshape(%1036, newshape=[4, 2, 12]) /* ty=Tensor[(4, 2, 12), float32] */;
  %1040 = reshape(%1038, newshape=[210]) /* ty=Tensor[(210), float32] */;
  %1041 = @func_3240(%1039, %1040) /* ty=(Tensor[(4, 2, 12), float32], Tensor[(5, 14, 3), int8], Tensor[(210), float32]) */;
  %1042 = cast(meta[relay.Constant][24] /* ty=Tensor[(11, 130), float64] */, dtype="float64") /* ty=Tensor[(11, 130), float64] */;
  %1043 = reshape(%1042, newshape=[143, 10]) /* ty=Tensor[(143, 10), float64] */;
  %1044 = @func_1408(%1043) /* ty=(Tensor[(5, 14, 3), float32], Tensor[(10, 13, 11), float64], Tensor[(143, 10), float64], Tensor[(10, 13, 11), float64]) */;
  %1045 = %1041.2;
  %1046 = %1044.2;
  (%1037, %1045, %var_9501, %1046, meta[relay.Constant][24] /* ty=Tensor[(11, 130), float64] */)
}

def @func_1196(%var_1182: Tensor[(5, 14, 3), float32]) -> Tensor[(5, 14, 3), bool] {
  %1047 = @func_1070() /* ty=(Tensor[(5, 14, 3), float32],) */;
  %1048 = %1047.0;
  %1049 = cast(%var_1182, dtype="bool") /* ty=Tensor[(5, 14, 3), bool] */;
  %1050 = shape_of(%1048, dtype="int32") /* ty=Tensor[(3), int32] */;
  %1051 = cast(%1048, dtype="bool") /* ty=Tensor[(5, 14, 3), bool] */;
  %1052 = dyn.reshape(%1049, %1050, newshape=[]) /* ty=Tensor[(?, ?, ?), bool] */;
  equal(%1051, %1052) /* ty=Tensor[(5, 14, 3), bool] */
}

def @func_25211() -> (Tensor[(5, 14, 3), float32], Tensor[(5, 14, 3), float32]) {
  %1053 = @func_10422() /* ty=(Tensor[(5, 14, 3), float32], Tensor[(5, 14, 3), float32], Tensor[(5, 14, 3), float32]) */;
  %1054 = @func_22476() /* ty=(Tensor[(5, 14, 3), float32], Tensor[(5, 14, 3), float32]) */;
  %1055 = %1053.2;
  %1056 = %1054.0;
  (%1055, %1056)
}

def @func_2677() -> Tensor[(5, 14, 3), float32] {
  %1057 = @func_2249() /* ty=(Tensor[(5, 14, 3), float32], Tensor[(5, 14, 3), bool], Tensor[(5, 14, 3), float32]) */;
  %1057.0
}

def @func_20859() -> (Tensor[(5, 14, 3), int8], Tensor[(5, 14, 3), int8], Tensor[(5, 14, 3), float32]) {
  %1058 = @func_14752() /* ty=(Tensor[(5, 14, 3), int8],) */;
  %1059 = @func_14752() /* ty=(Tensor[(5, 14, 3), int8],) */;
  %1060 = @func_18958() /* ty=(Tensor[(5, 14, 3), float32],) */;
  %1061 = %1058.0;
  %1062 = %1059.0;
  %1063 = %1060.0;
  (%1061, %1062, %1063)
}

def @func_6453() -> (Tensor[(5, 14, 3), float32],) {
  %1064 = @func_855() /* ty=(Tensor[(5, 14, 3), float32], Tensor[(5, 14, 3), float32]) */;
  %1065 = %1064.0;
  (%1065,)
}

def @func_31127() -> Tensor[(5, 14, 3), float32] {
  %1066 = @func_5627() /* ty=(Tensor[(5, 14, 3), float32], Tensor[(5, 14, 3), int8]) */;
  %1066.0
}

def @func_16965(%var_16932: Tensor[(1430), float64]) -> (Tensor[(5, 14, 3), float32], Tensor[(5, 14, 3), float32], Tensor[(1430), float64], Tensor[(5, 14, 3), float32], Tensor[(5, 14, 3), float32]) {
  %1067 = cast(%var_16932, dtype="float64") /* ty=Tensor[(1430), float64] */;
  %1068 = reshape(%1067, newshape=[1430]) /* ty=Tensor[(1430), float64] */;
  %1069 = @func_2813(%1068) /* ty=(Tensor[(5, 14, 3), float32], Tensor[(5, 14, 3), float64], Tensor[(5, 14, 3), float32], Tensor[(5, 14, 3), float32], Tensor[(1430), float64]) */;
  %1070 = cast(%var_16932, dtype="float64") /* ty=Tensor[(1430), float64] */;
  %1071 = cast(%var_16932, dtype="int8") /* ty=Tensor[(1430), int8] */;
  %1072 = reshape(%1070, newshape=[1430]) /* ty=Tensor[(1430), float64] */;
  %1073 = reshape(%1071, newshape=[1430]) /* ty=Tensor[(1430), int8] */;
  %1074 = @func_11091(%1072, %1073) /* ty=(Tensor[(5, 14, 3), float64], Tensor[(5, 14, 3), int8], Tensor[(5, 14, 3), float32], Tensor[(5, 14, 3), float32], Tensor[(1430), uint16], Tensor[(1430), float32], Tensor[(1430), float64]) */;
  %1075 = @func_2553() /* ty=(Tensor[(5, 14, 3), float32], Tensor[(5, 14, 3), float32]) */;
  %1076 = @func_13545() /* ty=Tensor[(5, 14, 3), float32] */;
  %1077 = %1069.0;
  %1078 = %1074.3;
  %1079 = %1075.1;
  (%1076, %1077, %var_16932, %1078, %1079)
}

def @func_20914() -> (Tensor[(5, 14, 3), float32], Tensor[(5, 6, 4), float64], Tensor[(120), float64]) {
  %1080 = @func_6006() /* ty=(Tensor[(5, 14, 3), float32],) */;
  %1081 = cast(meta[relay.Constant][25] /* ty=Tensor[(120), float64] */, dtype="float64") /* ty=Tensor[(120), float64] */;
  %1082 = reshape(%1081, newshape=[5, 6, 4]) /* ty=Tensor[(5, 6, 4), float64] */;
  %1083 = @func_19149(%1082) /* ty=(Tensor[(5, 6, 4), float64], Tensor[(1430), float64], Tensor[(5, 14, 3), float32], Tensor[(5, 14, 3), int8]) */;
  %1084 = %1080.0;
  %1085 = %1083.0;
  (%1084, %1085, meta[relay.Constant][25] /* ty=Tensor[(120), float64] */)
}

def @func_9256() -> (Tensor[(1430), float64], Tensor[(5, 14, 3), bool]) {
  %1086 = @func_6976() /* ty=(Tensor[(15, 16, 4), float32], Tensor[(5, 14, 3), float32], Tensor[(1430), float64], Tensor[(1430), float64], Tensor[(5, 14, 3), float32], Tensor[(10, 13, 11), float32]) */;
  %1087 = %1086.3;
  %1088 = @func_7263() /* ty=Tensor[(5, 14, 3), bool] */;
  (%1087, %1088)
}

def @func_3148(%var_3121: Tensor[(1430), float64]) -> (Tensor[(5, 14, 3), float32], Tensor[(10, 13, 11), float64], Tensor[(1430), float64], Tensor[(5, 14, 3), float32]) {
  %1089 = cast(%var_3121, dtype="float64") /* ty=Tensor[(1430), float64] */;
  %1090 = reshape(%1089, newshape=[10, 13, 11]) /* ty=Tensor[(10, 13, 11), float64] */;
  %1091 = @func_467() /* ty=(Tensor[(5, 14, 3), float32],) */;
  %1092 = @func_3032() /* ty=Tensor[(5, 14, 3), float32] */;
  %1093 = @func_745(%1090) /* ty=Tensor[(10, 13, 11), float64] */;
  %1094 = %1091.0;
  (%1092, %1093, %var_3121, %1094)
}

def @func_6135(%var_6106: uint16, %var_6107: Tensor[(6, 1, 12), uint16]) -> (Tensor[(6, 1, 12), uint16], Tensor[(5, 14, 3), float32], Tensor[(5, 14, 3), float32], Tensor[(5, 14, 3), float32]) {
  %1095 = cast(%var_6106, dtype="uint16") /* ty=uint16 */;
  %1096 = cast(%var_6107, dtype="uint16") /* ty=Tensor[(6, 1, 12), uint16] */;
  %1097 = @func_5149() /* ty=(Tensor[(5, 14, 3), float32], Tensor[(5, 14, 3), float32], Tensor[(15, 16, 4), float32]) */;
  %1098 = @func_2603() /* ty=(Tensor[(5, 14, 3), float32],) */;
  %1099 = @func_1365() /* ty=(Tensor[(5, 14, 3), float32], Tensor[(1430), float64], Tensor[(10, 13, 11), float64], Tensor[(5, 14, 3), float32], Tensor[(5, 14, 3), float64], Tensor[(5, 14, 3), float32], Tensor[(5, 14, 3), float32]) */;
  %1100 = left_shift(%1095, %1096) /* ty=Tensor[(6, 1, 12), uint16] */;
  %1101 = %1097.1;
  %1102 = %1098.0;
  %1103 = %1099.3;
  (%1100, %1101, %1102, %1103)
}

def @func_32683() -> (Tensor[(5, 14, 3), float32],) {
  %1104 = @func_16068() /* ty=(Tensor[(5, 14, 3), float32],) */;
  %1105 = %1104.0;
  (%1105,)
}

def @func_29461() -> (Tensor[(5, 14, 3), int8], Tensor[(5, 14, 3), float64]) {
  %1106 = @func_4336() /* ty=(Tensor[(5, 14, 3), int8],) */;
  %1107 = @func_29312() /* ty=(Tensor[(5, 14, 3), float64], Tensor[(5, 14, 3), float32]) */;
  %1108 = %1106.0;
  %1109 = %1107.0;
  (%1108, %1109)
}

def @func_11942() -> Tensor[(5, 14, 3), float32] {
  %1110 = @func_8276() /* ty=(Tensor[(5, 14, 3), float32], Tensor[(5, 14, 3), float32]) */;
  %1110.1
}

def @func_4770() -> (Tensor[(5, 14, 3), float32], Tensor[(5, 14, 3), bool], Tensor[(5, 14, 3), float32]) {
  %1111 = @func_692() /* ty=Tensor[(5, 14, 3), float32] */;
  %1112 = cast(%1111, dtype="float32") /* ty=Tensor[(5, 14, 3), float32] */;
  %1113 = reshape(%1112, newshape=[5, 14, 3]) /* ty=Tensor[(5, 14, 3), float32] */;
  %1114 = @func_3541() /* ty=(Tensor[(5, 14, 3), float32], Tensor[(5, 14, 3), float32], Tensor[(5, 14, 3), float32]) */;
  %1115 = @func_1196(%1113) /* ty=Tensor[(5, 14, 3), bool] */;
  %1116 = %1114.0;
  (%1111, %1115, %1116)
}

def @func_9877() -> Tensor[(5, 14, 3), float32] {
  %1117 = @func_3195() /* ty=(Tensor[(5, 14, 3), float32],) */;
  %1117.0
}

def @func_19593() -> (Tensor[(15, 16, 4), float32],) {
  %1118 = @func_17588() /* ty=(Tensor[(15, 16, 4), float32], Tensor[(5, 14, 3), float32]) */;
  %1119 = %1118.0;
  (%1119,)
}

def @func_6180() -> Tensor[(5, 14, 3), float32] {
  %1120 = @func_5849() /* ty=(Tensor[(5, 14, 3), float32], Tensor[(5, 14, 3), float32]) */;
  %1120.0
}

def @func_8715() -> (Tensor[(5, 14, 3), float32], Tensor[(5, 14, 3), int8], Tensor[(5, 14, 3), float32]) {
  %1121 = @func_1070() /* ty=(Tensor[(5, 14, 3), float32],) */;
  %1122 = @func_5343() /* ty=(Tensor[(5, 14, 3), int8],) */;
  %1123 = @func_4492() /* ty=(Tensor[(5, 14, 3), float32], Tensor[(15, 16, 4), float32], Tensor[(5, 14, 3), bool]) */;
  %1124 = %1121.0;
  %1125 = %1122.0;
  %1126 = %1123.0;
  (%1124, %1125, %1126)
}

def @func_32838() -> (Tensor[(5, 14, 3), bool],) {
  %1127 = @func_18324() /* ty=Tensor[(5, 14, 3), bool] */;
  (%1127,)
}

def @func_18443() -> (Tensor[(4, 6, 9), float32],) {
  %1128 = cast(meta[relay.Constant][26] /* ty=Tensor[(4, 6, 9), float32] */, dtype="float32") /* ty=Tensor[(4, 6, 9), float32] */;
  %1129 = acosh(%1128) /* ty=Tensor[(4, 6, 9), float32] */;
  (%1129,)
}

def @func_26699() -> Tensor[(5, 14, 3), float32] {
  @func_23975() /* ty=Tensor[(5, 14, 3), float32] */
}

def @func_8645() -> Tensor[(5, 14, 3), float32] {
  %1130 = @func_5047() /* ty=(Tensor[(5, 14, 3), float32],) */;
  %1130.0
}

def @func_3240(%var_3226: Tensor[(4, 2, 12), float32], %var_3238: Tensor[(210), float32]) -> (Tensor[(4, 2, 12), float32], Tensor[(5, 14, 3), int8], Tensor[(210), float32]) {
  %1131 = cast(%var_3226, dtype="float32") /* ty=Tensor[(4, 2, 12), float32] */;
  %1132 = cast(%var_3238, dtype="float32") /* ty=Tensor[(210), float32] */;
  %1133 = reshape(%1132, newshape=[5, 14, 3]) /* ty=Tensor[(5, 14, 3), float32] */;
  %1134 = asin(%1131) /* ty=Tensor[(4, 2, 12), float32] */;
  %1135 = @func_580(%1133) /* ty=Tensor[(5, 14, 3), int8] */;
  (%1134, %1135, %var_3238)
}

def @func_11411() -> (Tensor[(5, 14, 3), float32], Tensor[(5, 14, 3), float32]) {
  %1136 = @func_7998() /* ty=(Tensor[(5, 14, 3), float32],) */;
  %1137 = %1136.0;
  %1138 = @func_4018() /* ty=Tensor[(5, 14, 3), float32] */;
  (%1137, %1138)
}

def @func_7801() -> (Tensor[(5, 14, 3), float32], Tensor[(5, 14, 3), int8]) {
  %1139 = @func_1995() /* ty=(Tensor[(5, 14, 3), float32],) */;
  %1140 = %1139.0;
  %1141 = cast(%1140, dtype="float32") /* ty=Tensor[(5, 14, 3), float32] */;
  %1142 = reshape(%1141, newshape=[5, 14, 3]) /* ty=Tensor[(5, 14, 3), float32] */;
  %1143 = @func_580(%1142) /* ty=Tensor[(5, 14, 3), int8] */;
  (%1140, %1143)
}

def @func_25420() -> (Tensor[(5, 14, 3), int8],) {
  %1144 = @func_2336() /* ty=(Tensor[(5, 14, 3), int8], Tensor[(5, 14, 3), float64], Tensor[(5, 14, 3), float32], Tensor[(143, 10), float64]) */;
  %1145 = %1144.0;
  (%1145,)
}

def @func_4169() -> (Tensor[(5, 14, 3), float32],) {
  %1146 = @func_3987() /* ty=Tensor[(5, 14, 3), float32] */;
  (%1146,)
}

def @func_23876() -> (Tensor[(5, 14, 3), int8], Tensor[(5, 14, 3), bool], Tensor[(5, 14, 3), float32]) {
  %1147 = @func_12879() /* ty=(Tensor[(5, 14, 3), float32], Tensor[(5, 14, 3), int8]) */;
  %1148 = @func_9804() /* ty=(Tensor[(5, 14, 3), float32], Tensor[(5, 14, 3), bool]) */;
  %1149 = @func_20093() /* ty=(Tensor[(5, 14, 3), float32],) */;
  %1150 = %1147.1;
  %1151 = %1148.1;
  %1152 = %1149.0;
  (%1150, %1151, %1152)
}

def @func_2336() -> (Tensor[(5, 14, 3), int8], Tensor[(5, 14, 3), float64], Tensor[(5, 14, 3), float32], Tensor[(143, 10), float64]) {
  %1153 = @func_887() /* ty=(Tensor[(5, 14, 3), float32], Tensor[(5, 14, 3), int8]) */;
  %1154 = @func_692() /* ty=Tensor[(5, 14, 3), float32] */;
  %1155 = @func_498() /* ty=(Tensor[(5, 14, 3), float32],) */;
  %1156 = %1155.0;
  %1157 = cast(%1156, dtype="float64") /* ty=Tensor[(5, 14, 3), float64] */;
  %1158 = shape_of(%1154, dtype="int32") /* ty=Tensor[(3), int32] */;
  %1159 = cast(%1154, dtype="float64") /* ty=Tensor[(5, 14, 3), float64] */;
  %1160 = dyn.reshape(%1157, %1158, newshape=[]) /* ty=Tensor[(?, ?, ?), float64] */;
  %1161 = cast(meta[relay.Constant][27] /* ty=Tensor[(143, 10), float64] */, dtype="float64") /* ty=Tensor[(143, 10), float64] */;
  %1162 = reshape(%1161, newshape=[1430]) /* ty=Tensor[(1430), float64] */;
  %1163 = @func_954(%1162) /* ty=(Tensor[(5, 14, 3), float32], Tensor[(5, 14, 3), float32], Tensor[(1430), float64], Tensor[(5, 14, 3), int8]) */;
  %1164 = %1153.1;
  %1165 = mod(%1159, %1160) /* ty=Tensor[(5, 14, 3), float64] */;
  %1166 = %1163.0;
  (%1164, %1165, %1166, meta[relay.Constant][27] /* ty=Tensor[(143, 10), float64] */)
}

def @func_2364() -> Tensor[(5, 14, 3), float32] {
  %1167 = @func_1070() /* ty=(Tensor[(5, 14, 3), float32],) */;
  %1167.0
}

def @func_11192() -> (Tensor[(5, 14, 3), float32], Tensor[(5, 14, 3), float32], Tensor[(5, 14, 3), float32]) {
  %1168 = @func_3742() /* ty=(Tensor[(5, 14, 3), float32],) */;
  %1169 = @func_10826() /* ty=(Tensor[(5, 14, 3), float32], Tensor[(5, 14, 3), int8], Tensor[(5, 14, 3), float32]) */;
  %1170 = %1168.0;
  %1171 = %1169.0;
  %1172 = @func_2677() /* ty=Tensor[(5, 14, 3), float32] */;
  (%1170, %1171, %1172)
}

def @func_29038() -> (Tensor[(5, 14, 3), float32],) {
  %1173 = @func_13574() /* ty=(Tensor[(5, 14, 3), float32],) */;
  %1174 = %1173.0;
  (%1174,)
}

def @func_24663() -> (Tensor[(5, 14, 3), bool],) {
  %1175 = @func_10897() /* ty=(Tensor[(5, 14, 3), bool],) */;
  %1176 = %1175.0;
  (%1176,)
}

def @func_8309() -> (Tensor[(5, 14, 3), float32], Tensor[(15, 16, 4), float32]) {
  %1177 = @func_2213() /* ty=(Tensor[(5, 14, 3), float32],) */;
  %1178 = %1177.0;
  %1179 = @func_2431() /* ty=Tensor[(15, 16, 4), float32] */;
  (%1178, %1179)
}

def @func_15440() -> (Tensor[(5, 14, 3), float32], Tensor[(5, 14, 3), float32], Tensor[(5, 14, 3), float64]) {
  %1180 = @func_5202() /* ty=(Tensor[(5, 14, 3), float32],) */;
  %1181 = @func_5703() /* ty=(Tensor[(5, 14, 3), float32], Tensor[(5, 14, 3), float32]) */;
  %1182 = %1180.0;
  %1183 = %1181.0;
  %1184 = @func_13635() /* ty=Tensor[(5, 14, 3), float64] */;
  (%1182, %1183, %1184)
}

def @func_1365() -> (Tensor[(5, 14, 3), float32], Tensor[(1430), float64], Tensor[(10, 13, 11), float64], Tensor[(5, 14, 3), float32], Tensor[(5, 14, 3), float64], Tensor[(5, 14, 3), float32], Tensor[(5, 14, 3), float32]) {
  %1185 = cast(meta[relay.Constant][28] /* ty=Tensor[(1430), float64] */, dtype="float64") /* ty=Tensor[(1430), float64] */;
  %1186 = reshape(%1185, newshape=[1430]) /* ty=Tensor[(1430), float64] */;
  %1187 = @func_954(%1186) /* ty=(Tensor[(5, 14, 3), float32], Tensor[(5, 14, 3), float32], Tensor[(1430), float64], Tensor[(5, 14, 3), int8]) */;
  %1188 = cast(meta[relay.Constant][28] /* ty=Tensor[(1430), float64] */, dtype="float64") /* ty=Tensor[(1430), float64] */;
  %1189 = reshape(%1188, newshape=[10, 13, 11]) /* ty=Tensor[(10, 13, 11), float64] */;
  %1190 = @func_467() /* ty=(Tensor[(5, 14, 3), float32],) */;
  %1191 = @func_887() /* ty=(Tensor[(5, 14, 3), float32], Tensor[(5, 14, 3), int8]) */;
  %1192 = %1191.1;
  %1193 = cast(%1192, dtype="float64") /* ty=Tensor[(5, 14, 3), float64] */;
  %1194 = @func_1070() /* ty=(Tensor[(5, 14, 3), float32],) */;
  %1195 = @func_855() /* ty=(Tensor[(5, 14, 3), float32], Tensor[(5, 14, 3), float32]) */;
  %1196 = %1187.1;
  %1197 = @func_745(%1189) /* ty=Tensor[(10, 13, 11), float64] */;
  %1198 = %1190.0;
  %1199 = acosh(%1193) /* ty=Tensor[(5, 14, 3), float64] */;
  %1200 = %1194.0;
  %1201 = %1195.0;
  (%1196, meta[relay.Constant][28] /* ty=Tensor[(1430), float64] */, %1197, %1198, %1199, %1200, %1201)
}

def @func_33178() -> (Tensor[(5, 14, 3), bool],) {
  %1202 = @func_32838() /* ty=(Tensor[(5, 14, 3), bool],) */;
  %1203 = %1202.0;
  (%1203,)
}

def @func_7641() -> (Tensor[(5, 14, 3), float32], Tensor[(15, 16, 4), float32]) {
  %1204 = @func_5304() /* ty=(Tensor[(5, 14, 3), float32], Tensor[(5, 14, 3), float32]) */;
  %1205 = %1204.0;
  %1206 = cast(%1205, dtype="float32") /* ty=Tensor[(5, 14, 3), float32] */;
  %1207 = reshape(%1206, newshape=[5, 14, 3]) /* ty=Tensor[(5, 14, 3), float32] */;
  %1208 = @func_4936(%1207) /* ty=(Tensor[(15, 16, 4), float32], Tensor[(5, 14, 3), uint64], Tensor[(5, 14, 3), float32], Tensor[(15, 16, 4), uint32], Tensor[(5, 14, 3), float32], Tensor[(5, 14, 3), float32], Tensor[(5, 14, 3), float32]) */;
  %1209 = %1208.0;
  (%1205, %1209)
}

def @func_18958() -> (Tensor[(5, 14, 3), float32],) {
  %1210 = @func_7586() /* ty=(Tensor[(5, 14, 3), float32],) */;
  %1211 = %1210.0;
  (%1211,)
}

def @func_21573() -> Tensor[(5, 14, 3), float32] {
  %1212 = @func_9126() /* ty=(Tensor[(5, 14, 3), float32],) */;
  %1212.0
}

def @func_3700() -> (Tensor[(5, 14, 3), float32], Tensor[(5, 14, 3), bool], Tensor[(5, 14, 3), float32]) {
  %1213 = @func_692() /* ty=Tensor[(5, 14, 3), float32] */;
  %1214 = cast(meta[relay.Constant][29] /* ty=Tensor[(5, 14, 3), float32] */, dtype="bool") /* ty=Tensor[(5, 14, 3), bool] */;
  %1215 = shape_of(%1213, dtype="int32") /* ty=Tensor[(3), int32] */;
  %1216 = cast(%1213, dtype="bool") /* ty=Tensor[(5, 14, 3), bool] */;
  %1217 = dyn.reshape(%1214, %1215, newshape=[]) /* ty=Tensor[(?, ?, ?), bool] */;
  %1218 = @func_2249() /* ty=(Tensor[(5, 14, 3), float32], Tensor[(5, 14, 3), bool], Tensor[(5, 14, 3), float32]) */;
  %1219 = @func_2364() /* ty=Tensor[(5, 14, 3), float32] */;
  %1220 = logical_or(%1216, %1217) /* ty=Tensor[(5, 14, 3), bool] */;
  %1221 = %1218.0;
  (%1219, %1220, %1221)
}

def @func_32156() -> (Tensor[(5, 14, 3), float32],) {
  %1222 = @func_28548() /* ty=(Tensor[(5, 14, 3), float32],) */;
  %1223 = %1222.0;
  (%1223,)
}

def @func_4645() -> (Tensor[(5, 14, 3), float32], Tensor[(5, 14, 3), float32], Tensor[(5, 14, 3), float32], Tensor[(5, 14, 3), float32], Tensor[(5, 14, 3), float32]) {
  %1224 = @func_663() /* ty=(Tensor[(5, 14, 3), float32], Tensor[(5, 14, 3), int8], Tensor[(5, 14, 3), int8], Tensor[(5, 14, 3), float32]) */;
  %1225 = @func_3382() /* ty=(Tensor[(5, 14, 3), float32],) */;
  %1226 = @func_2249() /* ty=(Tensor[(5, 14, 3), float32], Tensor[(5, 14, 3), bool], Tensor[(5, 14, 3), float32]) */;
  %1227 = @func_2213() /* ty=(Tensor[(5, 14, 3), float32],) */;
  %1228 = %1224.0;
  %1229 = %1225.0;
  %1230 = %1226.0;
  %1231 = %1227.0;
  %1232 = @func_2908() /* ty=Tensor[(5, 14, 3), float32] */;
  (%1228, %1229, %1230, %1231, %1232)
}

def @func_27896() -> (Tensor[(5, 14, 3), float32], Tensor[(5, 14, 3), float32]) {
  %1233 = @func_15490() /* ty=(Tensor[(5, 14, 3), float32], Tensor[(5, 14, 3), float32]) */;
  %1234 = @func_5603() /* ty=(Tensor[(5, 14, 3), bool], Tensor[(5, 14, 3), float32], Tensor[(5, 14, 3), float32]) */;
  %1235 = %1233.1;
  %1236 = %1234.2;
  (%1235, %1236)
}

def @func_25949() -> Tensor[(5, 14, 3), float32] {
  %1237 = @func_15490() /* ty=(Tensor[(5, 14, 3), float32], Tensor[(5, 14, 3), float32]) */;
  %1237.1
}

def @func_8926() -> (Tensor[(5, 14, 3), float32], Tensor[(5, 14, 3), float32], Tensor[(5, 14, 3), float32]) {
  %1238 = @func_1912() /* ty=(Tensor[(5, 14, 3), float32],) */;
  %1239 = @func_5324() /* ty=(Tensor[(5, 14, 3), float32], Tensor[(5, 14, 3), float32]) */;
  %1240 = %1238.0;
  %1241 = @func_6180() /* ty=Tensor[(5, 14, 3), float32] */;
  %1242 = %1239.1;
  (%1240, %1241, %1242)
}

def @func_24614() -> Tensor[(5, 14, 3), float32] {
  %1243 = @func_7319() /* ty=(Tensor[(5, 14, 3), float32], Tensor[(5, 14, 3), float32]) */;
  %1243.0
}

def @func_19470() -> Tensor[(5, 14, 3), float32] {
  %1244 = @func_9126() /* ty=(Tensor[(5, 14, 3), float32],) */;
  %1244.0
}

def @func_25491() -> (Tensor[(5, 14, 3), int8],) {
  %1245 = @func_23749() /* ty=(Tensor[(5, 14, 3), int8],) */;
  %1246 = %1245.0;
  (%1246,)
}

def @func_3434() -> (Tensor[(5, 14, 3), float32],) {
  %1247 = @func_1070() /* ty=(Tensor[(5, 14, 3), float32],) */;
  %1248 = %1247.0;
  (%1248,)
}

def @func_30053() -> uint16 {
  %1249 = @func_20982() /* ty=(Tensor[(5, 14, 3), float32], Tensor[(5, 14, 3), float32], Tensor[(5, 14, 3), float32], uint16, Tensor[(5, 14, 3), float32], Tensor[(15, 16, 4), uint32]) */;
  %1249.3
}

def @func_31974() -> (Tensor[(5, 14, 3), float32],) {
  %1250 = @func_20897() /* ty=(Tensor[(5, 14, 3), float32], Tensor[(5, 14, 3), float32]) */;
  %1251 = %1250.0;
  (%1251,)
}

def @func_19786() -> (Tensor[(5, 14, 3), float32],) {
  %1252 = @func_12279() /* ty=(Tensor[(5, 14, 3), float32], Tensor[(5, 14, 3), float32]) */;
  %1253 = %1252.0;
  (%1253,)
}

def @func_887() -> (Tensor[(5, 14, 3), float32], Tensor[(5, 14, 3), int8]) {
  %1254 = @func_663() /* ty=(Tensor[(5, 14, 3), float32], Tensor[(5, 14, 3), int8], Tensor[(5, 14, 3), int8], Tensor[(5, 14, 3), float32]) */;
  %1255 = @func_692() /* ty=Tensor[(5, 14, 3), float32] */;
  %1256 = %1254.1;
  (%1255, %1256)
}

def @func_17878(%var_17873: Tensor[(1430), float64]) -> (Tensor[(5, 14, 3), float32], Tensor[(5, 14, 3), int8], Tensor[(1430), float64]) {
  %1257 = cast(%var_17873, dtype="float64") /* ty=Tensor[(1430), float64] */;
  %1258 = reshape(%1257, newshape=[1430]) /* ty=Tensor[(1430), float64] */;
  %1259 = @func_954(%1258) /* ty=(Tensor[(5, 14, 3), float32], Tensor[(5, 14, 3), float32], Tensor[(1430), float64], Tensor[(5, 14, 3), int8]) */;
  %1260 = @func_7942() /* ty=Tensor[(5, 14, 3), float32] */;
  %1261 = %1259.3;
  (%1260, %1261, %var_17873)
}

def @func_15146() -> Tensor[(5, 14, 3), float32] {
  %1262 = @func_5149() /* ty=(Tensor[(5, 14, 3), float32], Tensor[(5, 14, 3), float32], Tensor[(15, 16, 4), float32]) */;
  %1262.0
}

def @func_4264() -> (Tensor[(5, 14, 3), float32],) {
  %1263 = @func_3796() /* ty=(Tensor[(5, 14, 3), float32],) */;
  %1264 = %1263.0;
  (%1264,)
}

def @func_6976() -> (Tensor[(15, 16, 4), float32], Tensor[(5, 14, 3), float32], Tensor[(1430), float64], Tensor[(1430), float64], Tensor[(5, 14, 3), float32], Tensor[(10, 13, 11), float32]) {
  %1265 = @func_4455() /* ty=(Tensor[(5, 14, 3), float32], Tensor[(5, 14, 3), float32], Tensor[(15, 16, 4), float32]) */;
  %1266 = @func_2603() /* ty=(Tensor[(5, 14, 3), float32],) */;
  %1267 = cast(meta[relay.Constant][30] /* ty=Tensor[(1430), float64] */, dtype="float64") /* ty=Tensor[(1430), float64] */;
  %1268 = reshape(%1267, newshape=[1430]) /* ty=Tensor[(1430), float64] */;
  %1269 = @func_954(%1268) /* ty=(Tensor[(5, 14, 3), float32], Tensor[(5, 14, 3), float32], Tensor[(1430), float64], Tensor[(5, 14, 3), int8]) */;
  %1270 = @func_1912() /* ty=(Tensor[(5, 14, 3), float32],) */;
  %1271 = cast(meta[relay.Constant][30] /* ty=Tensor[(1430), float64] */, dtype="float64") /* ty=Tensor[(1430), float64] */;
  %1272 = reshape(%1271, newshape=[1430]) /* ty=Tensor[(1430), float64] */;
  %1273 = @func_3148(%1272) /* ty=(Tensor[(5, 14, 3), float32], Tensor[(10, 13, 11), float64], Tensor[(1430), float64], Tensor[(5, 14, 3), float32]) */;
  %1274 = %1273.1;
  %1275 = cast(%1274, dtype="float32") /* ty=Tensor[(10, 13, 11), float32] */;
  %1276 = %1265.2;
  %1277 = %1266.0;
  %1278 = %1269.2;
  %1279 = %1270.0;
  %1280 = atanh(%1275) /* ty=Tensor[(10, 13, 11), float32] */;
  (%1276, %1277, meta[relay.Constant][30] /* ty=Tensor[(1430), float64] */, %1278, %1279, %1280)
}

def @func_8559() -> (Tensor[(5, 14, 3), float32], Tensor[(5, 14, 3), float32]) {
  %1281 = @func_5934() /* ty=(Tensor[(5, 14, 3), bool], Tensor[(5, 14, 3), float32], Tensor[(1430), float32], Tensor[(5, 14, 3), float32]) */;
  %1282 = %1281.1;
  %1283 = @func_6431() /* ty=Tensor[(5, 14, 3), float32] */;
  (%1282, %1283)
}

def @func_28699() -> (Tensor[(5, 14, 3), bool], Tensor[(5, 14, 3), float32], Tensor[(5, 14, 3), float32]) {
  %1284 = @func_24663() /* ty=(Tensor[(5, 14, 3), bool],) */;
  %1285 = @func_19494() /* ty=(Tensor[(5, 14, 3), float32],) */;
  %1286 = @func_10422() /* ty=(Tensor[(5, 14, 3), float32], Tensor[(5, 14, 3), float32], Tensor[(5, 14, 3), float32]) */;
  %1287 = %1284.0;
  %1288 = %1285.0;
  %1289 = %1286.0;
  (%1287, %1288, %1289)
}

def @func_13005(%var_12983: Tensor[(6, 2, 11), uint32]) -> (Tensor[(6, 2, 11), uint32], Tensor[(5, 14, 3), float32]) {
  %1290 = cast(meta[relay.Constant][31] /* ty=Tensor[(6, 2, 11), uint32] */, dtype="uint32") /* ty=Tensor[(6, 2, 11), uint32] */;
  %1291 = shape_of(%var_12983, dtype="int32") /* ty=Tensor[(3), int32] */;
  %1292 = cast(%var_12983, dtype="uint32") /* ty=Tensor[(6, 2, 11), uint32] */;
  %1293 = dyn.reshape(%1290, %1291, newshape=[]) /* ty=Tensor[(?, ?, ?), uint32] */;
  %1294 = @func_3434() /* ty=(Tensor[(5, 14, 3), float32],) */;
  %1295 = maximum(%1292, %1293) /* ty=Tensor[(6, 2, 11), uint32] */;
  %1296 = %1294.0;
  (%1295, %1296)
}

def @func_31427() -> (Tensor[(5, 14, 3), float32],) {
  %1297 = @func_22662() /* ty=(Tensor[(5, 14, 3), bool], Tensor[(5, 14, 3), float32], Tensor[(5, 14, 3), float32], Tensor[(5, 14, 3), float32], Tensor[(5, 14, 3), bool]) */;
  %1298 = %1297.1;
  (%1298,)
}

def @func_27512(%var_27486: Tensor[(48, 2), float32]) -> (Tensor[(5, 14, 3), float32], Tensor[(5, 14, 3), float32], Tensor[(48, 2), float32]) {
  %1299 = @func_9345() /* ty=(Tensor[(5, 14, 3), float32], Tensor[(5, 14, 3), float32], Tensor[(5, 14, 3), float32]) */;
  %1300 = cast(%var_27486, dtype="float32") /* ty=Tensor[(48, 2), float32] */;
  %1301 = reshape(%1300, newshape=[96]) /* ty=Tensor[(96), float32] */;
  %1302 = @func_21957(%1301) /* ty=(Tensor[(5, 14, 3), float32], Tensor[(210), float32], Tensor[(96), float32]) */;
  %1303 = %1299.1;
  %1304 = %1302.0;
  (%1303, %1304, %var_27486)
}

def @func_13205() -> (Tensor[(15, 11, 11), float64],) {
  %1305 = cast(meta[relay.Constant][32] /* ty=Tensor[(15, 11, 11), float64] */, dtype="float64") /* ty=Tensor[(15, 11, 11), float64] */;
  %1306 = sqrt(%1305) /* ty=Tensor[(15, 11, 11), float64] */;
  (%1306,)
}

def @func_14331() -> (Tensor[(5, 14, 3), float32],) {
  %1307 = @func_5603() /* ty=(Tensor[(5, 14, 3), bool], Tensor[(5, 14, 3), float32], Tensor[(5, 14, 3), float32]) */;
  %1308 = %1307.1;
  (%1308,)
}

def @func_22175() -> (Tensor[(5, 14, 3), float64], Tensor[(5, 14, 3), float32]) {
  %1309 = @func_17647() /* ty=(Tensor[(5, 14, 3), float64],) */;
  %1310 = @func_15164() /* ty=(Tensor[(5, 14, 3), float32],) */;
  %1311 = %1309.0;
  %1312 = %1310.0;
  (%1311, %1312)
}

def @func_14026() -> Tensor[(5, 14, 3), float32] {
  %1313 = @func_5149() /* ty=(Tensor[(5, 14, 3), float32], Tensor[(5, 14, 3), float32], Tensor[(15, 16, 4), float32]) */;
  %1313.0
}

def @func_31010(%var_30976: Tensor[(13, 15, 9), uint64]) -> (Tensor[(13, 15, 9), uint64], Tensor[(5, 14, 3), int8]) {
  %1314 = cast(meta[relay.Constant][33] /* ty=Tensor[(13, 15, 9), uint64] */, dtype="uint64") /* ty=Tensor[(13, 15, 9), uint64] */;
  %1315 = shape_of(%var_30976, dtype="int32") /* ty=Tensor[(3), int32] */;
  %1316 = cast(%var_30976, dtype="uint64") /* ty=Tensor[(13, 15, 9), uint64] */;
  %1317 = dyn.reshape(%1314, %1315, newshape=[]) /* ty=Tensor[(?, ?, ?), uint64] */;
  %1318 = @func_25491() /* ty=(Tensor[(5, 14, 3), int8],) */;
  %1319 = multiply(%1316, %1317) /* ty=Tensor[(13, 15, 9), uint64] */;
  %1320 = %1318.0;
  (%1319, %1320)
}

def @func_12479() -> (Tensor[(5, 14, 3), float32], Tensor[(5, 14, 3), float32], Tensor[(5, 14, 3), float32], Tensor[(5, 14, 3), bool]) {
  %1321 = @func_4169() /* ty=(Tensor[(5, 14, 3), float32],) */;
  %1322 = @func_6006() /* ty=(Tensor[(5, 14, 3), float32],) */;
  %1323 = @func_3382() /* ty=(Tensor[(5, 14, 3), float32],) */;
  %1324 = @func_3700() /* ty=(Tensor[(5, 14, 3), float32], Tensor[(5, 14, 3), bool], Tensor[(5, 14, 3), float32]) */;
  %1325 = %1321.0;
  %1326 = %1322.0;
  %1327 = %1323.0;
  %1328 = %1324.1;
  (%1325, %1326, %1327, %1328)
}

def @func_30905() -> (Tensor[(5, 14, 3), float32],) {
  %1329 = @func_29703() /* ty=Tensor[(5, 14, 3), float32] */;
  (%1329,)
}

def @func_9804() -> (Tensor[(5, 14, 3), float32], Tensor[(5, 14, 3), bool]) {
  %1330 = @func_4164() /* ty=(Tensor[(15, 16, 4), float32], Tensor[(5, 14, 3), float32], Tensor[(5, 14, 3), float64]) */;
  %1331 = %1330.1;
  %1332 = cast(%1331, dtype="float32") /* ty=Tensor[(5, 14, 3), float32] */;
  %1333 = reshape(%1332, newshape=[5, 14, 3]) /* ty=Tensor[(5, 14, 3), float32] */;
  %1334 = @func_1196(%1333) /* ty=Tensor[(5, 14, 3), bool] */;
  (%1331, %1334)
}

def @func_13635() -> Tensor[(5, 14, 3), float64] {
  %1335 = @func_12425() /* ty=(Tensor[(5, 14, 3), float32], Tensor[(5, 14, 3), float64], Tensor[(5, 14, 3), float32], Tensor[(5, 14, 3), int8], Tensor[(5, 14, 3), float32]) */;
  %1335.1
}

def @func_22799() -> (Tensor[(5, 14, 3), float32], Tensor[(5, 14, 3), float32], Tensor[(5, 14, 3), int8], Tensor[(5, 14, 3), float32], Tensor[(5, 14, 3), float32], Tensor[(10, 13, 11), float64], Tensor[(1430), float64], Tensor[(5, 14, 3), float32], Tensor[(5, 14, 3), float32]) {
  %1336 = @func_2553() /* ty=(Tensor[(5, 14, 3), float32], Tensor[(5, 14, 3), float32]) */;
  %1337 = @func_14752() /* ty=(Tensor[(5, 14, 3), int8],) */;
  %1338 = @func_13383() /* ty=(Tensor[(5, 14, 3), float32],) */;
  %1339 = cast(meta[relay.Constant][34] /* ty=Tensor[(1430), float64] */, dtype="float64") /* ty=Tensor[(1430), float64] */;
  %1340 = reshape(%1339, newshape=[10, 13, 11]) /* ty=Tensor[(10, 13, 11), float64] */;
  %1341 = @func_3434() /* ty=(Tensor[(5, 14, 3), float32],) */;
  %1342 = @func_20305() /* ty=(Tensor[(5, 14, 3), float32], Tensor[(5, 14, 3), float32], Tensor[(5, 14, 3), float32]) */;
  %1343 = %1336.1;
  %1344 = @func_8645() /* ty=Tensor[(5, 14, 3), float32] */;
  %1345 = %1337.0;
  %1346 = %1338.0;
  %1347 = @func_6180() /* ty=Tensor[(5, 14, 3), float32] */;
  %1348 = @func_745(%1340) /* ty=Tensor[(10, 13, 11), float64] */;
  %1349 = %1341.0;
  %1350 = %1342.0;
  (%1343, %1344, %1345, %1346, %1347, %1348, meta[relay.Constant][34] /* ty=Tensor[(1430), float64] */, %1349, %1350)
}

def @func_4350() -> Tensor[(5, 14, 3), float32] {
  %1351 = @func_3195() /* ty=(Tensor[(5, 14, 3), float32],) */;
  %1351.0
}

def @func_32994() -> Tensor[(5, 14, 3), bool] {
  %1352 = @func_5934() /* ty=(Tensor[(5, 14, 3), bool], Tensor[(5, 14, 3), float32], Tensor[(1430), float32], Tensor[(5, 14, 3), float32]) */;
  %1352.0
}

def @func_745(%var_725: Tensor[(10, 13, 11), float64]) -> Tensor[(10, 13, 11), float64] {
  %1353 = cast(%var_725, dtype="float64") /* ty=Tensor[(10, 13, 11), float64] */;
  rsqrt(%1353) /* ty=Tensor[(10, 13, 11), float64] */
}

def @func_8229() -> Tensor[(5, 14, 3), int8] {
  %1354 = @func_5343() /* ty=(Tensor[(5, 14, 3), int8],) */;
  %1354.0
}

def @func_10691() -> Tensor[(5, 14, 3), float32] {
  %1355 = @func_498() /* ty=(Tensor[(5, 14, 3), float32],) */;
  %1355.0
}

def @func_7157() -> (Tensor[(5, 14, 3), float32], Tensor[(5, 14, 3), float32]) {
  %1356 = @func_3796() /* ty=(Tensor[(5, 14, 3), float32],) */;
  %1357 = @func_6976() /* ty=(Tensor[(15, 16, 4), float32], Tensor[(5, 14, 3), float32], Tensor[(1430), float64], Tensor[(1430), float64], Tensor[(5, 14, 3), float32], Tensor[(10, 13, 11), float32]) */;
  %1358 = %1356.0;
  %1359 = %1357.1;
  (%1358, %1359)
}

def @func_17198() -> (Tensor[(5, 14, 3), bool], Tensor[(5, 14, 3), float32]) {
  %1360 = @func_2566() /* ty=(Tensor[(5, 14, 3), bool],) */;
  %1361 = %1360.0;
  %1362 = @func_13030() /* ty=Tensor[(5, 14, 3), float32] */;
  (%1361, %1362)
}

def @func_14388() -> (Tensor[(5, 14, 3), float32], Tensor[(5, 14, 3), bool]) {
  %1363 = @func_12676() /* ty=(Tensor[(5, 14, 3), float32],) */;
  %1364 = @func_2566() /* ty=(Tensor[(5, 14, 3), bool],) */;
  %1365 = %1363.0;
  %1366 = %1364.0;
  (%1365, %1366)
}

def @func_18278() -> Tensor[(5, 14, 3), float32] {
  %1367 = @func_7493() /* ty=(Tensor[(5, 14, 3), float32], Tensor[(5, 14, 3), float32]) */;
  %1367.0
}

def @func_14429() -> (Tensor[(5, 14, 3), float32],) {
  %1368 = @func_7319() /* ty=(Tensor[(5, 14, 3), float32], Tensor[(5, 14, 3), float32]) */;
  %1369 = %1368.0;
  (%1369,)
}

def @func_23682() -> (Tensor[(5, 14, 3), float32],) {
  %1370 = @func_2853() /* ty=(Tensor[(5, 14, 3), float32],) */;
  %1371 = %1370.0;
  (%1371,)
}

def @func_28774() -> (Tensor[(5, 14, 3), float32], Tensor[(5, 14, 3), float32], Tensor[(5, 14, 3), float32], Tensor[(5, 14, 3), bool]) {
  %1372 = @func_4264() /* ty=(Tensor[(5, 14, 3), float32],) */;
  %1373 = @func_14388() /* ty=(Tensor[(5, 14, 3), float32], Tensor[(5, 14, 3), bool]) */;
  %1374 = @func_3987() /* ty=Tensor[(5, 14, 3), float32] */;
  %1375 = @func_9877() /* ty=Tensor[(5, 14, 3), float32] */;
  %1376 = %1372.0;
  %1377 = %1373.1;
  (%1374, %1375, %1376, %1377)
}

def @func_15081(%var_15068: uint16) -> (Tensor[(5, 14, 3), float32], Tensor[(14, 2, 3), float64], Tensor[(84, 1), float64], Tensor[(5, 14, 3), float32], uint16, Tensor[(5, 14, 3), float32]) {
  %1378 = @func_5934() /* ty=(Tensor[(5, 14, 3), bool], Tensor[(5, 14, 3), float32], Tensor[(1430), float32], Tensor[(5, 14, 3), float32]) */;
  %1379 = cast(meta[relay.Constant][35] /* ty=Tensor[(84, 1), float64] */, dtype="float64") /* ty=Tensor[(84, 1), float64] */;
  %1380 = cast(meta[relay.Constant][35] /* ty=Tensor[(84, 1), float64] */, dtype="float64") /* ty=Tensor[(84, 1), float64] */;
  %1381 = reshape(%1379, newshape=[14, 2, 3]) /* ty=Tensor[(14, 2, 3), float64] */;
  %1382 = reshape(%1380, newshape=[14, 2, 3]) /* ty=Tensor[(14, 2, 3), float64] */;
  %1383 = @func_11817(%1381, %1382) /* ty=(Tensor[(14, 2, 3), float64], Tensor[(5, 14, 3), float32]) */;
  %1384 = cast(%var_15068, dtype="uint16") /* ty=uint16 */;
  %1385 = reshape(%1384, newshape=[]) /* ty=uint16 */;
  %1386 = @func_7866(%1385) /* ty=(Tensor[(5, 14, 3), float32], Tensor[(5, 14, 3), float32], uint16, Tensor[(72), uint16]) */;
  %1387 = %1378.1;
  %1388 = %1383.0;
  %1389 = %1386.1;
  %1390 = @func_3032() /* ty=Tensor[(5, 14, 3), float32] */;
  (%1387, %1388, meta[relay.Constant][35] /* ty=Tensor[(84, 1), float64] */, %1389, %var_15068, %1390)
}

def @func_23360(%var_23346: Tensor[(1430), float64]) -> (Tensor[(5, 14, 3), bool], Tensor[(10, 13, 11), float64], Tensor[(1430), float64]) {
  %1391 = @func_17369() /* ty=(Tensor[(5, 14, 3), float32], Tensor[(5, 14, 3), bool]) */;
  %1392 = cast(%var_23346, dtype="float64") /* ty=Tensor[(1430), float64] */;
  %1393 = reshape(%1392, newshape=[10, 13, 11]) /* ty=Tensor[(10, 13, 11), float64] */;
  %1394 = %1391.1;
  %1395 = @func_745(%1393) /* ty=Tensor[(10, 13, 11), float64] */;
  (%1394, %1395, %var_23346)
}

def @func_17804(%var_17780: Tensor[(4, 1, 15), float32]) -> Tensor[(4, 1, 15), float32] {
  %1396 = cast(%var_17780, dtype="float32") /* ty=Tensor[(4, 1, 15), float32] */;
  asin(%1396) /* ty=Tensor[(4, 1, 15), float32] */
}

def @func_28062() -> Tensor[(5, 14, 3), float32] {
  %1397 = @func_11139() /* ty=(Tensor[(5, 14, 3), float32], Tensor[(5, 14, 3), bool]) */;
  %1397.0
}

def @func_2813(%var_2810: Tensor[(1430), float64]) -> (Tensor[(5, 14, 3), float32], Tensor[(5, 14, 3), float64], Tensor[(5, 14, 3), float32], Tensor[(5, 14, 3), float32], Tensor[(1430), float64]) {
  %1398 = @func_1870() /* ty=(Tensor[(5, 14, 3), float32],) */;
  %1399 = @func_855() /* ty=(Tensor[(5, 14, 3), float32], Tensor[(5, 14, 3), float32]) */;
  %1400 = %1399.0;
  %1401 = cast(%1400, dtype="float64") /* ty=Tensor[(5, 14, 3), float64] */;
  %1402 = cast(%var_2810, dtype="float64") /* ty=Tensor[(1430), float64] */;
  %1403 = reshape(%1402, newshape=[1430]) /* ty=Tensor[(1430), float64] */;
  %1404 = @func_954(%1403) /* ty=(Tensor[(5, 14, 3), float32], Tensor[(5, 14, 3), float32], Tensor[(1430), float64], Tensor[(5, 14, 3), int8]) */;
  %1405 = %1398.0;
  %1406 = erf(%1401) /* ty=Tensor[(5, 14, 3), float64] */;
  %1407 = @func_692() /* ty=Tensor[(5, 14, 3), float32] */;
  %1408 = %1404.0;
  (%1405, %1406, %1407, %1408, %var_2810)
}

def @func_17729() -> Tensor[(5, 14, 3), float32] {
  %1409 = @func_10521() /* ty=(Tensor[(5, 14, 3), float32], Tensor[(5, 14, 3), float32]) */;
  %1409.0
}

def @func_16537() -> (Tensor[(5, 14, 3), float32],) {
  %1410 = @func_14211() /* ty=(Tensor[(5, 14, 3), float32], Tensor[(5, 14, 3), float64]) */;
  %1411 = %1410.0;
  (%1411,)
}

def @func_30900() -> (Tensor[(5, 14, 3), float32],) {
  %1412 = @func_1912() /* ty=(Tensor[(5, 14, 3), float32],) */;
  %1413 = %1412.0;
  (%1413,)
}

def @func_773(%var_756: Tensor[(1430), float64]) -> (Tensor[(5, 14, 3), float32], Tensor[(10, 13, 11), float64], Tensor[(1430), float64]) {
  %1414 = @func_498() /* ty=(Tensor[(5, 14, 3), float32],) */;
  %1415 = cast(%var_756, dtype="float64") /* ty=Tensor[(1430), float64] */;
  %1416 = reshape(%1415, newshape=[10, 13, 11]) /* ty=Tensor[(10, 13, 11), float64] */;
  %1417 = %1414.0;
  %1418 = @func_745(%1416) /* ty=Tensor[(10, 13, 11), float64] */;
  (%1417, %1418, %var_756)
}

def @func_28643() -> (Tensor[(5, 14, 3), float32], Tensor[(5, 14, 3), int8], Tensor[(1430), float64]) {
  %1419 = @func_6095() /* ty=(Tensor[(15, 16, 4), float32], Tensor[(5, 14, 3), int8], Tensor[(5, 14, 3), float32]) */;
  %1420 = @func_25420() /* ty=(Tensor[(5, 14, 3), int8],) */;
  %1421 = @func_28331() /* ty=(Tensor[(1430), float64], Tensor[(5, 14, 3), float32], Tensor[(7, 6, 14), int64], Tensor[(14, 42), int64], Tensor[(5, 14, 3), float32]) */;
  %1422 = %1419.2;
  %1423 = %1420.0;
  %1424 = %1421.0;
  (%1422, %1423, %1424)
}

def @func_1764() -> Tensor[(5, 14, 3), float32] {
  %1425 = @func_467() /* ty=(Tensor[(5, 14, 3), float32],) */;
  %1425.0
}

def @func_12738() -> (Tensor[(5, 14, 3), float32], Tensor[(5, 14, 3), float32], Tensor[(1430, 1), float64]) {
  %1426 = @func_9008() /* ty=(Tensor[(5, 14, 3), float32], Tensor[(5, 14, 3), float32]) */;
  %1427 = cast(meta[relay.Constant][36] /* ty=Tensor[(1430, 1), float64] */, dtype="float64") /* ty=Tensor[(1430, 1), float64] */;
  %1428 = reshape(%1427, newshape=[1430]) /* ty=Tensor[(1430), float64] */;
  %1429 = @func_2813(%1428) /* ty=(Tensor[(5, 14, 3), float32], Tensor[(5, 14, 3), float64], Tensor[(5, 14, 3), float32], Tensor[(5, 14, 3), float32], Tensor[(1430), float64]) */;
  %1430 = %1426.1;
  %1431 = %1429.0;
  (%1430, %1431, meta[relay.Constant][36] /* ty=Tensor[(1430, 1), float64] */)
}

def @func_9786() -> (Tensor[(5, 14, 3), float32], Tensor[(5, 14, 3), float32]) {
  %1432 = @func_7493() /* ty=(Tensor[(5, 14, 3), float32], Tensor[(5, 14, 3), float32]) */;
  %1433 = @func_5880() /* ty=(Tensor[(5, 14, 3), float32], Tensor[(5, 14, 3), int8], Tensor[(5, 14, 3), float32]) */;
  %1434 = %1432.0;
  %1435 = %1433.0;
  (%1434, %1435)
}

def @func_29266() -> Tensor[(5, 14, 3), float32] {
  %1436 = @func_5304() /* ty=(Tensor[(5, 14, 3), float32], Tensor[(5, 14, 3), float32]) */;
  %1436.0
}

def @func_25964() -> (Tensor[(5, 14, 3), float32],) {
  %1437 = @func_23975() /* ty=Tensor[(5, 14, 3), float32] */;
  (%1437,)
}

def @func_6676(%var_6639: Tensor[(143, 10), float64]) -> (Tensor[(143, 10), uint16], Tensor[(5, 14, 3), float32], Tensor[(143, 10), float32]) {
  %1438 = @func_2336() /* ty=(Tensor[(5, 14, 3), int8], Tensor[(5, 14, 3), float64], Tensor[(5, 14, 3), float32], Tensor[(143, 10), float64]) */;
  %1439 = %1438.3;
  %1440 = cast(%var_6639, dtype="uint16") /* ty=Tensor[(143, 10), uint16] */;
  %1441 = shape_of(%1439, dtype="int32") /* ty=Tensor[(2), int32] */;
  %1442 = cast(%1439, dtype="uint16") /* ty=Tensor[(143, 10), uint16] */;
  %1443 = dyn.reshape(%1440, %1441, newshape=[]) /* ty=Tensor[(?, ?), uint16] */;
  %1444 = @func_1995() /* ty=(Tensor[(5, 14, 3), float32],) */;
  %1445 = cast(%var_6639, dtype="float32") /* ty=Tensor[(143, 10), float32] */;
  %1446 = rsqrt(%1445) /* ty=Tensor[(143, 10), float32] */;
  %1447 = cast(%1446, dtype="float64") /* ty=Tensor[(143, 10), float64] */;
  %1448 = sigmoid(%1447) /* ty=Tensor[(143, 10), float64] */;
  %1449 = cast(%var_6639, dtype="float32") /* ty=Tensor[(143, 10), float32] */;
  %1450 = shape_of(%1448, dtype="int32") /* ty=Tensor[(2), int32] */;
  %1451 = cast(%1448, dtype="float32") /* ty=Tensor[(143, 10), float32] */;
  %1452 = dyn.reshape(%1449, %1450, newshape=[]) /* ty=Tensor[(?, ?), float32] */;
  %1453 = left_shift(%1442, %1443) /* ty=Tensor[(143, 10), uint16] */;
  %1454 = %1444.0;
  %1455 = power(%1451, %1452) /* ty=Tensor[(143, 10), float32] */;
  (%1453, %1454, %1455)
}

def @func_8801() -> (Tensor[(5, 14, 3), int8], Tensor[(5, 14, 3), float32]) {
  %1456 = @func_5880() /* ty=(Tensor[(5, 14, 3), float32], Tensor[(5, 14, 3), int8], Tensor[(5, 14, 3), float32]) */;
  %1457 = @func_3541() /* ty=(Tensor[(5, 14, 3), float32], Tensor[(5, 14, 3), float32], Tensor[(5, 14, 3), float32]) */;
  %1458 = %1456.1;
  %1459 = %1457.0;
  (%1458, %1459)
}

def @func_26888(%var_26874: Tensor[(1430), float64]) -> (Tensor[(5, 14, 3), float32], Tensor[(5, 14, 3), float32], Tensor[(5, 14, 3), bool], Tensor[(5, 14, 3), float32], Tensor[(1430), float64], Tensor[(5, 14, 3), float32]) {
  %1460 = @func_17714() /* ty=(Tensor[(5, 14, 3), float32], Tensor[(5, 14, 3), float32], Tensor[(5, 14, 3), float32], Tensor[(5, 14, 3), float32]) */;
  %1461 = @func_10897() /* ty=(Tensor[(5, 14, 3), bool],) */;
  %1462 = cast(%var_26874, dtype="float64") /* ty=Tensor[(1430), float64] */;
  %1463 = reshape(%1462, newshape=[1430]) /* ty=Tensor[(1430), float64] */;
  %1464 = @func_16965(%1463) /* ty=(Tensor[(5, 14, 3), float32], Tensor[(5, 14, 3), float32], Tensor[(1430), float64], Tensor[(5, 14, 3), float32], Tensor[(5, 14, 3), float32]) */;
  %1465 = @func_13030() /* ty=Tensor[(5, 14, 3), float32] */;
  %1466 = %1460.2;
  %1467 = %1461.0;
  %1468 = %1464.1;
  %1469 = @func_19966() /* ty=Tensor[(5, 14, 3), float32] */;
  (%1465, %1466, %1467, %1468, %var_26874, %1469)
}

def @func_29415() -> Tensor[(5, 14, 3), float32] {
  %1470 = @func_8276() /* ty=(Tensor[(5, 14, 3), float32], Tensor[(5, 14, 3), float32]) */;
  %1470.0
}

def @func_31103(%var_31045: Tensor[(300), float64], %var_31046: Tensor[(960), float32], %var_31047: Tensor[(1430), float64]) -> (Tensor[(5, 14, 3), float32], Tensor[(1430), float64], Tensor[(300), float64], Tensor[(960), float32], Tensor[(1430), float64]) {
  %1471 = @func_1070() /* ty=(Tensor[(5, 14, 3), float32],) */;
  %1472 = cast(%var_31045, dtype="float64") /* ty=Tensor[(300), float64] */;
  %1473 = cast(%var_31045, dtype="float64") /* ty=Tensor[(300), float64] */;
  %1474 = cast(%var_31046, dtype="float32") /* ty=Tensor[(960), float32] */;
  %1475 = cast(%var_31047, dtype="float64") /* ty=Tensor[(1430), float64] */;
  %1476 = reshape(%1472, newshape=[2, 15, 10]) /* ty=Tensor[(2, 15, 10), float64] */;
  %1477 = reshape(%1473, newshape=[2, 15, 10]) /* ty=Tensor[(2, 15, 10), float64] */;
  %1478 = reshape(%1474, newshape=[960]) /* ty=Tensor[(960), float32] */;
  %1479 = reshape(%1475, newshape=[1430]) /* ty=Tensor[(1430), float64] */;
  %1480 = @func_24523(%1476, %1477, %1478, %1479) /* ty=(Tensor[(2, 15, 10), float64], Tensor[(5, 14, 3), float32], Tensor[(5, 14, 3), float32], Tensor[(15, 16, 4), uint32], Tensor[(960), float32], Tensor[(5, 14, 3), float32], Tensor[(5, 14, 3), float32], Tensor[(5, 14, 3), float32], Tensor[(5, 14, 3), int8], Tensor[(11, 130), int64], Tensor[(1430), float64]) */;
  %1481 = %1471.0;
  %1482 = %1480.10;
  (%1481, %1482, %var_31045, %var_31046, %var_31047)
}

def @func_22895(%var_22882: Tensor[(1430, 1), float64]) -> (Tensor[(5, 14, 3), float32], Tensor[(5, 14, 3), float32], Tensor[(5, 14, 3), int8], Tensor[(1430, 1), float64]) {
  %1483 = @func_5849() /* ty=(Tensor[(5, 14, 3), float32], Tensor[(5, 14, 3), float32]) */;
  %1484 = @func_9126() /* ty=(Tensor[(5, 14, 3), float32],) */;
  %1485 = cast(%var_22882, dtype="float64") /* ty=Tensor[(1430, 1), float64] */;
  %1486 = reshape(%1485, newshape=[1430]) /* ty=Tensor[(1430), float64] */;
  %1487 = @func_954(%1486) /* ty=(Tensor[(5, 14, 3), float32], Tensor[(5, 14, 3), float32], Tensor[(1430), float64], Tensor[(5, 14, 3), int8]) */;
  %1488 = %1483.0;
  %1489 = %1484.0;
  %1490 = %1487.3;
  (%1488, %1489, %1490, %var_22882)
}

def @main(%var_33392: Tensor[(1, 2, 16), int32], %var_33429: Tensor[(80), int64]) -> (Tensor[(14, 2, 16), float32], Tensor[(5, 14, 3), float32], Tensor[(5, 14, 3), float32], Tensor[(5, 14, 3), float32], Tensor[(80), int64], Tensor[(14, 2, 16), uint64]) {
  %1491 = cast(%var_33392, dtype="bool") /* ty=Tensor[(1, 2, 16), bool] */;
  %1492 = cast(meta[relay.Constant][37] /* ty=Tensor[(14, 2, 16), int32] */, dtype="bool") /* ty=Tensor[(14, 2, 16), bool] */;
  %1493 = not_equal(%1491, %1492) /* ty=Tensor[(14, 2, 16), bool] */;
  %1494 = cast(%1493, dtype="float32") /* ty=Tensor[(14, 2, 16), float32] */;
  %1495 = @func_467() /* ty=(Tensor[(5, 14, 3), float32],) */;
  %1496 = cast(%var_33429, dtype="int64") /* ty=Tensor[(80), int64] */;
  %1497 = reshape(%1496, newshape=[10, 4, 2]) /* ty=Tensor[(10, 4, 2), int64] */;
  %1498 = @func_15978(%1497) /* ty=(Tensor[(10, 4, 2), uint32], Tensor[(5, 14, 3), float32], Tensor[(10, 4, 2), float64], Tensor[(5, 14, 3), float32], Tensor[(5, 14, 3), uint64]) */;
  %1499 = cast(%var_33392, dtype="uint64") /* ty=Tensor[(1, 2, 16), uint64] */;
  %1500 = cast(%1493, dtype="uint64") /* ty=Tensor[(14, 2, 16), uint64] */;
  %1501 = atanh(%1494) /* ty=Tensor[(14, 2, 16), float32] */;
  %1502 = %1495.0;
  %1503 = @func_18261() /* ty=Tensor[(5, 14, 3), float32] */;
  %1504 = %1498.3;
  %1505 = subtract(%1499, %1500) /* ty=Tensor[(14, 2, 16), uint64] */;
  (%1501, %1502, %1503, %1504, %var_33429, %1505)
}

def @func_7263() -> Tensor[(5, 14, 3), bool] {
  @func_5832() /* ty=Tensor[(5, 14, 3), bool] */
}

def @func_30695() -> (Tensor[(5, 14, 3), float32],) {
  %1506 = @func_6453() /* ty=(Tensor[(5, 14, 3), float32],) */;
  %1507 = %1506.0;
  (%1507,)
}

def @func_24293() -> Tensor[(5, 14, 3), float32] {
  %1508 = @func_1070() /* ty=(Tensor[(5, 14, 3), float32],) */;
  %1508.0
}

def @func_33159() -> (Tensor[(5, 14, 3), bool], Tensor[(5, 14, 3), float32]) {
  %1509 = @func_24943() /* ty=(Tensor[(5, 14, 3), float32], Tensor[(5, 14, 3), bool]) */;
  %1510 = @func_2213() /* ty=(Tensor[(5, 14, 3), float32],) */;
  %1511 = %1509.1;
  %1512 = %1510.0;
  (%1511, %1512)
}

def @func_6575(%var_6564: Tensor[(11, 11, 16), float32]) -> (Tensor[(11, 11, 16), float32],) {
  %1513 = cast(%var_6564, dtype="float32") /* ty=Tensor[(11, 11, 16), float32] */;
  %1514 = sin(%1513) /* ty=Tensor[(11, 11, 16), float32] */;
  (%1514,)
}

def @func_5880() -> (Tensor[(5, 14, 3), float32], Tensor[(5, 14, 3), int8], Tensor[(5, 14, 3), float32]) {
  %1515 = @func_4313() /* ty=(Tensor[(5, 14, 3), float32],) */;
  %1516 = @func_887() /* ty=(Tensor[(5, 14, 3), float32], Tensor[(5, 14, 3), int8]) */;
  %1517 = @func_4645() /* ty=(Tensor[(5, 14, 3), float32], Tensor[(5, 14, 3), float32], Tensor[(5, 14, 3), float32], Tensor[(5, 14, 3), float32], Tensor[(5, 14, 3), float32]) */;
  %1518 = %1515.0;
  %1519 = %1516.1;
  %1520 = %1517.4;
  (%1518, %1519, %1520)
}

def @func_21473() -> (Tensor[(5, 14, 3), float32],) {
  %1521 = @func_3195() /* ty=(Tensor[(5, 14, 3), float32],) */;
  %1522 = %1521.0;
  (%1522,)
}

def @func_10476() -> (Tensor[(5, 14, 3), float32],) {
  %1523 = @func_3195() /* ty=(Tensor[(5, 14, 3), float32],) */;
  %1524 = %1523.0;
  (%1524,)
}

def @func_7001() -> Tensor[(5, 14, 3), float32] {
  %1525 = @func_498() /* ty=(Tensor[(5, 14, 3), float32],) */;
  %1525.0
}

def @func_20103() -> (Tensor[(5, 14, 3), float32],) {
  %1526 = @func_1764() /* ty=Tensor[(5, 14, 3), float32] */;
  (%1526,)
}

def @func_2908() -> Tensor[(5, 14, 3), float32] {
  %1527 = @func_1912() /* ty=(Tensor[(5, 14, 3), float32],) */;
  %1527.0
}

def @func_21385() -> (Tensor[(5, 14, 3), float32],) {
  %1528 = @func_5627() /* ty=(Tensor[(5, 14, 3), float32], Tensor[(5, 14, 3), int8]) */;
  %1529 = %1528.0;
  (%1529,)
}

def @func_13420() -> Tensor[(5, 14, 3), float32] {
  %1530 = @func_8309() /* ty=(Tensor[(5, 14, 3), float32], Tensor[(15, 16, 4), float32]) */;
  %1530.0
}

def @func_32569() -> (Tensor[(5, 14, 3), float32], Tensor[(5, 14, 3), float32]) {
  %1531 = @func_20018() /* ty=(Tensor[(5, 14, 3), float32], Tensor[(5, 14, 3), float32]) */;
  %1532 = @func_31127() /* ty=Tensor[(5, 14, 3), float32] */;
  %1533 = %1531.0;
  (%1532, %1533)
}

def @func_32470() -> (Tensor[(5, 14, 3), float32], Tensor[(5, 14, 3), bool], Tensor[(5, 14, 3), bool]) {
  %1534 = @func_9126() /* ty=(Tensor[(5, 14, 3), float32],) */;
  %1535 = @func_14533() /* ty=(Tensor[(15, 16, 4), float32], Tensor[(5, 14, 3), bool], Tensor[(5, 14, 3), float32]) */;
  %1536 = @func_29788() /* ty=(Tensor[(7, 6, 14), float32], Tensor[(15, 16, 4), float32], Tensor[(5, 14, 3), bool]) */;
  %1537 = %1534.0;
  %1538 = %1535.1;
  %1539 = %1536.2;
  (%1537, %1538, %1539)
}

def @func_855() -> (Tensor[(5, 14, 3), float32], Tensor[(5, 14, 3), float32]) {
  %1540 = @func_498() /* ty=(Tensor[(5, 14, 3), float32],) */;
  %1541 = %1540.0;
  %1542 = cast(%1541, dtype="float32") /* ty=Tensor[(5, 14, 3), float32] */;
  %1543 = @func_498() /* ty=(Tensor[(5, 14, 3), float32],) */;
  %1544 = asinh(%1542) /* ty=Tensor[(5, 14, 3), float32] */;
  %1545 = %1543.0;
  (%1544, %1545)
}

def @func_19494() -> (Tensor[(5, 14, 3), float32],) {
  %1546 = @func_18068() /* ty=(Tensor[(5, 14, 3), float32], Tensor[(5, 14, 3), float32], uint16) */;
  %1547 = %1546.0;
  (%1547,)
}

def @func_14632() -> (Tensor[(5, 14, 3), float32], Tensor[(5, 14, 3), bool], Tensor[(1430), float64]) {
  %1548 = cast(meta[relay.Constant][38] /* ty=Tensor[(1430), float64] */, dtype="float64") /* ty=Tensor[(1430), float64] */;
  %1549 = reshape(%1548, newshape=[1430]) /* ty=Tensor[(1430), float64] */;
  %1550 = @func_6340(%1549) /* ty=(Tensor[(5, 14, 3), int8], Tensor[(5, 14, 3), float32], Tensor[(5, 14, 3), int8], Tensor[(5, 14, 3), float32], Tensor[(5, 14, 3), float32], Tensor[(5, 14, 3), float32], Tensor[(5, 14, 3), bool], Tensor[(5, 14, 3), float32], Tensor[(1430), float64]) */;
  %1551 = @func_6180() /* ty=Tensor[(5, 14, 3), float32] */;
  %1552 = %1550.6;
  (%1551, %1552, meta[relay.Constant][38] /* ty=Tensor[(1430), float64] */)
}

def @func_2276() -> Tensor[(5, 14, 3), bool] {
  %1553 = @func_2249() /* ty=(Tensor[(5, 14, 3), float32], Tensor[(5, 14, 3), bool], Tensor[(5, 14, 3), float32]) */;
  %1553.1
}

def @func_7028() -> (Tensor[(5, 14, 3), float32],) {
  %1554 = @func_498() /* ty=(Tensor[(5, 14, 3), float32],) */;
  %1555 = %1554.0;
  (%1555,)
}

def @func_4336() -> (Tensor[(5, 14, 3), int8],) {
  %1556 = @func_2336() /* ty=(Tensor[(5, 14, 3), int8], Tensor[(5, 14, 3), float64], Tensor[(5, 14, 3), float32], Tensor[(143, 10), float64]) */;
  %1557 = %1556.0;
  (%1557,)
}

def @func_32598() -> (Tensor[(5, 14, 3), float32], Tensor[(5, 14, 3), float64]) {
  %1558 = @func_18391() /* ty=(Tensor[(5, 14, 3), float32],) */;
  %1559 = @func_17647() /* ty=(Tensor[(5, 14, 3), float64],) */;
  %1560 = %1558.0;
  %1561 = %1559.0;
  (%1560, %1561)
}

def @func_29312() -> (Tensor[(5, 14, 3), float64], Tensor[(5, 14, 3), float32]) {
  %1562 = @func_22175() /* ty=(Tensor[(5, 14, 3), float64], Tensor[(5, 14, 3), float32]) */;
  %1563 = @func_7586() /* ty=(Tensor[(5, 14, 3), float32],) */;
  %1564 = %1562.0;
  %1565 = %1563.0;
  (%1564, %1565)
}

def @func_7467(%var_7465: Tensor[(1430), float64]) -> (Tensor[(15, 16, 4), float32], Tensor[(5, 14, 3), float32], Tensor[(1430), float64]) {
  %1566 = @func_6976() /* ty=(Tensor[(15, 16, 4), float32], Tensor[(5, 14, 3), float32], Tensor[(1430), float64], Tensor[(1430), float64], Tensor[(5, 14, 3), float32], Tensor[(10, 13, 11), float32]) */;
  %1567 = cast(%var_7465, dtype="float64") /* ty=Tensor[(1430), float64] */;
  %1568 = reshape(%1567, newshape=[1430]) /* ty=Tensor[(1430), float64] */;
  %1569 = @func_2813(%1568) /* ty=(Tensor[(5, 14, 3), float32], Tensor[(5, 14, 3), float64], Tensor[(5, 14, 3), float32], Tensor[(5, 14, 3), float32], Tensor[(1430), float64]) */;
  %1570 = %1566.0;
  %1571 = %1569.3;
  (%1570, %1571, %var_7465)
}

def @func_22724(%var_22690: Tensor[(5, 3, 16), float64]) -> (Tensor[(5, 14, 3), float32], Tensor[(5, 14, 3), float32], Tensor[(5, 3, 16), bool]) {
  %1572 = @func_1365() /* ty=(Tensor[(5, 14, 3), float32], Tensor[(1430), float64], Tensor[(10, 13, 11), float64], Tensor[(5, 14, 3), float32], Tensor[(5, 14, 3), float64], Tensor[(5, 14, 3), float32], Tensor[(5, 14, 3), float32]) */;
  %1573 = @func_15786() /* ty=(Tensor[(5, 14, 3), float32], Tensor[(5, 14, 3), float32], Tensor[(5, 14, 3), float32]) */;
  %1574 = cast(%var_22690, dtype="float64") /* ty=Tensor[(5, 3, 16), float64] */;
  %1575 = erf(%1574) /* ty=Tensor[(5, 3, 16), float64] */;
  %1576 = cast(%var_22690, dtype="bool") /* ty=Tensor[(5, 3, 16), bool] */;
  %1577 = shape_of(%1575, dtype="int32") /* ty=Tensor[(3), int32] */;
  %1578 = cast(%1575, dtype="bool") /* ty=Tensor[(5, 3, 16), bool] */;
  %1579 = dyn.reshape(%1576, %1577, newshape=[]) /* ty=Tensor[(?, ?, ?), bool] */;
  %1580 = %1572.6;
  %1581 = %1573.2;
  %1582 = greater(%1578, %1579) /* ty=Tensor[(5, 3, 16), bool] */;
  (%1580, %1581, %1582)
}

def @func_23069(%var_23004: Tensor[(13, 1, 2), int8]) -> (Tensor[(13, ?, 2), int8], Tensor[(13, 1, 2), float64], Tensor[(5, 14, 3), float32], Tensor[(5, 14, 3), float32], Tensor[(5, 14, 3), float32]) {
  %1583 = cast(%var_23004, dtype="int8") /* ty=Tensor[(13, 1, 2), int8] */;
  %1584 = shape_of(meta[relay.Constant][39] /* ty=Tensor[(13, 1, 2), int8] */, dtype="int32") /* ty=Tensor[(3), int32] */;
  %1585 = cast(meta[relay.Constant][39] /* ty=Tensor[(13, 1, 2), int8] */, dtype="int8") /* ty=Tensor[(13, 1, 2), int8] */;
  %1586 = dyn.reshape(%1583, %1584, newshape=[]) /* ty=Tensor[(?, ?, ?), int8] */;
  %1587 = cast(%var_23004, dtype="float64") /* ty=Tensor[(13, 1, 2), float64] */;
  %1588 = @func_19640() /* ty=(Tensor[(5, 14, 3), float32], Tensor[(5, 14, 3), float32]) */;
  %1589 = @func_8525() /* ty=(Tensor[(5, 14, 3), float32], Tensor[(5, 14, 3), float32], Tensor[(5, 14, 3), int8], Tensor[(15, 16, 4), float32]) */;
  %1590 = @func_20982() /* ty=(Tensor[(5, 14, 3), float32], Tensor[(5, 14, 3), float32], Tensor[(5, 14, 3), float32], uint16, Tensor[(5, 14, 3), float32], Tensor[(15, 16, 4), uint32]) */;
  %1591 = right_shift(%1585, %1586) /* ty=Tensor[(13, ?, 2), int8] */;
  %1592 = cos(%1587) /* ty=Tensor[(13, 1, 2), float64] */;
  %1593 = %1588.1;
  %1594 = %1589.1;
  %1595 = %1590.4;
  (%1591, %1592, %1593, %1594, %1595)
}

def @func_17768() -> (Tensor[(5, 14, 3), int8], Tensor[(5, 14, 3), float32]) {
  %1596 = @func_16411() /* ty=(Tensor[(5, 14, 3), int8], Tensor[(5, 14, 3), bool], Tensor[(5, 14, 3), float32], Tensor[(5, 14, 3), float32]) */;
  %1597 = %1596.0;
  %1598 = @func_1764() /* ty=Tensor[(5, 14, 3), float32] */;
  (%1597, %1598)
}

def @func_18551() -> (Tensor[(5, 14, 3), float32], Tensor[(5, 14, 3), float32]) {
  %1599 = @func_18210() /* ty=(Tensor[(5, 14, 3), float32],) */;
  %1600 = @func_17714() /* ty=(Tensor[(5, 14, 3), float32], Tensor[(5, 14, 3), float32], Tensor[(5, 14, 3), float32], Tensor[(5, 14, 3), float32]) */;
  %1601 = %1599.0;
  %1602 = %1600.3;
  (%1601, %1602)
}

def @func_16068() -> (Tensor[(5, 14, 3), float32],) {
  %1603 = @func_16042() /* ty=(Tensor[(5, 14, 3), float32], Tensor[(5, 14, 3), float32]) */;
  %1604 = %1603.0;
  (%1604,)
}

def @func_1670(%var_1655: Tensor[(7, 12, 10), float32]) -> (Tensor[(5, 14, 3), int8], Tensor[(7, 12, 10), float32], Tensor[(5, 14, 3), float32]) {
  %1605 = @func_887() /* ty=(Tensor[(5, 14, 3), float32], Tensor[(5, 14, 3), int8]) */;
  %1606 = cast(%var_1655, dtype="float32") /* ty=Tensor[(7, 12, 10), float32] */;
  %1607 = sin(%1606) /* ty=Tensor[(7, 12, 10), float32] */;
  %1608 = cast(%1607, dtype="float32") /* ty=Tensor[(7, 12, 10), float32] */;
  %1609 = @func_887() /* ty=(Tensor[(5, 14, 3), float32], Tensor[(5, 14, 3), int8]) */;
  %1610 = %1605.1;
  %1611 = erf(%1608) /* ty=Tensor[(7, 12, 10), float32] */;
  %1612 = %1609.0;
  (%1610, %1611, %1612)
}

def @func_20429() -> (Tensor[(5, 14, 3), float32], Tensor[(5, 14, 3), float32], Tensor[(5, 14, 3), float32]) {
  %1613 = @func_9126() /* ty=(Tensor[(5, 14, 3), float32],) */;
  %1614 = @func_10691() /* ty=Tensor[(5, 14, 3), float32] */;
  %1615 = %1613.0;
  %1616 = @func_2364() /* ty=Tensor[(5, 14, 3), float32] */;
  (%1614, %1615, %1616)
}

def @func_2566() -> (Tensor[(5, 14, 3), bool],) {
  %1617 = @func_2276() /* ty=Tensor[(5, 14, 3), bool] */;
  (%1617,)
}

def @func_25117() -> (Tensor[(15, 16, 4), float32], Tensor[(5, 14, 3), bool]) {
  %1618 = @func_17588() /* ty=(Tensor[(15, 16, 4), float32], Tensor[(5, 14, 3), float32]) */;
  %1619 = @func_22525() /* ty=(Tensor[(5, 14, 3), bool], Tensor[(5, 14, 3), float32]) */;
  %1620 = %1618.0;
  %1621 = %1619.0;
  (%1620, %1621)
}

def @func_25866() -> (Tensor[(5, 14, 3), float32], Tensor[(5, 14, 3), float32]) {
  %1622 = @func_1070() /* ty=(Tensor[(5, 14, 3), float32],) */;
…
    %2253 = @func_7157() /* ty=(Tensor[(5, 14, 3), float32], Tensor[(5, 14, 3), float32]) */;
    %2254 = @func_4164() /* ty=(Tensor[(15, 16, 4), float32], Tensor[(5, 14, 3), float32], Tensor[(5, 14, 3), float64]) */;
    %2255 = %2253.0;
    %2256 = %2254.2;
    (%2255, %2256)
  };
  %2257() /* ty=(Tensor[(5, 14, 3), float32], Tensor[(5, 14, 3), float64]) */
}

def @func_15360() -> (Tensor[(5, 14, 3), float32],) {
  %2258 = @func_12479() /* ty=(Tensor[(5, 14, 3), float32], Tensor[(5, 14, 3), float32], Tensor[(5, 14, 3), float32], Tensor[(5, 14, 3), bool]) */;
  %2259 = %2258.0;
  (%2259,)
}

def @func_4164() -> (Tensor[(15, 16, 4), float32], Tensor[(5, 14, 3), float32], Tensor[(5, 14, 3), float64]) {
  %2260 = @func_855() /* ty=(Tensor[(5, 14, 3), float32], Tensor[(5, 14, 3), float32]) */;
  %2261 = @func_3195() /* ty=(Tensor[(5, 14, 3), float32],) */;
  %2262 = %2261.0;
  %2263 = cast(%2262, dtype="float64") /* ty=Tensor[(5, 14, 3), float64] */;
  %2264 = @func_2431() /* ty=Tensor[(15, 16, 4), float32] */;
  %2265 = %2260.1;
  %2266 = rsqrt(%2263) /* ty=Tensor[(5, 14, 3), float64] */;
  (%2264, %2265, %2266)
}

def @func_7493() -> (Tensor[(5, 14, 3), float32], Tensor[(5, 14, 3), float32]) {
  %2267 = @func_887() /* ty=(Tensor[(5, 14, 3), float32], Tensor[(5, 14, 3), int8]) */;
  %2268 = @func_7282() /* ty=(Tensor[(5, 14, 3), float32],) */;
  %2269 = %2267.0;
  %2270 = %2268.0;
  (%2269, %2270)
}

def @func_18444() -> (Tensor[(4, 6, 9), float32],) {
  %2273 = fn () -> (Tensor[(4, 6, 9), float32],) {
    %2271 = cast(meta[relay.Constant][49] /* ty=Tensor[(4, 6, 9), float32] */, dtype="float32") /* ty=Tensor[(4, 6, 9), float32] */;
    %2272 = acosh(%2271) /* ty=Tensor[(4, 6, 9), float32] */;
    (%2272,)
  };
  %2273() /* ty=(Tensor[(4, 6, 9), float32],) */
}

def @func_14753() -> (Tensor[(5, 14, 3), int8],) {
  %2276 = fn () -> (Tensor[(5, 14, 3), int8],) {
    %2274 = @func_5627() /* ty=(Tensor[(5, 14, 3), float32], Tensor[(5, 14, 3), int8]) */;
    %2275 = %2274.1;
    (%2275,)
  };
  %2276() /* ty=(Tensor[(5, 14, 3), int8],) */
}

def @func_4559() -> (Tensor[(5, 14, 3), bool], Tensor[(5, 14, 3), bool]) {
  %2277 = @func_2566() /* ty=(Tensor[(5, 14, 3), bool],) */;
  %2278 = @func_4110() /* ty=(Tensor[(5, 14, 3), bool],) */;
  %2279 = %2277.0;
  %2280 = %2278.0;
  (%2279, %2280)
}

def @func_7469(%var_7468: Tensor[(1430), float64]) -> (Tensor[(15, 16, 4), float32], Tensor[(5, 14, 3), float32], Tensor[(1430), float64]) {
  %2287 = fn (%var_7465: Tensor[(1430), float64]) -> (Tensor[(15, 16, 4), float32], Tensor[(5, 14, 3), float32], Tensor[(1430), float64]) {
    %2281 = @func_6976() /* ty=(Tensor[(15, 16, 4), float32], Tensor[(5, 14, 3), float32], Tensor[(1430), float64], Tensor[(1430), float64], Tensor[(5, 14, 3), float32], Tensor[(10, 13, 11), float32]) */;
    %2282 = cast(%var_7465, dtype="float64") /* ty=Tensor[(1430), float64] */;
    %2283 = reshape(%2282, newshape=[1430]) /* ty=Tensor[(1430), float64] */;
    %2284 = @func_2813(%2283) /* ty=(Tensor[(5, 14, 3), float32], Tensor[(5, 14, 3), float64], Tensor[(5, 14, 3), float32], Tensor[(5, 14, 3), float32], Tensor[(1430), float64]) */;
    %2285 = %2281.0;
    %2286 = %2284.3;
    (%2285, %2286, %var_7465)
  };
  %2287(%var_7468) /* ty=(Tensor[(15, 16, 4), float32], Tensor[(5, 14, 3), float32], Tensor[(1430), float64]) */
}

def @func_7111() -> (Tensor[(5, 14, 3), float32], Tensor[(5, 14, 3), float32]) {
  %2292 = fn () -> (Tensor[(5, 14, 3), float32], Tensor[(5, 14, 3), float32]) {
    %2288 = @func_5849() /* ty=(Tensor[(5, 14, 3), float32], Tensor[(5, 14, 3), float32]) */;
    %2289 = @func_3329() /* ty=(Tensor[(15, 16, 4), float32], Tensor[(5, 14, 3), float32], Tensor[(5, 14, 3), bool]) */;
    %2290 = %2288.1;
    %2291 = %2289.1;
    (%2290, %2291)
  };
  %2292() /* ty=(Tensor[(5, 14, 3), float32], Tensor[(5, 14, 3), float32]) */
}

def @func_6190() -> (Tensor[(5, 14, 3), float32],) {
  @func_6188() /* ty=(Tensor[(5, 14, 3), float32],) */
}

def @func_17770() -> (Tensor[(5, 14, 3), int8], Tensor[(5, 14, 3), float32]) {
  @func_17768() /* ty=(Tensor[(5, 14, 3), int8], Tensor[(5, 14, 3), float32]) */
}

def @func_10884() -> (Tensor[(5, 14, 3), float32],) {
  @func_10882() /* ty=(Tensor[(5, 14, 3), float32],) */
}

def @func_24239() -> (Tensor[(5, 14, 3), float32], Tensor[(5, 14, 3), float32]) {
  %2293 = @func_17420() /* ty=(Tensor[(5, 14, 3), float32],) */;
  %2294 = @func_7665() /* ty=(Tensor[(5, 14, 3), float32],) */;
  %2295 = %2293.0;
  %2296 = %2294.0;
  (%2295, %2296)
}

def @func_22037() -> (Tensor[(5, 14, 3), float32],) {
  %2297 = @func_8892() /* ty=(Tensor[(5, 14, 3), float32], Tensor[(5, 14, 3), bool]) */;
  %2298 = %2297.0;
  (%2298,)
}

def @func_13338() -> Tensor[(5, 14, 3), float32] {
  %2299 = @func_7493() /* ty=(Tensor[(5, 14, 3), float32], Tensor[(5, 14, 3), float32]) */;
  %2299.0
}

def @func_28270() -> (uint16, Tensor[(5, 14, 3), float32]) {
  @func_28268() /* ty=(uint16, Tensor[(5, 14, 3), float32]) */
}

def @func_25909() -> (Tensor[(5, 14, 3), float32], Tensor[(5, 14, 3), float64]) {
  @func_25907() /* ty=(Tensor[(5, 14, 3), float32], Tensor[(5, 14, 3), float64]) */
}

def @func_28268() -> (uint16, Tensor[(5, 14, 3), float32]) {
  %2300 = @func_20982() /* ty=(Tensor[(5, 14, 3), float32], Tensor[(5, 14, 3), float32], Tensor[(5, 14, 3), float32], uint16, Tensor[(5, 14, 3), float32], Tensor[(15, 16, 4), uint32]) */;
  %2301 = %2300.3;
  %2302 = @func_11942() /* ty=Tensor[(5, 14, 3), float32] */;
  (%2301, %2302)
}

def @func_24889() -> (Tensor[(15, 16, 4), uint32],) {
  %2305 = fn () -> (Tensor[(15, 16, 4), uint32],) {
    %2303 = @func_14056() /* ty=(Tensor[(15, 16, 4), uint32], Tensor[(15, 11, 11), float64]) */;
    %2304 = %2303.0;
    (%2304,)
  };
  %2305() /* ty=(Tensor[(15, 16, 4), uint32],) */
}

def @func_5773() -> (Tensor[(15, 16, 4), float32], Tensor[(5, 14, 3), float32], Tensor[(15, 16, 4), uint32]) {
  %2306 = @func_5520() /* ty=(Tensor[(15, 16, 4), float32], Tensor[(5, 14, 3), float32]) */;
  %2307 = @func_3382() /* ty=(Tensor[(5, 14, 3), float32],) */;
  %2308 = %2306.0;
  %2309 = cast(%2308, dtype="float32") /* ty=Tensor[(15, 16, 4), float32] */;
  %2310 = reshape(%2309, newshape=[15, 16, 4]) /* ty=Tensor[(15, 16, 4), float32] */;
  %2311 = @func_3929(%2310) /* ty=(Tensor[(15, 16, 4), uint32],) */;
  %2312 = %2307.0;
  %2313 = %2311.0;
  (%2308, %2312, %2313)
}

def @func_1070() -> (Tensor[(5, 14, 3), float32],) {
  %2314 = @func_692() /* ty=Tensor[(5, 14, 3), float32] */;
  (%2314,)
}

def @func_23299() -> (Tensor[(5, 14, 3), float32], Tensor[(5, 14, 3), float32], Tensor[(5, 6, 4), float64]) {
  @func_23297() /* ty=(Tensor[(5, 14, 3), float32], Tensor[(5, 14, 3), float32], Tensor[(5, 6, 4), float64]) */
}

def @func_4091() -> Tensor[(5, 14, 3), float32] {
  %2315 = @func_2853() /* ty=(Tensor[(5, 14, 3), float32],) */;
  %2315.0
}

def @func_28932() -> Tensor[(5, 14, 3), float32] {
  @func_28930() /* ty=Tensor[(5, 14, 3), float32] */
}

def @func_2250() -> (Tensor[(5, 14, 3), float32], Tensor[(5, 14, 3), bool], Tensor[(5, 14, 3), float32]) {
  %2323 = fn () -> (Tensor[(5, 14, 3), float32], Tensor[(5, 14, 3), bool], Tensor[(5, 14, 3), float32]) {
    %2316 = @func_2014() /* ty=(Tensor[(5, 14, 3), float32],) */;
    %2317 = %2316.0;
    %2318 = cast(%2317, dtype="float32") /* ty=Tensor[(5, 14, 3), float32] */;
    %2319 = reshape(%2318, newshape=[5, 14, 3]) /* ty=Tensor[(5, 14, 3), float32] */;
    %2320 = @func_1365() /* ty=(Tensor[(5, 14, 3), float32], Tensor[(1430), float64], Tensor[(10, 13, 11), float64], Tensor[(5, 14, 3), float32], Tensor[(5, 14, 3), float64], Tensor[(5, 14, 3), float32], Tensor[(5, 14, 3), float32]) */;
    %2321 = @func_1196(%2319) /* ty=Tensor[(5, 14, 3), bool] */;
    %2322 = %2320.0;
    (%2317, %2321, %2322)
  };
  %2323() /* ty=(Tensor[(5, 14, 3), float32], Tensor[(5, 14, 3), bool], Tensor[(5, 14, 3), float32]) */
}

def @func_11944() -> Tensor[(5, 14, 3), float32] {
  @func_11942() /* ty=Tensor[(5, 14, 3), float32] */
}

def @func_29173(%var_29160: Tensor[(8, 16, 16), float64]) -> Tensor[(8, 16, 16), float64] {
  %2324 = cast(%var_29160, dtype="float64") /* ty=Tensor[(8, 16, 16), float64] */;
  %2325 = shape_of(meta[relay.Constant][50] /* ty=Tensor[(8, 16, 16), float64] */, dtype="int32") /* ty=Tensor[(3), int32] */;
  %2326 = cast(meta[relay.Constant][50] /* ty=Tensor[(8, 16, 16), float64] */, dtype="float64") /* ty=Tensor[(8, 16, 16), float64] */;
  %2327 = dyn.reshape(%2324, %2325, newshape=[]) /* ty=Tensor[(?, ?, ?), float64] */;
  floor_mod(%2326, %2327) /* ty=Tensor[(8, 16, 16), float64] */
}

def @func_18325() -> Tensor[(5, 14, 3), bool] {
  %2329 = fn () -> Tensor[(5, 14, 3), bool] {
    %2328 = @func_8892() /* ty=(Tensor[(5, 14, 3), float32], Tensor[(5, 14, 3), bool]) */;
    %2328.1
  };
  %2329() /* ty=Tensor[(5, 14, 3), bool] */
}

def @main(%var_33392: Tensor[(1, 2, 16), int32], %var_33429: Tensor[(80), int64]) -> (Tensor[(14, 2, 16), float32], Tensor[(5, 14, 3), float32], Tensor[(5, 14, 3), float32], Tensor[(5, 14, 3), float32], Tensor[(80), int64], Tensor[(14, 2, 16), uint64]) {
  %2330 = cast(%var_33392, dtype="bool") /* ty=Tensor[(1, 2, 16), bool] */;
  %2331 = cast(meta[relay.Constant][51] /* ty=Tensor[(14, 2, 16), int32] */, dtype="bool") /* ty=Tensor[(14, 2, 16), bool] */;
  %2332 = not_equal(%2330, %2331) /* ty=Tensor[(14, 2, 16), bool] */;
  %2333 = cast(%2332, dtype="float32") /* ty=Tensor[(14, 2, 16), float32] */;
  %2334 = @func_469() /* ty=(Tensor[(5, 14, 3), float32],) */;
  %2335 = cast(%var_33429, dtype="int64") /* ty=Tensor[(80), int64] */;
  %2336 = reshape(%2335, newshape=[10, 4, 2]) /* ty=Tensor[(10, 4, 2), int64] */;
  %2337 = @func_15980(%2336) /* ty=(Tensor[(10, 4, 2), uint32], Tensor[(5, 14, 3), float32], Tensor[(10, 4, 2), float64], Tensor[(5, 14, 3), float32], Tensor[(5, 14, 3), uint64]) */;
  %2338 = cast(%var_33392, dtype="uint64") /* ty=Tensor[(1, 2, 16), uint64] */;
  %2339 = cast(%2332, dtype="uint64") /* ty=Tensor[(14, 2, 16), uint64] */;
  %2340 = atanh(%2333) /* ty=Tensor[(14, 2, 16), float32] */;
  %2341 = %2334.0;
  %2342 = @func_18261() /* ty=Tensor[(5, 14, 3), float32] */;
  %2343 = %2337.3;
  %2344 = subtract(%2338, %2339) /* ty=Tensor[(14, 2, 16), uint64] */;
  (%2340, %2341, %2342, %2343, %var_33429, %2344)
}

def @func_19048() -> (Tensor[(5, 14, 3), float32], Tensor[(5, 14, 3), float32], Tensor[(5, 14, 3), float32]) {
  %2345 = @func_9609() /* ty=(Tensor[(5, 14, 3), bool], Tensor[(5, 14, 3), float32]) */;
  %2346 = @func_5849() /* ty=(Tensor[(5, 14, 3), float32], Tensor[(5, 14, 3), float32]) */;
  %2347 = @func_6180() /* ty=Tensor[(5, 14, 3), float32] */;
  %2348 = %2345.1;
  %2349 = %2346.1;
  (%2347, %2348, %2349)
}

def @func_5389() -> (Tensor[(5, 14, 3), float32], Tensor[(5, 14, 3), float32], Tensor[(5, 14, 3), bool], Tensor[(5, 14, 3), float32]) {
  @func_5387() /* ty=(Tensor[(5, 14, 3), float32], Tensor[(5, 14, 3), float32], Tensor[(5, 14, 3), bool], Tensor[(5, 14, 3), float32]) */
}

def @func_19399() -> (Tensor[(5, 14, 3), float32], Tensor[(15, 16, 4), float32], Tensor[(5, 14, 3), float32], Tensor[(14, 6, 12), bool], Tensor[(1008), uint8]) {
  @func_19397() /* ty=(Tensor[(5, 14, 3), float32], Tensor[(15, 16, 4), float32], Tensor[(5, 14, 3), float32], Tensor[(14, 6, 12), bool], Tensor[(1008), uint8]) */
}

def @func_1072() -> (Tensor[(5, 14, 3), float32],) {
  @func_1070() /* ty=(Tensor[(5, 14, 3), float32],) */
}

def @func_25463() -> Tensor[(5, 14, 3), int8] {
  %2350 = @func_13482() /* ty=(Tensor[(5, 14, 3), float32], Tensor[(5, 14, 3), float32], Tensor[(5, 14, 3), int8], Tensor[(5, 14, 3), int8], Tensor[(5, 14, 3), float32], Tensor[(5, 14, 3), float32]) */;
  %2350.3
}

def @func_2276() -> Tensor[(5, 14, 3), bool] {
  %2351 = @func_2249() /* ty=(Tensor[(5, 14, 3), float32], Tensor[(5, 14, 3), bool], Tensor[(5, 14, 3), float32]) */;
  %2351.1
}

def @func_17715() -> (Tensor[(5, 14, 3), float32], Tensor[(5, 14, 3), float32], Tensor[(5, 14, 3), float32], Tensor[(5, 14, 3), float32]) {
  %2360 = fn () -> (Tensor[(5, 14, 3), float32], Tensor[(5, 14, 3), float32], Tensor[(5, 14, 3), float32], Tensor[(5, 14, 3), float32]) {
    %2352 = @func_16222() /* ty=(Tensor[(5, 14, 3), float32],) */;
    %2353 = @func_12523() /* ty=(Tensor[(5, 14, 3), float32], Tensor[(1430), float32]) */;
    %2354 = @func_16042() /* ty=(Tensor[(5, 14, 3), float32], Tensor[(5, 14, 3), float32]) */;
    %2355 = @func_8339() /* ty=(Tensor[(5, 14, 3), float32], Tensor[(5, 14, 3), float32]) */;
    %2356 = %2352.0;
    %2357 = %2353.0;
    %2358 = %2354.0;
    %2359 = %2355.1;
    (%2356, %2357, %2358, %2359)
  };
  %2360() /* ty=(Tensor[(5, 14, 3), float32], Tensor[(5, 14, 3), float32], Tensor[(5, 14, 3), float32], Tensor[(5, 14, 3), float32]) */
}

def @func_15362() -> (Tensor[(5, 14, 3), float32],) {
  @func_15360() /* ty=(Tensor[(5, 14, 3), float32],) */
}

def @func_6678(%var_6677: Tensor[(143, 10), float64]) -> (Tensor[(143, 10), uint16], Tensor[(5, 14, 3), float32], Tensor[(143, 10), float32]) {
  %2379 = fn (%var_6639: Tensor[(143, 10), float64]) -> (Tensor[(143, 10), uint16], Tensor[(5, 14, 3), float32], Tensor[(143, 10), float32]) {
    %2361 = @func_2336() /* ty=(Tensor[(5, 14, 3), int8], Tensor[(5, 14, 3), float64], Tensor[(5, 14, 3), float32], Tensor[(143, 10), float64]) */;
    %2362 = %2361.3;
    %2363 = cast(%var_6639, dtype="uint16") /* ty=Tensor[(143, 10), uint16] */;
    %2364 = shape_of(%2362, dtype="int32") /* ty=Tensor[(2), int32] */;
    %2365 = cast(%2362, dtype="uint16") /* ty=Tensor[(143, 10), uint16] */;
    %2366 = dyn.reshape(%2363, %2364, newshape=[]) /* ty=Tensor[(?, ?), uint16] */;
    %2367 = @func_1995() /* ty=(Tensor[(5, 14, 3), float32],) */;
    %2368 = cast(%var_6639, dtype="float32") /* ty=Tensor[(143, 10), float32] */;
    %2369 = rsqrt(%2368) /* ty=Tensor[(143, 10), float32] */;
    %2370 = cast(%2369, dtype="float64") /* ty=Tensor[(143, 10), float64] */;
    %2371 = sigmoid(%2370) /* ty=Tensor[(143, 10), float64] */;
    %2372 = cast(%var_6639, dtype="float32") /* ty=Tensor[(143, 10), float32] */;
    %2373 = shape_of(%2371, dtype="int32") /* ty=Tensor[(2), int32] */;
    %2374 = cast(%2371, dtype="float32") /* ty=Tensor[(143, 10), float32] */;
    %2375 = dyn.reshape(%2372, %2373, newshape=[]) /* ty=Tensor[(?, ?), float32] */;
    %2376 = left_shift(%2365, %2366) /* ty=Tensor[(143, 10), uint16] */;
    %2377 = %2367.0;
    %2378 = power(%2374, %2375) /* ty=Tensor[(143, 10), float32] */;
    (%2376, %2377, %2378)
  };
  %2379(%var_6677) /* ty=(Tensor[(143, 10), uint16], Tensor[(5, 14, 3), float32], Tensor[(143, 10), float32]) */
}

def @func_19787() -> (Tensor[(5, 14, 3), float32],) {
  %2382 = fn () -> (Tensor[(5, 14, 3), float32],) {
    %2380 = @func_12279() /* ty=(Tensor[(5, 14, 3), float32], Tensor[(5, 14, 3), float32]) */;
    %2381 = %2380.0;
    (%2381,)
  };
  %2382() /* ty=(Tensor[(5, 14, 3), float32],) */
}

def @func_22525() -> (Tensor[(5, 14, 3), bool], Tensor[(5, 14, 3), float32]) {
  %2383 = @func_4559() /* ty=(Tensor[(5, 14, 3), bool], Tensor[(5, 14, 3), bool]) */;
  %2384 = @func_16411() /* ty=(Tensor[(5, 14, 3), int8], Tensor[(5, 14, 3), bool], Tensor[(5, 14, 3), float32], Tensor[(5, 14, 3), float32]) */;
  %2385 = %2383.1;
  %2386 = %2384.3;
  (%2385, %2386)
}

def @func_25782(%var_25781: Tensor[(432), uint32]) -> (Tensor[(5, 14, 3), bool], Tensor[(5, 14, 3), float32], Tensor[(5, 14, 3), bool], Tensor[(432), uint32], Tensor[(5, 14, 3), float32]) {
  %2396 = fn (%var_25767: Tensor[(432), uint32]) -> (Tensor[(5, 14, 3), bool], Tensor[(5, 14, 3), float32], Tensor[(5, 14, 3), bool], Tensor[(432), uint32], Tensor[(5, 14, 3), float32]) {
    %2387 = @func_9345() /* ty=(Tensor[(5, 14, 3), float32], Tensor[(5, 14, 3), float32], Tensor[(5, 14, 3), float32]) */;
    %2388 = cast(%var_25767, dtype="uint32") /* ty=Tensor[(432), uint32] */;
    %2389 = reshape(%2388, newshape=[9, 4, 12]) /* ty=Tensor[(9, 4, 12), uint32] */;
    %2390 = @func_12800(%2389) /* ty=(Tensor[(9, 4, 12), uint32], Tensor[(5, 14, 3), bool]) */;
    %2391 = @func_20463() /* ty=(Tensor[(5, 14, 3), bool], Tensor[(5, 14, 3), float32], Tensor[(5, 14, 3), float32]) */;
    %2392 = @func_7263() /* ty=Tensor[(5, 14, 3), bool] */;
    %2393 = %2387.0;
    %2394 = %2390.1;
    %2395 = %2391.1;
    (%2392, %2393, %2394, %var_25767, %2395)
  };
  %2396(%var_25781) /* ty=(Tensor[(5, 14, 3), bool], Tensor[(5, 14, 3), float32], Tensor[(5, 14, 3), bool], Tensor[(432), uint32], Tensor[(5, 14, 3), float32]) */
}

def @func_9008() -> (Tensor[(5, 14, 3), float32], Tensor[(5, 14, 3), float32]) {
  %2397 = @func_2014() /* ty=(Tensor[(5, 14, 3), float32],) */;
  %2398 = @func_1923() /* ty=Tensor[(5, 14, 3), float32] */;
  %2399 = %2397.0;
  (%2398, %2399)
}

def @func_12879() -> (Tensor[(5, 14, 3), float32], Tensor[(5, 14, 3), int8]) {
  %2400 = @func_11411() /* ty=(Tensor[(5, 14, 3), float32], Tensor[(5, 14, 3), float32]) */;
  %2401 = @func_5440() /* ty=(Tensor[(5, 14, 3), int8],) */;
  %2402 = %2400.0;
  %2403 = %2401.0;
  (%2402, %2403)
}

def @func_3872(%var_3871: Tensor[(1430), float64]) -> (Tensor[(5, 14, 3), float32], Tensor[(5, 14, 3), float32], Tensor[(5, 14, 3), float32], Tensor[(1430), float64], Tensor[(1430), float64], Tensor[(1430), float64]) {
  %2416 = fn (%var_3858: Tensor[(1430), float64]) -> (Tensor[(5, 14, 3), float32], Tensor[(5, 14, 3), float32], Tensor[(5, 14, 3), float32], Tensor[(1430), float64], Tensor[(1430), float64], Tensor[(1430), float64]) {
    %2404 = @func_2213() /* ty=(Tensor[(5, 14, 3), float32],) */;
    %2405 = @func_3382() /* ty=(Tensor[(5, 14, 3), float32],) */;
    %2406 = @func_2014() /* ty=(Tensor[(5, 14, 3), float32],) */;
    %2407 = cast(%var_3858, dtype="float64") /* ty=Tensor[(1430), float64] */;
    %2408 = reshape(%2407, newshape=[1430]) /* ty=Tensor[(1430), float64] */;
    %2409 = @func_3148(%2408) /* ty=(Tensor[(5, 14, 3), float32], Tensor[(10, 13, 11), float64], Tensor[(1430), float64], Tensor[(5, 14, 3), float32]) */;
    %2410 = @func_1365() /* ty=(Tensor[(5, 14, 3), float32], Tensor[(1430), float64], Tensor[(10, 13, 11), float64], Tensor[(5, 14, 3), float32], Tensor[(5, 14, 3), float64], Tensor[(5, 14, 3), float32], Tensor[(5, 14, 3), float32]) */;
    %2411 = %2404.0;
    %2412 = %2405.0;
    %2413 = %2406.0;
    %2414 = %2409.2;
    %2415 = %2410.1;
    (%2411, %2412, %2413, %2414, %var_3858, %2415)
  };
  %2416(%var_3871) /* ty=(Tensor[(5, 14, 3), float32], Tensor[(5, 14, 3), float32], Tensor[(5, 14, 3), float32], Tensor[(1430), float64], Tensor[(1430), float64], Tensor[(1430), float64]) */
}

def @func_19593() -> (Tensor[(15, 16, 4), float32],) {
  %2417 = @func_17588() /* ty=(Tensor[(15, 16, 4), float32], Tensor[(5, 14, 3), float32]) */;
  %2418 = %2417.0;
  (%2418,)
}

def @func_25677() -> (Tensor[(5, 14, 3), float32], Tensor[(5, 14, 3), float32]) {
  @func_25675() /* ty=(Tensor[(5, 14, 3), float32], Tensor[(5, 14, 3), float32]) */
}

def @func_30852() -> (Tensor[(5, 14, 3), float32], Tensor[(5, 14, 3), float32]) {
  %2419 = @func_15786() /* ty=(Tensor[(5, 14, 3), float32], Tensor[(5, 14, 3), float32], Tensor[(5, 14, 3), float32]) */;
  %2420 = @func_21473() /* ty=(Tensor[(5, 14, 3), float32],) */;
  %2421 = %2419.1;
  %2422 = %2420.0;
  (%2421, %2422)
}

def @func_18607() -> Tensor[(5, 14, 3), bool] {
  %2424 = fn () -> Tensor[(5, 14, 3), bool] {
    %2423 = @func_2566() /* ty=(Tensor[(5, 14, 3), bool],) */;
    %2423.0
  };
  %2424() /* ty=Tensor[(5, 14, 3), bool] */
}

def @func_8717() -> (Tensor[(5, 14, 3), float32], Tensor[(5, 14, 3), int8], Tensor[(5, 14, 3), float32]) {
  @func_8715() /* ty=(Tensor[(5, 14, 3), float32], Tensor[(5, 14, 3), int8], Tensor[(5, 14, 3), float32]) */
}

def @func_20983() -> (Tensor[(5, 14, 3), float32], Tensor[(5, 14, 3), float32], Tensor[(5, 14, 3), float32], uint16, Tensor[(5, 14, 3), float32], Tensor[(15, 16, 4), uint32]) {
  %2437 = fn () -> (Tensor[(5, 14, 3), float32], Tensor[(5, 14, 3), float32], Tensor[(5, 14, 3), float32], uint16, Tensor[(5, 14, 3), float32], Tensor[(15, 16, 4), uint32]) {
    %2425 = @func_19868() /* ty=(Tensor[(5, 14, 3), float32], Tensor[(5, 14, 3), float32]) */;
    %2426 = @func_12599() /* ty=(Tensor[(5, 14, 3), bool], Tensor[(5, 14, 3), float32], Tensor[(5, 14, 3), int16], Tensor[(5, 14, 3), float32]) */;
    %2427 = cast(meta[relay.Constant][52] /* ty=uint16 */, dtype="uint16") /* ty=uint16 */;
    %2428 = reshape(%2427, newshape=[]) /* ty=uint16 */;
    %2429 = @func_17954(%2428) /* ty=(Tensor[(5, 14, 3), float32], Tensor[(5, 14, 3), float32], Tensor[(5, 14, 3), float32], uint16) */;
    %2430 = @func_6095() /* ty=(Tensor[(15, 16, 4), float32], Tensor[(5, 14, 3), int8], Tensor[(5, 14, 3), float32]) */;
    %2431 = @func_5773() /* ty=(Tensor[(15, 16, 4), float32], Tensor[(5, 14, 3), float32], Tensor[(15, 16, 4), uint32]) */;
    %2432 = %2425.1;
    %2433 = %2426.1;
    %2434 = %2429.0;
    %2435 = %2430.2;
    %2436 = %2431.2;
    (%2432, %2433, %2434, meta[relay.Constant][52] /* ty=uint16 */, %2435, %2436)
  };
  %2437() /* ty=(Tensor[(5, 14, 3), float32], Tensor[(5, 14, 3), float32], Tensor[(5, 14, 3), float32], uint16, Tensor[(5, 14, 3), float32], Tensor[(15, 16, 4), uint32]) */
}

def @func_1670(%var_1655: Tensor[(7, 12, 10), float32]) -> (Tensor[(5, 14, 3), int8], Tensor[(7, 12, 10), float32], Tensor[(5, 14, 3), float32]) {
  %2438 = @func_887() /* ty=(Tensor[(5, 14, 3), float32], Tensor[(5, 14, 3), int8]) */;
  %2439 = cast(%var_1655, dtype="float32") /* ty=Tensor[(7, 12, 10), float32] */;
  %2440 = sin(%2439) /* ty=Tensor[(7, 12, 10), float32] */;
  %2441 = cast(%2440, dtype="float32") /* ty=Tensor[(7, 12, 10), float32] */;
  %2442 = @func_887() /* ty=(Tensor[(5, 14, 3), float32], Tensor[(5, 14, 3), int8]) */;
  %2443 = %2438.1;
  %2444 = erf(%2441) /* ty=Tensor[(7, 12, 10), float32] */;
  %2445 = %2442.0;
  (%2443, %2444, %2445)
}

def @func_8527() -> (Tensor[(5, 14, 3), float32], Tensor[(5, 14, 3), float32], Tensor[(5, 14, 3), int8], Tensor[(15, 16, 4), float32]) {
  @func_8525() /* ty=(Tensor[(5, 14, 3), float32], Tensor[(5, 14, 3), float32], Tensor[(5, 14, 3), int8], Tensor[(15, 16, 4), float32]) */
}

def @func_3034() -> Tensor[(5, 14, 3), float32] {
  @func_3032() /* ty=Tensor[(5, 14, 3), float32] */
}

def @func_25310(%var_25305: Tensor[(1430), float64]) -> (Tensor[(5, 14, 3), float32], Tensor[(5, 14, 3), bool], Tensor[(1430), float64]) {
  %2446 = cast(%var_25305, dtype="float64") /* ty=Tensor[(1430), float64] */;
  %2447 = reshape(%2446, newshape=[1430]) /* ty=Tensor[(1430), float64] */;
  %2448 = @func_23360(%2447) /* ty=(Tensor[(5, 14, 3), bool], Tensor[(10, 13, 11), float64], Tensor[(1430), float64]) */;
  %2449 = @func_5810() /* ty=Tensor[(5, 14, 3), float32] */;
  %2450 = %2448.0;
  (%2449, %2450, %var_25305)
}

def @func_11942() -> Tensor[(5, 14, 3), float32] {
  %2451 = @func_8276() /* ty=(Tensor[(5, 14, 3), float32], Tensor[(5, 14, 3), float32]) */;
  %2451.1
}

def @func_2336() -> (Tensor[(5, 14, 3), int8], Tensor[(5, 14, 3), float64], Tensor[(5, 14, 3), float32], Tensor[(143, 10), float64]) {
  %2452 = @func_887() /* ty=(Tensor[(5, 14, 3), float32], Tensor[(5, 14, 3), int8]) */;
  %2453 = @func_692() /* ty=Tensor[(5, 14, 3), float32] */;
  %2454 = @func_498() /* ty=(Tensor[(5, 14, 3), float32],) */;
  %2455 = %2454.0;
  %2456 = cast(%2455, dtype="float64") /* ty=Tensor[(5, 14, 3), float64] */;
  %2457 = shape_of(%2453, dtype="int32") /* ty=Tensor[(3), int32] */;
  %2458 = cast(%2453, dtype="float64") /* ty=Tensor[(5, 14, 3), float64] */;
  %2459 = dyn.reshape(%2456, %2457, newshape=[]) /* ty=Tensor[(?, ?, ?), float64] */;
  %2460 = cast(meta[relay.Constant][53] /* ty=Tensor[(143, 10), float64] */, dtype="float64") /* ty=Tensor[(143, 10), float64] */;
  %2461 = reshape(%2460, newshape=[1430]) /* ty=Tensor[(1430), float64] */;
  %2462 = @func_954(%2461) /* ty=(Tensor[(5, 14, 3), float32], Tensor[(5, 14, 3), float32], Tensor[(1430), float64], Tensor[(5, 14, 3), int8]) */;
  %2463 = %2452.1;
  %2464 = mod(%2458, %2459) /* ty=Tensor[(5, 14, 3), float64] */;
  %2465 = %2462.0;
  (%2463, %2464, %2465, meta[relay.Constant][53] /* ty=Tensor[(143, 10), float64] */)
}

def @func_19967() -> Tensor[(5, 14, 3), float32] {
  %2467 = fn () -> Tensor[(5, 14, 3), float32] {
    %2466 = @func_18551() /* ty=(Tensor[(5, 14, 3), float32], Tensor[(5, 14, 3), float32]) */;
    %2466.0
  };
  %2467() /* ty=Tensor[(5, 14, 3), float32] */
}

def @func_27347(%var_27346: Tensor[(1, 5, 11), float64]) -> (Tensor[(1, 5, 11), float64], Tensor[(5, 14, 3), float32], Tensor[(5, 14, 3), int8], Tensor[(5, 14, 3), float32], Tensor[(5, 14, 3), float32]) {
  %2478 = fn (%var_27284: Tensor[(1, 5, 11), float64]) -> (Tensor[(1, 5, 11), float64], Tensor[(5, 14, 3), float32], Tensor[(5, 14, 3), int8], Tensor[(5, 14, 3), float32], Tensor[(5, 14, 3), float32]) {
    %2468 = cast(%var_27284, dtype="float64") /* ty=Tensor[(1, 5, 11), float64] */;
    %2469 = @func_19786() /* ty=(Tensor[(5, 14, 3), float32],) */;
    %2470 = %2469.0;
    %2471 = cast(%2470, dtype="float32") /* ty=Tensor[(5, 14, 3), float32] */;
    %2472 = reshape(%2471, newshape=[5, 14, 3]) /* ty=Tensor[(5, 14, 3), float32] */;
    %2473 = @func_5520() /* ty=(Tensor[(15, 16, 4), float32], Tensor[(5, 14, 3), float32]) */;
    %2474 = sigmoid(%2468) /* ty=Tensor[(1, 5, 11), float64] */;
    %2475 = @func_580(%2472) /* ty=Tensor[(5, 14, 3), int8] */;
    %2476 = %2473.1;
    %2477 = @func_25263() /* ty=Tensor[(5, 14, 3), float32] */;
    (%2474, %2470, %2475, %2476, %2477)
  };
  %2478(%var_27346) /* ty=(Tensor[(1, 5, 11), float64], Tensor[(5, 14, 3), float32], Tensor[(5, 14, 3), int8], Tensor[(5, 14, 3), float32], Tensor[(5, 14, 3), float32]) */
}

def @func_31495() -> (Tensor[(5, 14, 3), float32],) {
  %2481 = fn () -> (Tensor[(5, 14, 3), float32],) {
    %2479 = @func_11411() /* ty=(Tensor[(5, 14, 3), float32], Tensor[(5, 14, 3), float32]) */;
    %2480 = %2479.1;
    (%2480,)
  };
  %2481() /* ty=(Tensor[(5, 14, 3), float32],) */
}

def @func_2947() -> (Tensor[(5, 14, 3), float64], Tensor[(5, 14, 3), int8]) {
  %2488 = fn () -> (Tensor[(5, 14, 3), float64], Tensor[(5, 14, 3), int8]) {
    %2482 = @func_2603() /* ty=(Tensor[(5, 14, 3), float32],) */;
    %2483 = %2482.0;
    %2484 = cast(%2483, dtype="float64") /* ty=Tensor[(5, 14, 3), float64] */;
    %2485 = @func_887() /* ty=(Tensor[(5, 14, 3), float32], Tensor[(5, 14, 3), int8]) */;
    %2486 = exp(%2484) /* ty=Tensor[(5, 14, 3), float64] */;
    %2487 = %2485.1;
    (%2486, %2487)
  };
  %2488() /* ty=(Tensor[(5, 14, 3), float64], Tensor[(5, 14, 3), int8]) */
}

def @func_6343(%var_6341: Tensor[(1430), float64]) -> (Tensor[(5, 14, 3), int8], Tensor[(5, 14, 3), float32], Tensor[(5, 14, 3), int8], Tensor[(5, 14, 3), float32], Tensor[(5, 14, 3), float32], Tensor[(5, 14, 3), float32], Tensor[(5, 14, 3), bool], Tensor[(5, 14, 3), float32], Tensor[(1430), float64]) {
  @func_6340(%var_6341) /* ty=(Tensor[(5, 14, 3), int8], Tensor[(5, 14, 3), float32], Tensor[(5, 14, 3), int8], Tensor[(5, 14, 3), float32], Tensor[(5, 14, 3), float32], Tensor[(5, 14, 3), float32], Tensor[(5, 14, 3), bool], Tensor[(5, 14, 3), float32], Tensor[(1430), float64]) */
}

def @func_13576() -> (Tensor[(5, 14, 3), float32],) {
  @func_13574() /* ty=(Tensor[(5, 14, 3), float32],) */
}

def @func_20093() -> (Tensor[(5, 14, 3), float32],) {
  %2489 = @func_8852() /* ty=(Tensor[(5, 14, 3), float32],) */;
  %2490 = %2489.0;
  (%2490,)
}

def @func_16123() -> (Tensor[(5, 14, 3), float32], Tensor[(5, 14, 3), int8], Tensor[(5, 14, 3), float32], Tensor[(5, 14, 3), float32]) {
  %2499 = fn () -> (Tensor[(5, 14, 3), float32], Tensor[(5, 14, 3), int8], Tensor[(5, 14, 3), float32], Tensor[(5, 14, 3), float32]) {
    %2491 = @func_14429() /* ty=(Tensor[(5, 14, 3), float32],) */;
    %2492 = @func_12879() /* ty=(Tensor[(5, 14, 3), float32], Tensor[(5, 14, 3), int8]) */;
    %2493 = @func_12738() /* ty=(Tensor[(5, 14, 3), float32], Tensor[(5, 14, 3), float32], Tensor[(1430, 1), float64]) */;
    %2494 = @func_12279() /* ty=(Tensor[(5, 14, 3), float32], Tensor[(5, 14, 3), float32]) */;
    %2495 = %2491.0;
    %2496 = %2492.1;
    %2497 = %2493.0;
    %2498 = %2494.0;
    (%2495, %2496, %2497, %2498)
  };
  %2499() /* ty=(Tensor[(5, 14, 3), float32], Tensor[(5, 14, 3), int8], Tensor[(5, 14, 3), float32], Tensor[(5, 14, 3), float32]) */
}

def @func_21575() -> Tensor[(5, 14, 3), float32] {
  @func_21573() /* ty=Tensor[(5, 14, 3), float32] */
}

def @func_25422() -> (Tensor[(5, 14, 3), int8],) {
  @func_25420() /* ty=(Tensor[(5, 14, 3), int8],) */
}

def @func_14183() -> (Tensor[(5, 14, 3), int8],) {
  @func_14181() /* ty=(Tensor[(5, 14, 3), int8],) */
}

def @func_26761() -> Tensor[(5, 14, 3), float32] {
  %2500 = @func_5324() /* ty=(Tensor[(5, 14, 3), float32], Tensor[(5, 14, 3), float32]) */;
  %2500.1
}

def @func_27805(%var_27785: uint16) -> (Tensor[(5, 14, 3), int8], Tensor[(5, 14, 3), float32], uint16, Tensor[(5, 14, 3), float32]) {
  %2501 = cast(%var_27785, dtype="uint16") /* ty=uint16 */;
  %2502 = reshape(%2501, newshape=[]) /* ty=uint16 */;
  %2503 = @func_7866(%2502) /* ty=(Tensor[(5, 14, 3), float32], Tensor[(5, 14, 3), float32], uint16, Tensor[(72), uint16]) */;
  %2504 = @func_22940() /* ty=Tensor[(5, 14, 3), int8] */;
  %2505 = %2503.1;
  %2506 = @func_17729() /* ty=Tensor[(5, 14, 3), float32] */;
  (%2504, %2505, %var_27785, %2506)
}

def @func_9912() -> (Tensor[(5, 14, 3), bool], Tensor[(5, 14, 3), float32]) {
  %2510 = fn () -> (Tensor[(5, 14, 3), bool], Tensor[(5, 14, 3), float32]) {
    %2507 = @func_3700() /* ty=(Tensor[(5, 14, 3), float32], Tensor[(5, 14, 3), bool], Tensor[(5, 14, 3), float32]) */;
    %2508 = %2507.1;
    %2509 = @func_8645() /* ty=Tensor[(5, 14, 3), float32] */;
    (%2508, %2509)
  };
  %2510() /* ty=(Tensor[(5, 14, 3), bool], Tensor[(5, 14, 3), float32]) */
}

def @func_10882() -> (Tensor[(5, 14, 3), float32],) {
  %2511 = @func_3195() /* ty=(Tensor[(5, 14, 3), float32],) */;
  %2512 = %2511.0;
  (%2512,)
}

def @func_9805() -> (Tensor[(5, 14, 3), float32], Tensor[(5, 14, 3), bool]) {
  %2518 = fn () -> (Tensor[(5, 14, 3), float32], Tensor[(5, 14, 3), bool]) {
    %2513 = @func_4164() /* ty=(Tensor[(15, 16, 4), float32], Tensor[(5, 14, 3), float32], Tensor[(5, 14, 3), float64]) */;
    %2514 = %2513.1;
    %2515 = cast(%2514, dtype="float32") /* ty=Tensor[(5, 14, 3), float32] */;
    %2516 = reshape(%2515, newshape=[5, 14, 3]) /* ty=Tensor[(5, 14, 3), float32] */;
    %2517 = @func_1196(%2516) /* ty=Tensor[(5, 14, 3), bool] */;
    (%2514, %2517)
  };
  %2518() /* ty=(Tensor[(5, 14, 3), float32], Tensor[(5, 14, 3), bool]) */
}

def @func_9367() -> (Tensor[(1430), float64],) {
  %2521 = fn () -> (Tensor[(1430), float64],) {
    %2519 = @func_6976() /* ty=(Tensor[(15, 16, 4), float32], Tensor[(5, 14, 3), float32], Tensor[(1430), float64], Tensor[(1430), float64], Tensor[(5, 14, 3), float32], Tensor[(10, 13, 11), float32]) */;
    %2520 = %2519.3;
    (%2520,)
  };
  %2521() /* ty=(Tensor[(1430), float64],) */
}

/* For debugging purposes the metadata section has been omitted.
 * If you would like to see the full metadata section you can set the 
 * option to `True` when invoking `astext`. 
 */
===================================
Traceback (most recent call last):
  File "/home/yujunzhe/Hirgen_generated/tvm0.8_test/HirGen912/build/output.py", line 10374, in <module>
    graph, lib, params = relay.build(mod, target='llvm')
  File "/home/yujunzhe/tvm/python/tvm/relay/build_module.py", line 369, in build
    executor_config, runtime_mod, params = bld_mod.build(
  File "/home/yujunzhe/tvm/python/tvm/relay/build_module.py", line 177, in build
    self._build(mod, target, target_host, executor, mod_name)
  File "/home/yujunzhe/tvm/python/tvm/_ffi/_ctypes/packed_func.py", line 237, in __call__
    raise get_last_ffi_error()
tvm._ffi.base.TVMError: Traceback (most recent call last):
  79: TVMFuncCall
  78: std::_Function_handler<void (tvm::runtime::TVMArgs, tvm::runtime::TVMRetValue*), tvm::relay::backend::RelayBuildModule::GetFunction(std::__cxx11::basic_string<char, std::char_traits<char>, std::allocator<char> > const&, tvm::runtime::ObjectPtr<tvm::runtime::Object> const&)::{lambda(tvm::runtime::TVMArgs, tvm::runtime::TVMRetValue*)#3}>::_M_invoke(std::_Any_data const&, tvm::runtime::TVMArgs&&, tvm::runtime::TVMRetValue*&&)
  77: tvm::relay::backend::RelayBuildModule::BuildRelay(tvm::IRModule, std::unordered_map<std::__cxx11::basic_string<char, std::char_traits<char>, std::allocator<char> >, tvm::runtime::NDArray, std::hash<std::__cxx11::basic_string<char, std::char_traits<char>, std::allocator<char> > >, std::equal_to<std::__cxx11::basic_string<char, std::char_traits<char>, std::allocator<char> > >, std::allocator<std::pair<std::__cxx11::basic_string<char, std::char_traits<char>, std::allocator<char> > const, tvm::runtime::NDArray> > > const&, tvm::runtime::String)
  76: tvm::relay::backend::RelayBuildModule::OptimizeImpl(tvm::IRModule, std::unordered_map<std::__cxx11::basic_string<char, std::char_traits<char>, std::allocator<char> >, tvm::runtime::NDArray, std::hash<std::__cxx11::basic_string<char, std::char_traits<char>, std::allocator<char> > >, std::equal_to<std::__cxx11::basic_string<char, std::char_traits<char>, std::allocator<char> > >, std::allocator<std::pair<std::__cxx11::basic_string<char, std::char_traits<char>, std::allocator<char> > const, tvm::runtime::NDArray> > > const&)
  75: tvm::transform::Pass::operator()(tvm::IRModule) const
  74: tvm::transform::Pass::operator()(tvm::IRModule, tvm::transform::PassContext const&) const
  73: tvm::transform::SequentialNode::operator()(tvm::IRModule, tvm::transform::PassContext const&) const
  72: tvm::transform::Pass::operator()(tvm::IRModule, tvm::transform::PassContext const&) const
  71: tvm::relay::transform::FunctionPassNode::operator()(tvm::IRModule, tvm::transform::PassContext const&) const
  70: std::_Function_handler<void (tvm::runtime::TVMArgs, tvm::runtime::TVMRetValue*), tvm::runtime::TypedPackedFunc<tvm::relay::Function (tvm::relay::Function, tvm::IRModule, tvm::transform::PassContext)>::AssignTypedLambda<tvm::relay::transform::DynamicToStatic()::{lambda(tvm::relay::Function, tvm::IRModule, tvm::transform::PassContext)#1}>(tvm::relay::transform::DynamicToStatic()::{lambda(tvm::relay::Function, tvm::IRModule, tvm::transform::PassContext)#1})::{lambda(tvm::runtime::TVMArgs const&, tvm::runtime::TVMRetValue*)#1}>::_M_invoke(std::_Any_data const&, tvm::runtime::TVMArgs&&, tvm::runtime::TVMRetValue*&&)
  69: tvm::relay::DynamicToStatic(tvm::relay::Function, tvm::IRModule)
  68: tvm::relay::DynamicToStaticMutator::PrepareInput(tvm::RelayExpr const&)
  67: tvm::transform::Pass::operator()(tvm::IRModule) const
  66: tvm::transform::Pass::operator()(tvm::IRModule, tvm::transform::PassContext const&) const
  65: tvm::relay::transform::FunctionPassNode::operator()(tvm::IRModule, tvm::transform::PassContext const&) const
  64: std::_Function_handler<void (tvm::runtime::TVMArgs, tvm::runtime::TVMRetValue*), tvm::runtime::TypedPackedFunc<tvm::relay::Function (tvm::relay::Function, tvm::IRModule, tvm::transform::PassContext)>::AssignTypedLambda<tvm::relay::transform::FoldConstant()::{lambda(tvm::relay::Function, tvm::IRModule, tvm::transform::PassContext)#1}>(tvm::relay::transform::FoldConstant()::{lambda(tvm::relay::Function, tvm::IRModule, tvm::transform::PassContext)#1})::{lambda(tvm::runtime::TVMArgs const&, tvm::runtime::TVMRetValue*)#1}>::_M_invoke(std::_Any_data const&, tvm::runtime::TVMArgs&&, tvm::runtime::TVMRetValue*&&)
  63: tvm::relay::transform::FoldConstantExpr(tvm::RelayExpr const&, tvm::IRModule const&)
  62: tvm::relay::MixedModeMutator::VisitExpr(tvm::RelayExpr const&)
  61: tvm::relay::MixedModeMutator::VisitLeaf(tvm::RelayExpr const&)
  60: _ZN3tvm5relay1
  59: tvm::relay::ExprMutator::VisitExpr(tvm::RelayExpr const&)
  58: tvm::relay::ExprFunctor<tvm::RelayExpr (tvm::RelayExpr const&)>::VisitExpr(tvm::RelayExpr const&)
  57: _ZZN3tvm5relay11ExprFunc
  56: tvm::relay::transform::(anonymous namespace)::ConstantFolder::VisitExpr_(tvm::relay::FunctionNode const*)
  55: tvm::relay::ExprMutator::VisitExpr_(tvm::relay::FunctionNode const*)
  54: tvm::relay::MixedModeMutator::VisitExpr(tvm::RelayExpr const&)
  53: tvm::relay::MixedModeMutator::VisitLeaf(tvm::RelayExpr const&)
  52: _ZN3tvm5relay1
  51: tvm::relay::ExprMutator::VisitExpr(tvm::RelayExpr const&)
  50: tvm::relay::ExprFunctor<tvm::RelayExpr (tvm::RelayExpr const&)>::VisitExpr(tvm::RelayExpr const&)
  49: _ZZN3tvm5relay11ExprFunc
  48: tvm::relay::MixedModeMutator::VisitExpr_(tvm::relay::CallNode const*)
  47: tvm::relay::transform::(anonymous namespace)::ConstantFolder::Rewrite_(tvm::relay::CallNode const*, tvm::RelayExpr const&)
  46: tvm::relay::transform::(anonymous namespace)::ConstantFolder::ConstEvaluate(tvm::RelayExpr const&)
  45: tvm::relay::Eval(tvm::RelayExpr, tvm::runtime::Map<tvm::GlobalTypeVar, tvm::TypeData, void, void>, std::unordered_set<tvm::runtime::String, std::hash<tvm::runtime::String>, std::equal_to<tvm::runtime::String>, std::allocator<tvm::runtime::String> >, DLDevice, tvm::Target)
  44: tvm::relay::Prepare(tvm::IRModule, tvm::CompilationConfig)
  43: tvm::transform::Pass::operator()(tvm::IRModule) const
  42: tvm::transform::Pass::operator()(tvm::IRModule, tvm::transform::PassContext const&) const
  41: tvm::transform::SequentialNode::operator()(tvm::IRModule, tvm::transform::PassContext const&) const
  40: tvm::transform::Pass::operator()(tvm::IRModule, tvm::transform::PassContext const&) const
  39: tvm::transform::SequentialNode::operator()(tvm::IRModule, tvm::transform::PassContext const&) const
  38: tvm::transform::Pass::operator()(tvm::IRModule, tvm::transform::PassContext const&) const
  37: tvm::transform::ModulePassNode::operator()(tvm::IRModule, tvm::transform::PassContext const&) const
  36: std::_Function_handler<void (tvm::runtime::TVMArgs, tvm::runtime::TVMRetValue*), tvm::runtime::TypedPackedFunc<tvm::IRModule (tvm::IRModule, tvm::transform::PassContext)>::AssignTypedLambda<tvm::relay::tec::LowerTEPass(std::unordered_map<DLDeviceType, tvm::Target, tvm::relay::backend::EnumClassHash, std::equal_to<DLDeviceType>, std::allocator<std::pair<DLDeviceType const, tvm::Target> > >, tvm::runtime::String const&, std::function<void (tvm::relay::Function)>)::{lambda(tvm::IRModule, tvm::transform::PassContext)#1}>(tvm::relay::tec::LowerTEPass(std::unordered_map<DLDeviceType, tvm::Target, tvm::relay::backend::EnumClassHash, std::equal_to<DLDeviceType>, std::allocator<std::pair<DLDeviceType const, tvm::Target> > >, tvm::runtime::String const&, std::function<void (tvm::relay::Function)>)::{lambda(tvm::IRModule, tvm::transform::PassContext)#1})::{lambda(tvm::runtime::TVMArgs const&, tvm::runtime::TVMRetValue*)#1}>::_M_invoke(std::_Any_data const&, tvm::runtime::TVMArgs&&, tvm::runtime::TVMRetValue*&&)
  35: tvm::relay::tec::LowerTE(tvm::IRModule const&, std::unordered_map<DLDeviceType, tvm::Target, tvm::relay::backend::EnumClassHash, std::equal_to<DLDeviceType>, std::allocator<std::pair<DLDeviceType const, tvm::Target> > >, tvm::runtime::String const&, std::function<void (tvm::relay::Function)>)
  34: tvm::transform::Pass::operator()(tvm::IRModule) const
  33: tvm::transform::Pass::operator()(tvm::IRModule, tvm::transform::PassContext const&) const
  32: tvm::relay::transform::FunctionPassNode::operator()(tvm::IRModule, tvm::transform::PassContext const&) const
  31: tvm::runtime::TypedPackedFunc<tvm::relay::Function (tvm::relay::Function, tvm::IRModule, tvm::transform::PassContext)>::AssignTypedLambda<tvm::relay::tec::LowerTensorExpr(std::unordered_map<DLDeviceType, tvm::Target, tvm::relay::backend::EnumClassHash, std::equal_to<DLDeviceType>, std::allocator<std::pair<DLDeviceType const, tvm::Target> > >, tvm::runtime::String const&, tvm::relay::tec::TECompiler, std::function<void (tvm::relay::Function)>)::{lambda(tvm::relay::Function, tvm::IRModule, tvm::transform::PassContext)#1}>(tvm::relay::tec::LowerTensorExpr(std::unordered_map<DLDeviceType, tvm::Target, tvm::relay::backend::EnumClassHash, std::equal_to<DLDeviceType>, std::allocator<std::pair<DLDeviceType const, tvm::Target> > >, tvm::runtime::String const&, tvm::relay::tec::TECompiler, std::function<void (tvm::relay::Function)>)::{lambda(tvm::relay::Function, tvm::IRModule, tvm::transform::PassContext)#1})::{lambda(tvm::runtime::TVMArgs const&, tvm::runtime::TVMRetValue*)#1}::operator()(tvm::runtime::TVMArgs const&, tvm::runtime::TVMRetValue*) const
  30: tvm::relay::ExprMutator::VisitExpr(tvm::RelayExpr const&)
  29: tvm::relay::ExprFunctor<tvm::RelayExpr (tvm::RelayExpr const&)>::VisitExpr(tvm::RelayExpr const&)
  28: _ZZN3tvm5relay11ExprFunc
  27: tvm::relay::transform::DeviceAwareExprMutator::VisitExpr_(tvm::relay::FunctionNode const*)
  26: tvm::relay::tec::LowerTensorExprMutator::DeviceAwareVisitExpr_(tvm::relay::FunctionNode const*)
  25: _ZN3tvm5relay9
  24: tvm::relay::ExprMutator::VisitExpr_(tvm::relay::FunctionNode const*)
  23: tvm::relay::ExprMutator::VisitExpr(tvm::RelayExpr const&)
  22: tvm::relay::ExprFunctor<tvm::RelayExpr (tvm::RelayExpr const&)>::VisitExpr(tvm::RelayExpr const&)
  21: _ZZN3tvm5relay11ExprFunc
  20: tvm::relay::transform::DeviceAwareExprMutator::VisitExpr_(tvm::relay::LetNode const*)
  19: tvm::relay::tec::LowerTensorExprMutator::PreVisitLetBinding_(tvm::relay::Var const&, tvm::RelayExpr const&)
  18: tvm::relay::ExprMutator::VisitExpr(tvm::RelayExpr const&)
  17: tvm::relay::ExprFunctor<tvm::RelayExpr (tvm::RelayExpr const&)>::VisitExpr(tvm::RelayExpr const&)
  16: _ZZN3tvm5relay11ExprFunc
  15: tvm::relay::transform::DeviceAwareExprMutator::VisitExpr_(tvm::relay::CallNode const*)
  14: tvm::relay::ExprMutator::VisitExpr(tvm::RelayExpr const&)
  13: tvm::relay::ExprFunctor<tvm::RelayExpr (tvm::RelayExpr const&)>::VisitExpr(tvm::RelayExpr const&)
  12: _ZZN3tvm5relay11ExprFunc
  11: tvm::relay::transform::DeviceAwareExprMutator::VisitExpr_(tvm::relay::CallNode const*)
  10: tvm::relay::tec::LowerTensorExprMutator::DeviceAwareVisitExpr_(tvm::relay::CallNode const*)
  9: tvm::relay::tec::LowerTensorExprMutator::MakeLoweredCall(tvm::relay::Function, tvm::runtime::Array<tvm::RelayExpr, void>, tvm::runtime::Array<tvm::Type, void>, tvm::Span, tvm::Target)
  8: tvm::relay::tec::TECompilerImpl::LowerShapeFuncInternal(tvm::relay::tec::CCacheKey const&)
  7: tvm::relay::tec::ShapeFuncFor(tvm::relay::Function const&, tvm::Target const&, std::function<std::__cxx11::basic_string<char, std::char_traits<char>, std::allocator<char> > (std::__cxx11::basic_string<char, std::char_traits<char>, std::allocator<char> >)>)
  6: tvm::relay::tec::MakeShapeFunc::Create(tvm::relay::Function const&, tvm::Target const&, std::function<std::__cxx11::basic_string<char, std::char_traits<char>, std::allocator<char> > (std::__cxx11::basic_string<char, std::char_traits<char>, std::allocator<char> >)>)
  5: tvm::relay::tec::MakeShapeFunc::VisitExpr(tvm::RelayExpr const&)
  4: tvm::relay::backend::MemoizedExprTranslator<tvm::runtime::Array<tvm::te::Tensor, void> >::VisitExpr(tvm::RelayExpr const&)
  3: tvm::relay::ExprFunctor<tvm::runtime::Array<tvm::te::Tensor, void> (tvm::RelayExpr const&)>::VisitExpr(tvm::RelayExpr const&)
  2: _ZZN3tvm5relay11ExprFunc
  1: tvm::relay::tec::MakeShapeFunc::VisitExpr_(tvm::relay::CallNode const*)
  0: std::_Function_handler<void (tvm::runtime::TVMArgs, tvm::runtime::TVMRetValue*), TVMFuncCreateFromCFunc::{lambda(tvm::runtime::TVMArgs, tvm::runtime::TVMRetValue*)#2}>::_M_invoke(std::_Any_data const&, tvm::runtime::TVMArgs&&, tvm::runtime::TVMRetValue*&&) [clone .cold]
  File "/home/yujunzhe/tvm/python/tvm/_ffi/_ctypes/packed_func.py", line 81, in cfun
    rv = local_pyfunc(*pyargs)
  File "/home/yujunzhe/tvm/python/tvm/relay/op/dyn/_transform.py", line 92, in dynamic_reshape_shape_func
    return [_reshape_shape_func_input_data(*inputs, out_ndims[0])]
  File "/home/yujunzhe/.local/lib/python3.9/site-packages/decorator.py", line 232, in fun
    return caller(func, *(extras + args), **kw)
  File "/home/yujunzhe/tvm/python/tvm/te/hybrid/__init__.py", line 60, in wrapped_func
    return source_to_op(src, args, func.__globals__, closure_vars)
  File "/home/yujunzhe/tvm/python/tvm/te/hybrid/parser.py", line 634, in source_to_op
    parser = parse_python(src, args, symbols, closure_vars)
  File "/home/yujunzhe/tvm/python/tvm/te/hybrid/parser.py", line 604, in parse_python
    parser.parsed_body = parser.visit(root)
  File "/home/yujunzhe/anaconda3/envs/tvm0.8/lib/python3.9/ast.py", line 409, in visit
    return visitor(node)
  File "/home/yujunzhe/tvm/python/tvm/te/hybrid/parser.py", line 229, in visit_Module
    return self.visit(node.body[0])
  File "/home/yujunzhe/anaconda3/envs/tvm0.8/lib/python3.9/ast.py", line 409, in visit
    return visitor(node)
  File "/home/yujunzhe/tvm/python/tvm/te/hybrid/parser.py", line 242, in visit_FunctionDef
    res = visit_list_to_block(self.visit, node.body)
  File "/home/yujunzhe/tvm/python/tvm/te/hybrid/parser.py", line 58, in visit_list_to_block
    lst = [visit(stmt) for stmt in lst if not utils.is_docstring(stmt)]
  File "/home/yujunzhe/tvm/python/tvm/te/hybrid/parser.py", line 58, in <listcomp>
    lst = [visit(stmt) for stmt in lst if not utils.is_docstring(stmt)]
  File "/home/yujunzhe/anaconda3/envs/tvm0.8/lib/python3.9/ast.py", line 409, in visit
    return visitor(node)
  File "/home/yujunzhe/tvm/python/tvm/te/hybrid/parser.py", line 506, in visit_For
    body = visit_list_to_block(self.visit, node.body)
  File "/home/yujunzhe/tvm/python/tvm/te/hybrid/parser.py", line 58, in visit_list_to_block
    lst = [visit(stmt) for stmt in lst if not utils.is_docstring(stmt)]
  File "/home/yujunzhe/tvm/python/tvm/te/hybrid/parser.py", line 58, in <listcomp>
    lst = [visit(stmt) for stmt in lst if not utils.is_docstring(stmt)]
  File "/home/yujunzhe/anaconda3/envs/tvm0.8/lib/python3.9/ast.py", line 409, in visit
    return visitor(node)
  File "/home/yujunzhe/tvm/python/tvm/te/hybrid/parser.py", line 419, in visit_If
    else_body = visit_list_to_block(self.visit, node.orelse)
  File "/home/yujunzhe/tvm/python/tvm/te/hybrid/parser.py", line 58, in visit_list_to_block
    lst = [visit(stmt) for stmt in lst if not utils.is_docstring(stmt)]
  File "/home/yujunzhe/tvm/python/tvm/te/hybrid/parser.py", line 58, in <listcomp>
    lst = [visit(stmt) for stmt in lst if not utils.is_docstring(stmt)]
  File "/home/yujunzhe/anaconda3/envs/tvm0.8/lib/python3.9/ast.py", line 409, in visit
    return visitor(node)
  File "/home/yujunzhe/tvm/python/tvm/te/hybrid/parser.py", line 406, in visit_If
    cond = self.analyzer.simplify(self.visit(node.test))
  File "/home/yujunzhe/anaconda3/envs/tvm0.8/lib/python3.9/ast.py", line 409, in visit
    return visitor(node)
  File "/home/yujunzhe/tvm/python/tvm/te/hybrid/parser.py", line 432, in visit_Compare
    ops = [self.visit(node.left)]
  File "/home/yujunzhe/anaconda3/envs/tvm0.8/lib/python3.9/ast.py", line 409, in visit
    return visitor(node)
  File "/home/yujunzhe/tvm/python/tvm/te/hybrid/parser.py", line 389, in visit_Subscript
    return tvm.tir.ProducerLoad(arr, args)
  File "/home/yujunzhe/tvm/python/tvm/tir/expr.py", line 1078, in __init__
    self.__init_handle_by_constructor__(
  File "/home/yujunzhe/tvm/python/tvm/_ffi/_ctypes/object.py", line 136, in __init_handle_by_constructor__
    handle = __init_by_constructor__(fconstructor, args)
  File "/home/yujunzhe/tvm/python/tvm/_ffi/_ctypes/packed_func.py", line 260, in __init_handle_by_constructor__
    raise get_last_ffi_error()
  3: TVMFuncCall
  2: std::_Function_handler<void (tvm::runtime::TVMArgs, tvm::runtime::TVMRetValue*), tvm::runtime::TypedPackedFunc<tvm::tir::ProducerLoad (tvm::tir::DataProducer, tvm::runtime::Array<tvm::PrimExpr, void>, tvm::Span)>::AssignTypedLambda<tvm::tir::__mk_TVM137::{lambda(tvm::tir::DataProducer, tvm::runtime::Array<tvm::PrimExpr, void>, tvm::Span)#1}>(tvm::tir::__mk_TVM137::{lambda(tvm::tir::DataProducer, tvm::runtime::Array<tvm::PrimExpr, void>, tvm::Span)#1}, std::__cxx11::basic_string<char, std::char_traits<char>, std::allocator<char> >)::{lambda(tvm::runtime::TVMArgs const&, tvm::runtime::TVMRetValue*)#1}>::_M_invoke(std::_Any_data const&, tvm::runtime::TVMArgs&&, tvm::runtime::TVMRetValue*&&)
  1: tvm::runtime::TVMMovableArgValueWithContext_::operator tvm::runtime::Array<tvm::PrimExpr, void><tvm::runtime::Array<tvm::PrimExpr, void> >() const
  0: _ZN3tvm7runtime6deta
  4: TVMFuncCall
  3: std::_Function_handler<void (tvm::runtime::TVMArgs, tvm::runtime::TVMRetValue*), tvm::runtime::TypedPackedFunc<tvm::tir::ProducerLoad (tvm::tir::DataProducer, tvm::runtime::Array<tvm::PrimExpr, void>, tvm::Span)>::AssignTypedLambda<tvm::tir::__mk_TVM137::{lambda(tvm::tir::DataProducer, tvm::runtime::Array<tvm::PrimExpr, void>, tvm::Span)#1}>(tvm::tir::__mk_TVM137::{lambda(tvm::tir::DataProducer, tvm::runtime::Array<tvm::PrimExpr, void>, tvm::Span)#1}, std::__cxx11::basic_string<char, std::char_traits<char>, std::allocator<char> >)::{lambda(tvm::runtime::TVMArgs const&, tvm::runtime::TVMRetValue*)#1}>::_M_invoke(std::_Any_data const&, tvm::runtime::TVMArgs&&, tvm::runtime::TVMRetValue*&&)
  2: tvm::runtime::TVMMovableArgValueWithContext_::operator tvm::runtime::Array<tvm::PrimExpr, void><tvm::runtime::Array<tvm::PrimExpr, void> >() const
  1: tvm::runtime::Array<tvm::PrimExpr, void> tvm::runtime::TVMPODValue_::AsObjectRef<tvm::runtime::Array<tvm::PrimExpr, void> >() const
  0: _ZN3tvm7runtime6deta
  File "/home/yujunzhe/tvm/include/tvm/runtime/packed_func.h", line 714
TVMError: In function tir.ProducerLoad: error while converting argument 1: [14:45:05] /home/yujunzhe/tvm/include/tvm/runtime/packed_func.h:1611: 
---------------------------------------------------------------
An error occurred during the execution of TVM.
For more information, please see: https://tvm.apache.org/docs/errors.html
---------------------------------------------------------------

  Check failed: type_code_ == kTVMObjectHandle (0 vs. 8) : expected Object but got int

