==========mod==========
#[version = "0.0.5"]
def @func_11566(%var_11550: Tensor[(1, 1, 14), uint8], %var_11551: Tensor[(4, 1, 14), uint8]) -> (Tensor[(4, 1, 14), uint8],) {
  %0 = cast(%var_11550, dtype="uint8") /* ty=Tensor[(1, 1, 14), uint8] */;
  %1 = cast(%var_11551, dtype="uint8") /* ty=Tensor[(4, 1, 14), uint8] */;
  %2 = multiply(%0, %1) /* ty=Tensor[(4, 1, 14), uint8] */;
  (%2,)
}

def @func_9933() -> (Tensor[(10, 7, 8), bool],) {
  %3 = @func_8553() /* ty=(Tensor[(3, 7, 7), float64], Tensor[(10, 7, 8), bool], Tensor[(550), float32], Tensor[(550), float32]) */;
  %4 = %3.1;
  (%4,)
}

def @func_9380() -> Tensor[(14, 5), float64] {
  %5 = @func_7952() /* ty=(Tensor[(10, 7, 8), bool], Tensor[(5, 2, 7), float64], Tensor[(14, 5), float64]) */;
  %5.2
}

def @func_18693(%var_18673: Tensor[(48), float32], %var_18682: Tensor[(1980), int16]) -> (Tensor[(14, 5), float64], Tensor[(3, 7, 7), float64], Tensor[(48), float32], Tensor[(3, 7, 7), float64], Tensor[(3, 7, 7), float64], Tensor[(1980), int16]) {
  %6 = @func_18310() /* ty=(Tensor[(3, 7, 7), float64], Tensor[(14, 5), float64]) */;
  %7 = cast(%var_18673, dtype="float32") /* ty=Tensor[(48), float32] */;
  %8 = reshape(%7, newshape=[48]) /* ty=Tensor[(48), float32] */;
  %9 = @func_11894(%8) /* ty=(Tensor[(3, 7, 7), float64], Tensor[(160), float64], Tensor[(48), float32], Tensor[(3, 7, 7), float64]) */;
  %10 = @func_18336() /* ty=(Tensor[(3, 7, 7), float64], Tensor[(3, 7, 7), float64]) */;
  %11 = cast(%var_18682, dtype="int16") /* ty=Tensor[(1980), int16] */;
  %12 = reshape(%11, newshape=[1980]) /* ty=Tensor[(1980), int16] */;
  %13 = @func_11447(%12) /* ty=(Tensor[(550), float32], Tensor[(3, 7, 7), float64], Tensor[(1980), int16], Tensor[(1980), int16]) */;
  %14 = %6.1;
  %15 = %9.3;
  %16 = %10.0;
  %17 = %13.1;
  (%14, %15, %var_18673, %16, %17, %var_18682)
}

def @func_15355() -> (Tensor[(3, 7, 7), float64],) {
  %18 = @func_13260() /* ty=(Tensor[(3, 7, 7), float64], Tensor[(550), float64]) */;
  %19 = %18.0;
  (%19,)
}

def @func_19198(%var_19182: Tensor[(3, 4, 13), int64], %var_19183: Tensor[(3, 4, 13), int64]) -> (Tensor[(3, 4, 13), int64], Tensor[(2, 5, 6), uint64], Tensor[(60), uint64]) {
  %20 = cast(%var_19183, dtype="int64") /* ty=Tensor[(3, 4, 13), int64] */;
  %21 = shape_of(%var_19182, dtype="int32") /* ty=Tensor[(3), int32] */;
  %22 = cast(%var_19182, dtype="int64") /* ty=Tensor[(3, 4, 13), int64] */;
  %23 = dyn.reshape(%20, %21, newshape=[]) /* ty=Tensor[(?, ?, ?), int64] */;
  %24 = cast(meta[relay.Constant][0] /* ty=Tensor[(60), uint64] */, dtype="uint64") /* ty=Tensor[(60), uint64] */;
  %25 = cast(meta[relay.Constant][0] /* ty=Tensor[(60), uint64] */, dtype="uint64") /* ty=Tensor[(60), uint64] */;
  %26 = reshape(%24, newshape=[2, 5, 6]) /* ty=Tensor[(2, 5, 6), uint64] */;
  %27 = reshape(%25, newshape=[2, 5, 6]) /* ty=Tensor[(2, 5, 6), uint64] */;
  %28 = bitwise_and(%22, %23) /* ty=Tensor[(3, 4, 13), int64] */;
  %29 = @func_531(%26, %27) /* ty=Tensor[(2, 5, 6), uint64] */;
  (%28, %29, meta[relay.Constant][0] /* ty=Tensor[(60), uint64] */)
}

def @func_19525() -> (Tensor[(3, 7, 7), float64], Tensor[(3, 7, 7), float64]) {
  %30 = @func_9894() /* ty=(Tensor[(3, 7, 7), float64],) */;
  %31 = @func_18123() /* ty=(Tensor[(3, 7, 7), float64],) */;
  %32 = %30.0;
  %33 = %31.0;
  (%32, %33)
}

def @func_19887() -> Tensor[(3, 7, 7), float64] {
  %34 = @func_9832() /* ty=(Tensor[(3, 7, 7), float64],) */;
  %34.0
}

def @func_6804(%var_6778: int64) -> (Tensor[(3, 7, 7), float64], Tensor[(6, 10, 13), int64], Tensor[(160), float64], int64, Tensor[(1280), float64], Tensor[(3, 20), uint64], Tensor[(60), uint64]) {
  %35 = @func_6751() /* ty=(Tensor[(3, 7, 7), float64],) */;
  %36 = cast(meta[relay.Constant][1] /* ty=Tensor[(160), float64] */, dtype="float64") /* ty=Tensor[(160), float64] */;
  %37 = cast(%var_6778, dtype="int64") /* ty=int64 */;
  %38 = cast(meta[relay.Constant][2] /* ty=Tensor[(1280), float64] */, dtype="float64") /* ty=Tensor[(1280), float64] */;
  %39 = cast(meta[relay.Constant][3] /* ty=Tensor[(3, 20), uint64] */, dtype="uint64") /* ty=Tensor[(3, 20), uint64] */;
  %40 = reshape(%36, newshape=[5, 2, 16]) /* ty=Tensor[(5, 2, 16), float64] */;
  %41 = reshape(%37, newshape=[]) /* ty=int64 */;
  %42 = reshape(%38, newshape=[1280]) /* ty=Tensor[(1280), float64] */;
  %43 = reshape(%39, newshape=[30, 2]) /* ty=Tensor[(30, 2), uint64] */;
  %44 = @func_5673(%40, %41, %42, %43) /* ty=(Tensor[(5, 2, 16), float64], Tensor[(6, 10, 13), int64], int64, Tensor[(780), int64], Tensor[(16, 16, 5), float64], Tensor[(30, 2), uint64], Tensor[(1280), float32]) */;
  %45 = cast(meta[relay.Constant][2] /* ty=Tensor[(1280), float64] */, dtype="float64") /* ty=Tensor[(1280), float64] */;
  %46 = cast(meta[relay.Constant][3] /* ty=Tensor[(3, 20), uint64] */, dtype="uint64") /* ty=Tensor[(3, 20), uint64] */;
  %47 = reshape(%45, newshape=[16, 16, 5]) /* ty=Tensor[(16, 16, 5), float64] */;
  %48 = reshape(%46, newshape=[60]) /* ty=Tensor[(60), uint64] */;
  %49 = @func_1145(%47, %48) /* ty=(Tensor[(16, 16, 5), float64], Tensor[(2, 5, 6), uint64], Tensor[(60), uint64], Tensor[(2, 5, 6), uint64]) */;
  %50 = %35.0;
  %51 = %44.1;
  %52 = %49.2;
  (%50, %51, meta[relay.Constant][1] /* ty=Tensor[(160), float64] */, %var_6778, meta[relay.Constant][2] /* ty=Tensor[(1280), float64] */, meta[relay.Constant][3] /* ty=Tensor[(3, 20), uint64] */, %52)
}

def @func_8244() -> (Tensor[(14, 5), float64], Tensor[(1980), int16], Tensor[(504, 2), bool], int16, Tensor[(1980), int16], Tensor[(60), uint64]) {
  %53 = @func_7952() /* ty=(Tensor[(10, 7, 8), bool], Tensor[(5, 2, 7), float64], Tensor[(14, 5), float64]) */;
  %54 = %53.2;
  %55 = cast(%54, dtype="int64") /* ty=Tensor[(14, 5), int64] */;
  %56 = cast(%54, dtype="int64") /* ty=Tensor[(14, 5), int64] */;
  %57 = cast(%54, dtype="int64") /* ty=Tensor[(14, 5), int64] */;
  %58 = cast(meta[relay.Constant][4] /* ty=Tensor[(504, 2), bool] */, dtype="bool") /* ty=Tensor[(504, 2), bool] */;
  %59 = cast(meta[relay.Constant][5] /* ty=int16 */, dtype="int16") /* ty=int16 */;
  %60 = cast(meta[relay.Constant][6] /* ty=Tensor[(1980), int16] */, dtype="int16") /* ty=Tensor[(1980), int16] */;
  %61 = cast(meta[relay.Constant][7] /* ty=Tensor[(60), uint64] */, dtype="uint64") /* ty=Tensor[(60), uint64] */;
  %62 = reshape(%55, newshape=[5, 2, 7]) /* ty=Tensor[(5, 2, 7), int64] */;
  %63 = reshape(%56, newshape=[5, 2, 7]) /* ty=Tensor[(5, 2, 7), int64] */;
  %64 = reshape(%57, newshape=[5, 2, 7]) /* ty=Tensor[(5, 2, 7), int64] */;
  %65 = reshape(%58, newshape=[1, 1008]) /* ty=Tensor[(1, 1008), bool] */;
  %66 = reshape(%59, newshape=[]) /* ty=int16 */;
  %67 = reshape(%60, newshape=[1980]) /* ty=Tensor[(1980), int16] */;
  %68 = reshape(%61, newshape=[60]) /* ty=Tensor[(60), uint64] */;
  %69 = @func_5142(%62, %63, %64, %65, %66, %67, %68) /* ty=(Tensor[(5, 2, 7), uint32], Tensor[(14, 6, 12), bool], Tensor[(1, 1008), bool], Tensor[(5, 2, 7), float64], Tensor[(60), uint64], int16, Tensor[(1980), int16], Tensor[(60), uint64]) */;
  %70 = %69.6;
  (%54, %70, meta[relay.Constant][4] /* ty=Tensor[(504, 2), bool] */, meta[relay.Constant][5] /* ty=int16 */, meta[relay.Constant][6] /* ty=Tensor[(1980), int16] */, meta[relay.Constant][7] /* ty=Tensor[(60), uint64] */)
}

def @func_17156() -> (Tensor[(3, 7, 7), float64], Tensor[(14, 12, 7), float64], Tensor[(1176), float64], Tensor[(1980), int16], Tensor[(1980), int16], Tensor[(14, 5), float64], Tensor[(10, 7, 8), bool], Tensor[(14, 5), float64]) {
  %71 = @func_8021() /* ty=(Tensor[(3, 7, 7), float64],) */;
  %72 = cast(meta[relay.Constant][8] /* ty=Tensor[(1176), float64] */, dtype="float64") /* ty=Tensor[(1176), float64] */;
  %73 = reshape(%72, newshape=[1176]) /* ty=Tensor[(1176), float64] */;
  %74 = @func_14326(%73) /* ty=(Tensor[(3, 7, 7), float64], Tensor[(14, 12, 7), float64], Tensor[(1176), float64], Tensor[(14, 12, 7), float64]) */;
  %75 = cast(meta[relay.Constant][9] /* ty=Tensor[(1980), int16] */, dtype="int16") /* ty=Tensor[(1980), int16] */;
  %76 = reshape(%75, newshape=[1980]) /* ty=Tensor[(1980), int16] */;
  %77 = @func_13404(%76) /* ty=(Tensor[(3, 7, 7), float64], Tensor[(1980), int16], Tensor[(1980), int16], Tensor[(3, 7, 7), float64]) */;
  %78 = @func_7952() /* ty=(Tensor[(10, 7, 8), bool], Tensor[(5, 2, 7), float64], Tensor[(14, 5), float64]) */;
  %79 = @func_10330() /* ty=(Tensor[(3, 7, 7), float32], Tensor[(14, 5), float64]) */;
  %80 = %71.0;
  %81 = %74.3;
  %82 = %77.2;
  %83 = @func_9380() /* ty=Tensor[(14, 5), float64] */;
  %84 = %78.0;
  %85 = %79.1;
  (%80, %81, meta[relay.Constant][8] /* ty=Tensor[(1176), float64] */, %82, meta[relay.Constant][9] /* ty=Tensor[(1980), int16] */, %83, %84, %85)
}

def @func_17072() -> (Tensor[(256), uint64], Tensor[(550), float32], Tensor[(3, 7, 7), float64]) {
  %86 = @func_15331() /* ty=(Tensor[(2, 12, 10), uint8], Tensor[(3, 7, 7), float64], Tensor[(3, 7, 7), int8], Tensor[(3, 7, 7), int8], Tensor[(256), uint64], Tensor[(2464), float64], Tensor[(1, 256), uint64], Tensor[(18, 110), float64], Tensor[(18, 110), float32]) */;
  %87 = @func_9665() /* ty=(Tensor[(550), float32],) */;
  %88 = %86.4;
  %89 = %87.0;
  %90 = @func_16555() /* ty=Tensor[(3, 7, 7), float64] */;
  (%88, %89, %90)
}

def @func_17216() -> (Tensor[(14, 5), float64], Tensor[(3, 7, 7), int8], Tensor[(5, 2, 7), float64]) {
  %91 = @func_9549() /* ty=(Tensor[(14, 5), float64], Tensor[(3, 7, 7), float64]) */;
  %92 = %91.0;
  %93 = cast(%92, dtype="float64") /* ty=Tensor[(14, 5), float64] */;
  %94 = reshape(%93, newshape=[5, 2, 7]) /* ty=Tensor[(5, 2, 7), float64] */;
  %95 = @func_7482(%94) /* ty=(Tensor[(5, 2, 7), float64],) */;
  %96 = @func_10653() /* ty=Tensor[(3, 7, 7), int8] */;
  %97 = %95.0;
  (%92, %96, %97)
}

def @func_18966(%var_18944: Tensor[(12, 11, 10), float32]) -> (Tensor[(12, 11, 10), float32], Tensor[(4, 1, 14), uint8], Tensor[(7, 2), uint8], Tensor[(56), uint8], Tensor[(3, 7, 7), float64]) {
  %98 = cast(%var_18944, dtype="float32") /* ty=Tensor[(12, 11, 10), float32] */;
  %99 = cast(meta[relay.Constant][10] /* ty=Tensor[(7, 2), uint8] */, dtype="uint8") /* ty=Tensor[(7, 2), uint8] */;
  %100 = cast(meta[relay.Constant][11] /* ty=Tensor[(56), uint8] */, dtype="uint8") /* ty=Tensor[(56), uint8] */;
  %101 = reshape(%99, newshape=[1, 1, 14]) /* ty=Tensor[(1, 1, 14), uint8] */;
  %102 = reshape(%100, newshape=[4, 1, 14]) /* ty=Tensor[(4, 1, 14), uint8] */;
  %103 = @func_11566(%101, %102) /* ty=(Tensor[(4, 1, 14), uint8],) */;
  %104 = @func_18384() /* ty=(Tensor[(3, 7, 7), float64], Tensor[(3, 7, 7), float64], Tensor[(1280), float64]) */;
  %105 = log2(%98) /* ty=Tensor[(12, 11, 10), float32] */;
  %106 = %103.0;
  %107 = %104.1;
  (%105, %106, meta[relay.Constant][10] /* ty=Tensor[(7, 2), uint8] */, meta[relay.Constant][11] /* ty=Tensor[(56), uint8] */, %107)
}

def @func_18942() -> Tensor[(3, 7, 7), float64] {
  %108 = @func_18384() /* ty=(Tensor[(3, 7, 7), float64], Tensor[(3, 7, 7), float64], Tensor[(1280), float64]) */;
  %108.0
}

def @func_10106() -> Tensor[(3, 7, 7), float64] {
  %109 = @func_8021() /* ty=(Tensor[(3, 7, 7), float64],) */;
  %109.0
}

def @func_10490() -> (Tensor[(3, 7, 7), float64],) {
  %110 = @func_9637() /* ty=Tensor[(3, 7, 7), float64] */;
  (%110,)
}

def @func_18161() -> (Tensor[(3, 7, 7), float64],) {
  %111 = @func_8090() /* ty=(Tensor[(3, 7, 7), float64],) */;
  %112 = %111.0;
  (%112,)
}

def @func_10909() -> (Tensor[(3, 7, 7), float64],) {
  %113 = @func_7106() /* ty=Tensor[(3, 7, 7), float64] */;
  (%113,)
}

def @func_11986() -> Tensor[(14, 5), float64] {
  @func_9380() /* ty=Tensor[(14, 5), float64] */
}

def @func_9832() -> (Tensor[(3, 7, 7), float64],) {
  %114 = @func_8192() /* ty=(Tensor[(3, 7, 7), float64], Tensor[(3, 7, 7), float64], Tensor[(3, 7, 7), float64]) */;
  %115 = %114.1;
  (%115,)
}

def @func_10047() -> Tensor[(10, 7, 8), bool] {
  %116 = @func_9933() /* ty=(Tensor[(10, 7, 8), bool],) */;
  %116.0
}

def @func_18795(%var_18754: Tensor[(6, 16, 5), float64]) -> (Tensor[(3, 7, 7), float64], Tensor[(6, 16, 5), float32], Tensor[(3, 7, 7), float64], Tensor[(6, 16, 5), float32]) {
  %117 = @func_16164() /* ty=Tensor[(6, 16, 5), float64] */;
  %118 = cast(%var_18754, dtype="float32") /* ty=Tensor[(6, 16, 5), float32] */;
  %119 = shape_of(%117, dtype="int32") /* ty=Tensor[(3), int32] */;
  %120 = cast(%117, dtype="float32") /* ty=Tensor[(6, 16, 5), float32] */;
  %121 = dyn.reshape(%118, %119, newshape=[]) /* ty=Tensor[(?, ?, ?), float32] */;
  %122 = cast(%var_18754, dtype="float32") /* ty=Tensor[(6, 16, 5), float32] */;
  %123 = @func_9493() /* ty=Tensor[(3, 7, 7), float64] */;
  %124 = subtract(%120, %121) /* ty=Tensor[(6, 16, 5), float32] */;
  %125 = @func_17286() /* ty=Tensor[(3, 7, 7), float64] */;
  %126 = sqrt(%122) /* ty=Tensor[(6, 16, 5), float32] */;
  (%123, %124, %125, %126)
}

def @func_7653() -> (Tensor[(3, 7, 7), float64],) {
  %127 = @func_7355() /* ty=Tensor[(3, 7, 7), float64] */;
  (%127,)
}

def @func_17844() -> (Tensor[(3, 7, 7), float64], Tensor[(3, 7, 7), float64], Tensor[(3, 7, 7), bool]) {
  %128 = @func_13214() /* ty=(Tensor[(3, 7, 7), float64],) */;
  %129 = %128.0;
  %130 = cast(%129, dtype="float64") /* ty=Tensor[(3, 7, 7), float64] */;
  %131 = reshape(%130, newshape=[3, 7, 7]) /* ty=Tensor[(3, 7, 7), float64] */;
  %132 = @func_7056(%131) /* ty=(Tensor[(2, 12, 10), float64], Tensor[(240), float64], Tensor[(3, 7, 7), bool]) */;
  %133 = @func_16988() /* ty=Tensor[(3, 7, 7), float64] */;
  %134 = %132.2;
  (%129, %133, %134)
}

def @func_14918() -> Tensor[(5, 2, 7), float64] {
  %135 = @func_7952() /* ty=(Tensor[(10, 7, 8), bool], Tensor[(5, 2, 7), float64], Tensor[(14, 5), float64]) */;
  %135.1
}

def @func_19758() -> (Tensor[(3, 7, 7), float64], Tensor[(550), float32]) {
  %136 = @func_17471() /* ty=(Tensor[(550), float32],) */;
  %137 = @func_7106() /* ty=Tensor[(3, 7, 7), float64] */;
  %138 = %136.0;
  (%137, %138)
}

def @func_12839() -> (Tensor[(6, 16, 5), float32], Tensor[(3, 7, 7), float64], Tensor[(3, 7, 7), float64], Tensor[(30, 2), uint64]) {
  %139 = cast(3.40109f /* ty=float32 */, dtype="float32") /* ty=float32 */;
  %140 = cast(meta[relay.Constant][12] /* ty=Tensor[(6, 16, 5), float32] */, dtype="float32") /* ty=Tensor[(6, 16, 5), float32] */;
  %141 = @func_8021() /* ty=(Tensor[(3, 7, 7), float64],) */;
  %142 = cast(meta[relay.Constant][13] /* ty=Tensor[(30, 2), uint64] */, dtype="uint64") /* ty=Tensor[(30, 2), uint64] */;
  %143 = reshape(%142, newshape=[60]) /* ty=Tensor[(60), uint64] */;
  %144 = @func_12140(%143) /* ty=(Tensor[(3, 7, 7), float64], Tensor[(3, 7, 7), float64], Tensor[(550), float32], Tensor[(3, 7, 7), float64], Tensor[(15, 12, 11), int16], int16, Tensor[(1980), int16], Tensor[(60), uint64]) */;
  %145 = floor_mod(%139, %140) /* ty=Tensor[(6, 16, 5), float32] */;
  %146 = %141.0;
  %147 = %144.1;
  (%145, %146, %147, meta[relay.Constant][13] /* ty=Tensor[(30, 2), uint64] */)
}

def @func_17943() -> (Tensor[(3, 7, 7), float64], Tensor[(3, 7, 7), float64]) {
  %148 = @func_11923() /* ty=Tensor[(3, 7, 7), float64] */;
  %149 = @func_9493() /* ty=Tensor[(3, 7, 7), float64] */;
  (%148, %149)
}

def @func_8296() -> Tensor[(3, 7, 7), int8] {
  %150 = @func_8021() /* ty=(Tensor[(3, 7, 7), float64],) */;
  %151 = %150.0;
  %152 = cast(meta[relay.Constant][14] /* ty=Tensor[(3, 7, 7), float64] */, dtype="int8") /* ty=Tensor[(3, 7, 7), int8] */;
  %153 = shape_of(%151, dtype="int32") /* ty=Tensor[(3), int32] */;
  %154 = cast(%151, dtype="int8") /* ty=Tensor[(3, 7, 7), int8] */;
  %155 = dyn.reshape(%152, %153, newshape=[]) /* ty=Tensor[(?, ?, ?), int8] */;
  bitwise_xor(%154, %155) /* ty=Tensor[(3, 7, 7), int8] */
}

def @func_13041(%var_13023: Tensor[(504, 2), bool]) -> (Tensor[(3, 7, 7), float64], Tensor[(3, 7, 7), float64], Tensor[(3, 7, 7), float64], Tensor[(504, 2), bool], Tensor[(3, 7, 7), float64]) {
  %156 = @func_12839() /* ty=(Tensor[(6, 16, 5), float32], Tensor[(3, 7, 7), float64], Tensor[(3, 7, 7), float64], Tensor[(30, 2), uint64]) */;
  %157 = @func_11293() /* ty=(Tensor[(550), float32], Tensor[(3, 7, 7), float64], Tensor[(10, 7, 8), bool], Tensor[(2, 280), uint64]) */;
  %158 = @func_8021() /* ty=(Tensor[(3, 7, 7), float64],) */;
  %159 = @func_8244() /* ty=(Tensor[(14, 5), float64], Tensor[(1980), int16], Tensor[(504, 2), bool], int16, Tensor[(1980), int16], Tensor[(60), uint64]) */;
  %160 = %159.2;
  %161 = cast(%var_13023, dtype="bool") /* ty=Tensor[(504, 2), bool] */;
  %162 = shape_of(%160, dtype="int32") /* ty=Tensor[(2), int32] */;
  %163 = cast(%160, dtype="bool") /* ty=Tensor[(504, 2), bool] */;
  %164 = dyn.reshape(%161, %162, newshape=[]) /* ty=Tensor[(?, ?), bool] */;
  %165 = @func_10490() /* ty=(Tensor[(3, 7, 7), float64],) */;
  %166 = %156.2;
  %167 = %157.1;
  %168 = %158.0;
  %169 = less(%163, %164) /* ty=Tensor[(504, 2), bool] */;
  %170 = %165.0;
  (%166, %167, %168, %169, %170)
}

def @func_9894() -> (Tensor[(3, 7, 7), float64],) {
  %171 = @func_7523() /* ty=(Tensor[(3, 7, 7), float64],) */;
  %172 = %171.0;
  (%172,)
}

def @func_1505(%var_1492: Tensor[(2, 14, 10), float32]) -> (Tensor[(2, 14, 10), float32],) {
  %173 = cast(%var_1492, dtype="float32") /* ty=Tensor[(2, 14, 10), float32] */;
  %174 = acosh(%173) /* ty=Tensor[(2, 14, 10), float32] */;
  (%174,)
}

def @func_10330() -> (Tensor[(3, 7, 7), float32], Tensor[(14, 5), float64]) {
  %175 = @func_8296() /* ty=Tensor[(3, 7, 7), int8] */;
  %176 = cast(%175, dtype="float32") /* ty=Tensor[(3, 7, 7), float32] */;
  %177 = @func_9549() /* ty=(Tensor[(14, 5), float64], Tensor[(3, 7, 7), float64]) */;
  %178 = sin(%176) /* ty=Tensor[(3, 7, 7), float32] */;
  %179 = %177.0;
  (%178, %179)
}

def @func_14742(%var_14718: Tensor[(1008), bool], %var_14731: Tensor[(540), int64], %var_14732: Tensor[(1280), float64]) -> (Tensor[(550), float32], Tensor[(1008), bool], Tensor[(14, 6, 12), float32], Tensor[(60), uint64], Tensor[(540), int64], Tensor[(1280), float64], Tensor[(60), uint64]) {
  %180 = @func_9475() /* ty=(Tensor[(3, 7, 7), float64], Tensor[(10, 5, 11), float32], Tensor[(550), float32]) */;
  %181 = cast(%var_14718, dtype="bool") /* ty=Tensor[(1008), bool] */;
  %182 = cast(%var_14718, dtype="bool") /* ty=Tensor[(1008), bool] */;
  %183 = reshape(%181, newshape=[14, 6, 12]) /* ty=Tensor[(14, 6, 12), bool] */;
  %184 = reshape(%182, newshape=[14, 6, 12]) /* ty=Tensor[(14, 6, 12), bool] */;
  %185 = @func_1619(%183, %184) /* ty=Tensor[(14, 6, 12), bool] */;
  %186 = cast(%185, dtype="float32") /* ty=Tensor[(14, 6, 12), float32] */;
  %187 = cast(%var_14731, dtype="int64") /* ty=Tensor[(540), int64] */;
  %188 = cast(%var_14732, dtype="float64") /* ty=Tensor[(1280), float64] */;
  %189 = cast(meta[relay.Constant][15] /* ty=Tensor[(60), uint64] */, dtype="uint64") /* ty=Tensor[(60), uint64] */;
  %190 = reshape(%187, newshape=[6, 9, 10]) /* ty=Tensor[(6, 9, 10), int64] */;
  %191 = reshape(%188, newshape=[1280]) /* ty=Tensor[(1280), float64] */;
  %192 = reshape(%189, newshape=[60]) /* ty=Tensor[(60), uint64] */;
  %193 = @func_1996(%190, %191, %192) /* ty=(Tensor[(6, 9, 10), int64], Tensor[(2, 5, 6), uint64], Tensor[(1280), float64], Tensor[(60), uint64]) */;
  %194 = %180.2;
  %195 = cos(%186) /* ty=Tensor[(14, 6, 12), float32] */;
  %196 = %193.3;
  (%194, %var_14718, %195, %196, %var_14731, %var_14732, meta[relay.Constant][15] /* ty=Tensor[(60), uint64] */)
}

def @func_19477() -> (Tensor[(3, 7, 7), float64],) {
  %197 = @func_15355() /* ty=(Tensor[(3, 7, 7), float64],) */;
  %198 = %197.0;
  (%198,)
}

def @func_7344() -> Tensor[(3, 7, 7), float64] {
  @func_7205() /* ty=Tensor[(3, 7, 7), float64] */
}

def @func_8930() -> Tensor[(3, 7, 7), float64] {
  @func_7216() /* ty=Tensor[(3, 7, 7), float64] */
}

def @func_8720(%var_8709: Tensor[(14, 12, 7), float64], %var_8710: Tensor[(14, 12, 7), float64]) -> (Tensor[(14, 12, 7), float64],) {
  %199 = cast(%var_8710, dtype="float64") /* ty=Tensor[(14, 12, 7), float64] */;
  %200 = shape_of(%var_8709, dtype="int32") /* ty=Tensor[(3), int32] */;
  %201 = cast(%var_8709, dtype="float64") /* ty=Tensor[(14, 12, 7), float64] */;
  %202 = dyn.reshape(%199, %200, newshape=[]) /* ty=Tensor[(?, ?, ?), float64] */;
  %203 = power(%201, %202) /* ty=Tensor[(14, 12, 7), float64] */;
  (%203,)
}

def @func_10653() -> Tensor[(3, 7, 7), int8] {
  @func_10020() /* ty=Tensor[(3, 7, 7), int8] */
}

def @func_9320() -> (Tensor[(3, 7, 7), float64],) {
  %204 = @func_8553() /* ty=(Tensor[(3, 7, 7), float64], Tensor[(10, 7, 8), bool], Tensor[(550), float32], Tensor[(550), float32]) */;
  %205 = %204.0;
  (%205,)
}

def @func_15417(%var_15392: Tensor[(3, 12, 2), float64], %var_15393: Tensor[(3, 12, 2), float64]) -> (Tensor[(3, 12, 2), float64], Tensor[(2464), float64]) {
  %206 = cast(%var_15393, dtype="float64") /* ty=Tensor[(3, 12, 2), float64] */;
  %207 = shape_of(%var_15392, dtype="int32") /* ty=Tensor[(3), int32] */;
  %208 = cast(%var_15392, dtype="float64") /* ty=Tensor[(3, 12, 2), float64] */;
  %209 = dyn.reshape(%206, %207, newshape=[]) /* ty=Tensor[(?, ?, ?), float64] */;
  %210 = @func_15331() /* ty=(Tensor[(2, 12, 10), uint8], Tensor[(3, 7, 7), float64], Tensor[(3, 7, 7), int8], Tensor[(3, 7, 7), int8], Tensor[(256), uint64], Tensor[(2464), float64], Tensor[(1, 256), uint64], Tensor[(18, 110), float64], Tensor[(18, 110), float32]) */;
  %211 = floor_divide(%208, %209) /* ty=Tensor[(3, 12, 2), float64] */;
  %212 = %210.5;
  (%211, %212)
}

def @func_11336() -> Tensor[(3, 7, 7), float64] {
  %213 = @func_9320() /* ty=(Tensor[(3, 7, 7), float64],) */;
  %213.0
}

def @func_9439(%var_9428: Tensor[(16, 1, 3), float32]) -> Tensor[(16, 1, 3), float32] {
  %214 = cast(%var_9428, dtype="float32") /* ty=Tensor[(16, 1, 3), float32] */;
  cosh(%214) /* ty=Tensor[(16, 1, 3), float32] */
}

def @func_19150(%var_19083: Tensor[(30, 2), uint64]) -> (Tensor[(550), float32], int64, Tensor[(30, 2), uint64], Tensor[(3, 7, 7), float64], Tensor[(3, 7, 7), float64]) {
  %215 = @func_17471() /* ty=(Tensor[(550), float32],) */;
  %216 = cast(%var_19083, dtype="uint64") /* ty=Tensor[(30, 2), uint64] */;
  %217 = reshape(%216, newshape=[60]) /* ty=Tensor[(60), uint64] */;
  %218 = @func_14984(%217) /* ty=(Tensor[(3, 7, 7), float64], Tensor[(14, 6, 12), bool], Tensor[(1008), bool], Tensor[(550), float64], int64, Tensor[(60), uint64], int64) */;
  %219 = @func_12534() /* ty=(Tensor[(3, 7, 7), float64], Tensor[(3, 7, 7), float64], Tensor[(14, 5), float64]) */;
  %220 = @func_9894() /* ty=(Tensor[(3, 7, 7), float64],) */;
  %221 = %215.0;
  %222 = %218.4;
  %223 = %219.1;
  %224 = %220.0;
  (%221, %222, %var_19083, %223, %224)
}

def @func_16555() -> Tensor[(3, 7, 7), float64] {
  %225 = @func_8090() /* ty=(Tensor[(3, 7, 7), float64],) */;
  %225.0
}

def @func_6309(%var_6286: Tensor[(12, 11, 16), uint32], %var_6287: Tensor[(12, 11, 16), uint32], %var_6297: Tensor[(21), int32], %var_6298: Tensor[(60), uint64], %var_6299: Tensor[(540, 1), int64], %var_6300: Tensor[(320, 4), float64], %var_6301: Tensor[(192), float64]) -> (Tensor[(12, 11, 16), uint32], Tensor[(4, 48), float64], int32, Tensor[(21), int32], Tensor[(60), uint64], Tensor[(540, 1), int64], Tensor[(320, 4), float64], Tensor[(192), float64]) {
  %226 = cast(%var_6287, dtype="uint32") /* ty=Tensor[(12, 11, 16), uint32] */;
  %227 = shape_of(%var_6286, dtype="int32") /* ty=Tensor[(3), int32] */;
  %228 = cast(%var_6286, dtype="uint32") /* ty=Tensor[(12, 11, 16), uint32] */;
  %229 = dyn.reshape(%226, %227, newshape=[]) /* ty=Tensor[(?, ?, ?), uint32] */;
  %230 = cast(4 /* ty=int32 */, dtype="int32") /* ty=int32 */;
  %231 = cast(%var_6297, dtype="int32") /* ty=Tensor[(21), int32] */;
  %232 = cast(%var_6298, dtype="uint64") /* ty=Tensor[(60), uint64] */;
  %233 = cast(%var_6299, dtype="int64") /* ty=Tensor[(540, 1), int64] */;
  %234 = cast(%var_6300, dtype="float64") /* ty=Tensor[(320, 4), float64] */;
  %235 = cast(%var_6301, dtype="float64") /* ty=Tensor[(192), float64] */;
  %236 = reshape(%230, newshape=[]) /* ty=int32 */;
  %237 = reshape(%231, newshape=[7, 3, 1]) /* ty=Tensor[(7, 3, 1), int32] */;
  %238 = reshape(%232, newshape=[60]) /* ty=Tensor[(60), uint64] */;
  %239 = reshape(%233, newshape=[540]) /* ty=Tensor[(540), int64] */;
  %240 = reshape(%234, newshape=[1280]) /* ty=Tensor[(1280), float64] */;
  %241 = reshape(%235, newshape=[4, 48]) /* ty=Tensor[(4, 48), float64] */;
  %242 = @func_4568(%236, %237, %238, %239, %240, %241) /* ty=(Tensor[(7, 3, 1), int32], Tensor[(2, 5, 6), uint64], Tensor[(1980), int16], Tensor[(60), uint64], Tensor[(1280), float64], Tensor[(540), int64], Tensor[(1280), float64], Tensor[(60), uint64], Tensor[(4, 48), float64]) */;
  %243 = bitwise_and(%228, %229) /* ty=Tensor[(12, 11, 16), uint32] */;
  %244 = %242.8;
  (%243, %244, 4 /* ty=int32 */, %var_6297, %var_6298, %var_6299, %var_6300, %var_6301)
}

def @func_9097() -> Tensor[(3, 7, 7), int8] {
  %245 = @func_8630() /* ty=(Tensor[(3, 7, 7), int8],) */;
  %245.0
}

def @func_16466() -> Tensor[(14, 5), float64] {
  @func_9380() /* ty=Tensor[(14, 5), float64] */
}

def @func_8678() -> (Tensor[(3, 7, 7), int8], Tensor[(3, 7, 7), float64]) {
  %246 = @func_8630() /* ty=(Tensor[(3, 7, 7), int8],) */;
  %247 = %246.0;
  %248 = @func_7344() /* ty=Tensor[(3, 7, 7), float64] */;
  (%247, %248)
}

def @func_15897() -> (Tensor[(3, 7, 7), float64], Tensor[(2, 3, 10), float64], Tensor[(60), float64]) {
  %249 = @func_7523() /* ty=(Tensor[(3, 7, 7), float64],) */;
  %250 = cast(meta[relay.Constant][16] /* ty=Tensor[(60), float64] */, dtype="float64") /* ty=Tensor[(60), float64] */;
  %251 = reshape(%250, newshape=[2, 3, 10]) /* ty=Tensor[(2, 3, 10), float64] */;
  %252 = %249.0;
  %253 = @func_938(%251) /* ty=Tensor[(2, 3, 10), float64] */;
  (%252, %253, meta[relay.Constant][16] /* ty=Tensor[(60), float64] */)
}

def @func_8349() -> Tensor[(3, 7, 7), float64] {
  %254 = @func_8090() /* ty=(Tensor[(3, 7, 7), float64],) */;
  %254.0
}

def @func_18637() -> (Tensor[(550), float32], Tensor[(3, 7, 7), float64], Tensor[(10, 7, 8), bool], Tensor[(560), bool], Tensor[(3, 7, 7), float64], Tensor[(3, 7, 7), float64], Tensor[(3, 7, 7), float64], Tensor[(130), float64]) {
  %255 = @func_11293() /* ty=(Tensor[(550), float32], Tensor[(3, 7, 7), float64], Tensor[(10, 7, 8), bool], Tensor[(2, 280), uint64]) */;
  %256 = cast(meta[relay.Constant][17] /* ty=Tensor[(560), bool] */, dtype="bool") /* ty=Tensor[(560), bool] */;
  %257 = reshape(%256, newshape=[10, 7, 8]) /* ty=Tensor[(10, 7, 8), bool] */;
  %258 = @func_11293() /* ty=(Tensor[(550), float32], Tensor[(3, 7, 7), float64], Tensor[(10, 7, 8), bool], Tensor[(2, 280), uint64]) */;
  %259 = @func_11617() /* ty=(Tensor[(3, 7, 7), float64], Tensor[(3, 7, 7), float64]) */;
  %260 = cast(meta[relay.Constant][18] /* ty=Tensor[(130), float64] */, dtype="float64") /* ty=Tensor[(130), float64] */;
  %261 = reshape(%260, newshape=[2, 5, 13]) /* ty=Tensor[(2, 5, 13), float64] */;
  %262 = @func_17429(%261) /* ty=(Tensor[(3, 7, 7), int8], Tensor[(2, 5, 13), float32], Tensor[(3, 7, 7), float64]) */;
  %263 = %255.0;
  %264 = @func_16555() /* ty=Tensor[(3, 7, 7), float64] */;
  %265 = @func_12204(%257) /* ty=Tensor[(10, 7, 8), bool] */;
  %266 = %258.1;
  %267 = %259.1;
  %268 = %262.2;
  (%263, %264, %265, meta[relay.Constant][17] /* ty=Tensor[(560), bool] */, %266, %267, %268, meta[relay.Constant][18] /* ty=Tensor[(130), float64] */)
}

def @func_17471() -> (Tensor[(550), float32],) {
  %269 = @func_13938() /* ty=Tensor[(550), float32] */;
  (%269,)
}

def @func_20049(%var_20047: Tensor[(550), float32]) -> (Tensor[(10, 7, 8), float64], Tensor[(3, 7, 7), float64], Tensor[(3, 7, 7), float64], Tensor[(3, 7, 7), float64], Tensor[(14, 5), float64], Tensor[(550), float64], Tensor[(550), float32]) {
  %270 = @func_7952() /* ty=(Tensor[(10, 7, 8), bool], Tensor[(5, 2, 7), float64], Tensor[(14, 5), float64]) */;
  %271 = %270.0;
  %272 = cast(%271, dtype="float64") /* ty=Tensor[(10, 7, 8), float64] */;
  %273 = @func_14546() /* ty=(Tensor[(3, 7, 7), float64], Tensor[(3, 7, 7), float64], Tensor[(3, 7, 7), float64]) */;
  %274 = @func_19044() /* ty=(Tensor[(3, 7, 7), float64],) */;
  %275 = @func_7952() /* ty=(Tensor[(10, 7, 8), bool], Tensor[(5, 2, 7), float64], Tensor[(14, 5), float64]) */;
  %276 = cast(%var_20047, dtype="float32") /* ty=Tensor[(550), float32] */;
  %277 = reshape(%276, newshape=[550]) /* ty=Tensor[(550), float32] */;
  %278 = @func_12651(%277) /* ty=(Tensor[(550), float32], Tensor[(3, 7, 7), float64], Tensor[(550), float64]) */;
  %279 = rsqrt(%272) /* ty=Tensor[(10, 7, 8), float64] */;
  %280 = %273.2;
  %281 = @func_18942() /* ty=Tensor[(3, 7, 7), float64] */;
  %282 = %274.0;
  %283 = %275.2;
  %284 = %278.2;
  (%279, %280, %281, %282, %283, %284, %var_20047)
}

def @func_14326(%var_14309: Tensor[(1176), float64]) -> (Tensor[(3, 7, 7), float64], Tensor[(14, 12, 7), float64], Tensor[(1176), float64], Tensor[(14, 12, 7), float64]) {
  %285 = @func_7653() /* ty=(Tensor[(3, 7, 7), float64],) */;
  %286 = cast(%var_14309, dtype="float64") /* ty=Tensor[(1176), float64] */;
  %287 = cast(%var_14309, dtype="float64") /* ty=Tensor[(1176), float64] */;
  %288 = reshape(%286, newshape=[14, 12, 7]) /* ty=Tensor[(14, 12, 7), float64] */;
  %289 = reshape(%287, newshape=[14, 12, 7]) /* ty=Tensor[(14, 12, 7), float64] */;
  %290 = @func_8720(%288, %289) /* ty=(Tensor[(14, 12, 7), float64],) */;
  %291 = cast(%var_14309, dtype="float64") /* ty=Tensor[(1176), float64] */;
  %292 = %290.0;
  %293 = cast(%292, dtype="float64") /* ty=Tensor[(14, 12, 7), float64] */;
  %294 = reshape(%291, newshape=[14, 12, 7]) /* ty=Tensor[(14, 12, 7), float64] */;
  %295 = reshape(%293, newshape=[14, 12, 7]) /* ty=Tensor[(14, 12, 7), float64] */;
  %296 = @func_8720(%294, %295) /* ty=(Tensor[(14, 12, 7), float64],) */;
  %297 = %285.0;
  %298 = %296.0;
  (%297, %292, %var_14309, %298)
}

def @func_20433() -> (Tensor[(3, 7, 7), float64], Tensor[(550), float32]) {
  %299 = @func_8021() /* ty=(Tensor[(3, 7, 7), float64],) */;
  %300 = @func_17623() /* ty=(Tensor[(550), float32],) */;
  %301 = %299.0;
  %302 = %300.0;
  (%301, %302)
}

def @func_19175() -> (Tensor[(3, 7, 7), float64], Tensor[(3, 7, 7), float64]) {
  %303 = @func_17286() /* ty=Tensor[(3, 7, 7), float64] */;
  %304 = @func_9637() /* ty=Tensor[(3, 7, 7), float64] */;
  (%303, %304)
}

def @func_1145(%var_1119: Tensor[(16, 16, 5), float64], %var_1124: Tensor[(60), uint64]) -> (Tensor[(16, 16, 5), float64], Tensor[(2, 5, 6), uint64], Tensor[(60), uint64], Tensor[(2, 5, 6), uint64]) {
  %305 = cast(%var_1119, dtype="float64") /* ty=Tensor[(16, 16, 5), float64] */;
  %306 = cast(%var_1124, dtype="uint64") /* ty=Tensor[(60), uint64] */;
  %307 = cast(%var_1124, dtype="uint64") /* ty=Tensor[(60), uint64] */;
  %308 = reshape(%306, newshape=[2, 5, 6]) /* ty=Tensor[(2, 5, 6), uint64] */;
  %309 = reshape(%307, newshape=[2, 5, 6]) /* ty=Tensor[(2, 5, 6), uint64] */;
  %310 = cast(%var_1124, dtype="uint64") /* ty=Tensor[(60), uint64] */;
  %311 = cast(%var_1124, dtype="uint64") /* ty=Tensor[(60), uint64] */;
  %312 = reshape(%310, newshape=[2, 5, 6]) /* ty=Tensor[(2, 5, 6), uint64] */;
  %313 = reshape(%311, newshape=[2, 5, 6]) /* ty=Tensor[(2, 5, 6), uint64] */;
  %314 = sin(%305) /* ty=Tensor[(16, 16, 5), float64] */;
  %315 = @func_531(%308, %309) /* ty=Tensor[(2, 5, 6), uint64] */;
  %316 = @func_531(%312, %313) /* ty=Tensor[(2, 5, 6), uint64] */;
  (%314, %315, %var_1124, %316)
}

def @func_14879() -> (Tensor[(3, 7, 7), float64], Tensor[(3, 7, 7), float64], Tensor[(3, 7, 7), float64], Tensor[(3, 7, 7), int8]) {
  %317 = @func_10490() /* ty=(Tensor[(3, 7, 7), float64],) */;
  %318 = @func_13057() /* ty=(Tensor[(3, 7, 7), float64], Tensor[(3, 7, 7), int8]) */;
  %319 = @func_11190() /* ty=(Tensor[(3, 7, 7), float64],) */;
  %320 = @func_8630() /* ty=(Tensor[(3, 7, 7), int8],) */;
  %321 = %317.0;
  %322 = %318.0;
  %323 = %319.0;
  %324 = %320.0;
  (%321, %322, %323, %324)
}

def @func_16425(%var_16381: Tensor[(9, 6, 2), float32], %var_16382: Tensor[(9, 6, 2), float32]) -> (Tensor[(9, 6, 2), float32], Tensor[(3, 7, 7), float64]) {
  %325 = cast(%var_16382, dtype="float32") /* ty=Tensor[(9, 6, 2), float32] */;
  %326 = shape_of(%var_16381, dtype="int32") /* ty=Tensor[(3), int32] */;
  %327 = cast(%var_16381, dtype="float32") /* ty=Tensor[(9, 6, 2), float32] */;
  %328 = dyn.reshape(%325, %326, newshape=[]) /* ty=Tensor[(?, ?, ?), float32] */;
  %329 = floor_divide(%327, %328) /* ty=Tensor[(9, 6, 2), float32] */;
  %330 = @func_7216() /* ty=Tensor[(3, 7, 7), float64] */;
  (%329, %330)
}

def @func_13938() -> Tensor[(550), float32] {
  %331 = @func_9665() /* ty=(Tensor[(550), float32],) */;
  %332 = %331.0;
  %333 = cast(%332, dtype="float32") /* ty=Tensor[(550), float32] */;
  asinh(%333) /* ty=Tensor[(550), float32] */
}

def @func_19543() -> Tensor[(3, 7, 7), float64] {
  %334 = @func_12839() /* ty=(Tensor[(6, 16, 5), float32], Tensor[(3, 7, 7), float64], Tensor[(3, 7, 7), float64], Tensor[(30, 2), uint64]) */;
  %334.2
}

def @func_17650() -> (Tensor[(1980), int16],) {
  %335 = @func_17156() /* ty=(Tensor[(3, 7, 7), float64], Tensor[(14, 12, 7), float64], Tensor[(1176), float64], Tensor[(1980), int16], Tensor[(1980), int16], Tensor[(14, 5), float64], Tensor[(10, 7, 8), bool], Tensor[(14, 5), float64]) */;
  %336 = %335.4;
  (%336,)
}

def @func_7523() -> (Tensor[(3, 7, 7), float64],) {
  %337 = @func_7106() /* ty=Tensor[(3, 7, 7), float64] */;
  (%337,)
}

def @func_19044() -> (Tensor[(3, 7, 7), float64],) {
  %338 = @func_9607() /* ty=(Tensor[(3, 7, 7), float64], Tensor[(3, 7, 7), float64]) */;
  %339 = %338.1;
  (%339,)
}

def @func_15612() -> (Tensor[(3, 7, 7), float64], Tensor[(3, 7, 7), float64], Tensor[(3, 7, 7), float64]) {
  %340 = @func_8090() /* ty=(Tensor[(3, 7, 7), float64],) */;
  %341 = %340.0;
  %342 = @func_7115() /* ty=Tensor[(3, 7, 7), float64] */;
  %343 = @func_8930() /* ty=Tensor[(3, 7, 7), float64] */;
  (%341, %342, %343)
}

def @func_11083(%var_11069: Tensor[(48), float32]) -> (Tensor[(14, 5), float64], Tensor[(16, 1, 3), float32], Tensor[(48), float32]) {
  %344 = @func_7952() /* ty=(Tensor[(10, 7, 8), bool], Tensor[(5, 2, 7), float64], Tensor[(14, 5), float64]) */;
  %345 = cast(%var_11069, dtype="float32") /* ty=Tensor[(48), float32] */;
  %346 = reshape(%345, newshape=[16, 1, 3]) /* ty=Tensor[(16, 1, 3), float32] */;
  %347 = %344.2;
  %348 = @func_9439(%346) /* ty=Tensor[(16, 1, 3), float32] */;
  (%347, %348, %var_11069)
}

def @func_1202(%var_1184: Tensor[(12, 1, 16), float64], %var_1191: Tensor[(60), uint64]) -> (Tensor[(12, 1, 16), float64], Tensor[(2, 5, 6), uint64], Tensor[(60), uint64]) {
  %349 = cast(%var_1184, dtype="float64") /* ty=Tensor[(12, 1, 16), float64] */;
  %350 = cast(%var_1191, dtype="uint64") /* ty=Tensor[(60), uint64] */;
  %351 = cast(%var_1191, dtype="uint64") /* ty=Tensor[(60), uint64] */;
  %352 = reshape(%350, newshape=[2, 5, 6]) /* ty=Tensor[(2, 5, 6), uint64] */;
  %353 = reshape(%351, newshape=[2, 5, 6]) /* ty=Tensor[(2, 5, 6), uint64] */;
  %354 = tan(%349) /* ty=Tensor[(12, 1, 16), float64] */;
  %355 = @func_531(%352, %353) /* ty=Tensor[(2, 5, 6), uint64] */;
  (%354, %355, %var_1191)
}

def @func_13260() -> (Tensor[(3, 7, 7), float64], Tensor[(550), float64]) {
  %356 = @func_9713() /* ty=(Tensor[(3, 7, 7), float64],) */;
  %357 = @func_8212() /* ty=(Tensor[(3, 7, 7), float64], Tensor[(10, 5, 11), float32], Tensor[(550), float32]) */;
  %358 = %357.2;
  %359 = cast(%358, dtype="float64") /* ty=Tensor[(550), float64] */;
  %360 = %356.0;
  %361 = atan(%359) /* ty=Tensor[(550), float64] */;
  (%360, %361)
}

def @func_2495(%var_2486: Tensor[(2, 12, 10), float64]) -> Tensor[(2, 12, 10), float64] {
  %362 = cast(%var_2486, dtype="float64") /* ty=Tensor[(2, 12, 10), float64] */;
  sqrt(%362) /* ty=Tensor[(2, 12, 10), float64] */
}

def @func_15878() -> Tensor[(3, 7, 7), float64] {
  %363 = @func_9713() /* ty=(Tensor[(3, 7, 7), float64],) */;
  %363.0
}

def @func_10987(%var_10975: Tensor[(16, 9, 15), float32]) -> Tensor[(16, 9, 15), float32] {
  %364 = cast(%var_10975, dtype="float32") /* ty=Tensor[(16, 9, 15), float32] */;
  asin(%364) /* ty=Tensor[(16, 9, 15), float32] */
}

def @func_11516(%var_11472: Tensor[(21), int32], %var_11474: Tensor[(540), int64], %var_11476: Tensor[(192), float64], %var_11492: Tensor[(2160), float32]) -> (Tensor[(3, 7, 7), float64], Tensor[(44, 48), uint32], Tensor[(15, 4), uint64], Tensor[(540), int64], Tensor[(1280), float64], Tensor[(192), float64], Tensor[(16, 9, 15), float32], Tensor[(2160), float32], Tensor[(21), bool]) {
  %365 = cast(%var_11492, dtype="float32") /* ty=Tensor[(2160), float32] */;
  %366 = reshape(%365, newshape=[16, 9, 15]) /* ty=Tensor[(16, 9, 15), float32] */;
  %367 = cast(meta[relay.Constant][19] /* ty=Tensor[(44, 48), uint32] */, dtype="uint32") /* ty=Tensor[(44, 48), uint32] */;
  %368 = cast(meta[relay.Constant][19] /* ty=Tensor[(44, 48), uint32] */, dtype="uint32") /* ty=Tensor[(44, 48), uint32] */;
  %369 = cast(%var_11472, dtype="int32") /* ty=Tensor[(21), int32] */;
  %370 = cast(meta[relay.Constant][20] /* ty=Tensor[(15, 4), uint64] */, dtype="uint64") /* ty=Tensor[(15, 4), uint64] */;
  %371 = cast(%var_11474, dtype="int64") /* ty=Tensor[(540), int64] */;
  %372 = cast(meta[relay.Constant][21] /* ty=Tensor[(1280), float64] */, dtype="float64") /* ty=Tensor[(1280), float64] */;
  %373 = cast(%var_11476, dtype="float64") /* ty=Tensor[(192), float64] */;
  %374 = reshape(%367, newshape=[12, 11, 16]) /* ty=Tensor[(12, 11, 16), uint32] */;
  %375 = reshape(%368, newshape=[12, 11, 16]) /* ty=Tensor[(12, 11, 16), uint32] */;
  %376 = reshape(%369, newshape=[21]) /* ty=Tensor[(21), int32] */;
  %377 = reshape(%370, newshape=[60]) /* ty=Tensor[(60), uint64] */;
  %378 = reshape(%371, newshape=[540, 1]) /* ty=Tensor[(540, 1), int64] */;
  %379 = reshape(%372, newshape=[320, 4]) /* ty=Tensor[(320, 4), float64] */;
  %380 = reshape(%373, newshape=[192]) /* ty=Tensor[(192), float64] */;
  %381 = @func_6309(%374, %375, %376, %377, %378, %379, %380) /* ty=(Tensor[(12, 11, 16), uint32], Tensor[(4, 48), float64], int32, Tensor[(21), int32], Tensor[(60), uint64], Tensor[(540, 1), int64], Tensor[(320, 4), float64], Tensor[(192), float64]) */;
  %382 = %381.2;
  %383 = cast(%382, dtype="bool") /* ty=bool */;
  %384 = cast(%var_11472, dtype="bool") /* ty=Tensor[(21), bool] */;
  %385 = @func_7344() /* ty=Tensor[(3, 7, 7), float64] */;
  %386 = @func_10987(%366) /* ty=Tensor[(16, 9, 15), float32] */;
  %387 = less_equal(%383, %384) /* ty=Tensor[(21), bool] */;
  (%385, meta[relay.Constant][19] /* ty=Tensor[(44, 48), uint32] */, meta[relay.Constant][20] /* ty=Tensor[(15, 4), uint64] */, %var_11474, meta[relay.Constant][21] /* ty=Tensor[(1280), float64] */, %var_11476, %386, %var_11492, %387)
}

def @func_13821(%var_13769: Tensor[(2112), uint32], %var_13774: Tensor[(96, 2), float64]) -> (Tensor[(1980), int16], Tensor[(21), int32], Tensor[(2112), uint32], Tensor[(21), int32], Tensor[(60), uint64], Tensor[(540), int64], Tensor[(1280, 1), float64], Tensor[(560), uint64], Tensor[(2464), float64], Tensor[(256), uint64], Tensor[(3, 7, 7), float64], Tensor[(96, 2), float64]) {
  %388 = @func_8244() /* ty=(Tensor[(14, 5), float64], Tensor[(1980), int16], Tensor[(504, 2), bool], int16, Tensor[(1980), int16], Tensor[(60), uint64]) */;
  %389 = cast(%var_13769, dtype="uint32") /* ty=Tensor[(2112), uint32] */;
  %390 = cast(%var_13769, dtype="uint32") /* ty=Tensor[(2112), uint32] */;
  %391 = cast(meta[relay.Constant][22] /* ty=Tensor[(21), int32] */, dtype="int32") /* ty=Tensor[(21), int32] */;
  %392 = cast(meta[relay.Constant][23] /* ty=Tensor[(60), uint64] */, dtype="uint64") /* ty=Tensor[(60), uint64] */;
  %393 = cast(meta[relay.Constant][24] /* ty=Tensor[(540), int64] */, dtype="int64") /* ty=Tensor[(540), int64] */;
  %394 = cast(meta[relay.Constant][25] /* ty=Tensor[(1280, 1), float64] */, dtype="float64") /* ty=Tensor[(1280, 1), float64] */;
  %395 = cast(%var_13774, dtype="float64") /* ty=Tensor[(96, 2), float64] */;
  %396 = reshape(%389, newshape=[12, 11, 16]) /* ty=Tensor[(12, 11, 16), uint32] */;
  %397 = reshape(%390, newshape=[12, 11, 16]) /* ty=Tensor[(12, 11, 16), uint32] */;
  %398 = reshape(%391, newshape=[21]) /* ty=Tensor[(21), int32] */;
  %399 = reshape(%392, newshape=[60]) /* ty=Tensor[(60), uint64] */;
  %400 = reshape(%393, newshape=[540, 1]) /* ty=Tensor[(540, 1), int64] */;
  %401 = reshape(%394, newshape=[320, 4]) /* ty=Tensor[(320, 4), float64] */;
  %402 = reshape(%395, newshape=[192]) /* ty=Tensor[(192), float64] */;
  %403 = @func_6309(%396, %397, %398, %399, %400, %401, %402) /* ty=(Tensor[(12, 11, 16), uint32], Tensor[(4, 48), float64], int32, Tensor[(21), int32], Tensor[(60), uint64], Tensor[(540, 1), int64], Tensor[(320, 4), float64], Tensor[(192), float64]) */;
  %404 = cast(meta[relay.Constant][26] /* ty=Tensor[(2464), float64] */, dtype="float64") /* ty=Tensor[(2464), float64] */;
  %405 = cast(meta[relay.Constant][26] /* ty=Tensor[(2464), float64] */, dtype="float64") /* ty=Tensor[(2464), float64] */;
  %406 = cast(meta[relay.Constant][27] /* ty=Tensor[(256), uint64] */, dtype="uint64") /* ty=Tensor[(256), uint64] */;
  %407 = reshape(%404, newshape=[11, 16, 14]) /* ty=Tensor[(11, 16, 14), float64] */;
  %408 = reshape(%405, newshape=[11, 16, 14]) /* ty=Tensor[(11, 16, 14), float64] */;
  %409 = reshape(%406, newshape=[256]) /* ty=Tensor[(256), uint64] */;
  %410 = @func_10577(%407, %408, %409) /* ty=(Tensor[(11, 16, 14), float64], Tensor[(560), uint64], Tensor[(1008), bool], Tensor[(256), uint64]) */;
  %411 = @func_11351() /* ty=(Tensor[(3, 7, 7), float64],) */;
  %412 = cast(%var_13774, dtype="float64") /* ty=Tensor[(96, 2), float64] */;
  %413 = asinh(%412) /* ty=Tensor[(96, 2), float64] */;
  %414 = cast(%413, dtype="float64") /* ty=Tensor[(96, 2), float64] */;
  %415 = log2(%414) /* ty=Tensor[(96, 2), float64] */;
  %416 = cast(%415, dtype="float64") /* ty=Tensor[(96, 2), float64] */;
  %417 = shape_of(%413, dtype="int32") /* ty=Tensor[(2), int32] */;
  %418 = cast(%413, dtype="float64") /* ty=Tensor[(96, 2), float64] */;
  %419 = dyn.reshape(%416, %417, newshape=[]) /* ty=Tensor[(?, ?), float64] */;
  %420 = %388.1;
  %421 = %403.3;
  %422 = %410.1;
  %423 = %411.0;
  %424 = floor_mod(%418, %419) /* ty=Tensor[(96, 2), float64] */;
  (%420, %421, %var_13769, meta[relay.Constant][22] /* ty=Tensor[(21), int32] */, meta[relay.Constant][23] /* ty=Tensor[(60), uint64] */, meta[relay.Constant][24] /* ty=Tensor[(540), int64] */, meta[relay.Constant][25] /* ty=Tensor[(1280, 1), float64] */, %422, meta[relay.Constant][26] /* ty=Tensor[(2464), float64] */, meta[relay.Constant][27] /* ty=Tensor[(256), uint64] */, %423, %424)
}

def @func_19000() -> (Tensor[(3, 7, 7), float64],) {
  %425 = @func_15612() /* ty=(Tensor[(3, 7, 7), float64], Tensor[(3, 7, 7), float64], Tensor[(3, 7, 7), float64]) */;
  %426 = %425.0;
  (%426,)
}

def @func_16164() -> Tensor[(6, 16, 5), float64] {
  %427 = @func_12839() /* ty=(Tensor[(6, 16, 5), float32], Tensor[(3, 7, 7), float64], Tensor[(3, 7, 7), float64], Tensor[(30, 2), uint64]) */;
  %428 = %427.0;
  %429 = cast(%428, dtype="float64") /* ty=Tensor[(6, 16, 5), float64] */;
  atanh(%429) /* ty=Tensor[(6, 16, 5), float64] */
}

def @func_11648() -> (Tensor[(3, 7, 7), float64],) {
  %430 = @func_8349() /* ty=Tensor[(3, 7, 7), float64] */;
  (%430,)
}

def @func_15725() -> (Tensor[(3, 7, 7), float64],) {
  %431 = @func_13312() /* ty=(Tensor[(3, 7, 7), float64],) */;
  %432 = %431.0;
  (%432,)
}

def @func_12235() -> (Tensor[(3, 7, 7), float64], Tensor[(3, 7, 7), float64]) {
  %433 = @func_8696() /* ty=Tensor[(3, 7, 7), float64] */;
  %434 = @func_8696() /* ty=Tensor[(3, 7, 7), float64] */;
  (%433, %434)
}

def @func_13214() -> (Tensor[(3, 7, 7), float64],) {
  %435 = @func_11617() /* ty=(Tensor[(3, 7, 7), float64], Tensor[(3, 7, 7), float64]) */;
  %436 = %435.0;
  (%436,)
}

def @func_16988() -> Tensor[(3, 7, 7), float64] {
  %437 = @func_13214() /* ty=(Tensor[(3, 7, 7), float64],) */;
  %437.0
}

def @func_16055(%var_16010: Tensor[(60), uint64], %var_16012: Tensor[(280), float32]) -> (Tensor[(3, 7, 7), float64], Tensor[(3, 7, 7), float64], Tensor[(60), uint64], int64, Tensor[(280), float32], Tensor[(3, 7, 7), float64], Tensor[(3, 7, 7), float64]) {
  %438 = cast(%var_16010, dtype="uint64") /* ty=Tensor[(60), uint64] */;
  %439 = cast(9 /* ty=int64 */, dtype="int64") /* ty=int64 */;
  %440 = cast(%var_16012, dtype="float32") /* ty=Tensor[(280), float32] */;
  %441 = reshape(%438, newshape=[60]) /* ty=Tensor[(60), uint64] */;
  %442 = reshape(%439, newshape=[]) /* ty=int64 */;
  %443 = reshape(%440, newshape=[140, 2]) /* ty=Tensor[(140, 2), float32] */;
  %444 = @func_8502(%441, %442, %443) /* ty=(Tensor[(3, 7, 7), float64], Tensor[(10, 7, 8), bool], Tensor[(16, 16, 5), float64], Tensor[(1280), float64], Tensor[(60), uint64], Tensor[(160), float64], int64, Tensor[(2, 14, 10), float32], Tensor[(140, 2), float32], Tensor[(3, 7, 7), float64], Tensor[(550), float32], Tensor[(3, 7, 7), float64]) */;
  %445 = @func_9832() /* ty=(Tensor[(3, 7, 7), float64],) */;
  %446 = @func_13697() /* ty=Tensor[(3, 7, 7), float64] */;
  %447 = %444.9;
  %448 = @func_7106() /* ty=Tensor[(3, 7, 7), float64] */;
  %449 = %445.0;
  (%446, %447, %var_16010, 9 /* ty=int64 */, %var_16012, %448, %449)
}

def @func_8782() -> (Tensor[(550), float64],) {
  %450 = @func_8553() /* ty=(Tensor[(3, 7, 7), float64], Tensor[(10, 7, 8), bool], Tensor[(550), float32], Tensor[(550), float32]) */;
  %451 = %450.3;
  %452 = cast(%451, dtype="float64") /* ty=Tensor[(550), float64] */;
  %453 = erf(%452) /* ty=Tensor[(550), float64] */;
  (%453,)
}

def @func_17339() -> Tensor[(550), float64] {
  %454 = @func_17072() /* ty=(Tensor[(256), uint64], Tensor[(550), float32], Tensor[(3, 7, 7), float64]) */;
  %455 = %454.1;
  %456 = cast(%455, dtype="float64") /* ty=Tensor[(550), float64] */;
  asin(%456) /* ty=Tensor[(550), float64] */
}

def @func_19400() -> (Tensor[(3, 7, 7), float64], Tensor[(2, 12, 10), uint8]) {
  %457 = @func_15369() /* ty=(Tensor[(3, 7, 7), float64],) */;
  %458 = @func_15331() /* ty=(Tensor[(2, 12, 10), uint8], Tensor[(3, 7, 7), float64], Tensor[(3, 7, 7), int8], Tensor[(3, 7, 7), int8], Tensor[(256), uint64], Tensor[(2464), float64], Tensor[(1, 256), uint64], Tensor[(18, 110), float64], Tensor[(18, 110), float32]) */;
  %459 = %457.0;
  %460 = %458.0;
  (%459, %460)
}

def @func_16709(%var_16674: Tensor[(5, 2, 12), float64], %var_16698: int64, %var_16707: Tensor[(1260), bool]) -> (Tensor[(5, 2, 12), float64], Tensor[(5, 2, 12), float64], Tensor[(10, 7, 8), bool], Tensor[(560), bool], Tensor[(3, 7, 7), float64], Tensor[(160), float64], int64, Tensor[(550), float64], Tensor[(1260), bool]) {
  %461 = cast(meta[relay.Constant][28] /* ty=Tensor[(5, 2, 12), float64] */, dtype="float64") /* ty=Tensor[(5, 2, 12), float64] */;
  %462 = cast(%var_16674, dtype="float64") /* ty=Tensor[(5, 2, 12), float64] */;
  %463 = shape_of(meta[relay.Constant][28] /* ty=Tensor[(5, 2, 12), float64] */, dtype="int32") /* ty=Tensor[(3), int32] */;
  %464 = cast(meta[relay.Constant][28] /* ty=Tensor[(5, 2, 12), float64] */, dtype="float64") /* ty=Tensor[(5, 2, 12), float64] */;
  %465 = dyn.reshape(%462, %463, newshape=[]) /* ty=Tensor[(?, ?, ?), float64] */;
  %466 = cast(meta[relay.Constant][29] /* ty=Tensor[(560), bool] */, dtype="bool") /* ty=Tensor[(560), bool] */;
  %467 = reshape(%466, newshape=[10, 7, 8]) /* ty=Tensor[(10, 7, 8), bool] */;
  %468 = @func_14879() /* ty=(Tensor[(3, 7, 7), float64], Tensor[(3, 7, 7), float64], Tensor[(3, 7, 7), float64], Tensor[(3, 7, 7), int8]) */;
  %469 = cast(%var_16698, dtype="int64") /* ty=int64 */;
  %470 = reshape(%469, newshape=[]) /* ty=int64 */;
  %471 = @func_6804(%470) /* ty=(Tensor[(3, 7, 7), float64], Tensor[(6, 10, 13), int64], Tensor[(160), float64], int64, Tensor[(1280), float64], Tensor[(3, 20), uint64], Tensor[(60), uint64]) */;
  %472 = cast(%var_16707, dtype="bool") /* ty=Tensor[(1260), bool] */;
  %473 = cast(%var_16707, dtype="bool") /* ty=Tensor[(1260), bool] */;
  %474 = reshape(%472, newshape=[7, 15, 12]) /* ty=Tensor[(7, 15, 12), bool] */;
  %475 = reshape(%473, newshape=[7, 15, 12]) /* ty=Tensor[(7, 15, 12), bool] */;
  %476 = @func_15796(%474, %475) /* ty=(Tensor[(7, 15, 12), bool], Tensor[(550), float64]) */;
  %477 = sinh(%461) /* ty=Tensor[(5, 2, 12), float64] */;
  %478 = power(%464, %465) /* ty=Tensor[(5, 2, 12), float64] */;
  %479 = @func_12204(%467) /* ty=Tensor[(10, 7, 8), bool] */;
  %480 = %468.1;
  %481 = %471.2;
  %482 = %476.1;
  (%477, %478, %479, meta[relay.Constant][29] /* ty=Tensor[(560), bool] */, %480, %481, %var_16698, %482, %var_16707)
}

def @func_11617() -> (Tensor[(3, 7, 7), float64], Tensor[(3, 7, 7), float64]) {
  %483 = @func_11351() /* ty=(Tensor[(3, 7, 7), float64],) */;
  %484 = @func_9607() /* ty=(Tensor[(3, 7, 7), float64], Tensor[(3, 7, 7), float64]) */;
  %485 = %483.0;
  %486 = %484.0;
  (%485, %486)
}

def @func_16108() -> (Tensor[(3, 7, 7), float64],) {
  %487 = @func_11336() /* ty=Tensor[(3, 7, 7), float64] */;
  (%487,)
}

def @func_15520() -> (Tensor[(3, 7, 7), float64], Tensor[(3, 7, 7), float64]) {
  %488 = @func_10687() /* ty=(Tensor[(3, 7, 7), float64],) */;
  %489 = @func_15250() /* ty=Tensor[(3, 7, 7), float64] */;
  %490 = %488.0;
  (%489, %490)
}

def @func_14426(%var_14412: Tensor[(560), uint64]) -> (Tensor[(3, 7, 7), float64], Tensor[(3, 7, 7), float64], Tensor[(10, 7, 8), float32], Tensor[(560), uint64]) {
  %491 = @func_8977() /* ty=(Tensor[(3, 7, 7), float64],) */;
  %492 = @func_11648() /* ty=(Tensor[(3, 7, 7), float64],) */;
  %493 = cast(%var_14412, dtype="uint64") /* ty=Tensor[(560), uint64] */;
  %494 = reshape(%493, newshape=[10, 7, 8]) /* ty=Tensor[(10, 7, 8), uint64] */;
  %495 = @func_3471(%494) /* ty=(Tensor[(10, 7, 8), bool], Tensor[(10, 7, 8), float32]) */;
  %496 = %491.0;
  %497 = %492.0;
  %498 = %495.1;
  (%496, %497, %498, %var_14412)
}

def @func_7731() -> Tensor[(3, 7, 7), float64] {
  %499 = @func_6751() /* ty=(Tensor[(3, 7, 7), float64],) */;
  %499.0
}

def @func_15331() -> (Tensor[(2, 12, 10), uint8], Tensor[(3, 7, 7), float64], Tensor[(3, 7, 7), int8], Tensor[(3, 7, 7), int8], Tensor[(256), uint64], Tensor[(2464), float64], Tensor[(1, 256), uint64], Tensor[(18, 110), float64], Tensor[(18, 110), float32]) {
  %500 = @func_8630() /* ty=(Tensor[(3, 7, 7), int8],) */;
  %501 = cast(meta[relay.Constant][30] /* ty=Tensor[(2464), float64] */, dtype="float64") /* ty=Tensor[(2464), float64] */;
  %502 = cast(meta[relay.Constant][30] /* ty=Tensor[(2464), float64] */, dtype="float64") /* ty=Tensor[(2464), float64] */;
  %503 = cast(meta[relay.Constant][31] /* ty=Tensor[(1, 256), uint64] */, dtype="uint64") /* ty=Tensor[(1, 256), uint64] */;
  %504 = reshape(%501, newshape=[11, 16, 14]) /* ty=Tensor[(11, 16, 14), float64] */;
  %505 = reshape(%502, newshape=[11, 16, 14]) /* ty=Tensor[(11, 16, 14), float64] */;
  %506 = reshape(%503, newshape=[256]) /* ty=Tensor[(256), uint64] */;
  %507 = @func_10577(%504, %505, %506) /* ty=(Tensor[(11, 16, 14), float64], Tensor[(560), uint64], Tensor[(1008), bool], Tensor[(256), uint64]) */;
  %508 = cast(meta[relay.Constant][32] /* ty=Tensor[(18, 110), int16] */, dtype="float64") /* ty=Tensor[(18, 110), float64] */;
  %509 = tan(%508) /* ty=Tensor[(18, 110), float64] */;
  %510 = cast(meta[relay.Constant][32] /* ty=Tensor[(18, 110), int16] */, dtype="int16") /* ty=Tensor[(18, 110), int16] */;
  %511 = reshape(%510, newshape=[1980]) /* ty=Tensor[(1980), int16] */;
  %512 = @func_13404(%511) /* ty=(Tensor[(3, 7, 7), float64], Tensor[(1980), int16], Tensor[(1980), int16], Tensor[(3, 7, 7), float64]) */;
  %513 = %512.1;
  %514 = cast(%513, dtype="uint64") /* ty=Tensor[(1980), uint64] */;
  %515 = shape_of(%509, dtype="int32") /* ty=Tensor[(2), int32] */;
  %516 = cast(%509, dtype="uint64") /* ty=Tensor[(18, 110), uint64] */;
  %517 = dyn.reshape(%514, %515, newshape=[]) /* ty=Tensor[(?, ?), uint64] */;
  %518 = bitwise_and(%516, %517) /* ty=Tensor[(18, 110), uint64] */;
  %519 = cast(%518, dtype="float64") /* ty=Tensor[(18, 110), float64] */;
  %520 = cast(%509, dtype="float32") /* ty=Tensor[(18, 110), float32] */;
  %521 = @func_13290() /* ty=Tensor[(2, 12, 10), uint8] */;
  %522 = @func_7106() /* ty=Tensor[(3, 7, 7), float64] */;
  %523 = @func_9097() /* ty=Tensor[(3, 7, 7), int8] */;
  %524 = %500.0;
  %525 = %507.3;
  %526 = sinh(%519) /* ty=Tensor[(18, 110), float64] */;
  %527 = asin(%520) /* ty=Tensor[(18, 110), float32] */;
  (%521, %522, %523, %524, %525, meta[relay.Constant][30] /* ty=Tensor[(2464), float64] */, meta[relay.Constant][31] /* ty=Tensor[(1, 256), uint64] */, %526, %527)
}

def @func_11894(%var_11860: Tensor[(48), float32]) -> (Tensor[(3, 7, 7), float64], Tensor[(160), float64], Tensor[(48), float32], Tensor[(3, 7, 7), float64]) {
  %528 = @func_8977() /* ty=(Tensor[(3, 7, 7), float64],) */;
  %529 = cast(%var_11860, dtype="float32") /* ty=Tensor[(48), float32] */;
  %530 = reshape(%529, newshape=[48]) /* ty=Tensor[(48), float32] */;
  %531 = @func_10483(%530) /* ty=(Tensor[(3, 7, 7), float64], Tensor[(16, ?, 3), int64], Tensor[(3, 7, 7), float64], Tensor[(160), float64], int64, Tensor[(16, ?, 3), int16]) */;
  %532 = @func_11351() /* ty=(Tensor[(3, 7, 7), float64],) */;
  %533 = %528.0;
  %534 = %531.3;
  %535 = %532.0;
  (%533, %534, %var_11860, %535)
}

def @func_12534() -> (Tensor[(3, 7, 7), float64], Tensor[(3, 7, 7), float64], Tensor[(14, 5), float64]) {
  %536 = @func_11617() /* ty=(Tensor[(3, 7, 7), float64], Tensor[(3, 7, 7), float64]) */;
  %537 = %536.1;
  %538 = @func_9637() /* ty=Tensor[(3, 7, 7), float64] */;
  %539 = @func_11986() /* ty=Tensor[(14, 5), float64] */;
  (%537, %538, %539)
}

def @func_15119() -> (Tensor[(3, 7, 7), float64], Tensor[(3, 7, 7), int8]) {
  %540 = @func_11617() /* ty=(Tensor[(3, 7, 7), float64], Tensor[(3, 7, 7), float64]) */;
  %541 = %540.1;
  %542 = @func_8296() /* ty=Tensor[(3, 7, 7), int8] */;
  (%541, %542)
}

def @func_20186() -> Tensor[(3, 7, 7), float32] {
  %543 = @func_10330() /* ty=(Tensor[(3, 7, 7), float32], Tensor[(14, 5), float64]) */;
  %543.0
}

def @func_938(%var_930: Tensor[(2, 3, 10), float64]) -> Tensor[(2, 3, 10), float64] {
  %544 = cast(%var_930, dtype="float64") /* ty=Tensor[(2, 3, 10), float64] */;
  sqrt(%544) /* ty=Tensor[(2, 3, 10), float64] */
}

def @func_16216(%var_16210: Tensor[(60), uint64]) -> (Tensor[(3, 7, 7), float64], Tensor[(240), float64], Tensor[(60), uint64], Tensor[(60), uint64]) {
  %545 = @func_8977() /* ty=(Tensor[(3, 7, 7), float64],) */;
  %546 = %545.0;
  %547 = cast(%546, dtype="float64") /* ty=Tensor[(3, 7, 7), float64] */;
  %548 = reshape(%547, newshape=[3, 7, 7]) /* ty=Tensor[(3, 7, 7), float64] */;
  %549 = @func_7056(%548) /* ty=(Tensor[(2, 12, 10), float64], Tensor[(240), float64], Tensor[(3, 7, 7), bool]) */;
  %550 = cast(%var_16210, dtype="uint64") /* ty=Tensor[(60), uint64] */;
  %551 = reshape(%550, newshape=[60]) /* ty=Tensor[(60), uint64] */;
  %552 = @func_12140(%551) /* ty=(Tensor[(3, 7, 7), float64], Tensor[(3, 7, 7), float64], Tensor[(550), float32], Tensor[(3, 7, 7), float64], Tensor[(15, 12, 11), int16], int16, Tensor[(1980), int16], Tensor[(60), uint64]) */;
  %553 = %549.1;
  %554 = %552.7;
  (%546, %553, %554, %var_16210)
}

def @func_15067(%var_15057: Tensor[(160), float64], %var_15058: Tensor[(60), uint64]) -> (Tensor[(10, 7, 8), bool], Tensor[(3, 7, 7), float64], Tensor[(160), float64], Tensor[(60), uint64], Tensor[(550), float64]) {
  %555 = @func_8553() /* ty=(Tensor[(3, 7, 7), float64], Tensor[(10, 7, 8), bool], Tensor[(550), float32], Tensor[(550), float32]) */;
  %556 = cast(%var_15057, dtype="float64") /* ty=Tensor[(160), float64] */;
  %557 = cast(%var_15058, dtype="uint64") /* ty=Tensor[(60), uint64] */;
  %558 = reshape(%556, newshape=[4, 40]) /* ty=Tensor[(4, 40), float64] */;
  %559 = reshape(%557, newshape=[60]) /* ty=Tensor[(60), uint64] */;
  %560 = @func_13995(%558, %559) /* ty=(Tensor[(550), float32], Tensor[(3, 7, 7), float64], Tensor[(3, 7, 7), float64], Tensor[(14, 12, 7), float64], Tensor[(1176), float64], int64, Tensor[(4, 40), float64], int64, Tensor[(1280), float64], Tensor[(60), uint64], Tensor[(3, 7, 7), float64], Tensor[(3, 7, 7), float64], Tensor[(1280), float32]) */;
  %561 = @func_13260() /* ty=(Tensor[(3, 7, 7), float64], Tensor[(550), float64]) */;
  %562 = %555.1;
  %563 = %560.11;
  %564 = %561.1;
  (%562, %563, %var_15057, %var_15058, %564)
}

def @func_7355() -> Tensor[(3, 7, 7), float64] {
  @func_7205() /* ty=Tensor[(3, 7, 7), float64] */
}

def @func_12140(%var_12129: Tensor[(60), uint64]) -> (Tensor[(3, 7, 7), float64], Tensor[(3, 7, 7), float64], Tensor[(550), float32], Tensor[(3, 7, 7), float64], Tensor[(15, 12, 11), int16], int16, Tensor[(1980), int16], Tensor[(60), uint64]) {
  %565 = @func_6751() /* ty=(Tensor[(3, 7, 7), float64],) */;
  %566 = @func_9665() /* ty=(Tensor[(550), float32],) */;
  %567 = %566.0;
  %568 = cast(%567, dtype="float32") /* ty=Tensor[(550), float32] */;
  %569 = log10(%568) /* ty=Tensor[(550), float32] */;
  %570 = cast(%569, dtype="float32") /* ty=Tensor[(550), float32] */;
  %571 = @func_9894() /* ty=(Tensor[(3, 7, 7), float64],) */;
  %572 = cast(meta[relay.Constant][33] /* ty=int16 */, dtype="int16") /* ty=int16 */;
  %573 = cast(meta[relay.Constant][34] /* ty=Tensor[(1980), int16] */, dtype="int16") /* ty=Tensor[(1980), int16] */;
  %574 = cast(%var_12129, dtype="uint64") /* ty=Tensor[(60), uint64] */;
  %575 = reshape(%572, newshape=[]) /* ty=int16 */;
  %576 = reshape(%573, newshape=[15, 12, 11]) /* ty=Tensor[(15, 12, 11), int16] */;
  %577 = reshape(%574, newshape=[60]) /* ty=Tensor[(60), uint64] */;
  %578 = @func_1094(%575, %576, %577) /* ty=(Tensor[(15, 12, 11), int16], Tensor[(2, 5, 6), uint64], Tensor[(60), uint64], Tensor[(2, 3, 10), float64], Tensor[(2, 3, 10), float64]) */;
  %579 = @func_11336() /* ty=Tensor[(3, 7, 7), float64] */;
  %580 = %565.0;
  %581 = cosh(%570) /* ty=Tensor[(550), float32] */;
  %582 = %571.0;
  %583 = %578.0;
  (%579, %580, %581, %582, %583, meta[relay.Constant][33] /* ty=int16 */, meta[relay.Constant][34] /* ty=Tensor[(1980), int16] */, %var_12129)
}

def @func_15796(%var_15773: Tensor[(7, 15, 12), bool], %var_15774: Tensor[(7, 15, 12), bool]) -> (Tensor[(7, 15, 12), bool], Tensor[(550), float64]) {
  %584 = cast(%var_15774, dtype="bool") /* ty=Tensor[(7, 15, 12), bool] */;
  %585 = shape_of(%var_15773, dtype="int32") /* ty=Tensor[(3), int32] */;
  %586 = cast(%var_15773, dtype="bool") /* ty=Tensor[(7, 15, 12), bool] */;
  %587 = dyn.reshape(%584, %585, newshape=[]) /* ty=Tensor[(?, ?, ?), bool] */;
  %588 = @func_8782() /* ty=(Tensor[(550), float64],) */;
  %589 = logical_and(%586, %587) /* ty=Tensor[(7, 15, 12), bool] */;
  %590 = %588.0;
  (%589, %590)
}

def @func_15943() -> (Tensor[(3, 7, 7), int8], Tensor[(3, 7, 7), float64]) {
  %591 = @func_15119() /* ty=(Tensor[(3, 7, 7), float64], Tensor[(3, 7, 7), int8]) */;
  %592 = @func_10515() /* ty=(Tensor[(3, 7, 7), float64], Tensor[(2, 12, 10), uint8]) */;
  %593 = %591.1;
  %594 = %592.0;
  (%593, %594)
}

def @func_12464(%var_12441: Tensor[(10, 7, 8), float64], %var_12450: Tensor[(96, 12), uint32], %var_12451: Tensor[(1008), bool]) -> (Tensor[(3, 7, 7), float64], Tensor[(10, 7, 8), bool], Tensor[(4, 8, 8), bool], Tensor[(96, 12), uint32], Tensor[(1008), bool], Tensor[(256), uint64]) {
  %595 = @func_10047() /* ty=Tensor[(10, 7, 8), bool] */;
  %596 = cast(%595, dtype="float64") /* ty=Tensor[(10, 7, 8), float64] */;
  %597 = sigmoid(%596) /* ty=Tensor[(10, 7, 8), float64] */;
  %598 = cast(%var_12441, dtype="bool") /* ty=Tensor[(10, 7, 8), bool] */;
  %599 = shape_of(%597, dtype="int32") /* ty=Tensor[(3), int32] */;
  %600 = cast(%597, dtype="bool") /* ty=Tensor[(10, 7, 8), bool] */;
  %601 = dyn.reshape(%598, %599, newshape=[]) /* ty=Tensor[(?, ?, ?), bool] */;
  %602 = cast(%var_12450, dtype="uint32") /* ty=Tensor[(96, 12), uint32] */;
  %603 = cast(%var_12451, dtype="bool") /* ty=Tensor[(1008), bool] */;
  %604 = cast(meta[relay.Constant][35] /* ty=Tensor[(256), uint64] */, dtype="uint64") /* ty=Tensor[(256), uint64] */;
  %605 = reshape(%602, newshape=[1152]) /* ty=Tensor[(1152), uint32] */;
  %606 = reshape(%603, newshape=[1008]) /* ty=Tensor[(1008), bool] */;
  %607 = reshape(%604, newshape=[256]) /* ty=Tensor[(256), uint64] */;
  %608 = @func_7999(%605, %606, %607) /* ty=(Tensor[(3, 7, 7), float64], Tensor[(1008), bool], uint32, Tensor[(1152), uint32], Tensor[(1008), bool], Tensor[(4, 8, 8), bool], Tensor[(256), uint64], Tensor[(12, 16, 6), uint32]) */;
  %609 = @func_7344() /* ty=Tensor[(3, 7, 7), float64] */;
  %610 = not_equal(%600, %601) /* ty=Tensor[(10, 7, 8), bool] */;
  %611 = %608.5;
  (%609, %610, %611, %var_12450, %var_12451, meta[relay.Constant][35] /* ty=Tensor[(256), uint64] */)
}

def @func_2821(%var_2804: Tensor[(12, 6, 16), uint16], %var_2805: Tensor[(12, 6, 16), uint16]) -> Tensor[(12, 6, 16), uint16] {
  %612 = cast(%var_2805, dtype="uint16") /* ty=Tensor[(12, 6, 16), uint16] */;
  %613 = shape_of(%var_2804, dtype="int32") /* ty=Tensor[(3), int32] */;
  %614 = cast(%var_2804, dtype="uint16") /* ty=Tensor[(12, 6, 16), uint16] */;
  %615 = dyn.reshape(%612, %613, newshape=[]) /* ty=Tensor[(?, ?, ?), uint16] */;
  minimum(%614, %615) /* ty=Tensor[(12, 6, 16), uint16] */
}

def @func_7482(%var_7475: Tensor[(5, 2, 7), float64]) -> (Tensor[(5, 2, 7), float64],) {
  %616 = cast(%var_7475, dtype="float64") /* ty=Tensor[(5, 2, 7), float64] */;
  %617 = acos(%616) /* ty=Tensor[(5, 2, 7), float64] */;
  (%617,)
}

def @func_8696() -> Tensor[(3, 7, 7), float64] {
  %618 = @func_6751() /* ty=(Tensor[(3, 7, 7), float64],) */;
  %618.0
}

def @func_3822(%var_3805: uint32, %var_3806: Tensor[(12, 16, 6), uint32], %var_3819: Tensor[(1008), bool]) -> (Tensor[(12, 16, 6), uint32], Tensor[(14, 6, 12), bool], Tensor[(1008), bool]) {
  %619 = cast(%var_3805, dtype="uint32") /* ty=uint32 */;
  %620 = cast(%var_3806, dtype="uint32") /* ty=Tensor[(12, 16, 6), uint32] */;
  %621 = cast(%var_3819, dtype="bool") /* ty=Tensor[(1008), bool] */;
  %622 = cast(%var_3819, dtype="bool") /* ty=Tensor[(1008), bool] */;
  %623 = reshape(%621, newshape=[14, 6, 12]) /* ty=Tensor[(14, 6, 12), bool] */;
  %624 = reshape(%622, newshape=[14, 6, 12]) /* ty=Tensor[(14, 6, 12), bool] */;
  %625 = add(%619, %620) /* ty=Tensor[(12, 16, 6), uint32] */;
  %626 = @func_1619(%623, %624) /* ty=Tensor[(14, 6, 12), bool] */;
  (%625, %626, %var_3819)
}

def @func_8630() -> (Tensor[(3, 7, 7), int8],) {
  %627 = @func_8296() /* ty=Tensor[(3, 7, 7), int8] */;
  (%627,)
}

def @func_8090() -> (Tensor[(3, 7, 7), float64],) {
  %628 = @func_8021() /* ty=(Tensor[(3, 7, 7), float64],) */;
  %629 = %628.0;
  (%629,)
}

def @func_15649(%var_15632: Tensor[(2112), uint32], %var_15633: Tensor[(21), int32], %var_15636: Tensor[(1280), float64], %var_15637: Tensor[(1, 192), float64], %var_15645: Tensor[(10, 28), float32]) -> (Tensor[(3, 7, 7), int8], Tensor[(3, 7, 7), float64], Tensor[(10, 7, 8), bool], Tensor[(12, 11, 16), uint32], Tensor[(2112), uint32], Tensor[(21), int32], Tensor[(30, 2), uint64], Tensor[(18, 30), int64], Tensor[(1280), float64], Tensor[(1, 192), float64], Tensor[(10, 7, 8), bool], int64, Tensor[(10, 28), float32]) {
  %630 = @func_13491() /* ty=(Tensor[(3, 7, 7), float64],) */;
  %631 = cast(%var_15632, dtype="uint32") /* ty=Tensor[(2112), uint32] */;
  %632 = cast(%var_15632, dtype="uint32") /* ty=Tensor[(2112), uint32] */;
  %633 = cast(%var_15633, dtype="int32") /* ty=Tensor[(21), int32] */;
  %634 = cast(meta[relay.Constant][36] /* ty=Tensor[(30, 2), uint64] */, dtype="uint64") /* ty=Tensor[(30, 2), uint64] */;
  %635 = cast(meta[relay.Constant][37] /* ty=Tensor[(18, 30), int64] */, dtype="int64") /* ty=Tensor[(18, 30), int64] */;
  %636 = cast(%var_15636, dtype="float64") /* ty=Tensor[(1280), float64] */;
  %637 = cast(%var_15637, dtype="float64") /* ty=Tensor[(1, 192), float64] */;
  %638 = reshape(%631, newshape=[12, 11, 16]) /* ty=Tensor[(12, 11, 16), uint32] */;
  %639 = reshape(%632, newshape=[12, 11, 16]) /* ty=Tensor[(12, 11, 16), uint32] */;
  %640 = reshape(%633, newshape=[21]) /* ty=Tensor[(21), int32] */;
  %641 = reshape(%634, newshape=[60]) /* ty=Tensor[(60), uint64] */;
  %642 = reshape(%635, newshape=[540, 1]) /* ty=Tensor[(540, 1), int64] */;
  %643 = reshape(%636, newshape=[320, 4]) /* ty=Tensor[(320, 4), float64] */;
  %644 = reshape(%637, newshape=[192]) /* ty=Tensor[(192), float64] */;
  %645 = @func_6309(%638, %639, %640, %641, %642, %643, %644) /* ty=(Tensor[(12, 11, 16), uint32], Tensor[(4, 48), float64], int32, Tensor[(21), int32], Tensor[(60), uint64], Tensor[(540, 1), int64], Tensor[(320, 4), float64], Tensor[(192), float64]) */;
  %646 = cast(meta[relay.Constant][36] /* ty=Tensor[(30, 2), uint64] */, dtype="uint64") /* ty=Tensor[(30, 2), uint64] */;
  %647 = cast(2 /* ty=int64 */, dtype="int64") /* ty=int64 */;
  %648 = cast(%var_15645, dtype="float32") /* ty=Tensor[(10, 28), float32] */;
  %649 = reshape(%646, newshape=[60]) /* ty=Tensor[(60), uint64] */;
  %650 = reshape(%647, newshape=[]) /* ty=int64 */;
  %651 = reshape(%648, newshape=[140, 2]) /* ty=Tensor[(140, 2), float32] */;
  %652 = @func_8502(%649, %650, %651) /* ty=(Tensor[(3, 7, 7), float64], Tensor[(10, 7, 8), bool], Tensor[(16, 16, 5), float64], Tensor[(1280), float64], Tensor[(60), uint64], Tensor[(160), float64], int64, Tensor[(2, 14, 10), float32], Tensor[(140, 2), float32], Tensor[(3, 7, 7), float64], Tensor[(550), float32], Tensor[(3, 7, 7), float64]) */;
  %653 = @func_13745() /* ty=Tensor[(3, 7, 7), int8] */;
  %654 = %630.0;
  %655 = @func_10047() /* ty=Tensor[(10, 7, 8), bool] */;
  %656 = %645.0;
  %657 = %652.1;
  (%653, %654, %655, %656, %var_15632, %var_15633, meta[relay.Constant][36] /* ty=Tensor[(30, 2), uint64] */, meta[relay.Constant][37] /* ty=Tensor[(18, 30), int64] */, %var_15636, %var_15637, %657, 2 /* ty=int64 */, %var_15645)
}

def @func_16322() -> (Tensor[(3, 7, 7), float64],) {
  %658 = @func_7106() /* ty=Tensor[(3, 7, 7), float64] */;
  (%658,)
}

def @func_17964() -> Tensor[(3, 7, 7), float64] {
  %659 = @func_13491() /* ty=(Tensor[(3, 7, 7), float64],) */;
  %659.0
}

def @func_7999(%var_7975: Tensor[(1152), uint32], %var_7976: Tensor[(1008), bool], %var_7979: Tensor[(256), uint64]) -> (Tensor[(3, 7, 7), float64], Tensor[(1008), bool], uint32, Tensor[(1152), uint32], Tensor[(1008), bool], Tensor[(4, 8, 8), bool], Tensor[(256), uint64], Tensor[(12, 16, 6), uint32]) {
  %660 = @func_7653() /* ty=(Tensor[(3, 7, 7), float64],) */;
  %661 = cast(meta[relay.Constant][38] /* ty=uint32 */, dtype="uint32") /* ty=uint32 */;
  %662 = cast(%var_7975, dtype="uint32") /* ty=Tensor[(1152), uint32] */;
  %663 = cast(%var_7976, dtype="bool") /* ty=Tensor[(1008), bool] */;
  %664 = reshape(%661, newshape=[]) /* ty=uint32 */;
  %665 = reshape(%662, newshape=[12, 16, 6]) /* ty=Tensor[(12, 16, 6), uint32] */;
  %666 = reshape(%663, newshape=[1008]) /* ty=Tensor[(1008), bool] */;
  %667 = @func_3822(%664, %665, %666) /* ty=(Tensor[(12, 16, 6), uint32], Tensor[(14, 6, 12), bool], Tensor[(1008), bool]) */;
  %668 = cast(%var_7979, dtype="uint64") /* ty=Tensor[(256), uint64] */;
  %669 = reshape(%668, newshape=[4, 8, 8]) /* ty=Tensor[(4, 8, 8), uint64] */;
  %670 = @func_3692(%669) /* ty=(Tensor[(4, 8, 8), bool],) */;
  %671 = cast(meta[relay.Constant][38] /* ty=uint32 */, dtype="uint32") /* ty=uint32 */;
  %672 = cast(%var_7975, dtype="uint32") /* ty=Tensor[(1152), uint32] */;
  %673 = %667.2;
  %674 = cast(%673, dtype="bool") /* ty=Tensor[(1008), bool] */;
  %675 = reshape(%671, newshape=[]) /* ty=uint32 */;
  %676 = reshape(%672, newshape=[12, 16, 6]) /* ty=Tensor[(12, 16, 6), uint32] */;
  %677 = reshape(%674, newshape=[1008]) /* ty=Tensor[(1008), bool] */;
  %678 = @func_3822(%675, %676, %677) /* ty=(Tensor[(12, 16, 6), uint32], Tensor[(14, 6, 12), bool], Tensor[(1008), bool]) */;
  %679 = %660.0;
  %680 = %670.0;
  %681 = %678.0;
  (%679, %673, meta[relay.Constant][38] /* ty=uint32 */, %var_7975, %var_7976, %680, %var_7979, %681)
}

def @func_11407(%var_11379: Tensor[(4, 10, 13), float64], %var_11380: Tensor[(4, 10, 13), float64], %var_11394: Tensor[(147), float64], %var_11398: Tensor[(540), int64], %var_11399: Tensor[(1280), float64], %var_11400: Tensor[(60), uint64]) -> (Tensor[(4, 10, 13), bool], Tensor[(3, 7, 7), int16], Tensor[(147), float64], Tensor[(2, 5, 6), uint64], Tensor[(540), int64], Tensor[(1280), float64], Tensor[(60), uint64], Tensor[(1280), float64]) {
  %682 = cast(%var_11380, dtype="bool") /* ty=Tensor[(4, 10, 13), bool] */;
  %683 = shape_of(%var_11379, dtype="int32") /* ty=Tensor[(3), int32] */;
  %684 = cast(%var_11379, dtype="bool") /* ty=Tensor[(4, 10, 13), bool] */;
  %685 = dyn.reshape(%682, %683, newshape=[]) /* ty=Tensor[(?, ?, ?), bool] */;
  %686 = cast(%var_11394, dtype="float64") /* ty=Tensor[(147), float64] */;
  %687 = reshape(%686, newshape=[3, 7, 7]) /* ty=Tensor[(3, 7, 7), float64] */;
  %688 = @func_7260(%687) /* ty=(Tensor[(3, 7, 7), int16],) */;
  %689 = cast(%var_11398, dtype="int64") /* ty=Tensor[(540), int64] */;
  %690 = cast(%var_11399, dtype="float64") /* ty=Tensor[(1280), float64] */;
  %691 = cast(%var_11400, dtype="uint64") /* ty=Tensor[(60), uint64] */;
  %692 = reshape(%689, newshape=[6, 9, 10]) /* ty=Tensor[(6, 9, 10), int64] */;
  %693 = reshape(%690, newshape=[1280]) /* ty=Tensor[(1280), float64] */;
  %694 = reshape(%691, newshape=[60]) /* ty=Tensor[(60), uint64] */;
  %695 = @func_1996(%692, %693, %694) /* ty=(Tensor[(6, 9, 10), int64], Tensor[(2, 5, 6), uint64], Tensor[(1280), float64], Tensor[(60), uint64]) */;
  %696 = cast(%var_11398, dtype="int64") /* ty=Tensor[(540), int64] */;
  %697 = cast(%var_11399, dtype="float64") /* ty=Tensor[(1280), float64] */;
  %698 = cast(%var_11400, dtype="uint64") /* ty=Tensor[(60), uint64] */;
  %699 = reshape(%696, newshape=[6, 9, 10]) /* ty=Tensor[(6, 9, 10), int64] */;
  %700 = reshape(%697, newshape=[1280]) /* ty=Tensor[(1280), float64] */;
  %701 = reshape(%698, newshape=[60]) /* ty=Tensor[(60), uint64] */;
  %702 = @func_1996(%699, %700, %701) /* ty=(Tensor[(6, 9, 10), int64], Tensor[(2, 5, 6), uint64], Tensor[(1280), float64], Tensor[(60), uint64]) */;
  %703 = greater_equal(%684, %685) /* ty=Tensor[(4, 10, 13), bool] */;
  %704 = %688.0;
  %705 = %695.1;
  %706 = %702.2;
  (%703, %704, %var_11394, %705, %var_11398, %var_11399, %var_11400, %706)
}

def @func_12310(%var_12302: Tensor[(160), float64], %var_12303: int64, %var_12305: Tensor[(60), uint64]) -> (Tensor[(3, 7, 7), float64], Tensor[(14, 12, 7), float64], Tensor[(1176), float64], Tensor[(16, 16, 5), float64], Tensor[(160), float64], int64, Tensor[(1280), float64], Tensor[(60), uint64]) {
  %707 = cast(meta[relay.Constant][39] /* ty=Tensor[(1176), float64] */, dtype="float64") /* ty=Tensor[(1176), float64] */;
  %708 = cast(meta[relay.Constant][39] /* ty=Tensor[(1176), float64] */, dtype="float64") /* ty=Tensor[(1176), float64] */;
  %709 = reshape(%707, newshape=[14, 12, 7]) /* ty=Tensor[(14, 12, 7), float64] */;
  %710 = reshape(%708, newshape=[14, 12, 7]) /* ty=Tensor[(14, 12, 7), float64] */;
  %711 = @func_8720(%709, %710) /* ty=(Tensor[(14, 12, 7), float64],) */;
  %712 = cast(%var_12302, dtype="float64") /* ty=Tensor[(160), float64] */;
  %713 = cast(%var_12303, dtype="int64") /* ty=int64 */;
  %714 = cast(meta[relay.Constant][40] /* ty=Tensor[(1280), float64] */, dtype="float64") /* ty=Tensor[(1280), float64] */;
  %715 = cast(%var_12305, dtype="uint64") /* ty=Tensor[(60), uint64] */;
  %716 = reshape(%712, newshape=[5, 2, 16]) /* ty=Tensor[(5, 2, 16), float64] */;
  %717 = reshape(%713, newshape=[]) /* ty=int64 */;
  %718 = reshape(%714, newshape=[1280]) /* ty=Tensor[(1280), float64] */;
  %719 = reshape(%715, newshape=[30, 2]) /* ty=Tensor[(30, 2), uint64] */;
  %720 = @func_5673(%716, %717, %718, %719) /* ty=(Tensor[(5, 2, 16), float64], Tensor[(6, 10, 13), int64], int64, Tensor[(780), int64], Tensor[(16, 16, 5), float64], Tensor[(30, 2), uint64], Tensor[(1280), float32]) */;
  %721 = @func_11336() /* ty=Tensor[(3, 7, 7), float64] */;
  %722 = %711.0;
  %723 = %720.4;
  (%721, %722, meta[relay.Constant][39] /* ty=Tensor[(1176), float64] */, %723, %var_12302, %var_12303, meta[relay.Constant][40] /* ty=Tensor[(1280), float64] */, %var_12305)
}

def @func_15369() -> (Tensor[(3, 7, 7), float64],) {
  %724 = @func_11190() /* ty=(Tensor[(3, 7, 7), float64],) */;
  %725 = %724.0;
  (%725,)
}

def @func_13057() -> (Tensor[(3, 7, 7), float64], Tensor[(3, 7, 7), int8]) {
  %726 = @func_8696() /* ty=Tensor[(3, 7, 7), float64] */;
  %727 = @func_8296() /* ty=Tensor[(3, 7, 7), int8] */;
  (%726, %727)
}

def @func_18811() -> (Tensor[(550), float64],) {
  %728 = @func_13260() /* ty=(Tensor[(3, 7, 7), float64], Tensor[(550), float64]) */;
  %729 = %728.1;
  (%729,)
}

def @func_11447(%var_11429: Tensor[(1980), int16]) -> (Tensor[(550), float32], Tensor[(3, 7, 7), float64], Tensor[(1980), int16], Tensor[(1980), int16]) {
  %730 = @func_9665() /* ty=(Tensor[(550), float32],) */;
  %731 = @func_8090() /* ty=(Tensor[(3, 7, 7), float64],) */;
  %732 = cast(%var_11429, dtype="int16") /* ty=Tensor[(1980), int16] */;
  %733 = reshape(%732, newshape=[1980]) /* ty=Tensor[(1980), int16] */;
  %734 = @func_8572(%733) /* ty=(Tensor[(3, 7, 7), float64], Tensor[(15, 12, 11), int16], int16, Tensor[(1980), int16], Tensor[(60, 1), uint64]) */;
  %735 = %730.0;
  %736 = %731.0;
  %737 = %734.3;
  (%735, %736, %737, %var_11429)
}

def @func_17038(%var_17007: Tensor[(8, 4, 15), float32], %var_17008: Tensor[(8, 4, 15), float32], %var_17021: Tensor[(60), uint64], %var_17022: Tensor[(540), int64], %var_17023: Tensor[(1280), float64], %var_17028: Tensor[(160), float64]) -> (Tensor[(8, 4, 15), float32], Tensor[(60), uint64], int32, Tensor[(1, 21), int32], Tensor[(60), uint64], Tensor[(540), int64], Tensor[(1280), float64], Tensor[(96, 2), float64], Tensor[(16, 16, 5), float64], Tensor[(160), float64], Tensor[(10, 7, 8), bool]) {
  %738 = cast(%var_17008, dtype="float32") /* ty=Tensor[(8, 4, 15), float32] */;
  %739 = shape_of(%var_17007, dtype="int32") /* ty=Tensor[(3), int32] */;
  %740 = cast(%var_17007, dtype="float32") /* ty=Tensor[(8, 4, 15), float32] */;
  %741 = dyn.reshape(%738, %739, newshape=[]) /* ty=Tensor[(?, ?, ?), float32] */;
  %742 = cast(3 /* ty=int32 */, dtype="int32") /* ty=int32 */;
  %743 = cast(meta[relay.Constant][41] /* ty=Tensor[(1, 21), int32] */, dtype="int32") /* ty=Tensor[(1, 21), int32] */;
  %744 = cast(%var_17021, dtype="uint64") /* ty=Tensor[(60), uint64] */;
  %745 = cast(%var_17022, dtype="int64") /* ty=Tensor[(540), int64] */;
  %746 = cast(%var_17023, dtype="float64") /* ty=Tensor[(1280), float64] */;
  %747 = cast(meta[relay.Constant][42] /* ty=Tensor[(96, 2), float64] */, dtype="float64") /* ty=Tensor[(96, 2), float64] */;
  %748 = reshape(%742, newshape=[]) /* ty=int32 */;
  %749 = reshape(%743, newshape=[7, 3, 1]) /* ty=Tensor[(7, 3, 1), int32] */;
  %750 = reshape(%744, newshape=[60]) /* ty=Tensor[(60), uint64] */;
  %751 = reshape(%745, newshape=[540]) /* ty=Tensor[(540), int64] */;
  %752 = reshape(%746, newshape=[1280]) /* ty=Tensor[(1280), float64] */;
  %753 = reshape(%747, newshape=[4, 48]) /* ty=Tensor[(4, 48), float64] */;
  %754 = @func_4568(%748, %749, %750, %751, %752, %753) /* ty=(Tensor[(7, 3, 1), int32], Tensor[(2, 5, 6), uint64], Tensor[(1980), int16], Tensor[(60), uint64], Tensor[(1280), float64], Tensor[(540), int64], Tensor[(1280), float64], Tensor[(60), uint64], Tensor[(4, 48), float64]) */;
  %755 = cast(%var_17028, dtype="float64") /* ty=Tensor[(160), float64] */;
  %756 = cast(3 /* ty=int32 */, dtype="int64") /* ty=int64 */;
  %757 = cast(%var_17023, dtype="float64") /* ty=Tensor[(1280), float64] */;
  %758 = cast(%var_17021, dtype="uint64") /* ty=Tensor[(60), uint64] */;
  %759 = reshape(%755, newshape=[5, 2, 16]) /* ty=Tensor[(5, 2, 16), float64] */;
  %760 = reshape(%756, newshape=[]) /* ty=int64 */;
  %761 = reshape(%757, newshape=[1280]) /* ty=Tensor[(1280), float64] */;
  %762 = reshape(%758, newshape=[30, 2]) /* ty=Tensor[(30, 2), uint64] */;
  %763 = @func_5673(%759, %760, %761, %762) /* ty=(Tensor[(5, 2, 16), float64], Tensor[(6, 10, 13), int64], int64, Tensor[(780), int64], Tensor[(16, 16, 5), float64], Tensor[(30, 2), uint64], Tensor[(1280), float32]) */;
  %764 = @func_9933() /* ty=(Tensor[(10, 7, 8), bool],) */;
  %765 = power(%740, %741) /* ty=Tensor[(8, 4, 15), float32] */;
  %766 = %754.7;
  %767 = %763.4;
  %768 = %764.0;
  (%765, %766, 3 /* ty=int32 */, meta[relay.Constant][41] /* ty=Tensor[(1, 21), int32] */, %var_17021, %var_17022, %var_17023, meta[relay.Constant][42] /* ty=Tensor[(96, 2), float64] */, %767, %var_17028, %768)
}

def @func_18849() -> (Tensor[(3, 7, 7), float64], Tensor[(1008, ?), float32]) {
  %769 = cast(meta[relay.Constant][43] /* ty=Tensor[(1008), bool] */, dtype="bool") /* ty=Tensor[(1008), bool] */;
  %770 = reshape(%769, newshape=[1008, 1]) /* ty=Tensor[(1008, 1), bool] */;
  %771 = @func_7925(%770) /* ty=(Tensor[(3, 7, 7), float64], Tensor[(3, 7, 7), float64], Tensor[(3, 7, 7), float64], Tensor[(3, 7, 7), float64], Tensor[(1008, ?), bool], Tensor[(3, 7, 7), float64]) */;
  %772 = %771.4;
  %773 = cast(meta[relay.Constant][43] /* ty=Tensor[(1008), bool] */, dtype="float32") /* ty=Tensor[(1008), float32] */;
  %774 = shape_of(%772, dtype="int32") /* ty=Tensor[(2), int32] */;
  %775 = cast(%772, dtype="float32") /* ty=Tensor[(1008, ?), float32] */;
  %776 = dyn.reshape(%773, %774, newshape=[]) /* ty=Tensor[(?, ?), float32] */;
  %777 = @func_8349() /* ty=Tensor[(3, 7, 7), float64] */;
  %778 = minimum(%775, %776) /* ty=Tensor[(1008, ?), float32] */;
  (%777, %778)
}

def @func_12204(%var_12193: Tensor[(10, 7, 8), bool]) -> Tensor[(10, 7, 8), bool] {
  %779 = @func_7952() /* ty=(Tensor[(10, 7, 8), bool], Tensor[(5, 2, 7), float64], Tensor[(14, 5), float64]) */;
  %780 = %779.0;
  %781 = cast(%var_12193, dtype="bool") /* ty=Tensor[(10, 7, 8), bool] */;
  %782 = shape_of(%780, dtype="int32") /* ty=Tensor[(3), int32] */;
  %783 = cast(%780, dtype="bool") /* ty=Tensor[(10, 7, 8), bool] */;
  %784 = dyn.reshape(%781, %782, newshape=[]) /* ty=Tensor[(?, ?, ?), bool] */;
  equal(%783, %784) /* ty=Tensor[(10, 7, 8), bool] */
}

def @func_16295() -> (Tensor[(3, 7, 7), float64], Tensor[(2, 5, 6), uint64], Tensor[(1280), float64], Tensor[(60), uint64]) {
  %785 = cast(meta[relay.Constant][44] /* ty=Tensor[(1280), float64] */, dtype="float64") /* ty=Tensor[(1280), float64] */;
  %786 = cast(meta[relay.Constant][45] /* ty=Tensor[(60), uint64] */, dtype="uint64") /* ty=Tensor[(60), uint64] */;
  %787 = reshape(%785, newshape=[16, 16, 5]) /* ty=Tensor[(16, 16, 5), float64] */;
  %788 = reshape(%786, newshape=[60]) /* ty=Tensor[(60), uint64] */;
  %789 = @func_1145(%787, %788) /* ty=(Tensor[(16, 16, 5), float64], Tensor[(2, 5, 6), uint64], Tensor[(60), uint64], Tensor[(2, 5, 6), uint64]) */;
  %790 = @func_7731() /* ty=Tensor[(3, 7, 7), float64] */;
  %791 = %789.3;
  (%790, %791, meta[relay.Constant][44] /* ty=Tensor[(1280), float64] */, meta[relay.Constant][45] /* ty=Tensor[(60), uint64] */)
}

def @func_18406() -> (Tensor[(3, 7, 7), float64], Tensor[(550), float64]) {
  %792 = @func_8782() /* ty=(Tensor[(550), float64],) */;
  %793 = @func_8696() /* ty=Tensor[(3, 7, 7), float64] */;
  %794 = %792.0;
  (%793, %794)
}

def @func_20441() -> (Tensor[(3, 7, 7), int8],) {
  %795 = @func_14879() /* ty=(Tensor[(3, 7, 7), float64], Tensor[(3, 7, 7), float64], Tensor[(3, 7, 7), float64], Tensor[(3, 7, 7), int8]) */;
  %796 = %795.3;
  (%796,)
}

def @func_14681(%var_14674: Tensor[(560), uint64]) -> (Tensor[(3, 7, 7), float64], Tensor[(3, 7, 7), int8], Tensor[(10, 7, 8), bool], Tensor[(560), uint64]) {
  %797 = @func_14546() /* ty=(Tensor[(3, 7, 7), float64], Tensor[(3, 7, 7), float64], Tensor[(3, 7, 7), float64]) */;
  %798 = cast(%var_14674, dtype="uint64") /* ty=Tensor[(560), uint64] */;
  %799 = reshape(%798, newshape=[10, 7, 8]) /* ty=Tensor[(10, 7, 8), uint64] */;
  %800 = @func_3471(%799) /* ty=(Tensor[(10, 7, 8), bool], Tensor[(10, 7, 8), float32]) */;
  %801 = %797.2;
  %802 = @func_13745() /* ty=Tensor[(3, 7, 7), int8] */;
  %803 = %800.0;
  (%801, %802, %803, %var_14674)
}

def @func_9637() -> Tensor[(3, 7, 7), float64] {
  %804 = @func_8192() /* ty=(Tensor[(3, 7, 7), float64], Tensor[(3, 7, 7), float64], Tensor[(3, 7, 7), float64]) */;
  %804.0
}

def @func_17429(%var_17377: Tensor[(2, 5, 13), float64]) -> (Tensor[(3, 7, 7), int8], Tensor[(2, 5, 13), float32], Tensor[(3, 7, 7), float64]) {
  %805 = cast(%var_17377, dtype="float64") /* ty=Tensor[(2, 5, 13), float64] */;
  %806 = asinh(%805) /* ty=Tensor[(2, 5, 13), float64] */;
  %807 = cast(%806, dtype="float32") /* ty=Tensor[(2, 5, 13), float32] */;
  %808 = @func_11617() /* ty=(Tensor[(3, 7, 7), float64], Tensor[(3, 7, 7), float64]) */;
  %809 = @func_13745() /* ty=Tensor[(3, 7, 7), int8] */;
  %810 = sigmoid(%807) /* ty=Tensor[(2, 5, 13), float32] */;
  %811 = %808.0;
  (%809, %810, %811)
}

def @func_9493() -> Tensor[(3, 7, 7), float64] {
  %812 = @func_8678() /* ty=(Tensor[(3, 7, 7), int8], Tensor[(3, 7, 7), float64]) */;
  %812.1
}

def @func_12343(%var_12331: Tensor[(2, 504), bool], %var_12337: Tensor[(60), uint64], %var_12338: int64) -> (Tensor[(3, 7, 7), int8], Tensor[(550), float32], Tensor[(14, 6, 12), bool], Tensor[(2, 504), bool], Tensor[(3, 7, 7), float64], Tensor[(60), uint64], int64, Tensor[(280), float32]) {
  %813 = @func_9475() /* ty=(Tensor[(3, 7, 7), float64], Tensor[(10, 5, 11), float32], Tensor[(550), float32]) */;
  %814 = cast(%var_12331, dtype="bool") /* ty=Tensor[(2, 504), bool] */;
  %815 = cast(%var_12331, dtype="bool") /* ty=Tensor[(2, 504), bool] */;
  %816 = reshape(%814, newshape=[14, 6, 12]) /* ty=Tensor[(14, 6, 12), bool] */;
  %817 = reshape(%815, newshape=[14, 6, 12]) /* ty=Tensor[(14, 6, 12), bool] */;
  %818 = cast(%var_12337, dtype="uint64") /* ty=Tensor[(60), uint64] */;
  %819 = cast(%var_12338, dtype="int64") /* ty=int64 */;
  %820 = cast(meta[relay.Constant][46] /* ty=Tensor[(280), float32] */, dtype="float32") /* ty=Tensor[(280), float32] */;
  %821 = reshape(%818, newshape=[60]) /* ty=Tensor[(60), uint64] */;
  %822 = reshape(%819, newshape=[]) /* ty=int64 */;
  %823 = reshape(%820, newshape=[140, 2]) /* ty=Tensor[(140, 2), float32] */;
  %824 = @func_8502(%821, %822, %823) /* ty=(Tensor[(3, 7, 7), float64], Tensor[(10, 7, 8), bool], Tensor[(16, 16, 5), float64], Tensor[(1280), float64], Tensor[(60), uint64], Tensor[(160), float64], int64, Tensor[(2, 14, 10), float32], Tensor[(140, 2), float32], Tensor[(3, 7, 7), float64], Tensor[(550), float32], Tensor[(3, 7, 7), float64]) */;
  %825 = @func_10653() /* ty=Tensor[(3, 7, 7), int8] */;
  %826 = %813.2;
  %827 = @func_1619(%816, %817) /* ty=Tensor[(14, 6, 12), bool] */;
  %828 = %824.11;
  (%825, %826, %827, %var_12331, %828, %var_12337, %var_12338, meta[relay.Constant][46] /* ty=Tensor[(280), float32] */)
}

def @func_9713() -> (Tensor[(3, 7, 7), float64],) {
  %829 = @func_6751() /* ty=(Tensor[(3, 7, 7), float64],) */;
  %830 = %829.0;
  (%830,)
}

def @func_8977() -> (Tensor[(3, 7, 7), float64],) {
  %831 = @func_7355() /* ty=Tensor[(3, 7, 7), float64] */;
  (%831,)
}

def @func_11293() -> (Tensor[(550), float32], Tensor[(3, 7, 7), float64], Tensor[(10, 7, 8), bool], Tensor[(2, 280), uint64]) {
  %832 = @func_8212() /* ty=(Tensor[(3, 7, 7), float64], Tensor[(10, 5, 11), float32], Tensor[(550), float32]) */;
  %833 = @func_8553() /* ty=(Tensor[(3, 7, 7), float64], Tensor[(10, 7, 8), bool], Tensor[(550), float32], Tensor[(550), float32]) */;
  %834 = cast(meta[relay.Constant][47] /* ty=Tensor[(2, 280), uint64] */, dtype="uint64") /* ty=Tensor[(2, 280), uint64] */;
  %835 = reshape(%834, newshape=[10, 7, 8]) /* ty=Tensor[(10, 7, 8), uint64] */;
  %836 = @func_3471(%835) /* ty=(Tensor[(10, 7, 8), bool], Tensor[(10, 7, 8), float32]) */;
  %837 = %832.2;
  %838 = %833.0;
  %839 = %836.0;
  (%837, %838, %839, meta[relay.Constant][47] /* ty=Tensor[(2, 280), uint64] */)
}

def @func_17286() -> Tensor[(3, 7, 7), float64] {
  %840 = @func_8021() /* ty=(Tensor[(3, 7, 7), float64],) */;
  %840.0
}

def @func_9665() -> (Tensor[(550), float32],) {
  %841 = @func_9475() /* ty=(Tensor[(3, 7, 7), float64], Tensor[(10, 5, 11), float32], Tensor[(550), float32]) */;
  %842 = %841.2;
  (%842,)
}

def @func_19365() -> (Tensor[(1980), int16],) {
  %843 = @func_17650() /* ty=(Tensor[(1980), int16],) */;
  %844 = %843.0;
  (%844,)
}

def @func_11190() -> (Tensor[(3, 7, 7), float64],) {
  %845 = @func_10687() /* ty=(Tensor[(3, 7, 7), float64],) */;
  %846 = %845.0;
  (%846,)
}

def @func_13341(%var_13330: Tensor[(1008), bool], %var_13331: Tensor[(60), uint64]) -> (Tensor[(3, 7, 7), float64], Tensor[(60), uint64], Tensor[(1008), bool], Tensor[(60), uint64], int64) {
  %847 = cast(%var_13330, dtype="bool") /* ty=Tensor[(1008), bool] */;
  %848 = cast(%var_13331, dtype="uint64") /* ty=Tensor[(60), uint64] */;
  %849 = cast(8 /* ty=int64 */, dtype="int64") /* ty=int64 */;
  %850 = reshape(%847, newshape=[2, 504]) /* ty=Tensor[(2, 504), bool] */;
  %851 = reshape(%848, newshape=[60]) /* ty=Tensor[(60), uint64] */;
  %852 = reshape(%849, newshape=[]) /* ty=int64 */;
  %853 = @func_12343(%850, %851, %852) /* ty=(Tensor[(3, 7, 7), int8], Tensor[(550), float32], Tensor[(14, 6, 12), bool], Tensor[(2, 504), bool], Tensor[(3, 7, 7), float64], Tensor[(60), uint64], int64, Tensor[(280), float32]) */;
  %854 = @func_8349() /* ty=Tensor[(3, 7, 7), float64] */;
  %855 = %853.5;
  (%854, %855, %var_13330, %var_13331, 8 /* ty=int64 */)
}

def @func_16353() -> (Tensor[(3, 7, 7), float64], Tensor[(2, 12, 10), uint8]) {
  %856 = @func_14105() /* ty=(Tensor[(3, 7, 7), float64], Tensor[(2, 12, 10), uint8], Tensor[(3, 7, 7), float64]) */;
  %857 = @func_8349() /* ty=Tensor[(3, 7, 7), float64] */;
  %858 = %856.1;
  (%857, %858)
}

def @func_531(%var_518: Tensor[(2, 5, 6), uint64], %var_519: Tensor[(2, 5, 6), uint64]) -> Tensor[(2, 5, 6), uint64] {
  %859 = cast(%var_519, dtype="uint64") /* ty=Tensor[(2, 5, 6), uint64] */;
  %860 = shape_of(%var_518, dtype="int32") /* ty=Tensor[(3), int32] */;
  %861 = cast(%var_518, dtype="uint64") /* ty=Tensor[(2, 5, 6), uint64] */;
  %862 = dyn.reshape(%859, %860, newshape=[]) /* ty=Tensor[(?, ?, ?), uint64] */;
  right_shift(%861, %862) /* ty=Tensor[(2, 5, 6), uint64] */
}

def @func_12595(%var_12557: Tensor[(1, 10, 1), float64], %var_12578: Tensor[(2160), float32], %var_12585: Tensor[(8, 10, 15), float64]) -> (Tensor[(3, 7, 7), float64], Tensor[(16, 9, 15), float32], Tensor[(2160), float32], Tensor[(8, 10, 15), int8]) {
  %863 = @func_8977() /* ty=(Tensor[(3, 7, 7), float64],) */;
  %864 = cast(%var_12578, dtype="float32") /* ty=Tensor[(2160), float32] */;
  %865 = reshape(%864, newshape=[16, 9, 15]) /* ty=Tensor[(16, 9, 15), float32] */;
  %866 = cast(%var_12557, dtype="float64") /* ty=Tensor[(1, 10, 1), float64] */;
  %867 = asinh(%866) /* ty=Tensor[(1, 10, 1), float64] */;
  %868 = cast(%867, dtype="float64") /* ty=Tensor[(1, 10, 1), float64] */;
  %869 = rsqrt(%868) /* ty=Tensor[(1, 10, 1), float64] */;
  %870 = cast(%869, dtype="float32") /* ty=Tensor[(1, 10, 1), float32] */;
  %871 = cast(%var_12585, dtype="float32") /* ty=Tensor[(8, 10, 15), float32] */;
  %872 = maximum(%870, %871) /* ty=Tensor[(8, 10, 15), float32] */;
  %873 = cast(%869, dtype="int8") /* ty=Tensor[(1, 10, 1), int8] */;
  %874 = cast(%872, dtype="int8") /* ty=Tensor[(8, 10, 15), int8] */;
  %875 = %863.0;
  %876 = @func_10987(%865) /* ty=Tensor[(16, 9, 15), float32] */;
  %877 = left_shift(%873, %874) /* ty=Tensor[(8, 10, 15), int8] */;
  (%875, %876, %var_12578, %877)
}

def @func_8502(%var_8447: Tensor[(60), uint64], %var_8462: int64, %var_8467: Tensor[(140, 2), float32]) -> (Tensor[(3, 7, 7), float64], Tensor[(10, 7, 8), bool], Tensor[(16, 16, 5), float64], Tensor[(1280), float64], Tensor[(60), uint64], Tensor[(160), float64], int64, Tensor[(2, 14, 10), float32], Tensor[(140, 2), float32], Tensor[(3, 7, 7), float64], Tensor[(550), float32], Tensor[(3, 7, 7), float64]) {
  %878 = @func_8021() /* ty=(Tensor[(3, 7, 7), float64],) */;
  %879 = @func_7517() /* ty=(Tensor[(3, 7, 7), float64], Tensor[(10, 7, 8), bool], Tensor[(560), uint64]) */;
  %880 = cast(meta[relay.Constant][48] /* ty=Tensor[(1280), float64] */, dtype="float64") /* ty=Tensor[(1280), float64] */;
  %881 = cast(%var_8447, dtype="uint64") /* ty=Tensor[(60), uint64] */;
  %882 = reshape(%880, newshape=[16, 16, 5]) /* ty=Tensor[(16, 16, 5), float64] */;
  %883 = reshape(%881, newshape=[60]) /* ty=Tensor[(60), uint64] */;
  %884 = @func_1145(%882, %883) /* ty=(Tensor[(16, 16, 5), float64], Tensor[(2, 5, 6), uint64], Tensor[(60), uint64], Tensor[(2, 5, 6), uint64]) */;
  %885 = cast(%var_8462, dtype="int64") /* ty=int64 */;
  %886 = reshape(%885, newshape=[]) /* ty=int64 */;
  %887 = @func_6804(%886) /* ty=(Tensor[(3, 7, 7), float64], Tensor[(6, 10, 13), int64], Tensor[(160), float64], int64, Tensor[(1280), float64], Tensor[(3, 20), uint64], Tensor[(60), uint64]) */;
  %888 = cast(%var_8467, dtype="float32") /* ty=Tensor[(140, 2), float32] */;
  %889 = reshape(%888, newshape=[2, 14, 10]) /* ty=Tensor[(2, 14, 10), float32] */;
  %890 = @func_1505(%889) /* ty=(Tensor[(2, 14, 10), float32],) */;
  %891 = cast(meta[relay.Constant][49] /* ty=Tensor[(550), float32] */, dtype="float32") /* ty=Tensor[(550), float32] */;
  %892 = reshape(%891, newshape=[550]) /* ty=Tensor[(550), float32] */;
  %893 = @func_7405(%892) /* ty=(Tensor[(3, 7, 7), float64], Tensor[(3, 7, 7), float64], Tensor[(3, 7, 7), float64], Tensor[(10, 5, 11), float32], Tensor[(550), float32]) */;
  %894 = @func_7653() /* ty=(Tensor[(3, 7, 7), float64],) */;
  %895 = %878.0;
  %896 = %879.1;
  %897 = %884.0;
  %898 = %887.2;
  %899 = %890.0;
  %900 = %893.1;
  %901 = %894.0;
  (%895, %896, %897, meta[relay.Constant][48] /* ty=Tensor[(1280), float64] */, %var_8447, %898, %var_8462, %899, %var_8467, %900, meta[relay.Constant][49] /* ty=Tensor[(550), float32] */, %901)
}

def @func_17459() -> (Tensor[(550), float64],) {
  %902 = @func_8782() /* ty=(Tensor[(550), float64],) */;
  %903 = %902.0;
  (%903,)
}

def @func_10259(%var_10240: Tensor[(65), float64], %var_10257: Tensor[(1280), float64]) -> (Tensor[(3, 7, 7), float64], Tensor[(2, 5, 6), uint64], Tensor[(60), uint64], Tensor[(3, 7, 7), float64], Tensor[(1, 5, 13), float64], float64, Tensor[(65), float64], Tensor[(3, 7, 7), float64], Tensor[(560), uint64], Tensor[(280, 2), uint64], int32, Tensor[(540), int64], Tensor[(1280), float64]) {
  %904 = @func_6751() /* ty=(Tensor[(3, 7, 7), float64],) */;
  %905 = cast(meta[relay.Constant][50] /* ty=Tensor[(60), uint64] */, dtype="uint64") /* ty=Tensor[(60), uint64] */;
  %906 = cast(meta[relay.Constant][50] /* ty=Tensor[(60), uint64] */, dtype="uint64") /* ty=Tensor[(60), uint64] */;
  %907 = reshape(%905, newshape=[2, 5, 6]) /* ty=Tensor[(2, 5, 6), uint64] */;
  %908 = reshape(%906, newshape=[2, 5, 6]) /* ty=Tensor[(2, 5, 6), uint64] */;
  %909 = cast(1.52179f64 /* ty=float64 */, dtype="float64") /* ty=float64 */;
  %910 = cast(%var_10240, dtype="float64") /* ty=Tensor[(65), float64] */;
  %911 = reshape(%909, newshape=[]) /* ty=float64 */;
  %912 = reshape(%910, newshape=[1, 5, 13]) /* ty=Tensor[(1, 5, 13), float64] */;
  %913 = @func_9758(%911, %912) /* ty=(Tensor[(1, 5, 13), float64],) */;
  %914 = @func_9607() /* ty=(Tensor[(3, 7, 7), float64], Tensor[(3, 7, 7), float64]) */;
  %915 = cast(meta[relay.Constant][51] /* ty=Tensor[(280, 2), uint64] */, dtype="uint64") /* ty=Tensor[(280, 2), uint64] */;
  %916 = reshape(%915, newshape=[560]) /* ty=Tensor[(560), uint64] */;
  %917 = @func_7602(%916) /* ty=(Tensor[(3, 7, 7), float32], Tensor[(10, 7, 8), bool], Tensor[(560), uint64], Tensor[(3, 7, 7), float64]) */;
  %918 = cast(meta[relay.Constant][52] /* ty=Tensor[(540), int64] */, dtype="int64") /* ty=Tensor[(540), int64] */;
  %919 = cast(%var_10257, dtype="float64") /* ty=Tensor[(1280), float64] */;
  %920 = reshape(%918, newshape=[540]) /* ty=Tensor[(540), int64] */;
  %921 = reshape(%919, newshape=[1280]) /* ty=Tensor[(1280), float64] */;
  %922 = @func_8419(%920, %921) /* ty=(Tensor[(3, 7, 7), float64], Tensor[(2, 5, 6), uint64], int32, Tensor[(21, 1), int32], Tensor[(60), uint64], Tensor[(540), int64], Tensor[(1280), float64], Tensor[(192), float64], Tensor[(1280), float32], Tensor[(160), float64]) */;
  %923 = %904.0;
  %924 = @func_531(%907, %908) /* ty=Tensor[(2, 5, 6), uint64] */;
  %925 = @func_7106() /* ty=Tensor[(3, 7, 7), float64] */;
  %926 = %913.0;
  %927 = %914.0;
  %928 = %917.2;
  %929 = %922.2;
  (%923, %924, meta[relay.Constant][50] /* ty=Tensor[(60), uint64] */, %925, %926, 1.52179f64 /* ty=float64 */, %var_10240, %927, %928, meta[relay.Constant][51] /* ty=Tensor[(280, 2), uint64] */, %929, meta[relay.Constant][52] /* ty=Tensor[(540), int64] */, %var_10257)
}

def @func_13312() -> (Tensor[(3, 7, 7), float64],) {
  %930 = @func_12750() /* ty=Tensor[(3, 7, 7), float64] */;
  (%930,)
}

def @func_18037() -> (Tensor[(3, 7, 7), float64], Tensor[(3, 7, 7), float64]) {
  %931 = @func_11351() /* ty=(Tensor[(3, 7, 7), float64],) */;
  %932 = @func_11190() /* ty=(Tensor[(3, 7, 7), float64],) */;
  %933 = %931.0;
  %934 = %932.0;
  (%933, %934)
}

def @func_10483(%var_10427: Tensor[(48), float32]) -> (Tensor[(3, 7, 7), float64], Tensor[(16, ?, 3), int64], Tensor[(3, 7, 7), float64], Tensor[(160), float64], int64, Tensor[(16, ?, 3), int16]) {
  %935 = cast(%var_10427, dtype="float32") /* ty=Tensor[(48), float32] */;
  %936 = reshape(%935, newshape=[16, 1, 3]) /* ty=Tensor[(16, 1, 3), float32] */;
  %937 = @func_9439(%936) /* ty=Tensor[(16, 1, 3), float32] */;
  %938 = cast(%var_10427, dtype="int64") /* ty=Tensor[(48), int64] */;
  %939 = shape_of(%937, dtype="int32") /* ty=Tensor[(3), int32] */;
  %940 = cast(%937, dtype="int64") /* ty=Tensor[(16, 1, 3), int64] */;
  %941 = dyn.reshape(%938, %939, newshape=[]) /* ty=Tensor[(?, ?, ?), int64] */;
  %942 = @func_7653() /* ty=(Tensor[(3, 7, 7), float64],) */;
  %943 = cast(7 /* ty=int64 */, dtype="int64") /* ty=int64 */;
  %944 = reshape(%943, newshape=[]) /* ty=int64 */;
  %945 = @func_6804(%944) /* ty=(Tensor[(3, 7, 7), float64], Tensor[(6, 10, 13), int64], Tensor[(160), float64], int64, Tensor[(1280), float64], Tensor[(3, 20), uint64], Tensor[(60), uint64]) */;
  %946 = cast(%var_10427, dtype="int16") /* ty=Tensor[(48), int16] */;
  %947 = shape_of(%937, dtype="int32") /* ty=Tensor[(3), int32] */;
  %948 = cast(%937, dtype="int16") /* ty=Tensor[(16, 1, 3), int16] */;
  %949 = dyn.reshape(%946, %947, newshape=[]) /* ty=Tensor[(?, ?, ?), int16] */;
  %950 = @func_7344() /* ty=Tensor[(3, 7, 7), float64] */;
  %951 = right_shift(%940, %941) /* ty=Tensor[(16, ?, 3), int64] */;
  %952 = %942.0;
  %953 = %945.2;
  %954 = bitwise_or(%948, %949) /* ty=Tensor[(16, ?, 3), int16] */;
  (%950, %951, %952, %953, 7 /* ty=int64 */, %954)
}

def @func_7205() -> Tensor[(3, 7, 7), float64] {
  %955 = @func_6751() /* ty=(Tensor[(3, 7, 7), float64],) */;
  %955.0
}

def @func_10577(%var_10541: Tensor[(11, 16, 14), float64], %var_10542: Tensor[(11, 16, 14), float64], %var_10572: Tensor[(256), uint64]) -> (Tensor[(11, 16, 14), float64], Tensor[(560), uint64], Tensor[(1008), bool], Tensor[(256), uint64]) {
  %956 = cast(%var_10542, dtype="float64") /* ty=Tensor[(11, 16, 14), float64] */;
  %957 = shape_of(%var_10541, dtype="int32") /* ty=Tensor[(3), int32] */;
  %958 = cast(%var_10541, dtype="float64") /* ty=Tensor[(11, 16, 14), float64] */;
  %959 = dyn.reshape(%956, %957, newshape=[]) /* ty=Tensor[(?, ?, ?), float64] */;
  %960 = cast(meta[relay.Constant][53] /* ty=Tensor[(1008), bool] */, dtype="bool") /* ty=Tensor[(1008), bool] */;
  %961 = cast(%var_10572, dtype="uint64") /* ty=Tensor[(256), uint64] */;
  %962 = reshape(%960, newshape=[1008]) /* ty=Tensor[(1008), bool] */;
  %963 = reshape(%961, newshape=[256]) /* ty=Tensor[(256), uint64] */;
  %964 = @func_9182(%962, %963) /* ty=(Tensor[(3, 7, 7), float64], Tensor[(560), uint64], Tensor[(560, 1), uint64], Tensor[(1008), bool], Tensor[(1152), uint32], Tensor[(1008), bool], Tensor[(256), uint64]) */;
  %965 = floor_mod(%958, %959) /* ty=Tensor[(11, 16, 14), float64] */;
  %966 = %964.1;
  (%965, %966, meta[relay.Constant][53] /* ty=Tensor[(1008), bool] */, %var_10572)
}

def @func_14546() -> (Tensor[(3, 7, 7), float64], Tensor[(3, 7, 7), float64], Tensor[(3, 7, 7), float64]) {
  %967 = @func_11190() /* ty=(Tensor[(3, 7, 7), float64],) */;
  %968 = @func_10909() /* ty=(Tensor[(3, 7, 7), float64],) */;
  %969 = @func_7523() /* ty=(Tensor[(3, 7, 7), float64],) */;
  %970 = %967.0;
  %971 = %968.0;
  %972 = %969.0;
  (%970, %971, %972)
}

def @func_16771() -> (Tensor[(3, 7, 7), float64], Tensor[(3, 7, 7), float64]) {
  %973 = @func_8930() /* ty=Tensor[(3, 7, 7), float64] */;
  %974 = @func_8349() /* ty=Tensor[(3, 7, 7), float64] */;
  (%973, %974)
}

def @func_18505() -> Tensor[(3, 7, 7), float64] {
  %975 = @func_17706() /* ty=(Tensor[(3, 7, 7), float64],) */;
  %975.0
}

def @func_15018() -> Tensor[(3, 7, 7), float64] {
  %976 = @func_12235() /* ty=(Tensor[(3, 7, 7), float64], Tensor[(3, 7, 7), float64]) */;
  %976.0
}

def @func_9549() -> (Tensor[(14, 5), float64], Tensor[(3, 7, 7), float64]) {
  %977 = @func_7952() /* ty=(Tensor[(10, 7, 8), bool], Tensor[(5, 2, 7), float64], Tensor[(14, 5), float64]) */;
  %978 = %977.2;
  %979 = @func_8349() /* ty=Tensor[(3, 7, 7), float64] */;
  (%978, %979)
}

def @func_7056(%var_7044: Tensor[(3, 7, 7), float64]) -> (Tensor[(2, 12, 10), float64], Tensor[(240), float64], Tensor[(3, 7, 7), bool]) {
  %980 = cast(meta[relay.Constant][54] /* ty=Tensor[(240), float64] */, dtype="float64") /* ty=Tensor[(240), float64] */;
  %981 = reshape(%980, newshape=[2, 12, 10]) /* ty=Tensor[(2, 12, 10), float64] */;
  %982 = @func_6751() /* ty=(Tensor[(3, 7, 7), float64],) */;
  %983 = %982.0;
  %984 = cast(%var_7044, dtype="bool") /* ty=Tensor[(3, 7, 7), bool] */;
  %985 = shape_of(%983, dtype="int32") /* ty=Tensor[(3), int32] */;
  %986 = cast(%983, dtype="bool") /* ty=Tensor[(3, 7, 7), bool] */;
  %987 = dyn.reshape(%984, %985, newshape=[]) /* ty=Tensor[(?, ?, ?), bool] */;
  %988 = @func_2495(%981) /* ty=Tensor[(2, 12, 10), float64] */;
  %989 = equal(%986, %987) /* ty=Tensor[(3, 7, 7), bool] */;
  (%988, meta[relay.Constant][54] /* ty=Tensor[(240), float64] */, %989)
}

def @func_16526() -> (Tensor[(3, 7, 7), float64],) {
  %990 = @func_13697() /* ty=Tensor[(3, 7, 7), float64] */;
  (%990,)
}

def @func_12960() -> (Tensor[(3, 7, 7), float64],) {
  %991 = @func_11617() /* ty=(Tensor[(3, 7, 7), float64], Tensor[(3, 7, 7), float64]) */;
  %992 = %991.1;
  (%992,)
}

def @func_20211() -> Tensor[(3, 7, 7), float64] {
  @func_7731() /* ty=Tensor[(3, 7, 7), float64] */
}

def @func_9607() -> (Tensor[(3, 7, 7), float64], Tensor[(3, 7, 7), float64]) {
  %993 = @func_7106() /* ty=Tensor[(3, 7, 7), float64] */;
  %994 = @func_7106() /* ty=Tensor[(3, 7, 7), float64] */;
  (%993, %994)
}

def @func_18273() -> (Tensor[(3, 7, 7), float64], Tensor[(3, 7, 7), float64]) {
  %995 = @func_15018() /* ty=Tensor[(3, 7, 7), float64] */;
  %996 = @func_10106() /* ty=Tensor[(3, 7, 7), float64] */;
  (%995, %996)
}

def @func_3471(%var_3457: Tensor[(10, 7, 8), uint64]) -> (Tensor[(10, 7, 8), bool], Tensor[(10, 7, 8), float32]) {
  %997 = cast(%var_3457, dtype="bool") /* ty=Tensor[(10, 7, 8), bool] */;
  %998 = shape_of(meta[relay.Constant][55] /* ty=Tensor[(10, 7, 8), uint64] */, dtype="int32") /* ty=Tensor[(3), int32] */;
  %999 = cast(meta[relay.Constant][55] /* ty=Tensor[(10, 7, 8), uint64] */, dtype="bool") /* ty=Tensor[(10, 7, 8), bool] */;
  %1000 = dyn.reshape(%997, %998, newshape=[]) /* ty=Tensor[(?, ?, ?), bool] */;
  %1001 = cast(meta[relay.Constant][55] /* ty=Tensor[(10, 7, 8), uint64] */, dtype="float32") /* ty=Tensor[(10, 7, 8), float32] */;
  %1002 = less_equal(%999, %1000) /* ty=Tensor[(10, 7, 8), bool] */;
  %1003 = log(%1001) /* ty=Tensor[(10, 7, 8), float32] */;
  (%1002, %1003)
}

def @func_10515() -> (Tensor[(3, 7, 7), float64], Tensor[(2, 12, 10), uint8]) {
  %1004 = @func_6751() /* ty=(Tensor[(3, 7, 7), float64],) */;
  %1005 = cast(meta[relay.Constant][56] /* ty=Tensor[(240), float64] */, dtype="float64") /* ty=Tensor[(240), float64] */;
  %1006 = reshape(%1005, newshape=[2, 12, 10]) /* ty=Tensor[(2, 12, 10), float64] */;
  %1007 = @func_2495(%1006) /* ty=Tensor[(2, 12, 10), float64] */;
  %1008 = cast(meta[relay.Constant][56] /* ty=Tensor[(240), float64] */, dtype="uint8") /* ty=Tensor[(240), uint8] */;
  %1009 = shape_of(%1007, dtype="int32") /* ty=Tensor[(3), int32] */;
  %1010 = cast(%1007, dtype="uint8") /* ty=Tensor[(2, 12, 10), uint8] */;
  %1011 = dyn.reshape(%1008, %1009, newshape=[]) /* ty=Tensor[(?, ?, ?), uint8] */;
  %1012 = %1004.0;
  %1013 = logical_xor(%1010, %1011) /* ty=Tensor[(2, 12, 10), uint8] */;
  (%1012, %1013)
}

def @func_8212() -> (Tensor[(3, 7, 7), float64], Tensor[(10, 5, 11), float32], Tensor[(550), float32]) {
  %1014 = @func_7653() /* ty=(Tensor[(3, 7, 7), float64],) */;
  %1015 = cast(meta[relay.Constant][57] /* ty=Tensor[(550), float32] */, dtype="float32") /* ty=Tensor[(550), float32] */;
  %1016 = reshape(%1015, newshape=[550]) /* ty=Tensor[(550), float32] */;
  %1017 = @func_7405(%1016) /* ty=(Tensor[(3, 7, 7), float64], Tensor[(3, 7, 7), float64], Tensor[(3, 7, 7), float64], Tensor[(10, 5, 11), float32], Tensor[(550), float32]) */;
  %1018 = %1014.0;
  %1019 = %1017.3;
  (%1018, %1019, meta[relay.Constant][57] /* ty=Tensor[(550), float32] */)
}

def @func_3692(%var_3684: Tensor[(4, 8, 8), uint64]) -> (Tensor[(4, 8, 8), bool],) {
  %1020 = cast(meta[relay.Constant][58] /* ty=Tensor[(1, 8, 8), uint64] */, dtype="bool") /* ty=Tensor[(1, 8, 8), bool] */;
  %1021 = cast(%var_3684, dtype="bool") /* ty=Tensor[(4, 8, 8), bool] */;
  %1022 = equal(%1020, %1021) /* ty=Tensor[(4, 8, 8), bool] */;
  (%1022,)
}

def @func_14041() -> (Tensor[(3, 7, 7), float64],) {
  %1023 = @func_7355() /* ty=Tensor[(3, 7, 7), float64] */;
  (%1023,)
}

def @func_20380() -> (Tensor[(3, 7, 7), float64], Tensor[(3, 7, 7), float64], Tensor[(3, 7, 7), float64]) {
  %1024 = @func_13057() /* ty=(Tensor[(3, 7, 7), float64], Tensor[(3, 7, 7), int8]) */;
  %1025 = @func_19887() /* ty=Tensor[(3, 7, 7), float64] */;
  %1026 = %1024.0;
  %1027 = @func_16743() /* ty=Tensor[(3, 7, 7), float64] */;
  (%1025, %1026, %1027)
}

def @func_11580() -> (Tensor[(3, 7, 7), float64],) {
  %1028 = @func_7344() /* ty=Tensor[(3, 7, 7), float64] */;
  (%1028,)
}

def @func_13605(%var_13588: Tensor[(3, 7, 7), int8]) -> Tensor[(3, 7, 7), bool] {
  %1029 = @func_10653() /* ty=Tensor[(3, 7, 7), int8] */;
  %1030 = cast(%var_13588, dtype="bool") /* ty=Tensor[(3, 7, 7), bool] */;
  %1031 = shape_of(%1029, dtype="int32") /* ty=Tensor[(3), int32] */;
  %1032 = cast(%1029, dtype="bool") /* ty=Tensor[(3, 7, 7), bool] */;
  %1033 = dyn.reshape(%1030, %1031, newshape=[]) /* ty=Tensor[(?, ?, ?), bool] */;
  greater_equal(%1032, %1033) /* ty=Tensor[(3, 7, 7), bool] */
}

def @func_7783(%var_7761: Tensor[(1008), bool], %var_7767: Tensor[(780), int64]) -> (Tensor[(3, 7, 7), float64], Tensor[(12, 16, 6), uint32], uint32, Tensor[(48, 24), uint32], Tensor[(1008), bool], Tensor[(6, 10, 13), int64], Tensor[(780), int64]) {
  %1034 = cast(meta[relay.Constant][59] /* ty=uint32 */, dtype="uint32") /* ty=uint32 */;
  %1035 = cast(meta[relay.Constant][60] /* ty=Tensor[(48, 24), uint32] */, dtype="uint32") /* ty=Tensor[(48, 24), uint32] */;
  %1036 = cast(%var_7761, dtype="bool") /* ty=Tensor[(1008), bool] */;
  %1037 = reshape(%1034, newshape=[]) /* ty=uint32 */;
  %1038 = reshape(%1035, newshape=[12, 16, 6]) /* ty=Tensor[(12, 16, 6), uint32] */;
  %1039 = reshape(%1036, newshape=[1008]) /* ty=Tensor[(1008), bool] */;
  %1040 = @func_3822(%1037, %1038, %1039) /* ty=(Tensor[(12, 16, 6), uint32], Tensor[(14, 6, 12), bool], Tensor[(1008), bool]) */;
  %1041 = cast(meta[relay.Constant][59] /* ty=uint32 */, dtype="int64") /* ty=int64 */;
  %1042 = cast(%var_7767, dtype="int64") /* ty=Tensor[(780), int64] */;
  %1043 = reshape(%1041, newshape=[]) /* ty=int64 */;
  %1044 = reshape(%1042, newshape=[6, 10, 13]) /* ty=Tensor[(6, 10, 13), int64] */;
  %1045 = @func_1756(%1043, %1044) /* ty=(Tensor[(6, 10, 13), int64],) */;
  %1046 = @func_7106() /* ty=Tensor[(3, 7, 7), float64] */;
  %1047 = %1040.0;
  %1048 = %1045.0;
  (%1046, %1047, meta[relay.Constant][59] /* ty=uint32 */, meta[relay.Constant][60] /* ty=Tensor[(48, 24), uint32] */, %var_7761, %1048, %var_7767)
}

def @func_1756(%var_1751: int64, %var_1752: Tensor[(6, 10, 13), int64]) -> (Tensor[(6, 10, 13), int64],) {
  %1049 = cast(%var_1751, dtype="int64") /* ty=int64 */;
  %1050 = cast(%var_1752, dtype="int64") /* ty=Tensor[(6, 10, 13), int64] */;
  %1051 = add(%1049, %1050) /* ty=Tensor[(6, 10, 13), int64] */;
  (%1051,)
}

def @func_16664() -> (Tensor[(3, 7, 7), float64], Tensor[(560), uint64], Tensor[(65, 1), float64], Tensor[(1280), float64]) {
  %1052 = @func_7653() /* ty=(Tensor[(3, 7, 7), float64],) */;
  %1053 = cast(meta[relay.Constant][61] /* ty=Tensor[(65, 1), float64] */, dtype="float64") /* ty=Tensor[(65, 1), float64] */;
  %1054 = cast(meta[relay.Constant][62] /* ty=Tensor[(1280), float64] */, dtype="float64") /* ty=Tensor[(1280), float64] */;
  %1055 = reshape(%1053, newshape=[65]) /* ty=Tensor[(65), float64] */;
  %1056 = reshape(%1054, newshape=[1280]) /* ty=Tensor[(1280), float64] */;
  %1057 = @func_10259(%1055, %1056) /* ty=(Tensor[(3, 7, 7), float64], Tensor[(2, 5, 6), uint64], Tensor[(60), uint64], Tensor[(3, 7, 7), float64], Tensor[(1, 5, 13), float64], float64, Tensor[(65), float64], Tensor[(3, 7, 7), float64], Tensor[(560), uint64], Tensor[(280, 2), uint64], int32, Tensor[(540), int64], Tensor[(1280), float64]) */;
  %1058 = %1052.0;
  %1059 = %1057.8;
  (%1058, %1059, meta[relay.Constant][61] /* ty=Tensor[(65, 1), float64] */, meta[relay.Constant][62] /* ty=Tensor[(1280), float64] */)
}

def @func_4568(%var_4514: int32, %var_4515: Tensor[(7, 3, 1), int32], %var_4527: Tensor[(60), uint64], %var_4546: Tensor[(540), int64], %var_4547: Tensor[(1280), float64], %var_4560: Tensor[(4, 48), float64]) -> (Tensor[(7, 3, 1), int32], Tensor[(2, 5, 6), uint64], Tensor[(1980), int16], Tensor[(60), uint64], Tensor[(1280), float64], Tensor[(540), int64], Tensor[(1280), float64], Tensor[(60), uint64], Tensor[(4, 48), float64]) {
  %1060 = cast(%var_4514, dtype="int32") /* ty=int32 */;
  %1061 = cast(%var_4515, dtype="int32") /* ty=Tensor[(7, 3, 1), int32] */;
  %1062 = cast(%var_4514, dtype="int16") /* ty=int16 */;
  %1063 = cast(meta[relay.Constant][63] /* ty=Tensor[(1980), int16] */, dtype="int16") /* ty=Tensor[(1980), int16] */;
  %1064 = cast(%var_4527, dtype="uint64") /* ty=Tensor[(60), uint64] */;
  %1065 = reshape(%1062, newshape=[]) /* ty=int16 */;
  %1066 = reshape(%1063, newshape=[15, 12, 11]) /* ty=Tensor[(15, 12, 11), int16] */;
  %1067 = reshape(%1064, newshape=[60]) /* ty=Tensor[(60), uint64] */;
  %1068 = @func_1094(%1065, %1066, %1067) /* ty=(Tensor[(15, 12, 11), int16], Tensor[(2, 5, 6), uint64], Tensor[(60), uint64], Tensor[(2, 3, 10), float64], Tensor[(2, 3, 10), float64]) */;
  %1069 = cast(%var_4546, dtype="int64") /* ty=Tensor[(540), int64] */;
  %1070 = cast(%var_4547, dtype="float64") /* ty=Tensor[(1280), float64] */;
  %1071 = cast(%var_4527, dtype="uint64") /* ty=Tensor[(60), uint64] */;
  %1072 = reshape(%1069, newshape=[6, 9, 10]) /* ty=Tensor[(6, 9, 10), int64] */;
  %1073 = reshape(%1070, newshape=[1280]) /* ty=Tensor[(1280), float64] */;
  %1074 = reshape(%1071, newshape=[60]) /* ty=Tensor[(60), uint64] */;
  %1075 = @func_1996(%1072, %1073, %1074) /* ty=(Tensor[(6, 9, 10), int64], Tensor[(2, 5, 6), uint64], Tensor[(1280), float64], Tensor[(60), uint64]) */;
  %1076 = cast(%var_4560, dtype="float64") /* ty=Tensor[(4, 48), float64] */;
  %1077 = %1068.1;
  %1078 = cast(%1077, dtype="uint64") /* ty=Tensor[(2, 5, 6), uint64] */;
  %1079 = reshape(%1076, newshape=[12, 1, 16]) /* ty=Tensor[(12, 1, 16), float64] */;
  %1080 = reshape(%1078, newshape=[60]) /* ty=Tensor[(60), uint64] */;
  %1081 = @func_1202(%1079, %1080) /* ty=(Tensor[(12, 1, 16), float64], Tensor[(2, 5, 6), uint64], Tensor[(60), uint64]) */;
  %1082 = logical_xor(%1060, %1061) /* ty=Tensor[(7, 3, 1), int32] */;
  %1083 = %1075.2;
  %1084 = %1081.2;
  (%1082, %1077, meta[relay.Constant][63] /* ty=Tensor[(1980), int16] */, %var_4527, %1083, %var_4546, %var_4547, %1084, %var_4560)
}

def @func_6961(%var_6955: Tensor[(10, 5, 11), float32]) -> (Tensor[(10, 5, 11), float32],) {
  %1085 = cast(%var_6955, dtype="float32") /* ty=Tensor[(10, 5, 11), float32] */;
  %1086 = log(%1085) /* ty=Tensor[(10, 5, 11), float32] */;
  (%1086,)
}

def @func_8572(%var_8568: Tensor[(1980), int16]) -> (Tensor[(3, 7, 7), float64], Tensor[(15, 12, 11), int16], int16, Tensor[(1980), int16], Tensor[(60, 1), uint64]) {
  %1087 = cast(meta[relay.Constant][64] /* ty=int16 */, dtype="int16") /* ty=int16 */;
  %1088 = cast(%var_8568, dtype="int16") /* ty=Tensor[(1980), int16] */;
  %1089 = cast(meta[relay.Constant][65] /* ty=Tensor[(60, 1), uint64] */, dtype="uint64") /* ty=Tensor[(60, 1), uint64] */;
  %1090 = reshape(%1087, newshape=[]) /* ty=int16 */;
  %1091 = reshape(%1088, newshape=[15, 12, 11]) /* ty=Tensor[(15, 12, 11), int16] */;
  %1092 = reshape(%1089, newshape=[60]) /* ty=Tensor[(60), uint64] */;
  %1093 = @func_1094(%1090, %1091, %1092) /* ty=(Tensor[(15, 12, 11), int16], Tensor[(2, 5, 6), uint64], Tensor[(60), uint64], Tensor[(2, 3, 10), float64], Tensor[(2, 3, 10), float64]) */;
  %1094 = @func_7106() /* ty=Tensor[(3, 7, 7), float64] */;
  %1095 = %1093.0;
  (%1094, %1095, meta[relay.Constant][64] /* ty=int16 */, %var_8568, meta[relay.Constant][65] /* ty=Tensor[(60, 1), uint64] */)
}

def @func_9069(%var_9043: Tensor[(3, 7, 7), float64]) -> (Tensor[(3, 7, 7), int64],) {
  %1096 = @func_8696() /* ty=Tensor[(3, 7, 7), float64] */;
  %1097 = cast(%var_9043, dtype="int64") /* ty=Tensor[(3, 7, 7), int64] */;
  %1098 = shape_of(%1096, dtype="int32") /* ty=Tensor[(3), int32] */;
  %1099 = cast(%1096, dtype="int64") /* ty=Tensor[(3, 7, 7), int64] */;
  %1100 = dyn.reshape(%1097, %1098, newshape=[]) /* ty=Tensor[(?, ?, ?), int64] */;
  %1101 = multiply(%1099, %1100) /* ty=Tensor[(3, 7, 7), int64] */;
  (%1101,)
}

def @func_15838() -> Tensor[(3, 7, 7), float64] {
  %1102 = @func_12960() /* ty=(Tensor[(3, 7, 7), float64],) */;
  %1102.0
}

def @func_18471(%var_18456: Tensor[(90, 22), int16]) -> (Tensor[(3, 7, 7), float64], Tensor[(1980), int16], Tensor[(90, 22), int16], Tensor[(3, 7, 7), float64]) {
  %1103 = cast(%var_18456, dtype="int16") /* ty=Tensor[(90, 22), int16] */;
  %1104 = reshape(%1103, newshape=[1980]) /* ty=Tensor[(1980), int16] */;
  %1105 = @func_13404(%1104) /* ty=(Tensor[(3, 7, 7), float64], Tensor[(1980), int16], Tensor[(1980), int16], Tensor[(3, 7, 7), float64]) */;
  %1106 = @func_7106() /* ty=Tensor[(3, 7, 7), float64] */;
  %1107 = %1105.2;
  %1108 = @func_11336() /* ty=Tensor[(3, 7, 7), float64] */;
  (%1106, %1107, %var_18456, %1108)
}

def @func_12651(%var_12608: Tensor[(550), float32]) -> (Tensor[(550), float32], Tensor[(3, 7, 7), float64], Tensor[(550), float64]) {
  %1109 = @func_10383() /* ty=Tensor[(550), float32] */;
  %1110 = cast(%1109, dtype="float32") /* ty=Tensor[(550), float32] */;
  %1111 = shape_of(%var_12608, dtype="int32") /* ty=Tensor[(1), int32] */;
  %1112 = cast(%var_12608, dtype="float32") /* ty=Tensor[(550), float32] */;
  %1113 = dyn.reshape(%1110, %1111, newshape=[]) /* ty=Tensor[(?), float32] */;
  %1114 = @func_10490() /* ty=(Tensor[(3, 7, 7), float64],) */;
  %1115 = cast(%var_12608, dtype="int8") /* ty=Tensor[(550), int8] */;
  %1116 = shape_of(%1109, dtype="int32") /* ty=Tensor[(1), int32] */;
  %1117 = cast(%1109, dtype="int8") /* ty=Tensor[(550), int8] */;
  %1118 = dyn.reshape(%1115, %1116, newshape=[]) /* ty=Tensor[(?), int8] */;
  %1119 = subtract(%1117, %1118) /* ty=Tensor[(550), int8] */;
  %1120 = cast(%1119, dtype="float64") /* ty=Tensor[(550), float64] */;
  %1121 = divide(%1112, %1113) /* ty=Tensor[(550), float32] */;
  %1122 = %1114.0;
  %1123 = rsqrt(%1120) /* ty=Tensor[(550), float64] */;
  (%1121, %1122, %1123)
}

def @func_18201() -> Tensor[(3, 7, 7), float64] {
  %1124 = @func_12960() /* ty=(Tensor[(3, 7, 7), float64],) */;
  %1124.0
}

def @func_8192() -> (Tensor[(3, 7, 7), float64], Tensor[(3, 7, 7), float64], Tensor[(3, 7, 7), float64]) {
  %1125 = @func_7106() /* ty=Tensor[(3, 7, 7), float64] */;
  %1126 = @func_7106() /* ty=Tensor[(3, 7, 7), float64] */;
  %1127 = @func_7731() /* ty=Tensor[(3, 7, 7), float64] */;
  (%1125, %1126, %1127)
}

def @func_18336() -> (Tensor[(3, 7, 7), float64], Tensor[(3, 7, 7), float64]) {
  %1128 = @func_13057() /* ty=(Tensor[(3, 7, 7), float64], Tensor[(3, 7, 7), int8]) */;
  %1129 = @func_18161() /* ty=(Tensor[(3, 7, 7), float64],) */;
  %1130 = %1128.0;
  %1131 = %1129.0;
  (%1130, %1131)
}

def @func_7925(%var_7840: Tensor[(1008, 1), bool]) -> (Tensor[(3, 7, 7), float64], Tensor[(3, 7, 7), float64], Tensor[(3, 7, 7), float64], Tensor[(3, 7, 7), float64], Tensor[(1008, ?), bool], Tensor[(3, 7, 7), float64]) {
  %1132 = cast(%var_7840, dtype="bool") /* ty=Tensor[(1008, 1), bool] */;
  %1133 = cast(%var_7840, dtype="bool") /* ty=Tensor[(1008, 1), bool] */;
  %1134 = reshape(%1132, newshape=[14, 6, 12]) /* ty=Tensor[(14, 6, 12), bool] */;
  %1135 = reshape(%1133, newshape=[14, 6, 12]) /* ty=Tensor[(14, 6, 12), bool] */;
  %1136 = @func_1619(%1134, %1135) /* ty=Tensor[(14, 6, 12), bool] */;
  %1137 = cast(%1136, dtype="bool") /* ty=Tensor[(14, 6, 12), bool] */;
  %1138 = shape_of(%var_7840, dtype="int32") /* ty=Tensor[(2), int32] */;
  %1139 = cast(%var_7840, dtype="bool") /* ty=Tensor[(1008, 1), bool] */;
  %1140 = dyn.reshape(%1137, %1138, newshape=[]) /* ty=Tensor[(?, ?), bool] */;
  %1141 = @func_7106() /* ty=Tensor[(3, 7, 7), float64] */;
  %1142 = @func_7205() /* ty=Tensor[(3, 7, 7), float64] */;
  %1143 = @func_7106() /* ty=Tensor[(3, 7, 7), float64] */;
  %1144 = @func_7216() /* ty=Tensor[(3, 7, 7), float64] */;
  %1145 = equal(%1139, %1140) /* ty=Tensor[(1008, ?), bool] */;
  %1146 = @func_7205() /* ty=Tensor[(3, 7, 7), float64] */;
  (%1141, %1142, %1143, %1144, %1145, %1146)
}

def @func_13697() -> Tensor[(3, 7, 7), float64] {
  %1147 = @func_7523() /* ty=(Tensor[(3, 7, 7), float64],) */;
  %1147.0
}

def @func_13995(%var_13974: Tensor[(4, 40), float64], %var_13977: Tensor[(60), uint64]) -> (Tensor[(550), float32], Tensor[(3, 7, 7), float64], Tensor[(3, 7, 7), float64], Tensor[(14, 12, 7), float64], Tensor[(1176), float64], int64, Tensor[(4, 40), float64], int64, Tensor[(1280), float64], Tensor[(60), uint64], Tensor[(3, 7, 7), float64], Tensor[(3, 7, 7), float64], Tensor[(1280), float32]) {
  %1148 = @func_9894() /* ty=(Tensor[(3, 7, 7), float64],) */;
  %1149 = @func_11190() /* ty=(Tensor[(3, 7, 7), float64],) */;
  %1150 = cast(meta[relay.Constant][66] /* ty=Tensor[(1176), float64] */, dtype="float64") /* ty=Tensor[(1176), float64] */;
  %1151 = cast(meta[relay.Constant][66] /* ty=Tensor[(1176), float64] */, dtype="float64") /* ty=Tensor[(1176), float64] */;
  %1152 = reshape(%1150, newshape=[14, 12, 7]) /* ty=Tensor[(14, 12, 7), float64] */;
  %1153 = reshape(%1151, newshape=[14, 12, 7]) /* ty=Tensor[(14, 12, 7), float64] */;
  %1154 = @func_8720(%1152, %1153) /* ty=(Tensor[(14, 12, 7), float64],) */;
  %1155 = cast(%var_13974, dtype="float64") /* ty=Tensor[(4, 40), float64] */;
  %1156 = cast(10 /* ty=int64 */, dtype="int64") /* ty=int64 */;
  %1157 = cast(meta[relay.Constant][67] /* ty=Tensor[(1280), float64] */, dtype="float64") /* ty=Tensor[(1280), float64] */;
  %1158 = cast(%var_13977, dtype="uint64") /* ty=Tensor[(60), uint64] */;
  %1159 = reshape(%1155, newshape=[5, 2, 16]) /* ty=Tensor[(5, 2, 16), float64] */;
  %1160 = reshape(%1156, newshape=[]) /* ty=int64 */;
  %1161 = reshape(%1157, newshape=[1280]) /* ty=Tensor[(1280), float64] */;
  %1162 = reshape(%1158, newshape=[30, 2]) /* ty=Tensor[(30, 2), uint64] */;
  %1163 = @func_5673(%1159, %1160, %1161, %1162) /* ty=(Tensor[(5, 2, 16), float64], Tensor[(6, 10, 13), int64], int64, Tensor[(780), int64], Tensor[(16, 16, 5), float64], Tensor[(30, 2), uint64], Tensor[(1280), float32]) */;
  %1164 = @func_11293() /* ty=(Tensor[(550), float32], Tensor[(3, 7, 7), float64], Tensor[(10, 7, 8), bool], Tensor[(2, 280), uint64]) */;
  %1165 = cast(%var_13974, dtype="float64") /* ty=Tensor[(4, 40), float64] */;
  %1166 = %1163.2;
  %1167 = cast(%1166, dtype="int64") /* ty=int64 */;
  %1168 = cast(meta[relay.Constant][67] /* ty=Tensor[(1280), float64] */, dtype="float64") /* ty=Tensor[(1280), float64] */;
  %1169 = cast(%var_13977, dtype="uint64") /* ty=Tensor[(60), uint64] */;
  %1170 = reshape(%1165, newshape=[5, 2, 16]) /* ty=Tensor[(5, 2, 16), float64] */;
  %1171 = reshape(%1167, newshape=[]) /* ty=int64 */;
  %1172 = reshape(%1168, newshape=[1280]) /* ty=Tensor[(1280), float64] */;
  %1173 = reshape(%1169, newshape=[30, 2]) /* ty=Tensor[(30, 2), uint64] */;
  %1174 = @func_5673(%1170, %1171, %1172, %1173) /* ty=(Tensor[(5, 2, 16), float64], Tensor[(6, 10, 13), int64], int64, Tensor[(780), int64], Tensor[(16, 16, 5), float64], Tensor[(30, 2), uint64], Tensor[(1280), float32]) */;
  %1175 = @func_10383() /* ty=Tensor[(550), float32] */;
  %1176 = %1148.0;
  %1177 = %1149.0;
  %1178 = %1154.0;
  %1179 = %1164.1;
  %1180 = @func_13697() /* ty=Tensor[(3, 7, 7), float64] */;
  %1181 = %1174.6;
  (%1175, %1176, %1177, %1178, meta[relay.Constant][66] /* ty=Tensor[(1176), float64] */, %1166, %var_13974, 10 /* ty=int64 */, meta[relay.Constant][67] /* ty=Tensor[(1280), float64] */, %var_13977, %1179, %1180, %1181)
}

def @func_14196(%var_14163: Tensor[(280), float32]) -> (Tensor[(3, 7, 7), float64], Tensor[(3, 7, 7), float64], Tensor[(280), float32], Tensor[(14, 5), float64], Tensor[(3, 7, 7), float64], Tensor[(1, 60), float64]) {
  %1182 = @func_6751() /* ty=(Tensor[(3, 7, 7), float64],) */;
  %1183 = cast(meta[relay.Constant][68] /* ty=Tensor[(1, 60), uint64] */, dtype="uint64") /* ty=Tensor[(1, 60), uint64] */;
  %1184 = cast(4 /* ty=int64 */, dtype="int64") /* ty=int64 */;
  %1185 = cast(%var_14163, dtype="float32") /* ty=Tensor[(280), float32] */;
  %1186 = reshape(%1183, newshape=[60]) /* ty=Tensor[(60), uint64] */;
  %1187 = reshape(%1184, newshape=[]) /* ty=int64 */;
  %1188 = reshape(%1185, newshape=[140, 2]) /* ty=Tensor[(140, 2), float32] */;
  %1189 = @func_8502(%1186, %1187, %1188) /* ty=(Tensor[(3, 7, 7), float64], Tensor[(10, 7, 8), bool], Tensor[(16, 16, 5), float64], Tensor[(1280), float64], Tensor[(60), uint64], Tensor[(160), float64], int64, Tensor[(2, 14, 10), float32], Tensor[(140, 2), float32], Tensor[(3, 7, 7), float64], Tensor[(550), float32], Tensor[(3, 7, 7), float64]) */;
  %1190 = @func_7952() /* ty=(Tensor[(10, 7, 8), bool], Tensor[(5, 2, 7), float64], Tensor[(14, 5), float64]) */;
  %1191 = cast(meta[relay.Constant][68] /* ty=Tensor[(1, 60), uint64] */, dtype="bool") /* ty=Tensor[(1, 60), bool] */;
  %1192 = cast(4 /* ty=int64 */, dtype="bool") /* ty=bool */;
  %1193 = greater(%1191, %1192) /* ty=Tensor[(1, 60), bool] */;
  %1194 = cast(%1193, dtype="float64") /* ty=Tensor[(1, 60), float64] */;
  %1195 = %1182.0;
  %1196 = %1189.11;
  %1197 = %1190.2;
  %1198 = @func_7355() /* ty=Tensor[(3, 7, 7), float64] */;
  %1199 = cos(%1194) /* ty=Tensor[(1, 60), float64] */;
  (%1195, %1196, %var_14163, %1197, %1198, %1199)
}

def @func_17516() -> (Tensor[(3, 7, 7), float64], Tensor[(14, 5), float64]) {
  %1200 = @func_11293() /* ty=(Tensor[(550), float32], Tensor[(3, 7, 7), float64], Tensor[(10, 7, 8), bool], Tensor[(2, 280), uint64]) */;
  %1201 = %1200.1;
  %1202 = @func_9380() /* ty=Tensor[(14, 5), float64] */;
  (%1201, %1202)
}

def @func_13491() -> (Tensor[(3, 7, 7), float64],) {
  %1203 = @func_12750() /* ty=Tensor[(3, 7, 7), float64] */;
  (%1203,)
}

def @func_10020() -> Tensor[(3, 7, 7), int8] {
  %1204 = @func_8630() /* ty=(Tensor[(3, 7, 7), int8],) */;
  %1204.0
}

def @func_10383() -> Tensor[(550), float32] {
  %1205 = @func_8782() /* ty=(Tensor[(550), float64],) */;
  %1206 = %1205.0;
  %1207 = cast(%1206, dtype="float32") /* ty=Tensor[(550), float32] */;
  sigmoid(%1207) /* ty=Tensor[(550), float32] */
}

def @func_20299() -> Tensor[(3, 7, 7), float64] {
  @func_7731() /* ty=Tensor[(3, 7, 7), float64] */
}

def @func_1996(%var_1982: Tensor[(6, 9, 10), int64], %var_1992: Tensor[(1280), float64], %var_1993: Tensor[(60), uint64]) -> (Tensor[(6, 9, 10), int64], Tensor[(2, 5, 6), uint64], Tensor[(1280), float64], Tensor[(60), uint64]) {
  %1208 = cast(%var_1982, dtype="int64") /* ty=Tensor[(6, 9, 10), int64] */;
  %1209 = shape_of(meta[relay.Constant][69] /* ty=Tensor[(6, 9, 10), int64] */, dtype="int32") /* ty=Tensor[(3), int32] */;
  %1210 = cast(meta[relay.Constant][69] /* ty=Tensor[(6, 9, 10), int64] */, dtype="int64") /* ty=Tensor[(6, 9, 10), int64] */;
  %1211 = dyn.reshape(%1208, %1209, newshape=[]) /* ty=Tensor[(?, ?, ?), int64] */;
  %1212 = cast(%var_1992, dtype="float64") /* ty=Tensor[(1280), float64] */;
  %1213 = cast(%var_1993, dtype="uint64") /* ty=Tensor[(60), uint64] */;
  %1214 = reshape(%1212, newshape=[16, 16, 5]) /* ty=Tensor[(16, 16, 5), float64] */;
  %1215 = reshape(%1213, newshape=[60]) /* ty=Tensor[(60), uint64] */;
  %1216 = @func_1145(%1214, %1215) /* ty=(Tensor[(16, 16, 5), float64], Tensor[(2, 5, 6), uint64], Tensor[(60), uint64], Tensor[(2, 5, 6), uint64]) */;
  %1217 = bitwise_xor(%1210, %1211) /* ty=Tensor[(6, 9, 10), int64] */;
  %1218 = %1216.1;
  (%1217, %1218, %var_1992, %var_1993)
}

def @func_18424() -> Tensor[(3, 7, 7), float64] {
  %1219 = @func_18123() /* ty=(Tensor[(3, 7, 7), float64],) */;
  %1219.0
}

def @func_1094(%var_1043: int16, %var_1044: Tensor[(15, 12, 11), int16], %var_1050: Tensor[(60), uint64]) -> (Tensor[(15, 12, 11), int16], Tensor[(2, 5, 6), uint64], Tensor[(60), uint64], Tensor[(2, 3, 10), float64], Tensor[(2, 3, 10), float64]) {
  %1220 = cast(%var_1043, dtype="int16") /* ty=int16 */;
  %1221 = cast(%var_1044, dtype="int16") /* ty=Tensor[(15, 12, 11), int16] */;
  %1222 = cast(%var_1050, dtype="uint64") /* ty=Tensor[(60), uint64] */;
  %1223 = cast(%var_1050, dtype="uint64") /* ty=Tensor[(60), uint64] */;
  %1224 = reshape(%1222, newshape=[2, 5, 6]) /* ty=Tensor[(2, 5, 6), uint64] */;
  %1225 = reshape(%1223, newshape=[2, 5, 6]) /* ty=Tensor[(2, 5, 6), uint64] */;
  %1226 = cast(%var_1050, dtype="float64") /* ty=Tensor[(60), float64] */;
  %1227 = reshape(%1226, newshape=[2, 3, 10]) /* ty=Tensor[(2, 3, 10), float64] */;
  %1228 = @func_938(%1227) /* ty=Tensor[(2, 3, 10), float64] */;
  %1229 = cast(%1228, dtype="float64") /* ty=Tensor[(2, 3, 10), float64] */;
  %1230 = reshape(%1229, newshape=[2, 3, 10]) /* ty=Tensor[(2, 3, 10), float64] */;
  %1231 = maximum(%1220, %1221) /* ty=Tensor[(15, 12, 11), int16] */;
  %1232 = @func_531(%1224, %1225) /* ty=Tensor[(2, 5, 6), uint64] */;
  %1233 = @func_938(%1230) /* ty=Tensor[(2, 3, 10), float64] */;
  (%1231, %1232, %var_1050, %1228, %1233)
}

def @func_5142(%var_5106: Tensor[(5, 2, 7), int64], %var_5107: Tensor[(5, 2, 7), int64], %var_5111: Tensor[(5, 2, 7), int64], %var_5116: Tensor[(1, 1008), bool], %var_5125: int16, %var_5126: Tensor[(1980), int16], %var_5127: Tensor[(60), uint64]) -> (Tensor[(5, 2, 7), uint32], Tensor[(14, 6, 12), bool], Tensor[(1, 1008), bool], Tensor[(5, 2, 7), float64], Tensor[(60), uint64], int16, Tensor[(1980), int16], Tensor[(60), uint64]) {
  %1234 = cast(%var_5111, dtype="uint32") /* ty=Tensor[(5, 2, 7), uint32] */;
  %1235 = shape_of(%var_5107, dtype="int32") /* ty=Tensor[(3), int32] */;
  %1236 = cast(%var_5107, dtype="uint32") /* ty=Tensor[(5, 2, 7), uint32] */;
  %1237 = dyn.reshape(%1234, %1235, newshape=[]) /* ty=Tensor[(?, ?, ?), uint32] */;
  %1238 = cast(%var_5116, dtype="bool") /* ty=Tensor[(1, 1008), bool] */;
  %1239 = cast(%var_5116, dtype="bool") /* ty=Tensor[(1, 1008), bool] */;
  %1240 = reshape(%1238, newshape=[14, 6, 12]) /* ty=Tensor[(14, 6, 12), bool] */;
  %1241 = reshape(%1239, newshape=[14, 6, 12]) /* ty=Tensor[(14, 6, 12), bool] */;
  %1242 = cast(%var_5107, dtype="int64") /* ty=Tensor[(5, 2, 7), int64] */;
  %1243 = shape_of(%var_5106, dtype="int32") /* ty=Tensor[(3), int32] */;
  %1244 = cast(%var_5106, dtype="int64") /* ty=Tensor[(5, 2, 7), int64] */;
  %1245 = dyn.reshape(%1242, %1243, newshape=[]) /* ty=Tensor[(?, ?, ?), int64] */;
  %1246 = bitwise_xor(%1244, %1245) /* ty=Tensor[(5, 2, 7), int64] */;
  %1247 = cast(%1246, dtype="float64") /* ty=Tensor[(5, 2, 7), float64] */;
  %1248 = cast(%var_5125, dtype="int16") /* ty=int16 */;
  %1249 = cast(%var_5126, dtype="int16") /* ty=Tensor[(1980), int16] */;
  %1250 = cast(%var_5127, dtype="uint64") /* ty=Tensor[(60), uint64] */;
  %1251 = reshape(%1248, newshape=[]) /* ty=int16 */;
  %1252 = reshape(%1249, newshape=[15, 12, 11]) /* ty=Tensor[(15, 12, 11), int16] */;
  %1253 = reshape(%1250, newshape=[60]) /* ty=Tensor[(60), uint64] */;
  %1254 = @func_1094(%1251, %1252, %1253) /* ty=(Tensor[(15, 12, 11), int16], Tensor[(2, 5, 6), uint64], Tensor[(60), uint64], Tensor[(2, 3, 10), float64], Tensor[(2, 3, 10), float64]) */;
  %1255 = bitwise_and(%1236, %1237) /* ty=Tensor[(5, 2, 7), uint32] */;
  %1256 = @func_1619(%1240, %1241) /* ty=Tensor[(14, 6, 12), bool] */;
  %1257 = rsqrt(%1247) /* ty=Tensor[(5, 2, 7), float64] */;
  %1258 = %1254.2;
  (%1255, %1256, %var_5116, %1257, %1258, %var_5125, %var_5126, %var_5127)
}

def @func_19839() -> (Tensor[(3, 7, 7), int8], Tensor[(2, 3, 10), float64], Tensor[(60), float64], Tensor[(5, 2, 7), float64], Tensor[(70), float64], Tensor[(16, ?, 3), int16], Tensor[(48), float32], Tensor[(3, 7, 7), float64], Tensor[(1176), float64]) {
  %1259 = cast(meta[relay.Constant][70] /* ty=Tensor[(60), float64] */, dtype="float64") /* ty=Tensor[(60), float64] */;
  %1260 = reshape(%1259, newshape=[2, 3, 10]) /* ty=Tensor[(2, 3, 10), float64] */;
  %1261 = cast(meta[relay.Constant][71] /* ty=Tensor[(70), float64] */, dtype="float64") /* ty=Tensor[(70), float64] */;
  %1262 = reshape(%1261, newshape=[5, 2, 7]) /* ty=Tensor[(5, 2, 7), float64] */;
  %1263 = @func_7482(%1262) /* ty=(Tensor[(5, 2, 7), float64],) */;
  %1264 = cast(meta[relay.Constant][72] /* ty=Tensor[(48), float32] */, dtype="float32") /* ty=Tensor[(48), float32] */;
  %1265 = reshape(%1264, newshape=[48]) /* ty=Tensor[(48), float32] */;
  %1266 = @func_10483(%1265) /* ty=(Tensor[(3, 7, 7), float64], Tensor[(16, ?, 3), int64], Tensor[(3, 7, 7), float64], Tensor[(160), float64], int64, Tensor[(16, ?, 3), int16]) */;
  %1267 = cast(meta[relay.Constant][73] /* ty=Tensor[(1176), float64] */, dtype="float64") /* ty=Tensor[(1176), float64] */;
  %1268 = reshape(%1267, newshape=[1176]) /* ty=Tensor[(1176), float64] */;
  %1269 = @func_14326(%1268) /* ty=(Tensor[(3, 7, 7), float64], Tensor[(14, 12, 7), float64], Tensor[(1176), float64], Tensor[(14, 12, 7), float64]) */;
  %1270 = @func_9097() /* ty=Tensor[(3, 7, 7), int8] */;
  %1271 = @func_938(%1260) /* ty=Tensor[(2, 3, 10), float64] */;
  %1272 = %1263.0;
  %1273 = %1266.5;
  %1274 = %1269.0;
  (%1270, %1271, meta[relay.Constant][70] /* ty=Tensor[(60), float64] */, %1272, meta[relay.Constant][71] /* ty=Tensor[(70), float64] */, %1273, meta[relay.Constant][72] /* ty=Tensor[(48), float32] */, %1274, meta[relay.Constant][73] /* ty=Tensor[(1176), float64] */)
}

def @func_13154(%var_13130: Tensor[(1980), int16]) -> (Tensor[(3, 7, 7), float64], Tensor[(60, 1980), bool], Tensor[(3, 7, 7), float64]) {
  %1275 = cast(%var_13130, dtype="int16") /* ty=Tensor[(1980), int16] */;
  %1276 = reshape(%1275, newshape=[1980]) /* ty=Tensor[(1980), int16] */;
  %1277 = @func_8572(%1276) /* ty=(Tensor[(3, 7, 7), float64], Tensor[(15, 12, 11), int16], int16, Tensor[(1980), int16], Tensor[(60, 1), uint64]) */;
  %1278 = %1277.4;
  %1279 = cast(%1278, dtype="bool") /* ty=Tensor[(60, 1), bool] */;
  %1280 = cast(%var_13130, dtype="bool") /* ty=Tensor[(1980), bool] */;
  %1281 = @func_8930() /* ty=Tensor[(3, 7, 7), float64] */;
  %1282 = greater_equal(%1279, %1280) /* ty=Tensor[(60, 1980), bool] */;
  %1283 = @func_7344() /* ty=Tensor[(3, 7, 7), float64] */;
  (%1281, %1282, %1283)
}

def @func_11830() -> Tensor[(3, 7, 7), float64] {
  %1284 = @func_9832() /* ty=(Tensor[(3, 7, 7), float64],) */;
  %1284.0
}

def @func_8419(%var_8396: Tensor[(540), int64], %var_8397: Tensor[(1280), float64]) -> (Tensor[(3, 7, 7), float64], Tensor[(2, 5, 6), uint64], int32, Tensor[(21, 1), int32], Tensor[(60), uint64], Tensor[(540), int64], Tensor[(1280), float64], Tensor[(192), float64], Tensor[(1280), float32], Tensor[(160), float64]) {
  %1285 = @func_7653() /* ty=(Tensor[(3, 7, 7), float64],) */;
  %1286 = cast(-10 /* ty=int32 */, dtype="int32") /* ty=int32 */;
  %1287 = cast(meta[relay.Constant][74] /* ty=Tensor[(21, 1), int32] */, dtype="int32") /* ty=Tensor[(21, 1), int32] */;
  %1288 = cast(meta[relay.Constant][75] /* ty=Tensor[(60), uint64] */, dtype="uint64") /* ty=Tensor[(60), uint64] */;
  %1289 = cast(%var_8396, dtype="int64") /* ty=Tensor[(540), int64] */;
  %1290 = cast(%var_8397, dtype="float64") /* ty=Tensor[(1280), float64] */;
  %1291 = cast(meta[relay.Constant][76] /* ty=Tensor[(192), float64] */, dtype="float64") /* ty=Tensor[(192), float64] */;
  %1292 = reshape(%1286, newshape=[]) /* ty=int32 */;
  %1293 = reshape(%1287, newshape=[7, 3, 1]) /* ty=Tensor[(7, 3, 1), int32] */;
  %1294 = reshape(%1288, newshape=[60]) /* ty=Tensor[(60), uint64] */;
  %1295 = reshape(%1289, newshape=[540]) /* ty=Tensor[(540), int64] */;
  %1296 = reshape(%1290, newshape=[1280]) /* ty=Tensor[(1280), float64] */;
  %1297 = reshape(%1291, newshape=[4, 48]) /* ty=Tensor[(4, 48), float64] */;
  %1298 = @func_4568(%1292, %1293, %1294, %1295, %1296, %1297) /* ty=(Tensor[(7, 3, 1), int32], Tensor[(2, 5, 6), uint64], Tensor[(1980), int16], Tensor[(60), uint64], Tensor[(1280), float64], Tensor[(540), int64], Tensor[(1280), float64], Tensor[(60), uint64], Tensor[(4, 48), float64]) */;
  %1299 = cast(meta[relay.Constant][77] /* ty=Tensor[(160), float64] */, dtype="float64") /* ty=Tensor[(160), float64] */;
  %1300 = cast(-10 /* ty=int32 */, dtype="int64") /* ty=int64 */;
  %1301 = cast(%var_8397, dtype="float64") /* ty=Tensor[(1280), float64] */;
  %1302 = cast(meta[relay.Constant][75] /* ty=Tensor[(60), uint64] */, dtype="uint64") /* ty=Tensor[(60), uint64] */;
  %1303 = reshape(%1299, newshape=[5, 2, 16]) /* ty=Tensor[(5, 2, 16), float64] */;
  %1304 = reshape(%1300, newshape=[]) /* ty=int64 */;
  %1305 = reshape(%1301, newshape=[1280]) /* ty=Tensor[(1280), float64] */;
  %1306 = reshape(%1302, newshape=[30, 2]) /* ty=Tensor[(30, 2), uint64] */;
  %1307 = @func_5673(%1303, %1304, %1305, %1306) /* ty=(Tensor[(5, 2, 16), float64], Tensor[(6, 10, 13), int64], int64, Tensor[(780), int64], Tensor[(16, 16, 5), float64], Tensor[(30, 2), uint64], Tensor[(1280), float32]) */;
  %1308 = %1285.0;
  %1309 = %1298.1;
  %1310 = %1307.6;
  (%1308, %1309, -10 /* ty=int32 */, meta[relay.Constant][74] /* ty=Tensor[(21, 1), int32] */, meta[relay.Constant][75] /* ty=Tensor[(60), uint64] */, %var_8396, %var_8397, meta[relay.Constant][76] /* ty=Tensor[(192), float64] */, %1310, meta[relay.Constant][77] /* ty=Tensor[(160), float64] */)
}

def @func_17587(%var_17534: Tensor[(7, 10, 4), uint64], %var_17535: Tensor[(7, 10, 4), uint64], %var_17576: Tensor[(70), float64]) -> (Tensor[(7, 10, 4), bool], Tensor[(3, 7, 7), float64], Tensor[(5, 2, 7), float64], Tensor[(70), float64]) {
  %1311 = cast(%var_17535, dtype="bool") /* ty=Tensor[(7, 10, 4), bool] */;
  %1312 = shape_of(%var_17534, dtype="int32") /* ty=Tensor[(3), int32] */;
  %1313 = cast(%var_17534, dtype="bool") /* ty=Tensor[(7, 10, 4), bool] */;
  %1314 = dyn.reshape(%1311, %1312, newshape=[]) /* ty=Tensor[(?, ?, ?), bool] */;
  %1315 = cast(%var_17576, dtype="float64") /* ty=Tensor[(70), float64] */;
  %1316 = reshape(%1315, newshape=[5, 2, 7]) /* ty=Tensor[(5, 2, 7), float64] */;
  %1317 = @func_7482(%1316) /* ty=(Tensor[(5, 2, 7), float64],) */;
  %1318 = greater_equal(%1313, %1314) /* ty=Tensor[(7, 10, 4), bool] */;
  %1319 = @func_13697() /* ty=Tensor[(3, 7, 7), float64] */;
  %1320 = %1317.0;
  (%1318, %1319, %1320, %var_17576)
}

def @func_16743() -> Tensor[(3, 7, 7), float64] {
  %1321 = @func_9713() /* ty=(Tensor[(3, 7, 7), float64],) */;
  %1321.0
}

def @func_7115() -> Tensor[(3, 7, 7), float64] {
  %1322 = @func_6751() /* ty=(Tensor[(3, 7, 7), float64],) */;
  %1322.0
}

def @func_15250() -> Tensor[(3, 7, 7), float64] {
  %1323 = @func_7523() /* ty=(Tensor[(3, 7, 7), float64],) */;
  %1323.0
}

def @func_7517() -> (Tensor[(3, 7, 7), float64], Tensor[(10, 7, 8), bool], Tensor[(560), uint64]) {
  %1324 = cast(meta[relay.Constant][78] /* ty=Tensor[(560), uint64] */, dtype="uint64") /* ty=Tensor[(560), uint64] */;
  %1325 = reshape(%1324, newshape=[10, 7, 8]) /* ty=Tensor[(10, 7, 8), uint64] */;
  %1326 = @func_3471(%1325) /* ty=(Tensor[(10, 7, 8), bool], Tensor[(10, 7, 8), float32]) */;
  %1327 = @func_7205() /* ty=Tensor[(3, 7, 7), float64] */;
  %1328 = %1326.0;
  (%1327, %1328, meta[relay.Constant][78] /* ty=Tensor[(560), uint64] */)
}

def @func_19729(%var_19724: Tensor[(2, 12, 10), uint8]) -> (Tensor[(2, 12, 10), float64],) {
  %1329 = @func_13290() /* ty=Tensor[(2, 12, 10), uint8] */;
  %1330 = cast(%var_19724, dtype="float64") /* ty=Tensor[(2, 12, 10), float64] */;
  %1331 = shape_of(%1329, dtype="int32") /* ty=Tensor[(3), int32] */;
  %1332 = cast(%1329, dtype="float64") /* ty=Tensor[(2, 12, 10), float64] */;
  %1333 = dyn.reshape(%1330, %1331, newshape=[]) /* ty=Tensor[(?, ?, ?), float64] */;
  %1334 = floor_mod(%1332, %1333) /* ty=Tensor[(2, 12, 10), float64] */;
  (%1334,)
}

def @func_6867(%var_6841: uint32, %var_6843: Tensor[(1008), bool], %var_6853: Tensor[(60), uint64]) -> (Tensor[(3, 7, 7), float64], Tensor[(14, 6, 12), bool], uint32, Tensor[(1152), uint32], Tensor[(1008), bool], Tensor[(540), int64], Tensor[(60), uint64], Tensor[(3, 20), uint64], Tensor[(2, 640), float64]) {
  %1335 = @func_6751() /* ty=(Tensor[(3, 7, 7), float64],) */;
  %1336 = cast(%var_6841, dtype="uint32") /* ty=uint32 */;
  %1337 = cast(meta[relay.Constant][79] /* ty=Tensor[(1152), uint32] */, dtype="uint32") /* ty=Tensor[(1152), uint32] */;
  %1338 = cast(%var_6843, dtype="bool") /* ty=Tensor[(1008), bool] */;
  %1339 = reshape(%1336, newshape=[]) /* ty=uint32 */;
  %1340 = reshape(%1337, newshape=[12, 16, 6]) /* ty=Tensor[(12, 16, 6), uint32] */;
  %1341 = reshape(%1338, newshape=[1008]) /* ty=Tensor[(1008), bool] */;
  %1342 = @func_3822(%1339, %1340, %1341) /* ty=(Tensor[(12, 16, 6), uint32], Tensor[(14, 6, 12), bool], Tensor[(1008), bool]) */;
  %1343 = cast(%var_6841, dtype="int64") /* ty=int64 */;
  %1344 = reshape(%1343, newshape=[]) /* ty=int64 */;
  %1345 = @func_6804(%1344) /* ty=(Tensor[(3, 7, 7), float64], Tensor[(6, 10, 13), int64], Tensor[(160), float64], int64, Tensor[(1280), float64], Tensor[(3, 20), uint64], Tensor[(60), uint64]) */;
  %1346 = cast(meta[relay.Constant][80] /* ty=Tensor[(540), int64] */, dtype="int64") /* ty=Tensor[(540), int64] */;
  %1347 = cast(meta[relay.Constant][81] /* ty=Tensor[(2, 640), float64] */, dtype="float64") /* ty=Tensor[(2, 640), float64] */;
  %1348 = cast(%var_6853, dtype="uint64") /* ty=Tensor[(60), uint64] */;
  %1349 = reshape(%1346, newshape=[6, 9, 10]) /* ty=Tensor[(6, 9, 10), int64] */;
  %1350 = reshape(%1347, newshape=[1280]) /* ty=Tensor[(1280), float64] */;
  %1351 = reshape(%1348, newshape=[60]) /* ty=Tensor[(60), uint64] */;
  %1352 = @func_1996(%1349, %1350, %1351) /* ty=(Tensor[(6, 9, 10), int64], Tensor[(2, 5, 6), uint64], Tensor[(1280), float64], Tensor[(60), uint64]) */;
  %1353 = %1352.2;
  %1354 = cast(%1353, dtype="float64") /* ty=Tensor[(1280), float64] */;
  %1355 = shape_of(meta[relay.Constant][81] /* ty=Tensor[(2, 640), float64] */, dtype="int32") /* ty=Tensor[(2), int32] */;
  %1356 = cast(meta[relay.Constant][81] /* ty=Tensor[(2, 640), float64] */, dtype="float64") /* ty=Tensor[(2, 640), float64] */;
  %1357 = dyn.reshape(%1354, %1355, newshape=[]) /* ty=Tensor[(?, ?), float64] */;
  %1358 = %1335.0;
  %1359 = %1342.1;
  %1360 = %1345.5;
  %1361 = mod(%1356, %1357) /* ty=Tensor[(2, 640), float64] */;
  (%1358, %1359, %var_6841, meta[relay.Constant][79] /* ty=Tensor[(1152), uint32] */, %var_6843, meta[relay.Constant][80] /* ty=Tensor[(540), int64] */, %var_6853, %1360, %1361)
}

def @func_14105() -> (Tensor[(3, 7, 7), float64], Tensor[(2, 12, 10), uint8], Tensor[(3, 7, 7), float64]) {
  %1362 = @func_11351() /* ty=(Tensor[(3, 7, 7), float64],) */;
  %1363 = @func_9832() /* ty=(Tensor[(3, 7, 7), float64],) */;
  %1364 = %1362.0;
  %1365 = @func_13290() /* ty=Tensor[(2, 12, 10), uint8] */;
  %1366 = %1363.0;
  (%1364, %1365, %1366)
}

def @func_6751() -> (Tensor[(3, 7, 7), float64],) {
  %1367 = cast(meta[relay.Constant][82] /* ty=Tensor[(3, 7, 7), float64] */, dtype="float64") /* ty=Tensor[(3, 7, 7), float64] */;
  %1368 = log(%1367) /* ty=Tensor[(3, 7, 7), float64] */;
  (%1368,)
}

def @func_18489() -> Tensor[(3, 7, 7), float64] {
  %1369 = @func_12960() /* ty=(Tensor[(3, 7, 7), float64],) */;
  %1369.0
}

def @func_16729() -> Tensor[(3, 7, 7), float64] {
  %1370 = @func_9320() /* ty=(Tensor[(3, 7, 7), float64],) */;
  %1370.0
}

def @func_14521() -> Tensor[(3, 7, 7), float64] {
  @func_7205() /* ty=Tensor[(3, 7, 7), float64] */
}

def @func_17623() -> (Tensor[(550), float32],) {
  %1371 = @func_8212() /* ty=(Tensor[(3, 7, 7), float64], Tensor[(10, 5, 11), float32], Tensor[(550), float32]) */;
  %1372 = %1371.2;
  (%1372,)
}

def @func_18310() -> (Tensor[(3, 7, 7), float64], Tensor[(14, 5), float64]) {
  %1373 = @func_16322() /* ty=(Tensor[(3, 7, 7), float64],) */;
  %1374 = %1373.0;
  %1375 = @func_11986() /* ty=Tensor[(14, 5), float64] */;
  (%1374, %1375)
}

def @func_17683() -> (Tensor[(3, 7, 7), float64], Tensor[(3, 7, 7), float64]) {
  %1376 = @func_16664() /* ty=(Tensor[(3, 7, 7), float64], Tensor[(560), uint64], Tensor[(65, 1), float64], Tensor[(1280), float64]) */;
  %1377 = @func_8930() /* ty=Tensor[(3, 7, 7), float64] */;
  %1378 = %1376.0;
  (%1377, %1378)
}

def @func_18060() -> Tensor[(3, 7, 7), float64] {
  @func_15838() /* ty=Tensor[(3, 7, 7), float64] */
}

def @func_7316(%var_7294: uint32) -> (Tensor[(3, 7, 7), float64], Tensor[(3, 20), uint64], uint32, Tensor[(1008), bool], Tensor[(60), uint64]) {
  %1379 = cast(%var_7294, dtype="uint32") /* ty=uint32 */;
  %1380 = cast(meta[relay.Constant][83] /* ty=Tensor[(1008), bool] */, dtype="bool") /* ty=Tensor[(1008), bool] */;
  %1381 = cast(meta[relay.Constant][84] /* ty=Tensor[(60), uint64] */, dtype="uint64") /* ty=Tensor[(60), uint64] */;
  %1382 = reshape(%1379, newshape=[]) /* ty=uint32 */;
  %1383 = reshape(%1380, newshape=[1008]) /* ty=Tensor[(1008), bool] */;
  %1384 = reshape(%1381, newshape=[60]) /* ty=Tensor[(60), uint64] */;
  %1385 = @func_6867(%1382, %1383, %1384) /* ty=(Tensor[(3, 7, 7), float64], Tensor[(14, 6, 12), bool], uint32, Tensor[(1152), uint32], Tensor[(1008), bool], Tensor[(540), int64], Tensor[(60), uint64], Tensor[(3, 20), uint64], Tensor[(2, 640), float64]) */;
  %1386 = @func_7106() /* ty=Tensor[(3, 7, 7), float64] */;
  %1387 = %1385.7;
  (%1386, %1387, %var_7294, meta[relay.Constant][83] /* ty=Tensor[(1008), bool] */, meta[relay.Constant][84] /* ty=Tensor[(60), uint64] */)
}

def @func_7602(%var_7597: Tensor[(560), uint64]) -> (Tensor[(3, 7, 7), float32], Tensor[(10, 7, 8), bool], Tensor[(560), uint64], Tensor[(3, 7, 7), float64]) {
  %1388 = @func_7523() /* ty=(Tensor[(3, 7, 7), float64],) */;
  %1389 = %1388.0;
  %1390 = cast(%1389, dtype="float32") /* ty=Tensor[(3, 7, 7), float32] */;
  %1391 = cast(%var_7597, dtype="uint64") /* ty=Tensor[(560), uint64] */;
  %1392 = reshape(%1391, newshape=[10, 7, 8]) /* ty=Tensor[(10, 7, 8), uint64] */;
  %1393 = @func_3471(%1392) /* ty=(Tensor[(10, 7, 8), bool], Tensor[(10, 7, 8), float32]) */;
  %1394 = cast(%1389, dtype="float64") /* ty=Tensor[(3, 7, 7), float64] */;
  %1395 = sinh(%1390) /* ty=Tensor[(3, 7, 7), float32] */;
  %1396 = %1393.0;
  %1397 = log2(%1394) /* ty=Tensor[(3, 7, 7), float64] */;
  (%1395, %1396, %var_7597, %1397)
}

def @func_7216() -> Tensor[(3, 7, 7), float64] {
  %1398 = @func_7106() /* ty=Tensor[(3, 7, 7), float64] */;
  %1399 = cast(%1398, dtype="float64") /* ty=Tensor[(3, 7, 7), float64] */;
  sigmoid(%1399) /* ty=Tensor[(3, 7, 7), float64] */
}

def @func_18717() -> (Tensor[(3, 7, 7), float64], Tensor[(3, 7, 7), float64]) {
  %1400 = @func_14546() /* ty=(Tensor[(3, 7, 7), float64], Tensor[(3, 7, 7), float64], Tensor[(3, 7, 7), float64]) */;
  %1401 = @func_8192() /* ty=(Tensor[(3, 7, 7), float64], Tensor[(3, 7, 7), float64], Tensor[(3, 7, 7), float64]) */;
  %1402 = %1400.0;
  %1403 = %1401.1;
  (%1402, %1403)
}

def @func_19631() -> (Tensor[(3, 7, 7), float64],) {
  %1404 = @func_11617() /* ty=(Tensor[(3, 7, 7), float64], Tensor[(3, 7, 7), float64]) */;
  %1405 = %1404.1;
  (%1405,)
}

def @func_19379() -> Tensor[(3, 7, 7), float64] {
  %1406 = @func_13214() /* ty=(Tensor[(3, 7, 7), float64],) */;
  %1406.0
}

def @func_9182(%var_9173: Tensor[(1008), bool], %var_9174: Tensor[(256), uint64]) -> (Tensor[(3, 7, 7), float64], Tensor[(560), uint64], Tensor[(560, 1), uint64], Tensor[(1008), bool], Tensor[(1152), uint32], Tensor[(1008), bool], Tensor[(256), uint64]) {
  %1407 = @func_7523() /* ty=(Tensor[(3, 7, 7), float64],) */;
  %1408 = cast(meta[relay.Constant][85] /* ty=Tensor[(560, 1), uint64] */, dtype="uint64") /* ty=Tensor[(560, 1), uint64] */;
  %1409 = reshape(%1408, newshape=[560]) /* ty=Tensor[(560), uint64] */;
  %1410 = @func_7602(%1409) /* ty=(Tensor[(3, 7, 7), float32], Tensor[(10, 7, 8), bool], Tensor[(560), uint64], Tensor[(3, 7, 7), float64]) */;
  %1411 = cast(meta[relay.Constant][86] /* ty=Tensor[(1152), uint32] */, dtype="uint32") /* ty=Tensor[(1152), uint32] */;
  %1412 = cast(%var_9173, dtype="bool") /* ty=Tensor[(1008), bool] */;
  %1413 = cast(%var_9174, dtype="uint64") /* ty=Tensor[(256), uint64] */;
  %1414 = reshape(%1411, newshape=[1152]) /* ty=Tensor[(1152), uint32] */;
  %1415 = reshape(%1412, newshape=[1008]) /* ty=Tensor[(1008), bool] */;
  %1416 = reshape(%1413, newshape=[256]) /* ty=Tensor[(256), uint64] */;
  %1417 = @func_7999(%1414, %1415, %1416) /* ty=(Tensor[(3, 7, 7), float64], Tensor[(1008), bool], uint32, Tensor[(1152), uint32], Tensor[(1008), bool], Tensor[(4, 8, 8), bool], Tensor[(256), uint64], Tensor[(12, 16, 6), uint32]) */;
  %1418 = %1407.0;
  %1419 = %1410.2;
  %1420 = %1417.1;
  (%1418, %1419, meta[relay.Constant][85] /* ty=Tensor[(560, 1), uint64] */, %1420, meta[relay.Constant][86] /* ty=Tensor[(1152), uint32] */, %var_9173, %var_9174)
}

def @func_13745() -> Tensor[(3, 7, 7), int8] {
  @func_10020() /* ty=Tensor[(3, 7, 7), int8] */
}

def @func_17706() -> (Tensor[(3, 7, 7), float64],) {
  %1421 = @func_15355() /* ty=(Tensor[(3, 7, 7), float64],) */;
  %1422 = %1421.0;
  (%1422,)
}

def @func_10687() -> (Tensor[(3, 7, 7), float64],) {
  %1423 = @func_8553() /* ty=(Tensor[(3, 7, 7), float64], Tensor[(10, 7, 8), bool], Tensor[(550), float32], Tensor[(550), float32]) */;
  %1424 = %1423.0;
  (%1424,)
}

def @func_13404(%var_13389: Tensor[(1980), int16]) -> (Tensor[(3, 7, 7), float64], Tensor[(1980), int16], Tensor[(1980), int16], Tensor[(3, 7, 7), float64]) {
  %1425 = @func_11351() /* ty=(Tensor[(3, 7, 7), float64],) */;
  %1426 = cast(%var_13389, dtype="int16") /* ty=Tensor[(1980), int16] */;
  %1427 = reshape(%1426, newshape=[1980]) /* ty=Tensor[(1980), int16] */;
  %1428 = @func_8572(%1427) /* ty=(Tensor[(3, 7, 7), float64], Tensor[(15, 12, 11), int16], int16, Tensor[(1980), int16], Tensor[(60, 1), uint64]) */;
  %1429 = @func_10909() /* ty=(Tensor[(3, 7, 7), float64],) */;
  %1430 = %1425.0;
  %1431 = %1428.3;
  %1432 = %1429.0;
  (%1430, %1431, %var_13389, %1432)
}

def @func_14468() -> (Tensor[(3, 7, 7), float64], Tensor[(3, 7, 7), float64]) {
  %1433 = @func_13214() /* ty=(Tensor[(3, 7, 7), float64],) */;
  %1434 = %1433.0;
  %1435 = @func_10106() /* ty=Tensor[(3, 7, 7), float64] */;
  (%1434, %1435)
}

def @func_9758(%var_9750: float64, %var_9751: Tensor[(1, 5, 13), float64]) -> (Tensor[(1, 5, 13), float64],) {
  %1436 = cast(%var_9750, dtype="float64") /* ty=float64 */;
  %1437 = cast(%var_9751, dtype="float64") /* ty=Tensor[(1, 5, 13), float64] */;
  %1438 = divide(%1436, %1437) /* ty=Tensor[(1, 5, 13), float64] */;
  (%1438,)
}

def @func_16951(%var_16931: Tensor[(4, 6, 1), float64]) -> (Tensor[(4, 6, ?), bool], Tensor[(3, 7, 7), float64]) {
  %1439 = cast(%var_16931, dtype="float64") /* ty=Tensor[(4, 6, 1), float64] */;
  %1440 = tan(%1439) /* ty=Tensor[(4, 6, 1), float64] */;
  %1441 = cast(%var_16931, dtype="bool") /* ty=Tensor[(4, 6, 1), bool] */;
  %1442 = shape_of(%1440, dtype="int32") /* ty=Tensor[(3), int32] */;
  %1443 = cast(%1440, dtype="bool") /* ty=Tensor[(4, 6, 1), bool] */;
  %1444 = dyn.reshape(%1441, %1442, newshape=[]) /* ty=Tensor[(?, ?, ?), bool] */;
  %1445 = greater_equal(%1443, %1444) /* ty=Tensor[(4, 6, ?), bool] */;
  %1446 = @func_8696() /* ty=Tensor[(3, 7, 7), float64] */;
  (%1445, %1446)
}

def @func_13290() -> Tensor[(2, 12, 10), uint8] {
  %1447 = @func_10515() /* ty=(Tensor[(3, 7, 7), float64], Tensor[(2, 12, 10), uint8]) */;
  %1447.1
}

def @func_1619(%var_1612: Tensor[(14, 6, 12), bool], %var_1613: Tensor[(14, 6, 12), bool]) -> Tensor[(14, 6, 12), bool] {
  %1448 = cast(%var_1613, dtype="bool") /* ty=Tensor[(14, 6, 12), bool] */;
  %1449 = shape_of(%var_1612, dtype="int32") /* ty=Tensor[(3), int32] */;
  %1450 = cast(%var_1612, dtype="bool") /* ty=Tensor[(14, 6, 12), bool] */;
  %1451 = dyn.reshape(%1448, %1449, newshape=[]) /* ty=Tensor[(?, ?, ?), bool] */;
  logical_and(%1450, %1451) /* ty=Tensor[(14, 6, 12), bool] */
}

def @func_14984(%var_14950: Tensor[(60), uint64]) -> (Tensor[(3, 7, 7), float64], Tensor[(14, 6, 12), bool], Tensor[(1008), bool], Tensor[(550), float64], int64, Tensor[(60), uint64], int64) {
  %1452 = @func_10909() /* ty=(Tensor[(3, 7, 7), float64],) */;
  %1453 = cast(meta[relay.Constant][87] /* ty=Tensor[(1008), bool] */, dtype="bool") /* ty=Tensor[(1008), bool] */;
  %1454 = cast(meta[relay.Constant][87] /* ty=Tensor[(1008), bool] */, dtype="bool") /* ty=Tensor[(1008), bool] */;
  %1455 = reshape(%1453, newshape=[14, 6, 12]) /* ty=Tensor[(14, 6, 12), bool] */;
  %1456 = reshape(%1454, newshape=[14, 6, 12]) /* ty=Tensor[(14, 6, 12), bool] */;
  %1457 = @func_8782() /* ty=(Tensor[(550), float64],) */;
  %1458 = cast(meta[relay.Constant][87] /* ty=Tensor[(1008), bool] */, dtype="bool") /* ty=Tensor[(1008), bool] */;
  %1459 = cast(%var_14950, dtype="uint64") /* ty=Tensor[(60), uint64] */;
  %1460 = cast(9 /* ty=int64 */, dtype="int64") /* ty=int64 */;
  %1461 = reshape(%1458, newshape=[2, 504]) /* ty=Tensor[(2, 504), bool] */;
  %1462 = reshape(%1459, newshape=[60]) /* ty=Tensor[(60), uint64] */;
  %1463 = reshape(%1460, newshape=[]) /* ty=int64 */;
  %1464 = @func_12343(%1461, %1462, %1463) /* ty=(Tensor[(3, 7, 7), int8], Tensor[(550), float32], Tensor[(14, 6, 12), bool], Tensor[(2, 504), bool], Tensor[(3, 7, 7), float64], Tensor[(60), uint64], int64, Tensor[(280), float32]) */;
  %1465 = %1452.0;
  %1466 = @func_1619(%1455, %1456) /* ty=Tensor[(14, 6, 12), bool] */;
  %1467 = %1457.0;
  %1468 = %1464.6;
  (%1465, %1466, meta[relay.Constant][87] /* ty=Tensor[(1008), bool] */, %1467, %1468, %var_14950, 9 /* ty=int64 */)
}

def @func_18384() -> (Tensor[(3, 7, 7), float64], Tensor[(3, 7, 7), float64], Tensor[(1280), float64]) {
  %1469 = @func_15355() /* ty=(Tensor[(3, 7, 7), float64],) */;
  %1470 = @func_8977() /* ty=(Tensor[(3, 7, 7), float64],) */;
  %1471 = @func_16295() /* ty=(Tensor[(3, 7, 7), float64], Tensor[(2, 5, 6), uint64], Tensor[(1280), float64], Tensor[(60), uint64]) */;
  %1472 = %1469.0;
  %1473 = %1470.0;
  %1474 = %1471.2;
  (%1472, %1473, %1474)
}

def @func_20135() -> (Tensor[(550), float64], Tensor[(10, 7, 8), bool], Tensor[(560), bool], Tensor[(1980), int16], Tensor[(550), float64], Tensor[(4, 1, 14), uint8], Tensor[(14), uint8], Tensor[(56), uint8], Tensor[(2, 5, 6), uint64], Tensor[(78, 2), int64]) {
  %1475 = @func_18406() /* ty=(Tensor[(3, 7, 7), float64], Tensor[(550), float64]) */;
  %1476 = cast(meta[relay.Constant][88] /* ty=Tensor[(560), bool] */, dtype="bool") /* ty=Tensor[(560), bool] */;
  %1477 = reshape(%1476, newshape=[10, 7, 8]) /* ty=Tensor[(10, 7, 8), bool] */;
  %1478 = @func_19365() /* ty=(Tensor[(1980), int16],) */;
  %1479 = @func_10383() /* ty=Tensor[(550), float32] */;
  %1480 = cast(%1479, dtype="float64") /* ty=Tensor[(550), float64] */;
  %1481 = acosh(%1480) /* ty=Tensor[(550), float64] */;
  %1482 = cast(%1481, dtype="float64") /* ty=Tensor[(550), float64] */;
  %1483 = cast(meta[relay.Constant][89] /* ty=Tensor[(14), uint8] */, dtype="uint8") /* ty=Tensor[(14), uint8] */;
  %1484 = cast(meta[relay.Constant][90] /* ty=Tensor[(56), uint8] */, dtype="uint8") /* ty=Tensor[(56), uint8] */;
  %1485 = reshape(%1483, newshape=[1, 1, 14]) /* ty=Tensor[(1, 1, 14), uint8] */;
  %1486 = reshape(%1484, newshape=[4, 1, 14]) /* ty=Tensor[(4, 1, 14), uint8] */;
  %1487 = @func_11566(%1485, %1486) /* ty=(Tensor[(4, 1, 14), uint8],) */;
  %1488 = cast(meta[relay.Constant][91] /* ty=Tensor[(78, 2), int64] */, dtype="int64") /* ty=Tensor[(78, 2), int64] */;
  %1489 = cast(meta[relay.Constant][91] /* ty=Tensor[(78, 2), int64] */, dtype="int64") /* ty=Tensor[(78, 2), int64] */;
  %1490 = reshape(%1488, newshape=[3, 4, 13]) /* ty=Tensor[(3, 4, 13), int64] */;
  %1491 = reshape(%1489, newshape=[3, 4, 13]) /* ty=Tensor[(3, 4, 13), int64] */;
…
  @func_8553() /* ty=(Tensor[(3, 7, 7), float64], Tensor[(10, 7, 8), bool], Tensor[(550), float32], Tensor[(550), float32]) */
}

def @func_1099(%var_1096: int16, %var_1097: Tensor[(15, 12, 11), int16], %var_1098: Tensor[(60), uint64]) -> (Tensor[(15, 12, 11), int16], Tensor[(2, 5, 6), uint64], Tensor[(60), uint64], Tensor[(2, 3, 10), float64], Tensor[(2, 3, 10), float64]) {
  @func_1094(%var_1096, %var_1097, %var_1098) /* ty=(Tensor[(15, 12, 11), int16], Tensor[(2, 5, 6), uint64], Tensor[(60), uint64], Tensor[(2, 3, 10), float64], Tensor[(2, 3, 10), float64]) */
}

def @func_11414(%var_11408: Tensor[(4, 10, 13), float64], %var_11409: Tensor[(4, 10, 13), float64], %var_11410: Tensor[(147), float64], %var_11411: Tensor[(540), int64], %var_11412: Tensor[(1280), float64], %var_11413: Tensor[(60), uint64]) -> (Tensor[(4, 10, 13), bool], Tensor[(3, 7, 7), int16], Tensor[(147), float64], Tensor[(2, 5, 6), uint64], Tensor[(540), int64], Tensor[(1280), float64], Tensor[(60), uint64], Tensor[(1280), float64]) {
  %1398 = fn (%var_11379: Tensor[(4, 10, 13), float64], %var_11380: Tensor[(4, 10, 13), float64], %var_11394: Tensor[(147), float64], %var_11398: Tensor[(540), int64], %var_11399: Tensor[(1280), float64], %var_11400: Tensor[(60), uint64]) -> (Tensor[(4, 10, 13), bool], Tensor[(3, 7, 7), int16], Tensor[(147), float64], Tensor[(2, 5, 6), uint64], Tensor[(540), int64], Tensor[(1280), float64], Tensor[(60), uint64], Tensor[(1280), float64]) {
    %1373 = cast(%var_11380, dtype="bool") /* ty=Tensor[(4, 10, 13), bool] */;
    %1374 = shape_of(%var_11379, dtype="int32") /* ty=Tensor[(3), int32] */;
    %1375 = cast(%var_11379, dtype="bool") /* ty=Tensor[(4, 10, 13), bool] */;
    %1376 = dyn.reshape(%1373, %1374, newshape=[]) /* ty=Tensor[(?, ?, ?), bool] */;
    %1377 = cast(%var_11394, dtype="float64") /* ty=Tensor[(147), float64] */;
    %1378 = reshape(%1377, newshape=[3, 7, 7]) /* ty=Tensor[(3, 7, 7), float64] */;
    %1379 = @func_7260(%1378) /* ty=(Tensor[(3, 7, 7), int16],) */;
    %1380 = cast(%var_11398, dtype="int64") /* ty=Tensor[(540), int64] */;
    %1381 = cast(%var_11399, dtype="float64") /* ty=Tensor[(1280), float64] */;
    %1382 = cast(%var_11400, dtype="uint64") /* ty=Tensor[(60), uint64] */;
    %1383 = reshape(%1380, newshape=[6, 9, 10]) /* ty=Tensor[(6, 9, 10), int64] */;
    %1384 = reshape(%1381, newshape=[1280]) /* ty=Tensor[(1280), float64] */;
    %1385 = reshape(%1382, newshape=[60]) /* ty=Tensor[(60), uint64] */;
    %1386 = @func_1996(%1383, %1384, %1385) /* ty=(Tensor[(6, 9, 10), int64], Tensor[(2, 5, 6), uint64], Tensor[(1280), float64], Tensor[(60), uint64]) */;
    %1387 = cast(%var_11398, dtype="int64") /* ty=Tensor[(540), int64] */;
    %1388 = cast(%var_11399, dtype="float64") /* ty=Tensor[(1280), float64] */;
    %1389 = cast(%var_11400, dtype="uint64") /* ty=Tensor[(60), uint64] */;
    %1390 = reshape(%1387, newshape=[6, 9, 10]) /* ty=Tensor[(6, 9, 10), int64] */;
    %1391 = reshape(%1388, newshape=[1280]) /* ty=Tensor[(1280), float64] */;
    %1392 = reshape(%1389, newshape=[60]) /* ty=Tensor[(60), uint64] */;
    %1393 = @func_1996(%1390, %1391, %1392) /* ty=(Tensor[(6, 9, 10), int64], Tensor[(2, 5, 6), uint64], Tensor[(1280), float64], Tensor[(60), uint64]) */;
    %1394 = greater_equal(%1375, %1376) /* ty=Tensor[(4, 10, 13), bool] */;
    %1395 = %1379.0;
    %1396 = %1386.1;
    %1397 = %1393.2;
    (%1394, %1395, %var_11394, %1396, %var_11398, %var_11399, %var_11400, %1397)
  };
  %1398(%var_11408, %var_11409, %var_11410, %var_11411, %var_11412, %var_11413) /* ty=(Tensor[(4, 10, 13), bool], Tensor[(3, 7, 7), int16], Tensor[(147), float64], Tensor[(2, 5, 6), uint64], Tensor[(540), int64], Tensor[(1280), float64], Tensor[(60), uint64], Tensor[(1280), float64]) */
}

def @func_15522() -> (Tensor[(3, 7, 7), float64], Tensor[(3, 7, 7), float64]) {
  @func_15520() /* ty=(Tensor[(3, 7, 7), float64], Tensor[(3, 7, 7), float64]) */
}

def @func_8678() -> (Tensor[(3, 7, 7), int8], Tensor[(3, 7, 7), float64]) {
  %1399 = @func_8630() /* ty=(Tensor[(3, 7, 7), int8],) */;
  %1400 = %1399.0;
  %1401 = @func_7344() /* ty=Tensor[(3, 7, 7), float64] */;
  (%1400, %1401)
}

def @func_10687() -> (Tensor[(3, 7, 7), float64],) {
  %1402 = @func_8553() /* ty=(Tensor[(3, 7, 7), float64], Tensor[(10, 7, 8), bool], Tensor[(550), float32], Tensor[(550), float32]) */;
  %1403 = %1402.0;
  (%1403,)
}

def @func_1759(%var_1757: int64, %var_1758: Tensor[(6, 10, 13), int64]) -> (Tensor[(6, 10, 13), int64],) {
  %1407 = fn (%var_1751: int64, %var_1752: Tensor[(6, 10, 13), int64]) -> (Tensor[(6, 10, 13), int64],) {
    %1404 = cast(%var_1751, dtype="int64") /* ty=int64 */;
    %1405 = cast(%var_1752, dtype="int64") /* ty=Tensor[(6, 10, 13), int64] */;
    %1406 = add(%1404, %1405) /* ty=Tensor[(6, 10, 13), int64] */;
    (%1406,)
  };
  %1407(%var_1757, %var_1758) /* ty=(Tensor[(6, 10, 13), int64],) */
}

def @func_9494() -> Tensor[(3, 7, 7), float64] {
  %1409 = fn () -> Tensor[(3, 7, 7), float64] {
    %1408 = @func_8678() /* ty=(Tensor[(3, 7, 7), int8], Tensor[(3, 7, 7), float64]) */;
    %1408.1
  };
  %1409() /* ty=Tensor[(3, 7, 7), float64] */
}

def @func_9607() -> (Tensor[(3, 7, 7), float64], Tensor[(3, 7, 7), float64]) {
  %1410 = @func_7106() /* ty=Tensor[(3, 7, 7), float64] */;
  %1411 = @func_7106() /* ty=Tensor[(3, 7, 7), float64] */;
  (%1410, %1411)
}

def @func_9933() -> (Tensor[(10, 7, 8), bool],) {
  %1412 = @func_8553() /* ty=(Tensor[(3, 7, 7), float64], Tensor[(10, 7, 8), bool], Tensor[(550), float32], Tensor[(550), float32]) */;
  %1413 = %1412.1;
  (%1413,)
}

def @func_7485(%var_7483: Tensor[(5, 2, 7), float64]) -> (Tensor[(5, 2, 7), float64],) {
  @func_7482(%var_7483) /* ty=(Tensor[(5, 2, 7), float64],) */
}

def @func_13260() -> (Tensor[(3, 7, 7), float64], Tensor[(550), float64]) {
  %1414 = @func_9713() /* ty=(Tensor[(3, 7, 7), float64],) */;
  %1415 = @func_8212() /* ty=(Tensor[(3, 7, 7), float64], Tensor[(10, 5, 11), float32], Tensor[(550), float32]) */;
  %1416 = %1415.2;
  %1417 = cast(%1416, dtype="float64") /* ty=Tensor[(550), float64] */;
  %1418 = %1414.0;
  %1419 = atan(%1417) /* ty=Tensor[(550), float64] */;
  (%1418, %1419)
}

def @func_10911() -> (Tensor[(3, 7, 7), float64],) {
  @func_10909() /* ty=(Tensor[(3, 7, 7), float64],) */
}

def @func_18061() -> Tensor[(3, 7, 7), float64] {
  %1420 = fn () -> Tensor[(3, 7, 7), float64] {
    @func_15838() /* ty=Tensor[(3, 7, 7), float64] */
  };
  %1420() /* ty=Tensor[(3, 7, 7), float64] */
}

def @func_14106() -> (Tensor[(3, 7, 7), float64], Tensor[(2, 12, 10), uint8], Tensor[(3, 7, 7), float64]) {
  %1426 = fn () -> (Tensor[(3, 7, 7), float64], Tensor[(2, 12, 10), uint8], Tensor[(3, 7, 7), float64]) {
    %1421 = @func_11351() /* ty=(Tensor[(3, 7, 7), float64],) */;
    %1422 = @func_9832() /* ty=(Tensor[(3, 7, 7), float64],) */;
    %1423 = %1421.0;
    %1424 = @func_13290() /* ty=Tensor[(2, 12, 10), uint8] */;
    %1425 = %1422.0;
    (%1423, %1424, %1425)
  };
  %1426() /* ty=(Tensor[(3, 7, 7), float64], Tensor[(2, 12, 10), uint8], Tensor[(3, 7, 7), float64]) */
}

def @func_18718() -> (Tensor[(3, 7, 7), float64], Tensor[(3, 7, 7), float64]) {
  %1431 = fn () -> (Tensor[(3, 7, 7), float64], Tensor[(3, 7, 7), float64]) {
    %1427 = @func_14546() /* ty=(Tensor[(3, 7, 7), float64], Tensor[(3, 7, 7), float64], Tensor[(3, 7, 7), float64]) */;
    %1428 = @func_8192() /* ty=(Tensor[(3, 7, 7), float64], Tensor[(3, 7, 7), float64], Tensor[(3, 7, 7), float64]) */;
    %1429 = %1427.0;
    %1430 = %1428.1;
    (%1429, %1430)
  };
  %1431() /* ty=(Tensor[(3, 7, 7), float64], Tensor[(3, 7, 7), float64]) */
}

def @func_11570(%var_11568: Tensor[(1, 1, 14), uint8], %var_11569: Tensor[(4, 1, 14), uint8]) -> (Tensor[(4, 1, 14), uint8],) {
  @func_11566(%var_11568, %var_11569) /* ty=(Tensor[(4, 1, 14), uint8],) */
}

def @func_18384() -> (Tensor[(3, 7, 7), float64], Tensor[(3, 7, 7), float64], Tensor[(1280), float64]) {
  %1432 = @func_15355() /* ty=(Tensor[(3, 7, 7), float64],) */;
  %1433 = @func_8977() /* ty=(Tensor[(3, 7, 7), float64],) */;
  %1434 = @func_16295() /* ty=(Tensor[(3, 7, 7), float64], Tensor[(2, 5, 6), uint64], Tensor[(1280), float64], Tensor[(60), uint64]) */;
  %1435 = %1432.0;
  %1436 = %1433.0;
  %1437 = %1434.2;
  (%1435, %1436, %1437)
}

def @func_7356() -> Tensor[(3, 7, 7), float64] {
  %1438 = fn () -> Tensor[(3, 7, 7), float64] {
    @func_7205() /* ty=Tensor[(3, 7, 7), float64] */
  };
  %1438() /* ty=Tensor[(3, 7, 7), float64] */
}

def @func_14429(%var_14427: Tensor[(560), uint64]) -> (Tensor[(3, 7, 7), float64], Tensor[(3, 7, 7), float64], Tensor[(10, 7, 8), float32], Tensor[(560), uint64]) {
  @func_14426(%var_14427) /* ty=(Tensor[(3, 7, 7), float64], Tensor[(3, 7, 7), float64], Tensor[(10, 7, 8), float32], Tensor[(560), uint64]) */
}

def @func_16109() -> (Tensor[(3, 7, 7), float64],) {
  %1440 = fn () -> (Tensor[(3, 7, 7), float64],) {
    %1439 = @func_11336() /* ty=Tensor[(3, 7, 7), float64] */;
    (%1439,)
  };
  %1440() /* ty=(Tensor[(3, 7, 7), float64],) */
}

def @func_18638() -> (Tensor[(550), float32], Tensor[(3, 7, 7), float64], Tensor[(10, 7, 8), bool], Tensor[(560), bool], Tensor[(3, 7, 7), float64], Tensor[(3, 7, 7), float64], Tensor[(3, 7, 7), float64], Tensor[(130), float64]) {
  %1455 = fn () -> (Tensor[(550), float32], Tensor[(3, 7, 7), float64], Tensor[(10, 7, 8), bool], Tensor[(560), bool], Tensor[(3, 7, 7), float64], Tensor[(3, 7, 7), float64], Tensor[(3, 7, 7), float64], Tensor[(130), float64]) {
    %1441 = @func_11293() /* ty=(Tensor[(550), float32], Tensor[(3, 7, 7), float64], Tensor[(10, 7, 8), bool], Tensor[(2, 280), uint64]) */;
    %1442 = cast(meta[relay.Constant][80] /* ty=Tensor[(560), bool] */, dtype="bool") /* ty=Tensor[(560), bool] */;
    %1443 = reshape(%1442, newshape=[10, 7, 8]) /* ty=Tensor[(10, 7, 8), bool] */;
    %1444 = @func_11293() /* ty=(Tensor[(550), float32], Tensor[(3, 7, 7), float64], Tensor[(10, 7, 8), bool], Tensor[(2, 280), uint64]) */;
    %1445 = @func_11617() /* ty=(Tensor[(3, 7, 7), float64], Tensor[(3, 7, 7), float64]) */;
    %1446 = cast(meta[relay.Constant][81] /* ty=Tensor[(130), float64] */, dtype="float64") /* ty=Tensor[(130), float64] */;
    %1447 = reshape(%1446, newshape=[2, 5, 13]) /* ty=Tensor[(2, 5, 13), float64] */;
    %1448 = @func_17429(%1447) /* ty=(Tensor[(3, 7, 7), int8], Tensor[(2, 5, 13), float32], Tensor[(3, 7, 7), float64]) */;
    %1449 = %1441.0;
    %1450 = @func_16555() /* ty=Tensor[(3, 7, 7), float64] */;
    %1451 = @func_12204(%1443) /* ty=Tensor[(10, 7, 8), bool] */;
    %1452 = %1444.1;
    %1453 = %1445.1;
    %1454 = %1448.2;
    (%1449, %1450, %1451, meta[relay.Constant][80] /* ty=Tensor[(560), bool] */, %1452, %1453, %1454, meta[relay.Constant][81] /* ty=Tensor[(130), float64] */)
  };
  %1455() /* ty=(Tensor[(550), float32], Tensor[(3, 7, 7), float64], Tensor[(10, 7, 8), bool], Tensor[(560), bool], Tensor[(3, 7, 7), float64], Tensor[(3, 7, 7), float64], Tensor[(3, 7, 7), float64], Tensor[(130), float64]) */
}

def @func_15331() -> (Tensor[(2, 12, 10), uint8], Tensor[(3, 7, 7), float64], Tensor[(3, 7, 7), int8], Tensor[(3, 7, 7), int8], Tensor[(256), uint64], Tensor[(2464), float64], Tensor[(1, 256), uint64], Tensor[(18, 110), float64], Tensor[(18, 110), float32]) {
  %1456 = @func_8630() /* ty=(Tensor[(3, 7, 7), int8],) */;
  %1457 = cast(meta[relay.Constant][82] /* ty=Tensor[(2464), float64] */, dtype="float64") /* ty=Tensor[(2464), float64] */;
  %1458 = cast(meta[relay.Constant][82] /* ty=Tensor[(2464), float64] */, dtype="float64") /* ty=Tensor[(2464), float64] */;
  %1459 = cast(meta[relay.Constant][83] /* ty=Tensor[(1, 256), uint64] */, dtype="uint64") /* ty=Tensor[(1, 256), uint64] */;
  %1460 = reshape(%1457, newshape=[11, 16, 14]) /* ty=Tensor[(11, 16, 14), float64] */;
  %1461 = reshape(%1458, newshape=[11, 16, 14]) /* ty=Tensor[(11, 16, 14), float64] */;
  %1462 = reshape(%1459, newshape=[256]) /* ty=Tensor[(256), uint64] */;
  %1463 = @func_10577(%1460, %1461, %1462) /* ty=(Tensor[(11, 16, 14), float64], Tensor[(560), uint64], Tensor[(1008), bool], Tensor[(256), uint64]) */;
  %1464 = cast(meta[relay.Constant][84] /* ty=Tensor[(18, 110), int16] */, dtype="float64") /* ty=Tensor[(18, 110), float64] */;
  %1465 = tan(%1464) /* ty=Tensor[(18, 110), float64] */;
  %1466 = cast(meta[relay.Constant][84] /* ty=Tensor[(18, 110), int16] */, dtype="int16") /* ty=Tensor[(18, 110), int16] */;
  %1467 = reshape(%1466, newshape=[1980]) /* ty=Tensor[(1980), int16] */;
  %1468 = @func_13404(%1467) /* ty=(Tensor[(3, 7, 7), float64], Tensor[(1980), int16], Tensor[(1980), int16], Tensor[(3, 7, 7), float64]) */;
  %1469 = %1468.1;
  %1470 = cast(%1469, dtype="uint64") /* ty=Tensor[(1980), uint64] */;
  %1471 = shape_of(%1465, dtype="int32") /* ty=Tensor[(2), int32] */;
  %1472 = cast(%1465, dtype="uint64") /* ty=Tensor[(18, 110), uint64] */;
  %1473 = dyn.reshape(%1470, %1471, newshape=[]) /* ty=Tensor[(?, ?), uint64] */;
  %1474 = bitwise_and(%1472, %1473) /* ty=Tensor[(18, 110), uint64] */;
  %1475 = cast(%1474, dtype="float64") /* ty=Tensor[(18, 110), float64] */;
  %1476 = cast(%1465, dtype="float32") /* ty=Tensor[(18, 110), float32] */;
  %1477 = @func_13290() /* ty=Tensor[(2, 12, 10), uint8] */;
  %1478 = @func_7106() /* ty=Tensor[(3, 7, 7), float64] */;
  %1479 = @func_9097() /* ty=Tensor[(3, 7, 7), int8] */;
  %1480 = %1456.0;
  %1481 = %1463.3;
  %1482 = sinh(%1475) /* ty=Tensor[(18, 110), float64] */;
  %1483 = asin(%1476) /* ty=Tensor[(18, 110), float32] */;
  (%1477, %1478, %1479, %1480, %1481, meta[relay.Constant][82] /* ty=Tensor[(2464), float64] */, meta[relay.Constant][83] /* ty=Tensor[(1, 256), uint64] */, %1482, %1483)
}

def @func_11521(%var_11517: Tensor[(21), int32], %var_11518: Tensor[(540), int64], %var_11519: Tensor[(192), float64], %var_11520: Tensor[(2160), float32]) -> (Tensor[(3, 7, 7), float64], Tensor[(44, 48), uint32], Tensor[(15, 4), uint64], Tensor[(540), int64], Tensor[(1280), float64], Tensor[(192), float64], Tensor[(16, 9, 15), float32], Tensor[(2160), float32], Tensor[(21), bool]) {
  %1507 = fn (%var_11472: Tensor[(21), int32], %var_11474: Tensor[(540), int64], %var_11476: Tensor[(192), float64], %var_11492: Tensor[(2160), float32]) -> (Tensor[(3, 7, 7), float64], Tensor[(44, 48), uint32], Tensor[(15, 4), uint64], Tensor[(540), int64], Tensor[(1280), float64], Tensor[(192), float64], Tensor[(16, 9, 15), float32], Tensor[(2160), float32], Tensor[(21), bool]) {
    %1484 = cast(%var_11492, dtype="float32") /* ty=Tensor[(2160), float32] */;
    %1485 = reshape(%1484, newshape=[16, 9, 15]) /* ty=Tensor[(16, 9, 15), float32] */;
    %1486 = cast(meta[relay.Constant][85] /* ty=Tensor[(44, 48), uint32] */, dtype="uint32") /* ty=Tensor[(44, 48), uint32] */;
    %1487 = cast(meta[relay.Constant][85] /* ty=Tensor[(44, 48), uint32] */, dtype="uint32") /* ty=Tensor[(44, 48), uint32] */;
    %1488 = cast(%var_11472, dtype="int32") /* ty=Tensor[(21), int32] */;
    %1489 = cast(meta[relay.Constant][86] /* ty=Tensor[(15, 4), uint64] */, dtype="uint64") /* ty=Tensor[(15, 4), uint64] */;
    %1490 = cast(%var_11474, dtype="int64") /* ty=Tensor[(540), int64] */;
    %1491 = cast(meta[relay.Constant][87] /* ty=Tensor[(1280), float64] */, dtype="float64") /* ty=Tensor[(1280), float64] */;
    %1492 = cast(%var_11476, dtype="float64") /* ty=Tensor[(192), float64] */;
    %1493 = reshape(%1486, newshape=[12, 11, 16]) /* ty=Tensor[(12, 11, 16), uint32] */;
    %1494 = reshape(%1487, newshape=[12, 11, 16]) /* ty=Tensor[(12, 11, 16), uint32] */;
    %1495 = reshape(%1488, newshape=[21]) /* ty=Tensor[(21), int32] */;
    %1496 = reshape(%1489, newshape=[60]) /* ty=Tensor[(60), uint64] */;
    %1497 = reshape(%1490, newshape=[540, 1]) /* ty=Tensor[(540, 1), int64] */;
    %1498 = reshape(%1491, newshape=[320, 4]) /* ty=Tensor[(320, 4), float64] */;
    %1499 = reshape(%1492, newshape=[192]) /* ty=Tensor[(192), float64] */;
    %1500 = @func_6309(%1493, %1494, %1495, %1496, %1497, %1498, %1499) /* ty=(Tensor[(12, 11, 16), uint32], Tensor[(4, 48), float64], int32, Tensor[(21), int32], Tensor[(60), uint64], Tensor[(540, 1), int64], Tensor[(320, 4), float64], Tensor[(192), float64]) */;
    %1501 = %1500.2;
    %1502 = cast(%1501, dtype="bool") /* ty=bool */;
    %1503 = cast(%var_11472, dtype="bool") /* ty=Tensor[(21), bool] */;
    %1504 = @func_7344() /* ty=Tensor[(3, 7, 7), float64] */;
    %1505 = @func_10987(%1485) /* ty=Tensor[(16, 9, 15), float32] */;
    %1506 = less_equal(%1502, %1503) /* ty=Tensor[(21), bool] */;
    (%1504, meta[relay.Constant][85] /* ty=Tensor[(44, 48), uint32] */, meta[relay.Constant][86] /* ty=Tensor[(15, 4), uint64] */, %var_11474, meta[relay.Constant][87] /* ty=Tensor[(1280), float64] */, %var_11476, %1505, %var_11492, %1506)
  };
  %1507(%var_11517, %var_11518, %var_11519, %var_11520) /* ty=(Tensor[(3, 7, 7), float64], Tensor[(44, 48), uint32], Tensor[(15, 4), uint64], Tensor[(540), int64], Tensor[(1280), float64], Tensor[(192), float64], Tensor[(16, 9, 15), float32], Tensor[(2160), float32], Tensor[(21), bool]) */
}

def @func_11831() -> Tensor[(3, 7, 7), float64] {
  %1509 = fn () -> Tensor[(3, 7, 7), float64] {
    %1508 = @func_9832() /* ty=(Tensor[(3, 7, 7), float64],) */;
    %1508.0
  };
  %1509() /* ty=Tensor[(3, 7, 7), float64] */
}

def @func_17288() -> Tensor[(3, 7, 7), float64] {
  @func_17286() /* ty=Tensor[(3, 7, 7), float64] */
}

def @func_18968(%var_18967: Tensor[(12, 11, 10), float32]) -> (Tensor[(12, 11, 10), float32], Tensor[(4, 1, 14), uint8], Tensor[(7, 2), uint8], Tensor[(56), uint8], Tensor[(3, 7, 7), float64]) {
  %1520 = fn (%var_18944: Tensor[(12, 11, 10), float32]) -> (Tensor[(12, 11, 10), float32], Tensor[(4, 1, 14), uint8], Tensor[(7, 2), uint8], Tensor[(56), uint8], Tensor[(3, 7, 7), float64]) {
    %1510 = cast(%var_18944, dtype="float32") /* ty=Tensor[(12, 11, 10), float32] */;
    %1511 = cast(meta[relay.Constant][88] /* ty=Tensor[(7, 2), uint8] */, dtype="uint8") /* ty=Tensor[(7, 2), uint8] */;
    %1512 = cast(meta[relay.Constant][89] /* ty=Tensor[(56), uint8] */, dtype="uint8") /* ty=Tensor[(56), uint8] */;
    %1513 = reshape(%1511, newshape=[1, 1, 14]) /* ty=Tensor[(1, 1, 14), uint8] */;
    %1514 = reshape(%1512, newshape=[4, 1, 14]) /* ty=Tensor[(4, 1, 14), uint8] */;
    %1515 = @func_11566(%1513, %1514) /* ty=(Tensor[(4, 1, 14), uint8],) */;
    %1516 = @func_18384() /* ty=(Tensor[(3, 7, 7), float64], Tensor[(3, 7, 7), float64], Tensor[(1280), float64]) */;
    %1517 = log2(%1510) /* ty=Tensor[(12, 11, 10), float32] */;
    %1518 = %1515.0;
    %1519 = %1516.1;
    (%1517, %1518, meta[relay.Constant][88] /* ty=Tensor[(7, 2), uint8] */, meta[relay.Constant][89] /* ty=Tensor[(56), uint8] */, %1519)
  };
  %1520(%var_18967) /* ty=(Tensor[(12, 11, 10), float32], Tensor[(4, 1, 14), uint8], Tensor[(7, 2), uint8], Tensor[(56), uint8], Tensor[(3, 7, 7), float64]) */
}

def @func_16644(%var_16643: Tensor[(256, 1), uint64]) -> (Tensor[(550), float32], Tensor[(4, 1, 14), uint8], Tensor[(1, 14), uint8], Tensor[(56), uint8], Tensor[(1008), bool], Tensor[(1008), bool], Tensor[(256, 1), uint64]) {
  %1535 = fn (%var_16637: Tensor[(256, 1), uint64]) -> (Tensor[(550), float32], Tensor[(4, 1, 14), uint8], Tensor[(1, 14), uint8], Tensor[(56), uint8], Tensor[(1008), bool], Tensor[(1008), bool], Tensor[(256, 1), uint64]) {
    %1521 = @func_9665() /* ty=(Tensor[(550), float32],) */;
    %1522 = cast(meta[relay.Constant][90] /* ty=Tensor[(1, 14), uint8] */, dtype="uint8") /* ty=Tensor[(1, 14), uint8] */;
    %1523 = cast(meta[relay.Constant][91] /* ty=Tensor[(56), uint8] */, dtype="uint8") /* ty=Tensor[(56), uint8] */;
    %1524 = reshape(%1522, newshape=[1, 1, 14]) /* ty=Tensor[(1, 1, 14), uint8] */;
    %1525 = reshape(%1523, newshape=[4, 1, 14]) /* ty=Tensor[(4, 1, 14), uint8] */;
    %1526 = @func_11566(%1524, %1525) /* ty=(Tensor[(4, 1, 14), uint8],) */;
    %1527 = cast(meta[relay.Constant][92] /* ty=Tensor[(1008), bool] */, dtype="bool") /* ty=Tensor[(1008), bool] */;
    %1528 = cast(%var_16637, dtype="uint64") /* ty=Tensor[(256, 1), uint64] */;
    %1529 = reshape(%1527, newshape=[1008]) /* ty=Tensor[(1008), bool] */;
    %1530 = reshape(%1528, newshape=[256]) /* ty=Tensor[(256), uint64] */;
    %1531 = @func_9182(%1529, %1530) /* ty=(Tensor[(3, 7, 7), float64], Tensor[(560), uint64], Tensor[(560, 1), uint64], Tensor[(1008), bool], Tensor[(1152), uint32], Tensor[(1008), bool], Tensor[(256), uint64]) */;
    %1532 = %1521.0;
    %1533 = %1526.0;
    %1534 = %1531.5;
    (%1532, %1533, meta[relay.Constant][90] /* ty=Tensor[(1, 14), uint8] */, meta[relay.Constant][91] /* ty=Tensor[(56), uint8] */, %1534, meta[relay.Constant][92] /* ty=Tensor[(1008), bool] */, %var_16637)
  };
  %1535(%var_16643) /* ty=(Tensor[(550), float32], Tensor[(4, 1, 14), uint8], Tensor[(1, 14), uint8], Tensor[(56), uint8], Tensor[(1008), bool], Tensor[(1008), bool], Tensor[(256, 1), uint64]) */
}

def @func_11581() -> (Tensor[(3, 7, 7), float64],) {
  %1537 = fn () -> (Tensor[(3, 7, 7), float64],) {
    %1536 = @func_7344() /* ty=Tensor[(3, 7, 7), float64] */;
    (%1536,)
  };
  %1537() /* ty=(Tensor[(3, 7, 7), float64],) */
}

def @func_14919() -> Tensor[(5, 2, 7), float64] {
  %1539 = fn () -> Tensor[(5, 2, 7), float64] {
    %1538 = @func_7952() /* ty=(Tensor[(10, 7, 8), bool], Tensor[(5, 2, 7), float64], Tensor[(14, 5), float64]) */;
    %1538.1
  };
  %1539() /* ty=Tensor[(5, 2, 7), float64] */
}

def @func_14426(%var_14412: Tensor[(560), uint64]) -> (Tensor[(3, 7, 7), float64], Tensor[(3, 7, 7), float64], Tensor[(10, 7, 8), float32], Tensor[(560), uint64]) {
  %1540 = @func_8977() /* ty=(Tensor[(3, 7, 7), float64],) */;
  %1541 = @func_11648() /* ty=(Tensor[(3, 7, 7), float64],) */;
  %1542 = cast(%var_14412, dtype="uint64") /* ty=Tensor[(560), uint64] */;
  %1543 = reshape(%1542, newshape=[10, 7, 8]) /* ty=Tensor[(10, 7, 8), uint64] */;
  %1544 = @func_3471(%1543) /* ty=(Tensor[(10, 7, 8), bool], Tensor[(10, 7, 8), float32]) */;
  %1545 = %1540.0;
  %1546 = %1541.0;
  %1547 = %1544.1;
  (%1545, %1546, %1547, %var_14412)
}

def @func_16951(%var_16931: Tensor[(4, 6, 1), float64]) -> (Tensor[(4, 6, ?), bool], Tensor[(3, 7, 7), float64]) {
  %1548 = cast(%var_16931, dtype="float64") /* ty=Tensor[(4, 6, 1), float64] */;
  %1549 = tan(%1548) /* ty=Tensor[(4, 6, 1), float64] */;
  %1550 = cast(%var_16931, dtype="bool") /* ty=Tensor[(4, 6, 1), bool] */;
  %1551 = shape_of(%1549, dtype="int32") /* ty=Tensor[(3), int32] */;
  %1552 = cast(%1549, dtype="bool") /* ty=Tensor[(4, 6, 1), bool] */;
  %1553 = dyn.reshape(%1550, %1551, newshape=[]) /* ty=Tensor[(?, ?, ?), bool] */;
  %1554 = greater_equal(%1552, %1553) /* ty=Tensor[(4, 6, ?), bool] */;
  %1555 = @func_8696() /* ty=Tensor[(3, 7, 7), float64] */;
  (%1554, %1555)
}

def @func_10517() -> (Tensor[(3, 7, 7), float64], Tensor[(2, 12, 10), uint8]) {
  @func_10515() /* ty=(Tensor[(3, 7, 7), float64], Tensor[(2, 12, 10), uint8]) */
}

def @func_18161() -> (Tensor[(3, 7, 7), float64],) {
  %1556 = @func_8090() /* ty=(Tensor[(3, 7, 7), float64],) */;
  %1557 = %1556.0;
  (%1557,)
}

def @func_17592(%var_17589: Tensor[(7, 10, 4), uint64], %var_17590: Tensor[(7, 10, 4), uint64], %var_17591: Tensor[(70), float64]) -> (Tensor[(7, 10, 4), bool], Tensor[(3, 7, 7), float64], Tensor[(5, 2, 7), float64], Tensor[(70), float64]) {
  @func_17587(%var_17589, %var_17590, %var_17591) /* ty=(Tensor[(7, 10, 4), bool], Tensor[(3, 7, 7), float64], Tensor[(5, 2, 7), float64], Tensor[(70), float64]) */
}

def @func_1149(%var_1147: Tensor[(16, 16, 5), float64], %var_1148: Tensor[(60), uint64]) -> (Tensor[(16, 16, 5), float64], Tensor[(2, 5, 6), uint64], Tensor[(60), uint64], Tensor[(2, 5, 6), uint64]) {
  @func_1145(%var_1147, %var_1148) /* ty=(Tensor[(16, 16, 5), float64], Tensor[(2, 5, 6), uint64], Tensor[(60), uint64], Tensor[(2, 5, 6), uint64]) */
}

def @func_14987(%var_14985: Tensor[(60), uint64]) -> (Tensor[(3, 7, 7), float64], Tensor[(14, 6, 12), bool], Tensor[(1008), bool], Tensor[(550), float64], int64, Tensor[(60), uint64], int64) {
  @func_14984(%var_14985) /* ty=(Tensor[(3, 7, 7), float64], Tensor[(14, 6, 12), bool], Tensor[(1008), bool], Tensor[(550), float64], int64, Tensor[(60), uint64], int64) */
}

def @func_17844() -> (Tensor[(3, 7, 7), float64], Tensor[(3, 7, 7), float64], Tensor[(3, 7, 7), bool]) {
  %1558 = @func_13214() /* ty=(Tensor[(3, 7, 7), float64],) */;
  %1559 = %1558.0;
  %1560 = cast(%1559, dtype="float64") /* ty=Tensor[(3, 7, 7), float64] */;
  %1561 = reshape(%1560, newshape=[3, 7, 7]) /* ty=Tensor[(3, 7, 7), float64] */;
  %1562 = @func_7056(%1561) /* ty=(Tensor[(2, 12, 10), float64], Tensor[(240), float64], Tensor[(3, 7, 7), bool]) */;
  %1563 = @func_16988() /* ty=Tensor[(3, 7, 7), float64] */;
  %1564 = %1562.2;
  (%1559, %1563, %1564)
}

def @func_15898() -> (Tensor[(3, 7, 7), float64], Tensor[(2, 3, 10), float64], Tensor[(60), float64]) {
  %1570 = fn () -> (Tensor[(3, 7, 7), float64], Tensor[(2, 3, 10), float64], Tensor[(60), float64]) {
    %1565 = @func_7523() /* ty=(Tensor[(3, 7, 7), float64],) */;
    %1566 = cast(meta[relay.Constant][93] /* ty=Tensor[(60), float64] */, dtype="float64") /* ty=Tensor[(60), float64] */;
    %1567 = reshape(%1566, newshape=[2, 3, 10]) /* ty=Tensor[(2, 3, 10), float64] */;
    %1568 = %1565.0;
    %1569 = @func_938(%1567) /* ty=Tensor[(2, 3, 10), float64] */;
    (%1568, %1569, meta[relay.Constant][93] /* ty=Tensor[(60), float64] */)
  };
  %1570() /* ty=(Tensor[(3, 7, 7), float64], Tensor[(2, 3, 10), float64], Tensor[(60), float64]) */
}

def @func_16713(%var_16710: Tensor[(5, 2, 12), float64], %var_16711: int64, %var_16712: Tensor[(1260), bool]) -> (Tensor[(5, 2, 12), float64], Tensor[(5, 2, 12), float64], Tensor[(10, 7, 8), bool], Tensor[(560), bool], Tensor[(3, 7, 7), float64], Tensor[(160), float64], int64, Tensor[(550), float64], Tensor[(1260), bool]) {
  %1593 = fn (%var_16674: Tensor[(5, 2, 12), float64], %var_16698: int64, %var_16707: Tensor[(1260), bool]) -> (Tensor[(5, 2, 12), float64], Tensor[(5, 2, 12), float64], Tensor[(10, 7, 8), bool], Tensor[(560), bool], Tensor[(3, 7, 7), float64], Tensor[(160), float64], int64, Tensor[(550), float64], Tensor[(1260), bool]) {
    %1571 = cast(meta[relay.Constant][94] /* ty=Tensor[(5, 2, 12), float64] */, dtype="float64") /* ty=Tensor[(5, 2, 12), float64] */;
    %1572 = cast(%var_16674, dtype="float64") /* ty=Tensor[(5, 2, 12), float64] */;
    %1573 = shape_of(meta[relay.Constant][94] /* ty=Tensor[(5, 2, 12), float64] */, dtype="int32") /* ty=Tensor[(3), int32] */;
    %1574 = cast(meta[relay.Constant][94] /* ty=Tensor[(5, 2, 12), float64] */, dtype="float64") /* ty=Tensor[(5, 2, 12), float64] */;
    %1575 = dyn.reshape(%1572, %1573, newshape=[]) /* ty=Tensor[(?, ?, ?), float64] */;
    %1576 = cast(meta[relay.Constant][95] /* ty=Tensor[(560), bool] */, dtype="bool") /* ty=Tensor[(560), bool] */;
    %1577 = reshape(%1576, newshape=[10, 7, 8]) /* ty=Tensor[(10, 7, 8), bool] */;
    %1578 = @func_14879() /* ty=(Tensor[(3, 7, 7), float64], Tensor[(3, 7, 7), float64], Tensor[(3, 7, 7), float64], Tensor[(3, 7, 7), int8]) */;
    %1579 = cast(%var_16698, dtype="int64") /* ty=int64 */;
    %1580 = reshape(%1579, newshape=[]) /* ty=int64 */;
    %1581 = @func_6804(%1580) /* ty=(Tensor[(3, 7, 7), float64], Tensor[(6, 10, 13), int64], Tensor[(160), float64], int64, Tensor[(1280), float64], Tensor[(3, 20), uint64], Tensor[(60), uint64]) */;
    %1582 = cast(%var_16707, dtype="bool") /* ty=Tensor[(1260), bool] */;
    %1583 = cast(%var_16707, dtype="bool") /* ty=Tensor[(1260), bool] */;
    %1584 = reshape(%1582, newshape=[7, 15, 12]) /* ty=Tensor[(7, 15, 12), bool] */;
    %1585 = reshape(%1583, newshape=[7, 15, 12]) /* ty=Tensor[(7, 15, 12), bool] */;
    %1586 = @func_15796(%1584, %1585) /* ty=(Tensor[(7, 15, 12), bool], Tensor[(550), float64]) */;
    %1587 = sinh(%1571) /* ty=Tensor[(5, 2, 12), float64] */;
    %1588 = power(%1574, %1575) /* ty=Tensor[(5, 2, 12), float64] */;
    %1589 = @func_12204(%1577) /* ty=Tensor[(10, 7, 8), bool] */;
    %1590 = %1578.1;
    %1591 = %1581.2;
    %1592 = %1586.1;
    (%1587, %1588, %1589, meta[relay.Constant][95] /* ty=Tensor[(560), bool] */, %1590, %1591, %var_16698, %1592, %var_16707)
  };
  %1593(%var_16710, %var_16711, %var_16712) /* ty=(Tensor[(5, 2, 12), float64], Tensor[(5, 2, 12), float64], Tensor[(10, 7, 8), bool], Tensor[(560), bool], Tensor[(3, 7, 7), float64], Tensor[(160), float64], int64, Tensor[(550), float64], Tensor[(1260), bool]) */
}

def @func_11648() -> (Tensor[(3, 7, 7), float64],) {
  %1594 = @func_8349() /* ty=Tensor[(3, 7, 7), float64] */;
  (%1594,)
}

def @func_12206(%var_12205: Tensor[(10, 7, 8), bool]) -> Tensor[(10, 7, 8), bool] {
  %1601 = fn (%var_12193: Tensor[(10, 7, 8), bool]) -> Tensor[(10, 7, 8), bool] {
    %1595 = @func_7952() /* ty=(Tensor[(10, 7, 8), bool], Tensor[(5, 2, 7), float64], Tensor[(14, 5), float64]) */;
    %1596 = %1595.0;
    %1597 = cast(%var_12193, dtype="bool") /* ty=Tensor[(10, 7, 8), bool] */;
    %1598 = shape_of(%1596, dtype="int32") /* ty=Tensor[(3), int32] */;
    %1599 = cast(%1596, dtype="bool") /* ty=Tensor[(10, 7, 8), bool] */;
    %1600 = dyn.reshape(%1597, %1598, newshape=[]) /* ty=Tensor[(?, ?, ?), bool] */;
    equal(%1599, %1600) /* ty=Tensor[(10, 7, 8), bool] */
  };
  %1601(%var_12205) /* ty=Tensor[(10, 7, 8), bool] */
}

def @func_8246() -> (Tensor[(14, 5), float64], Tensor[(1980), int16], Tensor[(504, 2), bool], int16, Tensor[(1980), int16], Tensor[(60), uint64]) {
  @func_8244() /* ty=(Tensor[(14, 5), float64], Tensor[(1980), int16], Tensor[(504, 2), bool], int16, Tensor[(1980), int16], Tensor[(60), uint64]) */
}

def @func_17587(%var_17534: Tensor[(7, 10, 4), uint64], %var_17535: Tensor[(7, 10, 4), uint64], %var_17576: Tensor[(70), float64]) -> (Tensor[(7, 10, 4), bool], Tensor[(3, 7, 7), float64], Tensor[(5, 2, 7), float64], Tensor[(70), float64]) {
  %1602 = cast(%var_17535, dtype="bool") /* ty=Tensor[(7, 10, 4), bool] */;
  %1603 = shape_of(%var_17534, dtype="int32") /* ty=Tensor[(3), int32] */;
  %1604 = cast(%var_17534, dtype="bool") /* ty=Tensor[(7, 10, 4), bool] */;
  %1605 = dyn.reshape(%1602, %1603, newshape=[]) /* ty=Tensor[(?, ?, ?), bool] */;
  %1606 = cast(%var_17576, dtype="float64") /* ty=Tensor[(70), float64] */;
  %1607 = reshape(%1606, newshape=[5, 2, 7]) /* ty=Tensor[(5, 2, 7), float64] */;
  %1608 = @func_7482(%1607) /* ty=(Tensor[(5, 2, 7), float64],) */;
  %1609 = greater_equal(%1604, %1605) /* ty=Tensor[(7, 10, 4), bool] */;
  %1610 = @func_13697() /* ty=Tensor[(3, 7, 7), float64] */;
  %1611 = %1608.0;
  (%1609, %1610, %1611, %var_17576)
}

def @func_9609() -> (Tensor[(3, 7, 7), float64], Tensor[(3, 7, 7), float64]) {
  @func_9607() /* ty=(Tensor[(3, 7, 7), float64], Tensor[(3, 7, 7), float64]) */
}

def @func_10515() -> (Tensor[(3, 7, 7), float64], Tensor[(2, 12, 10), uint8]) {
  %1612 = @func_6751() /* ty=(Tensor[(3, 7, 7), float64],) */;
  %1613 = cast(meta[relay.Constant][96] /* ty=Tensor[(240), float64] */, dtype="float64") /* ty=Tensor[(240), float64] */;
  %1614 = reshape(%1613, newshape=[2, 12, 10]) /* ty=Tensor[(2, 12, 10), float64] */;
  %1615 = @func_2495(%1614) /* ty=Tensor[(2, 12, 10), float64] */;
  %1616 = cast(meta[relay.Constant][96] /* ty=Tensor[(240), float64] */, dtype="uint8") /* ty=Tensor[(240), uint8] */;
  %1617 = shape_of(%1615, dtype="int32") /* ty=Tensor[(3), int32] */;
  %1618 = cast(%1615, dtype="uint8") /* ty=Tensor[(2, 12, 10), uint8] */;
  %1619 = dyn.reshape(%1616, %1617, newshape=[]) /* ty=Tensor[(?, ?, ?), uint8] */;
  %1620 = %1612.0;
  %1621 = logical_xor(%1618, %1619) /* ty=Tensor[(2, 12, 10), uint8] */;
  (%1620, %1621)
}

def @func_6964(%var_6962: Tensor[(10, 5, 11), float32]) -> (Tensor[(10, 5, 11), float32],) {
  @func_6961(%var_6962) /* ty=(Tensor[(10, 5, 11), float32],) */
}

def @func_16165() -> Tensor[(6, 16, 5), float64] {
  %1625 = fn () -> Tensor[(6, 16, 5), float64] {
    %1622 = @func_12839() /* ty=(Tensor[(6, 16, 5), float32], Tensor[(3, 7, 7), float64], Tensor[(3, 7, 7), float64], Tensor[(30, 2), uint64]) */;
    %1623 = %1622.0;
    %1624 = cast(%1623, dtype="float64") /* ty=Tensor[(6, 16, 5), float64] */;
    atanh(%1624) /* ty=Tensor[(6, 16, 5), float64] */
  };
  %1625() /* ty=Tensor[(6, 16, 5), float64] */
}

def @func_16557() -> Tensor[(3, 7, 7), float64] {
  @func_16555() /* ty=Tensor[(3, 7, 7), float64] */
}

def @func_7482(%var_7475: Tensor[(5, 2, 7), float64]) -> (Tensor[(5, 2, 7), float64],) {
  %1626 = cast(%var_7475, dtype="float64") /* ty=Tensor[(5, 2, 7), float64] */;
  %1627 = acos(%1626) /* ty=Tensor[(5, 2, 7), float64] */;
  (%1627,)
}

def @func_8298() -> Tensor[(3, 7, 7), int8] {
  @func_8296() /* ty=Tensor[(3, 7, 7), int8] */
}

def @func_10490() -> (Tensor[(3, 7, 7), float64],) {
  %1628 = @func_9637() /* ty=Tensor[(3, 7, 7), float64] */;
  (%1628,)
}

def @func_19152(%var_19151: Tensor[(30, 2), uint64]) -> (Tensor[(550), float32], int64, Tensor[(30, 2), uint64], Tensor[(3, 7, 7), float64], Tensor[(3, 7, 7), float64]) {
  %1639 = fn (%var_19083: Tensor[(30, 2), uint64]) -> (Tensor[(550), float32], int64, Tensor[(30, 2), uint64], Tensor[(3, 7, 7), float64], Tensor[(3, 7, 7), float64]) {
    %1629 = @func_17471() /* ty=(Tensor[(550), float32],) */;
    %1630 = cast(%var_19083, dtype="uint64") /* ty=Tensor[(30, 2), uint64] */;
    %1631 = reshape(%1630, newshape=[60]) /* ty=Tensor[(60), uint64] */;
    %1632 = @func_14984(%1631) /* ty=(Tensor[(3, 7, 7), float64], Tensor[(14, 6, 12), bool], Tensor[(1008), bool], Tensor[(550), float64], int64, Tensor[(60), uint64], int64) */;
    %1633 = @func_12534() /* ty=(Tensor[(3, 7, 7), float64], Tensor[(3, 7, 7), float64], Tensor[(14, 5), float64]) */;
    %1634 = @func_9894() /* ty=(Tensor[(3, 7, 7), float64],) */;
    %1635 = %1629.0;
    %1636 = %1632.4;
    %1637 = %1633.1;
    %1638 = %1634.0;
    (%1635, %1636, %var_19083, %1637, %1638)
  };
  %1639(%var_19151) /* ty=(Tensor[(550), float32], int64, Tensor[(30, 2), uint64], Tensor[(3, 7, 7), float64], Tensor[(3, 7, 7), float64]) */
}

def @func_19000() -> (Tensor[(3, 7, 7), float64],) {
  %1640 = @func_15612() /* ty=(Tensor[(3, 7, 7), float64], Tensor[(3, 7, 7), float64], Tensor[(3, 7, 7), float64]) */;
  %1641 = %1640.0;
  (%1641,)
}

def @func_19201(%var_19199: Tensor[(3, 4, 13), int64], %var_19200: Tensor[(3, 4, 13), int64]) -> (Tensor[(3, 4, 13), int64], Tensor[(2, 5, 6), uint64], Tensor[(60), uint64]) {
  %1652 = fn (%var_19182: Tensor[(3, 4, 13), int64], %var_19183: Tensor[(3, 4, 13), int64]) -> (Tensor[(3, 4, 13), int64], Tensor[(2, 5, 6), uint64], Tensor[(60), uint64]) {
    %1642 = cast(%var_19183, dtype="int64") /* ty=Tensor[(3, 4, 13), int64] */;
    %1643 = shape_of(%var_19182, dtype="int32") /* ty=Tensor[(3), int32] */;
    %1644 = cast(%var_19182, dtype="int64") /* ty=Tensor[(3, 4, 13), int64] */;
    %1645 = dyn.reshape(%1642, %1643, newshape=[]) /* ty=Tensor[(?, ?, ?), int64] */;
    %1646 = cast(meta[relay.Constant][97] /* ty=Tensor[(60), uint64] */, dtype="uint64") /* ty=Tensor[(60), uint64] */;
    %1647 = cast(meta[relay.Constant][97] /* ty=Tensor[(60), uint64] */, dtype="uint64") /* ty=Tensor[(60), uint64] */;
    %1648 = reshape(%1646, newshape=[2, 5, 6]) /* ty=Tensor[(2, 5, 6), uint64] */;
    %1649 = reshape(%1647, newshape=[2, 5, 6]) /* ty=Tensor[(2, 5, 6), uint64] */;
    %1650 = bitwise_and(%1644, %1645) /* ty=Tensor[(3, 4, 13), int64] */;
    %1651 = @func_531(%1648, %1649) /* ty=Tensor[(2, 5, 6), uint64] */;
    (%1650, %1651, meta[relay.Constant][97] /* ty=Tensor[(60), uint64] */)
  };
  %1652(%var_19199, %var_19200) /* ty=(Tensor[(3, 4, 13), int64], Tensor[(2, 5, 6), uint64], Tensor[(60), uint64]) */
}

def @func_13156(%var_13155: Tensor[(1980), int16]) -> (Tensor[(3, 7, 7), float64], Tensor[(60, 1980), bool], Tensor[(3, 7, 7), float64]) {
  %1662 = fn (%var_13130: Tensor[(1980), int16]) -> (Tensor[(3, 7, 7), float64], Tensor[(60, 1980), bool], Tensor[(3, 7, 7), float64]) {
    %1653 = cast(%var_13130, dtype="int16") /* ty=Tensor[(1980), int16] */;
    %1654 = reshape(%1653, newshape=[1980]) /* ty=Tensor[(1980), int16] */;
    %1655 = @func_8572(%1654) /* ty=(Tensor[(3, 7, 7), float64], Tensor[(15, 12, 11), int16], int16, Tensor[(1980), int16], Tensor[(60, 1), uint64]) */;
    %1656 = %1655.4;
    %1657 = cast(%1656, dtype="bool") /* ty=Tensor[(60, 1), bool] */;
    %1658 = cast(%var_13130, dtype="bool") /* ty=Tensor[(1980), bool] */;
    %1659 = @func_8930() /* ty=Tensor[(3, 7, 7), float64] */;
    %1660 = greater_equal(%1657, %1658) /* ty=Tensor[(60, 1980), bool] */;
    %1661 = @func_7344() /* ty=Tensor[(3, 7, 7), float64] */;
    (%1659, %1660, %1661)
  };
  %1662(%var_13155) /* ty=(Tensor[(3, 7, 7), float64], Tensor[(60, 1980), bool], Tensor[(3, 7, 7), float64]) */
}

def @func_7954() -> (Tensor[(10, 7, 8), bool], Tensor[(5, 2, 7), float64], Tensor[(14, 5), float64]) {
  @func_7952() /* ty=(Tensor[(10, 7, 8), bool], Tensor[(5, 2, 7), float64], Tensor[(14, 5), float64]) */
}

def @func_18311() -> (Tensor[(3, 7, 7), float64], Tensor[(14, 5), float64]) {
  %1666 = fn () -> (Tensor[(3, 7, 7), float64], Tensor[(14, 5), float64]) {
    %1663 = @func_16322() /* ty=(Tensor[(3, 7, 7), float64],) */;
    %1664 = %1663.0;
    %1665 = @func_11986() /* ty=Tensor[(14, 5), float64] */;
    (%1664, %1665)
  };
  %1666() /* ty=(Tensor[(3, 7, 7), float64], Tensor[(14, 5), float64]) */
}

def @func_18797(%var_18796: Tensor[(6, 16, 5), float64]) -> (Tensor[(3, 7, 7), float64], Tensor[(6, 16, 5), float32], Tensor[(3, 7, 7), float64], Tensor[(6, 16, 5), float32]) {
  %1677 = fn (%var_18754: Tensor[(6, 16, 5), float64]) -> (Tensor[(3, 7, 7), float64], Tensor[(6, 16, 5), float32], Tensor[(3, 7, 7), float64], Tensor[(6, 16, 5), float32]) {
    %1667 = @func_16164() /* ty=Tensor[(6, 16, 5), float64] */;
    %1668 = cast(%var_18754, dtype="float32") /* ty=Tensor[(6, 16, 5), float32] */;
    %1669 = shape_of(%1667, dtype="int32") /* ty=Tensor[(3), int32] */;
    %1670 = cast(%1667, dtype="float32") /* ty=Tensor[(6, 16, 5), float32] */;
    %1671 = dyn.reshape(%1668, %1669, newshape=[]) /* ty=Tensor[(?, ?, ?), float32] */;
    %1672 = cast(%var_18754, dtype="float32") /* ty=Tensor[(6, 16, 5), float32] */;
    %1673 = @func_9493() /* ty=Tensor[(3, 7, 7), float64] */;
    %1674 = subtract(%1670, %1671) /* ty=Tensor[(6, 16, 5), float32] */;
    %1675 = @func_17286() /* ty=Tensor[(3, 7, 7), float64] */;
    %1676 = sqrt(%1672) /* ty=Tensor[(6, 16, 5), float32] */;
    (%1673, %1674, %1675, %1676)
  };
  %1677(%var_18796) /* ty=(Tensor[(3, 7, 7), float64], Tensor[(6, 16, 5), float32], Tensor[(3, 7, 7), float64], Tensor[(6, 16, 5), float32]) */
}

def @func_3694(%var_3693: Tensor[(4, 8, 8), uint64]) -> (Tensor[(4, 8, 8), bool],) {
  %1681 = fn (%var_3684: Tensor[(4, 8, 8), uint64]) -> (Tensor[(4, 8, 8), bool],) {
    %1678 = cast(meta[relay.Constant][98] /* ty=Tensor[(1, 8, 8), uint64] */, dtype="bool") /* ty=Tensor[(1, 8, 8), bool] */;
    %1679 = cast(%var_3684, dtype="bool") /* ty=Tensor[(4, 8, 8), bool] */;
    %1680 = equal(%1678, %1679) /* ty=Tensor[(4, 8, 8), bool] */;
    (%1680,)
  };
  %1681(%var_3693) /* ty=(Tensor[(4, 8, 8), bool],) */
}

def @func_6961(%var_6955: Tensor[(10, 5, 11), float32]) -> (Tensor[(10, 5, 11), float32],) {
  %1682 = cast(%var_6955, dtype="float32") /* ty=Tensor[(10, 5, 11), float32] */;
  %1683 = log(%1682) /* ty=Tensor[(10, 5, 11), float32] */;
  (%1683,)
}

def @func_14881() -> (Tensor[(3, 7, 7), float64], Tensor[(3, 7, 7), float64], Tensor[(3, 7, 7), float64], Tensor[(3, 7, 7), int8]) {
  @func_14879() /* ty=(Tensor[(3, 7, 7), float64], Tensor[(3, 7, 7), float64], Tensor[(3, 7, 7), float64], Tensor[(3, 7, 7), int8]) */
}

def @func_6309(%var_6286: Tensor[(12, 11, 16), uint32], %var_6287: Tensor[(12, 11, 16), uint32], %var_6297: Tensor[(21), int32], %var_6298: Tensor[(60), uint64], %var_6299: Tensor[(540, 1), int64], %var_6300: Tensor[(320, 4), float64], %var_6301: Tensor[(192), float64]) -> (Tensor[(12, 11, 16), uint32], Tensor[(4, 48), float64], int32, Tensor[(21), int32], Tensor[(60), uint64], Tensor[(540, 1), int64], Tensor[(320, 4), float64], Tensor[(192), float64]) {
  %1684 = cast(%var_6287, dtype="uint32") /* ty=Tensor[(12, 11, 16), uint32] */;
  %1685 = shape_of(%var_6286, dtype="int32") /* ty=Tensor[(3), int32] */;
  %1686 = cast(%var_6286, dtype="uint32") /* ty=Tensor[(12, 11, 16), uint32] */;
  %1687 = dyn.reshape(%1684, %1685, newshape=[]) /* ty=Tensor[(?, ?, ?), uint32] */;
  %1688 = cast(4 /* ty=int32 */, dtype="int32") /* ty=int32 */;
  %1689 = cast(%var_6297, dtype="int32") /* ty=Tensor[(21), int32] */;
  %1690 = cast(%var_6298, dtype="uint64") /* ty=Tensor[(60), uint64] */;
  %1691 = cast(%var_6299, dtype="int64") /* ty=Tensor[(540, 1), int64] */;
  %1692 = cast(%var_6300, dtype="float64") /* ty=Tensor[(320, 4), float64] */;
  %1693 = cast(%var_6301, dtype="float64") /* ty=Tensor[(192), float64] */;
  %1694 = reshape(%1688, newshape=[]) /* ty=int32 */;
  %1695 = reshape(%1689, newshape=[7, 3, 1]) /* ty=Tensor[(7, 3, 1), int32] */;
  %1696 = reshape(%1690, newshape=[60]) /* ty=Tensor[(60), uint64] */;
  %1697 = reshape(%1691, newshape=[540]) /* ty=Tensor[(540), int64] */;
  %1698 = reshape(%1692, newshape=[1280]) /* ty=Tensor[(1280), float64] */;
  %1699 = reshape(%1693, newshape=[4, 48]) /* ty=Tensor[(4, 48), float64] */;
  %1700 = @func_4568(%1694, %1695, %1696, %1697, %1698, %1699) /* ty=(Tensor[(7, 3, 1), int32], Tensor[(2, 5, 6), uint64], Tensor[(1980), int16], Tensor[(60), uint64], Tensor[(1280), float64], Tensor[(540), int64], Tensor[(1280), float64], Tensor[(60), uint64], Tensor[(4, 48), float64]) */;
  %1701 = bitwise_and(%1686, %1687) /* ty=Tensor[(12, 11, 16), uint32] */;
  %1702 = %1700.8;
  (%1701, %1702, 4 /* ty=int32 */, %var_6297, %var_6298, %var_6299, %var_6300, %var_6301)
}

def @func_11295() -> (Tensor[(550), float32], Tensor[(3, 7, 7), float64], Tensor[(10, 7, 8), bool], Tensor[(2, 280), uint64]) {
  @func_11293() /* ty=(Tensor[(550), float32], Tensor[(3, 7, 7), float64], Tensor[(10, 7, 8), bool], Tensor[(2, 280), uint64]) */
}

def @func_13059() -> (Tensor[(3, 7, 7), float64], Tensor[(3, 7, 7), int8]) {
  @func_13057() /* ty=(Tensor[(3, 7, 7), float64], Tensor[(3, 7, 7), int8]) */
}

def @func_12314(%var_12311: Tensor[(160), float64], %var_12312: int64, %var_12313: Tensor[(60), uint64]) -> (Tensor[(3, 7, 7), float64], Tensor[(14, 12, 7), float64], Tensor[(1176), float64], Tensor[(16, 16, 5), float64], Tensor[(160), float64], int64, Tensor[(1280), float64], Tensor[(60), uint64]) {
  %1720 = fn (%var_12302: Tensor[(160), float64], %var_12303: int64, %var_12305: Tensor[(60), uint64]) -> (Tensor[(3, 7, 7), float64], Tensor[(14, 12, 7), float64], Tensor[(1176), float64], Tensor[(16, 16, 5), float64], Tensor[(160), float64], int64, Tensor[(1280), float64], Tensor[(60), uint64]) {
    %1703 = cast(meta[relay.Constant][99] /* ty=Tensor[(1176), float64] */, dtype="float64") /* ty=Tensor[(1176), float64] */;
    %1704 = cast(meta[relay.Constant][99] /* ty=Tensor[(1176), float64] */, dtype="float64") /* ty=Tensor[(1176), float64] */;
    %1705 = reshape(%1703, newshape=[14, 12, 7]) /* ty=Tensor[(14, 12, 7), float64] */;
    %1706 = reshape(%1704, newshape=[14, 12, 7]) /* ty=Tensor[(14, 12, 7), float64] */;
    %1707 = @func_8720(%1705, %1706) /* ty=(Tensor[(14, 12, 7), float64],) */;
    %1708 = cast(%var_12302, dtype="float64") /* ty=Tensor[(160), float64] */;
    %1709 = cast(%var_12303, dtype="int64") /* ty=int64 */;
    %1710 = cast(meta[relay.Constant][100] /* ty=Tensor[(1280), float64] */, dtype="float64") /* ty=Tensor[(1280), float64] */;
    %1711 = cast(%var_12305, dtype="uint64") /* ty=Tensor[(60), uint64] */;
    %1712 = reshape(%1708, newshape=[5, 2, 16]) /* ty=Tensor[(5, 2, 16), float64] */;
    %1713 = reshape(%1709, newshape=[]) /* ty=int64 */;
    %1714 = reshape(%1710, newshape=[1280]) /* ty=Tensor[(1280), float64] */;
    %1715 = reshape(%1711, newshape=[30, 2]) /* ty=Tensor[(30, 2), uint64] */;
    %1716 = @func_5673(%1712, %1713, %1714, %1715) /* ty=(Tensor[(5, 2, 16), float64], Tensor[(6, 10, 13), int64], int64, Tensor[(780), int64], Tensor[(16, 16, 5), float64], Tensor[(30, 2), uint64], Tensor[(1280), float32]) */;
    %1717 = @func_11336() /* ty=Tensor[(3, 7, 7), float64] */;
    %1718 = %1707.0;
    %1719 = %1716.4;
    (%1717, %1718, meta[relay.Constant][99] /* ty=Tensor[(1176), float64] */, %1719, %var_12302, %var_12303, meta[relay.Constant][100] /* ty=Tensor[(1280), float64] */, %var_12305)
  };
  %1720(%var_12311, %var_12312, %var_12313) /* ty=(Tensor[(3, 7, 7), float64], Tensor[(14, 12, 7), float64], Tensor[(1176), float64], Tensor[(16, 16, 5), float64], Tensor[(160), float64], int64, Tensor[(1280), float64], Tensor[(60), uint64]) */
}

def @func_11352() -> (Tensor[(3, 7, 7), float64],) {
  %1723 = fn () -> (Tensor[(3, 7, 7), float64],) {
    %1721 = @func_8192() /* ty=(Tensor[(3, 7, 7), float64], Tensor[(3, 7, 7), float64], Tensor[(3, 7, 7), float64]) */;
    %1722 = %1721.2;
    (%1722,)
  };
  %1723() /* ty=(Tensor[(3, 7, 7), float64],) */
}

def @func_19380() -> Tensor[(3, 7, 7), float64] {
  %1725 = fn () -> Tensor[(3, 7, 7), float64] {
    %1724 = @func_13214() /* ty=(Tensor[(3, 7, 7), float64],) */;
    %1724.0
  };
  %1725() /* ty=Tensor[(3, 7, 7), float64] */
}

def @func_15020() -> Tensor[(3, 7, 7), float64] {
  @func_15018() /* ty=Tensor[(3, 7, 7), float64] */
}

def @func_17073() -> (Tensor[(256), uint64], Tensor[(550), float32], Tensor[(3, 7, 7), float64]) {
  %1731 = fn () -> (Tensor[(256), uint64], Tensor[(550), float32], Tensor[(3, 7, 7), float64]) {
    %1726 = @func_15331() /* ty=(Tensor[(2, 12, 10), uint8], Tensor[(3, 7, 7), float64], Tensor[(3, 7, 7), int8], Tensor[(3, 7, 7), int8], Tensor[(256), uint64], Tensor[(2464), float64], Tensor[(1, 256), uint64], Tensor[(18, 110), float64], Tensor[(18, 110), float32]) */;
    %1727 = @func_9665() /* ty=(Tensor[(550), float32],) */;
    %1728 = %1726.4;
    %1729 = %1727.0;
    %1730 = @func_16555() /* ty=Tensor[(3, 7, 7), float64] */;
    (%1728, %1729, %1730)
  };
  %1731() /* ty=(Tensor[(256), uint64], Tensor[(550), float32], Tensor[(3, 7, 7), float64]) */
}

def @func_20434() -> (Tensor[(3, 7, 7), float64], Tensor[(550), float32]) {
  %1736 = fn () -> (Tensor[(3, 7, 7), float64], Tensor[(550), float32]) {
    %1732 = @func_8021() /* ty=(Tensor[(3, 7, 7), float64],) */;
    %1733 = @func_17623() /* ty=(Tensor[(550), float32],) */;
    %1734 = %1732.0;
    %1735 = %1733.0;
    (%1734, %1735)
  };
  %1736() /* ty=(Tensor[(3, 7, 7), float64], Tensor[(550), float32]) */
}

def @func_1507(%var_1506: Tensor[(2, 14, 10), float32]) -> (Tensor[(2, 14, 10), float32],) {
  %1739 = fn (%var_1492: Tensor[(2, 14, 10), float32]) -> (Tensor[(2, 14, 10), float32],) {
    %1737 = cast(%var_1492, dtype="float32") /* ty=Tensor[(2, 14, 10), float32] */;
    %1738 = acosh(%1737) /* ty=Tensor[(2, 14, 10), float32] */;
    (%1738,)
  };
  %1739(%var_1506) /* ty=(Tensor[(2, 14, 10), float32],) */
}

def @func_15825() -> (Tensor[(3, 7, 7), float64], Tensor[(1980), int16]) {
  %1744 = fn () -> (Tensor[(3, 7, 7), float64], Tensor[(1980), int16]) {
    %1740 = @func_6751() /* ty=(Tensor[(3, 7, 7), float64],) */;
    %1741 = @func_8244() /* ty=(Tensor[(14, 5), float64], Tensor[(1980), int16], Tensor[(504, 2), bool], int16, Tensor[(1980), int16], Tensor[(60), uint64]) */;
    %1742 = %1740.0;
    %1743 = %1741.1;
    (%1742, %1743)
  };
  %1744() /* ty=(Tensor[(3, 7, 7), float64], Tensor[(1980), int16]) */
}

def @func_20052(%var_20050: Tensor[(550), float32]) -> (Tensor[(10, 7, 8), float64], Tensor[(3, 7, 7), float64], Tensor[(3, 7, 7), float64], Tensor[(3, 7, 7), float64], Tensor[(14, 5), float64], Tensor[(550), float64], Tensor[(550), float32]) {
  @func_20049(%var_20050) /* ty=(Tensor[(10, 7, 8), float64], Tensor[(3, 7, 7), float64], Tensor[(3, 7, 7), float64], Tensor[(3, 7, 7), float64], Tensor[(14, 5), float64], Tensor[(550), float64], Tensor[(550), float32]) */
}

def @func_19591() -> (Tensor[(3, 7, 7), float32], Tensor[(3, 7, 7), float64]) {
  @func_19589() /* ty=(Tensor[(3, 7, 7), float32], Tensor[(3, 7, 7), float64]) */
}

def @func_13608(%var_13606: Tensor[(3, 7, 7), int8]) -> Tensor[(3, 7, 7), bool] {
  @func_13605(%var_13606) /* ty=Tensor[(3, 7, 7), bool] */
}

def @func_8978() -> (Tensor[(3, 7, 7), float64],) {
  %1746 = fn () -> (Tensor[(3, 7, 7), float64],) {
    %1745 = @func_7355() /* ty=Tensor[(3, 7, 7), float64] */;
    (%1745,)
  };
  %1746() /* ty=(Tensor[(3, 7, 7), float64],) */
}

def @func_7107() -> Tensor[(3, 7, 7), float64] {
  %1748 = fn () -> Tensor[(3, 7, 7), float64] {
    %1747 = @func_6751() /* ty=(Tensor[(3, 7, 7), float64],) */;
    %1747.0
  };
  %1748() /* ty=Tensor[(3, 7, 7), float64] */
}

def @func_6751() -> (Tensor[(3, 7, 7), float64],) {
  %1749 = cast(meta[relay.Constant][101] /* ty=Tensor[(3, 7, 7), float64] */, dtype="float64") /* ty=Tensor[(3, 7, 7), float64] */;
  %1750 = log(%1749) /* ty=Tensor[(3, 7, 7), float64] */;
  (%1750,)
}

def @func_18408() -> (Tensor[(3, 7, 7), float64], Tensor[(550), float64]) {
  @func_18406() /* ty=(Tensor[(3, 7, 7), float64], Tensor[(550), float64]) */
}

def @func_16468() -> Tensor[(14, 5), float64] {
  @func_16466() /* ty=Tensor[(14, 5), float64] */
}

def @func_15879() -> Tensor[(3, 7, 7), float64] {
  %1752 = fn () -> Tensor[(3, 7, 7), float64] {
    %1751 = @func_9713() /* ty=(Tensor[(3, 7, 7), float64],) */;
    %1751.0
  };
  %1752() /* ty=Tensor[(3, 7, 7), float64] */
}

/* For debugging purposes the metadata section has been omitted.
 * If you would like to see the full metadata section you can set the 
 * option to `True` when invoking `astext`. 
 */The type inference pass was unable to infer a type for this expression.
This usually occurs when an operator call is under constrained in some way, check other reported errors for hints of what may of happened.

===================================
note: run with `TVM_BACKTRACE=1` environment variable to display a backtrace.
