==========mod==========
#[version = "0.0.5"]
def @func_17182(%var_17147: Tensor[(4, 15, 11), float64], %var_17148: Tensor[(4, 15, 11), float64]) -> (Tensor[(4, 15, 11), float64],) {
  %0 = cast(%var_17148, dtype="float64") /* ty=Tensor[(4, 15, 11), float64] */;
  %1 = shape_of(%var_17147, dtype="int32") /* ty=Tensor[(3), int32] */;
  %2 = cast(%var_17147, dtype="float64") /* ty=Tensor[(4, 15, 11), float64] */;
  %3 = dyn.reshape(%0, %1, newshape=[]) /* ty=Tensor[(?, ?, ?), float64] */;
  %4 = divide(%2, %3) /* ty=Tensor[(4, 15, 11), float64] */;
  %5 = cast(%4, dtype="float64") /* ty=Tensor[(4, 15, 11), float64] */;
  %6 = atan(%5) /* ty=Tensor[(4, 15, 11), float64] */;
  (%6,)
}

def @func_26596() -> Tensor[(2, 6, 11), float64] {
  %7 = @func_1500() /* ty=(Tensor[(2, 6, 11), float64],) */;
  %7.0
}

def @func_22707() -> Tensor[(2, 6, 11), float64] {
  @func_14794() /* ty=Tensor[(2, 6, 11), float64] */
}

def @func_30129() -> Tensor[(1512), float32] {
  %8 = @func_28503() /* ty=(Tensor[(1512), float32],) */;
  %8.0
}

def @func_31041() -> (Tensor[(2, 6, 11), float64],) {
  %9 = @func_14728() /* ty=Tensor[(2, 6, 11), float64] */;
  (%9,)
}

def @func_16272(%var_16238: Tensor[(2, 3, 12), float64]) -> (Tensor[(2, 3, 12), float64], Tensor[(2, 6, 11), float64]) {
  %10 = cast(%var_16238, dtype="float64") /* ty=Tensor[(2, 3, 12), float64] */;
  %11 = log10(%10) /* ty=Tensor[(2, 3, 12), float64] */;
  %12 = @func_6691() /* ty=Tensor[(2, 6, 11), float64] */;
  (%11, %12)
}

def @func_20017() -> (Tensor[(2, 6, 11), float64], Tensor[(16, 1, 14), float32], Tensor[(224), float32], Tensor[(1512), float32]) {
  %13 = @func_8054() /* ty=(Tensor[(2, 6, 11), float64], Tensor[(2, 6, 11), float64], Tensor[(2, 6, 11), float64]) */;
  %14 = cast(meta[relay.Constant][0] /* ty=Tensor[(224), float32] */, dtype="float32") /* ty=Tensor[(224), float32] */;
  %15 = reshape(%14, newshape=[16, 1, 14]) /* ty=Tensor[(16, 1, 14), float32] */;
  %16 = @func_10837(%15) /* ty=(Tensor[(16, 1, 14), float32], Tensor[(2, 6, 11), float64]) */;
  %17 = @func_782() /* ty=(Tensor[(2, 6, 11), float64], Tensor[(1512), float32], Tensor[(756, 2), float32]) */;
  %18 = %13.2;
  %19 = %16.0;
  %20 = %17.1;
  (%18, %19, meta[relay.Constant][0] /* ty=Tensor[(224), float32] */, %20)
}

def @func_13778(%var_13751: Tensor[(1512), float32]) -> (Tensor[(2, 6, 11), float64], Tensor[(2, 6, 11), float64], Tensor[(2, 6, 11), float64], Tensor[(2, 6, 11), float64], Tensor[(2, 6, 11), float64], Tensor[(1512), float32], Tensor[(2, 6, 11), float64], Tensor[(2, 6, 11), float64]) {
  %21 = @func_13431() /* ty=(Tensor[(2, 6, 11), float64], Tensor[(2, 6, 11), float64], Tensor[(2, 6, 11), float64]) */;
  %22 = @func_10208() /* ty=(Tensor[(2, 6, 11), float64],) */;
  %23 = @func_13303() /* ty=(Tensor[(2, 6, 11), float64],) */;
  %24 = cast(%var_13751, dtype="float32") /* ty=Tensor[(1512), float32] */;
  %25 = reshape(%24, newshape=[1512]) /* ty=Tensor[(1512), float32] */;
  %26 = @func_517(%25) /* ty=(Tensor[(2, 6, 11), float64], Tensor[(2, 6, 11), float64], Tensor[(1512), float32], Tensor[(2, 6, 11), float64], Tensor[(2, 6, 11), float64], Tensor[(2, 6, 11), float64]) */;
  %27 = @func_7821() /* ty=(Tensor[(2, 6, 11), float64], Tensor[(2, 6, 11), float64]) */;
  %28 = @func_6913() /* ty=(Tensor[(2, 6, 11), float64], Tensor[(2, 6, 11), float64]) */;
  %29 = %21.0;
  %30 = %22.0;
  %31 = %23.0;
  %32 = @func_4427() /* ty=Tensor[(2, 6, 11), float64] */;
  %33 = %26.0;
  %34 = %27.0;
  %35 = %28.1;
  (%29, %30, %31, %32, %33, %var_13751, %34, %35)
}

def @func_15500(%var_15497: Tensor[(312), uint8]) -> (Tensor[(2, 13, 2), uint16], Tensor[(2, 6, 11), float64], Tensor[(13, 2, 12), float64], Tensor[(312), uint8]) {
  %36 = @func_14287() /* ty=(Tensor[(2, 6, 11), float64], Tensor[(2, 13, 2), uint16], Tensor[(52), int16], Tensor[(2, 6, 11), float64]) */;
  %37 = cast(%var_15497, dtype="uint8") /* ty=Tensor[(312), uint8] */;
  %38 = reshape(%37, newshape=[13, 2, 12]) /* ty=Tensor[(13, 2, 12), uint8] */;
  %39 = @func_8951(%38) /* ty=(Tensor[(13, 2, 12), uint8], Tensor[(2, 6, 11), float64], Tensor[(13, 2, 12), float64], Tensor[(2, 6, 11), float64]) */;
  %40 = %36.1;
  %41 = @func_14887() /* ty=Tensor[(2, 6, 11), float64] */;
  %42 = %39.2;
  (%40, %41, %42, %var_15497)
}

def @func_197() -> (Tensor[(2, 6, 11), float64],) {
  %43 = cast(meta[relay.Constant][1] /* ty=Tensor[(2, 6, 11), float64] */, dtype="float64") /* ty=Tensor[(2, 6, 11), float64] */;
  %44 = atan(%43) /* ty=Tensor[(2, 6, 11), float64] */;
  (%44,)
}

def @func_8728() -> (Tensor[(2, 6, 11), float64], Tensor[(9, 1), float64], float64, Tensor[(2, 6, 11), float64], Tensor[(2, 6, 11), float64], Tensor[(2, 6, 11), float64]) {
  %45 = @func_7748() /* ty=(Tensor[(2, 6, 11), float64], Tensor[(2, 6, 11), float64], Tensor[(2, 6, 11), float64]) */;
  %46 = cast(-9.87625f64 /* ty=float64 */, dtype="float64") /* ty=float64 */;
  %47 = reshape(%46, newshape=[]) /* ty=float64 */;
  %48 = @func_348() /* ty=(Tensor[(2, 6, 11), float64],) */;
  %49 = @func_5824() /* ty=(Tensor[(2, 6, 11), float64], Tensor[(2, 6, 11), float64]) */;
  %50 = @func_4686() /* ty=(Tensor[(2, 6, 11), float64], Tensor[(2, 6, 11), float64], Tensor[(2, 6, 11), float64]) */;
  %51 = %45.1;
  %52 = @func_2429(%47) /* ty=Tensor[(9, 1), float64] */;
  %53 = %48.0;
  %54 = %49.1;
  %55 = %50.2;
  (%51, %52, -9.87625f64 /* ty=float64 */, %53, %54, %55)
}

def @func_13881() -> (Tensor[(2, 6, 11), float64], Tensor[(2, 6, 11), float64], Tensor[(2, 6, 11), float64]) {
  %56 = @func_6574() /* ty=(Tensor[(2, 6, 11), float64], Tensor[(2, 6, 11), float64]) */;
  %57 = @func_5922() /* ty=(Tensor[(2, 6, 11), float64], Tensor[(2, 6, 11), float64]) */;
  %58 = %56.1;
  %59 = %57.1;
  %60 = @func_13445() /* ty=Tensor[(2, 6, 11), float64] */;
  (%58, %59, %60)
}

def @func_30015() -> (Tensor[(2, 6, 11), float64], Tensor[(2, 6, 11), float64]) {
  %61 = @func_16347() /* ty=(Tensor[(2, 6, 11), float64], Tensor[(2, 6, 11), float64], Tensor[(2, 6, 11), float64], Tensor[(2, 6, 11), float64]) */;
  %62 = @func_2538() /* ty=(Tensor[(2, 6, 11), float64], Tensor[(2, 6, 11), float64]) */;
  %63 = %61.0;
  %64 = %62.0;
  (%63, %64)
}

def @func_29247() -> (Tensor[(2, 6, 11), float64], Tensor[(2, 6, 11), float64], Tensor[(2, 6, 11), float64]) {
  %65 = @func_24264() /* ty=(Tensor[(2, 6, 11), float64], Tensor[(2, 6, 11), float64], Tensor[(2, 6, 11), float64]) */;
  %66 = @func_18285() /* ty=(Tensor[(2, 6, 11), float64], Tensor[(2, 6, 11), float64]) */;
  %67 = %65.0;
  %68 = %66.1;
  %69 = @func_13329() /* ty=Tensor[(2, 6, 11), float64] */;
  (%67, %68, %69)
}

def @func_4306() -> (Tensor[(2, 6, 11), float64],) {
  %70 = @func_3508() /* ty=(Tensor[(2, 6, 11), float64], Tensor[(2, 6, 11), float64]) */;
  %71 = %70.1;
  (%71,)
}

def @func_4686() -> (Tensor[(2, 6, 11), float64], Tensor[(2, 6, 11), float64], Tensor[(2, 6, 11), float64]) {
  %72 = @func_3100() /* ty=(Tensor[(2, 6, 11), float64], Tensor[(2, 6, 11), float64], Tensor[(2, 6, 11), float64], Tensor[(2, 6, 11), float64]) */;
  %73 = @func_1060() /* ty=(Tensor[(2, 6, 11), float64], Tensor[(2, 6, 11), float64]) */;
  %74 = @func_305() /* ty=(Tensor[(2, 6, 11), float64], Tensor[(2, 6, 11), float64]) */;
  %75 = %72.3;
  %76 = %73.0;
  %77 = %74.1;
  (%75, %76, %77)
}

def @func_19026() -> (Tensor[(2, 6, 11), float64],) {
  %78 = @func_16347() /* ty=(Tensor[(2, 6, 11), float64], Tensor[(2, 6, 11), float64], Tensor[(2, 6, 11), float64], Tensor[(2, 6, 11), float64]) */;
  %79 = %78.1;
  (%79,)
}

def @func_24708() -> (Tensor[(2, 6, 11), float64], Tensor[(2, 6, 11), float64]) {
  %80 = @func_21963() /* ty=(Tensor[(2, 6, 11), float64],) */;
  %81 = @func_14093() /* ty=(Tensor[(2, 6, 11), float64], Tensor[(2, 6, 11), float64], Tensor[(2, 6, 11), float64], Tensor[(2, 6, 11), float64], Tensor[(2, 6, 11), float64], Tensor[(2, 6, 11), float64]) */;
  %82 = %80.0;
  %83 = %81.5;
  (%82, %83)
}

def @func_944() -> (Tensor[(2, 6, 11), float64], Tensor[(2, 6, 11), float64]) {
  %84 = @func_868() /* ty=(Tensor[(2, 6, 11), float64], Tensor[(2, 6, 11), float64]) */;
  %85 = @func_675() /* ty=(Tensor[(2, 6, 11), float64], Tensor[(2, 6, 11), float64]) */;
  %86 = %84.0;
  %87 = %85.0;
  (%86, %87)
}

def @func_29653(%var_29635: Tensor[(9, 2, 9), float32], %var_29640: Tensor[(1512), float32]) -> (Tensor[(9, 2, 9), float32], Tensor[(2, 6, 11), float64], Tensor[(1512), float32]) {
  %88 = cast(%var_29635, dtype="float32") /* ty=Tensor[(9, 2, 9), float32] */;
  %89 = cast(%var_29640, dtype="float32") /* ty=Tensor[(1512), float32] */;
  %90 = reshape(%89, newshape=[1512]) /* ty=Tensor[(1512), float32] */;
  %91 = @func_23751(%90) /* ty=(Tensor[(2, 6, 11), float64], Tensor[(2, 6, 11), float64], Tensor[(2, 6, 11), float64], Tensor[(1512), float32]) */;
  %92 = log10(%88) /* ty=Tensor[(9, 2, 9), float32] */;
  %93 = %91.1;
  (%92, %93, %var_29640)
}

def @func_11488(%var_11443: Tensor[(10, 11, 13), float64], %var_11444: Tensor[(10, 11, 13), float64]) -> (Tensor[(10, 11, 13), float64], Tensor[(2, 6, 11), float64]) {
  %94 = cast(%var_11444, dtype="float64") /* ty=Tensor[(10, 11, 13), float64] */;
  %95 = shape_of(%var_11443, dtype="int32") /* ty=Tensor[(3), int32] */;
  %96 = cast(%var_11443, dtype="float64") /* ty=Tensor[(10, 11, 13), float64] */;
  %97 = dyn.reshape(%94, %95, newshape=[]) /* ty=Tensor[(?, ?, ?), float64] */;
  %98 = @func_8584() /* ty=(Tensor[(2, 6, 11), float64], Tensor[(2, 6, 11), float64], Tensor[(2, 6, 11), float64]) */;
  %99 = floor_divide(%96, %97) /* ty=Tensor[(10, 11, 13), float64] */;
  %100 = %98.0;
  (%99, %100)
}

def @func_14287() -> (Tensor[(2, 6, 11), float64], Tensor[(2, 13, 2), uint16], Tensor[(52), int16], Tensor[(2, 6, 11), float64]) {
  %101 = cast(meta[relay.Constant][2] /* ty=Tensor[(52), int16] */, dtype="int16") /* ty=Tensor[(52), int16] */;
  %102 = cast(meta[relay.Constant][2] /* ty=Tensor[(52), int16] */, dtype="int16") /* ty=Tensor[(52), int16] */;
  %103 = reshape(%101, newshape=[2, 13, 2]) /* ty=Tensor[(2, 13, 2), int16] */;
  %104 = reshape(%102, newshape=[2, 13, 2]) /* ty=Tensor[(2, 13, 2), int16] */;
  %105 = @func_606(%103, %104) /* ty=(Tensor[(2, 13, 2), int16], Tensor[(2, 13, 2), uint16]) */;
  %106 = @func_4306() /* ty=(Tensor[(2, 6, 11), float64],) */;
  %107 = @func_3013() /* ty=Tensor[(2, 6, 11), float64] */;
  %108 = %105.1;
  %109 = %106.0;
  (%107, %108, meta[relay.Constant][2] /* ty=Tensor[(52), int16] */, %109)
}

def @func_348() -> (Tensor[(2, 6, 11), float64],) {
  %110 = @func_216() /* ty=(Tensor[(2, 6, 11), float64],) */;
  %111 = %110.0;
  (%111,)
}

def @func_1860() -> (Tensor[(2, 6, 11), float64], Tensor[(2, 6, 11), float64], Tensor[(2, 6, 11), float64], Tensor[(2, 6, 11), float64]) {
  %112 = @func_626() /* ty=(Tensor[(2, 6, 11), float64],) */;
  %113 = @func_305() /* ty=(Tensor[(2, 6, 11), float64], Tensor[(2, 6, 11), float64]) */;
  %114 = @func_1060() /* ty=(Tensor[(2, 6, 11), float64], Tensor[(2, 6, 11), float64]) */;
  %115 = %112.0;
  %116 = %113.0;
  %117 = @func_418() /* ty=Tensor[(2, 6, 11), float64] */;
  %118 = %114.1;
  (%115, %116, %117, %118)
}

def @func_26235() -> (Tensor[(2, 6, 11), float64],) {
  %119 = @func_24663() /* ty=(Tensor[(2, 6, 11), float64],) */;
  %120 = %119.0;
  (%120,)
}

def @func_6995() -> (Tensor[(2, 6, 11), float64],) {
  %121 = @func_4572() /* ty=Tensor[(2, 6, 11), float64] */;
  (%121,)
}

def @func_7277() -> Tensor[(2, 6, 11), float64] {
  %122 = @func_5595() /* ty=(Tensor[(2, 6, 11), float64], Tensor[(2, 6, 11), float64]) */;
  %122.1
}

def @func_13445() -> Tensor[(2, 6, 11), float64] {
  %123 = @func_11850() /* ty=(Tensor[(8, 8, 5), float32], Tensor[(2, 6, 11), float64], Tensor[(2, 6, 11), float64]) */;
  %123.2
}

def @func_2297() -> (Tensor[(2, 6, 11), float64], Tensor[(2, 6, 11), float64], Tensor[(2, 6, 11), float64], Tensor[(2, 6, 11), float64]) {
  %124 = @func_216() /* ty=(Tensor[(2, 6, 11), float64],) */;
  %125 = @func_944() /* ty=(Tensor[(2, 6, 11), float64], Tensor[(2, 6, 11), float64]) */;
  %126 = @func_908() /* ty=(Tensor[(2, 6, 11), float64],) */;
  %127 = %124.0;
  %128 = %125.1;
  %129 = @func_418() /* ty=Tensor[(2, 6, 11), float64] */;
  %130 = %126.0;
  (%127, %128, %129, %130)
}

def @func_1511() -> (Tensor[(2, 6, 11), float64],) {
  %131 = @func_908() /* ty=(Tensor[(2, 6, 11), float64],) */;
  %132 = %131.0;
  (%132,)
}

def @func_25796(%var_25759: Tensor[(16, 14, 13), int32], %var_25760: Tensor[(16, 14, 13), int32], %var_25769: Tensor[(324), uint8]) -> (Tensor[(16, 14, 13), bool], Tensor[(2, 6, 11), float64], Tensor[(324), uint8], Tensor[(2, 6, 11), float64], Tensor[(2, 6, 11), float64], Tensor[(2, 6, 11), float64]) {
  %133 = cast(%var_25760, dtype="bool") /* ty=Tensor[(16, 14, 13), bool] */;
  %134 = shape_of(%var_25759, dtype="int32") /* ty=Tensor[(3), int32] */;
  %135 = cast(%var_25759, dtype="bool") /* ty=Tensor[(16, 14, 13), bool] */;
  %136 = dyn.reshape(%133, %134, newshape=[]) /* ty=Tensor[(?, ?, ?), bool] */;
  %137 = cast(%var_25769, dtype="uint8") /* ty=Tensor[(324), uint8] */;
  %138 = reshape(%137, newshape=[324]) /* ty=Tensor[(324), uint8] */;
  %139 = @func_20442(%138) /* ty=(Tensor[(2, 6, 11), float64], Tensor[(2, 6, 11), float64], Tensor[(9, 1), float64], float64, Tensor[(312), uint8], Tensor[(312), uint8], Tensor[(4, 9, 9), bool], Tensor[(324), uint8], Tensor[(2, 6, 11), float64], Tensor[(2, 6, 11), float64]) */;
  %140 = @func_8418() /* ty=(Tensor[(2, 6, 11), float64],) */;
  %141 = @func_7491() /* ty=(Tensor[(2, 6, 11), float64], Tensor[(2, 6, 11), float64], Tensor[(2, 6, 11), float64], Tensor[(378, 4), float32]) */;
  %142 = @func_8260() /* ty=(Tensor[(2, 6, 11), float64], Tensor[(2, 6, 11), float64]) */;
  %143 = greater_equal(%135, %136) /* ty=Tensor[(16, 14, 13), bool] */;
  %144 = %139.1;
  %145 = %140.0;
  %146 = %141.0;
  %147 = %142.0;
  (%143, %144, %var_25769, %145, %146, %147)
}

def @func_13161() -> (Tensor[(2, 6, 11), float64], Tensor[(2, 6, 11), float64], Tensor[(2, 6, 11), float64]) {
  %148 = @func_451() /* ty=(Tensor[(2, 6, 11), float64], Tensor[(2, 6, 11), float64]) */;
  %149 = %148.1;
  %150 = @func_6099() /* ty=Tensor[(2, 6, 11), float64] */;
  %151 = @func_6099() /* ty=Tensor[(2, 6, 11), float64] */;
  (%149, %150, %151)
}

def @func_19700(%var_19690: Tensor[(15, 6, 5), bool]) -> (Tensor[(15, 6, 5), bool],) {
  %152 = cast(meta[relay.Constant][3] /* ty=Tensor[(15, 6, 5), bool] */, dtype="bool") /* ty=Tensor[(15, 6, 5), bool] */;
  %153 = shape_of(%var_19690, dtype="int32") /* ty=Tensor[(3), int32] */;
  %154 = cast(%var_19690, dtype="bool") /* ty=Tensor[(15, 6, 5), bool] */;
  %155 = dyn.reshape(%152, %153, newshape=[]) /* ty=Tensor[(?, ?, ?), bool] */;
  %156 = logical_or(%154, %155) /* ty=Tensor[(15, 6, 5), bool] */;
  (%156,)
}

def @func_12704() -> Tensor[(2, 6, 11), float64] {
  %157 = @func_9796() /* ty=(Tensor[(2, 6, 11), float64], Tensor[(2, 6, 11), float64]) */;
  %157.1
}

def @func_6691() -> Tensor[(2, 6, 11), float64] {
  %158 = @func_1244() /* ty=(Tensor[(2, 6, 11), float64], Tensor[(2, 6, 11), float64]) */;
  %158.0
}

def @func_19163() -> (Tensor[(1512), float32], Tensor[(10, 5, 4), float32]) {
  %159 = @func_3316() /* ty=(Tensor[(2, 6, 11), float64], Tensor[(2, 6, 11), float64], Tensor[(10, 5, 4), float32], Tensor[(200), float32]) */;
  %160 = @func_17790() /* ty=Tensor[(1512), float32] */;
  %161 = %159.2;
  (%160, %161)
}

def @func_14905() -> Tensor[(6, 252), float32] {
  @func_6725() /* ty=Tensor[(6, 252), float32] */
}

def @func_13355() -> (Tensor[(2, 6, 11), float64], Tensor[(2, 6, 11), float64]) {
  %162 = @func_10403() /* ty=(Tensor[(2, 6, 11), float64],) */;
  %163 = %162.0;
  %164 = @func_5952() /* ty=Tensor[(2, 6, 11), float64] */;
  (%163, %164)
}

def @func_18582() -> (Tensor[(2, 6, 11), float64],) {
  %165 = @func_17586() /* ty=(Tensor[(2, 6, 11), float64], Tensor[(2, 6, 11), float64]) */;
  %166 = %165.1;
  (%166,)
}

def @func_25320() -> (Tensor[(2, 6, 11), float64],) {
  %167 = @func_216() /* ty=(Tensor[(2, 6, 11), float64],) */;
  %168 = %167.0;
  (%168,)
}

def @func_23370() -> (Tensor[(2, 6, 11), float64],) {
  %169 = @func_8883() /* ty=(Tensor[(2, 6, 11), float64],) */;
  %170 = %169.0;
  (%170,)
}

def @func_7517() -> Tensor[(2, 6, 11), float64] {
  @func_5952() /* ty=Tensor[(2, 6, 11), float64] */
}

def @func_18038() -> Tensor[(1512), float32] {
  %171 = @func_17411() /* ty=(Tensor[(1512), float32], Tensor[(2, 6, 11), float64]) */;
  %171.0
}

def @func_24210() -> (Tensor[(2, 6, 11), float64], Tensor[(2, 6, 11), float64], Tensor[(2, 6, 11), float64], Tensor[(2, 6, 11), float64]) {
  %172 = @func_17987() /* ty=(Tensor[(2, 6, 11), float64], Tensor[(2, 6, 11), float64], Tensor[(2, 6, 11), float64], Tensor[(14, 10, 6), float32], Tensor[(840), float32], Tensor[(2, 6, 11), float64]) */;
  %173 = @func_868() /* ty=(Tensor[(2, 6, 11), float64], Tensor[(2, 6, 11), float64]) */;
  %174 = @func_16010() /* ty=(Tensor[(2, 6, 11), float64],) */;
  %175 = @func_216() /* ty=(Tensor[(2, 6, 11), float64],) */;
  %176 = %172.5;
  %177 = %173.0;
  %178 = %174.0;
  %179 = %175.0;
  (%176, %177, %178, %179)
}

def @func_216() -> (Tensor[(2, 6, 11), float64],) {
  %180 = @func_197() /* ty=(Tensor[(2, 6, 11), float64],) */;
  %181 = %180.0;
  (%181,)
}

def @func_20784(%var_20771: Tensor[(12, 2, 15), float64]) -> Tensor[(12, 2, 15), bool] {
  %182 = cast(meta[relay.Constant][4] /* ty=Tensor[(12, 2, 15), float64] */, dtype="bool") /* ty=Tensor[(12, 2, 15), bool] */;
  %183 = shape_of(%var_20771, dtype="int32") /* ty=Tensor[(3), int32] */;
  %184 = cast(%var_20771, dtype="bool") /* ty=Tensor[(12, 2, 15), bool] */;
  %185 = dyn.reshape(%182, %183, newshape=[]) /* ty=Tensor[(?, ?, ?), bool] */;
  less(%184, %185) /* ty=Tensor[(12, 2, 15), bool] */
}

def @func_24014() -> (Tensor[(2, 6, 11), float64],) {
  %186 = @func_23617() /* ty=(Tensor[(2, 6, 11), float64], Tensor[(2, 6, 11), float64]) */;
  %187 = %186.0;
  (%187,)
}

def @func_3543() -> (Tensor[(2, 6, 11), float64], Tensor[(2, 6, 11), float64]) {
  %188 = @func_2949() /* ty=(Tensor[(2, 6, 11), float64],) */;
  %189 = @func_1511() /* ty=(Tensor[(2, 6, 11), float64],) */;
  %190 = %188.0;
  %191 = %189.0;
  (%190, %191)
}

def @func_16469() -> (Tensor[(2, 6, 11), float64],) {
  %192 = @func_10639() /* ty=(Tensor[(2, 6, 11), float64], Tensor[(2, 6, 11), float64]) */;
  %193 = %192.1;
  (%193,)
}

def @func_26343(%var_26317: Tensor[(1512, 1), float32]) -> (Tensor[(2, 6, 11), float64], Tensor[(2, 6, 11), float64], Tensor[(1512, 1), float32], Tensor[(2, 6, 11), float64], Tensor[(2, 6, 11), float64], Tensor[(1512), float32]) {
  %194 = @func_626() /* ty=(Tensor[(2, 6, 11), float64],) */;
  %195 = cast(%var_26317, dtype="float32") /* ty=Tensor[(1512, 1), float32] */;
  %196 = reshape(%195, newshape=[1512]) /* ty=Tensor[(1512), float32] */;
  %197 = @func_517(%196) /* ty=(Tensor[(2, 6, 11), float64], Tensor[(2, 6, 11), float64], Tensor[(1512), float32], Tensor[(2, 6, 11), float64], Tensor[(2, 6, 11), float64], Tensor[(2, 6, 11), float64]) */;
  %198 = @func_24663() /* ty=(Tensor[(2, 6, 11), float64],) */;
  %199 = @func_25115() /* ty=(Tensor[(2, 6, 11), float64], Tensor[(2, 6, 11), float64], Tensor[(2, 6, 11), float64]) */;
  %200 = cast(%var_26317, dtype="float32") /* ty=Tensor[(1512, 1), float32] */;
  %201 = reshape(%200, newshape=[1512]) /* ty=Tensor[(1512), float32] */;
  %202 = @func_517(%201) /* ty=(Tensor[(2, 6, 11), float64], Tensor[(2, 6, 11), float64], Tensor[(1512), float32], Tensor[(2, 6, 11), float64], Tensor[(2, 6, 11), float64], Tensor[(2, 6, 11), float64]) */;
  %203 = %194.0;
  %204 = %197.4;
  %205 = %198.0;
  %206 = %199.2;
  %207 = %202.2;
  (%203, %204, %var_26317, %205, %206, %207)
}

def @func_15991() -> Tensor[(2, 6, 11), float64] {
  @func_14614() /* ty=Tensor[(2, 6, 11), float64] */
}

def @func_10837(%var_10832: Tensor[(16, 1, 14), float32]) -> (Tensor[(16, 1, 14), float32], Tensor[(2, 6, 11), float64]) {
  %208 = cast(%var_10832, dtype="float32") /* ty=Tensor[(16, 1, 14), float32] */;
  %209 = atan(%208) /* ty=Tensor[(16, 1, 14), float32] */;
  %210 = @func_3484() /* ty=Tensor[(2, 6, 11), float64] */;
  (%209, %210)
}

def @func_28160(%var_28152: Tensor[(9, 11, 4), int8], %var_28153: Tensor[(9, 11, 4), int8]) -> (Tensor[(9, 11, 4), int8],) {
  %211 = cast(%var_28153, dtype="int8") /* ty=Tensor[(9, 11, 4), int8] */;
  %212 = shape_of(%var_28152, dtype="int32") /* ty=Tensor[(3), int32] */;
  %213 = cast(%var_28152, dtype="int8") /* ty=Tensor[(9, 11, 4), int8] */;
  %214 = dyn.reshape(%211, %212, newshape=[]) /* ty=Tensor[(?, ?, ?), int8] */;
  %215 = bitwise_and(%213, %214) /* ty=Tensor[(9, 11, 4), int8] */;
  (%215,)
}

def @func_15181() -> (Tensor[(2, 6, 11), float64],) {
  %216 = @func_1206() /* ty=(Tensor[(2, 6, 11), float64], Tensor[(2, 6, 11), float64], Tensor[(2, 6, 11), float64]) */;
  %217 = %216.0;
  (%217,)
}

def @func_12996() -> (Tensor[(2, 6, 11), float64],) {
  %218 = @func_626() /* ty=(Tensor[(2, 6, 11), float64],) */;
  %219 = %218.0;
  (%219,)
}

def @func_2538() -> (Tensor[(2, 6, 11), float64], Tensor[(2, 6, 11), float64]) {
  %220 = @func_1473() /* ty=(Tensor[(2, 6, 11), float64], Tensor[(2, 6, 11), float64], Tensor[(2, 6, 11), float64], Tensor[(2, 6, 11), float64]) */;
  %221 = %220.1;
  %222 = @func_2305() /* ty=Tensor[(2, 6, 11), float64] */;
  (%221, %222)
}

def @func_13303() -> (Tensor[(2, 6, 11), float64],) {
  %223 = @func_8584() /* ty=(Tensor[(2, 6, 11), float64], Tensor[(2, 6, 11), float64], Tensor[(2, 6, 11), float64]) */;
  %224 = %223.1;
  (%224,)
}

def @func_28681() -> (Tensor[(2, 6, 11), float64], Tensor[(2, 6, 11), float64], Tensor[(2, 6, 11), float64], Tensor[(2, 6, 11), float64]) {
  %225 = @func_2341() /* ty=(Tensor[(2, 6, 11), float64], Tensor[(2, 6, 11), float64], Tensor[(2, 6, 11), float64], Tensor[(2, 6, 11), float64], Tensor[(2, 6, 11), float64]) */;
  %226 = @func_15510() /* ty=(Tensor[(2, 6, 11), float64], Tensor[(2, 6, 11), float64]) */;
  %227 = @func_25133() /* ty=Tensor[(2, 6, 11), float64] */;
  %228 = %225.0;
  %229 = %226.0;
  %230 = @func_3864() /* ty=Tensor[(2, 6, 11), float64] */;
  (%227, %228, %229, %230)
}

def @func_2928() -> (Tensor[(2, 6, 11), float64], Tensor[(2, 6, 11), float64], Tensor[(2, 6, 11), float64], Tensor[(2, 6, 11), float64], Tensor[(2, 6, 11), float64]) {
  %231 = @func_782() /* ty=(Tensor[(2, 6, 11), float64], Tensor[(1512), float32], Tensor[(756, 2), float32]) */;
  %232 = @func_908() /* ty=(Tensor[(2, 6, 11), float64],) */;
  %233 = @func_944() /* ty=(Tensor[(2, 6, 11), float64], Tensor[(2, 6, 11), float64]) */;
  %234 = %231.0;
  %235 = @func_2222() /* ty=Tensor[(2, 6, 11), float64] */;
  %236 = %232.0;
  %237 = @func_2222() /* ty=Tensor[(2, 6, 11), float64] */;
  %238 = %233.1;
  (%234, %235, %236, %237, %238)
}

def @func_27063() -> (Tensor[(2, 6, 11), float64],) {
  %239 = @func_25312() /* ty=(Tensor[(2, 6, 11), float64],) */;
  %240 = %239.0;
  (%240,)
}

def @func_7913() -> Tensor[(2, 6, 11), float64] {
  @func_7277() /* ty=Tensor[(2, 6, 11), float64] */
}

def @func_13607() -> (Tensor[(2, 6, 11), float64], Tensor[(2, 6, 11), float64], Tensor[(2, 6, 11), float64], Tensor[(2, 6, 11), float64]) {
  %241 = @func_1511() /* ty=(Tensor[(2, 6, 11), float64],) */;
  %242 = @func_5922() /* ty=(Tensor[(2, 6, 11), float64], Tensor[(2, 6, 11), float64]) */;
  %243 = @func_4427() /* ty=Tensor[(2, 6, 11), float64] */;
  %244 = @func_12481() /* ty=Tensor[(2, 6, 11), float64] */;
  %245 = %241.0;
  %246 = %242.1;
  (%243, %244, %245, %246)
}

def @func_27480() -> (Tensor[(2, 6, 11), float64],) {
  %247 = @func_18410() /* ty=(Tensor[(2, 6, 11), float64], Tensor[(2, 6, 11), float64]) */;
  %248 = %247.1;
  (%248,)
}

def @func_16893() -> (Tensor[(2, 6, 11), float64], Tensor[(2, 6, 11), float64]) {
  %249 = @func_15921() /* ty=(Tensor[(2, 6, 11), float64],) */;
  %250 = @func_15713() /* ty=(Tensor[(2, 6, 11), float64], Tensor[(2, 6, 11), float64]) */;
  %251 = %249.0;
  %252 = %250.0;
  (%251, %252)
}

def @func_30247() -> (Tensor[(2, 6, 11), float64], Tensor[(2, 6, 11), float64]) {
  %253 = @func_19099() /* ty=(Tensor[(2, 6, 11), float64], Tensor[(2, 6, 11), float64], Tensor[(2, 6, 11), float64]) */;
  %254 = @func_11383() /* ty=(Tensor[(2, 6, 11), float64], Tensor[(2, 6, 11), float64], Tensor[(2, 6, 11), float64], Tensor[(2, 6, 11), float64], Tensor[(2, 6, 11), float64], Tensor[(2, 6, 11), float64], Tensor[(2, 6, 11), float64], Tensor[(2, 6, 11), float64]) */;
  %255 = %253.2;
  %256 = %254.5;
  (%255, %256)
}

def @func_4724() -> (Tensor[(2, 6, 11), float64],) {
  %257 = @func_216() /* ty=(Tensor[(2, 6, 11), float64],) */;
  %258 = %257.0;
  (%258,)
}

def @func_31096() -> (Tensor[(2, 6, 11), float64],) {
  %259 = @func_9409() /* ty=Tensor[(2, 6, 11), float64] */;
  (%259,)
}

def @func_3996() -> Tensor[(2, 6, 11), float64] {
  @func_1645() /* ty=Tensor[(2, 6, 11), float64] */
}

def @func_25991() -> (Tensor[(2, 6, 11), float64], Tensor[(2, 6, 11), float64], Tensor[(2, 6, 11), float64], Tensor[(2, 6, 11), float64]) {
  %260 = @func_8295() /* ty=(Tensor[(2, 6, 11), float64], Tensor[(2, 6, 11), float64]) */;
  %261 = @func_20719() /* ty=(Tensor[(2, 6, 11), float64], Tensor[(2, 6, 11), float64], Tensor[(2, 6, 11), float64], Tensor[(2, 6, 11), float64]) */;
  %262 = @func_4306() /* ty=(Tensor[(2, 6, 11), float64],) */;
  %263 = %260.0;
  %264 = @func_6196() /* ty=Tensor[(2, 6, 11), float64] */;
  %265 = %261.0;
  %266 = %262.0;
  (%263, %264, %265, %266)
}

def @func_1206() -> (Tensor[(2, 6, 11), float64], Tensor[(2, 6, 11), float64], Tensor[(2, 6, 11), float64]) {
  %267 = @func_1035() /* ty=(Tensor[(2, 6, 11), float64], Tensor[(2, 6, 11), float64]) */;
  %268 = @func_626() /* ty=(Tensor[(2, 6, 11), float64],) */;
  %269 = @func_868() /* ty=(Tensor[(2, 6, 11), float64], Tensor[(2, 6, 11), float64]) */;
  %270 = %267.0;
  %271 = %268.0;
  %272 = %269.0;
  (%270, %271, %272)
}

def @func_6157() -> (Tensor[(2, 6, 11), float64], Tensor[(2, 6, 11), float64], Tensor[(2, 6, 11), float64]) {
  %273 = @func_1060() /* ty=(Tensor[(2, 6, 11), float64], Tensor[(2, 6, 11), float64]) */;
  %274 = @func_3484() /* ty=Tensor[(2, 6, 11), float64] */;
  %275 = @func_4065() /* ty=Tensor[(2, 6, 11), float64] */;
  %276 = %273.0;
  (%274, %275, %276)
}

def @func_19884(%var_19874: float32, %var_19875: Tensor[(4, 6, 9), float32]) -> Tensor[(4, 6, 9), float32] {
  %277 = cast(%var_19874, dtype="float32") /* ty=float32 */;
  %278 = cast(%var_19875, dtype="float32") /* ty=Tensor[(4, 6, 9), float32] */;
  power(%277, %278) /* ty=Tensor[(4, 6, 9), float32] */
}

def @func_22491() -> (Tensor[(2, 6, 11), float64], Tensor[(2, 6, 11), float64]) {
  %279 = @func_21022() /* ty=(Tensor[(2, 6, 11), float64], Tensor[(2, 6, 11), float64]) */;
  %280 = %279.0;
  %281 = @func_1645() /* ty=Tensor[(2, 6, 11), float64] */;
  (%280, %281)
}

def @func_22674(%var_22669: Tensor[(11, 1, 14), float32], %var_22670: Tensor[(11, 8, 14), float32]) -> Tensor[(11, 8, 14), float32] {
  %282 = cast(%var_22669, dtype="float32") /* ty=Tensor[(11, 1, 14), float32] */;
  %283 = cast(%var_22670, dtype="float32") /* ty=Tensor[(11, 8, 14), float32] */;
  power(%282, %283) /* ty=Tensor[(11, 8, 14), float32] */
}

def @func_21345() -> (Tensor[(2, 6, 11), float64],) {
  %284 = @func_418() /* ty=Tensor[(2, 6, 11), float64] */;
  (%284,)
}

def @func_28070() -> (Tensor[(2, 6, 11), float64], Tensor[(2, 6, 11), float64]) {
  %285 = @func_27102() /* ty=(Tensor[(2, 6, 11), float64], Tensor[(2, 6, 11), float64]) */;
  %286 = @func_216() /* ty=(Tensor[(2, 6, 11), float64],) */;
  %287 = %285.1;
  %288 = %286.0;
  (%287, %288)
}

def @func_24805() -> (Tensor[(1512), float32], Tensor[(2, 6, 11), float64], Tensor[(2, 6, 11), float64]) {
  %289 = @func_6229() /* ty=(Tensor[(2, 6, 11), float64],) */;
  %290 = @func_18038() /* ty=Tensor[(1512), float32] */;
  %291 = @func_22886() /* ty=Tensor[(2, 6, 11), float64] */;
  %292 = %289.0;
  (%290, %291, %292)
}

def @func_3061() -> (Tensor[(2, 6, 11), float64],) {
  %293 = @func_1511() /* ty=(Tensor[(2, 6, 11), float64],) */;
  %294 = %293.0;
  (%294,)
}

def @func_13431() -> (Tensor[(2, 6, 11), float64], Tensor[(2, 6, 11), float64], Tensor[(2, 6, 11), float64]) {
  %295 = @func_8418() /* ty=(Tensor[(2, 6, 11), float64],) */;
  %296 = @func_1330() /* ty=(Tensor[(2, 6, 11), float64], Tensor[(2, 6, 11), float64], Tensor[(2, 6, 11), float64]) */;
  %297 = @func_8054() /* ty=(Tensor[(2, 6, 11), float64], Tensor[(2, 6, 11), float64], Tensor[(2, 6, 11), float64]) */;
  %298 = %295.0;
  %299 = %296.2;
  %300 = %297.1;
  (%298, %299, %300)
}

def @func_29701() -> (Tensor[(2, 6, 11), float64], Tensor[(2, 6, 11), float64]) {
  %301 = @func_12076() /* ty=(Tensor[(2, 6, 11), float64],) */;
  %302 = @func_15510() /* ty=(Tensor[(2, 6, 11), float64], Tensor[(2, 6, 11), float64]) */;
  %303 = %301.0;
  %304 = %302.0;
  (%303, %304)
}

def @func_4629() -> (Tensor[(2, 6, 11), float64],) {
  %305 = @func_3386() /* ty=(Tensor[(2, 6, 11), float64],) */;
  %306 = %305.0;
  (%306,)
}

def @func_5860() -> Tensor[(2, 6, 11), float64] {
  @func_4572() /* ty=Tensor[(2, 6, 11), float64] */
}

def @func_7830() -> (Tensor[(2, 6, 11), float64],) {
  %307 = @func_305() /* ty=(Tensor[(2, 6, 11), float64], Tensor[(2, 6, 11), float64]) */;
  %308 = %307.1;
  (%308,)
}

def @func_5824() -> (Tensor[(2, 6, 11), float64], Tensor[(2, 6, 11), float64]) {
  %309 = @func_3386() /* ty=(Tensor[(2, 6, 11), float64],) */;
  %310 = @func_376() /* ty=Tensor[(2, 6, 11), float64] */;
  %311 = %309.0;
  (%310, %311)
}

def @func_11263() -> (Tensor[(756, 2), float32],) {
  %312 = @func_782() /* ty=(Tensor[(2, 6, 11), float64], Tensor[(1512), float32], Tensor[(756, 2), float32]) */;
  %313 = %312.2;
  (%313,)
}

def @func_7058() -> (Tensor[(2, 6, 11), float64], Tensor[(2, 6, 11), float64], Tensor[(2, 6, 11), float64]) {
  %314 = @func_1473() /* ty=(Tensor[(2, 6, 11), float64], Tensor[(2, 6, 11), float64], Tensor[(2, 6, 11), float64], Tensor[(2, 6, 11), float64]) */;
  %315 = @func_305() /* ty=(Tensor[(2, 6, 11), float64], Tensor[(2, 6, 11), float64]) */;
  %316 = %314.1;
  %317 = @func_3864() /* ty=Tensor[(2, 6, 11), float64] */;
  %318 = %315.1;
  (%316, %317, %318)
}

def @func_20645(%var_20620: Tensor[(7, 1, 8), float64]) -> (Tensor[(2, 6, 11), float64], Tensor[(7, ?, 8), bool]) {
  %319 = @func_13961() /* ty=(Tensor[(2, 6, 11), float64],) */;
  %320 = cast(%var_20620, dtype="float64") /* ty=Tensor[(7, 1, 8), float64] */;
  %321 = exp(%320) /* ty=Tensor[(7, 1, 8), float64] */;
  %322 = cast(%var_20620, dtype="bool") /* ty=Tensor[(7, 1, 8), bool] */;
  %323 = shape_of(%321, dtype="int32") /* ty=Tensor[(3), int32] */;
  %324 = cast(%321, dtype="bool") /* ty=Tensor[(7, 1, 8), bool] */;
  %325 = dyn.reshape(%322, %323, newshape=[]) /* ty=Tensor[(?, ?, ?), bool] */;
  %326 = %319.0;
  %327 = greater_equal(%324, %325) /* ty=Tensor[(7, ?, 8), bool] */;
  (%326, %327)
}

def @func_11537() -> (Tensor[(2, 6, 11), float64],) {
  %328 = @func_11195() /* ty=(Tensor[(2, 6, 11), float64], Tensor[(2, 6, 11), float64]) */;
  %329 = %328.0;
  (%329,)
}

def @func_31709(%var_31634: Tensor[(52, 1), int16]) -> (Tensor[(2, 6, 11), float64], Tensor[(2, 6, 11), float64], Tensor[(2, 6, 11), float64], Tensor[(312), uint8], Tensor[(52, 312), int64], Tensor[(52, 312), bool]) {
  %330 = @func_348() /* ty=(Tensor[(2, 6, 11), float64],) */;
  %331 = cast(%var_31634, dtype="int16") /* ty=Tensor[(52, 1), int16] */;
  %332 = reshape(%331, newshape=[1, 52]) /* ty=Tensor[(1, 52), int16] */;
  %333 = @func_20583(%332) /* ty=(Tensor[(2, 6, 11), float64], Tensor[(756, 2), float32], Tensor[(2, 6, 11), float64], Tensor[(2, 6, 11), float64], Tensor[(2, 6, 11), float64], Tensor[(1, 52), int16], Tensor[(4, 6, 9), float32], float32, Tensor[(216), float32], Tensor[(2, 6, 11), float64], Tensor[(2, 6, 11), float64]) */;
  %334 = @func_3100() /* ty=(Tensor[(2, 6, 11), float64], Tensor[(2, 6, 11), float64], Tensor[(2, 6, 11), float64], Tensor[(2, 6, 11), float64]) */;
  %335 = cast(meta[relay.Constant][5] /* ty=Tensor[(312), uint8] */, dtype="uint8") /* ty=Tensor[(312), uint8] */;
  %336 = reshape(%335, newshape=[312]) /* ty=Tensor[(312), uint8] */;
  %337 = @func_15500(%336) /* ty=(Tensor[(2, 13, 2), uint16], Tensor[(2, 6, 11), float64], Tensor[(13, 2, 12), float64], Tensor[(312), uint8]) */;
  %338 = cast(meta[relay.Constant][5] /* ty=Tensor[(312), uint8] */, dtype="int64") /* ty=Tensor[(312), int64] */;
  %339 = cast(%var_31634, dtype="int64") /* ty=Tensor[(52, 1), int64] */;
  %340 = cast(meta[relay.Constant][5] /* ty=Tensor[(312), uint8] */, dtype="bool") /* ty=Tensor[(312), bool] */;
  %341 = cast(%var_31634, dtype="bool") /* ty=Tensor[(52, 1), bool] */;
  %342 = %330.0;
  %343 = %333.4;
  %344 = %334.3;
  %345 = %337.3;
  %346 = multiply(%338, %339) /* ty=Tensor[(52, 312), int64] */;
  %347 = less(%340, %341) /* ty=Tensor[(52, 312), bool] */;
  (%342, %343, %344, %345, %346, %347)
}

def @func_24023() -> (Tensor[(2, 6, 11), float64],) {
  %348 = @func_14093() /* ty=(Tensor[(2, 6, 11), float64], Tensor[(2, 6, 11), float64], Tensor[(2, 6, 11), float64], Tensor[(2, 6, 11), float64], Tensor[(2, 6, 11), float64], Tensor[(2, 6, 11), float64]) */;
  %349 = %348.5;
  (%349,)
}

def @func_13329() -> Tensor[(2, 6, 11), float64] {
  %350 = @func_4686() /* ty=(Tensor[(2, 6, 11), float64], Tensor[(2, 6, 11), float64], Tensor[(2, 6, 11), float64]) */;
  %350.1
}

def @func_11133(%var_11126: Tensor[(200), float32]) -> (Tensor[(2, 6, 11), float64], Tensor[(1512), float32], Tensor[(2, 6, 11), float64], Tensor[(2, 6, 11), float64], Tensor[(2, 6, 11), float64], Tensor[(200), float32]) {
  %351 = @func_9855() /* ty=(Tensor[(2, 6, 11), float64], Tensor[(2, 6, 11), float64]) */;
  %352 = @func_6450() /* ty=(Tensor[(2, 6, 11), float64], Tensor[(1512), float32], Tensor[(6, 252), float32], Tensor[(2, 6, 11), float64]) */;
  %353 = @func_3823() /* ty=(Tensor[(2, 6, 11), float64],) */;
  %354 = cast(%var_11126, dtype="float32") /* ty=Tensor[(200), float32] */;
  %355 = reshape(%354, newshape=[200]) /* ty=Tensor[(200), float32] */;
  %356 = @func_3781(%355) /* ty=(Tensor[(2, 6, 11), float64], Tensor[(2, 6, 11), float64], Tensor[(2, 6, 11), float64], Tensor[(200), float32], Tensor[(2, 6, 11), float64], Tensor[(1512), float32], Tensor[(14, 10, 3), bool], Tensor[(420), bool]) */;
  %357 = %351.1;
  %358 = %352.1;
  %359 = %353.0;
  %360 = @func_7399() /* ty=Tensor[(2, 6, 11), float64] */;
  %361 = %356.4;
  (%357, %358, %359, %360, %361, %var_11126)
}

def @func_11383() -> (Tensor[(2, 6, 11), float64], Tensor[(2, 6, 11), float64], Tensor[(2, 6, 11), float64], Tensor[(2, 6, 11), float64], Tensor[(2, 6, 11), float64], Tensor[(2, 6, 11), float64], Tensor[(2, 6, 11), float64], Tensor[(2, 6, 11), float64]) {
  %362 = @func_7491() /* ty=(Tensor[(2, 6, 11), float64], Tensor[(2, 6, 11), float64], Tensor[(2, 6, 11), float64], Tensor[(378, 4), float32]) */;
  %363 = @func_9026() /* ty=(Tensor[(2, 6, 11), float64], Tensor[(2, 6, 11), float64]) */;
  %364 = @func_10208() /* ty=(Tensor[(2, 6, 11), float64],) */;
  %365 = @func_4031() /* ty=(Tensor[(2, 6, 11), float64], Tensor[(2, 6, 11), float64]) */;
  %366 = @func_8179() /* ty=(Tensor[(2, 6, 11), float64],) */;
  %367 = %362.2;
  %368 = @func_8487() /* ty=Tensor[(2, 6, 11), float64] */;
  %369 = %363.0;
  %370 = %364.0;
  %371 = %365.0;
  %372 = @func_10354() /* ty=Tensor[(2, 6, 11), float64] */;
  %373 = %366.0;
  %374 = @func_10750() /* ty=Tensor[(2, 6, 11), float64] */;
  (%367, %368, %369, %370, %371, %372, %373, %374)
}

def @func_675() -> (Tensor[(2, 6, 11), float64], Tensor[(2, 6, 11), float64]) {
  %375 = @func_270() /* ty=(Tensor[(2, 6, 11), float64], Tensor[(2, 6, 11), float64]) */;
  %376 = @func_626() /* ty=(Tensor[(2, 6, 11), float64],) */;
  %377 = %375.1;
  %378 = %376.0;
  (%377, %378)
}

def @func_19512(%var_19503: Tensor[(33, 1), uint32], %var_19504: Tensor[(99), uint32]) -> (Tensor[(2, 6, 11), float64], Tensor[(2, 6, 11), float64], Tensor[(1512), float32], Tensor[(2, 6, 11), float64], Tensor[(2, 6, 11), float64], Tensor[(11, 3, 3), uint32], Tensor[(99), uint32], Tensor[(33, 1), float64]) {
  %379 = @func_1060() /* ty=(Tensor[(2, 6, 11), float64], Tensor[(2, 6, 11), float64]) */;
  %380 = @func_16792() /* ty=(Tensor[(2, 6, 11), float64], Tensor[(2, 6, 11), float64], Tensor[(2, 6, 11), float64], Tensor[(2, 6, 11), float64]) */;
  %381 = @func_270() /* ty=(Tensor[(2, 6, 11), float64], Tensor[(2, 6, 11), float64]) */;
  %382 = @func_7931() /* ty=(Tensor[(2, 6, 11), float64],) */;
  %383 = cast(%var_19503, dtype="uint32") /* ty=Tensor[(33, 1), uint32] */;
  %384 = cast(%var_19504, dtype="uint32") /* ty=Tensor[(99), uint32] */;
  %385 = reshape(%383, newshape=[11, 1, 3]) /* ty=Tensor[(11, 1, 3), uint32] */;
  %386 = reshape(%384, newshape=[11, 3, 3]) /* ty=Tensor[(11, 3, 3), uint32] */;
  %387 = @func_16569(%385, %386) /* ty=(Tensor[(11, 3, 3), uint32],) */;
  %388 = cast(%var_19503, dtype="float64") /* ty=Tensor[(33, 1), float64] */;
  %389 = %379.1;
  %390 = %380.1;
  %391 = @func_17790() /* ty=Tensor[(1512), float32] */;
  %392 = %381.0;
  %393 = %382.0;
  %394 = %387.0;
  %395 = sqrt(%388) /* ty=Tensor[(33, 1), float64] */;
  (%389, %390, %391, %392, %393, %394, %var_19504, %395)
}

def @func_17501() -> (Tensor[(2, 6, 11), float64], Tensor[(2, 6, 11), float64]) {
  %396 = @func_6512() /* ty=(Tensor[(2, 6, 11), float64],) */;
  %397 = @func_8222() /* ty=(Tensor[(2, 6, 11), float64], Tensor[(2, 6, 11), float64], Tensor[(2, 6, 11), float64]) */;
  %398 = %396.0;
  %399 = %397.1;
  (%398, %399)
}

def @func_31257() -> (Tensor[(2, 6, 11), float64], Tensor[(2, 6, 11), float64]) {
  %400 = @func_2975() /* ty=Tensor[(2, 6, 11), float64] */;
  %401 = @func_7913() /* ty=Tensor[(2, 6, 11), float64] */;
  (%400, %401)
}

def @func_20278() -> (Tensor[(2, 6, 11), float64], Tensor[(2, 6, 11), float64]) {
  %402 = @func_14020() /* ty=(Tensor[(2, 6, 11), float64], Tensor[(2, 6, 11), float64], Tensor[(2, 6, 11), float64]) */;
  %403 = @func_13329() /* ty=Tensor[(2, 6, 11), float64] */;
  %404 = %402.0;
  (%403, %404)
}

def @func_17476() -> (Tensor[(2, 6, 11), float64], Tensor[(2, 6, 11), float64], Tensor[(2, 6, 11), float64]) {
  %405 = @func_1206() /* ty=(Tensor[(2, 6, 11), float64], Tensor[(2, 6, 11), float64], Tensor[(2, 6, 11), float64]) */;
  %406 = @func_15841() /* ty=(Tensor[(2, 6, 11), float64], Tensor[(2, 6, 11), float64]) */;
  %407 = @func_5090() /* ty=(Tensor[(2, 6, 11), float64], Tensor[(2, 6, 11), float64]) */;
  %408 = %405.0;
  %409 = %406.0;
  %410 = %407.1;
  (%408, %409, %410)
}

def @func_16010() -> (Tensor[(2, 6, 11), float64],) {
  %411 = @func_6279() /* ty=Tensor[(2, 6, 11), float64] */;
  (%411,)
}

def @func_14372() -> Tensor[(2, 6, 11), float64] {
  %412 = @func_10208() /* ty=(Tensor[(2, 6, 11), float64],) */;
  %412.0
}

def @func_8354() -> (Tensor[(2, 6, 11), float64], Tensor[(2, 6, 11), float64], Tensor[(2, 6, 11), float64], Tensor[(2, 6, 11), float64]) {
  %413 = @func_2839() /* ty=(Tensor[(2, 6, 11), float64], Tensor[(2, 6, 11), float64], Tensor[(2, 6, 11), float64]) */;
  %414 = @func_1244() /* ty=(Tensor[(2, 6, 11), float64], Tensor[(2, 6, 11), float64]) */;
  %415 = @func_3690() /* ty=(Tensor[(2, 6, 11), float64], Tensor[(2, 6, 11), float64], Tensor[(2, 6, 11), float64], Tensor[(2, 6, 11), float64], Tensor[(2, 6, 11), float64]) */;
  %416 = %413.1;
  %417 = %414.1;
  %418 = %415.0;
  %419 = @func_6279() /* ty=Tensor[(2, 6, 11), float64] */;
  (%416, %417, %418, %419)
}

def @func_782() -> (Tensor[(2, 6, 11), float64], Tensor[(1512), float32], Tensor[(756, 2), float32]) {
  %420 = cast(meta[relay.Constant][6] /* ty=Tensor[(756, 2), float32] */, dtype="float32") /* ty=Tensor[(756, 2), float32] */;
  %421 = reshape(%420, newshape=[1512]) /* ty=Tensor[(1512), float32] */;
  %422 = @func_517(%421) /* ty=(Tensor[(2, 6, 11), float64], Tensor[(2, 6, 11), float64], Tensor[(1512), float32], Tensor[(2, 6, 11), float64], Tensor[(2, 6, 11), float64], Tensor[(2, 6, 11), float64]) */;
  %423 = @func_418() /* ty=Tensor[(2, 6, 11), float64] */;
  %424 = %422.2;
  (%423, %424, meta[relay.Constant][6] /* ty=Tensor[(756, 2), float32] */)
}

def @func_15531() -> Tensor[(2, 6, 11), float64] {
  %425 = @func_5150() /* ty=(Tensor[(2, 6, 11), float64], Tensor[(2, 6, 11), float64]) */;
  %425.0
}

def @func_8487() -> Tensor[(2, 6, 11), float64] {
  %426 = @func_5340() /* ty=(Tensor[(2, 6, 11), float64], Tensor[(2, 6, 11), float64], Tensor[(2, 6, 11), float64], Tensor[(2, 6, 11), float64], Tensor[(2, 6, 11), float64]) */;
  %426.2
}

def @func_29589() -> (Tensor[(2, 6, 11), float64], Tensor[(2, 6, 11), float64]) {
  %427 = @func_17586() /* ty=(Tensor[(2, 6, 11), float64], Tensor[(2, 6, 11), float64]) */;
  %428 = @func_17501() /* ty=(Tensor[(2, 6, 11), float64], Tensor[(2, 6, 11), float64]) */;
  %429 = %427.1;
  %430 = %428.0;
  (%429, %430)
}

def @func_23156() -> (Tensor[(2, 6, 11), float64], Tensor[(2, 6, 11), float64], Tensor[(2, 6, 11), float64], Tensor[(2, 6, 11), float64], Tensor[(2, 6, 11), float64]) {
  %431 = @func_12819() /* ty=(Tensor[(2, 6, 11), float64], Tensor[(2, 6, 11), float64], Tensor[(2, 6, 11), float64]) */;
  %432 = @func_14776() /* ty=Tensor[(2, 6, 11), float64] */;
  %433 = @func_3864() /* ty=Tensor[(2, 6, 11), float64] */;
  %434 = @func_20836() /* ty=Tensor[(2, 6, 11), float64] */;
  %435 = %431.2;
  %436 = @func_19386() /* ty=Tensor[(2, 6, 11), float64] */;
  (%432, %433, %434, %435, %436)
}

def @func_10639() -> (Tensor[(2, 6, 11), float64], Tensor[(2, 6, 11), float64]) {
  %437 = @func_7748() /* ty=(Tensor[(2, 6, 11), float64], Tensor[(2, 6, 11), float64], Tensor[(2, 6, 11), float64]) */;
  %438 = @func_3013() /* ty=Tensor[(2, 6, 11), float64] */;
  %439 = %437.0;
  (%438, %439)
}

def @func_13936(%var_13922: Tensor[(14, 6, 9), float64]) -> (Tensor[(14, 6, 9), float64], Tensor[(2, 6, 11), float64], Tensor[(2, 6, 11), float64]) {
  %440 = cast(%var_13922, dtype="float64") /* ty=Tensor[(14, 6, 9), float64] */;
  %441 = @func_8839() /* ty=(Tensor[(2, 6, 11), float64],) */;
  %442 = @func_13303() /* ty=(Tensor[(2, 6, 11), float64],) */;
  %443 = sin(%440) /* ty=Tensor[(14, 6, 9), float64] */;
  %444 = %441.0;
  %445 = %442.0;
  (%443, %444, %445)
}

def @func_15713() -> (Tensor[(2, 6, 11), float64], Tensor[(2, 6, 11), float64]) {
  %446 = @func_5595() /* ty=(Tensor[(2, 6, 11), float64], Tensor[(2, 6, 11), float64]) */;
  %447 = %446.0;
  %448 = @func_12704() /* ty=Tensor[(2, 6, 11), float64] */;
  (%447, %448)
}

def @func_30501() -> (Tensor[(2, 6, 11), float64], Tensor[(2, 6, 11), float64]) {
  %449 = @func_30247() /* ty=(Tensor[(2, 6, 11), float64], Tensor[(2, 6, 11), float64]) */;
  %450 = @func_305() /* ty=(Tensor[(2, 6, 11), float64], Tensor[(2, 6, 11), float64]) */;
  %451 = %449.0;
  %452 = %450.1;
  (%451, %452)
}

def @func_5972() -> (Tensor[(2, 6, 11), float64],) {
  %453 = @func_197() /* ty=(Tensor[(2, 6, 11), float64],) */;
  %454 = %453.0;
  (%454,)
}

def @func_6574() -> (Tensor[(2, 6, 11), float64], Tensor[(2, 6, 11), float64]) {
  %455 = @func_675() /* ty=(Tensor[(2, 6, 11), float64], Tensor[(2, 6, 11), float64]) */;
  %456 = @func_1473() /* ty=(Tensor[(2, 6, 11), float64], Tensor[(2, 6, 11), float64], Tensor[(2, 6, 11), float64], Tensor[(2, 6, 11), float64]) */;
  %457 = %455.1;
  %458 = %456.2;
  (%457, %458)
}

def @func_28022(%var_27982: Tensor[(420), bool], %var_28016: Tensor[(450), bool]) -> (Tensor[(2, 6, 11), float64], Tensor[(2, 6, 11), float64], Tensor[(420), bool], Tensor[(14, 10, 3), float32], Tensor[(2, 6, 11), float64], Tensor[(15, 6, 5), bool], Tensor[(450), bool]) {
  %459 = @func_13607() /* ty=(Tensor[(2, 6, 11), float64], Tensor[(2, 6, 11), float64], Tensor[(2, 6, 11), float64], Tensor[(2, 6, 11), float64]) */;
  %460 = @func_15791() /* ty=(Tensor[(2, 6, 11), float64], Tensor[(2, 6, 11), float64], Tensor[(2, 6, 11), float64]) */;
  %461 = cast(%var_27982, dtype="bool") /* ty=Tensor[(420), bool] */;
  %462 = cast(%var_27982, dtype="bool") /* ty=Tensor[(420), bool] */;
  %463 = reshape(%461, newshape=[14, 10, 3]) /* ty=Tensor[(14, 10, 3), bool] */;
  %464 = reshape(%462, newshape=[14, 10, 3]) /* ty=Tensor[(14, 10, 3), bool] */;
  %465 = @func_3403(%463, %464) /* ty=Tensor[(14, 10, 3), bool] */;
  %466 = cast(%465, dtype="float32") /* ty=Tensor[(14, 10, 3), float32] */;
  %467 = @func_18285() /* ty=(Tensor[(2, 6, 11), float64], Tensor[(2, 6, 11), float64]) */;
  %468 = cast(%var_28016, dtype="bool") /* ty=Tensor[(450), bool] */;
  %469 = reshape(%468, newshape=[15, 6, 5]) /* ty=Tensor[(15, 6, 5), bool] */;
  %470 = @func_19700(%469) /* ty=(Tensor[(15, 6, 5), bool],) */;
  %471 = %459.0;
  %472 = %460.2;
  %473 = sinh(%466) /* ty=Tensor[(14, 10, 3), float32] */;
  %474 = %467.0;
  %475 = %470.0;
  (%471, %472, %var_27982, %473, %474, %475, %var_28016)
}

def @func_12076() -> (Tensor[(2, 6, 11), float64],) {
  %476 = @func_4629() /* ty=(Tensor[(2, 6, 11), float64],) */;
  %477 = %476.0;
  (%477,)
}

def @func_6512() -> (Tensor[(2, 6, 11), float64],) {
  %478 = @func_2928() /* ty=(Tensor[(2, 6, 11), float64], Tensor[(2, 6, 11), float64], Tensor[(2, 6, 11), float64], Tensor[(2, 6, 11), float64], Tensor[(2, 6, 11), float64]) */;
  %479 = %478.3;
  (%479,)
}

def @func_3823() -> (Tensor[(2, 6, 11), float64],) {
  %480 = @func_3013() /* ty=Tensor[(2, 6, 11), float64] */;
  (%480,)
}

def @func_30324() -> (Tensor[(2, 6, 11), float64], Tensor[(2, 6, 11), float64]) {
  %481 = @func_5340() /* ty=(Tensor[(2, 6, 11), float64], Tensor[(2, 6, 11), float64], Tensor[(2, 6, 11), float64], Tensor[(2, 6, 11), float64], Tensor[(2, 6, 11), float64]) */;
  %482 = @func_348() /* ty=(Tensor[(2, 6, 11), float64],) */;
  %483 = %481.2;
  %484 = %482.0;
  (%483, %484)
}

def @func_18543(%var_18528: Tensor[(9, 7, 14), uint8], %var_18529: Tensor[(9, 7, 14), uint8]) -> (Tensor[(9, 7, 14), bool], Tensor[(2, 6, 11), float64]) {
  %485 = cast(%var_18529, dtype="bool") /* ty=Tensor[(9, 7, 14), bool] */;
  %486 = shape_of(%var_18528, dtype="int32") /* ty=Tensor[(3), int32] */;
  %487 = cast(%var_18528, dtype="bool") /* ty=Tensor[(9, 7, 14), bool] */;
  %488 = dyn.reshape(%485, %486, newshape=[]) /* ty=Tensor[(?, ?, ?), bool] */;
  %489 = @func_15841() /* ty=(Tensor[(2, 6, 11), float64], Tensor[(2, 6, 11), float64]) */;
  %490 = less(%487, %488) /* ty=Tensor[(9, 7, 14), bool] */;
  %491 = %489.1;
  (%490, %491)
}

def @func_20511() -> (Tensor[(2, 6, 11), float64], Tensor[(2, 6, 11), float64]) {
  %492 = @func_8354() /* ty=(Tensor[(2, 6, 11), float64], Tensor[(2, 6, 11), float64], Tensor[(2, 6, 11), float64], Tensor[(2, 6, 11), float64]) */;
  %493 = @func_5824() /* ty=(Tensor[(2, 6, 11), float64], Tensor[(2, 6, 11), float64]) */;
  %494 = %492.2;
  %495 = %493.1;
  (%494, %495)
}

def @func_14020() -> (Tensor[(2, 6, 11), float64], Tensor[(2, 6, 11), float64], Tensor[(2, 6, 11), float64]) {
  %496 = @func_8418() /* ty=(Tensor[(2, 6, 11), float64],) */;
  %497 = @func_3316() /* ty=(Tensor[(2, 6, 11), float64], Tensor[(2, 6, 11), float64], Tensor[(10, 5, 4), float32], Tensor[(200), float32]) */;
  %498 = @func_2928() /* ty=(Tensor[(2, 6, 11), float64], Tensor[(2, 6, 11), float64], Tensor[(2, 6, 11), float64], Tensor[(2, 6, 11), float64], Tensor[(2, 6, 11), float64]) */;
  %499 = %496.0;
  %500 = %497.0;
  %501 = %498.0;
  (%499, %500, %501)
}

def @func_606(%var_575: Tensor[(2, 13, 2), int16], %var_576: Tensor[(2, 13, 2), int16]) -> (Tensor[(2, 13, 2), int16], Tensor[(2, 13, 2), uint16]) {
  %502 = cast(%var_576, dtype="int16") /* ty=Tensor[(2, 13, 2), int16] */;
  %503 = shape_of(%var_575, dtype="int32") /* ty=Tensor[(3), int32] */;
  %504 = cast(%var_575, dtype="int16") /* ty=Tensor[(2, 13, 2), int16] */;
  %505 = dyn.reshape(%502, %503, newshape=[]) /* ty=Tensor[(?, ?, ?), int16] */;
  %506 = cast(meta[relay.Constant][7] /* ty=Tensor[(2, 13, 2), int16] */, dtype="uint16") /* ty=Tensor[(2, 13, 2), uint16] */;
  %507 = shape_of(%var_575, dtype="int32") /* ty=Tensor[(3), int32] */;
  %508 = cast(%var_575, dtype="uint16") /* ty=Tensor[(2, 13, 2), uint16] */;
  %509 = dyn.reshape(%506, %507, newshape=[]) /* ty=Tensor[(?, ?, ?), uint16] */;
  %510 = bitwise_xor(%504, %505) /* ty=Tensor[(2, 13, 2), int16] */;
  %511 = left_shift(%508, %509) /* ty=Tensor[(2, 13, 2), uint16] */;
  (%510, %511)
}

def @func_21643() -> (Tensor[(2, 6, 11), float64], Tensor[(2, 6, 11), float64]) {
  %512 = @func_3061() /* ty=(Tensor[(2, 6, 11), float64],) */;
  %513 = %512.0;
  %514 = @func_16400() /* ty=Tensor[(2, 6, 11), float64] */;
  (%513, %514)
}

def @func_27889() -> Tensor[(2, 6, 11), float64] {
  @func_376() /* ty=Tensor[(2, 6, 11), float64] */
}

def @func_10039() -> (Tensor[(2, 6, 11), float64],) {
  %515 = @func_3996() /* ty=Tensor[(2, 6, 11), float64] */;
  (%515,)
}

def @func_10813() -> (Tensor[(2, 6, 11), float64], Tensor[(2, 6, 11), float64], Tensor[(2, 6, 11), float64], Tensor[(2, 6, 11), float64]) {
  %516 = @func_6259() /* ty=(Tensor[(2, 6, 11), float64],) */;
  %517 = @func_2013() /* ty=(Tensor[(2, 6, 11), float64],) */;
  %518 = @func_1060() /* ty=(Tensor[(2, 6, 11), float64], Tensor[(2, 6, 11), float64]) */;
  %519 = %516.0;
  %520 = @func_6099() /* ty=Tensor[(2, 6, 11), float64] */;
  %521 = %517.0;
  %522 = %518.1;
  (%519, %520, %521, %522)
}

def @func_15841() -> (Tensor[(2, 6, 11), float64], Tensor[(2, 6, 11), float64]) {
  %523 = @func_2297() /* ty=(Tensor[(2, 6, 11), float64], Tensor[(2, 6, 11), float64], Tensor[(2, 6, 11), float64], Tensor[(2, 6, 11), float64]) */;
  %524 = %523.0;
  %525 = @func_10696() /* ty=Tensor[(2, 6, 11), float64] */;
  (%524, %525)
}

def @func_12943(%var_12856: float64) -> (Tensor[(2, 6, 11), float64], Tensor[(2, 6, 11), float64], Tensor[(9, 1), float64], float64, Tensor[(2, 6, 11), float64], Tensor[(2, 6, 11), float64], Tensor[(2, 6, 11), float64]) {
  %526 = @func_1500() /* ty=(Tensor[(2, 6, 11), float64],) */;
  %527 = cast(%var_12856, dtype="float64") /* ty=float64 */;
  %528 = reshape(%527, newshape=[]) /* ty=float64 */;
  %529 = @func_11882() /* ty=(Tensor[(2, 6, 11), float64],) */;
  %530 = @func_5150() /* ty=(Tensor[(2, 6, 11), float64], Tensor[(2, 6, 11), float64]) */;
  %531 = @func_197() /* ty=(Tensor[(2, 6, 11), float64],) */;
  %532 = %526.0;
  %533 = @func_10750() /* ty=Tensor[(2, 6, 11), float64] */;
  %534 = @func_2429(%528) /* ty=Tensor[(9, 1), float64] */;
  %535 = %529.0;
  %536 = %530.1;
  %537 = %531.0;
  (%532, %533, %534, %var_12856, %535, %536, %537)
}

def @func_22941(%var_22913: Tensor[(1, 11, 4), int32], %var_22914: Tensor[(7, 11, 4), int32]) -> (Tensor[(7, 11, 4), bool], Tensor[(2, 6, 11), float64]) {
  %538 = cast(%var_22913, dtype="bool") /* ty=Tensor[(1, 11, 4), bool] */;
  %539 = cast(%var_22914, dtype="bool") /* ty=Tensor[(7, 11, 4), bool] */;
  %540 = @func_18602() /* ty=(Tensor[(2, 6, 11), float64], Tensor[(2, 6, 11), float64]) */;
  %541 = less_equal(%538, %539) /* ty=Tensor[(7, 11, 4), bool] */;
  %542 = %540.0;
  (%541, %542)
}

def @func_27309() -> (Tensor[(2, 6, 11), float64], Tensor[(2, 6, 11), float64]) {
  %543 = @func_2949() /* ty=(Tensor[(2, 6, 11), float64],) */;
  %544 = @func_18582() /* ty=(Tensor[(2, 6, 11), float64],) */;
  %545 = %543.0;
  %546 = %544.0;
  (%545, %546)
}

def @func_29621(%var_29614: Tensor[(5, 132), uint8], %var_29615: Tensor[(1512), float32]) -> (Tensor[(2, 6, 11), float64], Tensor[(2, 6, 11), float64], Tensor[(5, 132), uint8], Tensor[(1512), float32]) {
  %547 = cast(%var_29614, dtype="uint8") /* ty=Tensor[(5, 132), uint8] */;
  %548 = cast(%var_29615, dtype="float32") /* ty=Tensor[(1512), float32] */;
  %549 = reshape(%547, newshape=[660]) /* ty=Tensor[(660), uint8] */;
  %550 = reshape(%548, newshape=[756, 2]) /* ty=Tensor[(756, 2), float32] */;
  %551 = @func_21249(%549, %550) /* ty=(Tensor[(2, 6, 11), float64], Tensor[(2, 6, 11), float64], Tensor[(660), uint8], Tensor[(756, 2), float32]) */;
  %552 = @func_4572() /* ty=Tensor[(2, 6, 11), float64] */;
  %553 = %551.1;
  (%552, %553, %var_29614, %var_29615)
}

def @func_23617() -> (Tensor[(2, 6, 11), float64], Tensor[(2, 6, 11), float64]) {
  %554 = @func_19059() /* ty=(Tensor[(2, 6, 11), float64],) */;
  %555 = @func_15181() /* ty=(Tensor[(2, 6, 11), float64],) */;
  %556 = %554.0;
  %557 = %555.0;
  (%556, %557)
}

def @func_30554() -> (Tensor[(2, 6, 11), float64],) {
  %558 = @func_6300() /* ty=Tensor[(2, 6, 11), float64] */;
  (%558,)
}

def @func_16128() -> (Tensor[(2, 6, 11), float64], Tensor[(2, 6, 11), float64], Tensor[(2, 6, 11), float64], Tensor[(2, 6, 11), float64], Tensor[(2, 6, 11), float64]) {
  %559 = @func_9103() /* ty=(Tensor[(2, 6, 11), float64], Tensor[(2, 6, 11), float64]) */;
  %560 = @func_9707() /* ty=(Tensor[(2, 6, 11), float64], Tensor[(2, 6, 11), float64]) */;
  %561 = @func_3543() /* ty=(Tensor[(2, 6, 11), float64], Tensor[(2, 6, 11), float64]) */;
  %562 = @func_5952() /* ty=Tensor[(2, 6, 11), float64] */;
  %563 = %559.1;
  %564 = @func_4572() /* ty=Tensor[(2, 6, 11), float64] */;
  %565 = %560.0;
  %566 = %561.1;
  (%562, %563, %564, %565, %566)
}

def @func_5114() -> (Tensor[(2, 6, 11), float64], Tensor[(2, 6, 11), float64]) {
  %567 = @func_3198() /* ty=(Tensor[(2, 6, 11), float64], Tensor[(2, 6, 11), float64], Tensor[(2, 6, 11), float64], Tensor[(2, 6, 11), float64], Tensor[(2, 6, 11), float64], Tensor[(2, 6, 11), float64], Tensor[(2, 6, 11), float64], Tensor[(2, 6, 11), float64]) */;
  %568 = @func_216() /* ty=(Tensor[(2, 6, 11), float64],) */;
  %569 = %567.5;
  %570 = %568.0;
  (%569, %570)
}

def @func_22289() -> Tensor[(2, 6, 11), float64] {
  %571 = @func_7172() /* ty=(Tensor[(2, 6, 11), float64],) */;
  %571.0
}

def @func_14297(%var_14290: Tensor[(1, 2, 14), uint16], %var_14291: Tensor[(14, 2, 14), uint16]) -> (Tensor[(14, 2, 14), uint16], Tensor[(14, 2, 14), float64]) {
  %572 = cast(%var_14290, dtype="uint16") /* ty=Tensor[(1, 2, 14), uint16] */;
  %573 = cast(%var_14291, dtype="uint16") /* ty=Tensor[(14, 2, 14), uint16] */;
  %574 = cast(%var_14291, dtype="float64") /* ty=Tensor[(14, 2, 14), float64] */;
  %575 = minimum(%572, %573) /* ty=Tensor[(14, 2, 14), uint16] */;
  %576 = log(%574) /* ty=Tensor[(14, 2, 14), float64] */;
  (%575, %576)
}

def @func_908() -> (Tensor[(2, 6, 11), float64],) {
  %577 = @func_626() /* ty=(Tensor[(2, 6, 11), float64],) */;
  %578 = %577.0;
  (%578,)
}

def @func_28438() -> Tensor[(2, 6, 11), float64] {
  %579 = @func_9796() /* ty=(Tensor[(2, 6, 11), float64], Tensor[(2, 6, 11), float64]) */;
  %579.0
}

def @func_22779() -> (Tensor[(2, 6, 11), float64],) {
  %580 = @func_20055() /* ty=(Tensor[(2, 6, 11), float64], Tensor[(2, 6, 11), float64]) */;
  %581 = %580.1;
  (%581,)
}

def @func_31070() -> (Tensor[(2, 6, 11), float64], Tensor[(2, 6, 11), float64], Tensor[(2, 6, 11), float64]) {
  %582 = @func_23370() /* ty=(Tensor[(2, 6, 11), float64],) */;
  %583 = @func_15978() /* ty=(Tensor[(2, 6, 11), float64],) */;
  %584 = @func_24784() /* ty=(Tensor[(2, 6, 11), float64], Tensor[(2, 6, 11), float64], Tensor[(2, 6, 11), float64]) */;
  %585 = %582.0;
  %586 = %583.0;
  %587 = %584.1;
  (%585, %586, %587)
}

def @func_27364(%var_27357: Tensor[(756, 2), float32]) -> (Tensor[(756, 2), int32],) {
  %588 = @func_18958() /* ty=(Tensor[(756, 2), float32],) */;
  %589 = %588.0;
  %590 = cast(%var_27357, dtype="int32") /* ty=Tensor[(756, 2), int32] */;
  %591 = shape_of(%589, dtype="int32") /* ty=Tensor[(2), int32] */;
  %592 = cast(%589, dtype="int32") /* ty=Tensor[(756, 2), int32] */;
  %593 = dyn.reshape(%590, %591, newshape=[]) /* ty=Tensor[(?, ?), int32] */;
  %594 = bitwise_xor(%592, %593) /* ty=Tensor[(756, 2), int32] */;
  (%594,)
}

def @func_3013() -> Tensor[(2, 6, 11), float64] {
  %595 = @func_1206() /* ty=(Tensor[(2, 6, 11), float64], Tensor[(2, 6, 11), float64], Tensor[(2, 6, 11), float64]) */;
  %595.2
}

def @func_28484() -> (Tensor[(2, 6, 11), float64],) {
  %596 = @func_24841() /* ty=Tensor[(2, 6, 11), float64] */;
  (%596,)
}

def @func_868() -> (Tensor[(2, 6, 11), float64], Tensor[(2, 6, 11), float64]) {
  %597 = @func_348() /* ty=(Tensor[(2, 6, 11), float64],) */;
  %598 = @func_782() /* ty=(Tensor[(2, 6, 11), float64], Tensor[(1512), float32], Tensor[(756, 2), float32]) */;
  %599 = %597.0;
  %600 = %598.0;
  (%599, %600)
}

def @func_10696() -> Tensor[(2, 6, 11), float64] {
  %601 = @func_7830() /* ty=(Tensor[(2, 6, 11), float64],) */;
  %601.0
}

def @func_11850() -> (Tensor[(8, 8, 5), float32], Tensor[(2, 6, 11), float64], Tensor[(2, 6, 11), float64]) {
  %602 = cast(meta[relay.Constant][8] /* ty=Tensor[(8, 8, 5), float32] */, dtype="float32") /* ty=Tensor[(8, 8, 5), float32] */;
  %603 = @func_2065() /* ty=(Tensor[(2, 6, 11), float64],) */;
  %604 = sqrt(%602) /* ty=Tensor[(8, 8, 5), float32] */;
  %605 = %603.0;
  %606 = @func_2305() /* ty=Tensor[(2, 6, 11), float64] */;
  (%604, %605, %606)
}

def @func_20836() -> Tensor[(2, 6, 11), float64] {
  %607 = @func_15510() /* ty=(Tensor[(2, 6, 11), float64], Tensor[(2, 6, 11), float64]) */;
  %607.0
}

def @func_21963() -> (Tensor[(2, 6, 11), float64],) {
  %608 = @func_8222() /* ty=(Tensor[(2, 6, 11), float64], Tensor[(2, 6, 11), float64], Tensor[(2, 6, 11), float64]) */;
  %609 = %608.1;
  (%609,)
}

def @func_19099() -> (Tensor[(2, 6, 11), float64], Tensor[(2, 6, 11), float64], Tensor[(2, 6, 11), float64]) {
  %610 = @func_18410() /* ty=(Tensor[(2, 6, 11), float64], Tensor[(2, 6, 11), float64]) */;
  %611 = @func_8418() /* ty=(Tensor[(2, 6, 11), float64],) */;
  %612 = @func_5150() /* ty=(Tensor[(2, 6, 11), float64], Tensor[(2, 6, 11), float64]) */;
  %613 = %610.1;
  %614 = %611.0;
  %615 = %612.0;
  (%613, %614, %615)
}

def @func_6844() -> (Tensor[(2, 6, 11), float64], Tensor[(2, 6, 11), float64]) {
  %616 = @func_2341() /* ty=(Tensor[(2, 6, 11), float64], Tensor[(2, 6, 11), float64], Tensor[(2, 6, 11), float64], Tensor[(2, 6, 11), float64], Tensor[(2, 6, 11), float64]) */;
  %617 = @func_1206() /* ty=(Tensor[(2, 6, 11), float64], Tensor[(2, 6, 11), float64], Tensor[(2, 6, 11), float64]) */;
  %618 = %616.0;
  %619 = %617.1;
  (%618, %619)
}

def @func_7748() -> (Tensor[(2, 6, 11), float64], Tensor[(2, 6, 11), float64], Tensor[(2, 6, 11), float64]) {
  %620 = @func_1473() /* ty=(Tensor[(2, 6, 11), float64], Tensor[(2, 6, 11), float64], Tensor[(2, 6, 11), float64], Tensor[(2, 6, 11), float64]) */;
  %621 = @func_4686() /* ty=(Tensor[(2, 6, 11), float64], Tensor[(2, 6, 11), float64], Tensor[(2, 6, 11), float64]) */;
  %622 = %620.1;
  %623 = %621.0;
  %624 = @func_6691() /* ty=Tensor[(2, 6, 11), float64] */;
  (%622, %623, %624)
}

def @func_15791() -> (Tensor[(2, 6, 11), float64], Tensor[(2, 6, 11), float64], Tensor[(2, 6, 11), float64]) {
  %625 = @func_451() /* ty=(Tensor[(2, 6, 11), float64], Tensor[(2, 6, 11), float64]) */;
  %626 = @func_8584() /* ty=(Tensor[(2, 6, 11), float64], Tensor[(2, 6, 11), float64], Tensor[(2, 6, 11), float64]) */;
  %627 = %625.1;
  %628 = @func_7002() /* ty=Tensor[(2, 6, 11), float64] */;
  %629 = %626.1;
  (%627, %628, %629)
}

def @func_23079() -> (Tensor[(10, 5, 4), float32],) {
  %630 = @func_3316() /* ty=(Tensor[(2, 6, 11), float64], Tensor[(2, 6, 11), float64], Tensor[(10, 5, 4), float32], Tensor[(200), float32]) */;
  %631 = %630.2;
  (%631,)
}

def @func_10208() -> (Tensor[(2, 6, 11), float64],) {
  %632 = @func_418() /* ty=Tensor[(2, 6, 11), float64] */;
  (%632,)
}

def @func_18243() -> (Tensor[(2, 6, 11), float64],) {
  %633 = @func_3386() /* ty=(Tensor[(2, 6, 11), float64],) */;
  %634 = %633.0;
  (%634,)
}

def @func_8222() -> (Tensor[(2, 6, 11), float64], Tensor[(2, 6, 11), float64], Tensor[(2, 6, 11), float64]) {
  %635 = @func_2515() /* ty=(Tensor[(2, 6, 11), float64], Tensor[(2, 6, 11), float64], Tensor[(2, 6, 11), float64]) */;
  %636 = @func_1511() /* ty=(Tensor[(2, 6, 11), float64],) */;
  %637 = @func_5340() /* ty=(Tensor[(2, 6, 11), float64], Tensor[(2, 6, 11), float64], Tensor[(2, 6, 11), float64], Tensor[(2, 6, 11), float64], Tensor[(2, 6, 11), float64]) */;
  %638 = %635.1;
  %639 = %636.0;
  %640 = %637.1;
  (%638, %639, %640)
}

def @func_11195() -> (Tensor[(2, 6, 11), float64], Tensor[(2, 6, 11), float64]) {
  %641 = @func_1473() /* ty=(Tensor[(2, 6, 11), float64], Tensor[(2, 6, 11), float64], Tensor[(2, 6, 11), float64], Tensor[(2, 6, 11), float64]) */;
  %642 = @func_3386() /* ty=(Tensor[(2, 6, 11), float64],) */;
  %643 = %641.1;
  %644 = %642.0;
  (%643, %644)
}

def @func_24957() -> (Tensor[(2, 6, 11), float64], Tensor[(2, 6, 11), float64]) {
  %645 = @func_22970() /* ty=(Tensor[(2, 6, 11), float64],) */;
  %646 = @func_4526() /* ty=(Tensor[(2, 6, 11), float64], Tensor[(2, 6, 11), float64], Tensor[(2, 6, 11), float64], Tensor[(2, 6, 11), float64], Tensor[(2, 6, 11), float64]) */;
  %647 = %645.0;
  %648 = %646.4;
  (%647, %648)
}

def @func_9707() -> (Tensor[(2, 6, 11), float64], Tensor[(2, 6, 11), float64]) {
  %649 = @func_4793() /* ty=(Tensor[(2, 6, 11), float64],) */;
  %650 = @func_908() /* ty=(Tensor[(2, 6, 11), float64],) */;
  %651 = %649.0;
  %652 = %650.0;
  (%651, %652)
}

def @func_23968() -> (Tensor[(2, 6, 11), float64], Tensor[(2, 6, 11), float64], Tensor[(2, 13, 2), uint16]) {
  %653 = @func_18187() /* ty=(Tensor[(2, 6, 11), float64],) */;
  %654 = @func_15510() /* ty=(Tensor[(2, 6, 11), float64], Tensor[(2, 6, 11), float64]) */;
  %655 = @func_14287() /* ty=(Tensor[(2, 6, 11), float64], Tensor[(2, 13, 2), uint16], Tensor[(52), int16], Tensor[(2, 6, 11), float64]) */;
  %656 = %653.0;
  %657 = %654.0;
  %658 = %655.1;
  (%656, %657, %658)
}

def @func_13901() -> (Tensor[(2, 6, 11), float64], Tensor[(2, 6, 11), float64], Tensor[(2, 6, 11), float64]) {
  %659 = @func_13431() /* ty=(Tensor[(2, 6, 11), float64], Tensor[(2, 6, 11), float64], Tensor[(2, 6, 11), float64]) */;
  %660 = @func_5090() /* ty=(Tensor[(2, 6, 11), float64], Tensor[(2, 6, 11), float64]) */;
  %661 = @func_13161() /* ty=(Tensor[(2, 6, 11), float64], Tensor[(2, 6, 11), float64], Tensor[(2, 6, 11), float64]) */;
  %662 = %659.1;
  %663 = %660.1;
  %664 = %661.2;
  (%662, %663, %664)
}

def @func_23801() -> (Tensor[(2, 6, 11), float64], Tensor[(2, 6, 11), float64], Tensor[(2, 6, 11), float64]) {
  %665 = @func_10639() /* ty=(Tensor[(2, 6, 11), float64], Tensor[(2, 6, 11), float64]) */;
  %666 = @func_16010() /* ty=(Tensor[(2, 6, 11), float64],) */;
  %667 = @func_10039() /* ty=(Tensor[(2, 6, 11), float64],) */;
  %668 = %665.0;
  %669 = %666.0;
  %670 = %667.0;
  (%668, %669, %670)
}

def @func_28837() -> (Tensor[(2, 6, 11), float64], Tensor[(2, 6, 11), float64]) {
  %671 = @func_13961() /* ty=(Tensor[(2, 6, 11), float64],) */;
  %672 = @func_18243() /* ty=(Tensor[(2, 6, 11), float64],) */;
  %673 = %671.0;
  %674 = %672.0;
  (%673, %674)
}

def @func_19001() -> Tensor[(2, 6, 11), float64] {
  %675 = @func_9561() /* ty=(Tensor[(2, 6, 11), float64], Tensor[(2, 6, 11), float64], Tensor[(2, 6, 11), float64], Tensor[(1512), float32]) */;
  %675.1
}

def @func_12201() -> Tensor[(2, 6, 11), float64] {
  %676 = @func_5340() /* ty=(Tensor[(2, 6, 11), float64], Tensor[(2, 6, 11), float64], Tensor[(2, 6, 11), float64], Tensor[(2, 6, 11), float64], Tensor[(2, 6, 11), float64]) */;
  %676.0
}

def @func_24663() -> (Tensor[(2, 6, 11), float64],) {
  %677 = @func_14887() /* ty=Tensor[(2, 6, 11), float64] */;
  (%677,)
}

def @func_17790() -> Tensor[(1512), float32] {
  %678 = @func_8132() /* ty=(Tensor[(2, 6, 11), float64], Tensor[(2, 6, 11), float64], Tensor[(1512), float32], Tensor[(1512), float32], Tensor[(14, 10, 6), float32], Tensor[(840), float32], Tensor[(200), float32], Tensor[(2, 6, 11), float64], Tensor[(2, 6, 11), float64], Tensor[(2, 6, 11), float64], Tensor[(2, 6, 11), float64]) */;
  %678.2
}

def @func_27458() -> (Tensor[(2, 6, 11), float64],) {
  %679 = @func_11195() /* ty=(Tensor[(2, 6, 11), float64], Tensor[(2, 6, 11), float64]) */;
  %680 = %679.0;
  (%680,)
}

def @func_17358(%var_17352: Tensor[(1512), float32]) -> (Tensor[(2, 6, 11), float64], Tensor[(2, 6, 11), float64], Tensor[(2, 6, 11), float64], Tensor[(660), uint8], Tensor[(1512), float32]) {
  %681 = @func_6844() /* ty=(Tensor[(2, 6, 11), float64], Tensor[(2, 6, 11), float64]) */;
  %682 = @func_14746() /* ty=(Tensor[(2, 6, 11), float64],) */;
  %683 = cast(meta[relay.Constant][9] /* ty=Tensor[(660), uint8] */, dtype="uint8") /* ty=Tensor[(660), uint8] */;
  %684 = cast(%var_17352, dtype="float32") /* ty=Tensor[(1512), float32] */;
  %685 = reshape(%683, newshape=[660]) /* ty=Tensor[(660), uint8] */;
  %686 = reshape(%684, newshape=[1512]) /* ty=Tensor[(1512), float32] */;
  %687 = @func_13259(%685, %686) /* ty=(Tensor[(2, 6, 11), float64], Tensor[(2, 6, 11), float64], Tensor[(2, 6, 11), float64], Tensor[(2, 6, 11), float64], Tensor[(660), uint8], Tensor[(1512), float32], Tensor[(2, 6, 11), float64], Tensor[(2, 6, 11), float64], Tensor[(2, 6, 11), float64]) */;
  %688 = %681.1;
  %689 = %682.0;
  %690 = %687.0;
  (%688, %689, %690, meta[relay.Constant][9] /* ty=Tensor[(660), uint8] */, %var_17352)
}

def @func_3100() -> (Tensor[(2, 6, 11), float64], Tensor[(2, 6, 11), float64], Tensor[(2, 6, 11), float64], Tensor[(2, 6, 11), float64]) {
  %691 = @func_2538() /* ty=(Tensor[(2, 6, 11), float64], Tensor[(2, 6, 11), float64]) */;
  %692 = @func_1719() /* ty=(Tensor[(2, 6, 11), float64], Tensor[(2, 6, 11), float64], Tensor[(2, 6, 11), float64]) */;
  %693 = @func_216() /* ty=(Tensor[(2, 6, 11), float64],) */;
  %694 = @func_3061() /* ty=(Tensor[(2, 6, 11), float64],) */;
  %695 = %691.1;
  %696 = %692.2;
  %697 = %693.0;
  %698 = %694.0;
  (%695, %696, %697, %698)
}

def @func_24841() -> Tensor[(2, 6, 11), float64] {
  %699 = @func_8132() /* ty=(Tensor[(2, 6, 11), float64], Tensor[(2, 6, 11), float64], Tensor[(1512), float32], Tensor[(1512), float32], Tensor[(14, 10, 6), float32], Tensor[(840), float32], Tensor[(200), float32], Tensor[(2, 6, 11), float64], Tensor[(2, 6, 11), float64], Tensor[(2, 6, 11), float64], Tensor[(2, 6, 11), float64]) */;
  %699.9
}

def @func_31050() -> (Tensor[(2, 6, 11), float64], Tensor[(2, 6, 11), float64]) {
  %700 = @func_26596() /* ty=Tensor[(2, 6, 11), float64] */;
  %701 = @func_15893() /* ty=Tensor[(2, 6, 11), float64] */;
  (%700, %701)
}

def @func_7580(%var_7574: Tensor[(1512), float32]) -> (Tensor[(2, 6, 11), float64], Tensor[(2, 6, 11), float64], Tensor[(1512), float32], Tensor[(2, 6, 11), float64]) {
  %702 = @func_5047() /* ty=(Tensor[(2, 6, 11), float64], Tensor[(12, ?, 9), int64], Tensor[(2, 6, 11), float64], Tensor[(2, 6, 11), float64]) */;
  %703 = cast(%var_7574, dtype="float32") /* ty=Tensor[(1512), float32] */;
  %704 = reshape(%703, newshape=[1512]) /* ty=Tensor[(1512), float32] */;
  %705 = @func_1442(%704) /* ty=(Tensor[(2, 6, 11), float64], Tensor[(2, 6, 11), float64], Tensor[(2, 6, 11), float64], Tensor[(2, 6, 11), float64], Tensor[(1512), float32], Tensor[(14, 12, 9), float32]) */;
  %706 = @func_5922() /* ty=(Tensor[(2, 6, 11), float64], Tensor[(2, 6, 11), float64]) */;
  %707 = %702.3;
  %708 = %705.2;
  %709 = %706.0;
  (%707, %708, %var_7574, %709)
}

def @func_517(%var_474: Tensor[(1512), float32]) -> (Tensor[(2, 6, 11), float64], Tensor[(2, 6, 11), float64], Tensor[(1512), float32], Tensor[(2, 6, 11), float64], Tensor[(2, 6, 11), float64], Tensor[(2, 6, 11), float64]) {
  %710 = @func_197() /* ty=(Tensor[(2, 6, 11), float64],) */;
  %711 = cast(%var_474, dtype="float32") /* ty=Tensor[(1512), float32] */;
  %712 = cast(%var_474, dtype="float32") /* ty=Tensor[(1512), float32] */;
  %713 = reshape(%711, newshape=[14, 12, 9]) /* ty=Tensor[(14, 12, 9), float32] */;
  %714 = reshape(%712, newshape=[14, 12, 9]) /* ty=Tensor[(14, 12, 9), float32] */;
  %715 = @func_398(%713, %714) /* ty=(Tensor[(14, 12, 9), float32], Tensor[(2, 6, 11), float64], Tensor[(2, 6, 11), float64]) */;
  %716 = @func_348() /* ty=(Tensor[(2, 6, 11), float64],) */;
  %717 = %710.0;
  %718 = %715.2;
  %719 = %716.0;
  %720 = @func_418() /* ty=Tensor[(2, 6, 11), float64] */;
  %721 = @func_418() /* ty=Tensor[(2, 6, 11), float64] */;
  (%717, %718, %var_474, %719, %720, %721)
}

def @func_11160(%var_11154: Tensor[(11, 9, 15), int16]) -> (Tensor[(11, 9, 15), int16],) {
  %722 = cast(meta[relay.Constant][10] /* ty=Tensor[(11, 9, 15), int16] */, dtype="int16") /* ty=Tensor[(11, 9, 15), int16] */;
  %723 = shape_of(%var_11154, dtype="int32") /* ty=Tensor[(3), int32] */;
  %724 = cast(%var_11154, dtype="int16") /* ty=Tensor[(11, 9, 15), int16] */;
  %725 = dyn.reshape(%722, %723, newshape=[]) /* ty=Tensor[(?, ?, ?), int16] */;
  %726 = minimum(%724, %725) /* ty=Tensor[(11, 9, 15), int16] */;
  (%726,)
}

def @func_18285() -> (Tensor[(2, 6, 11), float64], Tensor[(2, 6, 11), float64]) {
  %727 = @func_13607() /* ty=(Tensor[(2, 6, 11), float64], Tensor[(2, 6, 11), float64], Tensor[(2, 6, 11), float64], Tensor[(2, 6, 11), float64]) */;
  %728 = @func_1330() /* ty=(Tensor[(2, 6, 11), float64], Tensor[(2, 6, 11), float64], Tensor[(2, 6, 11), float64]) */;
  %729 = %727.3;
  %730 = %728.0;
  (%729, %730)
}

def @func_3198() -> (Tensor[(2, 6, 11), float64], Tensor[(2, 6, 11), float64], Tensor[(2, 6, 11), float64], Tensor[(2, 6, 11), float64], Tensor[(2, 6, 11), float64], Tensor[(2, 6, 11), float64], Tensor[(2, 6, 11), float64], Tensor[(2, 6, 11), float64]) {
  %731 = @func_270() /* ty=(Tensor[(2, 6, 11), float64], Tensor[(2, 6, 11), float64]) */;
  %732 = @func_2515() /* ty=(Tensor[(2, 6, 11), float64], Tensor[(2, 6, 11), float64], Tensor[(2, 6, 11), float64]) */;
  %733 = @func_1500() /* ty=(Tensor[(2, 6, 11), float64],) */;
  %734 = @func_451() /* ty=(Tensor[(2, 6, 11), float64], Tensor[(2, 6, 11), float64]) */;
  %735 = @func_1473() /* ty=(Tensor[(2, 6, 11), float64], Tensor[(2, 6, 11), float64], Tensor[(2, 6, 11), float64], Tensor[(2, 6, 11), float64]) */;
  %736 = @func_305() /* ty=(Tensor[(2, 6, 11), float64], Tensor[(2, 6, 11), float64]) */;
  %737 = %731.0;
  %738 = %732.2;
  %739 = @func_376() /* ty=Tensor[(2, 6, 11), float64] */;
  %740 = %733.0;
  %741 = %734.1;
  %742 = %735.0;
  %743 = %736.1;
  %744 = @func_3013() /* ty=Tensor[(2, 6, 11), float64] */;
  (%737, %738, %739, %740, %741, %742, %743, %744)
}

def @func_27714() -> Tensor[(2, 6, 11), float64] {
  @func_15991() /* ty=Tensor[(2, 6, 11), float64] */
}

def @func_14204() -> (Tensor[(2, 6, 11), float64], Tensor[(2, 6, 11), float64], Tensor[(2, 6, 11), float64]) {
  %745 = @func_2151() /* ty=(Tensor[(2, 6, 11), float64], Tensor[(2, 6, 11), float64]) */;
  %746 = @func_7830() /* ty=(Tensor[(2, 6, 11), float64],) */;
  %747 = %745.0;
  %748 = @func_6300() /* ty=Tensor[(2, 6, 11), float64] */;
  %749 = %746.0;
  (%747, %748, %749)
}

def @func_26432() -> (Tensor[(2, 6, 11), float64],) {
  %750 = @func_1511() /* ty=(Tensor[(2, 6, 11), float64],) */;
  %751 = %750.0;
  (%751,)
}

def @func_26524() -> (Tensor[(2, 6, 11), float64], Tensor[(756, 2), float64]) {
  %752 = @func_11263() /* ty=(Tensor[(756, 2), float32],) */;
  %753 = %752.0;
  %754 = cast(%753, dtype="float64") /* ty=Tensor[(756, 2), float64] */;
  %755 = acos(%754) /* ty=Tensor[(756, 2), float64] */;
  %756 = cast(%755, dtype="float32") /* ty=Tensor[(756, 2), float32] */;
  %757 = reshape(%756, newshape=[1512]) /* ty=Tensor[(1512), float32] */;
  %758 = @func_23751(%757) /* ty=(Tensor[(2, 6, 11), float64], Tensor[(2, 6, 11), float64], Tensor[(2, 6, 11), float64], Tensor[(1512), float32]) */;
  %759 = cast(%755, dtype="float64") /* ty=Tensor[(756, 2), float64] */;
  %760 = %758.2;
  %761 = sinh(%759) /* ty=Tensor[(756, 2), float64] */;
  (%760, %761)
}

def @func_20583(%var_20554: Tensor[(1, 52), int16]) -> (Tensor[(2, 6, 11), float64], Tensor[(756, 2), float32], Tensor[(2, 6, 11), float64], Tensor[(2, 6, 11), float64], Tensor[(2, 6, 11), float64], Tensor[(1, 52), int16], Tensor[(4, 6, 9), float32], float32, Tensor[(216), float32], Tensor[(2, 6, 11), float64], Tensor[(2, 6, 11), float64]) {
  %762 = @func_2928() /* ty=(Tensor[(2, 6, 11), float64], Tensor[(2, 6, 11), float64], Tensor[(2, 6, 11), float64], Tensor[(2, 6, 11), float64], Tensor[(2, 6, 11), float64]) */;
  %763 = @func_11263() /* ty=(Tensor[(756, 2), float32],) */;
  %764 = @func_2538() /* ty=(Tensor[(2, 6, 11), float64], Tensor[(2, 6, 11), float64]) */;
  %765 = cast(%var_20554, dtype="int16") /* ty=Tensor[(1, 52), int16] */;
  %766 = reshape(%765, newshape=[52]) /* ty=Tensor[(52), int16] */;
  %767 = @func_9666(%766) /* ty=(Tensor[(2, 6, 11), float64], Tensor[(1512), float32], Tensor[(660), uint8], Tensor[(1512), float32], Tensor[(2, 6, 11), float64], Tensor[(52), int16], Tensor[(2, 6, 11), float64], Tensor[(2, 6, 11), float64], Tensor[(2, 6, 11), float64]) */;
  %768 = cast(-3.75779f /* ty=float32 */, dtype="float32") /* ty=float32 */;
  %769 = cast(meta[relay.Constant][11] /* ty=Tensor[(216), float32] */, dtype="float32") /* ty=Tensor[(216), float32] */;
  %770 = reshape(%768, newshape=[]) /* ty=float32 */;
  %771 = reshape(%769, newshape=[4, 6, 9]) /* ty=Tensor[(4, 6, 9), float32] */;
  %772 = @func_8418() /* ty=(Tensor[(2, 6, 11), float64],) */;
  %773 = %762.4;
  %774 = %763.0;
  %775 = @func_19112() /* ty=Tensor[(2, 6, 11), float64] */;
  %776 = %764.0;
  %777 = %767.6;
  %778 = @func_19884(%770, %771) /* ty=Tensor[(4, 6, 9), float32] */;
  %779 = @func_376() /* ty=Tensor[(2, 6, 11), float64] */;
  %780 = %772.0;
  (%773, %774, %775, %776, %777, %var_20554, %778, -3.75779f /* ty=float32 */, meta[relay.Constant][11] /* ty=Tensor[(216), float32] */, %779, %780)
}

def @func_3403(%var_3390: Tensor[(14, 10, 3), bool], %var_3391: Tensor[(14, 10, 3), bool]) -> Tensor[(14, 10, 3), bool] {
  %781 = cast(%var_3391, dtype="bool") /* ty=Tensor[(14, 10, 3), bool] */;
  %782 = shape_of(%var_3390, dtype="int32") /* ty=Tensor[(3), int32] */;
  %783 = cast(%var_3390, dtype="bool") /* ty=Tensor[(14, 10, 3), bool] */;
  %784 = dyn.reshape(%781, %782, newshape=[]) /* ty=Tensor[(?, ?, ?), bool] */;
  logical_or(%783, %784) /* ty=Tensor[(14, 10, 3), bool] */
}

def @func_15261() -> Tensor[(2, 6, 11), float64] {
  @func_14430() /* ty=Tensor[(2, 6, 11), float64] */
}

def @func_28395() -> (Tensor[(1512), float32], Tensor[(2, 6, 11), float64], Tensor[(2, 6, 11), float64]) {
  %785 = @func_19949() /* ty=(Tensor[(2, 6, 11), float64], Tensor[(2, 6, 11), float64], Tensor[(2, 6, 11), float64], Tensor[(1512), float32]) */;
  %786 = @func_27791() /* ty=(Tensor[(2, 6, 11), float64], Tensor[(2, 6, 11), float64]) */;
  %787 = @func_13881() /* ty=(Tensor[(2, 6, 11), float64], Tensor[(2, 6, 11), float64], Tensor[(2, 6, 11), float64]) */;
  %788 = %785.3;
  %789 = %786.0;
  %790 = %787.2;
  (%788, %789, %790)
}

def @func_19968() -> Tensor[(2, 6, 11), float64] {
  @func_3996() /* ty=Tensor[(2, 6, 11), float64] */
}

def @func_15921() -> (Tensor[(2, 6, 11), float64],) {
  %791 = @func_9478() /* ty=Tensor[(2, 6, 11), float64] */;
  (%791,)
}

def @func_29538(%var_29507: Tensor[(7, 4, 1), bool], %var_29508: Tensor[(7, 4, 1), bool]) -> (Tensor[(7, 4, ?), int32],) {
  %792 = cast(%var_29508, dtype="bool") /* ty=Tensor[(7, 4, 1), bool] */;
  %793 = shape_of(%var_29507, dtype="int32") /* ty=Tensor[(3), int32] */;
  %794 = cast(%var_29507, dtype="bool") /* ty=Tensor[(7, 4, 1), bool] */;
  %795 = dyn.reshape(%792, %793, newshape=[]) /* ty=Tensor[(?, ?, ?), bool] */;
  %796 = logical_or(%794, %795) /* ty=Tensor[(7, 4, ?), bool] */;
  %797 = cast(%796, dtype="int32") /* ty=Tensor[(7, 4, ?), int32] */;
  %798 = shape_of(%var_29508, dtype="int32") /* ty=Tensor[(3), int32] */;
  %799 = cast(%var_29508, dtype="int32") /* ty=Tensor[(7, 4, 1), int32] */;
  %800 = dyn.reshape(%797, %798, newshape=[]) /* ty=Tensor[(?, ?, ?), int32] */;
  %801 = add(%799, %800) /* ty=Tensor[(7, 4, ?), int32] */;
  (%801,)
}

def @func_7491() -> (Tensor[(2, 6, 11), float64], Tensor[(2, 6, 11), float64], Tensor[(2, 6, 11), float64], Tensor[(378, 4), float32]) {
  %802 = @func_6042() /* ty=(Tensor[(2, 6, 11), float64], Tensor[(2, 6, 11), float64]) */;
  %803 = @func_2646() /* ty=(Tensor[(2, 6, 11), float64], Tensor[(2, 6, 11), float64], Tensor[(2, 6, 11), float64], Tensor[(2, 6, 11), float64], Tensor[(2, 6, 11), float64], Tensor[(2, 6, 11), float64]) */;
  %804 = cast(meta[relay.Constant][12] /* ty=Tensor[(378, 4), float32] */, dtype="float32") /* ty=Tensor[(378, 4), float32] */;
  %805 = reshape(%804, newshape=[1512]) /* ty=Tensor[(1512), float32] */;
  %806 = @func_517(%805) /* ty=(Tensor[(2, 6, 11), float64], Tensor[(2, 6, 11), float64], Tensor[(1512), float32], Tensor[(2, 6, 11), float64], Tensor[(2, 6, 11), float64], Tensor[(2, 6, 11), float64]) */;
  %807 = %802.0;
  %808 = %803.2;
  %809 = %806.3;
  (%807, %808, %809, meta[relay.Constant][12] /* ty=Tensor[(378, 4), float32] */)
}

def @func_6349() -> Tensor[(2, 6, 11), float64] {
  %810 = @func_1719() /* ty=(Tensor[(2, 6, 11), float64], Tensor[(2, 6, 11), float64], Tensor[(2, 6, 11), float64]) */;
  %810.2
}

def @func_8584() -> (Tensor[(2, 6, 11), float64], Tensor[(2, 6, 11), float64], Tensor[(2, 6, 11), float64]) {
  %811 = @func_8295() /* ty=(Tensor[(2, 6, 11), float64], Tensor[(2, 6, 11), float64]) */;
  %812 = %811.0;
  %813 = @func_6691() /* ty=Tensor[(2, 6, 11), float64] */;
  %814 = @func_2975() /* ty=Tensor[(2, 6, 11), float64] */;
  (%812, %813, %814)
}

def @func_14093() -> (Tensor[(2, 6, 11), float64], Tensor[(2, 6, 11), float64], Tensor[(2, 6, 11), float64], Tensor[(2, 6, 11), float64], Tensor[(2, 6, 11), float64], Tensor[(2, 6, 11), float64]) {
  %815 = @func_4724() /* ty=(Tensor[(2, 6, 11), float64],) */;
  %816 = @func_6229() /* ty=(Tensor[(2, 6, 11), float64],) */;
  %817 = @func_3823() /* ty=(Tensor[(2, 6, 11), float64],) */;
  %818 = @func_2297() /* ty=(Tensor[(2, 6, 11), float64], Tensor[(2, 6, 11), float64], Tensor[(2, 6, 11), float64], Tensor[(2, 6, 11), float64]) */;
  %819 = %815.0;
  %820 = %816.0;
  %821 = @func_10354() /* ty=Tensor[(2, 6, 11), float64] */;
  %822 = %817.0;
  %823 = @func_7517() /* ty=Tensor[(2, 6, 11), float64] */;
  %824 = %818.2;
  (%819, %820, %821, %822, %823, %824)
}

def @func_24347(%var_24330: Tensor[(325), float32]) -> (Tensor[(2, 6, 11), float64], Tensor[(5, 5, 13), float32], Tensor[(325), float32]) {
  %825 = cast(%var_24330, dtype="float32") /* ty=Tensor[(325), float32] */;
  %826 = reshape(%825, newshape=[5, 5, 13]) /* ty=Tensor[(5, 5, 13), float32] */;
  %827 = @func_12537() /* ty=Tensor[(2, 6, 11), float64] */;
  %828 = @func_14139(%826) /* ty=Tensor[(5, 5, 13), float32] */;
  (%827, %828, %var_24330)
}

def @func_19762() -> (Tensor[(2, 6, 11), float64], Tensor[(2, 6, 11), float64]) {
  %829 = @func_14020() /* ty=(Tensor[(2, 6, 11), float64], Tensor[(2, 6, 11), float64], Tensor[(2, 6, 11), float64]) */;
  %830 = %829.1;
  %831 = @func_6010() /* ty=Tensor[(2, 6, 11), float64] */;
  (%830, %831)
}

def @func_16046() -> Tensor[(2, 6, 11), float64] {
  %832 = @func_7782() /* ty=(Tensor[(2, 6, 11), float64], Tensor[(2, 6, 11), float64]) */;
  %832.1
}

def @func_17096(%var_17087: Tensor[(630), float64]) -> (Tensor[(2, 6, 11), float64], Tensor[(2, 6, 11), float64], Tensor[(13, 2, 12), uint8], Tensor[(630), float64]) {
  %833 = @func_9913() /* ty=(Tensor[(2, 6, 11), float64],) */;
  %834 = cast(%var_17087, dtype="float64") /* ty=Tensor[(630), float64] */;
  %835 = reshape(%834, newshape=[7, 6, 15]) /* ty=Tensor[(7, 6, 15), float64] */;
  %836 = @func_15475(%835) /* ty=(Tensor[(7, 6, 15), float64], Tensor[(13, 2, 12), uint8], Tensor[(312), uint8]) */;
  %837 = %833.0;
  %838 = @func_1645() /* ty=Tensor[(2, 6, 11), float64] */;
  %839 = %836.1;
  (%837, %838, %839, %var_17087)
}

def @func_19713(%var_19705: Tensor[(8, 15, 6), float64]) -> Tensor[(8, 15, 6), bool] {
  %840 = cast(%var_19705, dtype="bool") /* ty=Tensor[(8, 15, 6), bool] */;
  %841 = shape_of(meta[relay.Constant][13] /* ty=Tensor[(8, 15, 6), float64] */, dtype="int32") /* ty=Tensor[(3), int32] */;
  %842 = cast(meta[relay.Constant][13] /* ty=Tensor[(8, 15, 6), float64] */, dtype="bool") /* ty=Tensor[(8, 15, 6), bool] */;
  %843 = dyn.reshape(%840, %841, newshape=[]) /* ty=Tensor[(?, ?, ?), bool] */;
  greater_equal(%842, %843) /* ty=Tensor[(8, 15, 6), bool] */
}

def @func_30708() -> Tensor[(2, 6, 11), float64] {
  @func_7399() /* ty=Tensor[(2, 6, 11), float64] */
}

def @func_8418() -> (Tensor[(2, 6, 11), float64],) {
  %844 = @func_6099() /* ty=Tensor[(2, 6, 11), float64] */;
  (%844,)
}

def @func_2646() -> (Tensor[(2, 6, 11), float64], Tensor[(2, 6, 11), float64], Tensor[(2, 6, 11), float64], Tensor[(2, 6, 11), float64], Tensor[(2, 6, 11), float64], Tensor[(2, 6, 11), float64]) {
  %845 = @func_451() /* ty=(Tensor[(2, 6, 11), float64], Tensor[(2, 6, 11), float64]) */;
  %846 = @func_2515() /* ty=(Tensor[(2, 6, 11), float64], Tensor[(2, 6, 11), float64], Tensor[(2, 6, 11), float64]) */;
  %847 = @func_908() /* ty=(Tensor[(2, 6, 11), float64],) */;
  %848 = @func_1719() /* ty=(Tensor[(2, 6, 11), float64], Tensor[(2, 6, 11), float64], Tensor[(2, 6, 11), float64]) */;
  %849 = @func_1330() /* ty=(Tensor[(2, 6, 11), float64], Tensor[(2, 6, 11), float64], Tensor[(2, 6, 11), float64]) */;
  %850 = @func_2065() /* ty=(Tensor[(2, 6, 11), float64],) */;
  %851 = %845.1;
  %852 = %846.0;
  %853 = %847.0;
  %854 = %848.2;
  %855 = %849.2;
  %856 = %850.0;
  (%851, %852, %853, %854, %855, %856)
}

def @func_10165(%var_10158: float64) -> (Tensor[(2, 6, 11), float64], Tensor[(2, 6, 11), float64], Tensor[(26, 2), int16], Tensor[(9, 1), float64], float64) {
  %857 = @func_5090() /* ty=(Tensor[(2, 6, 11), float64], Tensor[(2, 6, 11), float64]) */;
  %858 = cast(meta[relay.Constant][14] /* ty=Tensor[(26, 2), int16] */, dtype="int16") /* ty=Tensor[(26, 2), int16] */;
  %859 = reshape(%858, newshape=[52]) /* ty=Tensor[(52), int16] */;
  %860 = @func_9666(%859) /* ty=(Tensor[(2, 6, 11), float64], Tensor[(1512), float32], Tensor[(660), uint8], Tensor[(1512), float32], Tensor[(2, 6, 11), float64], Tensor[(52), int16], Tensor[(2, 6, 11), float64], Tensor[(2, 6, 11), float64], Tensor[(2, 6, 11), float64]) */;
  %861 = cast(%var_10158, dtype="float64") /* ty=float64 */;
  %862 = reshape(%861, newshape=[]) /* ty=float64 */;
  %863 = %857.1;
  %864 = %860.4;
  %865 = @func_2429(%862) /* ty=Tensor[(9, 1), float64] */;
  (%863, %864, meta[relay.Constant][14] /* ty=Tensor[(26, 2), int16] */, %865, %var_10158)
}

def @func_15442() -> (Tensor[(2, 6, 11), float64],) {
  %866 = @func_6042() /* ty=(Tensor[(2, 6, 11), float64], Tensor[(2, 6, 11), float64]) */;
  %867 = %866.1;
  (%867,)
}

def @func_17586() -> (Tensor[(2, 6, 11), float64], Tensor[(2, 6, 11), float64]) {
  %868 = @func_17501() /* ty=(Tensor[(2, 6, 11), float64], Tensor[(2, 6, 11), float64]) */;
  %869 = %868.0;
  %870 = @func_16821() /* ty=Tensor[(2, 6, 11), float64] */;
  (%869, %870)
}

def @func_21419() -> (Tensor[(2, 6, 11), float64],) {
  %871 = @func_15181() /* ty=(Tensor[(2, 6, 11), float64],) */;
  %872 = %871.0;
  (%872,)
}

def @func_16205(%var_16168: Tensor[(1512), float32]) -> (Tensor[(2, 6, 11), float64], Tensor[(2, 6, 11), float64], Tensor[(1512), float32], Tensor[(2, 6, 11), float64], Tensor[(6, 252), float32], Tensor[(2, 6, 11), float64]) {
  %873 = @func_2839() /* ty=(Tensor[(2, 6, 11), float64], Tensor[(2, 6, 11), float64], Tensor[(2, 6, 11), float64]) */;
  %874 = cast(%var_16168, dtype="float32") /* ty=Tensor[(1512), float32] */;
  %875 = cast(%var_16168, dtype="float32") /* ty=Tensor[(1512), float32] */;
  %876 = reshape(%874, newshape=[14, 12, 9]) /* ty=Tensor[(14, 12, 9), float32] */;
  %877 = reshape(%875, newshape=[14, 12, 9]) /* ty=Tensor[(14, 12, 9), float32] */;
  %878 = @func_398(%876, %877) /* ty=(Tensor[(14, 12, 9), float32], Tensor[(2, 6, 11), float64], Tensor[(2, 6, 11), float64]) */;
  %879 = @func_11425() /* ty=(Tensor[(2, 6, 11), float64], Tensor[(2, 6, 11), float64]) */;
  %880 = %873.2;
  %881 = %878.2;
  %882 = %879.1;
  %883 = @func_6725() /* ty=Tensor[(6, 252), float32] */;
  %884 = @func_6010() /* ty=Tensor[(2, 6, 11), float64] */;
  (%880, %881, %var_16168, %882, %883, %884)
}

def @func_15475(%var_15453: Tensor[(7, 6, 15), float64]) -> (Tensor[(7, 6, 15), float64], Tensor[(13, 2, 12), uint8], Tensor[(312), uint8]) {
  %885 = cast(%var_15453, dtype="float64") /* ty=Tensor[(7, 6, 15), float64] */;
  %886 = cast(meta[relay.Constant][15] /* ty=Tensor[(312), uint8] */, dtype="uint8") /* ty=Tensor[(312), uint8] */;
  %887 = reshape(%886, newshape=[13, 2, 12]) /* ty=Tensor[(13, 2, 12), uint8] */;
  %888 = @func_8951(%887) /* ty=(Tensor[(13, 2, 12), uint8], Tensor[(2, 6, 11), float64], Tensor[(13, 2, 12), float64], Tensor[(2, 6, 11), float64]) */;
  %889 = log10(%885) /* ty=Tensor[(7, 6, 15), float64] */;
  %890 = %888.0;
  (%889, %890, meta[relay.Constant][15] /* ty=Tensor[(312), uint8] */)
}

def @func_16792() -> (Tensor[(2, 6, 11), float64], Tensor[(2, 6, 11), float64], Tensor[(2, 6, 11), float64], Tensor[(2, 6, 11), float64]) {
  %891 = @func_13607() /* ty=(Tensor[(2, 6, 11), float64], Tensor[(2, 6, 11), float64], Tensor[(2, 6, 11), float64], Tensor[(2, 6, 11), float64]) */;
  %892 = @func_5741() /* ty=(Tensor[(12, ?, 9), int64], Tensor[(2, 6, 11), float64], Tensor[(2, 6, 11), float64]) */;
  %893 = @func_14520() /* ty=(Tensor[(2, 6, 11), float64], Tensor[(2, 6, 11), float64], Tensor[(2, 6, 11), float64], Tensor[(9, 1), float64], float64) */;
  %894 = @func_9796() /* ty=(Tensor[(2, 6, 11), float64], Tensor[(2, 6, 11), float64]) */;
  %895 = %891.1;
  %896 = %892.2;
  %897 = %893.1;
  %898 = %894.0;
  (%895, %896, %897, %898)
}

def @func_14139(%var_14125: Tensor[(5, 5, 13), float32]) -> Tensor[(5, 5, 13), float32] {
  %899 = cast(%var_14125, dtype="float32") /* ty=Tensor[(5, 5, 13), float32] */;
  sigmoid(%899) /* ty=Tensor[(5, 5, 13), float32] */
}

def @func_5922() -> (Tensor[(2, 6, 11), float64], Tensor[(2, 6, 11), float64]) {
  %900 = @func_3198() /* ty=(Tensor[(2, 6, 11), float64], Tensor[(2, 6, 11), float64], Tensor[(2, 6, 11), float64], Tensor[(2, 6, 11), float64], Tensor[(2, 6, 11), float64], Tensor[(2, 6, 11), float64], Tensor[(2, 6, 11), float64], Tensor[(2, 6, 11), float64]) */;
  %901 = %900.0;
  %902 = @func_4427() /* ty=Tensor[(2, 6, 11), float64] */;
  (%901, %902)
}

def @func_21736(%var_21675: Tensor[(14, 12, 6), int16], %var_21676: Tensor[(14, 12, 6), int16], %var_21692: Tensor[(14, 12, 6), int16]) -> (Tensor[(14, 12, 6), bool], Tensor[(14, 12, 6), bool], Tensor[(2, 6, 11), float64], Tensor[(14, 12, 6), float64]) {
  %903 = cast(%var_21676, dtype="bool") /* ty=Tensor[(14, 12, 6), bool] */;
  %904 = shape_of(%var_21675, dtype="int32") /* ty=Tensor[(3), int32] */;
  %905 = cast(%var_21675, dtype="bool") /* ty=Tensor[(14, 12, 6), bool] */;
  %906 = dyn.reshape(%903, %904, newshape=[]) /* ty=Tensor[(?, ?, ?), bool] */;
  %907 = cast(%var_21692, dtype="bool") /* ty=Tensor[(14, 12, 6), bool] */;
  %908 = shape_of(%var_21675, dtype="int32") /* ty=Tensor[(3), int32] */;
  %909 = cast(%var_21675, dtype="bool") /* ty=Tensor[(14, 12, 6), bool] */;
  %910 = dyn.reshape(%907, %908, newshape=[]) /* ty=Tensor[(?, ?, ?), bool] */;
  %911 = @func_11296() /* ty=(Tensor[(2, 6, 11), float64], Tensor[(2, 6, 11), float64]) */;
  %912 = cast(%var_21675, dtype="float64") /* ty=Tensor[(14, 12, 6), float64] */;
  %913 = less(%905, %906) /* ty=Tensor[(14, 12, 6), bool] */;
  %914 = logical_or(%909, %910) /* ty=Tensor[(14, 12, 6), bool] */;
  %915 = %911.0;
  %916 = log2(%912) /* ty=Tensor[(14, 12, 6), float64] */;
  (%913, %914, %915, %916)
}

def @func_26869() -> (Tensor[(2, 6, 11), float64],) {
  %917 = @func_4724() /* ty=(Tensor[(2, 6, 11), float64],) */;
  %918 = %917.0;
  (%918,)
}

def @func_24444() -> Tensor[(2, 6, 11), float64] {
  %919 = @func_1035() /* ty=(Tensor[(2, 6, 11), float64], Tensor[(2, 6, 11), float64]) */;
  %919.1
}

def @func_11660(%var_11641: Tensor[(18, 84), float32]) -> (Tensor[(2, 6, 11), float64], Tensor[(2, 6, 11), float64], Tensor[(18, 84), float32], Tensor[(2, 6, 11), float64]) {
  %920 = cast(%var_11641, dtype="float32") /* ty=Tensor[(18, 84), float32] */;
  %921 = reshape(%920, newshape=[1512]) /* ty=Tensor[(1512), float32] */;
  %922 = @func_7580(%921) /* ty=(Tensor[(2, 6, 11), float64], Tensor[(2, 6, 11), float64], Tensor[(1512), float32], Tensor[(2, 6, 11), float64]) */;
  %923 = @func_3061() /* ty=(Tensor[(2, 6, 11), float64],) */;
  %924 = @func_4572() /* ty=Tensor[(2, 6, 11), float64] */;
  %925 = %922.1;
  %926 = %923.0;
  (%924, %925, %var_11641, %926)
}

def @func_26542() -> (Tensor[(2, 6, 11), float64], Tensor[(2, 6, 11), float64], Tensor[(2, 6, 11), float64]) {
  %927 = @func_16495() /* ty=(Tensor[(2, 6, 11), float64],) */;
  %928 = @func_1473() /* ty=(Tensor[(2, 6, 11), float64], Tensor[(2, 6, 11), float64], Tensor[(2, 6, 11), float64], Tensor[(2, 6, 11), float64]) */;
  %929 = @func_26524() /* ty=(Tensor[(2, 6, 11), float64], Tensor[(756, 2), float64]) */;
  %930 = %927.0;
  %931 = %928.0;
  %932 = %929.0;
  (%930, %931, %932)
}

def @func_27531() -> (Tensor[(2, 6, 11), float64],) {
  %933 = @func_10696() /* ty=Tensor[(2, 6, 11), float64] */;
  (%933,)
}

def @func_21406() -> (Tensor[(2, 6, 11), float64], Tensor[(2, 6, 11), float64]) {
  %934 = @func_197() /* ty=(Tensor[(2, 6, 11), float64],) */;
  %935 = @func_21199() /* ty=(Tensor[(2, 6, 11), float64], Tensor[(2, 6, 11), float64], Tensor[(2, 6, 11), float64], Tensor[(2, 6, 11), float64], Tensor[(2, 6, 11), float64]) */;
  %936 = %934.0;
  %937 = %935.3;
  (%936, %937)
}

def @func_29878(%var_29867: Tensor[(16, 16, 5), int16], %var_29868: Tensor[(16, 16, 5), int16]) -> Tensor[(16, 16, 5), int16] {
  %938 = cast(%var_29868, dtype="int16") /* ty=Tensor[(16, 16, 5), int16] */;
  %939 = shape_of(%var_29867, dtype="int32") /* ty=Tensor[(3), int32] */;
  %940 = cast(%var_29867, dtype="int16") /* ty=Tensor[(16, 16, 5), int16] */;
  %941 = dyn.reshape(%938, %939, newshape=[]) /* ty=Tensor[(?, ?, ?), int16] */;
  multiply(%940, %941) /* ty=Tensor[(16, 16, 5), int16] */
}

def @func_24643() -> (Tensor[(2, 6, 11), float64],) {
  %942 = @func_20055() /* ty=(Tensor[(2, 6, 11), float64], Tensor[(2, 6, 11), float64]) */;
  %943 = %942.1;
  (%943,)
}

def @func_24590() -> (Tensor[(2, 6, 11), float64], Tensor[(2, 6, 11), float64], float64, Tensor[(2, 6, 11), float64]) {
  %944 = @func_8222() /* ty=(Tensor[(2, 6, 11), float64], Tensor[(2, 6, 11), float64], Tensor[(2, 6, 11), float64]) */;
  %945 = cast(3.81963f64 /* ty=float64 */, dtype="float64") /* ty=float64 */;
  %946 = reshape(%945, newshape=[]) /* ty=float64 */;
  %947 = @func_10165(%946) /* ty=(Tensor[(2, 6, 11), float64], Tensor[(2, 6, 11), float64], Tensor[(26, 2), int16], Tensor[(9, 1), float64], float64) */;
  %948 = @func_13901() /* ty=(Tensor[(2, 6, 11), float64], Tensor[(2, 6, 11), float64], Tensor[(2, 6, 11), float64]) */;
  %949 = %944.1;
  %950 = %947.1;
  %951 = %948.2;
  (%949, %950, 3.81963f64 /* ty=float64 */, %951)
}

def @func_8839() -> (Tensor[(2, 6, 11), float64],) {
  %952 = @func_7748() /* ty=(Tensor[(2, 6, 11), float64], Tensor[(2, 6, 11), float64], Tensor[(2, 6, 11), float64]) */;
  %953 = %952.0;
  (%953,)
}

def @func_9913() -> (Tensor[(2, 6, 11), float64],) {
  %954 = @func_8728() /* ty=(Tensor[(2, 6, 11), float64], Tensor[(9, 1), float64], float64, Tensor[(2, 6, 11), float64], Tensor[(2, 6, 11), float64], Tensor[(2, 6, 11), float64]) */;
  %955 = %954.3;
  (%955,)
}

def @func_23006() -> (Tensor[(2, 6, 11), float64],) {
  %956 = @func_16673() /* ty=(Tensor[(2, 6, 11), float64], Tensor[(1512), float32], Tensor[(12, ?, 9), float64], Tensor[(2, 6, 11), float64], Tensor[(2, 6, 11), float64]) */;
  %957 = %956.4;
  (%957,)
}

def @func_12336() -> (Tensor[(2, 6, 11), float64],) {
  %958 = @func_6157() /* ty=(Tensor[(2, 6, 11), float64], Tensor[(2, 6, 11), float64], Tensor[(2, 6, 11), float64]) */;
  %959 = %958.2;
  (%959,)
}

def @func_26894() -> Tensor[(2, 6, 11), float64] {
  %960 = @func_26235() /* ty=(Tensor[(2, 6, 11), float64],) */;
  %960.0
}

def @func_8883() -> (Tensor[(2, 6, 11), float64],) {
  %961 = @func_5644() /* ty=(Tensor[(2, 6, 11), float64], Tensor[(2, 6, 11), float64]) */;
  %962 = %961.1;
  (%962,)
}

def @func_5507(%var_5436: Tensor[(11, 12, 5), uint8], %var_5437: Tensor[(11, 12, 5), uint8], %var_5484: Tensor[(1512), float32]) -> (Tensor[(2, 6, 11), float64], Tensor[(2, 6, 11), float64], Tensor[(1512), float32], Tensor[(1512), float32], Tensor[(11, 12, 5), float32]) {
  %963 = @func_4629() /* ty=(Tensor[(2, 6, 11), float64],) */;
  %964 = cast(%var_5484, dtype="float32") /* ty=Tensor[(1512), float32] */;
  %965 = reshape(%964, newshape=[1512]) /* ty=Tensor[(1512), float32] */;
  %966 = @func_517(%965) /* ty=(Tensor[(2, 6, 11), float64], Tensor[(2, 6, 11), float64], Tensor[(1512), float32], Tensor[(2, 6, 11), float64], Tensor[(2, 6, 11), float64], Tensor[(2, 6, 11), float64]) */;
  %967 = cast(%var_5437, dtype="bool") /* ty=Tensor[(11, 12, 5), bool] */;
  %968 = shape_of(%var_5436, dtype="int32") /* ty=Tensor[(3), int32] */;
  %969 = cast(%var_5436, dtype="bool") /* ty=Tensor[(11, 12, 5), bool] */;
  %970 = dyn.reshape(%967, %968, newshape=[]) /* ty=Tensor[(?, ?, ?), bool] */;
  %971 = not_equal(%969, %970) /* ty=Tensor[(11, 12, 5), bool] */;
  %972 = cast(meta[relay.Constant][16] /* ty=Tensor[(11, 12, 5), bool] */, dtype="bool") /* ty=Tensor[(11, 12, 5), bool] */;
  %973 = shape_of(%971, dtype="int32") /* ty=Tensor[(3), int32] */;
  %974 = cast(%971, dtype="bool") /* ty=Tensor[(11, 12, 5), bool] */;
  %975 = dyn.reshape(%972, %973, newshape=[]) /* ty=Tensor[(?, ?, ?), bool] */;
  %976 = greater_equal(%974, %975) /* ty=Tensor[(11, 12, 5), bool] */;
  %977 = cast(%976, dtype="float32") /* ty=Tensor[(11, 12, 5), float32] */;
  %978 = log(%977) /* ty=Tensor[(11, 12, 5), float32] */;
  %979 = cast(%978, dtype="float32") /* ty=Tensor[(11, 12, 5), float32] */;
  %980 = %963.0;
  %981 = @func_4975() /* ty=Tensor[(2, 6, 11), float64] */;
  %982 = %966.2;
  %983 = sigmoid(%979) /* ty=Tensor[(11, 12, 5), float32] */;
  (%980, %981, %982, %var_5484, %983)
}

def @func_18637() -> Tensor[(15, 15, 6), float32] {
  %984 = cast(meta[relay.Constant][17] /* ty=Tensor[(15, 15, 6), float32] */, dtype="float32") /* ty=Tensor[(15, 15, 6), float32] */;
  atanh(%984) /* ty=Tensor[(15, 15, 6), float32] */
}

def @func_21914(%var_21889: Tensor[(14, 3, 16), uint16]) -> (Tensor[(14, 3, 16), uint16], Tensor[(2, 6, 11), float64], Tensor[(2, 6, 11), float64]) {
  %985 = cast(%var_21889, dtype="uint16") /* ty=Tensor[(14, 3, 16), uint16] */;
  %986 = shape_of(meta[relay.Constant][18] /* ty=Tensor[(14, 3, 16), uint16] */, dtype="int32") /* ty=Tensor[(3), int32] */;
  %987 = cast(meta[relay.Constant][18] /* ty=Tensor[(14, 3, 16), uint16] */, dtype="uint16") /* ty=Tensor[(14, 3, 16), uint16] */;
  %988 = dyn.reshape(%985, %986, newshape=[]) /* ty=Tensor[(?, ?, ?), uint16] */;
  %989 = @func_20055() /* ty=(Tensor[(2, 6, 11), float64], Tensor[(2, 6, 11), float64]) */;
  %990 = minimum(%987, %988) /* ty=Tensor[(14, 3, 16), uint16] */;
  %991 = @func_5952() /* ty=Tensor[(2, 6, 11), float64] */;
  %992 = %989.0;
  (%990, %991, %992)
}

def @func_22970() -> (Tensor[(2, 6, 11), float64],) {
  %993 = @func_7058() /* ty=(Tensor[(2, 6, 11), float64], Tensor[(2, 6, 11), float64], Tensor[(2, 6, 11), float64]) */;
  %994 = %993.2;
  (%994,)
}

def @func_29760(%var_29742: float64, %var_29755: Tensor[(33), uint32]) -> (Tensor[(2, 6, 11), float64], Tensor[(2, 6, 11), float64], float64, Tensor[(11, 3, 3), uint32], Tensor[(33), uint32], Tensor[(99), uint32]) {
  %995 = cast(%var_29742, dtype="float64") /* ty=float64 */;
  %996 = reshape(%995, newshape=[]) /* ty=float64 */;
  %997 = @func_24621(%996) /* ty=(Tensor[(2, 6, 11), float64], Tensor[(2, 6, 11), float64], float64) */;
  %998 = cast(%var_29755, dtype="uint32") /* ty=Tensor[(33), uint32] */;
  %999 = cast(meta[relay.Constant][19] /* ty=Tensor[(99), uint32] */, dtype="uint32") /* ty=Tensor[(99), uint32] */;
  %1000 = reshape(%998, newshape=[11, 1, 3]) /* ty=Tensor[(11, 1, 3), uint32] */;
  %1001 = reshape(%999, newshape=[11, 3, 3]) /* ty=Tensor[(11, 3, 3), uint32] */;
  %1002 = @func_16569(%1000, %1001) /* ty=(Tensor[(11, 3, 3), uint32],) */;
  %1003 = @func_6099() /* ty=Tensor[(2, 6, 11), float64] */;
  %1004 = %997.0;
  %1005 = %1002.0;
  (%1003, %1004, %var_29742, %1005, %var_29755, meta[relay.Constant][19] /* ty=Tensor[(99), uint32] */)
}

def @func_11436() -> (Tensor[(2, 6, 11), float64],) {
  %1006 = @func_9409() /* ty=Tensor[(2, 6, 11), float64] */;
  (%1006,)
}

def @func_22349() -> Tensor[(2, 6, 11), float64] {
  %1007 = @func_10039() /* ty=(Tensor[(2, 6, 11), float64],) */;
  %1007.0
}

def @func_1719() -> (Tensor[(2, 6, 11), float64], Tensor[(2, 6, 11), float64], Tensor[(2, 6, 11), float64]) {
  %1008 = @func_216() /* ty=(Tensor[(2, 6, 11), float64],) */;
  %1009 = @func_1500() /* ty=(Tensor[(2, 6, 11), float64],) */;
  %1010 = @func_348() /* ty=(Tensor[(2, 6, 11), float64],) */;
  %1011 = %1008.0;
  %1012 = %1009.0;
  %1013 = %1010.0;
  (%1011, %1012, %1013)
}

def @func_25850() -> (Tensor[(2, 6, 11), float64],) {
  %1014 = @func_6042() /* ty=(Tensor[(2, 6, 11), float64], Tensor[(2, 6, 11), float64]) */;
  %1015 = %1014.1;
  (%1015,)
}

def @func_18878() -> (Tensor[(2, 6, 11), float64], Tensor[(2, 6, 11), float64]) {
  %1016 = @func_2065() /* ty=(Tensor[(2, 6, 11), float64],) */;
  %1017 = @func_6099() /* ty=Tensor[(2, 6, 11), float64] */;
  %1018 = %1016.0;
  (%1017, %1018)
}

def @func_23751(%var_23732: Tensor[(1512), float32]) -> (Tensor[(2, 6, 11), float64], Tensor[(2, 6, 11), float64], Tensor[(2, 6, 11), float64], Tensor[(1512), float32]) {
  %1019 = @func_4686() /* ty=(Tensor[(2, 6, 11), float64], Tensor[(2, 6, 11), float64], Tensor[(2, 6, 11), float64]) */;
  %1020 = @func_20511() /* ty=(Tensor[(2, 6, 11), float64], Tensor[(2, 6, 11), float64]) */;
  %1021 = cast(%var_23732, dtype="float32") /* ty=Tensor[(1512), float32] */;
  %1022 = reshape(%1021, newshape=[1512]) /* ty=Tensor[(1512), float32] */;
  %1023 = @func_517(%1022) /* ty=(Tensor[(2, 6, 11), float64], Tensor[(2, 6, 11), float64], Tensor[(1512), float32], Tensor[(2, 6, 11), float64], Tensor[(2, 6, 11), float64], Tensor[(2, 6, 11), float64]) */;
  %1024 = %1019.2;
  %1025 = %1020.0;
  %1026 = %1023.3;
  (%1024, %1025, %1026, %var_23732)
}

def @func_18336() -> (Tensor[(2, 6, 11), float64], Tensor[(2, 6, 11), float64]) {
  %1027 = @func_11588() /* ty=(Tensor[(2, 6, 11), float64], Tensor[(2, 6, 11), float64], Tensor[(2, 6, 11), float64], Tensor[(2, 6, 11), float64]) */;
  %1028 = @func_5270() /* ty=(Tensor[(2, 6, 11), float64],) */;
  %1029 = %1027.3;
  %1030 = %1028.0;
  (%1029, %1030)
}

def @func_21063(%var_21051: Tensor[(13, 16, 3), float64], %var_21052: Tensor[(13, 16, 3), float64]) -> Tensor[(13, 16, 3), float64] {
  %1031 = cast(%var_21052, dtype="float64") /* ty=Tensor[(13, 16, 3), float64] */;
  %1032 = shape_of(%var_21051, dtype="int32") /* ty=Tensor[(3), int32] */;
  %1033 = cast(%var_21051, dtype="float64") /* ty=Tensor[(13, 16, 3), float64] */;
  %1034 = dyn.reshape(%1031, %1032, newshape=[]) /* ty=Tensor[(?, ?, ?), float64] */;
  mod(%1033, %1034) /* ty=Tensor[(13, 16, 3), float64] */
}

def @func_27791() -> (Tensor[(2, 6, 11), float64], Tensor[(2, 6, 11), float64]) {
  %1035 = @func_13824() /* ty=(Tensor[(2, 6, 11), float64], Tensor[(2, 6, 11), float64]) */;
  %1036 = %1035.1;
  %1037 = @func_4065() /* ty=Tensor[(2, 6, 11), float64] */;
  (%1036, %1037)
}

def @func_4031() -> (Tensor[(2, 6, 11), float64], Tensor[(2, 6, 11), float64]) {
  %1038 = @func_2928() /* ty=(Tensor[(2, 6, 11), float64], Tensor[(2, 6, 11), float64], Tensor[(2, 6, 11), float64], Tensor[(2, 6, 11), float64], Tensor[(2, 6, 11), float64]) */;
  %1039 = %1038.0;
  %1040 = @func_3996() /* ty=Tensor[(2, 6, 11), float64] */;
  (%1039, %1040)
}

def @func_30560() -> Tensor[(2, 6, 11), float64] {
  %1041 = @func_11195() /* ty=(Tensor[(2, 6, 11), float64], Tensor[(2, 6, 11), float64]) */;
  %1041.1
}

def @func_18458() -> Tensor[(2, 6, 11), float64] {
  @func_6349() /* ty=Tensor[(2, 6, 11), float64] */
}

def @func_25133() -> Tensor[(2, 6, 11), float64] {
  %1042 = @func_6512() /* ty=(Tensor[(2, 6, 11), float64],) */;
  %1042.0
}

def @func_22886() -> Tensor[(2, 6, 11), float64] {
  %1043 = @func_21664() /* ty=(Tensor[(2, 6, 11), float64],) */;
  %1043.0
}

def @func_20719() -> (Tensor[(2, 6, 11), float64], Tensor[(2, 6, 11), float64], Tensor[(2, 6, 11), float64], Tensor[(2, 6, 11), float64]) {
  %1044 = @func_5741() /* ty=(Tensor[(12, ?, 9), int64], Tensor[(2, 6, 11), float64], Tensor[(2, 6, 11), float64]) */;
  %1045 = %1044.1;
  %1046 = @func_3864() /* ty=Tensor[(2, 6, 11), float64] */;
  %1047 = @func_3996() /* ty=Tensor[(2, 6, 11), float64] */;
  %1048 = @func_15991() /* ty=Tensor[(2, 6, 11), float64] */;
  (%1045, %1046, %1047, %1048)
}

def @func_25249() -> (Tensor[(2, 6, 11), float64], Tensor[(2, 6, 11), float64], Tensor[(2, 6, 11), float64]) {
  %1049 = @func_5922() /* ty=(Tensor[(2, 6, 11), float64], Tensor[(2, 6, 11), float64]) */;
  %1050 = @func_15229() /* ty=(Tensor[(2, 6, 11), float64], Tensor[(2, 6, 11), float64]) */;
  %1051 = @func_22319() /* ty=(Tensor[(2, 6, 11), float64],) */;
  %1052 = %1049.0;
  %1053 = %1050.1;
  %1054 = %1051.0;
  (%1052, %1053, %1054)
}

def @func_12537() -> Tensor[(2, 6, 11), float64] {
  %1055 = @func_2013() /* ty=(Tensor[(2, 6, 11), float64],) */;
  %1055.0
}

def @func_24650() -> Tensor[(2, 6, 11), float64] {
  %1056 = @func_11045() /* ty=(Tensor[(2, 6, 11), float64], Tensor[(2, 6, 11), float64], Tensor[(2, 6, 11), float64], Tensor[(2, 6, 11), float64], Tensor[(2, 6, 11), float64], Tensor[(756, 2), float32], Tensor[(2, 6, 11), float64], Tensor[(2, 6, 11), float64]) */;
  %1056.1
}

def @func_2429(%var_2420: float64) -> Tensor[(9, 1), float64] {
  %1057 = cast(%var_2420, dtype="float64") /* ty=float64 */;
  %1058 = cast(meta[relay.Constant][20] /* ty=Tensor[(9, 1), float64] */, dtype="float64") /* ty=Tensor[(9, 1), float64] */;
  floor_mod(%1057, %1058) /* ty=Tensor[(9, 1), float64] */
}

def @func_5270() -> (Tensor[(2, 6, 11), float64],) {
  %1059 = @func_4526() /* ty=(Tensor[(2, 6, 11), float64], Tensor[(2, 6, 11), float64], Tensor[(2, 6, 11), float64], Tensor[(2, 6, 11), float64], Tensor[(2, 6, 11), float64]) */;
  %1060 = %1059.0;
  (%1060,)
}

def @func_20124() -> Tensor[(2, 6, 11), float64] {
  %1061 = @func_12076() /* ty=(Tensor[(2, 6, 11), float64],) */;
  %1061.0
}

def @func_9796() -> (Tensor[(2, 6, 11), float64], Tensor[(2, 6, 11), float64]) {
  %1062 = @func_5644() /* ty=(Tensor[(2, 6, 11), float64], Tensor[(2, 6, 11), float64]) */;
  %1063 = %1062.0;
  %1064 = @func_6300() /* ty=Tensor[(2, 6, 11), float64] */;
  (%1063, %1064)
}

def @func_1500() -> (Tensor[(2, 6, 11), float64],) {
  %1065 = @func_944() /* ty=(Tensor[(2, 6, 11), float64], Tensor[(2, 6, 11), float64]) */;
  %1066 = %1065.0;
  (%1066,)
}

def @func_1645() -> Tensor[(2, 6, 11), float64] {
  %1067 = @func_626() /* ty=(Tensor[(2, 6, 11), float64],) */;
  %1067.0
}

def @func_6725() -> Tensor[(6, 252), float32] {
  %1068 = @func_6450() /* ty=(Tensor[(2, 6, 11), float64], Tensor[(1512), float32], Tensor[(6, 252), float32], Tensor[(2, 6, 11), float64]) */;
  %1068.2
}

def @func_4975() -> Tensor[(2, 6, 11), float64] {
  %1069 = @func_1060() /* ty=(Tensor[(2, 6, 11), float64], Tensor[(2, 6, 11), float64]) */;
  %1069.1
}

def @func_15229() -> (Tensor[(2, 6, 11), float64], Tensor[(2, 6, 11), float64]) {
  %1070 = @func_7308() /* ty=(Tensor[(2, 6, 11), float64],) */;
  %1071 = @func_6691() /* ty=Tensor[(2, 6, 11), float64] */;
  %1072 = %1070.0;
  (%1071, %1072)
}

def @func_19338(%var_19328: Tensor[(1512), float32]) -> (Tensor[(2, 6, 11), float64], Tensor[(2, 6, 11), float64], Tensor[(1512), int64], Tensor[(2, 6, 11), float64]) {
  %1073 = @func_1330() /* ty=(Tensor[(2, 6, 11), float64], Tensor[(2, 6, 11), float64], Tensor[(2, 6, 11), float64]) */;
  %1074 = cast(%var_19328, dtype="float32") /* ty=Tensor[(1512), float32] */;
  %1075 = reshape(%1074, newshape=[18, 84]) /* ty=Tensor[(18, 84), float32] */;
  %1076 = @func_11660(%1075) /* ty=(Tensor[(2, 6, 11), float64], Tensor[(2, 6, 11), float64], Tensor[(18, 84), float32], Tensor[(2, 6, 11), float64]) */;
  %1077 = cast(meta[relay.Constant][21] /* ty=Tensor[(1512), float32] */, dtype="int64") /* ty=Tensor[(1512), int64] */;
  %1078 = shape_of(%var_19328, dtype="int32") /* ty=Tensor[(1), int32] */;
  %1079 = cast(%var_19328, dtype="int64") /* ty=Tensor[(1512), int64] */;
  %1080 = dyn.reshape(%1077, %1078, newshape=[]) /* ty=Tensor[(?), int64] */;
  %1081 = @func_3198() /* ty=(Tensor[(2, 6, 11), float64], Tensor[(2, 6, 11), float64], Tensor[(2, 6, 11), float64], Tensor[(2, 6, 11), float64], Tensor[(2, 6, 11), float64], Tensor[(2, 6, 11), float64], Tensor[(2, 6, 11), float64], Tensor[(2, 6, 11), float64]) */;
  %1082 = %1073.0;
  %1083 = %1076.3;
  %1084 = bitwise_or(%1079, %1080) /* ty=Tensor[(1512), int64] */;
  %1085 = %1081.3;
  (%1082, %1083, %1084, %1085)
}

def @func_14589() -> (Tensor[(2, 6, 11), float64], Tensor[(6, 252), float32], Tensor[(2, 6, 11), float64]) {
  %1086 = @func_11537() /* ty=(Tensor[(2, 6, 11), float64],) */;
  %1087 = @func_451() /* ty=(Tensor[(2, 6, 11), float64], Tensor[(2, 6, 11), float64]) */;
  %1088 = %1086.0;
  %1089 = @func_6725() /* ty=Tensor[(6, 252), float32] */;
  %1090 = %1087.0;
  (%1088, %1089, %1090)
}

def @func_3237(%var_3230: Tensor[(1512), float32]) -> (Tensor[(2, 6, 11), float64], Tensor[(2, 6, 11), float64], Tensor[(2, 6, 11), float64], Tensor[(1512), float32]) {
  %1091 = @func_2341() /* ty=(Tensor[(2, 6, 11), float64], Tensor[(2, 6, 11), float64], Tensor[(2, 6, 11), float64], Tensor[(2, 6, 11), float64], Tensor[(2, 6, 11), float64]) */;
  %1092 = @func_626() /* ty=(Tensor[(2, 6, 11), float64],) */;
  %1093 = cast(%var_3230, dtype="float32") /* ty=Tensor[(1512), float32] */;
  %1094 = reshape(%1093, newshape=[1512]) /* ty=Tensor[(1512), float32] */;
  %1095 = @func_1442(%1094) /* ty=(Tensor[(2, 6, 11), float64], Tensor[(2, 6, 11), float64], Tensor[(2, 6, 11), float64], Tensor[(2, 6, 11), float64], Tensor[(1512), float32], Tensor[(14, 12, 9), float32]) */;
  %1096 = %1091.0;
  %1097 = %1092.0;
  %1098 = %1095.3;
  (%1096, %1097, %1098, %var_3230)
}

def @func_23899() -> Tensor[(2, 6, 11), float64] {
  @func_3864() /* ty=Tensor[(2, 6, 11), float64] */
}

def @func_14407() -> Tensor[(2, 6, 11), float64] {
  %1099 = @func_13881() /* ty=(Tensor[(2, 6, 11), float64], Tensor[(2, 6, 11), float64], Tensor[(2, 6, 11), float64]) */;
  %1099.1
}

def @func_21664() -> (Tensor[(2, 6, 11), float64],) {
  %1100 = @func_10354() /* ty=Tensor[(2, 6, 11), float64] */;
  (%1100,)
}

def @func_21832(%var_21778: Tensor[(6, 252), float32], %var_21809: Tensor[(6, 252), float32]) -> (Tensor[(6, 252), float32], Tensor[(6, 252), bool], Tensor[(2, 6, 11), float64], Tensor[(2, 6, 11), float64]) {
  %1101 = @func_6725() /* ty=Tensor[(6, 252), float32] */;
  %1102 = cast(%var_21778, dtype="uint8") /* ty=Tensor[(6, 252), uint8] */;
  %1103 = shape_of(%1101, dtype="int32") /* ty=Tensor[(2), int32] */;
  %1104 = cast(%1101, dtype="uint8") /* ty=Tensor[(6, 252), uint8] */;
  %1105 = dyn.reshape(%1102, %1103, newshape=[]) /* ty=Tensor[(?, ?), uint8] */;
  %1106 = bitwise_or(%1104, %1105) /* ty=Tensor[(6, 252), uint8] */;
  %1107 = cast(%1106, dtype="float32") /* ty=Tensor[(6, 252), float32] */;
  %1108 = atanh(%1107) /* ty=Tensor[(6, 252), float32] */;
  %1109 = cast(%1108, dtype="float32") /* ty=Tensor[(6, 252), float32] */;
  %1110 = cast(%var_21809, dtype="bool") /* ty=Tensor[(6, 252), bool] */;
  %1111 = shape_of(%1108, dtype="int32") /* ty=Tensor[(2), int32] */;
  %1112 = cast(%1108, dtype="bool") /* ty=Tensor[(6, 252), bool] */;
  %1113 = dyn.reshape(%1110, %1111, newshape=[]) /* ty=Tensor[(?, ?), bool] */;
  %1114 = @func_1060() /* ty=(Tensor[(2, 6, 11), float64], Tensor[(2, 6, 11), float64]) */;
  %1115 = @func_3508() /* ty=(Tensor[(2, 6, 11), float64], Tensor[(2, 6, 11), float64]) */;
  %1116 = sigmoid(%1109) /* ty=Tensor[(6, 252), float32] */;
  %1117 = not_equal(%1112, %1113) /* ty=Tensor[(6, 252), bool] */;
  %1118 = %1114.0;
  %1119 = %1115.0;
  (%1116, %1117, %1118, %1119)
}

def @func_18602() -> (Tensor[(2, 6, 11), float64], Tensor[(2, 6, 11), float64]) {
  %1120 = @func_3061() /* ty=(Tensor[(2, 6, 11), float64],) */;
  %1121 = @func_7517() /* ty=Tensor[(2, 6, 11), float64] */;
  %1122 = %1120.0;
  (%1121, %1122)
}

def @func_23166() -> (Tensor[(2, 6, 11), float64],) {
  %1123 = @func_22970() /* ty=(Tensor[(2, 6, 11), float64],) */;
  %1124 = %1123.0;
  (%1124,)
}

def @func_5595() -> (Tensor[(2, 6, 11), float64], Tensor[(2, 6, 11), float64]) {
  %1125 = @func_4526() /* ty=(Tensor[(2, 6, 11), float64], Tensor[(2, 6, 11), float64], Tensor[(2, 6, 11), float64], Tensor[(2, 6, 11), float64], Tensor[(2, 6, 11), float64]) */;
  %1126 = @func_3061() /* ty=(Tensor[(2, 6, 11), float64],) */;
  %1127 = %1125.1;
  %1128 = %1126.0;
  (%1127, %1128)
}

def @func_15617() -> Tensor[(2, 6, 11), float64] {
  @func_12201() /* ty=Tensor[(2, 6, 11), float64] */
}

def @func_29808() -> (Tensor[(1512), float32],) {
  %1129 = @func_19163() /* ty=(Tensor[(1512), float32], Tensor[(10, 5, 4), float32]) */;
  %1130 = %1129.0;
  %1131 = cast(%1130, dtype="float32") /* ty=Tensor[(1512), float32] */;
  %1132 = log10(%1131) /* ty=Tensor[(1512), float32] */;
  (%1132,)
}

def @func_16673() -> (Tensor[(2, 6, 11), float64], Tensor[(1512), float32], Tensor[(12, ?, 9), float64], Tensor[(2, 6, 11), float64], Tensor[(2, 6, 11), float64]) {
  %1133 = cast(meta[relay.Constant][22] /* ty=Tensor[(1512), float32] */, dtype="float32") /* ty=Tensor[(1512), float32] */;
  %1134 = cast(meta[relay.Constant][22] /* ty=Tensor[(1512), float32] */, dtype="float32") /* ty=Tensor[(1512), float32] */;
  %1135 = reshape(%1133, newshape=[14, 12, 9]) /* ty=Tensor[(14, 12, 9), float32] */;
  %1136 = reshape(%1134, newshape=[14, 12, 9]) /* ty=Tensor[(14, 12, 9), float32] */;
  %1137 = @func_398(%1135, %1136) /* ty=(Tensor[(14, 12, 9), float32], Tensor[(2, 6, 11), float64], Tensor[(2, 6, 11), float64]) */;
  %1138 = @func_5047() /* ty=(Tensor[(2, 6, 11), float64], Tensor[(12, ?, 9), int64], Tensor[(2, 6, 11), float64], Tensor[(2, 6, 11), float64]) */;
  %1139 = %1138.1;
  %1140 = cast(%1139, dtype="float64") /* ty=Tensor[(12, ?, 9), float64] */;
  %1141 = @func_2515() /* ty=(Tensor[(2, 6, 11), float64], Tensor[(2, 6, 11), float64], Tensor[(2, 6, 11), float64]) */;
  %1142 = @func_2515() /* ty=(Tensor[(2, 6, 11), float64], Tensor[(2, 6, 11), float64], Tensor[(2, 6, 11), float64]) */;
  %1143 = %1137.1;
  %1144 = tan(%1140) /* ty=Tensor[(12, ?, 9), float64] */;
  %1145 = %1141.1;
  %1146 = %1142.2;
  (%1143, meta[relay.Constant][22] /* ty=Tensor[(1512), float32] */, %1144, %1145, %1146)
}

def @func_26097() -> (Tensor[(2, 6, 11), float64], Tensor[(2, 6, 11), float64], Tensor[(2, 6, 11), float64], Tensor[(2, 6, 11), float64], Tensor[(2, 6, 11), float64]) {
  %1147 = @func_3543() /* ty=(Tensor[(2, 6, 11), float64], Tensor[(2, 6, 11), float64]) */;
  %1148 = @func_24663() /* ty=(Tensor[(2, 6, 11), float64],) */;
  %1149 = @func_16910() /* ty=(Tensor[(2, 6, 11), float64],) */;
  %1150 = @func_2975() /* ty=Tensor[(2, 6, 11), float64] */;
  %1151 = @func_21394() /* ty=Tensor[(2, 6, 11), float64] */;
  %1152 = %1147.0;
  %1153 = %1148.0;
  %1154 = %1149.0;
  (%1150, %1151, %1152, %1153, %1154)
}

def @func_15893() -> Tensor[(2, 6, 11), float64] {
  %1155 = @func_11425() /* ty=(Tensor[(2, 6, 11), float64], Tensor[(2, 6, 11), float64]) */;
  %1155.0
}

def @func_29048(%var_29012: Tensor[(450), bool]) -> (Tensor[(2, 6, 11), float64], Tensor[(2, 6, 11), float64], Tensor[(2, 6, 11), float64], Tensor[(15, 6, 5), bool], Tensor[(450), bool], Tensor[(2, 6, 11), float64], Tensor[(14, 6, 9), float32], Tensor[(2, 6, 11), float64]) {
  %1156 = @func_13901() /* ty=(Tensor[(2, 6, 11), float64], Tensor[(2, 6, 11), float64], Tensor[(2, 6, 11), float64]) */;
  %1157 = @func_1860() /* ty=(Tensor[(2, 6, 11), float64], Tensor[(2, 6, 11), float64], Tensor[(2, 6, 11), float64], Tensor[(2, 6, 11), float64]) */;
  %1158 = @func_22970() /* ty=(Tensor[(2, 6, 11), float64],) */;
  %1159 = cast(%var_29012, dtype="bool") /* ty=Tensor[(450), bool] */;
  %1160 = reshape(%1159, newshape=[15, 6, 5]) /* ty=Tensor[(15, 6, 5), bool] */;
  %1161 = @func_19700(%1160) /* ty=(Tensor[(15, 6, 5), bool],) */;
  %1162 = @func_6450() /* ty=(Tensor[(2, 6, 11), float64], Tensor[(1512), float32], Tensor[(6, 252), float32], Tensor[(2, 6, 11), float64]) */;
  %1163 = cast(meta[relay.Constant][23] /* ty=Tensor[(756), float64] */, dtype="float64") /* ty=Tensor[(756), float64] */;
  %1164 = reshape(%1163, newshape=[14, 6, 9]) /* ty=Tensor[(14, 6, 9), float64] */;
  %1165 = @func_13936(%1164) /* ty=(Tensor[(14, 6, 9), float64], Tensor[(2, 6, 11), float64], Tensor[(2, 6, 11), float64]) */;
  %1166 = %1165.0;
  %1167 = cast(meta[relay.Constant][23] /* ty=Tensor[(756), float64] */, dtype="float32") /* ty=Tensor[(756), float32] */;
  %1168 = shape_of(%1166, dtype="int32") /* ty=Tensor[(3), int32] */;
  %1169 = cast(%1166, dtype="float32") /* ty=Tensor[(14, 6, 9), float32] */;
  %1170 = dyn.reshape(%1167, %1168, newshape=[]) /* ty=Tensor[(?, ?, ?), float32] */;
  %1171 = @func_8418() /* ty=(Tensor[(2, 6, 11), float64],) */;
  %1172 = %1156.2;
  %1173 = %1157.0;
  %1174 = %1158.0;
  %1175 = %1161.0;
  %1176 = %1162.3;
  %1177 = floor_divide(%1169, %1170) /* ty=Tensor[(14, 6, 9), float32] */;
  %1178 = %1171.0;
  (%1172, %1173, %1174, %1175, %var_29012, %1176, %1177, %1178)
}

def @func_18841(%var_18793: Tensor[(11, 14, 13), float32]) -> (Tensor[(11, 14, 13), float32], Tensor[(2, 6, 11), float64], Tensor[(72), float64], Tensor[(2, 6, 11), float64], Tensor[(2, 6, 11), float64], Tensor[(2, 6, 11), float64]) {
  %1179 = cast(meta[relay.Constant][24] /* ty=Tensor[(1, 14, 13), float32] */, dtype="float32") /* ty=Tensor[(1, 14, 13), float32] */;
  %1180 = cast(%var_18793, dtype="float32") /* ty=Tensor[(11, 14, 13), float32] */;
  %1181 = cast(meta[relay.Constant][25] /* ty=Tensor[(72), float64] */, dtype="float64") /* ty=Tensor[(72), float64] */;
  %1182 = reshape(%1181, newshape=[2, 3, 12]) /* ty=Tensor[(2, 3, 12), float64] */;
  %1183 = @func_16272(%1182) /* ty=(Tensor[(2, 3, 12), float64], Tensor[(2, 6, 11), float64]) */;
  %1184 = @func_12996() /* ty=(Tensor[(2, 6, 11), float64],) */;
  %1185 = @func_451() /* ty=(Tensor[(2, 6, 11), float64], Tensor[(2, 6, 11), float64]) */;
  %1186 = floor_divide(%1179, %1180) /* ty=Tensor[(11, 14, 13), float32] */;
  %1187 = %1183.1;
  %1188 = %1184.0;
  %1189 = %1185.1;
  %1190 = @func_2305() /* ty=Tensor[(2, 6, 11), float64] */;
  (%1186, %1187, meta[relay.Constant][25] /* ty=Tensor[(72), float64] */, %1188, %1189, %1190)
}

def @func_19949() -> (Tensor[(2, 6, 11), float64], Tensor[(2, 6, 11), float64], Tensor[(2, 6, 11), float64], Tensor[(1512), float32]) {
  %1191 = @func_5595() /* ty=(Tensor[(2, 6, 11), float64], Tensor[(2, 6, 11), float64]) */;
  %1192 = @func_17476() /* ty=(Tensor[(2, 6, 11), float64], Tensor[(2, 6, 11), float64], Tensor[(2, 6, 11), float64]) */;
  %1193 = @func_19163() /* ty=(Tensor[(1512), float32], Tensor[(10, 5, 4), float32]) */;
  %1194 = %1191.0;
  %1195 = %1192.1;
  %1196 = @func_376() /* ty=Tensor[(2, 6, 11), float64] */;
  %1197 = %1193.0;
  (%1194, %1195, %1196, %1197)
}

def @func_26475() -> Tensor[(2, 6, 11), float64] {
  %1198 = @func_11425() /* ty=(Tensor[(2, 6, 11), float64], Tensor[(2, 6, 11), float64]) */;
  %1198.0
}

def @func_27850() -> (Tensor[(2, 6, 11), float64], Tensor[(2, 6, 11), float64]) {
  %1199 = @func_7629() /* ty=(Tensor[(2, 6, 11), float64], Tensor[(2, 6, 11), float64], Tensor[(2, 6, 11), float64]) */;
  %1200 = @func_3386() /* ty=(Tensor[(2, 6, 11), float64],) */;
  %1201 = %1199.2;
  %1202 = %1200.0;
  (%1201, %1202)
}

def @func_3431(%var_3413: Tensor[(14, 10, 6), float32]) -> Tensor[(14, 10, 6), float32] {
  %1203 = cast(%var_3413, dtype="float32") /* ty=Tensor[(14, 10, 6), float32] */;
  tan(%1203) /* ty=Tensor[(14, 10, 6), float32] */
}

def @func_22957() -> Tensor[(14, 10, 6), float32] {
  %1204 = @func_17987() /* ty=(Tensor[(2, 6, 11), float64], Tensor[(2, 6, 11), float64], Tensor[(2, 6, 11), float64], Tensor[(14, 10, 6), float32], Tensor[(840), float32], Tensor[(2, 6, 11), float64]) */;
  %1204.3
}

def @func_2341() -> (Tensor[(2, 6, 11), float64], Tensor[(2, 6, 11), float64], Tensor[(2, 6, 11), float64], Tensor[(2, 6, 11), float64], Tensor[(2, 6, 11), float64]) {
  %1205 = @func_1035() /* ty=(Tensor[(2, 6, 11), float64], Tensor[(2, 6, 11), float64]) */;
  %1206 = @func_1035() /* ty=(Tensor[(2, 6, 11), float64], Tensor[(2, 6, 11), float64]) */;
  %1207 = @func_2297() /* ty=(Tensor[(2, 6, 11), float64], Tensor[(2, 6, 11), float64], Tensor[(2, 6, 11), float64], Tensor[(2, 6, 11), float64]) */;
  %1208 = @func_1060() /* ty=(Tensor[(2, 6, 11), float64], Tensor[(2, 6, 11), float64]) */;
  %1209 = @func_1473() /* ty=(Tensor[(2, 6, 11), float64], Tensor[(2, 6, 11), float64], Tensor[(2, 6, 11), float64], Tensor[(2, 6, 11), float64]) */;
  %1210 = %1205.0;
  %1211 = %1206.1;
  %1212 = %1207.3;
  %1213 = %1208.0;
  %1214 = %1209.1;
  (%1210, %1211, %1212, %1213, %1214)
}

def @func_7002() -> Tensor[(2, 6, 11), float64] {
  @func_6196() /* ty=Tensor[(2, 6, 11), float64] */
}

def @func_28727(%var_28706: Tensor[(660), uint8]) -> (Tensor[(2, 6, 11), float64], Tensor[(2, 6, 11), float64], Tensor[(6, 252), float32], Tensor[(2, 6, 11), float64], Tensor[(660), uint8], Tensor[(2, 6, 11), float64], Tensor[(2, 6, 11), float64], Tensor[(2, 6, 11), float64]) {
  %1215 = cast(%var_28706, dtype="uint8") /* ty=Tensor[(660), uint8] */;
  %1216 = @func_14905() /* ty=Tensor[(6, 252), float32] */;
  %1217 = cast(%1216, dtype="float32") /* ty=Tensor[(6, 252), float32] */;
  %1218 = reshape(%1215, newshape=[660]) /* ty=Tensor[(660), uint8] */;
  %1219 = reshape(%1217, newshape=[1512]) /* ty=Tensor[(1512), float32] */;
  %1220 = @func_13259(%1218, %1219) /* ty=(Tensor[(2, 6, 11), float64], Tensor[(2, 6, 11), float64], Tensor[(2, 6, 11), float64], Tensor[(2, 6, 11), float64], Tensor[(660), uint8], Tensor[(1512), float32], Tensor[(2, 6, 11), float64], Tensor[(2, 6, 11), float64], Tensor[(2, 6, 11), float64]) */;
  %1221 = @func_27102() /* ty=(Tensor[(2, 6, 11), float64], Tensor[(2, 6, 11), float64]) */;
  %1222 = @func_7782() /* ty=(Tensor[(2, 6, 11), float64], Tensor[(2, 6, 11), float64]) */;
  %1223 = @func_23824() /* ty=Tensor[(2, 6, 11), float64] */;
  %1224 = @func_12481() /* ty=Tensor[(2, 6, 11), float64] */;
  %1225 = %1220.1;
  %1226 = @func_14887() /* ty=Tensor[(2, 6, 11), float64] */;
  %1227 = %1221.0;
  %1228 = %1222.0;
  (%1223, %1224, %1216, %1225, %var_28706, %1226, %1227, %1228)
}

def @func_16821() -> Tensor[(2, 6, 11), float64] {
  %1229 = @func_2646() /* ty=(Tensor[(2, 6, 11), float64], Tensor[(2, 6, 11), float64], Tensor[(2, 6, 11), float64], Tensor[(2, 6, 11), float64], Tensor[(2, 6, 11), float64], Tensor[(2, 6, 11), float64]) */;
  %1229.2
}

def @func_6450() -> (Tensor[(2, 6, 11), float64], Tensor[(1512), float32], Tensor[(6, 252), float32], Tensor[(2, 6, 11), float64]) {
  %1230 = cast(meta[relay.Constant][26] /* ty=Tensor[(6, 252), float32] */, dtype="float32") /* ty=Tensor[(6, 252), float32] */;
  %1231 = reshape(%1230, newshape=[1512]) /* ty=Tensor[(1512), float32] */;
  %1232 = @func_3237(%1231) /* ty=(Tensor[(2, 6, 11), float64], Tensor[(2, 6, 11), float64], Tensor[(2, 6, 11), float64], Tensor[(1512), float32]) */;
  %1233 = @func_6349() /* ty=Tensor[(2, 6, 11), float64] */;
  %1234 = %1232.3;
  %1235 = @func_2305() /* ty=Tensor[(2, 6, 11), float64] */;
  (%1233, %1234, meta[relay.Constant][26] /* ty=Tensor[(6, 252), float32] */, %1235)
}

def @func_22168() -> (Tensor[(2, 6, 11), float64],) {
  %1236 = @func_18602() /* ty=(Tensor[(2, 6, 11), float64], Tensor[(2, 6, 11), float64]) */;
  %1237 = %1236.1;
  (%1237,)
}

def @func_21394() -> Tensor[(2, 6, 11), float64] {
  @func_6099() /* ty=Tensor[(2, 6, 11), float64] */
}

def @func_27054(%var_27051: Tensor[(1430), float64]) -> (Tensor[(2, 6, 11), float64], Tensor[(6, 252), float32], Tensor[(2, 6, 11), float64], Tensor[(1, 882), float64], Tensor[(1430), float64], Tensor[(1430), float64]) {
  %1238 = @func_5824() /* ty=(Tensor[(2, 6, 11), float64], Tensor[(2, 6, 11), float64]) */;
  %1239 = cast(meta[relay.Constant][27] /* ty=Tensor[(1, 882), uint8] */, dtype="uint8") /* ty=Tensor[(1, 882), uint8] */;
  %1240 = cast(meta[relay.Constant][27] /* ty=Tensor[(1, 882), uint8] */, dtype="uint8") /* ty=Tensor[(1, 882), uint8] */;
  %1241 = reshape(%1239, newshape=[9, 7, 14]) /* ty=Tensor[(9, 7, 14), uint8] */;
  %1242 = reshape(%1240, newshape=[9, 7, 14]) /* ty=Tensor[(9, 7, 14), uint8] */;
  %1243 = @func_18543(%1241, %1242) /* ty=(Tensor[(9, 7, 14), bool], Tensor[(2, 6, 11), float64]) */;
  %1244 = cast(meta[relay.Constant][27] /* ty=Tensor[(1, 882), uint8] */, dtype="float64") /* ty=Tensor[(1, 882), float64] */;
  %1245 = cast(%var_27051, dtype="float64") /* ty=Tensor[(1430), float64] */;
  %1246 = @func_6725() /* ty=Tensor[(6, 252), float32] */;
  %1247 = cast(%1246, dtype="float32") /* ty=Tensor[(6, 252), float32] */;
  %1248 = reshape(%1245, newshape=[1430]) /* ty=Tensor[(1430), float64] */;
  %1249 = reshape(%1247, newshape=[378, 4]) /* ty=Tensor[(378, 4), float32] */;
  %1250 = @func_23485(%1248, %1249) /* ty=(Tensor[(2, 6, 11), float64], Tensor[(2, 6, 11), float64], Tensor[(10, 11, 13), float64], Tensor[(1430), float64], Tensor[(2, 6, 11), float64], Tensor[(2, 6, 11), float64], Tensor[(6, 252), float32], Tensor[(378, 4), float32]) */;
  %1251 = %1238.0;
  %1252 = %1243.1;
  %1253 = atan(%1244) /* ty=Tensor[(1, 882), float64] */;
  %1254 = %1250.3;
  (%1251, %1246, %1252, %1253, %1254, %var_27051)
}

def @func_9855() -> (Tensor[(2, 6, 11), float64], Tensor[(2, 6, 11), float64]) {
  %1255 = @func_7491() /* ty=(Tensor[(2, 6, 11), float64], Tensor[(2, 6, 11), float64], Tensor[(2, 6, 11), float64], Tensor[(378, 4), float32]) */;
  %1256 = @func_8260() /* ty=(Tensor[(2, 6, 11), float64], Tensor[(2, 6, 11), float64]) */;
  %1257 = %1255.1;
  %1258 = %1256.0;
  (%1257, %1258)
}

def @func_27487() -> (Tensor[(2, 6, 11), float64],) {
  %1259 = @func_7517() /* ty=Tensor[(2, 6, 11), float64] */;
  (%1259,)
}

def @func_27940() -> (Tensor[(2, 6, 11), float64],) {
  %1260 = @func_19762() /* ty=(Tensor[(2, 6, 11), float64], Tensor[(2, 6, 11), float64]) */;
  %1261 = %1260.1;
  (%1261,)
}

def @func_30046() -> Tensor[(2, 6, 11), float64] {
  @func_14372() /* ty=Tensor[(2, 6, 11), float64] */
}

def @func_7412() -> Tensor[(756, 2), float32] {
  %1262 = @func_782() /* ty=(Tensor[(2, 6, 11), float64], Tensor[(1512), float32], Tensor[(756, 2), float32]) */;
  %1263 = %1262.2;
  %1264 = cast(%1263, dtype="float32") /* ty=Tensor[(756, 2), float32] */;
  asinh(%1264) /* ty=Tensor[(756, 2), float32] */
}

def @func_12819() -> (Tensor[(2, 6, 11), float64], Tensor[(2, 6, 11), float64], Tensor[(2, 6, 11), float64]) {
  %1265 = @func_1060() /* ty=(Tensor[(2, 6, 11), float64], Tensor[(2, 6, 11), float64]) */;
  %1266 = @func_7931() /* ty=(Tensor[(2, 6, 11), float64],) */;
  %1267 = %1265.0;
  %1268 = %1266.0;
  %1269 = @func_3484() /* ty=Tensor[(2, 6, 11), float64] */;
  (%1267, %1268, %1269)
}

def @func_24784() -> (Tensor[(2, 6, 11), float64], Tensor[(2, 6, 11), float64], Tensor[(2, 6, 11), float64]) {
  %1270 = @func_22491() /* ty=(Tensor[(2, 6, 11), float64], Tensor[(2, 6, 11), float64]) */;
  %1271 = @func_4724() /* ty=(Tensor[(2, 6, 11), float64],) */;
  %1272 = @func_5972() /* ty=(Tensor[(2, 6, 11), float64],) */;
  %1273 = %1270.0;
  %1274 = %1271.0;
  %1275 = %1272.0;
  (%1273, %1274, %1275)
}

def @func_3484() -> Tensor[(2, 6, 11), float64] {
  %1276 = @func_2297() /* ty=(Tensor[(2, 6, 11), float64], Tensor[(2, 6, 11), float64], Tensor[(2, 6, 11), float64], Tensor[(2, 6, 11), float64]) */;
  %1276.0
}

def @func_27419(%var_27407: Tensor[(1430), float64]) -> (Tensor[(2, 6, 11), float64], Tensor[(6, 252), float32], Tensor[(1430), float64], Tensor[(2, 6, 11), float64]) {
  %1277 = @func_9328() /* ty=(Tensor[(2, 6, 11), float64],) */;
  %1278 = cast(%var_27407, dtype="float64") /* ty=Tensor[(1430), float64] */;
  %1279 = reshape(%1278, newshape=[1430]) /* ty=Tensor[(1430), float64] */;
  %1280 = @func_27054(%1279) /* ty=(Tensor[(2, 6, 11), float64], Tensor[(6, 252), float32], Tensor[(2, 6, 11), float64], Tensor[(1, 882), float64], Tensor[(1430), float64], Tensor[(1430), float64]) */;
  %1281 = @func_17501() /* ty=(Tensor[(2, 6, 11), float64], Tensor[(2, 6, 11), float64]) */;
  %1282 = %1277.0;
  %1283 = %1280.1;
  %1284 = %1281.1;
  (%1282, %1283, %var_27407, %1284)
}

def @func_8260() -> (Tensor[(2, 6, 11), float64], Tensor[(2, 6, 11), float64]) {
  %1285 = @func_5887() /* ty=(Tensor[(2, 6, 11), float64],) */;
  %1286 = %1285.0;
  %1287 = @func_6279() /* ty=Tensor[(2, 6, 11), float64] */;
  (%1286, %1287)
}

def @func_16944() -> (Tensor[(2, 6, 11), float64], Tensor[(2, 6, 11), float64]) {
  %1288 = @func_5887() /* ty=(Tensor[(2, 6, 11), float64],) */;
  %1289 = @func_15978() /* ty=(Tensor[(2, 6, 11), float64],) */;
  %1290 = %1288.0;
  %1291 = %1289.0;
  (%1290, %1291)
}

def @func_14776() -> Tensor[(2, 6, 11), float64] {
  %1292 = @func_7172() /* ty=(Tensor[(2, 6, 11), float64],) */;
  %1292.0
}

def @func_10354() -> Tensor[(2, 6, 11), float64] {
  %1293 = @func_4382() /* ty=(Tensor[(2, 6, 11), float64],) */;
  %1293.0
}

def @func_1035() -> (Tensor[(2, 6, 11), float64], Tensor[(2, 6, 11), float64]) {
  %1294 = @func_216() /* ty=(Tensor[(2, 6, 11), float64],) */;
  %1295 = @func_908() /* ty=(Tensor[(2, 6, 11), float64],) */;
  %1296 = %1294.0;
  %1297 = %1295.0;
  (%1296, %1297)
}

def @func_9409() -> Tensor[(2, 6, 11), float64] {
  %1298 = @func_8883() /* ty=(Tensor[(2, 6, 11), float64],) */;
  %1298.0
}

def @func_30670() -> (Tensor[(2, 6, 11), float64], Tensor[(2, 6, 11), float64], Tensor[(312), uint8]) {
  %1299 = cast(meta[relay.Constant][28] /* ty=Tensor[(312), uint8] */, dtype="uint8") /* ty=Tensor[(312), uint8] */;
  %1300 = reshape(%1299, newshape=[13, 2, 12]) /* ty=Tensor[(13, 2, 12), uint8] */;
  %1301 = @func_8951(%1300) /* ty=(Tensor[(13, 2, 12), uint8], Tensor[(2, 6, 11), float64], Tensor[(13, 2, 12), float64], Tensor[(2, 6, 11), float64]) */;
  %1302 = @func_3013() /* ty=Tensor[(2, 6, 11), float64] */;
  %1303 = %1301.1;
  (%1302, %1303, meta[relay.Constant][28] /* ty=Tensor[(312), uint8] */)
}

def @func_398(%var_381: Tensor[(14, 12, 9), float32], %var_382: Tensor[(14, 12, 9), float32]) -> (Tensor[(14, 12, 9), float32], Tensor[(2, 6, 11), float64], Tensor[(2, 6, 11), float64]) {
  %1304 = cast(%var_382, dtype="float32") /* ty=Tensor[(14, 12, 9), float32] */;
  %1305 = shape_of(%var_381, dtype="int32") /* ty=Tensor[(3), int32] */;
  %1306 = cast(%var_381, dtype="float32") /* ty=Tensor[(14, 12, 9), float32] */;
  %1307 = dyn.reshape(%1304, %1305, newshape=[]) /* ty=Tensor[(?, ?, ?), float32] */;
  %1308 = @func_305() /* ty=(Tensor[(2, 6, 11), float64], Tensor[(2, 6, 11), float64]) */;
  %1309 = divide(%1306, %1307) /* ty=Tensor[(14, 12, 9), float32] */;
  %1310 = %1308.0;
  %1311 = @func_376() /* ty=Tensor[(2, 6, 11), float64] */;
  (%1309, %1310, %1311)
}

def @func_7629() -> (Tensor[(2, 6, 11), float64], Tensor[(2, 6, 11), float64], Tensor[(2, 6, 11), float64]) {
  %1312 = @func_5972() /* ty=(Tensor[(2, 6, 11), float64],) */;
  %1313 = @func_7308() /* ty=(Tensor[(2, 6, 11), float64],) */;
  %1314 = %1312.0;
  %1315 = @func_3013() /* ty=Tensor[(2, 6, 11), float64] */;
  %1316 = %1313.0;
  (%1314, %1315, %1316)
}

def @func_27239() -> (Tensor[(2, 6, 11), float64],) {
  %1317 = @func_12704() /* ty=Tensor[(2, 6, 11), float64] */;
  (%1317,)
}

def @func_9026() -> (Tensor[(2, 6, 11), float64], Tensor[(2, 6, 11), float64]) {
  %1318 = @func_7629() /* ty=(Tensor[(2, 6, 11), float64], Tensor[(2, 6, 11), float64], Tensor[(2, 6, 11), float64]) */;
  %1319 = @func_6042() /* ty=(Tensor[(2, 6, 11), float64], Tensor[(2, 6, 11), float64]) */;
  %1320 = %1318.1;
  %1321 = %1319.1;
  (%1320, %1321)
}

def @func_3508() -> (Tensor[(2, 6, 11), float64], Tensor[(2, 6, 11), float64]) {
  %1322 = @func_1719() /* ty=(Tensor[(2, 6, 11), float64], Tensor[(2, 6, 11), float64], Tensor[(2, 6, 11), float64]) */;
  %1323 = @func_270() /* ty=(Tensor[(2, 6, 11), float64], Tensor[(2, 6, 11), float64]) */;
  %1324 = %1322.0;
  %1325 = %1323.0;
  (%1324, %1325)
}

def @func_3256(%var_3250: Tensor[(10, 5, 4), float32]) -> (Tensor[(10, 5, 4), float32], Tensor[(2, 6, 11), float64]) {
  %1326 = cast(%var_3250, dtype="float32") /* ty=Tensor[(10, 5, 4), float32] */;
  %1327 = @func_2151() /* ty=(Tensor[(2, 6, 11), float64], Tensor[(2, 6, 11), float64]) */;
  %1328 = log10(%1326) /* ty=Tensor[(10, 5, 4), float32] */;
  %1329 = %1327.1;
  (%1328, %1329)
}

def @func_6042() -> (Tensor[(2, 6, 11), float64], Tensor[(2, 6, 11), float64]) {
  %1330 = @func_5090() /* ty=(Tensor[(2, 6, 11), float64], Tensor[(2, 6, 11), float64]) */;
  %1331 = @func_5824() /* ty=(Tensor[(2, 6, 11), float64], Tensor[(2, 6, 11), float64]) */;
  %1332 = %1330.0;
  %1333 = %1331.1;
  (%1332, %1333)
}

def @func_5090() -> (Tensor[(2, 6, 11), float64], Tensor[(2, 6, 11), float64]) {
  %1334 = @func_944() /* ty=(Tensor[(2, 6, 11), float64], Tensor[(2, 6, 11), float64]) */;
  %1335 = @func_908() /* ty=(Tensor[(2, 6, 11), float64],) */;
  %1336 = %1334.1;
  %1337 = %1335.0;
  (%1336, %1337)
}

def @func_8132() -> (Tensor[(2, 6, 11), float64], Tensor[(2, 6, 11), float64], Tensor[(1512), float32], Tensor[(1512), float32], Tensor[(14, 10, 6), float32], Tensor[(840), float32], Tensor[(200), float32], Tensor[(2, 6, 11), float64], Tensor[(2, 6, 11), float64], Tensor[(2, 6, 11), float64], Tensor[(2, 6, 11), float64]) {
  %1338 = cast(meta[relay.Constant][29] /* ty=Tensor[(1512), float32] */, dtype="float32") /* ty=Tensor[(1512), float32] */;
  %1339 = reshape(%1338, newshape=[1512]) /* ty=Tensor[(1512), float32] */;
  %1340 = @func_7580(%1339) /* ty=(Tensor[(2, 6, 11), float64], Tensor[(2, 6, 11), float64], Tensor[(1512), float32], Tensor[(2, 6, 11), float64]) */;
  %1341 = cast(meta[relay.Constant][30] /* ty=Tensor[(840), float32] */, dtype="float32") /* ty=Tensor[(840), float32] */;
  %1342 = reshape(%1341, newshape=[14, 10, 6]) /* ty=Tensor[(14, 10, 6), float32] */;
  %1343 = @func_3316() /* ty=(Tensor[(2, 6, 11), float64], Tensor[(2, 6, 11), float64], Tensor[(10, 5, 4), float32], Tensor[(200), float32]) */;
  %1344 = @func_5270() /* ty=(Tensor[(2, 6, 11), float64],) */;
  %1345 = @func_5741() /* ty=(Tensor[(12, ?, 9), int64], Tensor[(2, 6, 11), float64], Tensor[(2, 6, 11), float64]) */;
  %1346 = @func_7491() /* ty=(Tensor[(2, 6, 11), float64], Tensor[(2, 6, 11), float64], Tensor[(2, 6, 11), float64], Tensor[(378, 4), float32]) */;
  %1347 = @func_376() /* ty=Tensor[(2, 6, 11), float64] */;
  %1348 = @func_7913() /* ty=Tensor[(2, 6, 11), float64] */;
  %1349 = %1340.2;
  %1350 = @func_3431(%1342) /* ty=Tensor[(14, 10, 6), float32] */;
  %1351 = %1343.3;
  %1352 = %1344.0;
  %1353 = %1345.2;
  %1354 = %1346.1;
  %1355 = @func_6196() /* ty=Tensor[(2, 6, 11), float64] */;
  (%1347, %1348, %1349, meta[relay.Constant][29] /* ty=Tensor[(1512), float32] */, %1350, meta[relay.Constant][30] /* ty=Tensor[(840), float32] */, %1351, %1352, %1353, %1354, %1355)
}

def @func_28311() -> (Tensor[(2, 6, 11), float64], Tensor[(2, 6, 11), float64], Tensor[(2, 6, 11), float64]) {
  %1356 = @func_782() /* ty=(Tensor[(2, 6, 11), float64], Tensor[(1512), float32], Tensor[(756, 2), float32]) */;
  %1357 = @func_13901() /* ty=(Tensor[(2, 6, 11), float64], Tensor[(2, 6, 11), float64], Tensor[(2, 6, 11), float64]) */;
  %1358 = @func_25850() /* ty=(Tensor[(2, 6, 11), float64],) */;
  %1359 = %1356.0;
  %1360 = %1357.0;
  %1361 = %1358.0;
  (%1359, %1360, %1361)
}

def @func_2515() -> (Tensor[(2, 6, 11), float64], Tensor[(2, 6, 11), float64], Tensor[(2, 6, 11), float64]) {
  %1362 = @func_908() /* ty=(Tensor[(2, 6, 11), float64],) */;
  %1363 = @func_1719() /* ty=(Tensor[(2, 6, 11), float64], Tensor[(2, 6, 11), float64], Tensor[(2, 6, 11), float64]) */;
  %1364 = @func_1244() /* ty=(Tensor[(2, 6, 11), float64], Tensor[(2, 6, 11), float64]) */;
  %1365 = %1362.0;
  %1366 = %1363.2;
  %1367 = %1364.1;
  (%1365, %1366, %1367)
}

def @func_28734() -> Tensor[(2, 6, 11), float64] {
  %1368 = @func_8132() /* ty=(Tensor[(2, 6, 11), float64], Tensor[(2, 6, 11), float64], Tensor[(1512), float32], Tensor[(1512), float32], Tensor[(14, 10, 6), float32], Tensor[(840), float32], Tensor[(200), float32], Tensor[(2, 6, 11), float64], Tensor[(2, 6, 11), float64], Tensor[(2, 6, 11), float64], Tensor[(2, 6, 11), float64]) */;
  %1368.0
}

def @func_1473() -> (Tensor[(2, 6, 11), float64], Tensor[(2, 6, 11), float64], Tensor[(2, 6, 11), float64], Tensor[(2, 6, 11), float64]) {
  %1369 = @func_348() /* ty=(Tensor[(2, 6, 11), float64],) */;
  %1370 = @func_1206() /* ty=(Tensor[(2, 6, 11), float64], Tensor[(2, 6, 11), float64], Tensor[(2, 6, 11), float64]) */;
  %1371 = @func_1060() /* ty=(Tensor[(2, 6, 11), float64], Tensor[(2, 6, 11), float64]) */;
  %1372 = @func_1206() /* ty=(Tensor[(2, 6, 11), float64], Tensor[(2, 6, 11), float64], Tensor[(2, 6, 11), float64]) */;
  %1373 = %1369.0;
  %1374 = %1370.2;
  %1375 = %1371.1;
  %1376 = %1372.0;
  (%1373, %1374, %1375, %1376)
}

def @func_7884() -> (Tensor[(2, 6, 11), float64], Tensor[(2, 6, 11), float64]) {
  %1377 = @func_1330() /* ty=(Tensor[(2, 6, 11), float64], Tensor[(2, 6, 11), float64], Tensor[(2, 6, 11), float64]) */;
  %1378 = @func_1860() /* ty=(Tensor[(2, 6, 11), float64], Tensor[(2, 6, 11), float64], Tensor[(2, 6, 11), float64], Tensor[(2, 6, 11), float64]) */;
  %1379 = %1377.2;
  %1380 = %1378.0;
  (%1379, %1380)
}

def @func_22276() -> (Tensor[(15, 15, 6), float32], Tensor[(2, 6, 11), float64], Tensor[(2, 6, 11), float64]) {
  %1381 = @func_8222() /* ty=(Tensor[(2, 6, 11), float64], Tensor[(2, 6, 11), float64], Tensor[(2, 6, 11), float64]) */;
  %1382 = @func_16847() /* ty=(Tensor[(2, 6, 11), float64], Tensor[(2, 6, 11), float64], Tensor[(2, 6, 11), float64]) */;
  %1383 = @func_18637() /* ty=Tensor[(15, 15, 6), float32] */;
  %1384 = %1381.1;
  %1385 = %1382.2;
  (%1383, %1384, %1385)
}

def @func_10750() -> Tensor[(2, 6, 11), float64] {
  %1386 = @func_9980() /* ty=(Tensor[(2, 6, 11), float64], Tensor[(2, 6, 11), float64]) */;
  %1386.0
}

def @func_24621(%var_24617: float64) -> (Tensor[(2, 6, 11), float64], Tensor[(2, 6, 11), float64], float64) {
  %1387 = @func_16734() /* ty=(Tensor[(2, 6, 11), float64], Tensor[(2, 6, 11), float64]) */;
  %1388 = cast(%var_24617, dtype="float64") /* ty=float64 */;
  %1389 = reshape(%1388, newshape=[]) /* ty=float64 */;
  %1390 = @func_12943(%1389) /* ty=(Tensor[(2, 6, 11), float64], Tensor[(2, 6, 11), float64], Tensor[(9, 1), float64], float64, Tensor[(2, 6, 11), float64], Tensor[(2, 6, 11), float64], Tensor[(2, 6, 11), float64]) */;
  %1391 = %1387.1;
  %1392 = %1390.5;
  (%1391, %1392, %var_24617)
}

def @func_16303() -> Tensor[(1512), float32] {
  %1393 = @func_782() /* ty=(Tensor[(2, 6, 11), float64], Tensor[(1512), float32], Tensor[(756, 2), float32]) */;
  %1393.1
}

def @func_28320() -> (Tensor[(2, 6, 11), float64], Tensor[(2, 6, 11), float64], Tensor[(1512), float32]) {
  %1394 = @func_26795() /* ty=(Tensor[(2, 6, 11), float64], Tensor[(2, 6, 11), float64], Tensor[(2, 6, 11), float64]) */;
  %1395 = cast(meta[relay.Constant][31] /* ty=Tensor[(1512), float32] */, dtype="float32") /* ty=Tensor[(1512), float32] */;
  %1396 = reshape(%1395, newshape=[1512]) /* ty=Tensor[(1512), float32] */;
  %1397 = @func_7580(%1396) /* ty=(Tensor[(2, 6, 11), float64], Tensor[(2, 6, 11), float64], Tensor[(1512), float32], Tensor[(2, 6, 11), float64]) */;
  %1398 = %1394.1;
  %1399 = %1397.3;
  (%1398, %1399, meta[relay.Constant][31] /* ty=Tensor[(1512), float32] */)
}

def @func_14887() -> Tensor[(2, 6, 11), float64] {
  %1400 = @func_9980() /* ty=(Tensor[(2, 6, 11), float64], Tensor[(2, 6, 11), float64]) */;
  %1400.1
}

def @func_9478() -> Tensor[(2, 6, 11), float64] {
  %1401 = @func_8354() /* ty=(Tensor[(2, 6, 11), float64], Tensor[(2, 6, 11), float64], Tensor[(2, 6, 11), float64], Tensor[(2, 6, 11), float64]) */;
  %1401.1
}

def @func_15085(%var_15058: Tensor[(660), uint8]) -> (Tensor[(16, 10, 13), int8], Tensor[(2, 6, 11), float64], Tensor[(660), uint8], Tensor[(1512), float32], Tensor[(2, 6, 11), float64]) {
  %1402 = cast(%var_15058, dtype="uint8") /* ty=Tensor[(660), uint8] */;
  %1403 = cast(meta[relay.Constant][32] /* ty=Tensor[(1512), float32] */, dtype="float32") /* ty=Tensor[(1512), float32] */;
  %1404 = reshape(%1402, newshape=[660]) /* ty=Tensor[(660), uint8] */;
  %1405 = reshape(%1403, newshape=[1512]) /* ty=Tensor[(1512), float32] */;
  %1406 = @func_13259(%1404, %1405) /* ty=(Tensor[(2, 6, 11), float64], Tensor[(2, 6, 11), float64], Tensor[(2, 6, 11), float64], Tensor[(2, 6, 11), float64], Tensor[(660), uint8], Tensor[(1512), float32], Tensor[(2, 6, 11), float64], Tensor[(2, 6, 11), float64], Tensor[(2, 6, 11), float64]) */;
  %1407 = @func_10813() /* ty=(Tensor[(2, 6, 11), float64], Tensor[(2, 6, 11), float64], Tensor[(2, 6, 11), float64], Tensor[(2, 6, 11), float64]) */;
  %1408 = @func_10942() /* ty=Tensor[(16, 10, 13), int8] */;
  %1409 = %1406.0;
  %1410 = %1407.1;
  (%1408, %1409, %var_15058, meta[relay.Constant][32] /* ty=Tensor[(1512), float32] */, %1410)
}

def @func_31595(%var_31563: Tensor[(7, 44), int32]) -> (Tensor[(2, 6, 11), float64], Tensor[(2, 6, 11), float64], Tensor[(44), int32], Tensor[(7, 44), int32], Tensor[(2, 6, 11), float64], Tensor[(2, 6, 11), float64], Tensor[(2, 6, 11), float64]) {
  %1411 = @func_2065() /* ty=(Tensor[(2, 6, 11), float64],) */;
  %1412 = cast(meta[relay.Constant][33] /* ty=Tensor[(44), int32] */, dtype="int32") /* ty=Tensor[(44), int32] */;
  %1413 = cast(%var_31563, dtype="int32") /* ty=Tensor[(7, 44), int32] */;
  %1414 = reshape(%1412, newshape=[1, 11, 4]) /* ty=Tensor[(1, 11, 4), int32] */;
  %1415 = reshape(%1413, newshape=[7, 11, 4]) /* ty=Tensor[(7, 11, 4), int32] */;
  %1416 = @func_22941(%1414, %1415) /* ty=(Tensor[(7, 11, 4), bool], Tensor[(2, 6, 11), float64]) */;
  %1417 = @func_23006() /* ty=(Tensor[(2, 6, 11), float64],) */;
  %1418 = @func_3690() /* ty=(Tensor[(2, 6, 11), float64], Tensor[(2, 6, 11), float64], Tensor[(2, 6, 11), float64], Tensor[(2, 6, 11), float64], Tensor[(2, 6, 11), float64]) */;
  %1419 = @func_3100() /* ty=(Tensor[(2, 6, 11), float64], Tensor[(2, 6, 11), float64], Tensor[(2, 6, 11), float64], Tensor[(2, 6, 11), float64]) */;
  %1420 = %1411.0;
  %1421 = %1416.1;
  %1422 = %1417.0;
  %1423 = %1418.1;
  %1424 = %1419.2;
  (%1420, %1421, meta[relay.Constant][33] /* ty=Tensor[(44), int32] */, %var_31563, %1422, %1423, %1424)
}

def @func_16052() -> (Tensor[(2, 6, 11), float64], Tensor[(2, 6, 11), float64]) {
  %1425 = @func_7308() /* ty=(Tensor[(2, 6, 11), float64],) */;
  %1426 = @func_11850() /* ty=(Tensor[(8, 8, 5), float32], Tensor[(2, 6, 11), float64], Tensor[(2, 6, 11), float64]) */;
  %1427 = %1425.0;
  %1428 = %1426.2;
  (%1427, %1428)
}

def @func_6259() -> (Tensor[(2, 6, 11), float64],) {
  %1429 = @func_3316() /* ty=(Tensor[(2, 6, 11), float64], Tensor[(2, 6, 11), float64], Tensor[(10, 5, 4), float32], Tensor[(200), float32]) */;
  %1430 = %1429.0;
  (%1430,)
}

def @func_5741() -> (Tensor[(12, ?, 9), int64], Tensor[(2, 6, 11), float64], Tensor[(2, 6, 11), float64]) {
  %1431 = @func_5047() /* ty=(Tensor[(2, 6, 11), float64], Tensor[(12, ?, 9), int64], Tensor[(2, 6, 11), float64], Tensor[(2, 6, 11), float64]) */;
  %1432 = @func_2151() /* ty=(Tensor[(2, 6, 11), float64], Tensor[(2, 6, 11), float64]) */;
  %1433 = %1431.1;
  %1434 = %1432.1;
  %1435 = @func_3484() /* ty=Tensor[(2, 6, 11), float64] */;
  (%1433, %1434, %1435)
}

def @func_7821() -> (Tensor[(2, 6, 11), float64], Tensor[(2, 6, 11), float64]) {
  %1436 = @func_1330() /* ty=(Tensor[(2, 6, 11), float64], Tensor[(2, 6, 11), float64], Tensor[(2, 6, 11), float64]) */;
  %1437 = @func_6691() /* ty=Tensor[(2, 6, 11), float64] */;
  %1438 = %1436.0;
  (%1437, %1438)
}

def @func_11045() -> (Tensor[(2, 6, 11), float64], Tensor[(2, 6, 11), float64], Tensor[(2, 6, 11), float64], Tensor[(2, 6, 11), float64], Tensor[(2, 6, 11), float64], Tensor[(756, 2), float32], Tensor[(2, 6, 11), float64], Tensor[(2, 6, 11), float64]) {
  %1439 = @func_8584() /* ty=(Tensor[(2, 6, 11), float64], Tensor[(2, 6, 11), float64], Tensor[(2, 6, 11), float64]) */;
  %1440 = @func_4526() /* ty=(Tensor[(2, 6, 11), float64], Tensor[(2, 6, 11), float64], Tensor[(2, 6, 11), float64], Tensor[(2, 6, 11), float64], Tensor[(2, 6, 11), float64]) */;
  %1441 = @func_1330() /* ty=(Tensor[(2, 6, 11), float64], Tensor[(2, 6, 11), float64], Tensor[(2, 6, 11), float64]) */;
  %1442 = @func_7058() /* ty=(Tensor[(2, 6, 11), float64], Tensor[(2, 6, 11), float64], Tensor[(2, 6, 11), float64]) */;
  %1443 = @func_9026() /* ty=(Tensor[(2, 6, 11), float64], Tensor[(2, 6, 11), float64]) */;
  %1444 = @func_305() /* ty=(Tensor[(2, 6, 11), float64], Tensor[(2, 6, 11), float64]) */;
  %1445 = %1439.1;
  %1446 = @func_2975() /* ty=Tensor[(2, 6, 11), float64] */;
  %1447 = %1440.2;
  %1448 = %1441.1;
  %1449 = %1442.2;
  %1450 = @func_7412() /* ty=Tensor[(756, 2), float32] */;
  %1451 = %1443.0;
  %1452 = %1444.1;
  (%1445, %1446, %1447, %1448, %1449, %1450, %1451, %1452)
}

def @func_21022() -> (Tensor[(2, 6, 11), float64], Tensor[(2, 6, 11), float64]) {
  %1453 = @func_1035() /* ty=(Tensor[(2, 6, 11), float64], Tensor[(2, 6, 11), float64]) */;
  %1454 = @func_7913() /* ty=Tensor[(2, 6, 11), float64] */;
  %1455 = %1453.0;
  (%1454, %1455)
}

def @func_23278() -> (Tensor[(2, 6, 11), float64], Tensor[(2, 6, 11), float64]) {
  %1456 = @func_1330() /* ty=(Tensor[(2, 6, 11), float64], Tensor[(2, 6, 11), float64], Tensor[(2, 6, 11), float64]) */;
  %1457 = @func_19099() /* ty=(Tensor[(2, 6, 11), float64], Tensor[(2, 6, 11), float64], Tensor[(2, 6, 11), float64]) */;
  %1458 = %1456.2;
  %1459 = %1457.2;
  (%1458, %1459)
}

def @func_6010() -> Tensor[(2, 6, 11), float64] {
  %1460 = @func_2928() /* ty=(Tensor[(2, 6, 11), float64], Tensor[(2, 6, 11), float64], Tensor[(2, 6, 11), float64], Tensor[(2, 6, 11), float64], Tensor[(2, 6, 11), float64]) */;
  %1460.1
}

def @func_8054() -> (Tensor[(2, 6, 11), float64], Tensor[(2, 6, 11), float64], Tensor[(2, 6, 11), float64]) {
  %1461 = @func_3864() /* ty=Tensor[(2, 6, 11), float64] */;
  %1462 = @func_4427() /* ty=Tensor[(2, 6, 11), float64] */;
  %1463 = @func_5860() /* ty=Tensor[(2, 6, 11), float64] */;
  (%1461, %1462, %1463)
}

def @func_4065() -> Tensor[(2, 6, 11), float64] {
  %1464 = @func_675() /* ty=(Tensor[(2, 6, 11), float64], Tensor[(2, 6, 11), float64]) */;
  %1464.1
}

def @func_2065() -> (Tensor[(2, 6, 11), float64],) {
  %1465 = @func_451() /* ty=(Tensor[(2, 6, 11), float64], Tensor[(2, 6, 11), float64]) */;
  %1466 = %1465.1;
  (%1466,)
}

def @func_451() -> (Tensor[(2, 6, 11), float64], Tensor[(2, 6, 11), float64]) {
  %1467 = @func_197() /* ty=(Tensor[(2, 6, 11), float64],) */;
  %1468 = @func_197() /* ty=(Tensor[(2, 6, 11), float64],) */;
  %1469 = %1467.0;
  %1470 = %1468.0;
  (%1469, %1470)
}

def @func_16347() -> (Tensor[(2, 6, 11), float64], Tensor[(2, 6, 11), float64], Tensor[(2, 6, 11), float64], Tensor[(2, 6, 11), float64]) {
  %1471 = @func_7931() /* ty=(Tensor[(2, 6, 11), float64],) */;
  %1472 = @func_13607() /* ty=(Tensor[(2, 6, 11), float64], Tensor[(2, 6, 11), float64], Tensor[(2, 6, 11), float64], Tensor[(2, 6, 11), float64]) */;
  %1473 = @func_9855() /* ty=(Tensor[(2, 6, 11), float64], Tensor[(2, 6, 11), float64]) */;
  %1474 = @func_5952() /* ty=Tensor[(2, 6, 11), float64] */;
  %1475 = %1471.0;
  %1476 = %1472.1;
  %1477 = %1473.0;
  (%1474, %1475, %1476, %1477)
}

def @func_28097(%var_28089: bool, %var_28090: Tensor[(10, 11, 5), bool]) -> Tensor[(10, 11, 5), bool] {
  %1478 = cast(%var_28089, dtype="bool") /* ty=bool */;
  %1479 = cast(%var_28090, dtype="bool") /* ty=Tensor[(10, 11, 5), bool] */;
  logical_and(%1478, %1479) /* ty=Tensor[(10, 11, 5), bool] */
}

def @func_6300() -> Tensor[(2, 6, 11), float64] {
  %1480 = @func_3198() /* ty=(Tensor[(2, 6, 11), float64], Tensor[(2, 6, 11), float64], Tensor[(2, 6, 11), float64], Tensor[(2, 6, 11), float64], Tensor[(2, 6, 11), float64], Tensor[(2, 6, 11), float64], Tensor[(2, 6, 11), float64], Tensor[(2, 6, 11), float64]) */;
  %1480.0
}

def @func_29569() -> Tensor[(2, 6, 11), float64] {
  %1481 = @func_25249() /* ty=(Tensor[(2, 6, 11), float64], Tensor[(2, 6, 11), float64], Tensor[(2, 6, 11), float64]) */;
  %1481.2
}

def @func_19744() -> (Tensor[(2, 6, 11), float64], Tensor[(2, 6, 11), float64]) {
  %1482 = @func_14746() /* ty=(Tensor[(2, 6, 11), float64],) */;
  %1483 = %1482.0;
  %1484 = @func_14430() /* ty=Tensor[(2, 6, 11), float64] */;
  (%1483, %1484)
}

def @func_26710() -> Tensor[(2, 6, 11), float64] {
  @func_21575() /* ty=Tensor[(2, 6, 11), float64] */
}

def @func_31184() -> Tensor[(2, 6, 11), float64] {
  %1485 = @func_20898() /* ty=(Tensor[(2, 6, 11), float64],) */;
  %1485.0
}

def @func_16988() -> Tensor[(2, 6, 11), float64] {
  %1486 = @func_16347() /* ty=(Tensor[(2, 6, 11), float64], Tensor[(2, 6, 11), float64], Tensor[(2, 6, 11), float64], Tensor[(2, 6, 11), float64]) */;
  %1486.2
}

def @func_16569(%var_16544: Tensor[(11, 1, 3), uint32], %var_16545: Tensor[(11, 3, 3), uint32]) -> (Tensor[(11, 3, 3), uint32],) {
  %1487 = cast(%var_16544, dtype="uint32") /* ty=Tensor[(11, 1, 3), uint32] */;
  %1488 = cast(%var_16545, dtype="uint32") /* ty=Tensor[(11, 3, 3), uint32] */;
  %1489 = bitwise_or(%1487, %1488) /* ty=Tensor[(11, 3, 3), uint32] */;
  %1490 = cast(%var_16545, dtype="uint32") /* ty=Tensor[(11, 3, 3), uint32] */;
  %1491 = shape_of(%1489, dtype="int32") /* ty=Tensor[(3), int32] */;
  %1492 = cast(%1489, dtype="uint32") /* ty=Tensor[(11, 3, 3), uint32] */;
  %1493 = dyn.reshape(%1490, %1491, newshape=[]) /* ty=Tensor[(?, ?, ?), uint32] */;
  %1494 = bitwise_xor(%1492, %1493) /* ty=Tensor[(11, 3, 3), uint32] */;
  (%1494,)
}

def @func_28846() -> (Tensor[(2, 6, 11), float64],) {
  %1495 = @func_10465() /* ty=(Tensor[(2, 6, 11), float64], Tensor[(2, 6, 11), float64], Tensor[(2, 6, 11), float64], Tensor[(2, 6, 11), float64]) */;
  %1496 = %1495.1;
  (%1496,)
}

def @func_4572() -> Tensor[(2, 6, 11), float64] {
  %1497 = @func_2297() /* ty=(Tensor[(2, 6, 11), float64], Tensor[(2, 6, 11), float64], Tensor[(2, 6, 11), float64], Tensor[(2, 6, 11), float64]) */;
  %1497.3
}

def @func_21575() -> Tensor[(2, 6, 11), float64] {
  %1498 = @func_14760() /* ty=(Tensor[(9, 7, 10), float64], Tensor[(2, 6, 11), float64]) */;
  %1498.1
}

def @func_30148() -> (Tensor[(2, 6, 11), float64],) {
  %1499 = @func_15791() /* ty=(Tensor[(2, 6, 11), float64], Tensor[(2, 6, 11), float64], Tensor[(2, 6, 11), float64]) */;
  %1500 = %1499.2;
  (%1500,)
}

def @func_28909(%var_28875: Tensor[(12, 4, 14), float32], %var_28876: Tensor[(12, 4, 14), float32]) -> (Tensor[(11, 9, 15), int16], Tensor[(165, 9), int16], Tensor[(12, 4, 14), float32]) {
  %1501 = cast(meta[relay.Constant][34] /* ty=Tensor[(165, 9), int16] */, dtype="int16") /* ty=Tensor[(165, 9), int16] */;
  %1502 = reshape(%1501, newshape=[11, 9, 15]) /* ty=Tensor[(11, 9, 15), int16] */;
  %1503 = @func_11160(%1502) /* ty=(Tensor[(11, 9, 15), int16],) */;
  %1504 = cast(%var_28876, dtype="float32") /* ty=Tensor[(12, 4, 14), float32] */;
  %1505 = shape_of(%var_28875, dtype="int32") /* ty=Tensor[(3), int32] */;
  %1506 = cast(%var_28875, dtype="float32") /* ty=Tensor[(12, 4, 14), float32] */;
  %1507 = dyn.reshape(%1504, %1505, newshape=[]) /* ty=Tensor[(?, ?, ?), float32] */;
  %1508 = floor_mod(%1506, %1507) /* ty=Tensor[(12, 4, 14), float32] */;
  %1509 = cast(%1508, dtype="float32") /* ty=Tensor[(12, 4, 14), float32] */;
  %1510 = %1503.0;
  %1511 = log10(%1509) /* ty=Tensor[(12, 4, 14), float32] */;
  (%1510, meta[relay.Constant][34] /* ty=Tensor[(165, 9), int16] */, %1511)
}

def @func_16910() -> (Tensor[(2, 6, 11), float64],) {
  %1512 = @func_7002() /* ty=Tensor[(2, 6, 11), float64] */;
  (%1512,)
}

def @func_30371(%var_30368: Tensor[(660), uint8], %var_30369: Tensor[(1512), float32]) -> (Tensor[(2, 6, 11), float64], Tensor[(2, 6, 11), float64], Tensor[(660), uint8], Tensor[(1512), float32]) {
  %1513 = @func_15791() /* ty=(Tensor[(2, 6, 11), float64], Tensor[(2, 6, 11), float64], Tensor[(2, 6, 11), float64]) */;
  %1514 = cast(%var_30368, dtype="uint8") /* ty=Tensor[(660), uint8] */;
  %1515 = cast(%var_30368, dtype="uint8") /* ty=Tensor[(660), uint8] */;
  %1516 = cast(%var_30369, dtype="float32") /* ty=Tensor[(1512), float32] */;
  %1517 = reshape(%1514, newshape=[11, 12, 5]) /* ty=Tensor[(11, 12, 5), uint8] */;
  %1518 = reshape(%1515, newshape=[11, 12, 5]) /* ty=Tensor[(11, 12, 5), uint8] */;
  %1519 = reshape(%1516, newshape=[1512]) /* ty=Tensor[(1512), float32] */;
  %1520 = @func_5507(%1517, %1518, %1519) /* ty=(Tensor[(2, 6, 11), float64], Tensor[(2, 6, 11), float64], Tensor[(1512), float32], Tensor[(1512), float32], Tensor[(11, 12, 5), float32]) */;
  %1521 = %1513.0;
  %1522 = %1520.1;
  (%1521, %1522, %var_30368, %var_30369)
}

def @func_16734() -> (Tensor[(2, 6, 11), float64], Tensor[(2, 6, 11), float64]) {
  %1523 = @func_908() /* ty=(Tensor[(2, 6, 11), float64],) */;
  %1524 = %1523.0;
  %1525 = @func_14614() /* ty=Tensor[(2, 6, 11), float64] */;
  (%1524, %1525)
}

def @func_30449(%var_30429: Tensor[(154), float32]) -> (Tensor[(2, 6, 11), float64], Tensor[(154), float32], Tensor[(154), float32], Tensor[(2, 6, 11), float64]) {
  %1526 = @func_24663() /* ty=(Tensor[(2, 6, 11), float64],) */;
  %1527 = cast(%var_30429, dtype="float32") /* ty=Tensor[(154), float32] */;
  %1528 = reshape(%1527, newshape=[154]) /* ty=Tensor[(154), float32] */;
  %1529 = @func_24134(%1528) /* ty=(Tensor[(2, 6, 11), float64], Tensor[(11, 8, 14), float32], Tensor[(154), float32], Tensor[(1232), float32], Tensor[(2, 6, 11), float64], Tensor[(6, 252), float32]) */;
  %1530 = @func_28837() /* ty=(Tensor[(2, 6, 11), float64], Tensor[(2, 6, 11), float64]) */;
  %1531 = %1526.0;
  %1532 = %1529.2;
  %1533 = %1530.1;
  (%1531, %1532, %var_30429, %1533)
}

…
def @func_3198() -> (Tensor[(2, 6, 11), float64], Tensor[(2, 6, 11), float64], Tensor[(2, 6, 11), float64], Tensor[(2, 6, 11), float64], Tensor[(2, 6, 11), float64], Tensor[(2, 6, 11), float64], Tensor[(2, 6, 11), float64], Tensor[(2, 6, 11), float64]) {
  %2304 = @func_270() /* ty=(Tensor[(2, 6, 11), float64], Tensor[(2, 6, 11), float64]) */;
  %2305 = @func_2515() /* ty=(Tensor[(2, 6, 11), float64], Tensor[(2, 6, 11), float64], Tensor[(2, 6, 11), float64]) */;
  %2306 = @func_1500() /* ty=(Tensor[(2, 6, 11), float64],) */;
  %2307 = @func_451() /* ty=(Tensor[(2, 6, 11), float64], Tensor[(2, 6, 11), float64]) */;
  %2308 = @func_1473() /* ty=(Tensor[(2, 6, 11), float64], Tensor[(2, 6, 11), float64], Tensor[(2, 6, 11), float64], Tensor[(2, 6, 11), float64]) */;
  %2309 = @func_305() /* ty=(Tensor[(2, 6, 11), float64], Tensor[(2, 6, 11), float64]) */;
  %2310 = %2304.0;
  %2311 = %2305.2;
  %2312 = @func_376() /* ty=Tensor[(2, 6, 11), float64] */;
  %2313 = %2306.0;
  %2314 = %2307.1;
  %2315 = %2308.0;
  %2316 = %2309.1;
  %2317 = @func_3013() /* ty=Tensor[(2, 6, 11), float64] */;
  (%2310, %2311, %2312, %2313, %2314, %2315, %2316, %2317)
}

def @func_8261() -> (Tensor[(2, 6, 11), float64], Tensor[(2, 6, 11), float64]) {
  %2321 = fn () -> (Tensor[(2, 6, 11), float64], Tensor[(2, 6, 11), float64]) {
    %2318 = @func_5887() /* ty=(Tensor[(2, 6, 11), float64],) */;
    %2319 = %2318.0;
    %2320 = @func_6279() /* ty=Tensor[(2, 6, 11), float64] */;
    (%2319, %2320)
  };
  %2321() /* ty=(Tensor[(2, 6, 11), float64], Tensor[(2, 6, 11), float64]) */
}

def @func_8841() -> (Tensor[(2, 6, 11), float64],) {
  @func_8839() /* ty=(Tensor[(2, 6, 11), float64],) */
}

def @func_3259(%var_3257: Tensor[(10, 5, 4), float32]) -> (Tensor[(10, 5, 4), float32], Tensor[(2, 6, 11), float64]) {
  @func_3256(%var_3257) /* ty=(Tensor[(10, 5, 4), float32], Tensor[(2, 6, 11), float64]) */
}

def @func_12077() -> (Tensor[(2, 6, 11), float64],) {
  %2324 = fn () -> (Tensor[(2, 6, 11), float64],) {
    %2322 = @func_4629() /* ty=(Tensor[(2, 6, 11), float64],) */;
    %2323 = %2322.0;
    (%2323,)
  };
  %2324() /* ty=(Tensor[(2, 6, 11), float64],) */
}

def @func_31052() -> (Tensor[(2, 6, 11), float64], Tensor[(2, 6, 11), float64]) {
  @func_31050() /* ty=(Tensor[(2, 6, 11), float64], Tensor[(2, 6, 11), float64]) */
}

def @func_9328() -> (Tensor[(2, 6, 11), float64],) {
  %2325 = @func_7002() /* ty=Tensor[(2, 6, 11), float64] */;
  (%2325,)
}

def @func_14022() -> (Tensor[(2, 6, 11), float64], Tensor[(2, 6, 11), float64], Tensor[(2, 6, 11), float64]) {
  @func_14020() /* ty=(Tensor[(2, 6, 11), float64], Tensor[(2, 6, 11), float64], Tensor[(2, 6, 11), float64]) */
}

def @func_12997() -> (Tensor[(2, 6, 11), float64],) {
  %2328 = fn () -> (Tensor[(2, 6, 11), float64],) {
    %2326 = @func_626() /* ty=(Tensor[(2, 6, 11), float64],) */;
    %2327 = %2326.0;
    (%2327,)
  };
  %2328() /* ty=(Tensor[(2, 6, 11), float64],) */
}

def @func_15088(%var_15086: Tensor[(660), uint8]) -> (Tensor[(16, 10, 13), int8], Tensor[(2, 6, 11), float64], Tensor[(660), uint8], Tensor[(1512), float32], Tensor[(2, 6, 11), float64]) {
  @func_15085(%var_15086) /* ty=(Tensor[(16, 10, 13), int8], Tensor[(2, 6, 11), float64], Tensor[(660), uint8], Tensor[(1512), float32], Tensor[(2, 6, 11), float64]) */
}

def @func_8295() -> (Tensor[(2, 6, 11), float64], Tensor[(2, 6, 11), float64]) {
  %2329 = @func_5150() /* ty=(Tensor[(2, 6, 11), float64], Tensor[(2, 6, 11), float64]) */;
  %2330 = @func_1244() /* ty=(Tensor[(2, 6, 11), float64], Tensor[(2, 6, 11), float64]) */;
  %2331 = %2329.0;
  %2332 = %2330.1;
  (%2331, %2332)
}

def @func_16895() -> (Tensor[(2, 6, 11), float64], Tensor[(2, 6, 11), float64]) {
  @func_16893() /* ty=(Tensor[(2, 6, 11), float64], Tensor[(2, 6, 11), float64]) */
}

def @func_6692() -> Tensor[(2, 6, 11), float64] {
  %2334 = fn () -> Tensor[(2, 6, 11), float64] {
    %2333 = @func_1244() /* ty=(Tensor[(2, 6, 11), float64], Tensor[(2, 6, 11), float64]) */;
    %2333.0
  };
  %2334() /* ty=Tensor[(2, 6, 11), float64] */
}

def @func_28396() -> (Tensor[(1512), float32], Tensor[(2, 6, 11), float64], Tensor[(2, 6, 11), float64]) {
  %2341 = fn () -> (Tensor[(1512), float32], Tensor[(2, 6, 11), float64], Tensor[(2, 6, 11), float64]) {
    %2335 = @func_19949() /* ty=(Tensor[(2, 6, 11), float64], Tensor[(2, 6, 11), float64], Tensor[(2, 6, 11), float64], Tensor[(1512), float32]) */;
    %2336 = @func_27791() /* ty=(Tensor[(2, 6, 11), float64], Tensor[(2, 6, 11), float64]) */;
    %2337 = @func_13881() /* ty=(Tensor[(2, 6, 11), float64], Tensor[(2, 6, 11), float64], Tensor[(2, 6, 11), float64]) */;
    %2338 = %2335.3;
    %2339 = %2336.0;
    %2340 = %2337.2;
    (%2338, %2339, %2340)
  };
  %2341() /* ty=(Tensor[(1512), float32], Tensor[(2, 6, 11), float64], Tensor[(2, 6, 11), float64]) */
}

def @func_16674() -> (Tensor[(2, 6, 11), float64], Tensor[(1512), float32], Tensor[(12, ?, 9), float64], Tensor[(2, 6, 11), float64], Tensor[(2, 6, 11), float64]) {
  %2356 = fn () -> (Tensor[(2, 6, 11), float64], Tensor[(1512), float32], Tensor[(12, ?, 9), float64], Tensor[(2, 6, 11), float64], Tensor[(2, 6, 11), float64]) {
    %2342 = cast(meta[relay.Constant][53] /* ty=Tensor[(1512), float32] */, dtype="float32") /* ty=Tensor[(1512), float32] */;
    %2343 = cast(meta[relay.Constant][53] /* ty=Tensor[(1512), float32] */, dtype="float32") /* ty=Tensor[(1512), float32] */;
    %2344 = reshape(%2342, newshape=[14, 12, 9]) /* ty=Tensor[(14, 12, 9), float32] */;
    %2345 = reshape(%2343, newshape=[14, 12, 9]) /* ty=Tensor[(14, 12, 9), float32] */;
    %2346 = @func_398(%2344, %2345) /* ty=(Tensor[(14, 12, 9), float32], Tensor[(2, 6, 11), float64], Tensor[(2, 6, 11), float64]) */;
    %2347 = @func_5047() /* ty=(Tensor[(2, 6, 11), float64], Tensor[(12, ?, 9), int64], Tensor[(2, 6, 11), float64], Tensor[(2, 6, 11), float64]) */;
    %2348 = %2347.1;
    %2349 = cast(%2348, dtype="float64") /* ty=Tensor[(12, ?, 9), float64] */;
    %2350 = @func_2515() /* ty=(Tensor[(2, 6, 11), float64], Tensor[(2, 6, 11), float64], Tensor[(2, 6, 11), float64]) */;
    %2351 = @func_2515() /* ty=(Tensor[(2, 6, 11), float64], Tensor[(2, 6, 11), float64], Tensor[(2, 6, 11), float64]) */;
    %2352 = %2346.1;
    %2353 = tan(%2349) /* ty=Tensor[(12, ?, 9), float64] */;
    %2354 = %2350.1;
    %2355 = %2351.2;
    (%2352, meta[relay.Constant][53] /* ty=Tensor[(1512), float32] */, %2353, %2354, %2355)
  };
  %2356() /* ty=(Tensor[(2, 6, 11), float64], Tensor[(1512), float32], Tensor[(12, ?, 9), float64], Tensor[(2, 6, 11), float64], Tensor[(2, 6, 11), float64]) */
}

def @func_23618() -> (Tensor[(2, 6, 11), float64], Tensor[(2, 6, 11), float64]) {
  %2361 = fn () -> (Tensor[(2, 6, 11), float64], Tensor[(2, 6, 11), float64]) {
    %2357 = @func_19059() /* ty=(Tensor[(2, 6, 11), float64],) */;
    %2358 = @func_15181() /* ty=(Tensor[(2, 6, 11), float64],) */;
    %2359 = %2357.0;
    %2360 = %2358.0;
    (%2359, %2360)
  };
  %2361() /* ty=(Tensor[(2, 6, 11), float64], Tensor[(2, 6, 11), float64]) */
}

def @func_22565(%var_22563: Tensor[(3, 14, 8), uint64], %var_22564: Tensor[(3, 14, 8), uint64]) -> Tensor[(3, 14, 8), bool] {
  @func_22561(%var_22563, %var_22564) /* ty=Tensor[(3, 14, 8), bool] */
}

def @func_28552() -> (Tensor[(2, 6, 11), float64],) {
  %2362 = @func_19059() /* ty=(Tensor[(2, 6, 11), float64],) */;
  %2363 = %2362.0;
  (%2363,)
}

def @func_5644() -> (Tensor[(2, 6, 11), float64], Tensor[(2, 6, 11), float64]) {
  %2364 = @func_5595() /* ty=(Tensor[(2, 6, 11), float64], Tensor[(2, 6, 11), float64]) */;
  %2365 = %2364.1;
  %2366 = @func_2975() /* ty=Tensor[(2, 6, 11), float64] */;
  (%2365, %2366)
}

def @func_26346(%var_26344: Tensor[(1512, 1), float32]) -> (Tensor[(2, 6, 11), float64], Tensor[(2, 6, 11), float64], Tensor[(1512, 1), float32], Tensor[(2, 6, 11), float64], Tensor[(2, 6, 11), float64], Tensor[(1512), float32]) {
  @func_26343(%var_26344) /* ty=(Tensor[(2, 6, 11), float64], Tensor[(2, 6, 11), float64], Tensor[(1512, 1), float32], Tensor[(2, 6, 11), float64], Tensor[(2, 6, 11), float64], Tensor[(1512), float32]) */
}

def @func_24434() -> (Tensor[(2, 6, 11), float64], Tensor[(2, 6, 11), float64], Tensor[(2, 6, 11), float64], Tensor[(2, 6, 11), float64], Tensor[(2, 6, 11), float64]) {
  %2376 = fn () -> (Tensor[(2, 6, 11), float64], Tensor[(2, 6, 11), float64], Tensor[(2, 6, 11), float64], Tensor[(2, 6, 11), float64], Tensor[(2, 6, 11), float64]) {
    %2367 = @func_12076() /* ty=(Tensor[(2, 6, 11), float64],) */;
    %2368 = @func_4926() /* ty=(Tensor[(2, 6, 11), float64], Tensor[(2, 6, 11), float64]) */;
    %2369 = @func_6574() /* ty=(Tensor[(2, 6, 11), float64], Tensor[(2, 6, 11), float64]) */;
    %2370 = @func_22970() /* ty=(Tensor[(2, 6, 11), float64],) */;
    %2371 = %2367.0;
    %2372 = %2368.1;
    %2373 = %2369.1;
    %2374 = %2370.0;
    %2375 = @func_8487() /* ty=Tensor[(2, 6, 11), float64] */;
    (%2371, %2372, %2373, %2374, %2375)
  };
  %2376() /* ty=(Tensor[(2, 6, 11), float64], Tensor[(2, 6, 11), float64], Tensor[(2, 6, 11), float64], Tensor[(2, 6, 11), float64], Tensor[(2, 6, 11), float64]) */
}

def @func_24349(%var_24348: Tensor[(325), float32]) -> (Tensor[(2, 6, 11), float64], Tensor[(5, 5, 13), float32], Tensor[(325), float32]) {
  %2381 = fn (%var_24330: Tensor[(325), float32]) -> (Tensor[(2, 6, 11), float64], Tensor[(5, 5, 13), float32], Tensor[(325), float32]) {
    %2377 = cast(%var_24330, dtype="float32") /* ty=Tensor[(325), float32] */;
    %2378 = reshape(%2377, newshape=[5, 5, 13]) /* ty=Tensor[(5, 5, 13), float32] */;
    %2379 = @func_12537() /* ty=Tensor[(2, 6, 11), float64] */;
    %2380 = @func_14139(%2378) /* ty=Tensor[(5, 5, 13), float32] */;
    (%2379, %2380, %var_24330)
  };
  %2381(%var_24348) /* ty=(Tensor[(2, 6, 11), float64], Tensor[(5, 5, 13), float32], Tensor[(325), float32]) */
}

def @func_10697() -> Tensor[(2, 6, 11), float64] {
  %2383 = fn () -> Tensor[(2, 6, 11), float64] {
    %2382 = @func_7830() /* ty=(Tensor[(2, 6, 11), float64],) */;
    %2382.0
  };
  %2383() /* ty=Tensor[(2, 6, 11), float64] */
}

def @func_29491() -> Tensor[(2, 6, 11), float64] {
  %2385 = fn () -> Tensor[(2, 6, 11), float64] {
    %2384 = @func_2817() /* ty=(Tensor[(2, 6, 11), float64],) */;
    %2384.0
  };
  %2385() /* ty=Tensor[(2, 6, 11), float64] */
}

def @func_14520() -> (Tensor[(2, 6, 11), float64], Tensor[(2, 6, 11), float64], Tensor[(2, 6, 11), float64], Tensor[(9, 1), float64], float64) {
  %2386 = @func_11195() /* ty=(Tensor[(2, 6, 11), float64], Tensor[(2, 6, 11), float64]) */;
  %2387 = @func_4724() /* ty=(Tensor[(2, 6, 11), float64],) */;
  %2388 = cast(-3.21676f64 /* ty=float64 */, dtype="float64") /* ty=float64 */;
  %2389 = reshape(%2388, newshape=[]) /* ty=float64 */;
  %2390 = %2386.1;
  %2391 = @func_6349() /* ty=Tensor[(2, 6, 11), float64] */;
  %2392 = %2387.0;
  %2393 = @func_2429(%2389) /* ty=Tensor[(9, 1), float64] */;
  (%2390, %2391, %2392, %2393, -3.21676f64 /* ty=float64 */)
}

def @func_27103() -> (Tensor[(2, 6, 11), float64], Tensor[(2, 6, 11), float64]) {
  %2398 = fn () -> (Tensor[(2, 6, 11), float64], Tensor[(2, 6, 11), float64]) {
    %2394 = @func_7491() /* ty=(Tensor[(2, 6, 11), float64], Tensor[(2, 6, 11), float64], Tensor[(2, 6, 11), float64], Tensor[(378, 4), float32]) */;
    %2395 = @func_908() /* ty=(Tensor[(2, 6, 11), float64],) */;
    %2396 = %2394.2;
    %2397 = %2395.0;
    (%2396, %2397)
  };
  %2398() /* ty=(Tensor[(2, 6, 11), float64], Tensor[(2, 6, 11), float64]) */
}

def @func_21576() -> Tensor[(2, 6, 11), float64] {
  %2400 = fn () -> Tensor[(2, 6, 11), float64] {
    %2399 = @func_14760() /* ty=(Tensor[(9, 7, 10), float64], Tensor[(2, 6, 11), float64]) */;
    %2399.1
  };
  %2400() /* ty=Tensor[(2, 6, 11), float64] */
}

def @func_6726() -> Tensor[(6, 252), float32] {
  %2402 = fn () -> Tensor[(6, 252), float32] {
    %2401 = @func_6450() /* ty=(Tensor[(2, 6, 11), float64], Tensor[(1512), float32], Tensor[(6, 252), float32], Tensor[(2, 6, 11), float64]) */;
    %2401.2
  };
  %2402() /* ty=Tensor[(6, 252), float32] */
}

def @func_14918() -> (Tensor[(2, 6, 11), float64],) {
  %2405 = fn () -> (Tensor[(2, 6, 11), float64],) {
    %2403 = @func_9980() /* ty=(Tensor[(2, 6, 11), float64], Tensor[(2, 6, 11), float64]) */;
    %2404 = %2403.0;
    (%2404,)
  };
  %2405() /* ty=(Tensor[(2, 6, 11), float64],) */
}

def @func_25496(%var_25494: Tensor[(1512, 1), float32]) -> (Tensor[(2, 6, 11), float64], Tensor[(2, 6, 11), float64], Tensor[(2, 6, 11), float64], Tensor[(1512), float32], Tensor[(1512, 1), float32], Tensor[(2, 6, 11), float64], Tensor[(2, 6, 11), float64]) {
  @func_25493(%var_25494) /* ty=(Tensor[(2, 6, 11), float64], Tensor[(2, 6, 11), float64], Tensor[(2, 6, 11), float64], Tensor[(1512), float32], Tensor[(1512, 1), float32], Tensor[(2, 6, 11), float64], Tensor[(2, 6, 11), float64]) */
}

def @func_28101(%var_28099: bool, %var_28100: Tensor[(10, 11, 5), bool]) -> Tensor[(10, 11, 5), bool] {
  @func_28097(%var_28099, %var_28100) /* ty=Tensor[(10, 11, 5), bool] */
}

def @func_21664() -> (Tensor[(2, 6, 11), float64],) {
  %2406 = @func_10354() /* ty=Tensor[(2, 6, 11), float64] */;
  (%2406,)
}

def @func_5271() -> (Tensor[(2, 6, 11), float64],) {
  %2409 = fn () -> (Tensor[(2, 6, 11), float64],) {
    %2407 = @func_4526() /* ty=(Tensor[(2, 6, 11), float64], Tensor[(2, 6, 11), float64], Tensor[(2, 6, 11), float64], Tensor[(2, 6, 11), float64], Tensor[(2, 6, 11), float64]) */;
    %2408 = %2407.0;
    (%2408,)
  };
  %2409() /* ty=(Tensor[(2, 6, 11), float64],) */
}

def @func_16849() -> (Tensor[(2, 6, 11), float64], Tensor[(2, 6, 11), float64], Tensor[(2, 6, 11), float64]) {
  @func_16847() /* ty=(Tensor[(2, 6, 11), float64], Tensor[(2, 6, 11), float64], Tensor[(2, 6, 11), float64]) */
}

def @func_21914(%var_21889: Tensor[(14, 3, 16), uint16]) -> (Tensor[(14, 3, 16), uint16], Tensor[(2, 6, 11), float64], Tensor[(2, 6, 11), float64]) {
  %2410 = cast(%var_21889, dtype="uint16") /* ty=Tensor[(14, 3, 16), uint16] */;
  %2411 = shape_of(meta[relay.Constant][54] /* ty=Tensor[(14, 3, 16), uint16] */, dtype="int32") /* ty=Tensor[(3), int32] */;
  %2412 = cast(meta[relay.Constant][54] /* ty=Tensor[(14, 3, 16), uint16] */, dtype="uint16") /* ty=Tensor[(14, 3, 16), uint16] */;
  %2413 = dyn.reshape(%2410, %2411, newshape=[]) /* ty=Tensor[(?, ?, ?), uint16] */;
  %2414 = @func_20055() /* ty=(Tensor[(2, 6, 11), float64], Tensor[(2, 6, 11), float64]) */;
  %2415 = minimum(%2412, %2413) /* ty=Tensor[(14, 3, 16), uint16] */;
  %2416 = @func_5952() /* ty=Tensor[(2, 6, 11), float64] */;
  %2417 = %2414.0;
  (%2415, %2416, %2417)
}

def @func_519(%var_518: Tensor[(1512), float32]) -> (Tensor[(2, 6, 11), float64], Tensor[(2, 6, 11), float64], Tensor[(1512), float32], Tensor[(2, 6, 11), float64], Tensor[(2, 6, 11), float64], Tensor[(2, 6, 11), float64]) {
  %2430 = fn (%var_474: Tensor[(1512), float32]) -> (Tensor[(2, 6, 11), float64], Tensor[(2, 6, 11), float64], Tensor[(1512), float32], Tensor[(2, 6, 11), float64], Tensor[(2, 6, 11), float64], Tensor[(2, 6, 11), float64]) {
    %2418 = @func_197() /* ty=(Tensor[(2, 6, 11), float64],) */;
    %2419 = cast(%var_474, dtype="float32") /* ty=Tensor[(1512), float32] */;
    %2420 = cast(%var_474, dtype="float32") /* ty=Tensor[(1512), float32] */;
    %2421 = reshape(%2419, newshape=[14, 12, 9]) /* ty=Tensor[(14, 12, 9), float32] */;
    %2422 = reshape(%2420, newshape=[14, 12, 9]) /* ty=Tensor[(14, 12, 9), float32] */;
    %2423 = @func_398(%2421, %2422) /* ty=(Tensor[(14, 12, 9), float32], Tensor[(2, 6, 11), float64], Tensor[(2, 6, 11), float64]) */;
    %2424 = @func_348() /* ty=(Tensor[(2, 6, 11), float64],) */;
    %2425 = %2418.0;
    %2426 = %2423.2;
    %2427 = %2424.0;
    %2428 = @func_418() /* ty=Tensor[(2, 6, 11), float64] */;
    %2429 = @func_418() /* ty=Tensor[(2, 6, 11), float64] */;
    (%2425, %2426, %var_474, %2427, %2428, %2429)
  };
  %2430(%var_518) /* ty=(Tensor[(2, 6, 11), float64], Tensor[(2, 6, 11), float64], Tensor[(1512), float32], Tensor[(2, 6, 11), float64], Tensor[(2, 6, 11), float64], Tensor[(2, 6, 11), float64]) */
}

def @func_4686() -> (Tensor[(2, 6, 11), float64], Tensor[(2, 6, 11), float64], Tensor[(2, 6, 11), float64]) {
  %2431 = @func_3100() /* ty=(Tensor[(2, 6, 11), float64], Tensor[(2, 6, 11), float64], Tensor[(2, 6, 11), float64], Tensor[(2, 6, 11), float64]) */;
  %2432 = @func_1060() /* ty=(Tensor[(2, 6, 11), float64], Tensor[(2, 6, 11), float64]) */;
  %2433 = @func_305() /* ty=(Tensor[(2, 6, 11), float64], Tensor[(2, 6, 11), float64]) */;
  %2434 = %2431.3;
  %2435 = %2432.0;
  %2436 = %2433.1;
  (%2434, %2435, %2436)
}

def @func_17411() -> (Tensor[(1512), float32], Tensor[(2, 6, 11), float64]) {
  %2437 = @func_16303() /* ty=Tensor[(1512), float32] */;
  %2438 = @func_4427() /* ty=Tensor[(2, 6, 11), float64] */;
  (%2437, %2438)
}

def @func_22351() -> Tensor[(2, 6, 11), float64] {
  @func_22349() /* ty=Tensor[(2, 6, 11), float64] */
}

def @func_24976() -> Tensor[(2, 6, 11), float64] {
  %2440 = fn () -> Tensor[(2, 6, 11), float64] {
    %2439 = @func_14917() /* ty=(Tensor[(2, 6, 11), float64],) */;
    %2439.0
  };
  %2440() /* ty=Tensor[(2, 6, 11), float64] */
}

def @func_14591() -> (Tensor[(2, 6, 11), float64], Tensor[(6, 252), float32], Tensor[(2, 6, 11), float64]) {
  @func_14589() /* ty=(Tensor[(2, 6, 11), float64], Tensor[(6, 252), float32], Tensor[(2, 6, 11), float64]) */
}

def @func_15261() -> Tensor[(2, 6, 11), float64] {
  @func_14430() /* ty=Tensor[(2, 6, 11), float64] */
}

def @func_31050() -> (Tensor[(2, 6, 11), float64], Tensor[(2, 6, 11), float64]) {
  %2441 = @func_26596() /* ty=Tensor[(2, 6, 11), float64] */;
  %2442 = @func_15893() /* ty=Tensor[(2, 6, 11), float64] */;
  (%2441, %2442)
}

def @func_5150() -> (Tensor[(2, 6, 11), float64], Tensor[(2, 6, 11), float64]) {
  %2443 = @func_305() /* ty=(Tensor[(2, 6, 11), float64], Tensor[(2, 6, 11), float64]) */;
  %2444 = @func_944() /* ty=(Tensor[(2, 6, 11), float64], Tensor[(2, 6, 11), float64]) */;
  %2445 = %2443.0;
  %2446 = %2444.1;
  (%2445, %2446)
}

def @func_9708() -> (Tensor[(2, 6, 11), float64], Tensor[(2, 6, 11), float64]) {
  %2451 = fn () -> (Tensor[(2, 6, 11), float64], Tensor[(2, 6, 11), float64]) {
    %2447 = @func_4793() /* ty=(Tensor[(2, 6, 11), float64],) */;
    %2448 = @func_908() /* ty=(Tensor[(2, 6, 11), float64],) */;
    %2449 = %2447.0;
    %2450 = %2448.0;
    (%2449, %2450)
  };
  %2451() /* ty=(Tensor[(2, 6, 11), float64], Tensor[(2, 6, 11), float64]) */
}

def @func_26434() -> (Tensor[(2, 6, 11), float64],) {
  @func_26432() /* ty=(Tensor[(2, 6, 11), float64],) */
}

def @func_20605(%var_20603: Tensor[(15, 14, 13), float32]) -> (Tensor[(15, 14, 13), float32], Tensor[(2, 6, 11), float64]) {
  @func_20602(%var_20603) /* ty=(Tensor[(15, 14, 13), float32], Tensor[(2, 6, 11), float64]) */
}

def @func_23247() -> (Tensor[(2, 6, 11), float64], Tensor[(2, 6, 11), float64], Tensor[(2, 6, 11), float64]) {
  @func_23245() /* ty=(Tensor[(2, 6, 11), float64], Tensor[(2, 6, 11), float64], Tensor[(2, 6, 11), float64]) */
}

def @func_23802() -> (Tensor[(2, 6, 11), float64], Tensor[(2, 6, 11), float64], Tensor[(2, 6, 11), float64]) {
  %2458 = fn () -> (Tensor[(2, 6, 11), float64], Tensor[(2, 6, 11), float64], Tensor[(2, 6, 11), float64]) {
    %2452 = @func_10639() /* ty=(Tensor[(2, 6, 11), float64], Tensor[(2, 6, 11), float64]) */;
    %2453 = @func_16010() /* ty=(Tensor[(2, 6, 11), float64],) */;
    %2454 = @func_10039() /* ty=(Tensor[(2, 6, 11), float64],) */;
    %2455 = %2452.0;
    %2456 = %2453.0;
    %2457 = %2454.0;
    (%2455, %2456, %2457)
  };
  %2458() /* ty=(Tensor[(2, 6, 11), float64], Tensor[(2, 6, 11), float64], Tensor[(2, 6, 11), float64]) */
}

def @func_2152() -> (Tensor[(2, 6, 11), float64], Tensor[(2, 6, 11), float64]) {
  %2463 = fn () -> (Tensor[(2, 6, 11), float64], Tensor[(2, 6, 11), float64]) {
    %2459 = @func_305() /* ty=(Tensor[(2, 6, 11), float64], Tensor[(2, 6, 11), float64]) */;
    %2460 = @func_1500() /* ty=(Tensor[(2, 6, 11), float64],) */;
    %2461 = %2459.1;
    %2462 = %2460.0;
    (%2461, %2462)
  };
  %2463() /* ty=(Tensor[(2, 6, 11), float64], Tensor[(2, 6, 11), float64]) */
}

def @func_19101() -> (Tensor[(2, 6, 11), float64], Tensor[(2, 6, 11), float64], Tensor[(2, 6, 11), float64]) {
  @func_19099() /* ty=(Tensor[(2, 6, 11), float64], Tensor[(2, 6, 11), float64], Tensor[(2, 6, 11), float64]) */
}

def @func_8729() -> (Tensor[(2, 6, 11), float64], Tensor[(9, 1), float64], float64, Tensor[(2, 6, 11), float64], Tensor[(2, 6, 11), float64], Tensor[(2, 6, 11), float64]) {
  %2475 = fn () -> (Tensor[(2, 6, 11), float64], Tensor[(9, 1), float64], float64, Tensor[(2, 6, 11), float64], Tensor[(2, 6, 11), float64], Tensor[(2, 6, 11), float64]) {
    %2464 = @func_7748() /* ty=(Tensor[(2, 6, 11), float64], Tensor[(2, 6, 11), float64], Tensor[(2, 6, 11), float64]) */;
    %2465 = cast(-9.87625f64 /* ty=float64 */, dtype="float64") /* ty=float64 */;
    %2466 = reshape(%2465, newshape=[]) /* ty=float64 */;
    %2467 = @func_348() /* ty=(Tensor[(2, 6, 11), float64],) */;
    %2468 = @func_5824() /* ty=(Tensor[(2, 6, 11), float64], Tensor[(2, 6, 11), float64]) */;
    %2469 = @func_4686() /* ty=(Tensor[(2, 6, 11), float64], Tensor[(2, 6, 11), float64], Tensor[(2, 6, 11), float64]) */;
    %2470 = %2464.1;
    %2471 = @func_2429(%2466) /* ty=Tensor[(9, 1), float64] */;
    %2472 = %2467.0;
    %2473 = %2468.1;
    %2474 = %2469.2;
    (%2470, %2471, -9.87625f64 /* ty=float64 */, %2472, %2473, %2474)
  };
  %2475() /* ty=(Tensor[(2, 6, 11), float64], Tensor[(9, 1), float64], float64, Tensor[(2, 6, 11), float64], Tensor[(2, 6, 11), float64], Tensor[(2, 6, 11), float64]) */
}

def @func_21666() -> (Tensor[(2, 6, 11), float64],) {
  @func_21664() /* ty=(Tensor[(2, 6, 11), float64],) */
}

def @func_216() -> (Tensor[(2, 6, 11), float64],) {
  %2476 = @func_197() /* ty=(Tensor[(2, 6, 11), float64],) */;
  %2477 = %2476.0;
  (%2477,)
}

def @func_21420() -> (Tensor[(2, 6, 11), float64],) {
  %2480 = fn () -> (Tensor[(2, 6, 11), float64],) {
    %2478 = @func_15181() /* ty=(Tensor[(2, 6, 11), float64],) */;
    %2479 = %2478.0;
    (%2479,)
  };
  %2480() /* ty=(Tensor[(2, 6, 11), float64],) */
}

def @func_22886() -> Tensor[(2, 6, 11), float64] {
  %2481 = @func_21664() /* ty=(Tensor[(2, 6, 11), float64],) */;
  %2481.0
}

def @func_17361(%var_17359: Tensor[(1512), float32]) -> (Tensor[(2, 6, 11), float64], Tensor[(2, 6, 11), float64], Tensor[(2, 6, 11), float64], Tensor[(660), uint8], Tensor[(1512), float32]) {
  @func_17358(%var_17359) /* ty=(Tensor[(2, 6, 11), float64], Tensor[(2, 6, 11), float64], Tensor[(2, 6, 11), float64], Tensor[(660), uint8], Tensor[(1512), float32]) */
}

def @func_21024() -> (Tensor[(2, 6, 11), float64], Tensor[(2, 6, 11), float64]) {
  @func_21022() /* ty=(Tensor[(2, 6, 11), float64], Tensor[(2, 6, 11), float64]) */
}

def @func_30178() -> Tensor[(2, 6, 11), float64] {
  @func_30176() /* ty=Tensor[(2, 6, 11), float64] */
}

def @func_16320(%var_16318: Tensor[(15, 15, 10), float32], %var_16319: Tensor[(15, 15, 10), float32]) -> (Tensor[(15, 15, 10), float32],) {
  %2487 = fn (%var_16309: Tensor[(15, 15, 10), float32], %var_16310: Tensor[(15, 15, 10), float32]) -> (Tensor[(15, 15, 10), float32],) {
    %2482 = cast(%var_16310, dtype="float32") /* ty=Tensor[(15, 15, 10), float32] */;
    %2483 = shape_of(%var_16309, dtype="int32") /* ty=Tensor[(3), int32] */;
    %2484 = cast(%var_16309, dtype="float32") /* ty=Tensor[(15, 15, 10), float32] */;
    %2485 = dyn.reshape(%2482, %2483, newshape=[]) /* ty=Tensor[(?, ?, ?), float32] */;
    %2486 = mod(%2484, %2485) /* ty=Tensor[(15, 15, 10), float32] */;
    (%2486,)
  };
  %2487(%var_16318, %var_16319) /* ty=(Tensor[(15, 15, 10), float32],) */
}

def @func_4031() -> (Tensor[(2, 6, 11), float64], Tensor[(2, 6, 11), float64]) {
  %2488 = @func_2928() /* ty=(Tensor[(2, 6, 11), float64], Tensor[(2, 6, 11), float64], Tensor[(2, 6, 11), float64], Tensor[(2, 6, 11), float64], Tensor[(2, 6, 11), float64]) */;
  %2489 = %2488.0;
  %2490 = @func_3996() /* ty=Tensor[(2, 6, 11), float64] */;
  (%2489, %2490)
}

def @func_24211() -> (Tensor[(2, 6, 11), float64], Tensor[(2, 6, 11), float64], Tensor[(2, 6, 11), float64], Tensor[(2, 6, 11), float64]) {
  %2499 = fn () -> (Tensor[(2, 6, 11), float64], Tensor[(2, 6, 11), float64], Tensor[(2, 6, 11), float64], Tensor[(2, 6, 11), float64]) {
    %2491 = @func_17987() /* ty=(Tensor[(2, 6, 11), float64], Tensor[(2, 6, 11), float64], Tensor[(2, 6, 11), float64], Tensor[(14, 10, 6), float32], Tensor[(840), float32], Tensor[(2, 6, 11), float64]) */;
    %2492 = @func_868() /* ty=(Tensor[(2, 6, 11), float64], Tensor[(2, 6, 11), float64]) */;
    %2493 = @func_16010() /* ty=(Tensor[(2, 6, 11), float64],) */;
    %2494 = @func_216() /* ty=(Tensor[(2, 6, 11), float64],) */;
    %2495 = %2491.5;
    %2496 = %2492.0;
    %2497 = %2493.0;
    %2498 = %2494.0;
    (%2495, %2496, %2497, %2498)
  };
  %2499() /* ty=(Tensor[(2, 6, 11), float64], Tensor[(2, 6, 11), float64], Tensor[(2, 6, 11), float64], Tensor[(2, 6, 11), float64]) */
}

def @func_9856() -> (Tensor[(2, 6, 11), float64], Tensor[(2, 6, 11), float64]) {
  %2504 = fn () -> (Tensor[(2, 6, 11), float64], Tensor[(2, 6, 11), float64]) {
    %2500 = @func_7491() /* ty=(Tensor[(2, 6, 11), float64], Tensor[(2, 6, 11), float64], Tensor[(2, 6, 11), float64], Tensor[(378, 4), float32]) */;
    %2501 = @func_8260() /* ty=(Tensor[(2, 6, 11), float64], Tensor[(2, 6, 11), float64]) */;
    %2502 = %2500.1;
    %2503 = %2501.0;
    (%2502, %2503)
  };
  %2504() /* ty=(Tensor[(2, 6, 11), float64], Tensor[(2, 6, 11), float64]) */
}

def @func_25608() -> (Tensor[(2, 6, 11), float64], Tensor[(2, 6, 11), float64], Tensor[(2, 6, 11), float64]) {
  @func_25606() /* ty=(Tensor[(2, 6, 11), float64], Tensor[(2, 6, 11), float64], Tensor[(2, 6, 11), float64]) */
}

def @func_5923() -> (Tensor[(2, 6, 11), float64], Tensor[(2, 6, 11), float64]) {
  %2508 = fn () -> (Tensor[(2, 6, 11), float64], Tensor[(2, 6, 11), float64]) {
    %2505 = @func_3198() /* ty=(Tensor[(2, 6, 11), float64], Tensor[(2, 6, 11), float64], Tensor[(2, 6, 11), float64], Tensor[(2, 6, 11), float64], Tensor[(2, 6, 11), float64], Tensor[(2, 6, 11), float64], Tensor[(2, 6, 11), float64], Tensor[(2, 6, 11), float64]) */;
    %2506 = %2505.0;
    %2507 = @func_4427() /* ty=Tensor[(2, 6, 11), float64] */;
    (%2506, %2507)
  };
  %2508() /* ty=(Tensor[(2, 6, 11), float64], Tensor[(2, 6, 11), float64]) */
}

def @func_6100() -> Tensor[(2, 6, 11), float64] {
  %2509 = fn () -> Tensor[(2, 6, 11), float64] {
    @func_2305() /* ty=Tensor[(2, 6, 11), float64] */
  };
  %2509() /* ty=Tensor[(2, 6, 11), float64] */
}

def @func_18843(%var_18842: Tensor[(11, 14, 13), float32]) -> (Tensor[(11, 14, 13), float32], Tensor[(2, 6, 11), float64], Tensor[(72), float64], Tensor[(2, 6, 11), float64], Tensor[(2, 6, 11), float64], Tensor[(2, 6, 11), float64]) {
  %2522 = fn (%var_18793: Tensor[(11, 14, 13), float32]) -> (Tensor[(11, 14, 13), float32], Tensor[(2, 6, 11), float64], Tensor[(72), float64], Tensor[(2, 6, 11), float64], Tensor[(2, 6, 11), float64], Tensor[(2, 6, 11), float64]) {
    %2510 = cast(meta[relay.Constant][55] /* ty=Tensor[(1, 14, 13), float32] */, dtype="float32") /* ty=Tensor[(1, 14, 13), float32] */;
    %2511 = cast(%var_18793, dtype="float32") /* ty=Tensor[(11, 14, 13), float32] */;
    %2512 = cast(meta[relay.Constant][56] /* ty=Tensor[(72), float64] */, dtype="float64") /* ty=Tensor[(72), float64] */;
    %2513 = reshape(%2512, newshape=[2, 3, 12]) /* ty=Tensor[(2, 3, 12), float64] */;
    %2514 = @func_16272(%2513) /* ty=(Tensor[(2, 3, 12), float64], Tensor[(2, 6, 11), float64]) */;
    %2515 = @func_12996() /* ty=(Tensor[(2, 6, 11), float64],) */;
    %2516 = @func_451() /* ty=(Tensor[(2, 6, 11), float64], Tensor[(2, 6, 11), float64]) */;
    %2517 = floor_divide(%2510, %2511) /* ty=Tensor[(11, 14, 13), float32] */;
    %2518 = %2514.1;
    %2519 = %2515.0;
    %2520 = %2516.1;
    %2521 = @func_2305() /* ty=Tensor[(2, 6, 11), float64] */;
    (%2517, %2518, meta[relay.Constant][56] /* ty=Tensor[(72), float64] */, %2519, %2520, %2521)
  };
  %2522(%var_18842) /* ty=(Tensor[(11, 14, 13), float32], Tensor[(2, 6, 11), float64], Tensor[(72), float64], Tensor[(2, 6, 11), float64], Tensor[(2, 6, 11), float64], Tensor[(2, 6, 11), float64]) */
}

def @func_17413() -> (Tensor[(1512), float32], Tensor[(2, 6, 11), float64]) {
  @func_17411() /* ty=(Tensor[(1512), float32], Tensor[(2, 6, 11), float64]) */
}

def @func_14760() -> (Tensor[(9, 7, 10), float64], Tensor[(2, 6, 11), float64]) {
  %2523 = cast(meta[relay.Constant][57] /* ty=Tensor[(9, 7, 10), float64] */, dtype="float64") /* ty=Tensor[(9, 7, 10), float64] */;
  %2524 = @func_1511() /* ty=(Tensor[(2, 6, 11), float64],) */;
  %2525 = exp(%2523) /* ty=Tensor[(9, 7, 10), float64] */;
  %2526 = %2524.0;
  (%2525, %2526)
}

def @func_2013() -> (Tensor[(2, 6, 11), float64],) {
  %2527 = @func_626() /* ty=(Tensor[(2, 6, 11), float64],) */;
  %2528 = %2527.0;
  (%2528,)
}

def @func_21345() -> (Tensor[(2, 6, 11), float64],) {
  %2529 = @func_418() /* ty=Tensor[(2, 6, 11), float64] */;
  (%2529,)
}

def @func_6576() -> (Tensor[(2, 6, 11), float64], Tensor[(2, 6, 11), float64]) {
  @func_6574() /* ty=(Tensor[(2, 6, 11), float64], Tensor[(2, 6, 11), float64]) */
}

def @func_31184() -> Tensor[(2, 6, 11), float64] {
  %2530 = @func_20898() /* ty=(Tensor[(2, 6, 11), float64],) */;
  %2530.0
}

def @func_9914() -> (Tensor[(2, 6, 11), float64],) {
  %2533 = fn () -> (Tensor[(2, 6, 11), float64],) {
    %2531 = @func_8728() /* ty=(Tensor[(2, 6, 11), float64], Tensor[(9, 1), float64], float64, Tensor[(2, 6, 11), float64], Tensor[(2, 6, 11), float64], Tensor[(2, 6, 11), float64]) */;
    %2532 = %2531.3;
    (%2532,)
  };
  %2533() /* ty=(Tensor[(2, 6, 11), float64],) */
}

def @func_30708() -> Tensor[(2, 6, 11), float64] {
  @func_7399() /* ty=Tensor[(2, 6, 11), float64] */
}

def @func_1330() -> (Tensor[(2, 6, 11), float64], Tensor[(2, 6, 11), float64], Tensor[(2, 6, 11), float64]) {
  %2534 = @func_626() /* ty=(Tensor[(2, 6, 11), float64],) */;
  %2535 = @func_626() /* ty=(Tensor[(2, 6, 11), float64],) */;
  %2536 = @func_418() /* ty=Tensor[(2, 6, 11), float64] */;
  %2537 = %2534.0;
  %2538 = %2535.0;
  (%2536, %2537, %2538)
}

def @func_27459() -> (Tensor[(2, 6, 11), float64],) {
  %2541 = fn () -> (Tensor[(2, 6, 11), float64],) {
    %2539 = @func_11195() /* ty=(Tensor[(2, 6, 11), float64], Tensor[(2, 6, 11), float64]) */;
    %2540 = %2539.0;
    (%2540,)
  };
  %2541() /* ty=(Tensor[(2, 6, 11), float64],) */
}

def @func_7278() -> Tensor[(2, 6, 11), float64] {
  %2543 = fn () -> Tensor[(2, 6, 11), float64] {
    %2542 = @func_5595() /* ty=(Tensor[(2, 6, 11), float64], Tensor[(2, 6, 11), float64]) */;
    %2542.1
  };
  %2543() /* ty=Tensor[(2, 6, 11), float64] */
}

/* For debugging purposes the metadata section has been omitted.
 * If you would like to see the full metadata section you can set the 
 * option to `True` when invoking `astext`. 
 */
===================================
Traceback (most recent call last):
  File "/home/yujunzhe/Hirgen_generated/tvm0.8_test/HirGen818/build/output.py", line 10211, in <module>
    graph, lib, params = relay.build(mod, target='llvm')
  File "/home/yujunzhe/tvm/python/tvm/relay/build_module.py", line 369, in build
    executor_config, runtime_mod, params = bld_mod.build(
  File "/home/yujunzhe/tvm/python/tvm/relay/build_module.py", line 177, in build
    self._build(mod, target, target_host, executor, mod_name)
  File "/home/yujunzhe/tvm/python/tvm/_ffi/_ctypes/packed_func.py", line 237, in __call__
    raise get_last_ffi_error()
tvm._ffi.base.TVMError: Traceback (most recent call last):
  79: TVMFuncCall
  78: std::_Function_handler<void (tvm::runtime::TVMArgs, tvm::runtime::TVMRetValue*), tvm::relay::backend::RelayBuildModule::GetFunction(std::__cxx11::basic_string<char, std::char_traits<char>, std::allocator<char> > const&, tvm::runtime::ObjectPtr<tvm::runtime::Object> const&)::{lambda(tvm::runtime::TVMArgs, tvm::runtime::TVMRetValue*)#3}>::_M_invoke(std::_Any_data const&, tvm::runtime::TVMArgs&&, tvm::runtime::TVMRetValue*&&)
  77: tvm::relay::backend::RelayBuildModule::BuildRelay(tvm::IRModule, std::unordered_map<std::__cxx11::basic_string<char, std::char_traits<char>, std::allocator<char> >, tvm::runtime::NDArray, std::hash<std::__cxx11::basic_string<char, std::char_traits<char>, std::allocator<char> > >, std::equal_to<std::__cxx11::basic_string<char, std::char_traits<char>, std::allocator<char> > >, std::allocator<std::pair<std::__cxx11::basic_string<char, std::char_traits<char>, std::allocator<char> > const, tvm::runtime::NDArray> > > const&, tvm::runtime::String)
  76: tvm::relay::backend::RelayBuildModule::OptimizeImpl(tvm::IRModule, std::unordered_map<std::__cxx11::basic_string<char, std::char_traits<char>, std::allocator<char> >, tvm::runtime::NDArray, std::hash<std::__cxx11::basic_string<char, std::char_traits<char>, std::allocator<char> > >, std::equal_to<std::__cxx11::basic_string<char, std::char_traits<char>, std::allocator<char> > >, std::allocator<std::pair<std::__cxx11::basic_string<char, std::char_traits<char>, std::allocator<char> > const, tvm::runtime::NDArray> > > const&)
  75: tvm::transform::Pass::operator()(tvm::IRModule) const
  74: tvm::transform::Pass::operator()(tvm::IRModule, tvm::transform::PassContext const&) const
  73: tvm::transform::SequentialNode::operator()(tvm::IRModule, tvm::transform::PassContext const&) const
  72: tvm::transform::Pass::operator()(tvm::IRModule, tvm::transform::PassContext const&) const
  71: tvm::relay::transform::FunctionPassNode::operator()(tvm::IRModule, tvm::transform::PassContext const&) const
  70: std::_Function_handler<void (tvm::runtime::TVMArgs, tvm::runtime::TVMRetValue*), tvm::runtime::TypedPackedFunc<tvm::relay::Function (tvm::relay::Function, tvm::IRModule, tvm::transform::PassContext)>::AssignTypedLambda<tvm::relay::transform::DynamicToStatic()::{lambda(tvm::relay::Function, tvm::IRModule, tvm::transform::PassContext)#1}>(tvm::relay::transform::DynamicToStatic()::{lambda(tvm::relay::Function, tvm::IRModule, tvm::transform::PassContext)#1})::{lambda(tvm::runtime::TVMArgs const&, tvm::runtime::TVMRetValue*)#1}>::_M_invoke(std::_Any_data const&, tvm::runtime::TVMArgs&&, tvm::runtime::TVMRetValue*&&)
  69: tvm::relay::DynamicToStatic(tvm::relay::Function, tvm::IRModule)
  68: tvm::relay::DynamicToStaticMutator::PrepareInput(tvm::RelayExpr const&)
  67: tvm::transform::Pass::operator()(tvm::IRModule) const
  66: tvm::transform::Pass::operator()(tvm::IRModule, tvm::transform::PassContext const&) const
  65: tvm::relay::transform::FunctionPassNode::operator()(tvm::IRModule, tvm::transform::PassContext const&) const
  64: std::_Function_handler<void (tvm::runtime::TVMArgs, tvm::runtime::TVMRetValue*), tvm::runtime::TypedPackedFunc<tvm::relay::Function (tvm::relay::Function, tvm::IRModule, tvm::transform::PassContext)>::AssignTypedLambda<tvm::relay::transform::FoldConstant()::{lambda(tvm::relay::Function, tvm::IRModule, tvm::transform::PassContext)#1}>(tvm::relay::transform::FoldConstant()::{lambda(tvm::relay::Function, tvm::IRModule, tvm::transform::PassContext)#1})::{lambda(tvm::runtime::TVMArgs const&, tvm::runtime::TVMRetValue*)#1}>::_M_invoke(std::_Any_data const&, tvm::runtime::TVMArgs&&, tvm::runtime::TVMRetValue*&&)
  63: tvm::relay::transform::FoldConstantExpr(tvm::RelayExpr const&, tvm::IRModule const&)
  62: tvm::relay::MixedModeMutator::VisitExpr(tvm::RelayExpr const&)
  61: tvm::relay::MixedModeMutator::VisitLeaf(tvm::RelayExpr const&)
  60: _ZN3tvm5relay1
  59: tvm::relay::ExprMutator::VisitExpr(tvm::RelayExpr const&)
  58: tvm::relay::ExprFunctor<tvm::RelayExpr (tvm::RelayExpr const&)>::VisitExpr(tvm::RelayExpr const&)
  57: _ZZN3tvm5relay11ExprFunc
  56: tvm::relay::transform::(anonymous namespace)::ConstantFolder::VisitExpr_(tvm::relay::FunctionNode const*)
  55: tvm::relay::ExprMutator::VisitExpr_(tvm::relay::FunctionNode const*)
  54: tvm::relay::MixedModeMutator::VisitExpr(tvm::RelayExpr const&)
  53: tvm::relay::MixedModeMutator::VisitLeaf(tvm::RelayExpr const&)
  52: _ZN3tvm5relay1
  51: tvm::relay::ExprMutator::VisitExpr(tvm::RelayExpr const&)
  50: tvm::relay::ExprFunctor<tvm::RelayExpr (tvm::RelayExpr const&)>::VisitExpr(tvm::RelayExpr const&)
  49: _ZZN3tvm5relay11ExprFunc
  48: tvm::relay::MixedModeMutator::VisitExpr_(tvm::relay::CallNode const*)
  47: tvm::relay::transform::(anonymous namespace)::ConstantFolder::Rewrite_(tvm::relay::CallNode const*, tvm::RelayExpr const&)
  46: tvm::relay::transform::(anonymous namespace)::ConstantFolder::ConstEvaluate(tvm::RelayExpr const&)
  45: tvm::relay::Eval(tvm::RelayExpr, tvm::runtime::Map<tvm::GlobalTypeVar, tvm::TypeData, void, void>, std::unordered_set<tvm::runtime::String, std::hash<tvm::runtime::String>, std::equal_to<tvm::runtime::String>, std::allocator<tvm::runtime::String> >, DLDevice, tvm::Target)
  44: tvm::relay::Prepare(tvm::IRModule, tvm::CompilationConfig)
  43: tvm::transform::Pass::operator()(tvm::IRModule) const
  42: tvm::transform::Pass::operator()(tvm::IRModule, tvm::transform::PassContext const&) const
  41: tvm::transform::SequentialNode::operator()(tvm::IRModule, tvm::transform::PassContext const&) const
  40: tvm::transform::Pass::operator()(tvm::IRModule, tvm::transform::PassContext const&) const
  39: tvm::transform::SequentialNode::operator()(tvm::IRModule, tvm::transform::PassContext const&) const
  38: tvm::transform::Pass::operator()(tvm::IRModule, tvm::transform::PassContext const&) const
  37: tvm::transform::ModulePassNode::operator()(tvm::IRModule, tvm::transform::PassContext const&) const
  36: std::_Function_handler<void (tvm::runtime::TVMArgs, tvm::runtime::TVMRetValue*), tvm::runtime::TypedPackedFunc<tvm::IRModule (tvm::IRModule, tvm::transform::PassContext)>::AssignTypedLambda<tvm::relay::tec::LowerTEPass(std::unordered_map<DLDeviceType, tvm::Target, tvm::relay::backend::EnumClassHash, std::equal_to<DLDeviceType>, std::allocator<std::pair<DLDeviceType const, tvm::Target> > >, tvm::runtime::String const&, std::function<void (tvm::relay::Function)>)::{lambda(tvm::IRModule, tvm::transform::PassContext)#1}>(tvm::relay::tec::LowerTEPass(std::unordered_map<DLDeviceType, tvm::Target, tvm::relay::backend::EnumClassHash, std::equal_to<DLDeviceType>, std::allocator<std::pair<DLDeviceType const, tvm::Target> > >, tvm::runtime::String const&, std::function<void (tvm::relay::Function)>)::{lambda(tvm::IRModule, tvm::transform::PassContext)#1})::{lambda(tvm::runtime::TVMArgs const&, tvm::runtime::TVMRetValue*)#1}>::_M_invoke(std::_Any_data const&, tvm::runtime::TVMArgs&&, tvm::runtime::TVMRetValue*&&)
  35: tvm::relay::tec::LowerTE(tvm::IRModule const&, std::unordered_map<DLDeviceType, tvm::Target, tvm::relay::backend::EnumClassHash, std::equal_to<DLDeviceType>, std::allocator<std::pair<DLDeviceType const, tvm::Target> > >, tvm::runtime::String const&, std::function<void (tvm::relay::Function)>)
  34: tvm::transform::Pass::operator()(tvm::IRModule) const
  33: tvm::transform::Pass::operator()(tvm::IRModule, tvm::transform::PassContext const&) const
  32: tvm::relay::transform::FunctionPassNode::operator()(tvm::IRModule, tvm::transform::PassContext const&) const
  31: tvm::runtime::TypedPackedFunc<tvm::relay::Function (tvm::relay::Function, tvm::IRModule, tvm::transform::PassContext)>::AssignTypedLambda<tvm::relay::tec::LowerTensorExpr(std::unordered_map<DLDeviceType, tvm::Target, tvm::relay::backend::EnumClassHash, std::equal_to<DLDeviceType>, std::allocator<std::pair<DLDeviceType const, tvm::Target> > >, tvm::runtime::String const&, tvm::relay::tec::TECompiler, std::function<void (tvm::relay::Function)>)::{lambda(tvm::relay::Function, tvm::IRModule, tvm::transform::PassContext)#1}>(tvm::relay::tec::LowerTensorExpr(std::unordered_map<DLDeviceType, tvm::Target, tvm::relay::backend::EnumClassHash, std::equal_to<DLDeviceType>, std::allocator<std::pair<DLDeviceType const, tvm::Target> > >, tvm::runtime::String const&, tvm::relay::tec::TECompiler, std::function<void (tvm::relay::Function)>)::{lambda(tvm::relay::Function, tvm::IRModule, tvm::transform::PassContext)#1})::{lambda(tvm::runtime::TVMArgs const&, tvm::runtime::TVMRetValue*)#1}::operator()(tvm::runtime::TVMArgs const&, tvm::runtime::TVMRetValue*) const
  30: tvm::relay::ExprMutator::VisitExpr(tvm::RelayExpr const&)
  29: tvm::relay::ExprFunctor<tvm::RelayExpr (tvm::RelayExpr const&)>::VisitExpr(tvm::RelayExpr const&)
  28: _ZZN3tvm5relay11ExprFunc
  27: tvm::relay::transform::DeviceAwareExprMutator::VisitExpr_(tvm::relay::FunctionNode const*)
  26: tvm::relay::tec::LowerTensorExprMutator::DeviceAwareVisitExpr_(tvm::relay::FunctionNode const*)
  25: _ZN3tvm5relay9
  24: tvm::relay::ExprMutator::VisitExpr_(tvm::relay::FunctionNode const*)
  23: tvm::relay::ExprMutator::VisitExpr(tvm::RelayExpr const&)
  22: tvm::relay::ExprFunctor<tvm::RelayExpr (tvm::RelayExpr const&)>::VisitExpr(tvm::RelayExpr const&)
  21: _ZZN3tvm5relay11ExprFunc
  20: tvm::relay::transform::DeviceAwareExprMutator::VisitExpr_(tvm::relay::LetNode const*)
  19: tvm::relay::tec::LowerTensorExprMutator::PreVisitLetBinding_(tvm::relay::Var const&, tvm::RelayExpr const&)
  18: tvm::relay::ExprMutator::VisitExpr(tvm::RelayExpr const&)
  17: tvm::relay::ExprFunctor<tvm::RelayExpr (tvm::RelayExpr const&)>::VisitExpr(tvm::RelayExpr const&)
  16: _ZZN3tvm5relay11ExprFunc
  15: tvm::relay::transform::DeviceAwareExprMutator::VisitExpr_(tvm::relay::CallNode const*)
  14: tvm::relay::ExprMutator::VisitExpr(tvm::RelayExpr const&)
  13: tvm::relay::ExprFunctor<tvm::RelayExpr (tvm::RelayExpr const&)>::VisitExpr(tvm::RelayExpr const&)
  12: _ZZN3tvm5relay11ExprFunc
  11: tvm::relay::transform::DeviceAwareExprMutator::VisitExpr_(tvm::relay::CallNode const*)
  10: tvm::relay::tec::LowerTensorExprMutator::DeviceAwareVisitExpr_(tvm::relay::CallNode const*)
  9: tvm::relay::tec::LowerTensorExprMutator::MakeLoweredCall(tvm::relay::Function, tvm::runtime::Array<tvm::RelayExpr, void>, tvm::runtime::Array<tvm::Type, void>, tvm::Span, tvm::Target)
  8: tvm::relay::tec::TECompilerImpl::LowerShapeFuncInternal(tvm::relay::tec::CCacheKey const&)
  7: tvm::relay::tec::ShapeFuncFor(tvm::relay::Function const&, tvm::Target const&, std::function<std::__cxx11::basic_string<char, std::char_traits<char>, std::allocator<char> > (std::__cxx11::basic_string<char, std::char_traits<char>, std::allocator<char> >)>)
  6: tvm::relay::tec::MakeShapeFunc::Create(tvm::relay::Function const&, tvm::Target const&, std::function<std::__cxx11::basic_string<char, std::char_traits<char>, std::allocator<char> > (std::__cxx11::basic_string<char, std::char_traits<char>, std::allocator<char> >)>)
  5: tvm::relay::tec::MakeShapeFunc::VisitExpr(tvm::RelayExpr const&)
  4: tvm::relay::backend::MemoizedExprTranslator<tvm::runtime::Array<tvm::te::Tensor, void> >::VisitExpr(tvm::RelayExpr const&)
  3: tvm::relay::ExprFunctor<tvm::runtime::Array<tvm::te::Tensor, void> (tvm::RelayExpr const&)>::VisitExpr(tvm::RelayExpr const&)
  2: _ZZN3tvm5relay11ExprFunc
  1: tvm::relay::tec::MakeShapeFunc::VisitExpr_(tvm::relay::CallNode const*)
  0: std::_Function_handler<void (tvm::runtime::TVMArgs, tvm::runtime::TVMRetValue*), TVMFuncCreateFromCFunc::{lambda(tvm::runtime::TVMArgs, tvm::runtime::TVMRetValue*)#2}>::_M_invoke(std::_Any_data const&, tvm::runtime::TVMArgs&&, tvm::runtime::TVMRetValue*&&) [clone .cold]
  File "/home/yujunzhe/tvm/python/tvm/_ffi/_ctypes/packed_func.py", line 81, in cfun
    rv = local_pyfunc(*pyargs)
  File "/home/yujunzhe/tvm/python/tvm/relay/op/dyn/_transform.py", line 92, in dynamic_reshape_shape_func
    return [_reshape_shape_func_input_data(*inputs, out_ndims[0])]
  File "/home/yujunzhe/.local/lib/python3.9/site-packages/decorator.py", line 232, in fun
    return caller(func, *(extras + args), **kw)
  File "/home/yujunzhe/tvm/python/tvm/te/hybrid/__init__.py", line 60, in wrapped_func
    return source_to_op(src, args, func.__globals__, closure_vars)
  File "/home/yujunzhe/tvm/python/tvm/te/hybrid/parser.py", line 634, in source_to_op
    parser = parse_python(src, args, symbols, closure_vars)
  File "/home/yujunzhe/tvm/python/tvm/te/hybrid/parser.py", line 604, in parse_python
    parser.parsed_body = parser.visit(root)
  File "/home/yujunzhe/anaconda3/envs/tvm0.8/lib/python3.9/ast.py", line 409, in visit
    return visitor(node)
  File "/home/yujunzhe/tvm/python/tvm/te/hybrid/parser.py", line 229, in visit_Module
    return self.visit(node.body[0])
  File "/home/yujunzhe/anaconda3/envs/tvm0.8/lib/python3.9/ast.py", line 409, in visit
    return visitor(node)
  File "/home/yujunzhe/tvm/python/tvm/te/hybrid/parser.py", line 242, in visit_FunctionDef
    res = visit_list_to_block(self.visit, node.body)
  File "/home/yujunzhe/tvm/python/tvm/te/hybrid/parser.py", line 58, in visit_list_to_block
    lst = [visit(stmt) for stmt in lst if not utils.is_docstring(stmt)]
  File "/home/yujunzhe/tvm/python/tvm/te/hybrid/parser.py", line 58, in <listcomp>
    lst = [visit(stmt) for stmt in lst if not utils.is_docstring(stmt)]
  File "/home/yujunzhe/anaconda3/envs/tvm0.8/lib/python3.9/ast.py", line 409, in visit
    return visitor(node)
  File "/home/yujunzhe/tvm/python/tvm/te/hybrid/parser.py", line 506, in visit_For
    body = visit_list_to_block(self.visit, node.body)
  File "/home/yujunzhe/tvm/python/tvm/te/hybrid/parser.py", line 58, in visit_list_to_block
    lst = [visit(stmt) for stmt in lst if not utils.is_docstring(stmt)]
  File "/home/yujunzhe/tvm/python/tvm/te/hybrid/parser.py", line 58, in <listcomp>
    lst = [visit(stmt) for stmt in lst if not utils.is_docstring(stmt)]
  File "/home/yujunzhe/anaconda3/envs/tvm0.8/lib/python3.9/ast.py", line 409, in visit
    return visitor(node)
  File "/home/yujunzhe/tvm/python/tvm/te/hybrid/parser.py", line 419, in visit_If
    else_body = visit_list_to_block(self.visit, node.orelse)
  File "/home/yujunzhe/tvm/python/tvm/te/hybrid/parser.py", line 58, in visit_list_to_block
    lst = [visit(stmt) for stmt in lst if not utils.is_docstring(stmt)]
  File "/home/yujunzhe/tvm/python/tvm/te/hybrid/parser.py", line 58, in <listcomp>
    lst = [visit(stmt) for stmt in lst if not utils.is_docstring(stmt)]
  File "/home/yujunzhe/anaconda3/envs/tvm0.8/lib/python3.9/ast.py", line 409, in visit
    return visitor(node)
  File "/home/yujunzhe/tvm/python/tvm/te/hybrid/parser.py", line 406, in visit_If
    cond = self.analyzer.simplify(self.visit(node.test))
  File "/home/yujunzhe/anaconda3/envs/tvm0.8/lib/python3.9/ast.py", line 409, in visit
    return visitor(node)
  File "/home/yujunzhe/tvm/python/tvm/te/hybrid/parser.py", line 432, in visit_Compare
    ops = [self.visit(node.left)]
  File "/home/yujunzhe/anaconda3/envs/tvm0.8/lib/python3.9/ast.py", line 409, in visit
    return visitor(node)
  File "/home/yujunzhe/tvm/python/tvm/te/hybrid/parser.py", line 389, in visit_Subscript
    return tvm.tir.ProducerLoad(arr, args)
  File "/home/yujunzhe/tvm/python/tvm/tir/expr.py", line 1078, in __init__
    self.__init_handle_by_constructor__(
  File "/home/yujunzhe/tvm/python/tvm/_ffi/_ctypes/object.py", line 136, in __init_handle_by_constructor__
    handle = __init_by_constructor__(fconstructor, args)
  File "/home/yujunzhe/tvm/python/tvm/_ffi/_ctypes/packed_func.py", line 260, in __init_handle_by_constructor__
    raise get_last_ffi_error()
  3: TVMFuncCall
  2: std::_Function_handler<void (tvm::runtime::TVMArgs, tvm::runtime::TVMRetValue*), tvm::runtime::TypedPackedFunc<tvm::tir::ProducerLoad (tvm::tir::DataProducer, tvm::runtime::Array<tvm::PrimExpr, void>, tvm::Span)>::AssignTypedLambda<tvm::tir::__mk_TVM137::{lambda(tvm::tir::DataProducer, tvm::runtime::Array<tvm::PrimExpr, void>, tvm::Span)#1}>(tvm::tir::__mk_TVM137::{lambda(tvm::tir::DataProducer, tvm::runtime::Array<tvm::PrimExpr, void>, tvm::Span)#1}, std::__cxx11::basic_string<char, std::char_traits<char>, std::allocator<char> >)::{lambda(tvm::runtime::TVMArgs const&, tvm::runtime::TVMRetValue*)#1}>::_M_invoke(std::_Any_data const&, tvm::runtime::TVMArgs&&, tvm::runtime::TVMRetValue*&&)
  1: tvm::runtime::TVMMovableArgValueWithContext_::operator tvm::runtime::Array<tvm::PrimExpr, void><tvm::runtime::Array<tvm::PrimExpr, void> >() const
  0: _ZN3tvm7runtime6deta
  4: TVMFuncCall
  3: std::_Function_handler<void (tvm::runtime::TVMArgs, tvm::runtime::TVMRetValue*), tvm::runtime::TypedPackedFunc<tvm::tir::ProducerLoad (tvm::tir::DataProducer, tvm::runtime::Array<tvm::PrimExpr, void>, tvm::Span)>::AssignTypedLambda<tvm::tir::__mk_TVM137::{lambda(tvm::tir::DataProducer, tvm::runtime::Array<tvm::PrimExpr, void>, tvm::Span)#1}>(tvm::tir::__mk_TVM137::{lambda(tvm::tir::DataProducer, tvm::runtime::Array<tvm::PrimExpr, void>, tvm::Span)#1}, std::__cxx11::basic_string<char, std::char_traits<char>, std::allocator<char> >)::{lambda(tvm::runtime::TVMArgs const&, tvm::runtime::TVMRetValue*)#1}>::_M_invoke(std::_Any_data const&, tvm::runtime::TVMArgs&&, tvm::runtime::TVMRetValue*&&)
  2: tvm::runtime::TVMMovableArgValueWithContext_::operator tvm::runtime::Array<tvm::PrimExpr, void><tvm::runtime::Array<tvm::PrimExpr, void> >() const
  1: tvm::runtime::Array<tvm::PrimExpr, void> tvm::runtime::TVMPODValue_::AsObjectRef<tvm::runtime::Array<tvm::PrimExpr, void> >() const
  0: _ZN3tvm7runtime6deta
  File "/home/yujunzhe/tvm/include/tvm/runtime/packed_func.h", line 714
TVMError: In function tir.ProducerLoad: error while converting argument 1: [14:20:32] /home/yujunzhe/tvm/include/tvm/runtime/packed_func.h:1611: 
---------------------------------------------------------------
An error occurred during the execution of TVM.
For more information, please see: https://tvm.apache.org/docs/errors.html
---------------------------------------------------------------

  Check failed: type_code_ == kTVMObjectHandle (0 vs. 8) : expected Object but got int

