==========mod==========
#[version = "0.0.5"]
def @func_6708() -> (Tensor[(300), float32], Tensor[(?, 5, 15), float32], Tensor[(?, 5, 15), float32]) {
  %0 = @func_2719() /* ty=(Tensor[(?, 5, 15), int64], Tensor[(?, 5, 15), float32], Tensor[(300), float32]) */;
  %1 = @func_3738() /* ty=(Tensor[(?, 5, 15), float32], Tensor[(?, 5, 15), int64]) */;
  %2 = %0.2;
  %3 = %1.0;
  %4 = @func_6476() /* ty=Tensor[(?, 5, 15), float32] */;
  (%2, %3, %4)
}

def @func_4578() -> Tensor[(?, 5, 15), float32] {
  %5 = @func_923() /* ty=(Tensor[(?, 5, 15), float32],) */;
  %5.0
}

def @func_9608() -> (Tensor[(?, 5, 15), int64],) {
  %6 = @func_5202() /* ty=(Tensor[(5, 5, 15), bool], Tensor[(?, 5, 15), int64]) */;
  %7 = %6.1;
  (%7,)
}

def @func_3248() -> (Tensor[(?, 5, 15), int64], Tensor[(?, 5, 15), float32]) {
  %8 = @func_1016() /* ty=(Tensor[(?, 5, 15), float32], Tensor[(?, 5, 15), float32], Tensor[(?, 5, 15), int64]) */;
  %9 = @func_670() /* ty=(Tensor[(?, 5, 15), int64], Tensor[(?, 5, 15), float32]) */;
  %10 = %8.2;
  %11 = %9.1;
  (%10, %11)
}

def @func_6027() -> Tensor[(?, 5, 15), float64] {
  %12 = @func_3167() /* ty=(Tensor[(?, 5, 15), float64], Tensor[(?, 5, 15), float32], Tensor[(5, 5, 15), bool]) */;
  %12.0
}

def @func_5576() -> (Tensor[(?, 5, 15), float32],) {
  %13 = @func_4578() /* ty=Tensor[(?, 5, 15), float32] */;
  (%13,)
}

def @func_6476() -> Tensor[(?, 5, 15), float32] {
  %14 = @func_794() /* ty=(Tensor[(?, 5, 15), float32], Tensor[(?, 5, 15), int64]) */;
  %14.0
}

def @func_2201() -> Tensor[(?, 5, 15), int64] {
  %15 = @func_1133() /* ty=(Tensor[(?, 5, 15), float32], Tensor[(?, 5, 15), int64]) */;
  %15.1
}

def @func_6352(%var_6334: uint16) -> Tensor[(8, 10, 1), bool] {
  %16 = cast(%var_6334, dtype="bool") /* ty=bool */;
  %17 = cast(meta[relay.Constant][0] /* ty=Tensor[(8, 10, 1), uint16] */, dtype="bool") /* ty=Tensor[(8, 10, 1), bool] */;
  less_equal(%16, %17) /* ty=Tensor[(8, 10, 1), bool] */
}

def @func_4227() -> (Tensor[(5, 5, 15), bool], Tensor[(?, 5, 15), float64]) {
  %18 = @func_1500() /* ty=Tensor[(5, 5, 15), bool] */;
  %19 = @func_2810() /* ty=Tensor[(?, 5, 15), float64] */;
  (%18, %19)
}

def @func_5439(%var_5426: Tensor[(9, 4, 2), float32]) -> (Tensor[(9, 4, 2), float32], Tensor[(5, 5, 15), bool]) {
  %20 = cast(%var_5426, dtype="float32") /* ty=Tensor[(9, 4, 2), float32] */;
  %21 = @func_5202() /* ty=(Tensor[(5, 5, 15), bool], Tensor[(?, 5, 15), int64]) */;
  %22 = asinh(%20) /* ty=Tensor[(9, 4, 2), float32] */;
  %23 = %21.0;
  (%22, %23)
}

def @func_10362() -> (Tensor[(?, 5, 15), float32],) {
  %24 = @func_5880() /* ty=(Tensor[(?, 5, 15), float32], Tensor[(?, 5, 15), float32]) */;
  %25 = %24.0;
  (%25,)
}

def @func_12053(%var_12044: int64, %var_12045: Tensor[(1, 12, 1), int64]) -> Tensor[(1, 12, 1), int64] {
  %26 = cast(%var_12044, dtype="int64") /* ty=int64 */;
  %27 = cast(%var_12045, dtype="int64") /* ty=Tensor[(1, 12, 1), int64] */;
  bitwise_or(%26, %27) /* ty=Tensor[(1, 12, 1), int64] */
}

def @func_6400() -> (Tensor[(?, 5, 15), float32],) {
  %28 = @func_1109() /* ty=(Tensor[(?, 5, 15), float32], Tensor[(?, 5, 15), float32]) */;
  %29 = %28.0;
  (%29,)
}

def @func_2828() -> (Tensor[(?, 5, 15), float32], Tensor[(?, 5, 15), float32]) {
  %30 = @func_1109() /* ty=(Tensor[(?, 5, 15), float32], Tensor[(?, 5, 15), float32]) */;
  %31 = @func_944() /* ty=(Tensor[(?, 5, 15), float64], Tensor[(?, 5, 15), float32]) */;
  %32 = %30.0;
  %33 = %31.1;
  (%32, %33)
}

def @func_4071() -> (Tensor[(?, 5, 15), float64],) {
  %34 = @func_1529() /* ty=(Tensor[(?, 5, 15), float64],) */;
  %35 = %34.0;
  (%35,)
}

def @func_10442() -> (Tensor[(?, 5, 15), float64],) {
  %36 = @func_7946() /* ty=(Tensor[(?, 5, 15), float64],) */;
  %37 = %36.0;
  (%37,)
}

def @func_9746() -> (Tensor[(?, 5, 15), float64], Tensor[(?, 5, 15), int64]) {
  %38 = @func_4498() /* ty=(Tensor[(?, 5, 15), float32], Tensor[(?, 5, 15), float64]) */;
  %39 = @func_581() /* ty=(Tensor[(?, 5, 15), int64], Tensor[(?, 5, 15), uint16], Tensor[(?, 5, 15), int64]) */;
  %40 = %38.1;
  %41 = %39.0;
  (%40, %41)
}

def @func_1109() -> (Tensor[(?, 5, 15), float32], Tensor[(?, 5, 15), float32]) {
  %42 = @func_923() /* ty=(Tensor[(?, 5, 15), float32],) */;
  %43 = @func_374() /* ty=Tensor[(?, 5, 15), float32] */;
  %44 = %42.0;
  (%43, %44)
}

def @func_2114() -> Tensor[(?, 5, 15), float64] {
  %45 = @func_2034() /* ty=(Tensor[(?, 5, 15), float64], Tensor[(?, 5, 15), float32], Tensor[(?, 5, 15), float64]) */;
  %45.0
}

def @func_2285() -> (Tensor[(?, 5, 15), float64], Tensor[(?, 5, 15), float32]) {
  %46 = @func_1529() /* ty=(Tensor[(?, 5, 15), float64],) */;
  %47 = %46.0;
  %48 = @func_1946() /* ty=Tensor[(?, 5, 15), float32] */;
  (%47, %48)
}

def @func_3643() -> (Tensor[(?, 5, 15), float32], Tensor[(12, 6, 3), bool]) {
  %49 = @func_3248() /* ty=(Tensor[(?, 5, 15), int64], Tensor[(?, 5, 15), float32]) */;
  %50 = @func_1220() /* ty=(Tensor[(12, 6, 3), bool], Tensor[(36, 6), uint8], Tensor[(?, 5, 15), float32]) */;
  %51 = %49.1;
  %52 = %50.0;
  (%51, %52)
}

def @func_3167() -> (Tensor[(?, 5, 15), float64], Tensor[(?, 5, 15), float32], Tensor[(5, 5, 15), bool]) {
  %53 = @func_2034() /* ty=(Tensor[(?, 5, 15), float64], Tensor[(?, 5, 15), float32], Tensor[(?, 5, 15), float64]) */;
  %54 = @func_2913() /* ty=(Tensor[(36, 6), uint8], Tensor[(5, 5, 15), bool]) */;
  %55 = %53.2;
  %56 = @func_2243() /* ty=Tensor[(?, 5, 15), float32] */;
  %57 = %54.1;
  (%55, %56, %57)
}

def @func_4678() -> Tensor[(?, 5, 15), float64] {
  @func_4440() /* ty=Tensor[(?, 5, 15), float64] */
}

def @func_3931() -> Tensor[(?, 5, 15), float64] {
  @func_2146() /* ty=Tensor[(?, 5, 15), float64] */
}

def @func_9216() -> Tensor[(?, 5, 15), float64] {
  %58 = @func_4071() /* ty=(Tensor[(?, 5, 15), float64],) */;
  %58.0
}

def @func_6760() -> (Tensor[(9, 3, 14), float64], Tensor[(?, 5, 15), float64]) {
  %59 = @func_3852() /* ty=(Tensor[(9, 3, 14), float64], Tensor[(?, 5, 15), int64], Tensor[(?, 5, 15), float32]) */;
  %60 = @func_4756() /* ty=(Tensor[(?, 5, 15), float64],) */;
  %61 = %59.0;
  %62 = %60.0;
  (%61, %62)
}

def @func_11355(%var_11263: Tensor[(216, 1), uint8], %var_11324: Tensor[(216, 14), float64], %var_11333: Tensor[(216, 3), float64]) -> (Tensor[(?, 5, 15), float32], Tensor[(?, 5, 15), float32], Tensor[(3, 12), float32], Tensor[(?, 5, 15), float64], Tensor[(?, 5, 15), int64], Tensor[(?, 5, 15), float32], Tensor[(?, 5, 15), float32], Tensor[(216, 14), float32], Tensor[(216, 3), bool]) {
  %63 = cast(meta[relay.Constant][1] /* ty=Tensor[(3, 12), float32] */, dtype="float32") /* ty=Tensor[(3, 12), float32] */;
  %64 = cast(%var_11263, dtype="uint8") /* ty=Tensor[(216, 1), uint8] */;
  %65 = reshape(%63, newshape=[36]) /* ty=Tensor[(36), float32] */;
  %66 = reshape(%64, newshape=[216]) /* ty=Tensor[(216), uint8] */;
  %67 = @func_5410(%65, %66) /* ty=(Tensor[(?, 5, 15), uint16], Tensor[(?, 5, 15), float64], Tensor[(?, 5, 15), float32], Tensor[(?, 5, 15), float32], Tensor[(?, 5, 15), float64], Tensor[(450), float32], Tensor[(12, 3, 216), bool]) */;
  %68 = @func_6909() /* ty=(Tensor[(?, 5, 15), float64],) */;
  %69 = @func_670() /* ty=(Tensor[(?, 5, 15), int64], Tensor[(?, 5, 15), float32]) */;
  %70 = @func_9129() /* ty=(Tensor[(?, 5, 15), float32], Tensor[(?, 5, 15), float32]) */;
  %71 = @func_2034() /* ty=(Tensor[(?, 5, 15), float64], Tensor[(?, 5, 15), float32], Tensor[(?, 5, 15), float64]) */;
  %72 = cast(%var_11263, dtype="float32") /* ty=Tensor[(216, 1), float32] */;
  %73 = tan(%72) /* ty=Tensor[(216, 1), float32] */;
  %74 = cast(%73, dtype="float64") /* ty=Tensor[(216, 1), float64] */;
  %75 = cosh(%74) /* ty=Tensor[(216, 1), float64] */;
  %76 = cast(%75, dtype="float32") /* ty=Tensor[(216, 1), float32] */;
  %77 = cast(%var_11324, dtype="float32") /* ty=Tensor[(216, 14), float32] */;
  %78 = cast(%75, dtype="float64") /* ty=Tensor[(216, 1), float64] */;
  %79 = cos(%78) /* ty=Tensor[(216, 1), float64] */;
  %80 = cast(%79, dtype="float64") /* ty=Tensor[(216, 1), float64] */;
  %81 = cast(%var_11333, dtype="float64") /* ty=Tensor[(216, 3), float64] */;
  %82 = floor_mod(%80, %81) /* ty=Tensor[(216, 3), float64] */;
  %83 = cast(%var_11333, dtype="bool") /* ty=Tensor[(216, 3), bool] */;
  %84 = shape_of(%82, dtype="int32") /* ty=Tensor[(2), int32] */;
  %85 = cast(%82, dtype="bool") /* ty=Tensor[(216, 3), bool] */;
  %86 = dyn.reshape(%83, %84, newshape=[]) /* ty=Tensor[(?, ?), bool] */;
  %87 = @func_10550() /* ty=Tensor[(?, 5, 15), float32] */;
  %88 = %67.3;
  %89 = %68.0;
  %90 = %69.0;
  %91 = %70.0;
  %92 = %71.1;
  %93 = divide(%76, %77) /* ty=Tensor[(216, 14), float32] */;
  %94 = logical_and(%85, %86) /* ty=Tensor[(216, 3), bool] */;
  (%87, %88, meta[relay.Constant][1] /* ty=Tensor[(3, 12), float32] */, %89, %90, %91, %92, %93, %94)
}

def @func_7110() -> (Tensor[(?, 5, 15), float64],) {
  %95 = @func_6305() /* ty=(Tensor[(?, 5, 15), float64], Tensor[(?, 5, 15), float64], Tensor[(?, 5, 15), float64], Tensor[(?, 5, 15), uint16]) */;
  %96 = %95.2;
  (%96,)
}

def @func_5960() -> Tensor[(?, 5, 15), int64] {
  %97 = @func_2719() /* ty=(Tensor[(?, 5, 15), int64], Tensor[(?, 5, 15), float32], Tensor[(300), float32]) */;
  %97.0
}

def @func_10264() -> (Tensor[(?, 5, 15), float32], Tensor[(?, 5, 15), float32], Tensor[(?, 5, 15), int64]) {
  %98 = @func_8181() /* ty=(Tensor[(5, 5, 15), bool], Tensor[(?, 5, 15), float32], Tensor[(?, 5, 15), float64], Tensor[(?, 5, 15), float32], Tensor[(36, 6), bool]) */;
  %99 = %98.2;
  %100 = @func_3435() /* ty=Tensor[(?, 5, 15), float64] */;
  %101 = cast(%100, dtype="float32") /* ty=Tensor[(?, 5, 15), float32] */;
  %102 = shape_of(%99, dtype="int32") /* ty=Tensor[(3), int32] */;
  %103 = cast(%99, dtype="float32") /* ty=Tensor[(?, 5, 15), float32] */;
  %104 = dyn.reshape(%101, %102, newshape=[]) /* ty=Tensor[(?, ?, ?), float32] */;
  %105 = @func_3315() /* ty=(Tensor[(?, 5, 15), float32], Tensor[(12, 6, 3), bool]) */;
  %106 = @func_9608() /* ty=(Tensor[(?, 5, 15), int64],) */;
  %107 = mod(%103, %104) /* ty=Tensor[(?, 5, 15), float32] */;
  %108 = %105.0;
  %109 = %106.0;
  (%107, %108, %109)
}

def @func_13141() -> (Tensor[(?, 5, 15), float32],) {
  %110 = @func_7766() /* ty=(Tensor[(?, 5, 15), float32], Tensor[(?, 5, 15), float64], Tensor[(450), float32], Tensor[(?, 5, 15), float32]) */;
  %111 = %110.0;
  (%111,)
}

def @func_2146() -> Tensor[(?, 5, 15), float64] {
  %112 = @func_2034() /* ty=(Tensor[(?, 5, 15), float64], Tensor[(?, 5, 15), float32], Tensor[(?, 5, 15), float64]) */;
  %112.0
}

def @func_11059(%var_11054: Tensor[(36), float32]) -> (Tensor[(?, 5, 15), float64], Tensor[(36, 6), uint8], Tensor[(?, 5, 15), float32], Tensor[(12, 3, ?), int16], Tensor[(36), float32]) {
  %113 = @func_9501() /* ty=(Tensor[(?, 5, 15), float64],) */;
  %114 = @func_1220() /* ty=(Tensor[(12, 6, 3), bool], Tensor[(36, 6), uint8], Tensor[(?, 5, 15), float32]) */;
  %115 = @func_3248() /* ty=(Tensor[(?, 5, 15), int64], Tensor[(?, 5, 15), float32]) */;
  %116 = cast(%var_11054, dtype="float32") /* ty=Tensor[(36), float32] */;
  %117 = reshape(%116, newshape=[12, 3, 1]) /* ty=Tensor[(12, 3, 1), float32] */;
  %118 = @func_2890(%117) /* ty=(Tensor[(12, 3, ?), int16], Tensor[(12, 3, ?), bool]) */;
  %119 = %113.0;
  %120 = %114.1;
  %121 = %115.1;
  %122 = %118.0;
  (%119, %120, %121, %122, %var_11054)
}

def @func_12526() -> (Tensor[(?, 5, 15), float32], Tensor[(?, 5, 15), float32]) {
  %123 = @func_5141() /* ty=(Tensor[(?, 5, 15), float32], Tensor[(?, 5, 15), float32]) */;
  %124 = @func_4308() /* ty=(Tensor[(?, 5, 15), float32], Tensor[(?, 5, 15), float64], Tensor[(?, 5, 15), float32]) */;
  %125 = %123.1;
  %126 = %124.0;
  (%125, %126)
}

def @func_13413() -> (Tensor[(525), float64], Tensor[(?, 5, 15), float32]) {
  %127 = @func_9815() /* ty=(Tensor[(?, 5, 15), uint16], Tensor[(?, 5, 15), float64], Tensor[(525), float64]) */;
  %128 = @func_3248() /* ty=(Tensor[(?, 5, 15), int64], Tensor[(?, 5, 15), float32]) */;
  %129 = %127.2;
  %130 = %128.1;
  (%129, %130)
}

def @func_9086(%var_9050: Tensor[(14, 4, 6), float64]) -> (Tensor[(14, 4, 6), float64], Tensor[(?, 5, 15), float32]) {
  %131 = cast(%var_9050, dtype="float64") /* ty=Tensor[(14, 4, 6), float64] */;
  %132 = @func_4158() /* ty=(Tensor[(?, 5, 15), float32],) */;
  %133 = asin(%131) /* ty=Tensor[(14, 4, 6), float64] */;
  %134 = %132.0;
  (%133, %134)
}

def @func_9977(%var_9900: Tensor[(4, 3, 10), float32], %var_9916: Tensor[(4, 3, 10), float32]) -> (Tensor[(10, 10, 5), float32], Tensor[(5, 100), float32], Tensor[(?, 5, 15), float32], Tensor[(4, 3, 10), uint16], Tensor[(?, 5, 15), float32], Tensor[(4, 3, 10), float64], Tensor[(?, 5, 15), float64]) {
  %135 = cast(meta[relay.Constant][2] /* ty=Tensor[(5, 100), float32] */, dtype="float32") /* ty=Tensor[(5, 100), float32] */;
  %136 = reshape(%135, newshape=[10, 10, 5]) /* ty=Tensor[(10, 10, 5), float32] */;
  %137 = @func_3393(%136) /* ty=(Tensor[(10, 10, 5), float32], Tensor[(?, 5, 15), float64], Tensor[(?, 5, 15), float32], Tensor[(?, 5, 15), float64]) */;
  %138 = @func_5880() /* ty=(Tensor[(?, 5, 15), float32], Tensor[(?, 5, 15), float32]) */;
  %139 = cast(%var_9900, dtype="float32") /* ty=Tensor[(4, 3, 10), float32] */;
  %140 = exp(%139) /* ty=Tensor[(4, 3, 10), float32] */;
  %141 = cast(%var_9916, dtype="uint16") /* ty=Tensor[(4, 3, 10), uint16] */;
  %142 = shape_of(%140, dtype="int32") /* ty=Tensor[(3), int32] */;
  %143 = cast(%140, dtype="uint16") /* ty=Tensor[(4, 3, 10), uint16] */;
  %144 = dyn.reshape(%141, %142, newshape=[]) /* ty=Tensor[(?, ?, ?), uint16] */;
  %145 = @func_923() /* ty=(Tensor[(?, 5, 15), float32],) */;
  %146 = cast(%140, dtype="float32") /* ty=Tensor[(4, 3, 10), float32] */;
  %147 = acosh(%146) /* ty=Tensor[(4, 3, 10), float32] */;
  %148 = cast(%147, dtype="float64") /* ty=Tensor[(4, 3, 10), float64] */;
  %149 = shape_of(%var_9916, dtype="int32") /* ty=Tensor[(3), int32] */;
  %150 = cast(%var_9916, dtype="float64") /* ty=Tensor[(4, 3, 10), float64] */;
  %151 = dyn.reshape(%148, %149, newshape=[]) /* ty=Tensor[(?, ?, ?), float64] */;
  %152 = @func_9485() /* ty=(Tensor[(?, 5, 15), float32], Tensor[(?, 5, 15), float32], Tensor[(?, 5, 15), float64], Tensor[(?, 5, 15), float32], Tensor[(?, 5, 15), float64]) */;
  %153 = %137.0;
  %154 = %138.0;
  %155 = add(%143, %144) /* ty=Tensor[(4, 3, 10), uint16] */;
  %156 = %145.0;
  %157 = floor_divide(%150, %151) /* ty=Tensor[(4, 3, 10), float64] */;
  %158 = %152.2;
  (%153, meta[relay.Constant][2] /* ty=Tensor[(5, 100), float32] */, %154, %155, %156, %157, %158)
}

def @func_10955() -> (Tensor[(?, 5, 15), float32], Tensor[(?, 5, 15), float32], Tensor[(?, 5, 15), float32], Tensor[(?, 5, 15), int64]) {
  %159 = @func_6400() /* ty=(Tensor[(?, 5, 15), float32],) */;
  %160 = @func_7907() /* ty=Tensor[(?, 5, 15), float32] */;
  %161 = %159.0;
  %162 = @func_7185() /* ty=Tensor[(?, 5, 15), float32] */;
  %163 = @func_10679() /* ty=Tensor[(?, 5, 15), int64] */;
  (%160, %161, %162, %163)
}

def @func_581() -> (Tensor[(?, 5, 15), int64], Tensor[(?, 5, 15), uint16], Tensor[(?, 5, 15), int64]) {
  %164 = @func_374() /* ty=Tensor[(?, 5, 15), float32] */;
  %165 = @func_374() /* ty=Tensor[(?, 5, 15), float32] */;
  %166 = cast(%165, dtype="float64") /* ty=Tensor[(?, 5, 15), float64] */;
  %167 = shape_of(%164, dtype="int32") /* ty=Tensor[(3), int32] */;
  %168 = cast(%164, dtype="float64") /* ty=Tensor[(?, 5, 15), float64] */;
  %169 = dyn.reshape(%166, %167, newshape=[]) /* ty=Tensor[(?, ?, ?), float64] */;
  %170 = divide(%168, %169) /* ty=Tensor[(?, 5, 15), float64] */;
  %171 = cast(%164, dtype="int64") /* ty=Tensor[(?, 5, 15), int64] */;
  %172 = shape_of(%170, dtype="int32") /* ty=Tensor[(3), int32] */;
  %173 = cast(%170, dtype="int64") /* ty=Tensor[(?, 5, 15), int64] */;
  %174 = dyn.reshape(%171, %172, newshape=[]) /* ty=Tensor[(?, ?, ?), int64] */;
  %175 = cast(%164, dtype="uint16") /* ty=Tensor[(?, 5, 15), uint16] */;
  %176 = shape_of(%165, dtype="int32") /* ty=Tensor[(3), int32] */;
  %177 = cast(%165, dtype="uint16") /* ty=Tensor[(?, 5, 15), uint16] */;
  %178 = dyn.reshape(%175, %176, newshape=[]) /* ty=Tensor[(?, ?, ?), uint16] */;
  %179 = @func_374() /* ty=Tensor[(?, 5, 15), float32] */;
  %180 = cast(%179, dtype="float32") /* ty=Tensor[(?, 5, 15), float32] */;
  %181 = asin(%180) /* ty=Tensor[(?, 5, 15), float32] */;
  %182 = cast(%179, dtype="int64") /* ty=Tensor[(?, 5, 15), int64] */;
  %183 = shape_of(%181, dtype="int32") /* ty=Tensor[(3), int32] */;
  %184 = cast(%181, dtype="int64") /* ty=Tensor[(?, 5, 15), int64] */;
  %185 = dyn.reshape(%182, %183, newshape=[]) /* ty=Tensor[(?, ?, ?), int64] */;
  %186 = maximum(%173, %174) /* ty=Tensor[(?, 5, 15), int64] */;
  %187 = right_shift(%177, %178) /* ty=Tensor[(?, 5, 15), uint16] */;
  %188 = left_shift(%184, %185) /* ty=Tensor[(?, 5, 15), int64] */;
  (%186, %187, %188)
}

def @func_4554() -> Tensor[(?, 5, 15), float32] {
  %189 = @func_2780() /* ty=(Tensor[(?, 5, 15), float32],) */;
  %189.0
}

def @func_3534(%var_3512: Tensor[(6, 5, 15), float32]) -> (Tensor[(?, 5, 15), float64], Tensor[(6, 5, 15), float64], Tensor[(?, 5, 15), float64]) {
  %190 = @func_740() /* ty=(Tensor[(?, 5, 15), float64],) */;
  %191 = @func_923() /* ty=(Tensor[(?, 5, 15), float32],) */;
  %192 = %191.0;
  %193 = cast(%192, dtype="float64") /* ty=Tensor[(?, 5, 15), float64] */;
  %194 = cast(%var_3512, dtype="float64") /* ty=Tensor[(6, 5, 15), float64] */;
  %195 = @func_3086() /* ty=(Tensor[(?, 5, 15), float64], Tensor[(?, 5, 15), float64]) */;
  %196 = %190.0;
  %197 = divide(%193, %194) /* ty=Tensor[(6, 5, 15), float64] */;
  %198 = %195.0;
  (%196, %197, %198)
}

def @func_13864() -> (Tensor[(?, 5, 15), float32],) {
  %199 = @func_9406() /* ty=(Tensor[(?, 5, 15), float32], Tensor[(?, 5, 15), float32]) */;
  %200 = %199.0;
  (%200,)
}

def @func_13499() -> (Tensor[(?, 5, 15), float64], Tensor[(?, 5, 15), float64]) {
  %201 = @func_4889() /* ty=(Tensor[(5, 5, 15), bool], Tensor[(?, 5, 15), float64]) */;
  %202 = @func_2034() /* ty=(Tensor[(?, 5, 15), float64], Tensor[(?, 5, 15), float32], Tensor[(?, 5, 15), float64]) */;
  %203 = %201.1;
  %204 = %202.0;
  (%203, %204)
}

def @func_3738() -> (Tensor[(?, 5, 15), float32], Tensor[(?, 5, 15), int64]) {
  %205 = @func_3643() /* ty=(Tensor[(?, 5, 15), float32], Tensor[(12, 6, 3), bool]) */;
  %206 = @func_581() /* ty=(Tensor[(?, 5, 15), int64], Tensor[(?, 5, 15), uint16], Tensor[(?, 5, 15), int64]) */;
  %207 = %205.0;
  %208 = %206.2;
  (%207, %208)
}

def @func_944() -> (Tensor[(?, 5, 15), float64], Tensor[(?, 5, 15), float32]) {
  %209 = @func_740() /* ty=(Tensor[(?, 5, 15), float64],) */;
  %210 = @func_923() /* ty=(Tensor[(?, 5, 15), float32],) */;
  %211 = %209.0;
  %212 = %210.0;
  (%211, %212)
}

def @func_9501() -> (Tensor[(?, 5, 15), float64],) {
  %213 = @func_2810() /* ty=Tensor[(?, 5, 15), float64] */;
  (%213,)
}

def @func_8020() -> (Tensor[(?, 5, 15), float64],) {
  %214 = @func_5316() /* ty=(Tensor[(?, 5, 15), float64],) */;
  %215 = %214.0;
  (%215,)
}

def @func_7143() -> (Tensor[(?, 5, 15), bool],) {
  %216 = @func_2981() /* ty=Tensor[(?, 5, 15), float64] */;
  %217 = @func_3190() /* ty=(Tensor[(?, 5, 15), int64],) */;
  %218 = %217.0;
  %219 = cast(%218, dtype="bool") /* ty=Tensor[(?, 5, 15), bool] */;
  %220 = shape_of(%216, dtype="int32") /* ty=Tensor[(3), int32] */;
  %221 = cast(%216, dtype="bool") /* ty=Tensor[(?, 5, 15), bool] */;
  %222 = dyn.reshape(%219, %220, newshape=[]) /* ty=Tensor[(?, ?, ?), bool] */;
  %223 = not_equal(%221, %222) /* ty=Tensor[(?, 5, 15), bool] */;
  (%223,)
}

def @func_13315() -> (Tensor[(7, 5, 15), float64], Tensor[(?, 5, 15), float32]) {
  %224 = @func_3315() /* ty=(Tensor[(?, 5, 15), float32], Tensor[(12, 6, 3), bool]) */;
  %225 = @func_4825() /* ty=Tensor[(7, 5, 15), float64] */;
  %226 = %224.0;
  (%225, %226)
}

def @func_10629() -> Tensor[(?, 5, 15), float64] {
  %227 = @func_1406() /* ty=(Tensor[(?, 5, 15), float64],) */;
  %227.0
}

def @func_7087() -> Tensor[(?, 5, 15), float32] {
  %228 = @func_6645() /* ty=(Tensor[(?, 5, 15), float32], Tensor[(?, 5, 15), float32]) */;
  %228.1
}

def @func_12921(%var_12911: Tensor[(10, 30), float32]) -> (Tensor[(?, 5, 15), float32], Tensor[(300), float32], Tensor[(1008), float64], Tensor[(10, 30), float32]) {
  %229 = @func_8333() /* ty=(Tensor[(?, 5, 15), float32],) */;
  %230 = cast(meta[relay.Constant][3] /* ty=Tensor[(1008), float64] */, dtype="float64") /* ty=Tensor[(1008), float64] */;
  %231 = cast(%var_12911, dtype="float32") /* ty=Tensor[(10, 30), float32] */;
  %232 = reshape(%230, newshape=[9, 8, 14]) /* ty=Tensor[(9, 8, 14), float64] */;
  %233 = reshape(%231, newshape=[300]) /* ty=Tensor[(300), float32] */;
  %234 = @func_12809(%232, %233) /* ty=(Tensor[(9, 8, 14), float64], Tensor[(?, 5, 15), float64], Tensor[(300), float32], Tensor[(?, 5, 15), float32], Tensor[(?, 5, 15), float64]) */;
  %235 = %229.0;
  %236 = %234.2;
  (%235, %236, meta[relay.Constant][3] /* ty=Tensor[(1008), float64] */, %var_12911)
}

def @func_3315() -> (Tensor[(?, 5, 15), float32], Tensor[(12, 6, 3), bool]) {
  %237 = @func_944() /* ty=(Tensor[(?, 5, 15), float64], Tensor[(?, 5, 15), float32]) */;
  %238 = @func_1220() /* ty=(Tensor[(12, 6, 3), bool], Tensor[(36, 6), uint8], Tensor[(?, 5, 15), float32]) */;
  %239 = %237.1;
  %240 = %238.0;
  (%239, %240)
}

def @func_3219() -> (Tensor[(?, 5, 15), float64], Tensor[(?, 5, 15), float64]) {
  %241 = @func_3086() /* ty=(Tensor[(?, 5, 15), float64], Tensor[(?, 5, 15), float64]) */;
  %242 = @func_2810() /* ty=Tensor[(?, 5, 15), float64] */;
  %243 = %241.0;
  (%242, %243)
}

def @func_4158() -> (Tensor[(?, 5, 15), float32],) {
  %244 = @func_923() /* ty=(Tensor[(?, 5, 15), float32],) */;
  %245 = %244.0;
  (%245,)
}

def @func_5316() -> (Tensor[(?, 5, 15), float64],) {
  %246 = @func_4227() /* ty=(Tensor[(5, 5, 15), bool], Tensor[(?, 5, 15), float64]) */;
  %247 = %246.1;
  (%247,)
}

def @func_794() -> (Tensor[(?, 5, 15), float32], Tensor[(?, 5, 15), int64]) {
  %248 = @func_670() /* ty=(Tensor[(?, 5, 15), int64], Tensor[(?, 5, 15), float32]) */;
  %249 = @func_443() /* ty=Tensor[(?, 5, 15), float32] */;
  %250 = %248.0;
  (%249, %250)
}

def @func_7212(%var_7200: Tensor[(11, 5, 15), float64]) -> (Tensor[(?, 5, 15), float64], Tensor[(11, 5, 15), bool]) {
  %251 = @func_6592() /* ty=(Tensor[(?, 5, 15), float64],) */;
  %252 = @func_1984() /* ty=Tensor[(?, 5, 15), float64] */;
  %253 = cast(%252, dtype="bool") /* ty=Tensor[(?, 5, 15), bool] */;
  %254 = cast(%var_7200, dtype="bool") /* ty=Tensor[(11, 5, 15), bool] */;
  %255 = %251.0;
  %256 = not_equal(%253, %254) /* ty=Tensor[(11, 5, 15), bool] */;
  (%255, %256)
}

def @func_2810() -> Tensor[(?, 5, 15), float64] {
  %257 = @func_944() /* ty=(Tensor[(?, 5, 15), float64], Tensor[(?, 5, 15), float32]) */;
  %257.0
}

def @func_374() -> Tensor[(?, 5, 15), float32] {
  %258 = cast(meta[relay.Constant][4] /* ty=Tensor[(1, 5, 15), float64] */, dtype="float64") /* ty=Tensor[(1, 5, 15), float64] */;
  %259 = atan(%258) /* ty=Tensor[(1, 5, 15), float64] */;
  %260 = cast(meta[relay.Constant][4] /* ty=Tensor[(1, 5, 15), float64] */, dtype="int16") /* ty=Tensor[(1, 5, 15), int16] */;
  %261 = shape_of(%259, dtype="int32") /* ty=Tensor[(3), int32] */;
  %262 = cast(%259, dtype="int16") /* ty=Tensor[(1, 5, 15), int16] */;
  %263 = dyn.reshape(%260, %261, newshape=[]) /* ty=Tensor[(?, ?, ?), int16] */;
  %264 = logical_xor(%262, %263) /* ty=Tensor[(?, 5, 15), int16] */;
  %265 = cast(%264, dtype="float32") /* ty=Tensor[(?, 5, 15), float32] */;
  %266 = shape_of(%259, dtype="int32") /* ty=Tensor[(3), int32] */;
  %267 = cast(%259, dtype="float32") /* ty=Tensor[(1, 5, 15), float32] */;
  %268 = dyn.reshape(%265, %266, newshape=[]) /* ty=Tensor[(?, ?, ?), float32] */;
  minimum(%267, %268) /* ty=Tensor[(?, 5, 15), float32] */
}

def @func_5743(%var_5741: Tensor[(900), float32]) -> (Tensor[(?, 5, 15), float32], Tensor[(?, 5, 15), float64], Tensor[(900), float32]) {
  %269 = cast(%var_5741, dtype="float32") /* ty=Tensor[(900), float32] */;
  %270 = reshape(%269, newshape=[12, 5, 15]) /* ty=Tensor[(12, 5, 15), float32] */;
  %271 = @func_1676(%270) /* ty=(Tensor[(12, 5, 15), bool], Tensor[(?, 5, 15), float64]) */;
  %272 = @func_374() /* ty=Tensor[(?, 5, 15), float32] */;
  %273 = %271.1;
  (%272, %273, %var_5741)
}

def @func_6848() -> (Tensor[(?, 5, 15), float64], Tensor[(12, 6, 3), float64]) {
  %274 = @func_4227() /* ty=(Tensor[(5, 5, 15), bool], Tensor[(?, 5, 15), float64]) */;
  %275 = @func_1894() /* ty=(Tensor[(?, 5, 15), float64], Tensor[(?, 5, 15), int64], Tensor[(12, 6, 3), float64], Tensor[(?, 5, 15), float32]) */;
  %276 = %274.1;
  %277 = %275.2;
  (%276, %277)
}

def @func_10638() -> Tensor[(?, 5, 15), int64] {
  @func_2201() /* ty=Tensor[(?, 5, 15), int64] */
}

def @func_5243() -> (Tensor[(?, 5, 15), float32],) {
  %278 = @func_2828() /* ty=(Tensor[(?, 5, 15), float32], Tensor[(?, 5, 15), float32]) */;
  %279 = %278.1;
  (%279,)
}

def @func_1016() -> (Tensor[(?, 5, 15), float32], Tensor[(?, 5, 15), float32], Tensor[(?, 5, 15), int64]) {
  %280 = @func_794() /* ty=(Tensor[(?, 5, 15), float32], Tensor[(?, 5, 15), int64]) */;
  %281 = @func_794() /* ty=(Tensor[(?, 5, 15), float32], Tensor[(?, 5, 15), int64]) */;
  %282 = @func_794() /* ty=(Tensor[(?, 5, 15), float32], Tensor[(?, 5, 15), int64]) */;
  %283 = %280.0;
  %284 = %281.0;
  %285 = %282.1;
  (%283, %284, %285)
}

def @func_2275() -> (Tensor[(?, 5, 15), float64],) {
  %286 = @func_1529() /* ty=(Tensor[(?, 5, 15), float64],) */;
  %287 = %286.0;
  %288 = cast(%287, dtype="float64") /* ty=Tensor[(?, 5, 15), float64] */;
  %289 = log(%288) /* ty=Tensor[(?, 5, 15), float64] */;
  (%289,)
}

def @func_3688() -> Tensor[(?, 5, 15), float32] {
  @func_1549() /* ty=Tensor[(?, 5, 15), float32] */
}

def @func_12433() -> (Tensor[(?, 5, 15), float64], Tensor[(?, 5, 15), float64], Tensor[(?, 5, 15), float32]) {
  %290 = @func_10101() /* ty=(Tensor[(?, 5, 15), float32], Tensor[(?, 5, 15), float64], Tensor[(8, 16, 16), bool], Tensor[(?, 5, 15), float64], Tensor[(?, 5, 15), float32]) */;
  %291 = @func_740() /* ty=(Tensor[(?, 5, 15), float64],) */;
  %292 = @func_10101() /* ty=(Tensor[(?, 5, 15), float32], Tensor[(?, 5, 15), float64], Tensor[(8, 16, 16), bool], Tensor[(?, 5, 15), float64], Tensor[(?, 5, 15), float32]) */;
  %293 = %290.1;
  %294 = %291.0;
  %295 = %292.4;
  (%293, %294, %295)
}

def @func_13109(%var_13017: Tensor[(300), float32], %var_13078: uint16) -> (Tensor[(?, 5, 15), float64], Tensor[(1008), float64], Tensor[(300), float32], Tensor[(450), float32], Tensor[(7, 11, 2), float32], Tensor[(?, 5, 15), float64], Tensor[(?, 5, 15), float32], Tensor[(8, 10, 1), bool], uint16, Tensor[(154, 450), bool]) {
  %296 = @func_3219() /* ty=(Tensor[(?, 5, 15), float64], Tensor[(?, 5, 15), float64]) */;
  %297 = cast(%var_13017, dtype="float32") /* ty=Tensor[(300), float32] */;
  %298 = reshape(%297, newshape=[10, 30]) /* ty=Tensor[(10, 30), float32] */;
  %299 = @func_12921(%298) /* ty=(Tensor[(?, 5, 15), float32], Tensor[(300), float32], Tensor[(1008), float64], Tensor[(10, 30), float32]) */;
  %300 = @func_4111() /* ty=(Tensor[(?, 5, 15), float64], Tensor[(6, 5, 15), float64], Tensor[(450), float32]) */;
  %301 = cast(meta[relay.Constant][5] /* ty=Tensor[(154, 1), float32] */, dtype="float32") /* ty=Tensor[(154, 1), float32] */;
  %302 = reshape(%301, newshape=[7, 11, 2]) /* ty=Tensor[(7, 11, 2), float32] */;
  %303 = @func_2214(%302) /* ty=(Tensor[(7, 11, 2), float32],) */;
  %304 = @func_2034() /* ty=(Tensor[(?, 5, 15), float64], Tensor[(?, 5, 15), float32], Tensor[(?, 5, 15), float64]) */;
  %305 = @func_10117() /* ty=(Tensor[(?, 5, 15), float32],) */;
  %306 = cast(%var_13078, dtype="uint16") /* ty=uint16 */;
  %307 = reshape(%306, newshape=[]) /* ty=uint16 */;
  %308 = @func_7766() /* ty=(Tensor[(?, 5, 15), float32], Tensor[(?, 5, 15), float64], Tensor[(450), float32], Tensor[(?, 5, 15), float32]) */;
  %309 = %308.2;
  %310 = cast(meta[relay.Constant][5] /* ty=Tensor[(154, 1), float32] */, dtype="bool") /* ty=Tensor[(154, 1), bool] */;
  %311 = cast(%309, dtype="bool") /* ty=Tensor[(450), bool] */;
  %312 = %296.0;
  %313 = %299.2;
  %314 = %300.2;
  %315 = %303.0;
  %316 = %304.0;
  %317 = %305.0;
  %318 = @func_6352(%307) /* ty=Tensor[(8, 10, 1), bool] */;
  %319 = greater_equal(%310, %311) /* ty=Tensor[(154, 450), bool] */;
  (%312, %313, %var_13017, %314, %315, %316, %317, %318, %var_13078, %319)
}

def @func_12257() -> (Tensor[(?, 5, 15), float64], Tensor[(?, 5, 15), int64], Tensor[(216), float64]) {
  %320 = @func_10101() /* ty=(Tensor[(?, 5, 15), float32], Tensor[(?, 5, 15), float64], Tensor[(8, 16, 16), bool], Tensor[(?, 5, 15), float64], Tensor[(?, 5, 15), float32]) */;
  %321 = cast(meta[relay.Constant][6] /* ty=Tensor[(216), float64] */, dtype="float64") /* ty=Tensor[(216), float64] */;
  %322 = reshape(%321, newshape=[12, 6, 3]) /* ty=Tensor[(12, 6, 3), float64] */;
  %323 = @func_4406(%322) /* ty=(Tensor[(?, 5, 15), float64], Tensor[(12, 6, 3), uint32], Tensor[(?, 5, 15), int64]) */;
  %324 = %320.3;
  %325 = %323.2;
  (%324, %325, meta[relay.Constant][6] /* ty=Tensor[(216), float64] */)
}

def @func_443() -> Tensor[(?, 5, 15), float32] {
  @func_374() /* ty=Tensor[(?, 5, 15), float32] */
}

def @func_2981() -> Tensor[(?, 5, 15), float64] {
  %326 = @func_2275() /* ty=(Tensor[(?, 5, 15), float64],) */;
  %326.0
}

def @func_4889() -> (Tensor[(5, 5, 15), bool], Tensor[(?, 5, 15), float64]) {
  %327 = @func_3086() /* ty=(Tensor[(?, 5, 15), float64], Tensor[(?, 5, 15), float64]) */;
  %328 = @func_4008() /* ty=Tensor[(5, 5, 15), bool] */;
  %329 = %327.0;
  (%328, %329)
}

def @func_6141() -> (Tensor[(?, 5, 15), float64], Tensor[(?, 5, 15), float64]) {
  %330 = @func_4498() /* ty=(Tensor[(?, 5, 15), float32], Tensor[(?, 5, 15), float64]) */;
  %331 = @func_4111() /* ty=(Tensor[(?, 5, 15), float64], Tensor[(6, 5, 15), float64], Tensor[(450), float32]) */;
  %332 = %330.1;
  %333 = %331.0;
  (%332, %333)
}

def @func_8281() -> (Tensor[(?, 5, 15), float32], Tensor[(?, 5, 15), float32], Tensor[(?, 5, 15), float64]) {
  %334 = @func_2034() /* ty=(Tensor[(?, 5, 15), float64], Tensor[(?, 5, 15), float32], Tensor[(?, 5, 15), float64]) */;
  %335 = @func_3315() /* ty=(Tensor[(?, 5, 15), float32], Tensor[(12, 6, 3), bool]) */;
  %336 = @func_2651() /* ty=(Tensor[(?, 5, 15), float32], Tensor[(?, 5, 15), uint16], Tensor[(?, 5, 15), float64], Tensor[(?, 5, 15), float32], Tensor[(?, 5, 15), float64], Tensor[(?, 5, 15), float32], Tensor[(?, 5, 15), float64]) */;
  %337 = %334.1;
  %338 = %335.0;
  %339 = %336.6;
  (%337, %338, %339)
}

def @func_12675() -> (Tensor[(?, 5, 15), float64],) {
  %340 = @func_3435() /* ty=Tensor[(?, 5, 15), float64] */;
  (%340,)
}

def @func_2243() -> Tensor[(?, 5, 15), float32] {
  %341 = @func_923() /* ty=(Tensor[(?, 5, 15), float32],) */;
  %341.0
}

def @func_3086() -> (Tensor[(?, 5, 15), float64], Tensor[(?, 5, 15), float64]) {
  %342 = @func_1984() /* ty=Tensor[(?, 5, 15), float64] */;
  %343 = @func_2146() /* ty=Tensor[(?, 5, 15), float64] */;
  (%342, %343)
}

def @func_3479() -> Tensor[(?, 5, 15), float32] {
  %344 = @func_825() /* ty=(Tensor[(?, 5, 15), float32], Tensor[(?, 5, 15), float32]) */;
  %344.0
}

def @func_9137() -> Tensor[(?, 5, 15), float32] {
  @func_1549() /* ty=Tensor[(?, 5, 15), float32] */
}

def @func_11458(%var_11449: Tensor[(900), float32]) -> (Tensor[(7, 5, 15), bool], Tensor[(?, 5, 15), float64], Tensor[(12, 5, 15), bool], Tensor[(900), float32]) {
  %345 = @func_4825() /* ty=Tensor[(7, 5, 15), float64] */;
  %346 = @func_1109() /* ty=(Tensor[(?, 5, 15), float32], Tensor[(?, 5, 15), float32]) */;
  %347 = %346.0;
  %348 = cast(%345, dtype="bool") /* ty=Tensor[(7, 5, 15), bool] */;
  %349 = cast(%347, dtype="bool") /* ty=Tensor[(?, 5, 15), bool] */;
  %350 = cast(%347, dtype="float64") /* ty=Tensor[(?, 5, 15), float64] */;
  %351 = reshape(%350, newshape=[1, 5, 15]) /* ty=Tensor[(1, 5, 15), float64] */;
  %352 = @func_9369(%351) /* ty=(Tensor[(?, 5, 15), float64], Tensor[(?, 5, 15), float64], Tensor[(?, 5, 15), bool], Tensor[(?, 5, 15), float32]) */;
  %353 = cast(%var_11449, dtype="float32") /* ty=Tensor[(900), float32] */;
  %354 = reshape(%353, newshape=[12, 5, 15]) /* ty=Tensor[(12, 5, 15), float32] */;
  %355 = @func_1676(%354) /* ty=(Tensor[(12, 5, 15), bool], Tensor[(?, 5, 15), float64]) */;
  %356 = less_equal(%348, %349) /* ty=Tensor[(7, 5, 15), bool] */;
  %357 = %352.0;
  %358 = %355.0;
  (%356, %357, %358, %var_11449)
}

def @func_13279(%var_13272: Tensor[(8, 6, 8), float64]) -> Tensor[(8, 6, 8), float32] {
  %359 = cast(%var_13272, dtype="float64") /* ty=Tensor[(8, 6, 8), float64] */;
  %360 = tan(%359) /* ty=Tensor[(8, 6, 8), float64] */;
  %361 = cast(%360, dtype="float32") /* ty=Tensor[(8, 6, 8), float32] */;
  log(%361) /* ty=Tensor[(8, 6, 8), float32] */
}

def @func_7701(%var_7684: Tensor[(6, 5, 15), float32]) -> (Tensor[(?, 5, 15), float64], Tensor[(?, 5, 15), float64], Tensor[(?, 5, 15), float64], Tensor[(?, 5, 15), int64], Tensor[(6, 5, 15), float64], Tensor[(9, 3, 14), float64]) {
  %362 = @func_6909() /* ty=(Tensor[(?, 5, 15), float64],) */;
  %363 = @func_4227() /* ty=(Tensor[(5, 5, 15), bool], Tensor[(?, 5, 15), float64]) */;
  %364 = @func_740() /* ty=(Tensor[(?, 5, 15), float64],) */;
  %365 = @func_1894() /* ty=(Tensor[(?, 5, 15), float64], Tensor[(?, 5, 15), int64], Tensor[(12, 6, 3), float64], Tensor[(?, 5, 15), float32]) */;
  %366 = @func_4554() /* ty=Tensor[(?, 5, 15), float32] */;
  %367 = cast(%366, dtype="float32") /* ty=Tensor[(?, 5, 15), float32] */;
  %368 = sigmoid(%367) /* ty=Tensor[(?, 5, 15), float32] */;
  %369 = cast(%368, dtype="float64") /* ty=Tensor[(?, 5, 15), float64] */;
  %370 = cast(%var_7684, dtype="float64") /* ty=Tensor[(6, 5, 15), float64] */;
  %371 = @func_6760() /* ty=(Tensor[(9, 3, 14), float64], Tensor[(?, 5, 15), float64]) */;
  %372 = %362.0;
  %373 = %363.1;
  %374 = %364.0;
  %375 = %365.1;
  %376 = maximum(%369, %370) /* ty=Tensor[(6, 5, 15), float64] */;
  %377 = %371.0;
  (%372, %373, %374, %375, %376, %377)
}

def @func_8481() -> (Tensor[(?, 5, 15), int64], Tensor[(?, 5, 15), float64]) {
  %378 = @func_1016() /* ty=(Tensor[(?, 5, 15), float32], Tensor[(?, 5, 15), float32], Tensor[(?, 5, 15), int64]) */;
  %379 = @func_5517() /* ty=(Tensor[(?, 5, 15), float32], Tensor[(?, 5, 15), float64], Tensor[(?, 5, 15), float32]) */;
  %380 = %378.2;
  %381 = %379.1;
  (%380, %381)
}

def @func_2890(%var_2842: Tensor[(12, 3, 1), float32]) -> (Tensor[(12, 3, ?), int16], Tensor[(12, 3, ?), bool]) {
  %382 = cast(%var_2842, dtype="float32") /* ty=Tensor[(12, 3, 1), float32] */;
  %383 = cos(%382) /* ty=Tensor[(12, 3, 1), float32] */;
  %384 = cast(%var_2842, dtype="int16") /* ty=Tensor[(12, 3, 1), int16] */;
  %385 = shape_of(%383, dtype="int32") /* ty=Tensor[(3), int32] */;
  %386 = cast(%383, dtype="int16") /* ty=Tensor[(12, 3, 1), int16] */;
  %387 = dyn.reshape(%384, %385, newshape=[]) /* ty=Tensor[(?, ?, ?), int16] */;
  %388 = cast(%var_2842, dtype="float32") /* ty=Tensor[(12, 3, 1), float32] */;
  %389 = shape_of(%383, dtype="int32") /* ty=Tensor[(3), int32] */;
  %390 = cast(%383, dtype="float32") /* ty=Tensor[(12, 3, 1), float32] */;
  %391 = dyn.reshape(%388, %389, newshape=[]) /* ty=Tensor[(?, ?, ?), float32] */;
  %392 = mod(%390, %391) /* ty=Tensor[(12, 3, ?), float32] */;
  %393 = cast(%392, dtype="bool") /* ty=Tensor[(12, 3, ?), bool] */;
  %394 = shape_of(%var_2842, dtype="int32") /* ty=Tensor[(3), int32] */;
  %395 = cast(%var_2842, dtype="bool") /* ty=Tensor[(12, 3, 1), bool] */;
  %396 = dyn.reshape(%393, %394, newshape=[]) /* ty=Tensor[(?, ?, ?), bool] */;
  %397 = multiply(%386, %387) /* ty=Tensor[(12, 3, ?), int16] */;
  %398 = logical_or(%395, %396) /* ty=Tensor[(12, 3, ?), bool] */;
  (%397, %398)
}

def @func_2567() -> Tensor[(?, 5, 15), int64] {
  %399 = @func_670() /* ty=(Tensor[(?, 5, 15), int64], Tensor[(?, 5, 15), float32]) */;
  %399.0
}

def @func_4825() -> Tensor[(7, 5, 15), float64] {
  %400 = @func_3852() /* ty=(Tensor[(9, 3, 14), float64], Tensor[(?, 5, 15), int64], Tensor[(?, 5, 15), float32]) */;
  %401 = %400.2;
  %402 = cast(%401, dtype="float64") /* ty=Tensor[(?, 5, 15), float64] */;
  %403 = cast(meta[relay.Constant][7] /* ty=Tensor[(7, 5, 15), float32] */, dtype="float64") /* ty=Tensor[(7, 5, 15), float64] */;
  power(%402, %403) /* ty=Tensor[(7, 5, 15), float64] */
}

def @func_1500() -> Tensor[(5, 5, 15), bool] {
  %404 = @func_923() /* ty=(Tensor[(?, 5, 15), float32],) */;
  %405 = %404.0;
  %406 = cast(%405, dtype="bool") /* ty=Tensor[(?, 5, 15), bool] */;
  %407 = cast(meta[relay.Constant][8] /* ty=Tensor[(5, 5, 15), float32] */, dtype="bool") /* ty=Tensor[(5, 5, 15), bool] */;
  equal(%406, %407) /* ty=Tensor[(5, 5, 15), bool] */
}

def @func_11084() -> Tensor[(?, 5, 15), float32] {
  %408 = @func_10362() /* ty=(Tensor[(?, 5, 15), float32],) */;
  %408.0
}

def @func_8506() -> (Tensor[(?, 5, 15), float32],) {
  %409 = @func_6450() /* ty=(Tensor[(?, 5, 15), float32],) */;
  %410 = %409.0;
  (%410,)
}

def @func_7442() -> Tensor[(13, 5, 15), float32] {
  %411 = @func_2201() /* ty=Tensor[(?, 5, 15), int64] */;
  %412 = cast(%411, dtype="float32") /* ty=Tensor[(?, 5, 15), float32] */;
  %413 = cast(meta[relay.Constant][9] /* ty=Tensor[(13, 5, 15), int64] */, dtype="float32") /* ty=Tensor[(13, 5, 15), float32] */;
  floor_divide(%412, %413) /* ty=Tensor[(13, 5, 15), float32] */
}

def @func_4308() -> (Tensor[(?, 5, 15), float32], Tensor[(?, 5, 15), float64], Tensor[(?, 5, 15), float32]) {
  %414 = @func_3315() /* ty=(Tensor[(?, 5, 15), float32], Tensor[(12, 6, 3), bool]) */;
  %415 = @func_3086() /* ty=(Tensor[(?, 5, 15), float64], Tensor[(?, 5, 15), float64]) */;
  %416 = @func_3315() /* ty=(Tensor[(?, 5, 15), float32], Tensor[(12, 6, 3), bool]) */;
  %417 = %414.0;
  %418 = %415.1;
  %419 = %416.0;
  (%417, %418, %419)
}

def @func_12662() -> (Tensor[(?, 5, 15), float32],) {
  %420 = @func_6450() /* ty=(Tensor[(?, 5, 15), float32],) */;
  %421 = %420.0;
  (%421,)
}

def @func_6305() -> (Tensor[(?, 5, 15), float64], Tensor[(?, 5, 15), float64], Tensor[(?, 5, 15), float64], Tensor[(?, 5, 15), uint16]) {
  %422 = @func_4756() /* ty=(Tensor[(?, 5, 15), float64],) */;
  %423 = @func_740() /* ty=(Tensor[(?, 5, 15), float64],) */;
  %424 = @func_581() /* ty=(Tensor[(?, 5, 15), int64], Tensor[(?, 5, 15), uint16], Tensor[(?, 5, 15), int64]) */;
  %425 = @func_3931() /* ty=Tensor[(?, 5, 15), float64] */;
  %426 = %422.0;
  %427 = %423.0;
  %428 = %424.1;
  (%425, %426, %427, %428)
}

def @func_7526(%var_7511: Tensor[(216), uint8]) -> (Tensor[(?, 5, 15), float64], Tensor[(5, 5, 15), bool], Tensor[(12, 3, ?), int16], Tensor[(36), float32], Tensor[(?, 5, 15), float64], Tensor[(216), uint8], Tensor[(?, 5, 15), float64]) {
  %429 = @func_5202() /* ty=(Tensor[(5, 5, 15), bool], Tensor[(?, 5, 15), int64]) */;
  %430 = cast(meta[relay.Constant][10] /* ty=Tensor[(36), float32] */, dtype="float32") /* ty=Tensor[(36), float32] */;
  %431 = reshape(%430, newshape=[12, 3, 1]) /* ty=Tensor[(12, 3, 1), float32] */;
  %432 = @func_2890(%431) /* ty=(Tensor[(12, 3, ?), int16], Tensor[(12, 3, ?), bool]) */;
  %433 = cast(meta[relay.Constant][10] /* ty=Tensor[(36), float32] */, dtype="float32") /* ty=Tensor[(36), float32] */;
  %434 = cast(%var_7511, dtype="uint8") /* ty=Tensor[(216), uint8] */;
  %435 = reshape(%433, newshape=[36]) /* ty=Tensor[(36), float32] */;
  %436 = reshape(%434, newshape=[216]) /* ty=Tensor[(216), uint8] */;
  %437 = @func_5410(%435, %436) /* ty=(Tensor[(?, 5, 15), uint16], Tensor[(?, 5, 15), float64], Tensor[(?, 5, 15), float32], Tensor[(?, 5, 15), float32], Tensor[(?, 5, 15), float64], Tensor[(450), float32], Tensor[(12, 3, 216), bool]) */;
  %438 = @func_6305() /* ty=(Tensor[(?, 5, 15), float64], Tensor[(?, 5, 15), float64], Tensor[(?, 5, 15), float64], Tensor[(?, 5, 15), uint16]) */;
  %439 = @func_3435() /* ty=Tensor[(?, 5, 15), float64] */;
  %440 = %429.0;
  %441 = %432.0;
  %442 = %437.4;
  %443 = %438.1;
  (%439, %440, %441, meta[relay.Constant][10] /* ty=Tensor[(36), float32] */, %442, %var_7511, %443)
}

def @func_7605() -> (Tensor[(?, 5, 15), int64], Tensor[(?, 5, 15), float32], Tensor[(?, 5, 15), float32]) {
  %444 = @func_3738() /* ty=(Tensor[(?, 5, 15), float32], Tensor[(?, 5, 15), int64]) */;
  %445 = @func_6450() /* ty=(Tensor[(?, 5, 15), float32],) */;
  %446 = %444.1;
  %447 = %445.0;
  %448 = @func_6476() /* ty=Tensor[(?, 5, 15), float32] */;
  (%446, %447, %448)
}

def @func_12120(%var_12096: Tensor[(512), float32]) -> (Tensor[(512), float32], Tensor[(?, 5, 15), bool], Tensor[(3, 6, ?), bool]) {
  %449 = cast(%var_12096, dtype="float32") /* ty=Tensor[(512), float32] */;
  %450 = reshape(%449, newshape=[512]) /* ty=Tensor[(512), float32] */;
  %451 = @func_7333(%450) /* ty=(Tensor[(?, 5, 15), int64], Tensor[(?, 5, 15), float64], Tensor[(?, 5, 15), float64], Tensor[(9, 3, 14), float64], Tensor[(300), float32], Tensor[(?, 5, 15), float64], Tensor[(?, 5, 15), int64], Tensor[(8, 8, 8), float64]) */;
  %452 = %451.6;
  %453 = @func_3557() /* ty=(Tensor[(?, 5, 15), float64],) */;
  %454 = %453.0;
  %455 = cast(%454, dtype="bool") /* ty=Tensor[(?, 5, 15), bool] */;
  %456 = shape_of(%452, dtype="int32") /* ty=Tensor[(3), int32] */;
  %457 = cast(%452, dtype="bool") /* ty=Tensor[(?, 5, 15), bool] */;
  %458 = dyn.reshape(%455, %456, newshape=[]) /* ty=Tensor[(?, ?, ?), bool] */;
  %459 = cast(meta[relay.Constant][11] /* ty=Tensor[(3, 6, 1), float32] */, dtype="float32") /* ty=Tensor[(3, 6, 1), float32] */;
  %460 = log10(%459) /* ty=Tensor[(3, 6, 1), float32] */;
  %461 = cast(meta[relay.Constant][11] /* ty=Tensor[(3, 6, 1), float32] */, dtype="bool") /* ty=Tensor[(3, 6, 1), bool] */;
  %462 = shape_of(%460, dtype="int32") /* ty=Tensor[(3), int32] */;
  %463 = cast(%460, dtype="bool") /* ty=Tensor[(3, 6, 1), bool] */;
  %464 = dyn.reshape(%461, %462, newshape=[]) /* ty=Tensor[(?, ?, ?), bool] */;
  %465 = equal(%457, %458) /* ty=Tensor[(?, 5, 15), bool] */;
  %466 = less_equal(%463, %464) /* ty=Tensor[(3, 6, ?), bool] */;
  (%var_12096, %465, %466)
}

def @func_3824(%var_3790: Tensor[(1, 5, 15), float32]) -> (Tensor[(?, 5, 15), bool], Tensor[(8, 16, 16), bool]) {
  %467 = @func_1016() /* ty=(Tensor[(?, 5, 15), float32], Tensor[(?, 5, 15), float32], Tensor[(?, 5, 15), int64]) */;
  %468 = %467.1;
  %469 = cast(%var_3790, dtype="bool") /* ty=Tensor[(1, 5, 15), bool] */;
  %470 = shape_of(%468, dtype="int32") /* ty=Tensor[(3), int32] */;
  %471 = cast(%468, dtype="bool") /* ty=Tensor[(?, 5, 15), bool] */;
  %472 = dyn.reshape(%469, %470, newshape=[]) /* ty=Tensor[(?, ?, ?), bool] */;
  %473 = @func_3657() /* ty=(Tensor[(8, 16, 16), bool],) */;
  %474 = greater_equal(%471, %472) /* ty=Tensor[(?, 5, 15), bool] */;
  %475 = %473.0;
  (%474, %475)
}

def @func_9406() -> (Tensor[(?, 5, 15), float32], Tensor[(?, 5, 15), float32]) {
  %476 = @func_3738() /* ty=(Tensor[(?, 5, 15), float32], Tensor[(?, 5, 15), int64]) */;
  %477 = @func_5032() /* ty=(Tensor[(7, 5, 15), bool], Tensor[(?, 5, 15), float32], Tensor[(?, 5, 15), float32]) */;
  %478 = %476.0;
  %479 = %477.2;
  (%478, %479)
}

def @func_2330(%var_2309: Tensor[(4, 5, 15), float32]) -> (Tensor[(4, 5, 15), uint64], Tensor[(?, 5, 15), float32]) {
  %480 = @func_1220() /* ty=(Tensor[(12, 6, 3), bool], Tensor[(36, 6), uint8], Tensor[(?, 5, 15), float32]) */;
  %481 = %480.2;
  %482 = cast(%481, dtype="bool") /* ty=Tensor[(?, 5, 15), bool] */;
  %483 = cast(%var_2309, dtype="bool") /* ty=Tensor[(4, 5, 15), bool] */;
  %484 = logical_and(%482, %483) /* ty=Tensor[(4, 5, 15), bool] */;
  %485 = cast(%484, dtype="uint64") /* ty=Tensor[(4, 5, 15), uint64] */;
  %486 = cast(%481, dtype="uint64") /* ty=Tensor[(?, 5, 15), uint64] */;
  %487 = bitwise_and(%485, %486) /* ty=Tensor[(4, 5, 15), uint64] */;
  %488 = @func_374() /* ty=Tensor[(?, 5, 15), float32] */;
  (%487, %488)
}

def @func_6812() -> (Tensor[(8, 16, 16), bool], Tensor[(?, 5, 15), bool], Tensor[(12, 6, 3), bool]) {
  %489 = @func_3657() /* ty=(Tensor[(8, 16, 16), bool],) */;
  %490 = @func_3086() /* ty=(Tensor[(?, 5, 15), float64], Tensor[(?, 5, 15), float64]) */;
  %491 = %490.0;
  %492 = @func_5880() /* ty=(Tensor[(?, 5, 15), float32], Tensor[(?, 5, 15), float32]) */;
  %493 = %492.0;
  %494 = cast(%493, dtype="bool") /* ty=Tensor[(?, 5, 15), bool] */;
  %495 = shape_of(%491, dtype="int32") /* ty=Tensor[(3), int32] */;
  %496 = cast(%491, dtype="bool") /* ty=Tensor[(?, 5, 15), bool] */;
  %497 = dyn.reshape(%494, %495, newshape=[]) /* ty=Tensor[(?, ?, ?), bool] */;
  %498 = @func_1220() /* ty=(Tensor[(12, 6, 3), bool], Tensor[(36, 6), uint8], Tensor[(?, 5, 15), float32]) */;
  %499 = %489.0;
  %500 = logical_and(%496, %497) /* ty=Tensor[(?, 5, 15), bool] */;
  %501 = %498.0;
  (%499, %500, %501)
}

def @func_9485() -> (Tensor[(?, 5, 15), float32], Tensor[(?, 5, 15), float32], Tensor[(?, 5, 15), float64], Tensor[(?, 5, 15), float32], Tensor[(?, 5, 15), float64]) {
  %502 = @func_5488() /* ty=(Tensor[(?, 5, 15), float32], Tensor[(?, 5, 15), float32], Tensor[(?, 5, 15), float32]) */;
  %503 = @func_6551() /* ty=(Tensor[(?, 5, 15), float64],) */;
  %504 = @func_4498() /* ty=(Tensor[(?, 5, 15), float32], Tensor[(?, 5, 15), float64]) */;
  %505 = @func_4071() /* ty=(Tensor[(?, 5, 15), float64],) */;
  %506 = %502.0;
  %507 = @func_443() /* ty=Tensor[(?, 5, 15), float32] */;
  %508 = %503.0;
  %509 = %504.0;
  %510 = %505.0;
  (%506, %507, %508, %509, %510)
}

def @func_12306() -> (Tensor[(?, 5, 15), float32], Tensor[(?, 5, 15), float32], Tensor[(?, 5, 15), float64], Tensor[(?, 5, 15), float64]) {
  %511 = @func_6645() /* ty=(Tensor[(?, 5, 15), float32], Tensor[(?, 5, 15), float32]) */;
  %512 = @func_7110() /* ty=(Tensor[(?, 5, 15), float64],) */;
  %513 = @func_11212() /* ty=(Tensor[(?, 5, 15), float64], Tensor[(?, 5, 15), float32]) */;
  %514 = %511.0;
  %515 = @func_7087() /* ty=Tensor[(?, 5, 15), float32] */;
  %516 = %512.0;
  %517 = %513.0;
  (%514, %515, %516, %517)
}

def @func_11483() -> Tensor[(?, 5, 15), float32] {
  %518 = @func_8333() /* ty=(Tensor[(?, 5, 15), float32],) */;
  %518.0
}

def @func_5032() -> (Tensor[(7, 5, 15), bool], Tensor[(?, 5, 15), float32], Tensor[(?, 5, 15), float32]) {
  %519 = @func_4825() /* ty=Tensor[(7, 5, 15), float64] */;
  %520 = @func_1894() /* ty=(Tensor[(?, 5, 15), float64], Tensor[(?, 5, 15), int64], Tensor[(12, 6, 3), float64], Tensor[(?, 5, 15), float32]) */;
  %521 = %520.1;
  %522 = cast(%519, dtype="bool") /* ty=Tensor[(7, 5, 15), bool] */;
  %523 = cast(%521, dtype="bool") /* ty=Tensor[(?, 5, 15), bool] */;
  %524 = @func_3738() /* ty=(Tensor[(?, 5, 15), float32], Tensor[(?, 5, 15), int64]) */;
  %525 = greater_equal(%522, %523) /* ty=Tensor[(7, 5, 15), bool] */;
  %526 = @func_4554() /* ty=Tensor[(?, 5, 15), float32] */;
  %527 = %524.0;
  (%525, %526, %527)
}

def @func_1946() -> Tensor[(?, 5, 15), float32] {
  %528 = @func_923() /* ty=(Tensor[(?, 5, 15), float32],) */;
  %529 = %528.0;
  %530 = cast(%529, dtype="float32") /* ty=Tensor[(?, 5, 15), float32] */;
  sin(%530) /* ty=Tensor[(?, 5, 15), float32] */
}

def @func_6209() -> (Tensor[(?, 5, 15), int64],) {
  %531 = @func_3190() /* ty=(Tensor[(?, 5, 15), int64],) */;
  %532 = %531.0;
  (%532,)
}

def @func_1984() -> Tensor[(?, 5, 15), float64] {
  %533 = @func_1529() /* ty=(Tensor[(?, 5, 15), float64],) */;
  %533.0
}

def @func_1065() -> (Tensor[(?, 5, 15), float32], Tensor[(?, 5, 15), float32]) {
  %534 = @func_825() /* ty=(Tensor[(?, 5, 15), float32], Tensor[(?, 5, 15), float32]) */;
  %535 = @func_825() /* ty=(Tensor[(?, 5, 15), float32], Tensor[(?, 5, 15), float32]) */;
  %536 = %534.1;
  %537 = %535.1;
  (%536, %537)
}

def @func_5488() -> (Tensor[(?, 5, 15), float32], Tensor[(?, 5, 15), float32], Tensor[(?, 5, 15), float32]) {
  %538 = @func_3248() /* ty=(Tensor[(?, 5, 15), int64], Tensor[(?, 5, 15), float32]) */;
  %539 = %538.1;
  %540 = @func_3479() /* ty=Tensor[(?, 5, 15), float32] */;
  %541 = @func_5268() /* ty=Tensor[(?, 5, 15), float32] */;
  (%539, %540, %541)
}

def @func_7333(%var_7276: Tensor[(512), float32]) -> (Tensor[(?, 5, 15), int64], Tensor[(?, 5, 15), float64], Tensor[(?, 5, 15), float64], Tensor[(9, 3, 14), float64], Tensor[(300), float32], Tensor[(?, 5, 15), float64], Tensor[(?, 5, 15), int64], Tensor[(8, 8, 8), float64]) {
  %542 = @func_3219() /* ty=(Tensor[(?, 5, 15), float64], Tensor[(?, 5, 15), float64]) */;
  %543 = @func_6011() /* ty=(Tensor[(?, 5, 15), float32], Tensor[(9, 3, 14), float64]) */;
  %544 = cast(%var_7276, dtype="float32") /* ty=Tensor[(512), float32] */;
  %545 = cast(meta[relay.Constant][12] /* ty=Tensor[(300), float32] */, dtype="float32") /* ty=Tensor[(300), float32] */;
  %546 = reshape(%544, newshape=[8, 8, 8]) /* ty=Tensor[(8, 8, 8), float32] */;
  %547 = reshape(%545, newshape=[300, 1]) /* ty=Tensor[(300, 1), float32] */;
  %548 = @func_5618(%546, %547) /* ty=(Tensor[(8, 8, 8), float32], Tensor[(?, 5, 15), int64], Tensor[(300, 1), float32], Tensor[(12, 3, ?), bool], Tensor[(36), float32]) */;
  %549 = %548.0;
  %550 = cast(%var_7276, dtype="float64") /* ty=Tensor[(512), float64] */;
  %551 = shape_of(%549, dtype="int32") /* ty=Tensor[(3), int32] */;
  %552 = cast(%549, dtype="float64") /* ty=Tensor[(8, 8, 8), float64] */;
  %553 = dyn.reshape(%550, %551, newshape=[]) /* ty=Tensor[(?, ?, ?), float64] */;
  %554 = @func_2500() /* ty=Tensor[(?, 5, 15), int64] */;
  %555 = %542.0;
  %556 = @func_1984() /* ty=Tensor[(?, 5, 15), float64] */;
  %557 = %543.1;
  %558 = @func_2981() /* ty=Tensor[(?, 5, 15), float64] */;
  %559 = @func_2500() /* ty=Tensor[(?, 5, 15), int64] */;
  %560 = divide(%552, %553) /* ty=Tensor[(8, 8, 8), float64] */;
  (%554, %555, %556, %557, meta[relay.Constant][12] /* ty=Tensor[(300), float32] */, %558, %559, %560)
}

def @func_9815() -> (Tensor[(?, 5, 15), uint16], Tensor[(?, 5, 15), float64], Tensor[(525), float64]) {
  %561 = @func_2651() /* ty=(Tensor[(?, 5, 15), float32], Tensor[(?, 5, 15), uint16], Tensor[(?, 5, 15), float64], Tensor[(?, 5, 15), float32], Tensor[(?, 5, 15), float64], Tensor[(?, 5, 15), float32], Tensor[(?, 5, 15), float64]) */;
  %562 = cast(meta[relay.Constant][13] /* ty=Tensor[(525), float64] */, dtype="float64") /* ty=Tensor[(525), float64] */;
  %563 = reshape(%562, newshape=[7, 5, 15]) /* ty=Tensor[(7, 5, 15), float64] */;
  %564 = @func_3033(%563) /* ty=(Tensor[(7, 5, 15), uint32], Tensor[(?, 5, 15), float64], Tensor[(?, 5, 15), int64], Tensor[(?, 5, 15), float32]) */;
  %565 = %561.1;
  %566 = %564.1;
  (%565, %566, meta[relay.Constant][13] /* ty=Tensor[(525), float64] */)
}

def @func_11605(%var_11601: Tensor[(16, 14, 1), float64]) -> Tensor[(16, 14, 1), float64] {
  %567 = cast(%var_11601, dtype="float64") /* ty=Tensor[(16, 14, 1), float64] */;
  acosh(%567) /* ty=Tensor[(16, 14, 1), float64] */
}

def @func_12963() -> (Tensor[(?, 5, 15), float64], Tensor[(?, 5, 15), float32]) {
  %568 = @func_6141() /* ty=(Tensor[(?, 5, 15), float64], Tensor[(?, 5, 15), float64]) */;
  %569 = @func_4158() /* ty=(Tensor[(?, 5, 15), float32],) */;
  %570 = %568.0;
  %571 = %569.0;
  (%570, %571)
}

def @func_4406(%var_4395: Tensor[(12, 6, 3), float64]) -> (Tensor[(?, 5, 15), float64], Tensor[(12, 6, 3), uint32], Tensor[(?, 5, 15), int64]) {
  %572 = @func_1406() /* ty=(Tensor[(?, 5, 15), float64],) */;
  %573 = @func_1894() /* ty=(Tensor[(?, 5, 15), float64], Tensor[(?, 5, 15), int64], Tensor[(12, 6, 3), float64], Tensor[(?, 5, 15), float32]) */;
  %574 = %573.2;
  %575 = cast(%var_4395, dtype="uint32") /* ty=Tensor[(12, 6, 3), uint32] */;
  %576 = shape_of(%574, dtype="int32") /* ty=Tensor[(3), int32] */;
  %577 = cast(%574, dtype="uint32") /* ty=Tensor[(12, 6, 3), uint32] */;
  %578 = dyn.reshape(%575, %576, newshape=[]) /* ty=Tensor[(?, ?, ?), uint32] */;
  %579 = @func_1133() /* ty=(Tensor[(?, 5, 15), float32], Tensor[(?, 5, 15), int64]) */;
  %580 = %572.0;
  %581 = minimum(%577, %578) /* ty=Tensor[(12, 6, 3), uint32] */;
  %582 = %579.1;
  (%580, %581, %582)
}

def @func_2139() -> (Tensor[(?, 5, 15), uint16],) {
  %583 = @func_443() /* ty=Tensor[(?, 5, 15), float32] */;
  %584 = cast(%583, dtype="float32") /* ty=Tensor[(?, 5, 15), float32] */;
  %585 = rsqrt(%584) /* ty=Tensor[(?, 5, 15), float32] */;
  %586 = cast(%583, dtype="uint16") /* ty=Tensor[(?, 5, 15), uint16] */;
  %587 = shape_of(%585, dtype="int32") /* ty=Tensor[(3), int32] */;
  %588 = cast(%585, dtype="uint16") /* ty=Tensor[(?, 5, 15), uint16] */;
  %589 = dyn.reshape(%586, %587, newshape=[]) /* ty=Tensor[(?, ?, ?), uint16] */;
  %590 = subtract(%588, %589) /* ty=Tensor[(?, 5, 15), uint16] */;
  (%590,)
}

def @func_10508() -> (Tensor[(?, 5, 15), float64], Tensor[(4, 5, 15), bool], Tensor[(300), int16]) {
  %591 = cast(meta[relay.Constant][14] /* ty=Tensor[(300), int16] */, dtype="int16") /* ty=Tensor[(300), int16] */;
  %592 = reshape(%591, newshape=[4, 5, 15]) /* ty=Tensor[(4, 5, 15), int16] */;
  %593 = @func_8992(%592) /* ty=(Tensor[(4, 5, 15), bool],) */;
  %594 = @func_3435() /* ty=Tensor[(?, 5, 15), float64] */;
  %595 = %593.0;
  (%594, %595, meta[relay.Constant][14] /* ty=Tensor[(300), int16] */)
}

def @func_8992(%var_8985: Tensor[(4, 5, 15), int16]) -> (Tensor[(4, 5, 15), bool],) {
  %596 = @func_8481() /* ty=(Tensor[(?, 5, 15), int64], Tensor[(?, 5, 15), float64]) */;
  %597 = %596.0;
  %598 = @func_2567() /* ty=Tensor[(?, 5, 15), int64] */;
  %599 = cast(%598, dtype="int16") /* ty=Tensor[(?, 5, 15), int16] */;
  %600 = shape_of(%597, dtype="int32") /* ty=Tensor[(3), int32] */;
  %601 = cast(%597, dtype="int16") /* ty=Tensor[(?, 5, 15), int16] */;
  %602 = dyn.reshape(%599, %600, newshape=[]) /* ty=Tensor[(?, ?, ?), int16] */;
  %603 = add(%601, %602) /* ty=Tensor[(?, 5, 15), int16] */;
  %604 = cast(%603, dtype="bool") /* ty=Tensor[(?, 5, 15), bool] */;
  %605 = cast(%var_8985, dtype="bool") /* ty=Tensor[(4, 5, 15), bool] */;
  %606 = less(%604, %605) /* ty=Tensor[(4, 5, 15), bool] */;
  (%606,)
}

def @func_10773() -> (Tensor[(?, 5, 15), float32], Tensor[(?, 5, 15), int64], Tensor[(?, 5, 15), float64]) {
  %607 = @func_3190() /* ty=(Tensor[(?, 5, 15), int64],) */;
  %608 = @func_4578() /* ty=Tensor[(?, 5, 15), float32] */;
  %609 = %607.0;
  %610 = @func_10629() /* ty=Tensor[(?, 5, 15), float64] */;
  (%608, %609, %610)
}

def @func_5880() -> (Tensor[(?, 5, 15), float32], Tensor[(?, 5, 15), float32]) {
  %611 = @func_4756() /* ty=(Tensor[(?, 5, 15), float64],) */;
  %612 = %611.0;
  %613 = cast(%612, dtype="float32") /* ty=Tensor[(?, 5, 15), float32] */;
  %614 = @func_5666() /* ty=(Tensor[(?, 5, 15), float32],) */;
  %615 = asinh(%613) /* ty=Tensor[(?, 5, 15), float32] */;
  %616 = %614.0;
  (%615, %616)
}

def @func_11212() -> (Tensor[(?, 5, 15), float64], Tensor[(?, 5, 15), float32]) {
  %617 = @func_4756() /* ty=(Tensor[(?, 5, 15), float64],) */;
  %618 = @func_2651() /* ty=(Tensor[(?, 5, 15), float32], Tensor[(?, 5, 15), uint16], Tensor[(?, 5, 15), float64], Tensor[(?, 5, 15), float32], Tensor[(?, 5, 15), float64], Tensor[(?, 5, 15), float32], Tensor[(?, 5, 15), float64]) */;
  %619 = %617.0;
  %620 = %618.3;
  (%619, %620)
}

def @func_10101() -> (Tensor[(?, 5, 15), float32], Tensor[(?, 5, 15), float64], Tensor[(8, 16, 16), bool], Tensor[(?, 5, 15), float64], Tensor[(?, 5, 15), float32]) {
  %621 = @func_4498() /* ty=(Tensor[(?, 5, 15), float32], Tensor[(?, 5, 15), float64]) */;
  %622 = @func_3657() /* ty=(Tensor[(8, 16, 16), bool],) */;
  %623 = @func_8181() /* ty=(Tensor[(5, 5, 15), bool], Tensor[(?, 5, 15), float32], Tensor[(?, 5, 15), float64], Tensor[(?, 5, 15), float32], Tensor[(36, 6), bool]) */;
  %624 = @func_6476() /* ty=Tensor[(?, 5, 15), float32] */;
  %625 = %621.1;
  %626 = %622.0;
  %627 = %623.2;
  %628 = @func_1549() /* ty=Tensor[(?, 5, 15), float32] */;
  (%624, %625, %626, %627, %628)
}

def @func_9129() -> (Tensor[(?, 5, 15), float32], Tensor[(?, 5, 15), float32]) {
  %629 = @func_8181() /* ty=(Tensor[(5, 5, 15), bool], Tensor[(?, 5, 15), float32], Tensor[(?, 5, 15), float64], Tensor[(?, 5, 15), float32], Tensor[(36, 6), bool]) */;
  %630 = @func_6645() /* ty=(Tensor[(?, 5, 15), float32], Tensor[(?, 5, 15), float32]) */;
  %631 = %629.1;
  %632 = %630.1;
  (%631, %632)
}

def @func_2780() -> (Tensor[(?, 5, 15), float32],) {
  %633 = @func_1065() /* ty=(Tensor[(?, 5, 15), float32], Tensor[(?, 5, 15), float32]) */;
  %634 = %633.1;
  (%634,)
}

def @func_10117() -> (Tensor[(?, 5, 15), float32],) {
  %635 = @func_6450() /* ty=(Tensor[(?, 5, 15), float32],) */;
  %636 = %635.0;
  (%636,)
}

def @func_3190() -> (Tensor[(?, 5, 15), int64],) {
  %637 = @func_2500() /* ty=Tensor[(?, 5, 15), int64] */;
  (%637,)
}

def @func_2719() -> (Tensor[(?, 5, 15), int64], Tensor[(?, 5, 15), float32], Tensor[(300), float32]) {
  %638 = @func_1133() /* ty=(Tensor[(?, 5, 15), float32], Tensor[(?, 5, 15), int64]) */;
  %639 = cast(meta[relay.Constant][15] /* ty=Tensor[(300), float32] */, dtype="float32") /* ty=Tensor[(300), float32] */;
  %640 = reshape(%639, newshape=[4, 5, 15]) /* ty=Tensor[(4, 5, 15), float32] */;
  %641 = @func_2330(%640) /* ty=(Tensor[(4, 5, 15), uint64], Tensor[(?, 5, 15), float32]) */;
  %642 = %638.1;
  %643 = %641.1;
  (%642, %643, meta[relay.Constant][15] /* ty=Tensor[(300), float32] */)
}

def @func_12642() -> (Tensor[(?, 5, 15), float32], Tensor[(36, 6), uint8], Tensor[(?, 5, 15), float64], Tensor[(6, 5, 15), float64], Tensor[(?, 5, 15), float32], Tensor[(?, 5, 15), float64], Tensor[(?, 5, 15), float64]) {
  %644 = @func_1220() /* ty=(Tensor[(12, 6, 3), bool], Tensor[(36, 6), uint8], Tensor[(?, 5, 15), float32]) */;
  %645 = @func_1109() /* ty=(Tensor[(?, 5, 15), float32], Tensor[(?, 5, 15), float32]) */;
  %646 = @func_8649() /* ty=(Tensor[(?, 5, 15), float64], Tensor[(?, 5, 15), float32], Tensor[(300, 1), float32]) */;
  %647 = @func_10719() /* ty=(Tensor[(?, 5, 15), float32], Tensor[(?, 5, 15), float64]) */;
  %648 = @func_9137() /* ty=Tensor[(?, 5, 15), float32] */;
  %649 = %644.1;
  %650 = @func_11581() /* ty=Tensor[(?, 5, 15), float64] */;
  %651 = @func_8741() /* ty=Tensor[(6, 5, 15), float64] */;
  %652 = %645.0;
  %653 = %646.0;
  %654 = %647.1;
  (%648, %649, %650, %651, %652, %653, %654)
}

def @func_13852() -> (Tensor[(?, 5, 15), float32], Tensor[(?, 5, 15), float32], Tensor[(?, 5, 15), float32]) {
  %655 = @func_2285() /* ty=(Tensor[(?, 5, 15), float64], Tensor[(?, 5, 15), float32]) */;
  %656 = @func_13413() /* ty=(Tensor[(525), float64], Tensor[(?, 5, 15), float32]) */;
  %657 = @func_11237() /* ty=(Tensor[(?, 5, 15), float32], Tensor[(?, 5, 15), float64]) */;
  %658 = %655.1;
  %659 = %656.1;
  %660 = %657.0;
  (%658, %659, %660)
}

def @func_8649() -> (Tensor[(?, 5, 15), float64], Tensor[(?, 5, 15), float32], Tensor[(300, 1), float32]) {
  %661 = @func_5517() /* ty=(Tensor[(?, 5, 15), float32], Tensor[(?, 5, 15), float64], Tensor[(?, 5, 15), float32]) */;
  %662 = cast(meta[relay.Constant][16] /* ty=Tensor[(300, 1), float32] */, dtype="float32") /* ty=Tensor[(300, 1), float32] */;
  %663 = reshape(%662, newshape=[4, 5, 15]) /* ty=Tensor[(4, 5, 15), float32] */;
  %664 = @func_2330(%663) /* ty=(Tensor[(4, 5, 15), uint64], Tensor[(?, 5, 15), float32]) */;
  %665 = %661.1;
  %666 = %664.1;
  (%665, %666, meta[relay.Constant][16] /* ty=Tensor[(300, 1), float32] */)
}

def @func_8240(%var_8237: Tensor[(6, 1, 5), float32]) -> (Tensor[(6, 1, 5), float32],) {
  %667 = cast(%var_8237, dtype="float32") /* ty=Tensor[(6, 1, 5), float32] */;
  %668 = log10(%667) /* ty=Tensor[(6, 1, 5), float32] */;
  (%668,)
}

def @func_9369(%var_9349: Tensor[(1, 5, 15), float64]) -> (Tensor[(?, 5, 15), float64], Tensor[(?, 5, 15), float64], Tensor[(?, 5, 15), bool], Tensor[(?, 5, 15), float32]) {
  %669 = @func_6551() /* ty=(Tensor[(?, 5, 15), float64],) */;
  %670 = @func_6848() /* ty=(Tensor[(?, 5, 15), float64], Tensor[(12, 6, 3), float64]) */;
  %671 = @func_1406() /* ty=(Tensor[(?, 5, 15), float64],) */;
  %672 = %671.0;
  %673 = cast(%var_9349, dtype="bool") /* ty=Tensor[(1, 5, 15), bool] */;
  %674 = shape_of(%672, dtype="int32") /* ty=Tensor[(3), int32] */;
  %675 = cast(%672, dtype="bool") /* ty=Tensor[(?, 5, 15), bool] */;
  %676 = dyn.reshape(%673, %674, newshape=[]) /* ty=Tensor[(?, ?, ?), bool] */;
  %677 = %669.0;
  %678 = %670.0;
  %679 = less(%675, %676) /* ty=Tensor[(?, 5, 15), bool] */;
  %680 = @func_8595() /* ty=Tensor[(?, 5, 15), float32] */;
  (%677, %678, %679, %680)
}

def @func_13816() -> (Tensor[(?, 5, 15), float64],) {
  %681 = @func_6551() /* ty=(Tensor[(?, 5, 15), float64],) */;
  %682 = %681.0;
  (%682,)
}

def @func_11706(%var_11692: Tensor[(4, 6, 11), uint64], %var_11693: Tensor[(4, 6, 11), uint64]) -> (Tensor[(4, 6, 11), bool],) {
  %683 = cast(%var_11693, dtype="bool") /* ty=Tensor[(4, 6, 11), bool] */;
  %684 = shape_of(%var_11692, dtype="int32") /* ty=Tensor[(3), int32] */;
  %685 = cast(%var_11692, dtype="bool") /* ty=Tensor[(4, 6, 11), bool] */;
  %686 = dyn.reshape(%683, %684, newshape=[]) /* ty=Tensor[(?, ?, ?), bool] */;
  %687 = greater_equal(%685, %686) /* ty=Tensor[(4, 6, 11), bool] */;
  (%687,)
}

def @func_12722() -> Tensor[(?, 5, 15), float64] {
  @func_11581() /* ty=Tensor[(?, 5, 15), float64] */
}

def @func_740() -> (Tensor[(?, 5, 15), float64],) {
  %688 = @func_443() /* ty=Tensor[(?, 5, 15), float32] */;
  %689 = cast(%688, dtype="float64") /* ty=Tensor[(?, 5, 15), float64] */;
  %690 = cosh(%689) /* ty=Tensor[(?, 5, 15), float64] */;
  (%690,)
}

def @func_12469() -> (Tensor[(?, 5, 15), float32], Tensor[(?, 5, 15), float32], Tensor[(4, 5, 15), bool]) {
  %691 = @func_8281() /* ty=(Tensor[(?, 5, 15), float32], Tensor[(?, 5, 15), float32], Tensor[(?, 5, 15), float64]) */;
  %692 = @func_12160() /* ty=(Tensor[(?, 5, 15), float64], Tensor[(4, 5, 15), bool], Tensor[(300), int16]) */;
  %693 = @func_6476() /* ty=Tensor[(?, 5, 15), float32] */;
  %694 = %691.1;
  %695 = %692.1;
  (%693, %694, %695)
}

def @main(%var_13916: Tensor[(10, 15, 11), float32]) -> Tensor[(10, 15, 11), float32] {
  %696 = cast(%var_13916, dtype="float32") /* ty=Tensor[(10, 15, 11), float32] */;
  %697 = cosh(%696) /* ty=Tensor[(10, 15, 11), float32] */;
  %698 = cast(%697, dtype="float32") /* ty=Tensor[(10, 15, 11), float32] */;
  %699 = shape_of(%var_13916, dtype="int32") /* ty=Tensor[(3), int32] */;
  %700 = cast(%var_13916, dtype="float32") /* ty=Tensor[(10, 15, 11), float32] */;
  %701 = dyn.reshape(%698, %699, newshape=[]) /* ty=Tensor[(?, ?, ?), float32] */;
  divide(%700, %701) /* ty=Tensor[(10, 15, 11), float32] */
}

def @func_1406() -> (Tensor[(?, 5, 15), float64],) {
  %702 = @func_944() /* ty=(Tensor[(?, 5, 15), float64], Tensor[(?, 5, 15), float32]) */;
  %703 = %702.0;
  (%703,)
}

def @func_4620(%var_4609: Tensor[(300), float32]) -> (Tensor[(?, 5, 15), float64], Tensor[(4, 5, 15), uint64], Tensor[(300), float32], Tensor[(?, 5, 15), int64]) {
  %704 = cast(%var_4609, dtype="float32") /* ty=Tensor[(300), float32] */;
  %705 = reshape(%704, newshape=[4, 5, 15]) /* ty=Tensor[(4, 5, 15), float32] */;
  %706 = @func_2330(%705) /* ty=(Tensor[(4, 5, 15), uint64], Tensor[(?, 5, 15), float32]) */;
  %707 = @func_1894() /* ty=(Tensor[(?, 5, 15), float64], Tensor[(?, 5, 15), int64], Tensor[(12, 6, 3), float64], Tensor[(?, 5, 15), float32]) */;
  %708 = @func_3435() /* ty=Tensor[(?, 5, 15), float64] */;
  %709 = %706.0;
  %710 = %707.1;
  (%708, %709, %var_4609, %710)
}

def @func_8900() -> Tensor[(?, 5, 15), float64] {
  @func_2810() /* ty=Tensor[(?, 5, 15), float64] */
}

def @func_1133() -> (Tensor[(?, 5, 15), float32], Tensor[(?, 5, 15), int64]) {
  %711 = @func_670() /* ty=(Tensor[(?, 5, 15), int64], Tensor[(?, 5, 15), float32]) */;
  %712 = @func_1016() /* ty=(Tensor[(?, 5, 15), float32], Tensor[(?, 5, 15), float32], Tensor[(?, 5, 15), int64]) */;
  %713 = %711.1;
  %714 = %712.2;
  (%713, %714)
}

def @func_13620() -> (Tensor[(?, 5, 15), float32], Tensor[(?, 5, 15), float32]) {
  %715 = @func_8333() /* ty=(Tensor[(?, 5, 15), float32],) */;
  %716 = @func_7766() /* ty=(Tensor[(?, 5, 15), float32], Tensor[(?, 5, 15), float64], Tensor[(450), float32], Tensor[(?, 5, 15), float32]) */;
  %717 = %715.0;
  %718 = %716.0;
  (%717, %718)
}

def @func_3284() -> Tensor[(?, 5, 15), float64] {
  %719 = @func_3256() /* ty=(Tensor[(?, 5, 15), float64],) */;
  %719.0
}

def @func_8741() -> Tensor[(6, 5, 15), float64] {
  %720 = @func_4111() /* ty=(Tensor[(?, 5, 15), float64], Tensor[(6, 5, 15), float64], Tensor[(450), float32]) */;
  %720.1
}

def @func_6011() -> (Tensor[(?, 5, 15), float32], Tensor[(9, 3, 14), float64]) {
  %721 = @func_3852() /* ty=(Tensor[(9, 3, 14), float64], Tensor[(?, 5, 15), int64], Tensor[(?, 5, 15), float32]) */;
  %722 = @func_4554() /* ty=Tensor[(?, 5, 15), float32] */;
  %723 = %721.0;
  (%722, %723)
}

def @func_8595() -> Tensor[(?, 5, 15), float32] {
  %724 = @func_4308() /* ty=(Tensor[(?, 5, 15), float32], Tensor[(?, 5, 15), float64], Tensor[(?, 5, 15), float32]) */;
  %724.2
}

def @func_8333() -> (Tensor[(?, 5, 15), float32],) {
  %725 = @func_7087() /* ty=Tensor[(?, 5, 15), float32] */;
  (%725,)
}

def @func_8181() -> (Tensor[(5, 5, 15), bool], Tensor[(?, 5, 15), float32], Tensor[(?, 5, 15), float64], Tensor[(?, 5, 15), float32], Tensor[(36, 6), bool]) {
  %726 = @func_3086() /* ty=(Tensor[(?, 5, 15), float64], Tensor[(?, 5, 15), float64]) */;
  %727 = @func_6450() /* ty=(Tensor[(?, 5, 15), float32],) */;
  %728 = @func_1220() /* ty=(Tensor[(12, 6, 3), bool], Tensor[(36, 6), uint8], Tensor[(?, 5, 15), float32]) */;
  %729 = %728.1;
  %730 = cast(%729, dtype="float64") /* ty=Tensor[(36, 6), float64] */;
  %731 = exp(%730) /* ty=Tensor[(36, 6), float64] */;
  %732 = cast(%731, dtype="float64") /* ty=Tensor[(36, 6), float64] */;
  %733 = sqrt(%732) /* ty=Tensor[(36, 6), float64] */;
  %734 = cast(%733, dtype="float64") /* ty=Tensor[(36, 6), float64] */;
  %735 = log10(%734) /* ty=Tensor[(36, 6), float64] */;
  %736 = cast(%733, dtype="float32") /* ty=Tensor[(36, 6), float32] */;
  %737 = shape_of(%731, dtype="int32") /* ty=Tensor[(2), int32] */;
  %738 = cast(%731, dtype="float32") /* ty=Tensor[(36, 6), float32] */;
  %739 = dyn.reshape(%736, %737, newshape=[]) /* ty=Tensor[(?, ?), float32] */;
  %740 = divide(%738, %739) /* ty=Tensor[(36, 6), float32] */;
  %741 = cast(%740, dtype="bool") /* ty=Tensor[(36, 6), bool] */;
  %742 = shape_of(%735, dtype="int32") /* ty=Tensor[(2), int32] */;
  %743 = cast(%735, dtype="bool") /* ty=Tensor[(36, 6), bool] */;
  %744 = dyn.reshape(%741, %742, newshape=[]) /* ty=Tensor[(?, ?), bool] */;
  %745 = @func_1500() /* ty=Tensor[(5, 5, 15), bool] */;
  %746 = @func_1946() /* ty=Tensor[(?, 5, 15), float32] */;
  %747 = %726.0;
  %748 = %727.0;
  %749 = greater(%743, %744) /* ty=Tensor[(36, 6), bool] */;
  (%745, %746, %747, %748, %749)
}

def @func_6659() -> (Tensor[(?, 5, 15), float32],) {
  %750 = @func_443() /* ty=Tensor[(?, 5, 15), float32] */;
  (%750,)
}

def @func_12442() -> (Tensor[(?, 5, 15), float64], Tensor[(?, 5, 15), float32]) {
  %751 = @func_6305() /* ty=(Tensor[(?, 5, 15), float64], Tensor[(?, 5, 15), float64], Tensor[(?, 5, 15), float64], Tensor[(?, 5, 15), uint16]) */;
  %752 = %751.0;
  %753 = @func_4554() /* ty=Tensor[(?, 5, 15), float32] */;
  (%752, %753)
}

def @func_4498() -> (Tensor[(?, 5, 15), float32], Tensor[(?, 5, 15), float64]) {
  %754 = @func_3479() /* ty=Tensor[(?, 5, 15), float32] */;
  %755 = @func_1984() /* ty=Tensor[(?, 5, 15), float64] */;
  (%754, %755)
}

def @func_2034() -> (Tensor[(?, 5, 15), float64], Tensor[(?, 5, 15), float32], Tensor[(?, 5, 15), float64]) {
  %756 = @func_1529() /* ty=(Tensor[(?, 5, 15), float64],) */;
  %757 = @func_944() /* ty=(Tensor[(?, 5, 15), float64], Tensor[(?, 5, 15), float32]) */;
  %758 = @func_1406() /* ty=(Tensor[(?, 5, 15), float64],) */;
  %759 = %756.0;
  %760 = %757.1;
  %761 = %758.0;
  (%759, %760, %761)
}

def @func_3256() -> (Tensor[(?, 5, 15), float64],) {
  %762 = @func_2285() /* ty=(Tensor[(?, 5, 15), float64], Tensor[(?, 5, 15), float32]) */;
  %763 = %762.0;
  (%763,)
}

def @func_12333() -> (Tensor[(?, 5, 15), float64],) {
  %764 = @func_7852() /* ty=(Tensor[(?, 5, 15), float64], Tensor[(?, 5, 15), int64]) */;
  %765 = %764.0;
  (%765,)
}

def @func_4008() -> Tensor[(5, 5, 15), bool] {
  @func_1500() /* ty=Tensor[(5, 5, 15), bool] */
}

def @func_3852() -> (Tensor[(9, 3, 14), float64], Tensor[(?, 5, 15), int64], Tensor[(?, 5, 15), float32]) {
  %766 = cast(meta[relay.Constant][17] /* ty=Tensor[(9, 3, 14), float64] */, dtype="float64") /* ty=Tensor[(9, 3, 14), float64] */;
  %767 = rsqrt(%766) /* ty=Tensor[(9, 3, 14), float64] */;
  %768 = cast(%767, dtype="float64") /* ty=Tensor[(9, 3, 14), float64] */;
  %769 = @func_1894() /* ty=(Tensor[(?, 5, 15), float64], Tensor[(?, 5, 15), int64], Tensor[(12, 6, 3), float64], Tensor[(?, 5, 15), float32]) */;
  %770 = acos(%768) /* ty=Tensor[(9, 3, 14), float64] */;
  %771 = %769.1;
  %772 = @func_374() /* ty=Tensor[(?, 5, 15), float32] */;
  (%770, %771, %772)
}

def @func_10719() -> (Tensor[(?, 5, 15), float32], Tensor[(?, 5, 15), float64]) {
  %773 = @func_7185() /* ty=Tensor[(?, 5, 15), float32] */;
  %774 = @func_10629() /* ty=Tensor[(?, 5, 15), float64] */;
  (%773, %774)
}

def @func_6450() -> (Tensor[(?, 5, 15), float32],) {
  %775 = @func_825() /* ty=(Tensor[(?, 5, 15), float32], Tensor[(?, 5, 15), float32]) */;
  %776 = %775.1;
  (%776,)
}

def @func_4440() -> Tensor[(?, 5, 15), float64] {
  %777 = @func_3557() /* ty=(Tensor[(?, 5, 15), float64],) */;
  %777.0
}

def @func_10981() -> (Tensor[(?, 5, 15), float32],) {
  %778 = @func_3688() /* ty=Tensor[(?, 5, 15), float32] */;
  (%778,)
}

def @func_5618(%var_5599: Tensor[(8, 8, 8), float32], %var_5606: Tensor[(300, 1), float32]) -> (Tensor[(8, 8, 8), float32], Tensor[(?, 5, 15), int64], Tensor[(300, 1), float32], Tensor[(12, 3, ?), bool], Tensor[(36), float32]) {
  %779 = cast(%var_5599, dtype="float32") /* ty=Tensor[(8, 8, 8), float32] */;
  %780 = cast(%var_5606, dtype="float32") /* ty=Tensor[(300, 1), float32] */;
  %781 = reshape(%780, newshape=[300]) /* ty=Tensor[(300), float32] */;
  %782 = @func_4620(%781) /* ty=(Tensor[(?, 5, 15), float64], Tensor[(4, 5, 15), uint64], Tensor[(300), float32], Tensor[(?, 5, 15), int64]) */;
  %783 = cast(meta[relay.Constant][18] /* ty=Tensor[(36), float32] */, dtype="float32") /* ty=Tensor[(36), float32] */;
  %784 = reshape(%783, newshape=[12, 3, 1]) /* ty=Tensor[(12, 3, 1), float32] */;
  %785 = @func_2890(%784) /* ty=(Tensor[(12, 3, ?), int16], Tensor[(12, 3, ?), bool]) */;
  %786 = sigmoid(%779) /* ty=Tensor[(8, 8, 8), float32] */;
  %787 = %782.3;
  %788 = %785.1;
  (%786, %787, %var_5606, %788, meta[relay.Constant][18] /* ty=Tensor[(36), float32] */)
}

def @func_7946() -> (Tensor[(?, 5, 15), float64],) {
  %789 = @func_2275() /* ty=(Tensor[(?, 5, 15), float64],) */;
  %790 = %789.0;
  (%790,)
}

def @func_12160() -> (Tensor[(?, 5, 15), float64], Tensor[(4, 5, 15), bool], Tensor[(300), int16]) {
  %791 = @func_9501() /* ty=(Tensor[(?, 5, 15), float64],) */;
  %792 = cast(meta[relay.Constant][19] /* ty=Tensor[(300), int16] */, dtype="int16") /* ty=Tensor[(300), int16] */;
  %793 = reshape(%792, newshape=[4, 5, 15]) /* ty=Tensor[(4, 5, 15), int16] */;
  %794 = @func_8992(%793) /* ty=(Tensor[(4, 5, 15), bool],) */;
  %795 = %791.0;
  %796 = %794.0;
  (%795, %796, meta[relay.Constant][19] /* ty=Tensor[(300), int16] */)
}

def @func_670() -> (Tensor[(?, 5, 15), int64], Tensor[(?, 5, 15), float32]) {
  %797 = @func_581() /* ty=(Tensor[(?, 5, 15), int64], Tensor[(?, 5, 15), uint16], Tensor[(?, 5, 15), int64]) */;
  %798 = %797.0;
  %799 = @func_443() /* ty=Tensor[(?, 5, 15), float32] */;
  (%798, %799)
}

def @func_12809(%var_12763: Tensor[(9, 8, 14), float64], %var_12779: Tensor[(300), float32]) -> (Tensor[(9, 8, 14), float64], Tensor[(?, 5, 15), float64], Tensor[(300), float32], Tensor[(?, 5, 15), float32], Tensor[(?, 5, 15), float64]) {
  %800 = cast(meta[relay.Constant][20] /* ty=Tensor[(9, 8, 14), float64] */, dtype="float64") /* ty=Tensor[(9, 8, 14), float64] */;
  %801 = shape_of(%var_12763, dtype="int32") /* ty=Tensor[(3), int32] */;
  %802 = cast(%var_12763, dtype="float64") /* ty=Tensor[(9, 8, 14), float64] */;
  %803 = dyn.reshape(%800, %801, newshape=[]) /* ty=Tensor[(?, ?, ?), float64] */;
  %804 = divide(%802, %803) /* ty=Tensor[(9, 8, 14), float64] */;
  %805 = cast(%804, dtype="float64") /* ty=Tensor[(9, 8, 14), float64] */;
  %806 = cast(%var_12779, dtype="float32") /* ty=Tensor[(300), float32] */;
  %807 = reshape(%806, newshape=[300]) /* ty=Tensor[(300), float32] */;
  %808 = @func_4620(%807) /* ty=(Tensor[(?, 5, 15), float64], Tensor[(4, 5, 15), uint64], Tensor[(300), float32], Tensor[(?, 5, 15), int64]) */;
  %809 = @func_2828() /* ty=(Tensor[(?, 5, 15), float32], Tensor[(?, 5, 15), float32]) */;
  %810 = @func_1529() /* ty=(Tensor[(?, 5, 15), float64],) */;
  %811 = log10(%805) /* ty=Tensor[(9, 8, 14), float64] */;
  %812 = %808.0;
  %813 = %809.1;
  %814 = %810.0;
  (%811, %812, %var_12779, %813, %814)
}

def @func_9173() -> Tensor[(?, 5, 15), float32] {
  %815 = @func_4308() /* ty=(Tensor[(?, 5, 15), float32], Tensor[(?, 5, 15), float64], Tensor[(?, 5, 15), float32]) */;
  %815.0
}

def @func_8540() -> Tensor[(?, 5, 15), float32] {
  %816 = @func_8506() /* ty=(Tensor[(?, 5, 15), float32],) */;
  %816.0
}

def @func_2214(%var_2209: Tensor[(7, 11, 2), float32]) -> (Tensor[(7, 11, 2), float32],) {
  %817 = cast(%var_2209, dtype="float32") /* ty=Tensor[(7, 11, 2), float32] */;
  %818 = erf(%817) /* ty=Tensor[(7, 11, 2), float32] */;
  (%818,)
}

def @func_10320(%var_10292: Tensor[(5, 5, 5), uint8], %var_10293: Tensor[(5, 5, 5), uint8]) -> (Tensor[(?, 5, 15), float32], Tensor[(5, 5, 5), bool]) {
  %819 = cast(%var_10293, dtype="uint8") /* ty=Tensor[(5, 5, 5), uint8] */;
  %820 = shape_of(%var_10292, dtype="int32") /* ty=Tensor[(3), int32] */;
  %821 = cast(%var_10292, dtype="uint8") /* ty=Tensor[(5, 5, 5), uint8] */;
  %822 = dyn.reshape(%819, %820, newshape=[]) /* ty=Tensor[(?, ?, ?), uint8] */;
  %823 = subtract(%821, %822) /* ty=Tensor[(5, 5, 5), uint8] */;
  %824 = cast(%var_10292, dtype="bool") /* ty=Tensor[(5, 5, 5), bool] */;
  %825 = shape_of(%823, dtype="int32") /* ty=Tensor[(3), int32] */;
  %826 = cast(%823, dtype="bool") /* ty=Tensor[(5, 5, 5), bool] */;
  %827 = dyn.reshape(%824, %825, newshape=[]) /* ty=Tensor[(?, ?, ?), bool] */;
  %828 = @func_4578() /* ty=Tensor[(?, 5, 15), float32] */;
  %829 = greater(%826, %827) /* ty=Tensor[(5, 5, 5), bool] */;
  (%828, %829)
}

def @func_5141() -> (Tensor[(?, 5, 15), float32], Tensor[(?, 5, 15), float32]) {
  %830 = @func_2828() /* ty=(Tensor[(?, 5, 15), float32], Tensor[(?, 5, 15), float32]) */;
  %831 = @func_4498() /* ty=(Tensor[(?, 5, 15), float32], Tensor[(?, 5, 15), float64]) */;
  %832 = %830.0;
  %833 = %831.0;
  (%832, %833)
}

def @func_5517() -> (Tensor[(?, 5, 15), float32], Tensor[(?, 5, 15), float64], Tensor[(?, 5, 15), float32]) {
  %834 = @func_1016() /* ty=(Tensor[(?, 5, 15), float32], Tensor[(?, 5, 15), float32], Tensor[(?, 5, 15), int64]) */;
  %835 = @func_2034() /* ty=(Tensor[(?, 5, 15), float64], Tensor[(?, 5, 15), float32], Tensor[(?, 5, 15), float64]) */;
  %836 = %834.1;
  %837 = %835.0;
  %838 = @func_5268() /* ty=Tensor[(?, 5, 15), float32] */;
  (%836, %837, %838)
}

def @func_13476() -> (Tensor[(?, 5, 15), float64],) {
  %839 = @func_6305() /* ty=(Tensor[(?, 5, 15), float64], Tensor[(?, 5, 15), float64], Tensor[(?, 5, 15), float64], Tensor[(?, 5, 15), uint16]) */;
  %840 = %839.2;
  (%840,)
}

def @func_10574() -> Tensor[(?, 5, 15), float64] {
  @func_8900() /* ty=Tensor[(?, 5, 15), float64] */
}

def @func_6645() -> (Tensor[(?, 5, 15), float32], Tensor[(?, 5, 15), float32]) {
  %841 = @func_4308() /* ty=(Tensor[(?, 5, 15), float32], Tensor[(?, 5, 15), float64], Tensor[(?, 5, 15), float32]) */;
  %842 = %841.0;
  %843 = @func_443() /* ty=Tensor[(?, 5, 15), float32] */;
  (%842, %843)
}

def @func_3557() -> (Tensor[(?, 5, 15), float64],) {
  %844 = @func_2810() /* ty=Tensor[(?, 5, 15), float64] */;
  (%844,)
}

def @func_7185() -> Tensor[(?, 5, 15), float32] {
  %845 = @func_794() /* ty=(Tensor[(?, 5, 15), float32], Tensor[(?, 5, 15), int64]) */;
  %845.0
}

def @func_10895(%var_10827: Tensor[(3, 16, 1), bool], %var_10842: Tensor[(300, 8), float32], %var_10850: Tensor[(300, 8), float32]) -> (Tensor[(300, 8), float32], Tensor[(?, 5, 15), float32], Tensor[(336), float64], Tensor[(300, 8), bool], Tensor[(3, 16, 11), float32], Tensor[(?, 5, 15), float32]) {
  %846 = @func_8649() /* ty=(Tensor[(?, 5, 15), float64], Tensor[(?, 5, 15), float32], Tensor[(300, 1), float32]) */;
  %847 = %846.2;
  %848 = cast(%847, dtype="float32") /* ty=Tensor[(300, 1), float32] */;
  %849 = cast(%var_10842, dtype="float32") /* ty=Tensor[(300, 8), float32] */;
  %850 = cast(meta[relay.Constant][21] /* ty=Tensor[(336), float64] */, dtype="float64") /* ty=Tensor[(336), float64] */;
  %851 = reshape(%850, newshape=[14, 4, 6]) /* ty=Tensor[(14, 4, 6), float64] */;
  %852 = @func_9086(%851) /* ty=(Tensor[(14, 4, 6), float64], Tensor[(?, 5, 15), float32]) */;
  %853 = cast(%var_10850, dtype="bool") /* ty=Tensor[(300, 8), bool] */;
  %854 = shape_of(%var_10842, dtype="int32") /* ty=Tensor[(2), int32] */;
  %855 = cast(%var_10842, dtype="bool") /* ty=Tensor[(300, 8), bool] */;
  %856 = dyn.reshape(%853, %854, newshape=[]) /* ty=Tensor[(?, ?), bool] */;
  %857 = equal(%855, %856) /* ty=Tensor[(300, 8), bool] */;
  %858 = cast(%var_10842, dtype="bool") /* ty=Tensor[(300, 8), bool] */;
  %859 = shape_of(%857, dtype="int32") /* ty=Tensor[(2), int32] */;
  %860 = cast(%857, dtype="bool") /* ty=Tensor[(300, 8), bool] */;
  %861 = dyn.reshape(%858, %859, newshape=[]) /* ty=Tensor[(?, ?), bool] */;
  %862 = cast(%var_10827, dtype="bool") /* ty=Tensor[(3, 16, 1), bool] */;
  %863 = cast(meta[relay.Constant][22] /* ty=Tensor[(3, 16, 11), bool] */, dtype="bool") /* ty=Tensor[(3, 16, 11), bool] */;
  %864 = logical_and(%862, %863) /* ty=Tensor[(3, 16, 11), bool] */;
  %865 = cast(%864, dtype="float32") /* ty=Tensor[(3, 16, 11), float32] */;
  %866 = @func_10362() /* ty=(Tensor[(?, 5, 15), float32],) */;
  %867 = mod(%848, %849) /* ty=Tensor[(300, 8), float32] */;
  %868 = %852.1;
  %869 = greater_equal(%860, %861) /* ty=Tensor[(300, 8), bool] */;
  %870 = acos(%865) /* ty=Tensor[(3, 16, 11), float32] */;
  %871 = %866.0;
  (%867, %868, meta[relay.Constant][21] /* ty=Tensor[(336), float64] */, %869, %870, %871)
}

def @func_6882() -> (Tensor[(?, 5, 15), float32],) {
  %872 = @func_5032() /* ty=(Tensor[(7, 5, 15), bool], Tensor[(?, 5, 15), float32], Tensor[(?, 5, 15), float32]) */;
  %873 = %872.2;
  (%873,)
}

def @func_923() -> (Tensor[(?, 5, 15), float32],) {
  %874 = @func_374() /* ty=Tensor[(?, 5, 15), float32] */;
  (%874,)
}

def @func_9384() -> (Tensor[(?, 5, 15), float32],) {
  %875 = @func_7907() /* ty=Tensor[(?, 5, 15), float32] */;
  (%875,)
}

def @func_7852() -> (Tensor[(?, 5, 15), float64], Tensor[(?, 5, 15), int64]) {
  %876 = @func_740() /* ty=(Tensor[(?, 5, 15), float64],) */;
  %877 = @func_3852() /* ty=(Tensor[(9, 3, 14), float64], Tensor[(?, 5, 15), int64], Tensor[(?, 5, 15), float32]) */;
  %878 = %876.0;
  %879 = %877.1;
  (%878, %879)
}

def @func_1529() -> (Tensor[(?, 5, 15), float64],) {
  %880 = @func_794() /* ty=(Tensor[(?, 5, 15), float32], Tensor[(?, 5, 15), int64]) */;
  %881 = %880.1;
  %882 = cast(%881, dtype="float64") /* ty=Tensor[(?, 5, 15), float64] */;
  %883 = cos(%882) /* ty=Tensor[(?, 5, 15), float64] */;
  (%883,)
}

def @func_10550() -> Tensor[(?, 5, 15), float32] {
  @func_1946() /* ty=Tensor[(?, 5, 15), float32] */
}

def @func_3997() -> (Tensor[(?, 5, 15), float32],) {
  %884 = @func_1549() /* ty=Tensor[(?, 5, 15), float32] */;
  (%884,)
}

def @func_6551() -> (Tensor[(?, 5, 15), float64],) {
  %885 = @func_2146() /* ty=Tensor[(?, 5, 15), float64] */;
  (%885,)
}

def @func_6909() -> (Tensor[(?, 5, 15), float64],) {
  %886 = @func_944() /* ty=(Tensor[(?, 5, 15), float64], Tensor[(?, 5, 15), float32]) */;
  %887 = %886.0;
  (%887,)
}

def @func_9848() -> (Tensor[(?, 5, 15), float64], Tensor[(9, 3, 14), float64]) {
  %888 = @func_2146() /* ty=Tensor[(?, 5, 15), float64] */;
  %889 = @func_8226() /* ty=Tensor[(9, 3, 14), float64] */;
  (%888, %889)
}

def @func_5202() -> (Tensor[(5, 5, 15), bool], Tensor[(?, 5, 15), int64]) {
  %890 = @func_2913() /* ty=(Tensor[(36, 6), uint8], Tensor[(5, 5, 15), bool]) */;
  %891 = @func_2114() /* ty=Tensor[(?, 5, 15), float64] */;
  %892 = @func_1946() /* ty=Tensor[(?, 5, 15), float32] */;
  %893 = cast(%892, dtype="int64") /* ty=Tensor[(?, 5, 15), int64] */;
  %894 = shape_of(%891, dtype="int32") /* ty=Tensor[(3), int32] */;
  %895 = cast(%891, dtype="int64") /* ty=Tensor[(?, 5, 15), int64] */;
  %896 = dyn.reshape(%893, %894, newshape=[]) /* ty=Tensor[(?, ?, ?), int64] */;
  %897 = %890.1;
  %898 = bitwise_and(%895, %896) /* ty=Tensor[(?, 5, 15), int64] */;
  (%897, %898)
}

def @func_6989(%var_6984: Tensor[(7, 3, 16), float64]) -> (Tensor[(7, 3, 16), float64],) {
  %899 = cast(%var_6984, dtype="float64") /* ty=Tensor[(7, 3, 16), float64] */;
  %900 = log2(%899) /* ty=Tensor[(7, 3, 16), float64] */;
  (%900,)
}

def @func_9680(%var_9663: Tensor[(12, 6, 15), int16], %var_9664: Tensor[(12, 6, 15), int16]) -> (Tensor[(12, 6, 15), int16], Tensor[(8, 16, 16), bool], Tensor[(75), float32]) {
  %901 = cast(%var_9664, dtype="int16") /* ty=Tensor[(12, 6, 15), int16] */;
  %902 = shape_of(%var_9663, dtype="int32") /* ty=Tensor[(3), int32] */;
  %903 = cast(%var_9663, dtype="int16") /* ty=Tensor[(12, 6, 15), int16] */;
  %904 = dyn.reshape(%901, %902, newshape=[]) /* ty=Tensor[(?, ?, ?), int16] */;
  %905 = cast(meta[relay.Constant][23] /* ty=Tensor[(75), float32] */, dtype="float32") /* ty=Tensor[(75), float32] */;
  %906 = reshape(%905, newshape=[1, 5, 15]) /* ty=Tensor[(1, 5, 15), float32] */;
  %907 = @func_3824(%906) /* ty=(Tensor[(?, 5, 15), bool], Tensor[(8, 16, 16), bool]) */;
  %908 = right_shift(%903, %904) /* ty=Tensor[(12, 6, 15), int16] */;
  %909 = %907.1;
  (%908, %909, meta[relay.Constant][23] /* ty=Tensor[(75), float32] */)
}

def @func_9710() -> (Tensor[(7, 5, 15), float64], Tensor[(?, 5, 15), float32]) {
  %910 = @func_794() /* ty=(Tensor[(?, 5, 15), float32], Tensor[(?, 5, 15), int64]) */;
  %911 = @func_4825() /* ty=Tensor[(7, 5, 15), float64] */;
  %912 = %910.0;
  (%911, %912)
}

def @func_6592() -> (Tensor[(?, 5, 15), float64],) {
  %913 = @func_3435() /* ty=Tensor[(?, 5, 15), float64] */;
  (%913,)
}

def @func_11736() -> (Tensor[(?, 5, 15), float64], Tensor[(4, 5, 15), bool], Tensor[(4, 5, 15), bool]) {
  %914 = @func_7110() /* ty=(Tensor[(?, 5, 15), float64],) */;
  %915 = @func_10508() /* ty=(Tensor[(?, 5, 15), float64], Tensor[(4, 5, 15), bool], Tensor[(300), int16]) */;
  %916 = %915.1;
  %917 = cast(%916, dtype="int16") /* ty=Tensor[(4, 5, 15), int16] */;
  %918 = reshape(%917, newshape=[4, 5, 15]) /* ty=Tensor[(4, 5, 15), int16] */;
  %919 = @func_8992(%918) /* ty=(Tensor[(4, 5, 15), bool],) */;
  %920 = %914.0;
  %921 = %919.0;
  (%920, %916, %921)
}

def @func_3393(%var_3372: Tensor[(10, 10, 5), float32]) -> (Tensor[(10, 10, 5), float32], Tensor[(?, 5, 15), float64], Tensor[(?, 5, 15), float32], Tensor[(?, 5, 15), float64]) {
  %922 = cast(%var_3372, dtype="float32") /* ty=Tensor[(10, 10, 5), float32] */;
  %923 = @func_740() /* ty=(Tensor[(?, 5, 15), float64],) */;
  %924 = @func_2285() /* ty=(Tensor[(?, 5, 15), float64], Tensor[(?, 5, 15), float32]) */;
  %925 = log(%922) /* ty=Tensor[(10, 10, 5), float32] */;
  %926 = %923.0;
  %927 = %924.1;
  %928 = @func_2114() /* ty=Tensor[(?, 5, 15), float64] */;
  (%925, %926, %927, %928)
}

def @func_2651() -> (Tensor[(?, 5, 15), float32], Tensor[(?, 5, 15), uint16], Tensor[(?, 5, 15), float64], Tensor[(?, 5, 15), float32], Tensor[(?, 5, 15), float64], Tensor[(?, 5, 15), float32], Tensor[(?, 5, 15), float64]) {
  %929 = @func_1133() /* ty=(Tensor[(?, 5, 15), float32], Tensor[(?, 5, 15), int64]) */;
  %930 = @func_581() /* ty=(Tensor[(?, 5, 15), int64], Tensor[(?, 5, 15), uint16], Tensor[(?, 5, 15), int64]) */;
  %931 = @func_740() /* ty=(Tensor[(?, 5, 15), float64],) */;
  %932 = @func_2275() /* ty=(Tensor[(?, 5, 15), float64],) */;
  %933 = %929.0;
  %934 = %930.1;
  %935 = %931.0;
  %936 = @func_1946() /* ty=Tensor[(?, 5, 15), float32] */;
  %937 = @func_2114() /* ty=Tensor[(?, 5, 15), float64] */;
  %938 = @func_2243() /* ty=Tensor[(?, 5, 15), float32] */;
  %939 = %932.0;
  (%933, %934, %935, %936, %937, %938, %939)
}

def @func_3033(%var_2998: Tensor[(7, 5, 15), float64]) -> (Tensor[(7, 5, 15), uint32], Tensor[(?, 5, 15), float64], Tensor[(?, 5, 15), int64], Tensor[(?, 5, 15), float32]) {
  %940 = @func_1406() /* ty=(Tensor[(?, 5, 15), float64],) */;
  %941 = %940.0;
  %942 = cast(%941, dtype="uint32") /* ty=Tensor[(?, 5, 15), uint32] */;
  %943 = cast(%var_2998, dtype="uint32") /* ty=Tensor[(7, 5, 15), uint32] */;
  %944 = @func_944() /* ty=(Tensor[(?, 5, 15), float64], Tensor[(?, 5, 15), float32]) */;
  %945 = @func_1220() /* ty=(Tensor[(12, 6, 3), bool], Tensor[(36, 6), uint8], Tensor[(?, 5, 15), float32]) */;
  %946 = minimum(%942, %943) /* ty=Tensor[(7, 5, 15), uint32] */;
  %947 = %944.0;
  %948 = @func_2201() /* ty=Tensor[(?, 5, 15), int64] */;
  %949 = %945.2;
  (%946, %947, %948, %949)
}

def @func_7632(%var_7624: uint16) -> (Tensor[(?, 5, 15), float32], Tensor[(8, 10, 1), bool], uint16) {
  %950 = @func_3997() /* ty=(Tensor[(?, 5, 15), float32],) */;
  %951 = cast(%var_7624, dtype="uint16") /* ty=uint16 */;
  %952 = reshape(%951, newshape=[]) /* ty=uint16 */;
  %953 = %950.0;
  %954 = @func_6352(%952) /* ty=Tensor[(8, 10, 1), bool] */;
  (%953, %954, %var_7624)
}

def @func_1894() -> (Tensor[(?, 5, 15), float64], Tensor[(?, 5, 15), int64], Tensor[(12, 6, 3), float64], Tensor[(?, 5, 15), float32]) {
  %955 = @func_1109() /* ty=(Tensor[(?, 5, 15), float32], Tensor[(?, 5, 15), float32]) */;
  %956 = %955.1;
  %957 = cast(%956, dtype="float32") /* ty=Tensor[(?, 5, 15), float32] */;
  %958 = atanh(%957) /* ty=Tensor[(?, 5, 15), float32] */;
  %959 = cast(%956, dtype="float64") /* ty=Tensor[(?, 5, 15), float64] */;
  %960 = shape_of(%958, dtype="int32") /* ty=Tensor[(3), int32] */;
  %961 = cast(%958, dtype="float64") /* ty=Tensor[(?, 5, 15), float64] */;
  %962 = dyn.reshape(%959, %960, newshape=[]) /* ty=Tensor[(?, ?, ?), float64] */;
  %963 = @func_670() /* ty=(Tensor[(?, 5, 15), int64], Tensor[(?, 5, 15), float32]) */;
  %964 = @func_1220() /* ty=(Tensor[(12, 6, 3), bool], Tensor[(36, 6), uint8], Tensor[(?, 5, 15), float32]) */;
  %965 = %964.0;
  %966 = cast(%965, dtype="float64") /* ty=Tensor[(12, 6, 3), float64] */;
  %967 = power(%961, %962) /* ty=Tensor[(?, 5, 15), float64] */;
  %968 = %963.0;
  %969 = sqrt(%966) /* ty=Tensor[(12, 6, 3), float64] */;
  %970 = @func_374() /* ty=Tensor[(?, 5, 15), float32] */;
  (%967, %968, %969, %970)
}

def @func_10819() -> (Tensor[(?, 5, 15), float32],) {
  %971 = @func_7087() /* ty=Tensor[(?, 5, 15), float32] */;
  (%971,)
}

def @func_9542() -> (Tensor[(?, 5, 15), int64], Tensor[(?, 5, 15), float64]) {
  %972 = @func_3256() /* ty=(Tensor[(?, 5, 15), float64],) */;
  %973 = @func_2201() /* ty=Tensor[(?, 5, 15), int64] */;
  %974 = %972.0;
  (%973, %974)
}

def @func_1549() -> Tensor[(?, 5, 15), float32] {
  %975 = @func_825() /* ty=(Tensor[(?, 5, 15), float32], Tensor[(?, 5, 15), float32]) */;
  %975.1
}

def @func_2500() -> Tensor[(?, 5, 15), int64] {
  @func_2201() /* ty=Tensor[(?, 5, 15), int64] */
}

def @func_825() -> (Tensor[(?, 5, 15), float32], Tensor[(?, 5, 15), float32]) {
  %976 = @func_794() /* ty=(Tensor[(?, 5, 15), float32], Tensor[(?, 5, 15), int64]) */;
  %977 = %976.0;
  %978 = @func_374() /* ty=Tensor[(?, 5, 15), float32] */;
  (%977, %978)
}

def @func_5410(%var_5340: Tensor[(36), float32], %var_5372: Tensor[(216), uint8]) -> (Tensor[(?, 5, 15), uint16], Tensor[(?, 5, 15), float64], Tensor[(?, 5, 15), float32], Tensor[(?, 5, 15), float32], Tensor[(?, 5, 15), float64], Tensor[(450), float32], Tensor[(12, 3, 216), bool]) {
  %979 = @func_581() /* ty=(Tensor[(?, 5, 15), int64], Tensor[(?, 5, 15), uint16], Tensor[(?, 5, 15), int64]) */;
  %980 = @func_4158() /* ty=(Tensor[(?, 5, 15), float32],) */;
  %981 = cast(%var_5372, dtype="uint8") /* ty=Tensor[(216), uint8] */;
  %982 = cast(%var_5372, dtype="uint8") /* ty=Tensor[(216), uint8] */;
  %983 = reshape(%981, newshape=[12, 6, 3]) /* ty=Tensor[(12, 6, 3), uint8] */;
  %984 = reshape(%982, newshape=[12, 6, 3]) /* ty=Tensor[(12, 6, 3), uint8] */;
  %985 = @func_848(%983, %984) /* ty=(Tensor[(12, 6, 3), bool], Tensor[(?, 5, 15), float32]) */;
  %986 = cast(meta[relay.Constant][24] /* ty=Tensor[(450), float32] */, dtype="float32") /* ty=Tensor[(450), float32] */;
  %987 = reshape(%986, newshape=[6, 5, 15]) /* ty=Tensor[(6, 5, 15), float32] */;
  %988 = @func_3534(%987) /* ty=(Tensor[(?, 5, 15), float64], Tensor[(6, 5, 15), float64], Tensor[(?, 5, 15), float64]) */;
  %989 = cast(%var_5340, dtype="float32") /* ty=Tensor[(36), float32] */;
  %990 = reshape(%989, newshape=[12, 3, 1]) /* ty=Tensor[(12, 3, 1), float32] */;
  %991 = @func_2890(%990) /* ty=(Tensor[(12, 3, ?), int16], Tensor[(12, 3, ?), bool]) */;
  %992 = %991.0;
  %993 = cast(%var_5340, dtype="bool") /* ty=Tensor[(36), bool] */;
  %994 = shape_of(%992, dtype="int32") /* ty=Tensor[(3), int32] */;
  %995 = cast(%992, dtype="bool") /* ty=Tensor[(12, 3, ?), bool] */;
  %996 = dyn.reshape(%993, %994, newshape=[]) /* ty=Tensor[(?, ?, ?), bool] */;
  %997 = greater_equal(%995, %996) /* ty=Tensor[(12, 3, ?), bool] */;
  %998 = cast(%var_5372, dtype="bool") /* ty=Tensor[(216), bool] */;
  %999 = cast(%997, dtype="bool") /* ty=Tensor[(12, 3, ?), bool] */;
  %1000 = %979.1;
  %1001 = @func_2114() /* ty=Tensor[(?, 5, 15), float64] */;
  %1002 = %980.0;
  %1003 = %985.1;
  %1004 = %988.0;
  %1005 = less(%998, %999) /* ty=Tensor[(12, 3, 216), bool] */;
  (%1000, %1001, %1002, %1003, %1004, meta[relay.Constant][24] /* ty=Tensor[(450), float32] */, %1005)
}

def @func_10191() -> Tensor[(12, 6, 3), bool] {
  %1006 = @func_6812() /* ty=(Tensor[(8, 16, 16), bool], Tensor[(?, 5, 15), bool], Tensor[(12, 6, 3), bool]) */;
  %1006.2
}

def @func_7766() -> (Tensor[(?, 5, 15), float32], Tensor[(?, 5, 15), float64], Tensor[(450), float32], Tensor[(?, 5, 15), float32]) {
  %1007 = @func_670() /* ty=(Tensor[(?, 5, 15), int64], Tensor[(?, 5, 15), float32]) */;
  %1008 = cast(meta[relay.Constant][25] /* ty=Tensor[(450), float32] */, dtype="float32") /* ty=Tensor[(450), float32] */;
  %1009 = reshape(%1008, newshape=[6, 5, 15]) /* ty=Tensor[(6, 5, 15), float32] */;
  %1010 = @func_3534(%1009) /* ty=(Tensor[(?, 5, 15), float64], Tensor[(6, 5, 15), float64], Tensor[(?, 5, 15), float64]) */;
  %1011 = %1007.1;
  %1012 = %1010.0;
  %1013 = @func_443() /* ty=Tensor[(?, 5, 15), float32] */;
  (%1011, %1012, meta[relay.Constant][25] /* ty=Tensor[(450), float32] */, %1013)
}

def @func_10679() -> Tensor[(?, 5, 15), int64] {
  %1014 = @func_9542() /* ty=(Tensor[(?, 5, 15), int64], Tensor[(?, 5, 15), float64]) */;
  %1014.0
}

def @func_5077() -> Tensor[(?, 5, 15), float64] {
  @func_1984() /* ty=Tensor[(?, 5, 15), float64] */
}

def @func_1220() -> (Tensor[(12, 6, 3), bool], Tensor[(36, 6), uint8], Tensor[(?, 5, 15), float32]) {
  %1015 = cast(meta[relay.Constant][26] /* ty=Tensor[(36, 6), uint8] */, dtype="uint8") /* ty=Tensor[(36, 6), uint8] */;
  %1016 = cast(meta[relay.Constant][26] /* ty=Tensor[(36, 6), uint8] */, dtype="uint8") /* ty=Tensor[(36, 6), uint8] */;
  %1017 = reshape(%1015, newshape=[12, 6, 3]) /* ty=Tensor[(12, 6, 3), uint8] */;
  %1018 = reshape(%1016, newshape=[12, 6, 3]) /* ty=Tensor[(12, 6, 3), uint8] */;
  %1019 = @func_848(%1017, %1018) /* ty=(Tensor[(12, 6, 3), bool], Tensor[(?, 5, 15), float32]) */;
  %1020 = @func_1109() /* ty=(Tensor[(?, 5, 15), float32], Tensor[(?, 5, 15), float32]) */;
  %1021 = %1020.1;
  %1022 = cast(%1021, dtype="float32") /* ty=Tensor[(?, 5, 15), float32] */;
  %1023 = tan(%1022) /* ty=Tensor[(?, 5, 15), float32] */;
  %1024 = cast(%1023, dtype="float32") /* ty=Tensor[(?, 5, 15), float32] */;
  %1025 = %1019.0;
  %1026 = log10(%1024) /* ty=Tensor[(?, 5, 15), float32] */;
  (%1025, meta[relay.Constant][26] /* ty=Tensor[(36, 6), uint8] */, %1026)
}

def @func_9776() -> Tensor[(?, 5, 15), bool] {
  %1027 = @func_7143() /* ty=(Tensor[(?, 5, 15), bool],) */;
  %1027.0
}

def @func_11661(%var_11646: Tensor[(8, 16, 16), bool]) -> (Tensor[(?, 5, 15), int64], Tensor[(8, 16, 16), float64], Tensor[(?, 5, 15), float32]) {
  %1028 = @func_1016() /* ty=(Tensor[(?, 5, 15), float32], Tensor[(?, 5, 15), float32], Tensor[(?, 5, 15), int64]) */;
  %1029 = @func_10101() /* ty=(Tensor[(?, 5, 15), float32], Tensor[(?, 5, 15), float64], Tensor[(8, 16, 16), bool], Tensor[(?, 5, 15), float64], Tensor[(?, 5, 15), float32]) */;
  %1030 = %1029.2;
  %1031 = cast(%var_11646, dtype="float64") /* ty=Tensor[(8, 16, 16), float64] */;
  %1032 = shape_of(%1030, dtype="int32") /* ty=Tensor[(3), int32] */;
  %1033 = cast(%1030, dtype="float64") /* ty=Tensor[(8, 16, 16), float64] */;
  %1034 = dyn.reshape(%1031, %1032, newshape=[]) /* ty=Tensor[(?, ?, ?), float64] */;
  %1035 = @func_2719() /* ty=(Tensor[(?, 5, 15), int64], Tensor[(?, 5, 15), float32], Tensor[(300), float32]) */;
  %1036 = %1028.2;
  %1037 = divide(%1033, %1034) /* ty=Tensor[(8, 16, 16), float64] */;
  %1038 = %1035.1;
  (%1036, %1037, %1038)
}

def @func_2913() -> (Tensor[(36, 6), uint8], Tensor[(5, 5, 15), bool]) {
  %1039 = @func_1220() /* ty=(Tensor[(12, 6, 3), bool], Tensor[(36, 6), uint8], Tensor[(?, 5, 15), float32]) */;
  %1040 = %1039.1;
  %1041 = @func_1500() /* ty=Tensor[(5, 5, 15), bool] */;
  (%1040, %1041)
}

def @func_5666() -> (Tensor[(?, 5, 15), float32],) {
  %1042 = @func_1946() /* ty=Tensor[(?, 5, 15), float32] */;
  (%1042,)
}

def @func_4756() -> (Tensor[(?, 5, 15), float64],) {
  %1043 = @func_3931() /* ty=Tensor[(?, 5, 15), float64] */;
  (%1043,)
}

def @func_11174() -> (Tensor[(?, 5, 15), float64], Tensor[(?, 5, 15), float32]) {
  %1044 = @func_1984() /* ty=Tensor[(?, 5, 15), float64] */;
  %1045 = @func_10550() /* ty=Tensor[(?, 5, 15), float32] */;
  (%1044, %1045)
}

def @func_8226() -> Tensor[(9, 3, 14), float64] {
  %1046 = @func_6011() /* ty=(Tensor[(?, 5, 15), float32], Tensor[(9, 3, 14), float64]) */;
  %1046.1
}

def @func_11237() -> (Tensor[(?, 5, 15), float32], Tensor[(?, 5, 15), float64]) {
  %1047 = @func_4756() /* ty=(Tensor[(?, 5, 15), float64],) */;
  %1048 = @func_1549() /* ty=Tensor[(?, 5, 15), float32] */;
  %1049 = %1047.0;
  (%1048, %1049)
}

def @func_12190() -> (Tensor[(?, 5, 15), uint16], Tensor[(?, 5, 15), float32]) {
  %1050 = @func_2139() /* ty=(Tensor[(?, 5, 15), uint16],) */;
  %1051 = %1050.0;
  %1052 = @func_11483() /* ty=Tensor[(?, 5, 15), float32] */;
  (%1051, %1052)
}

def @func_11540(%var_11519: Tensor[(9, 10, 5), uint8], %var_11520: Tensor[(9, 10, 5), uint8]) -> (Tensor[(9, 10, 5), uint8], Tensor[(?, 5, 15), int64], Tensor[(?, 5, 15), float32]) {
  %1053 = cast(%var_11520, dtype="uint8") /* ty=Tensor[(9, 10, 5), uint8] */;
  %1054 = shape_of(%var_11519, dtype="int32") /* ty=Tensor[(3), int32] */;
  %1055 = cast(%var_11519, dtype="uint8") /* ty=Tensor[(9, 10, 5), uint8] */;
  %1056 = dyn.reshape(%1053, %1054, newshape=[]) /* ty=Tensor[(?, ?, ?), uint8] */;
  %1057 = @func_5032() /* ty=(Tensor[(7, 5, 15), bool], Tensor[(?, 5, 15), float32], Tensor[(?, 5, 15), float32]) */;
  %1058 = left_shift(%1055, %1056) /* ty=Tensor[(9, 10, 5), uint8] */;
  %1059 = @func_2500() /* ty=Tensor[(?, 5, 15), int64] */;
  %1060 = %1057.2;
  (%1058, %1059, %1060)
}

def @func_13802() -> (Tensor[(?, 5, 15), float32], Tensor[(?, 5, 15), float32], Tensor[(?, 5, 15), float64], Tensor[(?, 5, 15), float64]) {
  %1061 = @func_12963() /* ty=(Tensor[(?, 5, 15), float64], Tensor[(?, 5, 15), float32]) */;
  %1062 = @func_2243() /* ty=Tensor[(?, 5, 15), float32] */;
  %1063 = %1061.1;
  %1064 = @func_3931() /* ty=Tensor[(?, 5, 15), float64] */;
  %1065 = @func_10574() /* ty=Tensor[(?, 5, 15), float64] */;
  (%1062, %1063, %1064, %1065)
}

def @func_13882() -> (Tensor[(?, 5, 15), float32], Tensor[(?, 5, 15), float32], Tensor[(?, 5, 15), float64]) {
  %1066 = @func_6708() /* ty=(Tensor[(300), float32], Tensor[(?, 5, 15), float32], Tensor[(?, 5, 15), float32]) */;
  %1067 = @func_9746() /* ty=(Tensor[(?, 5, 15), float64], Tensor[(?, 5, 15), int64]) */;
  %1068 = @func_8540() /* ty=Tensor[(?, 5, 15), float32] */;
  %1069 = %1066.2;
  %1070 = %1067.0;
  (%1068, %1069, %1070)
}

def @func_3435() -> Tensor[(?, 5, 15), float64] {
  %1071 = @func_3256() /* ty=(Tensor[(?, 5, 15), float64],) */;
  %1071.0
}

def @func_1676(%var_1664: Tensor[(12, 5, 15), float32]) -> (Tensor[(12, 5, 15), bool], Tensor[(?, 5, 15), float64]) {
  %1072 = @func_923() /* ty=(Tensor[(?, 5, 15), float32],) */;
  %1073 = %1072.0;
  %1074 = cast(%1073, dtype="bool") /* ty=Tensor[(?, 5, 15), bool] */;
  %1075 = cast(%var_1664, dtype="bool") /* ty=Tensor[(12, 5, 15), bool] */;
  %1076 = @func_1529() /* ty=(Tensor[(?, 5, 15), float64],) */;
  %1077 = greater(%1074, %1075) /* ty=Tensor[(12, 5, 15), bool] */;
  %1078 = %1076.0;
  (%1077, %1078)
}

def @func_7412() -> Tensor[(?, 5, 15), float64] {
  %1079 = @func_1894() /* ty=(Tensor[(?, 5, 15), float64], Tensor[(?, 5, 15), int64], Tensor[(12, 6, 3), float64], Tensor[(?, 5, 15), float32]) */;
  %1079.0
}

def @func_11581() -> Tensor[(?, 5, 15), float64] {
  %1080 = @func_9848() /* ty=(Tensor[(?, 5, 15), float64], Tensor[(9, 3, 14), float64]) */;
  %1080.0
}

def @func_848(%var_839: Tensor[(12, 6, 3), uint8], %var_840: Tensor[(12, 6, 3), uint8]) -> (Tensor[(12, 6, 3), bool], Tensor[(?, 5, 15), float32]) {
  %1081 = cast(%var_840, dtype="bool") /* ty=Tensor[(12, 6, 3), bool] */;
  %1082 = shape_of(%var_839, dtype="int32") /* ty=Tensor[(3), int32] */;
  %1083 = cast(%var_839, dtype="bool") /* ty=Tensor[(12, 6, 3), bool] */;
  %1084 = dyn.reshape(%1081, %1082, newshape=[]) /* ty=Tensor[(?, ?, ?), bool] */;
  %1085 = greater_equal(%1083, %1084) /* ty=Tensor[(12, 6, 3), bool] */;
  %1086 = @func_443() /* ty=Tensor[(?, 5, 15), float32] */;
  (%1085, %1086)
}

def @func_7907() -> Tensor[(?, 5, 15), float32] {
  @func_7185() /* ty=Tensor[(?, 5, 15), float32] */
}

def @func_5268() -> Tensor[(?, 5, 15), float32] {
  %1087 = @func_944() /* ty=(Tensor[(?, 5, 15), float64], Tensor[(?, 5, 15), float32]) */;
  %1087.1
}

def @func_3657() -> (Tensor[(8, 16, 16), bool],) {
  %1088 = cast(meta[relay.Constant][27] /* ty=Tensor[(8, 16, 16), float32] */, dtype="float32") /* ty=Tensor[(8, 16, 16), float32] */;
  %1089 = rsqrt(%1088) /* ty=Tensor[(8, 16, 16), float32] */;
  %1090 = cast(meta[relay.Constant][27] /* ty=Tensor[(8, 16, 16), float32] */, dtype="bool") /* ty=Tensor[(8, 16, 16), bool] */;
  %1091 = shape_of(%1089, dtype="int32") /* ty=Tensor[(3), int32] */;
  %1092 = cast(%1089, dtype="bool") /* ty=Tensor[(8, 16, 16), bool] */;
  %1093 = dyn.reshape(%1090, %1091, newshape=[]) /* ty=Tensor[(?, ?, ?), bool] */;
  %1094 = logical_or(%1092, %1093) /* ty=Tensor[(8, 16, 16), bool] */;
  (%1094,)
}

def @func_4111() -> (Tensor[(?, 5, 15), float64], Tensor[(6, 5, 15), float64], Tensor[(450), float32]) {
  %1095 = cast(meta[relay.Constant][28] /* ty=Tensor[(450), float32] */, dtype="float32") /* ty=Tensor[(450), float32] */;
  %1096 = reshape(%1095, newshape=[6, 5, 15]) /* ty=Tensor[(6, 5, 15), float32] */;
  %1097 = @func_3534(%1096) /* ty=(Tensor[(?, 5, 15), float64], Tensor[(6, 5, 15), float64], Tensor[(?, 5, 15), float64]) */;
  %1098 = @func_3435() /* ty=Tensor[(?, 5, 15), float64] */;
  %1099 = %1097.1;
  (%1098, %1099, meta[relay.Constant][28] /* ty=Tensor[(450), float32] */)
}

/* For debugging purposes the metadata section has been omitted.
 * If you would like to see the full metadata section you can set the 
 * option to `True` when invoking `astext`. 
 */
===================================
==========mutated_mod==========
#[version = "0.0.5"]
def @func_13282(%var_13280: Tensor[(8, 6, 8), float64]) -> Tensor[(8, 6, 8), float32] {
  @func_13279(%var_13280) /* ty=Tensor[(8, 6, 8), float32] */
}

def @func_10191() -> Tensor[(12, 6, 3), bool] {
  %0 = @func_6812() /* ty=(Tensor[(8, 16, 16), bool], Tensor[(?, 5, 15), bool], Tensor[(12, 6, 3), bool]) */;
  %0.2
}

def @func_1986() -> Tensor[(?, 5, 15), float64] {
  @func_1984() /* ty=Tensor[(?, 5, 15), float64] */
}

def @func_6850() -> (Tensor[(?, 5, 15), float64], Tensor[(12, 6, 3), float64]) {
  @func_6848() /* ty=(Tensor[(?, 5, 15), float64], Tensor[(12, 6, 3), float64]) */
}

def @func_443() -> Tensor[(?, 5, 15), float32] {
  @func_374() /* ty=Tensor[(?, 5, 15), float32] */
}

def @func_3221() -> (Tensor[(?, 5, 15), float64], Tensor[(?, 5, 15), float64]) {
  @func_3219() /* ty=(Tensor[(?, 5, 15), float64], Tensor[(?, 5, 15), float64]) */
}

def @func_7634(%var_7633: uint16) -> (Tensor[(?, 5, 15), float32], Tensor[(8, 10, 1), bool], uint16) {
  %6 = fn (%var_7624: uint16) -> (Tensor[(?, 5, 15), float32], Tensor[(8, 10, 1), bool], uint16) {
    %1 = @func_3997() /* ty=(Tensor[(?, 5, 15), float32],) */;
    %2 = cast(%var_7624, dtype="uint16") /* ty=uint16 */;
    %3 = reshape(%2, newshape=[]) /* ty=uint16 */;
    %4 = %1.0;
    %5 = @func_6352(%3) /* ty=Tensor[(8, 10, 1), bool] */;
    (%4, %5, %var_7624)
  };
  %6(%var_7633) /* ty=(Tensor[(?, 5, 15), float32], Tensor[(8, 10, 1), bool], uint16) */
}

def @func_10899(%var_10896: Tensor[(3, 16, 1), bool], %var_10897: Tensor[(300, 8), float32], %var_10898: Tensor[(300, 8), float32]) -> (Tensor[(300, 8), float32], Tensor[(?, 5, 15), float32], Tensor[(336), float64], Tensor[(300, 8), bool], Tensor[(3, 16, 11), float32], Tensor[(?, 5, 15), float32]) {
  %33 = fn (%var_10827: Tensor[(3, 16, 1), bool], %var_10842: Tensor[(300, 8), float32], %var_10850: Tensor[(300, 8), float32]) -> (Tensor[(300, 8), float32], Tensor[(?, 5, 15), float32], Tensor[(336), float64], Tensor[(300, 8), bool], Tensor[(3, 16, 11), float32], Tensor[(?, 5, 15), float32]) {
    %7 = @func_8649() /* ty=(Tensor[(?, 5, 15), float64], Tensor[(?, 5, 15), float32], Tensor[(300, 1), float32]) */;
    %8 = %7.2;
    %9 = cast(%8, dtype="float32") /* ty=Tensor[(300, 1), float32] */;
    %10 = cast(%var_10842, dtype="float32") /* ty=Tensor[(300, 8), float32] */;
    %11 = cast(meta[relay.Constant][0] /* ty=Tensor[(336), float64] */, dtype="float64") /* ty=Tensor[(336), float64] */;
    %12 = reshape(%11, newshape=[14, 4, 6]) /* ty=Tensor[(14, 4, 6), float64] */;
    %13 = @func_9086(%12) /* ty=(Tensor[(14, 4, 6), float64], Tensor[(?, 5, 15), float32]) */;
    %14 = cast(%var_10850, dtype="bool") /* ty=Tensor[(300, 8), bool] */;
    %15 = shape_of(%var_10842, dtype="int32") /* ty=Tensor[(2), int32] */;
    %16 = cast(%var_10842, dtype="bool") /* ty=Tensor[(300, 8), bool] */;
    %17 = dyn.reshape(%14, %15, newshape=[]) /* ty=Tensor[(?, ?), bool] */;
    %18 = equal(%16, %17) /* ty=Tensor[(300, 8), bool] */;
    %19 = cast(%var_10842, dtype="bool") /* ty=Tensor[(300, 8), bool] */;
    %20 = shape_of(%18, dtype="int32") /* ty=Tensor[(2), int32] */;
    %21 = cast(%18, dtype="bool") /* ty=Tensor[(300, 8), bool] */;
    %22 = dyn.reshape(%19, %20, newshape=[]) /* ty=Tensor[(?, ?), bool] */;
    %23 = cast(%var_10827, dtype="bool") /* ty=Tensor[(3, 16, 1), bool] */;
    %24 = cast(meta[relay.Constant][1] /* ty=Tensor[(3, 16, 11), bool] */, dtype="bool") /* ty=Tensor[(3, 16, 11), bool] */;
    %25 = logical_and(%23, %24) /* ty=Tensor[(3, 16, 11), bool] */;
    %26 = cast(%25, dtype="float32") /* ty=Tensor[(3, 16, 11), float32] */;
    %27 = @func_10362() /* ty=(Tensor[(?, 5, 15), float32],) */;
    %28 = mod(%9, %10) /* ty=Tensor[(300, 8), float32] */;
    %29 = %13.1;
    %30 = greater_equal(%21, %22) /* ty=Tensor[(300, 8), bool] */;
    %31 = acos(%26) /* ty=Tensor[(3, 16, 11), float32] */;
    %32 = %27.0;
    (%28, %29, meta[relay.Constant][0] /* ty=Tensor[(336), float64] */, %30, %31, %32)
  };
  %33(%var_10896, %var_10897, %var_10898) /* ty=(Tensor[(300, 8), float32], Tensor[(?, 5, 15), float32], Tensor[(336), float64], Tensor[(300, 8), bool], Tensor[(3, 16, 11), float32], Tensor[(?, 5, 15), float32]) */
}

def @func_4554() -> Tensor[(?, 5, 15), float32] {
  %34 = @func_2780() /* ty=(Tensor[(?, 5, 15), float32],) */;
  %34.0
}

def @func_7144() -> (Tensor[(?, 5, 15), bool],) {
  %43 = fn () -> (Tensor[(?, 5, 15), bool],) {
    %35 = @func_2981() /* ty=Tensor[(?, 5, 15), float64] */;
    %36 = @func_3190() /* ty=(Tensor[(?, 5, 15), int64],) */;
    %37 = %36.0;
    %38 = cast(%37, dtype="bool") /* ty=Tensor[(?, 5, 15), bool] */;
    %39 = shape_of(%35, dtype="int32") /* ty=Tensor[(3), int32] */;
    %40 = cast(%35, dtype="bool") /* ty=Tensor[(?, 5, 15), bool] */;
    %41 = dyn.reshape(%38, %39, newshape=[]) /* ty=Tensor[(?, ?, ?), bool] */;
    %42 = not_equal(%40, %41) /* ty=Tensor[(?, 5, 15), bool] */;
    (%42,)
  };
  %43() /* ty=(Tensor[(?, 5, 15), bool],) */
}

def @func_10773() -> (Tensor[(?, 5, 15), float32], Tensor[(?, 5, 15), int64], Tensor[(?, 5, 15), float64]) {
  %44 = @func_3190() /* ty=(Tensor[(?, 5, 15), int64],) */;
  %45 = @func_4578() /* ty=Tensor[(?, 5, 15), float32] */;
  %46 = %44.0;
  %47 = @func_10629() /* ty=Tensor[(?, 5, 15), float64] */;
  (%45, %46, %47)
}

def @func_8181() -> (Tensor[(5, 5, 15), bool], Tensor[(?, 5, 15), float32], Tensor[(?, 5, 15), float64], Tensor[(?, 5, 15), float32], Tensor[(36, 6), bool]) {
  %48 = @func_3086() /* ty=(Tensor[(?, 5, 15), float64], Tensor[(?, 5, 15), float64]) */;
  %49 = @func_6450() /* ty=(Tensor[(?, 5, 15), float32],) */;
  %50 = @func_1220() /* ty=(Tensor[(12, 6, 3), bool], Tensor[(36, 6), uint8], Tensor[(?, 5, 15), float32]) */;
  %51 = %50.1;
  %52 = cast(%51, dtype="float64") /* ty=Tensor[(36, 6), float64] */;
  %53 = exp(%52) /* ty=Tensor[(36, 6), float64] */;
  %54 = cast(%53, dtype="float64") /* ty=Tensor[(36, 6), float64] */;
  %55 = sqrt(%54) /* ty=Tensor[(36, 6), float64] */;
  %56 = cast(%55, dtype="float64") /* ty=Tensor[(36, 6), float64] */;
  %57 = log10(%56) /* ty=Tensor[(36, 6), float64] */;
  %58 = cast(%55, dtype="float32") /* ty=Tensor[(36, 6), float32] */;
  %59 = shape_of(%53, dtype="int32") /* ty=Tensor[(2), int32] */;
  %60 = cast(%53, dtype="float32") /* ty=Tensor[(36, 6), float32] */;
  %61 = dyn.reshape(%58, %59, newshape=[]) /* ty=Tensor[(?, ?), float32] */;
  %62 = divide(%60, %61) /* ty=Tensor[(36, 6), float32] */;
  %63 = cast(%62, dtype="bool") /* ty=Tensor[(36, 6), bool] */;
  %64 = shape_of(%57, dtype="int32") /* ty=Tensor[(2), int32] */;
  %65 = cast(%57, dtype="bool") /* ty=Tensor[(36, 6), bool] */;
  %66 = dyn.reshape(%63, %64, newshape=[]) /* ty=Tensor[(?, ?), bool] */;
  %67 = @func_1500() /* ty=Tensor[(5, 5, 15), bool] */;
  %68 = @func_1946() /* ty=Tensor[(?, 5, 15), float32] */;
  %69 = %48.0;
  %70 = %49.0;
  %71 = greater(%65, %66) /* ty=Tensor[(36, 6), bool] */;
  (%67, %68, %69, %70, %71)
}

def @func_1221() -> (Tensor[(12, 6, 3), bool], Tensor[(36, 6), uint8], Tensor[(?, 5, 15), float32]) {
  %84 = fn () -> (Tensor[(12, 6, 3), bool], Tensor[(36, 6), uint8], Tensor[(?, 5, 15), float32]) {
    %72 = cast(meta[relay.Constant][2] /* ty=Tensor[(36, 6), uint8] */, dtype="uint8") /* ty=Tensor[(36, 6), uint8] */;
    %73 = cast(meta[relay.Constant][2] /* ty=Tensor[(36, 6), uint8] */, dtype="uint8") /* ty=Tensor[(36, 6), uint8] */;
    %74 = reshape(%72, newshape=[12, 6, 3]) /* ty=Tensor[(12, 6, 3), uint8] */;
    %75 = reshape(%73, newshape=[12, 6, 3]) /* ty=Tensor[(12, 6, 3), uint8] */;
    %76 = @func_848(%74, %75) /* ty=(Tensor[(12, 6, 3), bool], Tensor[(?, 5, 15), float32]) */;
    %77 = @func_1109() /* ty=(Tensor[(?, 5, 15), float32], Tensor[(?, 5, 15), float32]) */;
    %78 = %77.1;
    %79 = cast(%78, dtype="float32") /* ty=Tensor[(?, 5, 15), float32] */;
    %80 = tan(%79) /* ty=Tensor[(?, 5, 15), float32] */;
    %81 = cast(%80, dtype="float32") /* ty=Tensor[(?, 5, 15), float32] */;
    %82 = %76.0;
    %83 = log10(%81) /* ty=Tensor[(?, 5, 15), float32] */;
    (%82, meta[relay.Constant][2] /* ty=Tensor[(36, 6), uint8] */, %83)
  };
  %84() /* ty=(Tensor[(12, 6, 3), bool], Tensor[(36, 6), uint8], Tensor[(?, 5, 15), float32]) */
}

def @func_13143() -> (Tensor[(?, 5, 15), float32],) {
  @func_13141() /* ty=(Tensor[(?, 5, 15), float32],) */
}

def @func_13866() -> (Tensor[(?, 5, 15), float32],) {
  @func_13864() /* ty=(Tensor[(?, 5, 15), float32],) */
}

def @func_2890(%var_2842: Tensor[(12, 3, 1), float32]) -> (Tensor[(12, 3, ?), int16], Tensor[(12, 3, ?), bool]) {
  %85 = cast(%var_2842, dtype="float32") /* ty=Tensor[(12, 3, 1), float32] */;
  %86 = cos(%85) /* ty=Tensor[(12, 3, 1), float32] */;
  %87 = cast(%var_2842, dtype="int16") /* ty=Tensor[(12, 3, 1), int16] */;
  %88 = shape_of(%86, dtype="int32") /* ty=Tensor[(3), int32] */;
  %89 = cast(%86, dtype="int16") /* ty=Tensor[(12, 3, 1), int16] */;
  %90 = dyn.reshape(%87, %88, newshape=[]) /* ty=Tensor[(?, ?, ?), int16] */;
  %91 = cast(%var_2842, dtype="float32") /* ty=Tensor[(12, 3, 1), float32] */;
  %92 = shape_of(%86, dtype="int32") /* ty=Tensor[(3), int32] */;
  %93 = cast(%86, dtype="float32") /* ty=Tensor[(12, 3, 1), float32] */;
  %94 = dyn.reshape(%91, %92, newshape=[]) /* ty=Tensor[(?, ?, ?), float32] */;
  %95 = mod(%93, %94) /* ty=Tensor[(12, 3, ?), float32] */;
  %96 = cast(%95, dtype="bool") /* ty=Tensor[(12, 3, ?), bool] */;
  %97 = shape_of(%var_2842, dtype="int32") /* ty=Tensor[(3), int32] */;
  %98 = cast(%var_2842, dtype="bool") /* ty=Tensor[(12, 3, 1), bool] */;
  %99 = dyn.reshape(%96, %97, newshape=[]) /* ty=Tensor[(?, ?, ?), bool] */;
  %100 = multiply(%89, %90) /* ty=Tensor[(12, 3, ?), int16] */;
  %101 = logical_or(%98, %99) /* ty=Tensor[(12, 3, ?), bool] */;
  (%100, %101)
}

def @func_7186() -> Tensor[(?, 5, 15), float32] {
  %103 = fn () -> Tensor[(?, 5, 15), float32] {
    %102 = @func_794() /* ty=(Tensor[(?, 5, 15), float32], Tensor[(?, 5, 15), int64]) */;
    %102.0
  };
  %103() /* ty=Tensor[(?, 5, 15), float32] */
}

def @func_7335(%var_7334: Tensor[(512), float32]) -> (Tensor[(?, 5, 15), int64], Tensor[(?, 5, 15), float64], Tensor[(?, 5, 15), float64], Tensor[(9, 3, 14), float64], Tensor[(300), float32], Tensor[(?, 5, 15), float64], Tensor[(?, 5, 15), int64], Tensor[(8, 8, 8), float64]) {
  %123 = fn (%var_7276: Tensor[(512), float32]) -> (Tensor[(?, 5, 15), int64], Tensor[(?, 5, 15), float64], Tensor[(?, 5, 15), float64], Tensor[(9, 3, 14), float64], Tensor[(300), float32], Tensor[(?, 5, 15), float64], Tensor[(?, 5, 15), int64], Tensor[(8, 8, 8), float64]) {
    %104 = @func_3219() /* ty=(Tensor[(?, 5, 15), float64], Tensor[(?, 5, 15), float64]) */;
    %105 = @func_6011() /* ty=(Tensor[(?, 5, 15), float32], Tensor[(9, 3, 14), float64]) */;
    %106 = cast(%var_7276, dtype="float32") /* ty=Tensor[(512), float32] */;
    %107 = cast(meta[relay.Constant][3] /* ty=Tensor[(300), float32] */, dtype="float32") /* ty=Tensor[(300), float32] */;
    %108 = reshape(%106, newshape=[8, 8, 8]) /* ty=Tensor[(8, 8, 8), float32] */;
    %109 = reshape(%107, newshape=[300, 1]) /* ty=Tensor[(300, 1), float32] */;
    %110 = @func_5618(%108, %109) /* ty=(Tensor[(8, 8, 8), float32], Tensor[(?, 5, 15), int64], Tensor[(300, 1), float32], Tensor[(12, 3, ?), bool], Tensor[(36), float32]) */;
    %111 = %110.0;
    %112 = cast(%var_7276, dtype="float64") /* ty=Tensor[(512), float64] */;
    %113 = shape_of(%111, dtype="int32") /* ty=Tensor[(3), int32] */;
    %114 = cast(%111, dtype="float64") /* ty=Tensor[(8, 8, 8), float64] */;
    %115 = dyn.reshape(%112, %113, newshape=[]) /* ty=Tensor[(?, ?, ?), float64] */;
    %116 = @func_2500() /* ty=Tensor[(?, 5, 15), int64] */;
    %117 = %104.0;
    %118 = @func_1984() /* ty=Tensor[(?, 5, 15), float64] */;
    %119 = %105.1;
    %120 = @func_2981() /* ty=Tensor[(?, 5, 15), float64] */;
    %121 = @func_2500() /* ty=Tensor[(?, 5, 15), int64] */;
    %122 = divide(%114, %115) /* ty=Tensor[(8, 8, 8), float64] */;
    (%116, %117, %118, %119, meta[relay.Constant][3] /* ty=Tensor[(300), float32] */, %120, %121, %122)
  };
  %123(%var_7334) /* ty=(Tensor[(?, 5, 15), int64], Tensor[(?, 5, 15), float64], Tensor[(?, 5, 15), float64], Tensor[(9, 3, 14), float64], Tensor[(300), float32], Tensor[(?, 5, 15), float64], Tensor[(?, 5, 15), int64], Tensor[(8, 8, 8), float64]) */
}

def @func_2782() -> (Tensor[(?, 5, 15), float32],) {
  @func_2780() /* ty=(Tensor[(?, 5, 15), float32],) */
}

def @func_8240(%var_8237: Tensor[(6, 1, 5), float32]) -> (Tensor[(6, 1, 5), float32],) {
  %124 = cast(%var_8237, dtype="float32") /* ty=Tensor[(6, 1, 5), float32] */;
  %125 = log10(%124) /* ty=Tensor[(6, 1, 5), float32] */;
  (%125,)
}

def @func_8483() -> (Tensor[(?, 5, 15), int64], Tensor[(?, 5, 15), float64]) {
  @func_8481() /* ty=(Tensor[(?, 5, 15), int64], Tensor[(?, 5, 15), float64]) */
}

def @func_10442() -> (Tensor[(?, 5, 15), float64],) {
  %126 = @func_7946() /* ty=(Tensor[(?, 5, 15), float64],) */;
  %127 = %126.0;
  (%127,)
}

def @func_12191() -> (Tensor[(?, 5, 15), uint16], Tensor[(?, 5, 15), float32]) {
  %131 = fn () -> (Tensor[(?, 5, 15), uint16], Tensor[(?, 5, 15), float32]) {
    %128 = @func_2139() /* ty=(Tensor[(?, 5, 15), uint16],) */;
    %129 = %128.0;
    %130 = @func_11483() /* ty=Tensor[(?, 5, 15), float32] */;
    (%129, %130)
  };
  %131() /* ty=(Tensor[(?, 5, 15), uint16], Tensor[(?, 5, 15), float32]) */
}

def @func_12963() -> (Tensor[(?, 5, 15), float64], Tensor[(?, 5, 15), float32]) {
  %132 = @func_6141() /* ty=(Tensor[(?, 5, 15), float64], Tensor[(?, 5, 15), float64]) */;
  %133 = @func_4158() /* ty=(Tensor[(?, 5, 15), float32],) */;
  %134 = %132.0;
  %135 = %133.0;
  (%134, %135)
}

def @func_11485() -> Tensor[(?, 5, 15), float32] {
  @func_11483() /* ty=Tensor[(?, 5, 15), float32] */
}

def @func_3824(%var_3790: Tensor[(1, 5, 15), float32]) -> (Tensor[(?, 5, 15), bool], Tensor[(8, 16, 16), bool]) {
  %136 = @func_1016() /* ty=(Tensor[(?, 5, 15), float32], Tensor[(?, 5, 15), float32], Tensor[(?, 5, 15), int64]) */;
  %137 = %136.1;
  %138 = cast(%var_3790, dtype="bool") /* ty=Tensor[(1, 5, 15), bool] */;
  %139 = shape_of(%137, dtype="int32") /* ty=Tensor[(3), int32] */;
  %140 = cast(%137, dtype="bool") /* ty=Tensor[(?, 5, 15), bool] */;
  %141 = dyn.reshape(%138, %139, newshape=[]) /* ty=Tensor[(?, ?, ?), bool] */;
  %142 = @func_3657() /* ty=(Tensor[(8, 16, 16), bool],) */;
  %143 = greater_equal(%140, %141) /* ty=Tensor[(?, 5, 15), bool] */;
  %144 = %142.0;
  (%143, %144)
}

def @func_2983() -> Tensor[(?, 5, 15), float64] {
  @func_2981() /* ty=Tensor[(?, 5, 15), float64] */
}

def @func_9746() -> (Tensor[(?, 5, 15), float64], Tensor[(?, 5, 15), int64]) {
  %145 = @func_4498() /* ty=(Tensor[(?, 5, 15), float32], Tensor[(?, 5, 15), float64]) */;
  %146 = @func_581() /* ty=(Tensor[(?, 5, 15), int64], Tensor[(?, 5, 15), uint16], Tensor[(?, 5, 15), int64]) */;
  %147 = %145.1;
  %148 = %146.0;
  (%147, %148)
}

def @func_5489() -> (Tensor[(?, 5, 15), float32], Tensor[(?, 5, 15), float32], Tensor[(?, 5, 15), float32]) {
  %153 = fn () -> (Tensor[(?, 5, 15), float32], Tensor[(?, 5, 15), float32], Tensor[(?, 5, 15), float32]) {
    %149 = @func_3248() /* ty=(Tensor[(?, 5, 15), int64], Tensor[(?, 5, 15), float32]) */;
    %150 = %149.1;
    %151 = @func_3479() /* ty=Tensor[(?, 5, 15), float32] */;
    %152 = @func_5268() /* ty=Tensor[(?, 5, 15), float32] */;
    (%150, %151, %152)
  };
  %153() /* ty=(Tensor[(?, 5, 15), float32], Tensor[(?, 5, 15), float32], Tensor[(?, 5, 15), float32]) */
}

def @func_5519() -> (Tensor[(?, 5, 15), float32], Tensor[(?, 5, 15), float64], Tensor[(?, 5, 15), float32]) {
  @func_5517() /* ty=(Tensor[(?, 5, 15), float32], Tensor[(?, 5, 15), float64], Tensor[(?, 5, 15), float32]) */
}

def @func_3315() -> (Tensor[(?, 5, 15), float32], Tensor[(12, 6, 3), bool]) {
  %154 = @func_944() /* ty=(Tensor[(?, 5, 15), float64], Tensor[(?, 5, 15), float32]) */;
  %155 = @func_1220() /* ty=(Tensor[(12, 6, 3), bool], Tensor[(36, 6), uint8], Tensor[(?, 5, 15), float32]) */;
  %156 = %154.1;
  %157 = %155.0;
  (%156, %157)
}

def @func_12123(%var_12121: Tensor[(512), float32]) -> (Tensor[(512), float32], Tensor[(?, 5, 15), bool], Tensor[(3, 6, ?), bool]) {
  @func_12120(%var_12121) /* ty=(Tensor[(512), float32], Tensor[(?, 5, 15), bool], Tensor[(3, 6, ?), bool]) */
}

def @func_8226() -> Tensor[(9, 3, 14), float64] {
  %158 = @func_6011() /* ty=(Tensor[(?, 5, 15), float32], Tensor[(9, 3, 14), float64]) */;
  %158.1
}

def @func_8334() -> (Tensor[(?, 5, 15), float32],) {
  %160 = fn () -> (Tensor[(?, 5, 15), float32],) {
    %159 = @func_7087() /* ty=Tensor[(?, 5, 15), float32] */;
    (%159,)
  };
  %160() /* ty=(Tensor[(?, 5, 15), float32],) */
}

def @func_10264() -> (Tensor[(?, 5, 15), float32], Tensor[(?, 5, 15), float32], Tensor[(?, 5, 15), int64]) {
  %161 = @func_8181() /* ty=(Tensor[(5, 5, 15), bool], Tensor[(?, 5, 15), float32], Tensor[(?, 5, 15), float64], Tensor[(?, 5, 15), float32], Tensor[(36, 6), bool]) */;
  %162 = %161.2;
  %163 = @func_3435() /* ty=Tensor[(?, 5, 15), float64] */;
  %164 = cast(%163, dtype="float32") /* ty=Tensor[(?, 5, 15), float32] */;
  %165 = shape_of(%162, dtype="int32") /* ty=Tensor[(3), int32] */;
  %166 = cast(%162, dtype="float32") /* ty=Tensor[(?, 5, 15), float32] */;
  %167 = dyn.reshape(%164, %165, newshape=[]) /* ty=Tensor[(?, ?, ?), float32] */;
  %168 = @func_3315() /* ty=(Tensor[(?, 5, 15), float32], Tensor[(12, 6, 3), bool]) */;
  %169 = @func_9608() /* ty=(Tensor[(?, 5, 15), int64],) */;
  %170 = mod(%166, %167) /* ty=Tensor[(?, 5, 15), float32] */;
  %171 = %168.0;
  %172 = %169.0;
  (%170, %171, %172)
}

def @func_13500() -> (Tensor[(?, 5, 15), float64], Tensor[(?, 5, 15), float64]) {
  %177 = fn () -> (Tensor[(?, 5, 15), float64], Tensor[(?, 5, 15), float64]) {
    %173 = @func_4889() /* ty=(Tensor[(5, 5, 15), bool], Tensor[(?, 5, 15), float64]) */;
    %174 = @func_2034() /* ty=(Tensor[(?, 5, 15), float64], Tensor[(?, 5, 15), float32], Tensor[(?, 5, 15), float64]) */;
    %175 = %173.1;
    %176 = %174.0;
    (%175, %176)
  };
  %177() /* ty=(Tensor[(?, 5, 15), float64], Tensor[(?, 5, 15), float64]) */
}

def @func_3481() -> Tensor[(?, 5, 15), float32] {
  @func_3479() /* ty=Tensor[(?, 5, 15), float32] */
}

def @func_13109(%var_13017: Tensor[(300), float32], %var_13078: uint16) -> (Tensor[(?, 5, 15), float64], Tensor[(1008), float64], Tensor[(300), float32], Tensor[(450), float32], Tensor[(7, 11, 2), float32], Tensor[(?, 5, 15), float64], Tensor[(?, 5, 15), float32], Tensor[(8, 10, 1), bool], uint16, Tensor[(154, 450), bool]) {
  %178 = @func_3219() /* ty=(Tensor[(?, 5, 15), float64], Tensor[(?, 5, 15), float64]) */;
  %179 = cast(%var_13017, dtype="float32") /* ty=Tensor[(300), float32] */;
  %180 = reshape(%179, newshape=[10, 30]) /* ty=Tensor[(10, 30), float32] */;
  %181 = @func_12921(%180) /* ty=(Tensor[(?, 5, 15), float32], Tensor[(300), float32], Tensor[(1008), float64], Tensor[(10, 30), float32]) */;
  %182 = @func_4111() /* ty=(Tensor[(?, 5, 15), float64], Tensor[(6, 5, 15), float64], Tensor[(450), float32]) */;
  %183 = cast(meta[relay.Constant][4] /* ty=Tensor[(154, 1), float32] */, dtype="float32") /* ty=Tensor[(154, 1), float32] */;
  %184 = reshape(%183, newshape=[7, 11, 2]) /* ty=Tensor[(7, 11, 2), float32] */;
  %185 = @func_2214(%184) /* ty=(Tensor[(7, 11, 2), float32],) */;
  %186 = @func_2034() /* ty=(Tensor[(?, 5, 15), float64], Tensor[(?, 5, 15), float32], Tensor[(?, 5, 15), float64]) */;
  %187 = @func_10117() /* ty=(Tensor[(?, 5, 15), float32],) */;
  %188 = cast(%var_13078, dtype="uint16") /* ty=uint16 */;
  %189 = reshape(%188, newshape=[]) /* ty=uint16 */;
  %190 = @func_7766() /* ty=(Tensor[(?, 5, 15), float32], Tensor[(?, 5, 15), float64], Tensor[(450), float32], Tensor[(?, 5, 15), float32]) */;
  %191 = %190.2;
  %192 = cast(meta[relay.Constant][4] /* ty=Tensor[(154, 1), float32] */, dtype="bool") /* ty=Tensor[(154, 1), bool] */;
  %193 = cast(%191, dtype="bool") /* ty=Tensor[(450), bool] */;
  %194 = %178.0;
  %195 = %181.2;
  %196 = %182.2;
  %197 = %185.0;
  %198 = %186.0;
  %199 = %187.0;
  %200 = @func_6352(%189) /* ty=Tensor[(8, 10, 1), bool] */;
  %201 = greater_equal(%192, %193) /* ty=Tensor[(154, 450), bool] */;
  (%194, %195, %var_13017, %196, %197, %198, %199, %200, %var_13078, %201)
}

def @func_13804() -> (Tensor[(?, 5, 15), float32], Tensor[(?, 5, 15), float32], Tensor[(?, 5, 15), float64], Tensor[(?, 5, 15), float64]) {
  @func_13802() /* ty=(Tensor[(?, 5, 15), float32], Tensor[(?, 5, 15), float32], Tensor[(?, 5, 15), float64], Tensor[(?, 5, 15), float64]) */
}

def @func_9217() -> Tensor[(?, 5, 15), float64] {
  %203 = fn () -> Tensor[(?, 5, 15), float64] {
    %202 = @func_4071() /* ty=(Tensor[(?, 5, 15), float64],) */;
    %202.0
  };
  %203() /* ty=Tensor[(?, 5, 15), float64] */
}

def @func_1551() -> Tensor[(?, 5, 15), float32] {
  @func_1549() /* ty=Tensor[(?, 5, 15), float32] */
}

def @func_3257() -> (Tensor[(?, 5, 15), float64],) {
  %206 = fn () -> (Tensor[(?, 5, 15), float64],) {
    %204 = @func_2285() /* ty=(Tensor[(?, 5, 15), float64], Tensor[(?, 5, 15), float32]) */;
    %205 = %204.0;
    (%205,)
  };
  %206() /* ty=(Tensor[(?, 5, 15), float64],) */
}

def @func_12057(%var_12055: int64, %var_12056: Tensor[(1, 12, 1), int64]) -> Tensor[(1, 12, 1), int64] {
  @func_12053(%var_12055, %var_12056) /* ty=Tensor[(1, 12, 1), int64] */
}

def @func_13802() -> (Tensor[(?, 5, 15), float32], Tensor[(?, 5, 15), float32], Tensor[(?, 5, 15), float64], Tensor[(?, 5, 15), float64]) {
  %207 = @func_12963() /* ty=(Tensor[(?, 5, 15), float64], Tensor[(?, 5, 15), float32]) */;
  %208 = @func_2243() /* ty=Tensor[(?, 5, 15), float32] */;
  %209 = %207.1;
  %210 = @func_3931() /* ty=Tensor[(?, 5, 15), float64] */;
  %211 = @func_10574() /* ty=Tensor[(?, 5, 15), float64] */;
  (%208, %209, %210, %211)
}

def @func_9710() -> (Tensor[(7, 5, 15), float64], Tensor[(?, 5, 15), float32]) {
  %212 = @func_794() /* ty=(Tensor[(?, 5, 15), float32], Tensor[(?, 5, 15), int64]) */;
  %213 = @func_4825() /* ty=Tensor[(7, 5, 15), float64] */;
  %214 = %212.0;
  (%213, %214)
}

def @func_3168() -> (Tensor[(?, 5, 15), float64], Tensor[(?, 5, 15), float32], Tensor[(5, 5, 15), bool]) {
  %220 = fn () -> (Tensor[(?, 5, 15), float64], Tensor[(?, 5, 15), float32], Tensor[(5, 5, 15), bool]) {
    %215 = @func_2034() /* ty=(Tensor[(?, 5, 15), float64], Tensor[(?, 5, 15), float32], Tensor[(?, 5, 15), float64]) */;
    %216 = @func_2913() /* ty=(Tensor[(36, 6), uint8], Tensor[(5, 5, 15), bool]) */;
    %217 = %215.2;
    %218 = @func_2243() /* ty=Tensor[(?, 5, 15), float32] */;
    %219 = %216.1;
    (%217, %218, %219)
  };
  %220() /* ty=(Tensor[(?, 5, 15), float64], Tensor[(?, 5, 15), float32], Tensor[(5, 5, 15), bool]) */
}

def @func_2830() -> (Tensor[(?, 5, 15), float32], Tensor[(?, 5, 15), float32]) {
  @func_2828() /* ty=(Tensor[(?, 5, 15), float32], Tensor[(?, 5, 15), float32]) */
}

def @func_1530() -> (Tensor[(?, 5, 15), float64],) {
  %225 = fn () -> (Tensor[(?, 5, 15), float64],) {
    %221 = @func_794() /* ty=(Tensor[(?, 5, 15), float32], Tensor[(?, 5, 15), int64]) */;
    %222 = %221.1;
    %223 = cast(%222, dtype="float64") /* ty=Tensor[(?, 5, 15), float64] */;
    %224 = cos(%223) /* ty=Tensor[(?, 5, 15), float64] */;
    (%224,)
  };
  %225() /* ty=(Tensor[(?, 5, 15), float64],) */
}

def @func_10444() -> (Tensor[(?, 5, 15), float64],) {
  @func_10442() /* ty=(Tensor[(?, 5, 15), float64],) */
}

def @func_9173() -> Tensor[(?, 5, 15), float32] {
  %226 = @func_4308() /* ty=(Tensor[(?, 5, 15), float32], Tensor[(?, 5, 15), float64], Tensor[(?, 5, 15), float32]) */;
  %226.0
}

def @func_10679() -> Tensor[(?, 5, 15), int64] {
  %227 = @func_9542() /* ty=(Tensor[(?, 5, 15), int64], Tensor[(?, 5, 15), float64]) */;
  %227.0
}

def @func_12528() -> (Tensor[(?, 5, 15), float32], Tensor[(?, 5, 15), float32]) {
  @func_12526() /* ty=(Tensor[(?, 5, 15), float32], Tensor[(?, 5, 15), float32]) */
}

def @func_3317() -> (Tensor[(?, 5, 15), float32], Tensor[(12, 6, 3), bool]) {
  @func_3315() /* ty=(Tensor[(?, 5, 15), float32], Tensor[(12, 6, 3), bool]) */
}

def @func_11543(%var_11541: Tensor[(9, 10, 5), uint8], %var_11542: Tensor[(9, 10, 5), uint8]) -> (Tensor[(9, 10, 5), uint8], Tensor[(?, 5, 15), int64], Tensor[(?, 5, 15), float32]) {
  %236 = fn (%var_11519: Tensor[(9, 10, 5), uint8], %var_11520: Tensor[(9, 10, 5), uint8]) -> (Tensor[(9, 10, 5), uint8], Tensor[(?, 5, 15), int64], Tensor[(?, 5, 15), float32]) {
    %228 = cast(%var_11520, dtype="uint8") /* ty=Tensor[(9, 10, 5), uint8] */;
    %229 = shape_of(%var_11519, dtype="int32") /* ty=Tensor[(3), int32] */;
    %230 = cast(%var_11519, dtype="uint8") /* ty=Tensor[(9, 10, 5), uint8] */;
    %231 = dyn.reshape(%228, %229, newshape=[]) /* ty=Tensor[(?, ?, ?), uint8] */;
    %232 = @func_5032() /* ty=(Tensor[(7, 5, 15), bool], Tensor[(?, 5, 15), float32], Tensor[(?, 5, 15), float32]) */;
    %233 = left_shift(%230, %231) /* ty=Tensor[(9, 10, 5), uint8] */;
    %234 = @func_2500() /* ty=Tensor[(?, 5, 15), int64] */;
    %235 = %232.2;
    (%233, %234, %235)
  };
  %236(%var_11541, %var_11542) /* ty=(Tensor[(9, 10, 5), uint8], Tensor[(?, 5, 15), int64], Tensor[(?, 5, 15), float32]) */
}

def @func_3644() -> (Tensor[(?, 5, 15), float32], Tensor[(12, 6, 3), bool]) {
  %241 = fn () -> (Tensor[(?, 5, 15), float32], Tensor[(12, 6, 3), bool]) {
    %237 = @func_3248() /* ty=(Tensor[(?, 5, 15), int64], Tensor[(?, 5, 15), float32]) */;
    %238 = @func_1220() /* ty=(Tensor[(12, 6, 3), bool], Tensor[(36, 6), uint8], Tensor[(?, 5, 15), float32]) */;
    %239 = %237.1;
    %240 = %238.0;
    (%239, %240)
  };
  %241() /* ty=(Tensor[(?, 5, 15), float32], Tensor[(12, 6, 3), bool]) */
}

def @func_4499() -> (Tensor[(?, 5, 15), float32], Tensor[(?, 5, 15), float64]) {
  %244 = fn () -> (Tensor[(?, 5, 15), float32], Tensor[(?, 5, 15), float64]) {
    %242 = @func_3479() /* ty=Tensor[(?, 5, 15), float32] */;
    %243 = @func_1984() /* ty=Tensor[(?, 5, 15), float64] */;
    (%242, %243)
  };
  %244() /* ty=(Tensor[(?, 5, 15), float32], Tensor[(?, 5, 15), float64]) */
}

def @func_2245() -> Tensor[(?, 5, 15), float32] {
  @func_2243() /* ty=Tensor[(?, 5, 15), float32] */
}

def @func_5622(%var_5620: Tensor[(8, 8, 8), float32], %var_5621: Tensor[(300, 1), float32]) -> (Tensor[(8, 8, 8), float32], Tensor[(?, 5, 15), int64], Tensor[(300, 1), float32], Tensor[(12, 3, ?), bool], Tensor[(36), float32]) {
  @func_5618(%var_5620, %var_5621) /* ty=(Tensor[(8, 8, 8), float32], Tensor[(?, 5, 15), int64], Tensor[(300, 1), float32], Tensor[(12, 3, ?), bool], Tensor[(36), float32]) */
}

def @func_5960() -> Tensor[(?, 5, 15), int64] {
  %245 = @func_2719() /* ty=(Tensor[(?, 5, 15), int64], Tensor[(?, 5, 15), float32], Tensor[(300), float32]) */;
  %245.0
}

def @func_13477() -> (Tensor[(?, 5, 15), float64],) {
  %248 = fn () -> (Tensor[(?, 5, 15), float64],) {
    %246 = @func_6305() /* ty=(Tensor[(?, 5, 15), float64], Tensor[(?, 5, 15), float64], Tensor[(?, 5, 15), float64], Tensor[(?, 5, 15), uint16]) */;
    %247 = %246.2;
    (%247,)
  };
  %248() /* ty=(Tensor[(?, 5, 15), float64],) */
}

def @func_7111() -> (Tensor[(?, 5, 15), float64],) {
  %251 = fn () -> (Tensor[(?, 5, 15), float64],) {
    %249 = @func_6305() /* ty=(Tensor[(?, 5, 15), float64], Tensor[(?, 5, 15), float64], Tensor[(?, 5, 15), float64], Tensor[(?, 5, 15), uint16]) */;
    %250 = %249.2;
    (%250,)
  };
  %251() /* ty=(Tensor[(?, 5, 15), float64],) */
}

def @func_4228() -> (Tensor[(5, 5, 15), bool], Tensor[(?, 5, 15), float64]) {
  %254 = fn () -> (Tensor[(5, 5, 15), bool], Tensor[(?, 5, 15), float64]) {
    %252 = @func_1500() /* ty=Tensor[(5, 5, 15), bool] */;
    %253 = @func_2810() /* ty=Tensor[(?, 5, 15), float64] */;
    (%252, %253)
  };
  %254() /* ty=(Tensor[(5, 5, 15), bool], Tensor[(?, 5, 15), float64]) */
}

def @func_1500() -> Tensor[(5, 5, 15), bool] {
  %255 = @func_923() /* ty=(Tensor[(?, 5, 15), float32],) */;
  %256 = %255.0;
  %257 = cast(%256, dtype="bool") /* ty=Tensor[(?, 5, 15), bool] */;
  %258 = cast(meta[relay.Constant][5] /* ty=Tensor[(5, 5, 15), float32] */, dtype="bool") /* ty=Tensor[(5, 5, 15), bool] */;
  equal(%257, %258) /* ty=Tensor[(5, 5, 15), bool] */
}

def @func_2216(%var_2215: Tensor[(7, 11, 2), float32]) -> (Tensor[(7, 11, 2), float32],) {
  %261 = fn (%var_2209: Tensor[(7, 11, 2), float32]) -> (Tensor[(7, 11, 2), float32],) {
    %259 = cast(%var_2209, dtype="float32") /* ty=Tensor[(7, 11, 2), float32] */;
    %260 = erf(%259) /* ty=Tensor[(7, 11, 2), float32] */;
    (%260,)
  };
  %261(%var_2215) /* ty=(Tensor[(7, 11, 2), float32],) */
}

def @func_2243() -> Tensor[(?, 5, 15), float32] {
  %262 = @func_923() /* ty=(Tensor[(?, 5, 15), float32],) */;
  %262.0
}

def @func_8507() -> (Tensor[(?, 5, 15), float32],) {
  %265 = fn () -> (Tensor[(?, 5, 15), float32],) {
    %263 = @func_6450() /* ty=(Tensor[(?, 5, 15), float32],) */;
    %264 = %263.0;
    (%264,)
  };
  %265() /* ty=(Tensor[(?, 5, 15), float32],) */
}

def @func_671() -> (Tensor[(?, 5, 15), int64], Tensor[(?, 5, 15), float32]) {
  %269 = fn () -> (Tensor[(?, 5, 15), int64], Tensor[(?, 5, 15), float32]) {
    %266 = @func_581() /* ty=(Tensor[(?, 5, 15), int64], Tensor[(?, 5, 15), uint16], Tensor[(?, 5, 15), int64]) */;
    %267 = %266.0;
    %268 = @func_443() /* ty=Tensor[(?, 5, 15), float32] */;
    (%267, %268)
  };
  %269() /* ty=(Tensor[(?, 5, 15), int64], Tensor[(?, 5, 15), float32]) */
}

def @func_5666() -> (Tensor[(?, 5, 15), float32],) {
  %270 = @func_1946() /* ty=Tensor[(?, 5, 15), float32] */;
  (%270,)
}

def @func_445() -> Tensor[(?, 5, 15), float32] {
  @func_443() /* ty=Tensor[(?, 5, 15), float32] */
}

def @func_9485() -> (Tensor[(?, 5, 15), float32], Tensor[(?, 5, 15), float32], Tensor[(?, 5, 15), float64], Tensor[(?, 5, 15), float32], Tensor[(?, 5, 15), float64]) {
  %271 = @func_5488() /* ty=(Tensor[(?, 5, 15), float32], Tensor[(?, 5, 15), float32], Tensor[(?, 5, 15), float32]) */;
  %272 = @func_6551() /* ty=(Tensor[(?, 5, 15), float64],) */;
  %273 = @func_4498() /* ty=(Tensor[(?, 5, 15), float32], Tensor[(?, 5, 15), float64]) */;
  %274 = @func_4071() /* ty=(Tensor[(?, 5, 15), float64],) */;
  %275 = %271.0;
  %276 = @func_443() /* ty=Tensor[(?, 5, 15), float32] */;
  %277 = %272.0;
  %278 = %273.0;
  %279 = %274.0;
  (%275, %276, %277, %278, %279)
}

def @func_6884() -> (Tensor[(?, 5, 15), float32],) {
  @func_6882() /* ty=(Tensor[(?, 5, 15), float32],) */
}

def @func_825() -> (Tensor[(?, 5, 15), float32], Tensor[(?, 5, 15), float32]) {
  %280 = @func_794() /* ty=(Tensor[(?, 5, 15), float32], Tensor[(?, 5, 15), int64]) */;
  %281 = %280.0;
  %282 = @func_374() /* ty=Tensor[(?, 5, 15), float32] */;
  (%281, %282)
}

def @func_5413(%var_5411: Tensor[(36), float32], %var_5412: Tensor[(216), uint8]) -> (Tensor[(?, 5, 15), uint16], Tensor[(?, 5, 15), float64], Tensor[(?, 5, 15), float32], Tensor[(?, 5, 15), float32], Tensor[(?, 5, 15), float64], Tensor[(450), float32], Tensor[(12, 3, 216), bool]) {
  %310 = fn (%var_5340: Tensor[(36), float32], %var_5372: Tensor[(216), uint8]) -> (Tensor[(?, 5, 15), uint16], Tensor[(?, 5, 15), float64], Tensor[(?, 5, 15), float32], Tensor[(?, 5, 15), float32], Tensor[(?, 5, 15), float64], Tensor[(450), float32], Tensor[(12, 3, 216), bool]) {
    %283 = @func_581() /* ty=(Tensor[(?, 5, 15), int64], Tensor[(?, 5, 15), uint16], Tensor[(?, 5, 15), int64]) */;
    %284 = @func_4158() /* ty=(Tensor[(?, 5, 15), float32],) */;
    %285 = cast(%var_5372, dtype="uint8") /* ty=Tensor[(216), uint8] */;
    %286 = cast(%var_5372, dtype="uint8") /* ty=Tensor[(216), uint8] */;
    %287 = reshape(%285, newshape=[12, 6, 3]) /* ty=Tensor[(12, 6, 3), uint8] */;
    %288 = reshape(%286, newshape=[12, 6, 3]) /* ty=Tensor[(12, 6, 3), uint8] */;
    %289 = @func_848(%287, %288) /* ty=(Tensor[(12, 6, 3), bool], Tensor[(?, 5, 15), float32]) */;
    %290 = cast(meta[relay.Constant][6] /* ty=Tensor[(450), float32] */, dtype="float32") /* ty=Tensor[(450), float32] */;
    %291 = reshape(%290, newshape=[6, 5, 15]) /* ty=Tensor[(6, 5, 15), float32] */;
    %292 = @func_3534(%291) /* ty=(Tensor[(?, 5, 15), float64], Tensor[(6, 5, 15), float64], Tensor[(?, 5, 15), float64]) */;
    %293 = cast(%var_5340, dtype="float32") /* ty=Tensor[(36), float32] */;
    %294 = reshape(%293, newshape=[12, 3, 1]) /* ty=Tensor[(12, 3, 1), float32] */;
    %295 = @func_2890(%294) /* ty=(Tensor[(12, 3, ?), int16], Tensor[(12, 3, ?), bool]) */;
    %296 = %295.0;
    %297 = cast(%var_5340, dtype="bool") /* ty=Tensor[(36), bool] */;
    %298 = shape_of(%296, dtype="int32") /* ty=Tensor[(3), int32] */;
    %299 = cast(%296, dtype="bool") /* ty=Tensor[(12, 3, ?), bool] */;
    %300 = dyn.reshape(%297, %298, newshape=[]) /* ty=Tensor[(?, ?, ?), bool] */;
    %301 = greater_equal(%299, %300) /* ty=Tensor[(12, 3, ?), bool] */;
    %302 = cast(%var_5372, dtype="bool") /* ty=Tensor[(216), bool] */;
    %303 = cast(%301, dtype="bool") /* ty=Tensor[(12, 3, ?), bool] */;
    %304 = %283.1;
    %305 = @func_2114() /* ty=Tensor[(?, 5, 15), float64] */;
    %306 = %284.0;
    %307 = %289.1;
    %308 = %292.0;
    %309 = less(%302, %303) /* ty=Tensor[(12, 3, 216), bool] */;
    (%304, %305, %306, %307, %308, meta[relay.Constant][6] /* ty=Tensor[(450), float32] */, %309)
  };
  %310(%var_5411, %var_5412) /* ty=(Tensor[(?, 5, 15), uint16], Tensor[(?, 5, 15), float64], Tensor[(?, 5, 15), float32], Tensor[(?, 5, 15), float32], Tensor[(?, 5, 15), float64], Tensor[(450), float32], Tensor[(12, 3, 216), bool]) */
}

def @func_3933() -> Tensor[(?, 5, 15), float64] {
  @func_3931() /* ty=Tensor[(?, 5, 15), float64] */
}

def @func_9680(%var_9663: Tensor[(12, 6, 15), int16], %var_9664: Tensor[(12, 6, 15), int16]) -> (Tensor[(12, 6, 15), int16], Tensor[(8, 16, 16), bool], Tensor[(75), float32]) {
  %311 = cast(%var_9664, dtype="int16") /* ty=Tensor[(12, 6, 15), int16] */;
  %312 = shape_of(%var_9663, dtype="int32") /* ty=Tensor[(3), int32] */;
  %313 = cast(%var_9663, dtype="int16") /* ty=Tensor[(12, 6, 15), int16] */;
  %314 = dyn.reshape(%311, %312, newshape=[]) /* ty=Tensor[(?, ?, ?), int16] */;
  %315 = cast(meta[relay.Constant][7] /* ty=Tensor[(75), float32] */, dtype="float32") /* ty=Tensor[(75), float32] */;
  %316 = reshape(%315, newshape=[1, 5, 15]) /* ty=Tensor[(1, 5, 15), float32] */;
  %317 = @func_3824(%316) /* ty=(Tensor[(?, 5, 15), bool], Tensor[(8, 16, 16), bool]) */;
  %318 = right_shift(%313, %314) /* ty=Tensor[(12, 6, 15), int16] */;
  %319 = %317.1;
  (%318, %319, meta[relay.Constant][7] /* ty=Tensor[(75), float32] */)
}

def @func_5577() -> (Tensor[(?, 5, 15), float32],) {
  %321 = fn () -> (Tensor[(?, 5, 15), float32],) {
    %320 = @func_4578() /* ty=Tensor[(?, 5, 15), float32] */;
    (%320,)
  };
  %321() /* ty=(Tensor[(?, 5, 15), float32],) */
}

def @func_5517() -> (Tensor[(?, 5, 15), float32], Tensor[(?, 5, 15), float64], Tensor[(?, 5, 15), float32]) {
  %322 = @func_1016() /* ty=(Tensor[(?, 5, 15), float32], Tensor[(?, 5, 15), float32], Tensor[(?, 5, 15), int64]) */;
  %323 = @func_2034() /* ty=(Tensor[(?, 5, 15), float64], Tensor[(?, 5, 15), float32], Tensor[(?, 5, 15), float64]) */;
  %324 = %322.1;
  %325 = %323.0;
  %326 = @func_5268() /* ty=Tensor[(?, 5, 15), float32] */;
  (%324, %325, %326)
}

def @func_5962() -> Tensor[(?, 5, 15), int64] {
  @func_5960() /* ty=Tensor[(?, 5, 15), int64] */
}

def @func_9816() -> (Tensor[(?, 5, 15), uint16], Tensor[(?, 5, 15), float64], Tensor[(525), float64]) {
  %333 = fn () -> (Tensor[(?, 5, 15), uint16], Tensor[(?, 5, 15), float64], Tensor[(525), float64]) {
    %327 = @func_2651() /* ty=(Tensor[(?, 5, 15), float32], Tensor[(?, 5, 15), uint16], Tensor[(?, 5, 15), float64], Tensor[(?, 5, 15), float32], Tensor[(?, 5, 15), float64], Tensor[(?, 5, 15), float32], Tensor[(?, 5, 15), float64]) */;
    %328 = cast(meta[relay.Constant][8] /* ty=Tensor[(525), float64] */, dtype="float64") /* ty=Tensor[(525), float64] */;
    %329 = reshape(%328, newshape=[7, 5, 15]) /* ty=Tensor[(7, 5, 15), float64] */;
    %330 = @func_3033(%329) /* ty=(Tensor[(7, 5, 15), uint32], Tensor[(?, 5, 15), float64], Tensor[(?, 5, 15), int64], Tensor[(?, 5, 15), float32]) */;
    %331 = %327.1;
    %332 = %330.1;
    (%331, %332, meta[relay.Constant][8] /* ty=Tensor[(525), float64] */)
  };
  %333() /* ty=(Tensor[(?, 5, 15), uint16], Tensor[(?, 5, 15), float64], Tensor[(525), float64]) */
}

def @func_8541() -> Tensor[(?, 5, 15), float32] {
  %335 = fn () -> Tensor[(?, 5, 15), float32] {
    %334 = @func_8506() /* ty=(Tensor[(?, 5, 15), float32],) */;
    %334.0
  };
  %335() /* ty=Tensor[(?, 5, 15), float32] */
}

def @func_5245() -> (Tensor[(?, 5, 15), float32],) {
  @func_5243() /* ty=(Tensor[(?, 5, 15), float32],) */
}

def @func_11213() -> (Tensor[(?, 5, 15), float64], Tensor[(?, 5, 15), float32]) {
  %340 = fn () -> (Tensor[(?, 5, 15), float64], Tensor[(?, 5, 15), float32]) {
    %336 = @func_4756() /* ty=(Tensor[(?, 5, 15), float64],) */;
    %337 = @func_2651() /* ty=(Tensor[(?, 5, 15), float32], Tensor[(?, 5, 15), uint16], Tensor[(?, 5, 15), float64], Tensor[(?, 5, 15), float32], Tensor[(?, 5, 15), float64], Tensor[(?, 5, 15), float32], Tensor[(?, 5, 15), float64]) */;
    %338 = %336.0;
    %339 = %337.3;
    (%338, %339)
  };
  %340() /* ty=(Tensor[(?, 5, 15), float64], Tensor[(?, 5, 15), float32]) */
}

def @func_2202() -> Tensor[(?, 5, 15), int64] {
  %342 = fn () -> Tensor[(?, 5, 15), int64] {
    %341 = @func_1133() /* ty=(Tensor[(?, 5, 15), float32], Tensor[(?, 5, 15), int64]) */;
    %341.1
  };
  %342() /* ty=Tensor[(?, 5, 15), int64] */
}

def @func_2651() -> (Tensor[(?, 5, 15), float32], Tensor[(?, 5, 15), uint16], Tensor[(?, 5, 15), float64], Tensor[(?, 5, 15), float32], Tensor[(?, 5, 15), float64], Tensor[(?, 5, 15), float32], Tensor[(?, 5, 15), float64]) {
  %343 = @func_1133() /* ty=(Tensor[(?, 5, 15), float32], Tensor[(?, 5, 15), int64]) */;
  %344 = @func_581() /* ty=(Tensor[(?, 5, 15), int64], Tensor[(?, 5, 15), uint16], Tensor[(?, 5, 15), int64]) */;
  %345 = @func_740() /* ty=(Tensor[(?, 5, 15), float64],) */;
  %346 = @func_2275() /* ty=(Tensor[(?, 5, 15), float64],) */;
  %347 = %343.0;
  %348 = %344.1;
  %349 = %345.0;
  %350 = @func_1946() /* ty=Tensor[(?, 5, 15), float32] */;
  %351 = @func_2114() /* ty=Tensor[(?, 5, 15), float64] */;
  %352 = @func_2243() /* ty=Tensor[(?, 5, 15), float32] */;
  %353 = %346.0;
  (%347, %348, %349, %350, %351, %352, %353)
}

def @func_3284() -> Tensor[(?, 5, 15), float64] {
  %354 = @func_3256() /* ty=(Tensor[(?, 5, 15), float64],) */;
  %354.0
}

def @func_9175() -> Tensor[(?, 5, 15), float32] {
  @func_9173() /* ty=Tensor[(?, 5, 15), float32] */
}

def @func_583() -> (Tensor[(?, 5, 15), int64], Tensor[(?, 5, 15), uint16], Tensor[(?, 5, 15), int64]) {
  @func_581() /* ty=(Tensor[(?, 5, 15), int64], Tensor[(?, 5, 15), uint16], Tensor[(?, 5, 15), int64]) */
}

def @func_1948() -> Tensor[(?, 5, 15), float32] {
  @func_1946() /* ty=Tensor[(?, 5, 15), float32] */
}

def @func_13317() -> (Tensor[(7, 5, 15), float64], Tensor[(?, 5, 15), float32]) {
  @func_13315() /* ty=(Tensor[(7, 5, 15), float64], Tensor[(?, 5, 15), float32]) */
}

def @func_8995(%var_8993: Tensor[(4, 5, 15), int16]) -> (Tensor[(4, 5, 15), bool],) {
  @func_8992(%var_8993) /* ty=(Tensor[(4, 5, 15), bool],) */
}

def @func_11736() -> (Tensor[(?, 5, 15), float64], Tensor[(4, 5, 15), bool], Tensor[(4, 5, 15), bool]) {
  %355 = @func_7110() /* ty=(Tensor[(?, 5, 15), float64],) */;
  %356 = @func_10508() /* ty=(Tensor[(?, 5, 15), float64], Tensor[(4, 5, 15), bool], Tensor[(300), int16]) */;
  %357 = %356.1;
  %358 = cast(%357, dtype="int16") /* ty=Tensor[(4, 5, 15), int16] */;
  %359 = reshape(%358, newshape=[4, 5, 15]) /* ty=Tensor[(4, 5, 15), int16] */;
  %360 = @func_8992(%359) /* ty=(Tensor[(4, 5, 15), bool],) */;
  %361 = %355.0;
  %362 = %360.0;
  (%361, %357, %362)
}

def @func_2035() -> (Tensor[(?, 5, 15), float64], Tensor[(?, 5, 15), float32], Tensor[(?, 5, 15), float64]) {
  %369 = fn () -> (Tensor[(?, 5, 15), float64], Tensor[(?, 5, 15), float32], Tensor[(?, 5, 15), float64]) {
    %363 = @func_1529() /* ty=(Tensor[(?, 5, 15), float64],) */;
    %364 = @func_944() /* ty=(Tensor[(?, 5, 15), float64], Tensor[(?, 5, 15), float32]) */;
    %365 = @func_1406() /* ty=(Tensor[(?, 5, 15), float64],) */;
    %366 = %363.0;
    %367 = %364.1;
    %368 = %365.0;
    (%366, %367, %368)
  };
  %369() /* ty=(Tensor[(?, 5, 15), float64], Tensor[(?, 5, 15), float32], Tensor[(?, 5, 15), float64]) */
}

def @func_8022() -> (Tensor[(?, 5, 15), float64],) {
  @func_8020() /* ty=(Tensor[(?, 5, 15), float64],) */
}

def @func_5032() -> (Tensor[(7, 5, 15), bool], Tensor[(?, 5, 15), float32], Tensor[(?, 5, 15), float32]) {
  %370 = @func_4825() /* ty=Tensor[(7, 5, 15), float64] */;
  %371 = @func_1894() /* ty=(Tensor[(?, 5, 15), float64], Tensor[(?, 5, 15), int64], Tensor[(12, 6, 3), float64], Tensor[(?, 5, 15), float32]) */;
  %372 = %371.1;
  %373 = cast(%370, dtype="bool") /* ty=Tensor[(7, 5, 15), bool] */;
  %374 = cast(%372, dtype="bool") /* ty=Tensor[(?, 5, 15), bool] */;
  %375 = @func_3738() /* ty=(Tensor[(?, 5, 15), float32], Tensor[(?, 5, 15), int64]) */;
  %376 = greater_equal(%373, %374) /* ty=Tensor[(7, 5, 15), bool] */;
  %377 = @func_4554() /* ty=Tensor[(?, 5, 15), float32] */;
  %378 = %375.0;
  (%376, %377, %378)
}

def @func_9088(%var_9087: Tensor[(14, 4, 6), float64]) -> (Tensor[(14, 4, 6), float64], Tensor[(?, 5, 15), float32]) {
  %383 = fn (%var_9050: Tensor[(14, 4, 6), float64]) -> (Tensor[(14, 4, 6), float64], Tensor[(?, 5, 15), float32]) {
    %379 = cast(%var_9050, dtype="float64") /* ty=Tensor[(14, 4, 6), float64] */;
    %380 = @func_4158() /* ty=(Tensor[(?, 5, 15), float32],) */;
    %381 = asin(%379) /* ty=Tensor[(14, 4, 6), float64] */;
    %382 = %380.0;
    (%381, %382)
  };
  %383(%var_9087) /* ty=(Tensor[(14, 4, 6), float64], Tensor[(?, 5, 15), float32]) */
}

def @func_9712() -> (Tensor[(7, 5, 15), float64], Tensor[(?, 5, 15), float32]) {
  @func_9710() /* ty=(Tensor[(7, 5, 15), float64], Tensor[(?, 5, 15), float32]) */
}

def @func_10364() -> (Tensor[(?, 5, 15), float32],) {
  @func_10362() /* ty=(Tensor[(?, 5, 15), float32],) */
}

def @func_11582() -> Tensor[(?, 5, 15), float64] {
  %385 = fn () -> Tensor[(?, 5, 15), float64] {
    %384 = @func_9848() /* ty=(Tensor[(?, 5, 15), float64], Tensor[(9, 3, 14), float64]) */;
    %384.0
  };
  %385() /* ty=Tensor[(?, 5, 15), float64] */
}

def @func_10820() -> (Tensor[(?, 5, 15), float32],) {
  %387 = fn () -> (Tensor[(?, 5, 15), float32],) {
    %386 = @func_7087() /* ty=Tensor[(?, 5, 15), float32] */;
    (%386,)
  };
  %387() /* ty=(Tensor[(?, 5, 15), float32],) */
}

def @func_13113(%var_13111: Tensor[(300), float32], %var_13112: uint16) -> (Tensor[(?, 5, 15), float64], Tensor[(1008), float64], Tensor[(300), float32], Tensor[(450), float32], Tensor[(7, 11, 2), float32], Tensor[(?, 5, 15), float64], Tensor[(?, 5, 15), float32], Tensor[(8, 10, 1), bool], uint16, Tensor[(154, 450), bool]) {
  @func_13109(%var_13111, %var_13112) /* ty=(Tensor[(?, 5, 15), float64], Tensor[(1008), float64], Tensor[(300), float32], Tensor[(450), float32], Tensor[(7, 11, 2), float32], Tensor[(?, 5, 15), float64], Tensor[(?, 5, 15), float32], Tensor[(8, 10, 1), bool], uint16, Tensor[(154, 450), bool]) */
}

def @func_8020() -> (Tensor[(?, 5, 15), float64],) {
  %388 = @func_5316() /* ty=(Tensor[(?, 5, 15), float64],) */;
  %389 = %388.0;
  (%389,)
}

def @func_12923(%var_12922: Tensor[(10, 30), float32]) -> (Tensor[(?, 5, 15), float32], Tensor[(300), float32], Tensor[(1008), float64], Tensor[(10, 30), float32]) {
  %398 = fn (%var_12911: Tensor[(10, 30), float32]) -> (Tensor[(?, 5, 15), float32], Tensor[(300), float32], Tensor[(1008), float64], Tensor[(10, 30), float32]) {
    %390 = @func_8333() /* ty=(Tensor[(?, 5, 15), float32],) */;
    %391 = cast(meta[relay.Constant][9] /* ty=Tensor[(1008), float64] */, dtype="float64") /* ty=Tensor[(1008), float64] */;
    %392 = cast(%var_12911, dtype="float32") /* ty=Tensor[(10, 30), float32] */;
    %393 = reshape(%391, newshape=[9, 8, 14]) /* ty=Tensor[(9, 8, 14), float64] */;
    %394 = reshape(%392, newshape=[300]) /* ty=Tensor[(300), float32] */;
    %395 = @func_12809(%393, %394) /* ty=(Tensor[(9, 8, 14), float64], Tensor[(?, 5, 15), float64], Tensor[(300), float32], Tensor[(?, 5, 15), float32], Tensor[(?, 5, 15), float64]) */;
    %396 = %390.0;
    %397 = %395.2;
    (%396, %397, meta[relay.Constant][9] /* ty=Tensor[(1008), float64] */, %var_12911)
  };
  %398(%var_12922) /* ty=(Tensor[(?, 5, 15), float32], Tensor[(300), float32], Tensor[(1008), float64], Tensor[(10, 30), float32]) */
}

def @func_9129() -> (Tensor[(?, 5, 15), float32], Tensor[(?, 5, 15), float32]) {
  %399 = @func_8181() /* ty=(Tensor[(5, 5, 15), bool], Tensor[(?, 5, 15), float32], Tensor[(?, 5, 15), float64], Tensor[(?, 5, 15), float32], Tensor[(36, 6), bool]) */;
  %400 = @func_6645() /* ty=(Tensor[(?, 5, 15), float32], Tensor[(?, 5, 15), float32]) */;
  %401 = %399.1;
  %402 = %400.1;
  (%401, %402)
}

def @func_9503() -> (Tensor[(?, 5, 15), float64],) {
  @func_9501() /* ty=(Tensor[(?, 5, 15), float64],) */
}

def @func_10630() -> Tensor[(?, 5, 15), float64] {
  %404 = fn () -> Tensor[(?, 5, 15), float64] {
    %403 = @func_1406() /* ty=(Tensor[(?, 5, 15), float64],) */;
    %403.0
  };
  %404() /* ty=Tensor[(?, 5, 15), float64] */
}

def @func_2811() -> Tensor[(?, 5, 15), float64] {
  %406 = fn () -> Tensor[(?, 5, 15), float64] {
    %405 = @func_944() /* ty=(Tensor[(?, 5, 15), float64], Tensor[(?, 5, 15), float32]) */;
    %405.0
  };
  %406() /* ty=Tensor[(?, 5, 15), float64] */
}

def @func_11738() -> (Tensor[(?, 5, 15), float64], Tensor[(4, 5, 15), bool], Tensor[(4, 5, 15), bool]) {
  @func_11736() /* ty=(Tensor[(?, 5, 15), float64], Tensor[(4, 5, 15), bool], Tensor[(4, 5, 15), bool]) */
}

def @func_13621() -> (Tensor[(?, 5, 15), float32], Tensor[(?, 5, 15), float32]) {
  %411 = fn () -> (Tensor[(?, 5, 15), float32], Tensor[(?, 5, 15), float32]) {
    %407 = @func_8333() /* ty=(Tensor[(?, 5, 15), float32],) */;
    %408 = @func_7766() /* ty=(Tensor[(?, 5, 15), float32], Tensor[(?, 5, 15), float64], Tensor[(450), float32], Tensor[(?, 5, 15), float32]) */;
    %409 = %407.0;
    %410 = %408.0;
    (%409, %410)
  };
  %411() /* ty=(Tensor[(?, 5, 15), float32], Tensor[(?, 5, 15), float32]) */
}

def @func_10982() -> (Tensor[(?, 5, 15), float32],) {
  %413 = fn () -> (Tensor[(?, 5, 15), float32],) {
    %412 = @func_3688() /* ty=Tensor[(?, 5, 15), float32] */;
    (%412,)
  };
  %413() /* ty=(Tensor[(?, 5, 15), float32],) */
}

def @func_852(%var_850: Tensor[(12, 6, 3), uint8], %var_851: Tensor[(12, 6, 3), uint8]) -> (Tensor[(12, 6, 3), bool], Tensor[(?, 5, 15), float32]) {
  @func_848(%var_850, %var_851) /* ty=(Tensor[(12, 6, 3), bool], Tensor[(?, 5, 15), float32]) */
}

def @func_6012() -> (Tensor[(?, 5, 15), float32], Tensor[(9, 3, 14), float64]) {
  %417 = fn () -> (Tensor[(?, 5, 15), float32], Tensor[(9, 3, 14), float64]) {
    %414 = @func_3852() /* ty=(Tensor[(9, 3, 14), float64], Tensor[(?, 5, 15), int64], Tensor[(?, 5, 15), float32]) */;
    %415 = @func_4554() /* ty=Tensor[(?, 5, 15), float32] */;
    %416 = %414.0;
    (%415, %416)
  };
  %417() /* ty=(Tensor[(?, 5, 15), float32], Tensor[(9, 3, 14), float64]) */
}

def @func_6761() -> (Tensor[(9, 3, 14), float64], Tensor[(?, 5, 15), float64]) {
  %422 = fn () -> (Tensor[(9, 3, 14), float64], Tensor[(?, 5, 15), float64]) {
    %418 = @func_3852() /* ty=(Tensor[(9, 3, 14), float64], Tensor[(?, 5, 15), int64], Tensor[(?, 5, 15), float32]) */;
    %419 = @func_4756() /* ty=(Tensor[(?, 5, 15), float64],) */;
    %420 = %418.0;
    %421 = %419.0;
    (%420, %421)
  };
  %422() /* ty=(Tensor[(9, 3, 14), float64], Tensor[(?, 5, 15), float64]) */
}

def @func_12664() -> (Tensor[(?, 5, 15), float32],) {
  @func_12662() /* ty=(Tensor[(?, 5, 15), float32],) */
}

def @func_1549() -> Tensor[(?, 5, 15), float32] {
  %423 = @func_825() /* ty=(Tensor[(?, 5, 15), float32], Tensor[(?, 5, 15), float32]) */;
  %423.1
}

def @func_10320(%var_10292: Tensor[(5, 5, 5), uint8], %var_10293: Tensor[(5, 5, 5), uint8]) -> (Tensor[(?, 5, 15), float32], Tensor[(5, 5, 5), bool]) {
  %424 = cast(%var_10293, dtype="uint8") /* ty=Tensor[(5, 5, 5), uint8] */;
  %425 = shape_of(%var_10292, dtype="int32") /* ty=Tensor[(3), int32] */;
  %426 = cast(%var_10292, dtype="uint8") /* ty=Tensor[(5, 5, 5), uint8] */;
  %427 = dyn.reshape(%424, %425, newshape=[]) /* ty=Tensor[(?, ?, ?), uint8] */;
  %428 = subtract(%426, %427) /* ty=Tensor[(5, 5, 5), uint8] */;
  %429 = cast(%var_10292, dtype="bool") /* ty=Tensor[(5, 5, 5), bool] */;
  %430 = shape_of(%428, dtype="int32") /* ty=Tensor[(3), int32] */;
  %431 = cast(%428, dtype="bool") /* ty=Tensor[(5, 5, 5), bool] */;
  %432 = dyn.reshape(%429, %430, newshape=[]) /* ty=Tensor[(?, ?, ?), bool] */;
  %433 = @func_4578() /* ty=Tensor[(?, 5, 15), float32] */;
  %434 = greater(%431, %432) /* ty=Tensor[(5, 5, 5), bool] */;
  (%433, %434)
}

def @func_11664(%var_11662: Tensor[(8, 16, 16), bool]) -> (Tensor[(?, 5, 15), int64], Tensor[(8, 16, 16), float64], Tensor[(?, 5, 15), float32]) {
  @func_11661(%var_11662) /* ty=(Tensor[(?, 5, 15), int64], Tensor[(8, 16, 16), float64], Tensor[(?, 5, 15), float32]) */
}

def @func_13414() -> (Tensor[(525), float64], Tensor[(?, 5, 15), float32]) {
  %439 = fn () -> (Tensor[(525), float64], Tensor[(?, 5, 15), float32]) {
    %435 = @func_9815() /* ty=(Tensor[(?, 5, 15), uint16], Tensor[(?, 5, 15), float64], Tensor[(525), float64]) */;
    %436 = @func_3248() /* ty=(Tensor[(?, 5, 15), int64], Tensor[(?, 5, 15), float32]) */;
    %437 = %435.2;
    %438 = %436.1;
    (%437, %438)
  };
  %439() /* ty=(Tensor[(525), float64], Tensor[(?, 5, 15), float32]) */
}

def @func_13883() -> (Tensor[(?, 5, 15), float32], Tensor[(?, 5, 15), float32], Tensor[(?, 5, 15), float64]) {
…
  %844 = cast(%843, dtype="float64") /* ty=Tensor[(216, 1), float64] */;
  %845 = cosh(%844) /* ty=Tensor[(216, 1), float64] */;
  %846 = cast(%845, dtype="float32") /* ty=Tensor[(216, 1), float32] */;
  %847 = cast(%var_11324, dtype="float32") /* ty=Tensor[(216, 14), float32] */;
  %848 = cast(%845, dtype="float64") /* ty=Tensor[(216, 1), float64] */;
  %849 = cos(%848) /* ty=Tensor[(216, 1), float64] */;
  %850 = cast(%849, dtype="float64") /* ty=Tensor[(216, 1), float64] */;
  %851 = cast(%var_11333, dtype="float64") /* ty=Tensor[(216, 3), float64] */;
  %852 = floor_mod(%850, %851) /* ty=Tensor[(216, 3), float64] */;
  %853 = cast(%var_11333, dtype="bool") /* ty=Tensor[(216, 3), bool] */;
  %854 = shape_of(%852, dtype="int32") /* ty=Tensor[(2), int32] */;
  %855 = cast(%852, dtype="bool") /* ty=Tensor[(216, 3), bool] */;
  %856 = dyn.reshape(%853, %854, newshape=[]) /* ty=Tensor[(?, ?), bool] */;
  %857 = @func_10550() /* ty=Tensor[(?, 5, 15), float32] */;
  %858 = %837.3;
  %859 = %838.0;
  %860 = %839.0;
  %861 = %840.0;
  %862 = %841.1;
  %863 = divide(%846, %847) /* ty=Tensor[(216, 14), float32] */;
  %864 = logical_and(%855, %856) /* ty=Tensor[(216, 3), bool] */;
  (%857, %858, meta[relay.Constant][17] /* ty=Tensor[(3, 12), float32] */, %859, %860, %861, %862, %863, %864)
}

def @func_9609() -> (Tensor[(?, 5, 15), int64],) {
  %867 = fn () -> (Tensor[(?, 5, 15), int64],) {
    %865 = @func_5202() /* ty=(Tensor[(5, 5, 15), bool], Tensor[(?, 5, 15), int64]) */;
    %866 = %865.1;
    (%866,)
  };
  %867() /* ty=(Tensor[(?, 5, 15), int64],) */
}

def @func_6141() -> (Tensor[(?, 5, 15), float64], Tensor[(?, 5, 15), float64]) {
  %868 = @func_4498() /* ty=(Tensor[(?, 5, 15), float32], Tensor[(?, 5, 15), float64]) */;
  %869 = @func_4111() /* ty=(Tensor[(?, 5, 15), float64], Tensor[(6, 5, 15), float64], Tensor[(450), float32]) */;
  %870 = %868.1;
  %871 = %869.0;
  (%870, %871)
}

def @func_6452() -> (Tensor[(?, 5, 15), float32],) {
  @func_6450() /* ty=(Tensor[(?, 5, 15), float32],) */
}

def @func_1065() -> (Tensor[(?, 5, 15), float32], Tensor[(?, 5, 15), float32]) {
  %872 = @func_825() /* ty=(Tensor[(?, 5, 15), float32], Tensor[(?, 5, 15), float32]) */;
  %873 = @func_825() /* ty=(Tensor[(?, 5, 15), float32], Tensor[(?, 5, 15), float32]) */;
  %874 = %872.1;
  %875 = %873.1;
  (%874, %875)
}

def @func_2275() -> (Tensor[(?, 5, 15), float64],) {
  %876 = @func_1529() /* ty=(Tensor[(?, 5, 15), float64],) */;
  %877 = %876.0;
  %878 = cast(%877, dtype="float64") /* ty=Tensor[(?, 5, 15), float64] */;
  %879 = log(%878) /* ty=Tensor[(?, 5, 15), float64] */;
  (%879,)
}

def @func_9543() -> (Tensor[(?, 5, 15), int64], Tensor[(?, 5, 15), float64]) {
  %883 = fn () -> (Tensor[(?, 5, 15), int64], Tensor[(?, 5, 15), float64]) {
    %880 = @func_3256() /* ty=(Tensor[(?, 5, 15), float64],) */;
    %881 = @func_2201() /* ty=Tensor[(?, 5, 15), int64] */;
    %882 = %880.0;
    (%881, %882)
  };
  %883() /* ty=(Tensor[(?, 5, 15), int64], Tensor[(?, 5, 15), float64]) */
}

def @func_7704(%var_7702: Tensor[(6, 5, 15), float32]) -> (Tensor[(?, 5, 15), float64], Tensor[(?, 5, 15), float64], Tensor[(?, 5, 15), float64], Tensor[(?, 5, 15), int64], Tensor[(6, 5, 15), float64], Tensor[(9, 3, 14), float64]) {
  @func_7701(%var_7702) /* ty=(Tensor[(?, 5, 15), float64], Tensor[(?, 5, 15), float64], Tensor[(?, 5, 15), float64], Tensor[(?, 5, 15), int64], Tensor[(6, 5, 15), float64], Tensor[(9, 3, 14), float64]) */
}

def @func_10324(%var_10322: Tensor[(5, 5, 5), uint8], %var_10323: Tensor[(5, 5, 5), uint8]) -> (Tensor[(?, 5, 15), float32], Tensor[(5, 5, 5), bool]) {
  @func_10320(%var_10322, %var_10323) /* ty=(Tensor[(?, 5, 15), float32], Tensor[(5, 5, 5), bool]) */
}

def @func_2567() -> Tensor[(?, 5, 15), int64] {
  %884 = @func_670() /* ty=(Tensor[(?, 5, 15), int64], Tensor[(?, 5, 15), float32]) */;
  %884.0
}

def @func_2893(%var_2891: Tensor[(12, 3, 1), float32]) -> (Tensor[(12, 3, ?), int16], Tensor[(12, 3, ?), bool]) {
  @func_2890(%var_2891) /* ty=(Tensor[(12, 3, ?), int16], Tensor[(12, 3, ?), bool]) */
}

def @func_9406() -> (Tensor[(?, 5, 15), float32], Tensor[(?, 5, 15), float32]) {
  %885 = @func_3738() /* ty=(Tensor[(?, 5, 15), float32], Tensor[(?, 5, 15), int64]) */;
  %886 = @func_5032() /* ty=(Tensor[(7, 5, 15), bool], Tensor[(?, 5, 15), float32], Tensor[(?, 5, 15), float32]) */;
  %887 = %885.0;
  %888 = %886.2;
  (%887, %888)
}

def @func_5142() -> (Tensor[(?, 5, 15), float32], Tensor[(?, 5, 15), float32]) {
  %893 = fn () -> (Tensor[(?, 5, 15), float32], Tensor[(?, 5, 15), float32]) {
    %889 = @func_2828() /* ty=(Tensor[(?, 5, 15), float32], Tensor[(?, 5, 15), float32]) */;
    %890 = @func_4498() /* ty=(Tensor[(?, 5, 15), float32], Tensor[(?, 5, 15), float64]) */;
    %891 = %889.0;
    %892 = %890.0;
    (%891, %892)
  };
  %893() /* ty=(Tensor[(?, 5, 15), float32], Tensor[(?, 5, 15), float32]) */
}

def @func_7528(%var_7527: Tensor[(216), uint8]) -> (Tensor[(?, 5, 15), float64], Tensor[(5, 5, 15), bool], Tensor[(12, 3, ?), int16], Tensor[(36), float32], Tensor[(?, 5, 15), float64], Tensor[(216), uint8], Tensor[(?, 5, 15), float64]) {
  %909 = fn (%var_7511: Tensor[(216), uint8]) -> (Tensor[(?, 5, 15), float64], Tensor[(5, 5, 15), bool], Tensor[(12, 3, ?), int16], Tensor[(36), float32], Tensor[(?, 5, 15), float64], Tensor[(216), uint8], Tensor[(?, 5, 15), float64]) {
    %894 = @func_5202() /* ty=(Tensor[(5, 5, 15), bool], Tensor[(?, 5, 15), int64]) */;
    %895 = cast(meta[relay.Constant][18] /* ty=Tensor[(36), float32] */, dtype="float32") /* ty=Tensor[(36), float32] */;
    %896 = reshape(%895, newshape=[12, 3, 1]) /* ty=Tensor[(12, 3, 1), float32] */;
    %897 = @func_2890(%896) /* ty=(Tensor[(12, 3, ?), int16], Tensor[(12, 3, ?), bool]) */;
    %898 = cast(meta[relay.Constant][18] /* ty=Tensor[(36), float32] */, dtype="float32") /* ty=Tensor[(36), float32] */;
    %899 = cast(%var_7511, dtype="uint8") /* ty=Tensor[(216), uint8] */;
    %900 = reshape(%898, newshape=[36]) /* ty=Tensor[(36), float32] */;
    %901 = reshape(%899, newshape=[216]) /* ty=Tensor[(216), uint8] */;
    %902 = @func_5410(%900, %901) /* ty=(Tensor[(?, 5, 15), uint16], Tensor[(?, 5, 15), float64], Tensor[(?, 5, 15), float32], Tensor[(?, 5, 15), float32], Tensor[(?, 5, 15), float64], Tensor[(450), float32], Tensor[(12, 3, 216), bool]) */;
    %903 = @func_6305() /* ty=(Tensor[(?, 5, 15), float64], Tensor[(?, 5, 15), float64], Tensor[(?, 5, 15), float64], Tensor[(?, 5, 15), uint16]) */;
    %904 = @func_3435() /* ty=Tensor[(?, 5, 15), float64] */;
    %905 = %894.0;
    %906 = %897.0;
    %907 = %902.4;
    %908 = %903.1;
    (%904, %905, %906, meta[relay.Constant][18] /* ty=Tensor[(36), float32] */, %907, %var_7511, %908)
  };
  %909(%var_7527) /* ty=(Tensor[(?, 5, 15), float64], Tensor[(5, 5, 15), bool], Tensor[(12, 3, ?), int16], Tensor[(36), float32], Tensor[(?, 5, 15), float64], Tensor[(216), uint8], Tensor[(?, 5, 15), float64]) */
}

def @func_12470() -> (Tensor[(?, 5, 15), float32], Tensor[(?, 5, 15), float32], Tensor[(4, 5, 15), bool]) {
  %915 = fn () -> (Tensor[(?, 5, 15), float32], Tensor[(?, 5, 15), float32], Tensor[(4, 5, 15), bool]) {
    %910 = @func_8281() /* ty=(Tensor[(?, 5, 15), float32], Tensor[(?, 5, 15), float32], Tensor[(?, 5, 15), float64]) */;
    %911 = @func_12160() /* ty=(Tensor[(?, 5, 15), float64], Tensor[(4, 5, 15), bool], Tensor[(300), int16]) */;
    %912 = @func_6476() /* ty=Tensor[(?, 5, 15), float32] */;
    %913 = %910.1;
    %914 = %911.1;
    (%912, %913, %914)
  };
  %915() /* ty=(Tensor[(?, 5, 15), float32], Tensor[(?, 5, 15), float32], Tensor[(4, 5, 15), bool]) */
}

def @func_2780() -> (Tensor[(?, 5, 15), float32],) {
  %916 = @func_1065() /* ty=(Tensor[(?, 5, 15), float32], Tensor[(?, 5, 15), float32]) */;
  %917 = %916.1;
  (%917,)
}

def @func_6307() -> (Tensor[(?, 5, 15), float64], Tensor[(?, 5, 15), float64], Tensor[(?, 5, 15), float64], Tensor[(?, 5, 15), uint16]) {
  @func_6305() /* ty=(Tensor[(?, 5, 15), float64], Tensor[(?, 5, 15), float64], Tensor[(?, 5, 15), float64], Tensor[(?, 5, 15), uint16]) */
}

def @func_6848() -> (Tensor[(?, 5, 15), float64], Tensor[(12, 6, 3), float64]) {
  %918 = @func_4227() /* ty=(Tensor[(5, 5, 15), bool], Tensor[(?, 5, 15), float64]) */;
  %919 = @func_1894() /* ty=(Tensor[(?, 5, 15), float64], Tensor[(?, 5, 15), int64], Tensor[(12, 6, 3), float64], Tensor[(?, 5, 15), float32]) */;
  %920 = %918.1;
  %921 = %919.2;
  (%920, %921)
}

def @func_1135() -> (Tensor[(?, 5, 15), float32], Tensor[(?, 5, 15), int64]) {
  @func_1133() /* ty=(Tensor[(?, 5, 15), float32], Tensor[(?, 5, 15), int64]) */
}

def @func_4623(%var_4621: Tensor[(300), float32]) -> (Tensor[(?, 5, 15), float64], Tensor[(4, 5, 15), uint64], Tensor[(300), float32], Tensor[(?, 5, 15), int64]) {
  @func_4620(%var_4621) /* ty=(Tensor[(?, 5, 15), float64], Tensor[(4, 5, 15), uint64], Tensor[(300), float32], Tensor[(?, 5, 15), int64]) */
}

def @func_12443() -> (Tensor[(?, 5, 15), float64], Tensor[(?, 5, 15), float32]) {
  %925 = fn () -> (Tensor[(?, 5, 15), float64], Tensor[(?, 5, 15), float32]) {
    %922 = @func_6305() /* ty=(Tensor[(?, 5, 15), float64], Tensor[(?, 5, 15), float64], Tensor[(?, 5, 15), float64], Tensor[(?, 5, 15), uint16]) */;
    %923 = %922.0;
    %924 = @func_4554() /* ty=Tensor[(?, 5, 15), float32] */;
    (%923, %924)
  };
  %925() /* ty=(Tensor[(?, 5, 15), float64], Tensor[(?, 5, 15), float32]) */
}

def @func_6143() -> (Tensor[(?, 5, 15), float64], Tensor[(?, 5, 15), float64]) {
  @func_6141() /* ty=(Tensor[(?, 5, 15), float64], Tensor[(?, 5, 15), float64]) */
}

def @func_7413() -> Tensor[(?, 5, 15), float64] {
  %927 = fn () -> Tensor[(?, 5, 15), float64] {
    %926 = @func_1894() /* ty=(Tensor[(?, 5, 15), float64], Tensor[(?, 5, 15), int64], Tensor[(12, 6, 3), float64], Tensor[(?, 5, 15), float32]) */;
    %926.0
  };
  %927() /* ty=Tensor[(?, 5, 15), float64] */
}

def @func_9849() -> (Tensor[(?, 5, 15), float64], Tensor[(9, 3, 14), float64]) {
  %930 = fn () -> (Tensor[(?, 5, 15), float64], Tensor[(9, 3, 14), float64]) {
    %928 = @func_2146() /* ty=Tensor[(?, 5, 15), float64] */;
    %929 = @func_8226() /* ty=Tensor[(9, 3, 14), float64] */;
    (%928, %929)
  };
  %930() /* ty=(Tensor[(?, 5, 15), float64], Tensor[(9, 3, 14), float64]) */
}

def @func_946() -> (Tensor[(?, 5, 15), float64], Tensor[(?, 5, 15), float32]) {
  @func_944() /* ty=(Tensor[(?, 5, 15), float64], Tensor[(?, 5, 15), float32]) */
}

def @func_13864() -> (Tensor[(?, 5, 15), float32],) {
  %931 = @func_9406() /* ty=(Tensor[(?, 5, 15), float32], Tensor[(?, 5, 15), float32]) */;
  %932 = %931.0;
  (%932,)
}

def @func_4758() -> (Tensor[(?, 5, 15), float64],) {
  @func_4756() /* ty=(Tensor[(?, 5, 15), float64],) */
}

def @func_9980(%var_9978: Tensor[(4, 3, 10), float32], %var_9979: Tensor[(4, 3, 10), float32]) -> (Tensor[(10, 10, 5), float32], Tensor[(5, 100), float32], Tensor[(?, 5, 15), float32], Tensor[(4, 3, 10), uint16], Tensor[(?, 5, 15), float32], Tensor[(4, 3, 10), float64], Tensor[(?, 5, 15), float64]) {
  %957 = fn (%var_9900: Tensor[(4, 3, 10), float32], %var_9916: Tensor[(4, 3, 10), float32]) -> (Tensor[(10, 10, 5), float32], Tensor[(5, 100), float32], Tensor[(?, 5, 15), float32], Tensor[(4, 3, 10), uint16], Tensor[(?, 5, 15), float32], Tensor[(4, 3, 10), float64], Tensor[(?, 5, 15), float64]) {
    %933 = cast(meta[relay.Constant][19] /* ty=Tensor[(5, 100), float32] */, dtype="float32") /* ty=Tensor[(5, 100), float32] */;
    %934 = reshape(%933, newshape=[10, 10, 5]) /* ty=Tensor[(10, 10, 5), float32] */;
    %935 = @func_3393(%934) /* ty=(Tensor[(10, 10, 5), float32], Tensor[(?, 5, 15), float64], Tensor[(?, 5, 15), float32], Tensor[(?, 5, 15), float64]) */;
    %936 = @func_5880() /* ty=(Tensor[(?, 5, 15), float32], Tensor[(?, 5, 15), float32]) */;
    %937 = cast(%var_9900, dtype="float32") /* ty=Tensor[(4, 3, 10), float32] */;
    %938 = exp(%937) /* ty=Tensor[(4, 3, 10), float32] */;
    %939 = cast(%var_9916, dtype="uint16") /* ty=Tensor[(4, 3, 10), uint16] */;
    %940 = shape_of(%938, dtype="int32") /* ty=Tensor[(3), int32] */;
    %941 = cast(%938, dtype="uint16") /* ty=Tensor[(4, 3, 10), uint16] */;
    %942 = dyn.reshape(%939, %940, newshape=[]) /* ty=Tensor[(?, ?, ?), uint16] */;
    %943 = @func_923() /* ty=(Tensor[(?, 5, 15), float32],) */;
    %944 = cast(%938, dtype="float32") /* ty=Tensor[(4, 3, 10), float32] */;
    %945 = acosh(%944) /* ty=Tensor[(4, 3, 10), float32] */;
    %946 = cast(%945, dtype="float64") /* ty=Tensor[(4, 3, 10), float64] */;
    %947 = shape_of(%var_9916, dtype="int32") /* ty=Tensor[(3), int32] */;
    %948 = cast(%var_9916, dtype="float64") /* ty=Tensor[(4, 3, 10), float64] */;
    %949 = dyn.reshape(%946, %947, newshape=[]) /* ty=Tensor[(?, ?, ?), float64] */;
    %950 = @func_9485() /* ty=(Tensor[(?, 5, 15), float32], Tensor[(?, 5, 15), float32], Tensor[(?, 5, 15), float64], Tensor[(?, 5, 15), float32], Tensor[(?, 5, 15), float64]) */;
    %951 = %935.0;
    %952 = %936.0;
    %953 = add(%941, %942) /* ty=Tensor[(4, 3, 10), uint16] */;
    %954 = %943.0;
    %955 = floor_divide(%948, %949) /* ty=Tensor[(4, 3, 10), float64] */;
    %956 = %950.2;
    (%951, meta[relay.Constant][19] /* ty=Tensor[(5, 100), float32] */, %952, %953, %954, %955, %956)
  };
  %957(%var_9978, %var_9979) /* ty=(Tensor[(10, 10, 5), float32], Tensor[(5, 100), float32], Tensor[(?, 5, 15), float32], Tensor[(4, 3, 10), uint16], Tensor[(?, 5, 15), float32], Tensor[(4, 3, 10), float64], Tensor[(?, 5, 15), float64]) */
}

def @func_3479() -> Tensor[(?, 5, 15), float32] {
  %958 = @func_825() /* ty=(Tensor[(?, 5, 15), float32], Tensor[(?, 5, 15), float32]) */;
  %958.0
}

def @func_6813() -> (Tensor[(8, 16, 16), bool], Tensor[(?, 5, 15), bool], Tensor[(12, 6, 3), bool]) {
  %972 = fn () -> (Tensor[(8, 16, 16), bool], Tensor[(?, 5, 15), bool], Tensor[(12, 6, 3), bool]) {
    %959 = @func_3657() /* ty=(Tensor[(8, 16, 16), bool],) */;
    %960 = @func_3086() /* ty=(Tensor[(?, 5, 15), float64], Tensor[(?, 5, 15), float64]) */;
    %961 = %960.0;
    %962 = @func_5880() /* ty=(Tensor[(?, 5, 15), float32], Tensor[(?, 5, 15), float32]) */;
    %963 = %962.0;
    %964 = cast(%963, dtype="bool") /* ty=Tensor[(?, 5, 15), bool] */;
    %965 = shape_of(%961, dtype="int32") /* ty=Tensor[(3), int32] */;
    %966 = cast(%961, dtype="bool") /* ty=Tensor[(?, 5, 15), bool] */;
    %967 = dyn.reshape(%964, %965, newshape=[]) /* ty=Tensor[(?, ?, ?), bool] */;
    %968 = @func_1220() /* ty=(Tensor[(12, 6, 3), bool], Tensor[(36, 6), uint8], Tensor[(?, 5, 15), float32]) */;
    %969 = %959.0;
    %970 = logical_and(%966, %967) /* ty=Tensor[(?, 5, 15), bool] */;
    %971 = %968.0;
    (%969, %970, %971)
  };
  %972() /* ty=(Tensor[(8, 16, 16), bool], Tensor[(?, 5, 15), bool], Tensor[(12, 6, 3), bool]) */
}

def @func_12161() -> (Tensor[(?, 5, 15), float64], Tensor[(4, 5, 15), bool], Tensor[(300), int16]) {
  %979 = fn () -> (Tensor[(?, 5, 15), float64], Tensor[(4, 5, 15), bool], Tensor[(300), int16]) {
    %973 = @func_9501() /* ty=(Tensor[(?, 5, 15), float64],) */;
    %974 = cast(meta[relay.Constant][20] /* ty=Tensor[(300), int16] */, dtype="int16") /* ty=Tensor[(300), int16] */;
    %975 = reshape(%974, newshape=[4, 5, 15]) /* ty=Tensor[(4, 5, 15), int16] */;
    %976 = @func_8992(%975) /* ty=(Tensor[(4, 5, 15), bool],) */;
    %977 = %973.0;
    %978 = %976.0;
    (%977, %978, meta[relay.Constant][20] /* ty=Tensor[(300), int16] */)
  };
  %979() /* ty=(Tensor[(?, 5, 15), float64], Tensor[(4, 5, 15), bool], Tensor[(300), int16]) */
}

def @func_6911() -> (Tensor[(?, 5, 15), float64],) {
  @func_6909() /* ty=(Tensor[(?, 5, 15), float64],) */
}

def @func_10508() -> (Tensor[(?, 5, 15), float64], Tensor[(4, 5, 15), bool], Tensor[(300), int16]) {
  %980 = cast(meta[relay.Constant][21] /* ty=Tensor[(300), int16] */, dtype="int16") /* ty=Tensor[(300), int16] */;
  %981 = reshape(%980, newshape=[4, 5, 15]) /* ty=Tensor[(4, 5, 15), int16] */;
  %982 = @func_8992(%981) /* ty=(Tensor[(4, 5, 15), bool],) */;
  %983 = @func_3435() /* ty=Tensor[(?, 5, 15), float64] */;
  %984 = %982.0;
  (%983, %984, meta[relay.Constant][21] /* ty=Tensor[(300), int16] */)
}

def @func_848(%var_839: Tensor[(12, 6, 3), uint8], %var_840: Tensor[(12, 6, 3), uint8]) -> (Tensor[(12, 6, 3), bool], Tensor[(?, 5, 15), float32]) {
  %985 = cast(%var_840, dtype="bool") /* ty=Tensor[(12, 6, 3), bool] */;
  %986 = shape_of(%var_839, dtype="int32") /* ty=Tensor[(3), int32] */;
  %987 = cast(%var_839, dtype="bool") /* ty=Tensor[(12, 6, 3), bool] */;
  %988 = dyn.reshape(%985, %986, newshape=[]) /* ty=Tensor[(?, ?, ?), bool] */;
  %989 = greater_equal(%987, %988) /* ty=Tensor[(12, 6, 3), bool] */;
  %990 = @func_443() /* ty=Tensor[(?, 5, 15), float32] */;
  (%989, %990)
}

def @func_6305() -> (Tensor[(?, 5, 15), float64], Tensor[(?, 5, 15), float64], Tensor[(?, 5, 15), float64], Tensor[(?, 5, 15), uint16]) {
  %991 = @func_4756() /* ty=(Tensor[(?, 5, 15), float64],) */;
  %992 = @func_740() /* ty=(Tensor[(?, 5, 15), float64],) */;
  %993 = @func_581() /* ty=(Tensor[(?, 5, 15), int64], Tensor[(?, 5, 15), uint16], Tensor[(?, 5, 15), int64]) */;
  %994 = @func_3931() /* ty=Tensor[(?, 5, 15), float64] */;
  %995 = %991.0;
  %996 = %992.0;
  %997 = %993.1;
  (%994, %995, %996, %997)
}

def @func_10103() -> (Tensor[(?, 5, 15), float32], Tensor[(?, 5, 15), float64], Tensor[(8, 16, 16), bool], Tensor[(?, 5, 15), float64], Tensor[(?, 5, 15), float32]) {
  @func_10101() /* ty=(Tensor[(?, 5, 15), float32], Tensor[(?, 5, 15), float64], Tensor[(8, 16, 16), bool], Tensor[(?, 5, 15), float64], Tensor[(?, 5, 15), float32]) */
}

def @func_6028() -> Tensor[(?, 5, 15), float64] {
  %999 = fn () -> Tensor[(?, 5, 15), float64] {
    %998 = @func_3167() /* ty=(Tensor[(?, 5, 15), float64], Tensor[(?, 5, 15), float32], Tensor[(5, 5, 15), bool]) */;
    %998.0
  };
  %999() /* ty=Tensor[(?, 5, 15), float64] */
}

def @func_10193() -> Tensor[(12, 6, 3), bool] {
  @func_10191() /* ty=Tensor[(12, 6, 3), bool] */
}

def @func_4556() -> Tensor[(?, 5, 15), float32] {
  @func_4554() /* ty=Tensor[(?, 5, 15), float32] */
}

def @func_7087() -> Tensor[(?, 5, 15), float32] {
  %1000 = @func_6645() /* ty=(Tensor[(?, 5, 15), float32], Tensor[(?, 5, 15), float32]) */;
  %1000.1
}

def @func_4442() -> Tensor[(?, 5, 15), float64] {
  @func_4440() /* ty=Tensor[(?, 5, 15), float64] */
}

def @func_8742() -> Tensor[(6, 5, 15), float64] {
  %1002 = fn () -> Tensor[(6, 5, 15), float64] {
    %1001 = @func_4111() /* ty=(Tensor[(?, 5, 15), float64], Tensor[(6, 5, 15), float64], Tensor[(450), float32]) */;
    %1001.1
  };
  %1002() /* ty=Tensor[(6, 5, 15), float64] */
}

def @func_11607(%var_11606: Tensor[(16, 14, 1), float64]) -> Tensor[(16, 14, 1), float64] {
  %1004 = fn (%var_11601: Tensor[(16, 14, 1), float64]) -> Tensor[(16, 14, 1), float64] {
    %1003 = cast(%var_11601, dtype="float64") /* ty=Tensor[(16, 14, 1), float64] */;
    acosh(%1003) /* ty=Tensor[(16, 14, 1), float64] */
  };
  %1004(%var_11606) /* ty=Tensor[(16, 14, 1), float64] */
}

def @func_12307() -> (Tensor[(?, 5, 15), float32], Tensor[(?, 5, 15), float32], Tensor[(?, 5, 15), float64], Tensor[(?, 5, 15), float64]) {
  %1012 = fn () -> (Tensor[(?, 5, 15), float32], Tensor[(?, 5, 15), float32], Tensor[(?, 5, 15), float64], Tensor[(?, 5, 15), float64]) {
    %1005 = @func_6645() /* ty=(Tensor[(?, 5, 15), float32], Tensor[(?, 5, 15), float32]) */;
    %1006 = @func_7110() /* ty=(Tensor[(?, 5, 15), float64],) */;
    %1007 = @func_11212() /* ty=(Tensor[(?, 5, 15), float64], Tensor[(?, 5, 15), float32]) */;
    %1008 = %1005.0;
    %1009 = @func_7087() /* ty=Tensor[(?, 5, 15), float32] */;
    %1010 = %1006.0;
    %1011 = %1007.0;
    (%1008, %1009, %1010, %1011)
  };
  %1012() /* ty=(Tensor[(?, 5, 15), float32], Tensor[(?, 5, 15), float32], Tensor[(?, 5, 15), float64], Tensor[(?, 5, 15), float64]) */
}

def @func_12644() -> (Tensor[(?, 5, 15), float32], Tensor[(36, 6), uint8], Tensor[(?, 5, 15), float64], Tensor[(6, 5, 15), float64], Tensor[(?, 5, 15), float32], Tensor[(?, 5, 15), float64], Tensor[(?, 5, 15), float64]) {
  @func_12642() /* ty=(Tensor[(?, 5, 15), float32], Tensor[(36, 6), uint8], Tensor[(?, 5, 15), float64], Tensor[(6, 5, 15), float64], Tensor[(?, 5, 15), float32], Tensor[(?, 5, 15), float64], Tensor[(?, 5, 15), float64]) */
}

def @func_5034() -> (Tensor[(7, 5, 15), bool], Tensor[(?, 5, 15), float32], Tensor[(?, 5, 15), float32]) {
  @func_5032() /* ty=(Tensor[(7, 5, 15), bool], Tensor[(?, 5, 15), float32], Tensor[(?, 5, 15), float32]) */
}

def @func_4408(%var_4407: Tensor[(12, 6, 3), float64]) -> (Tensor[(?, 5, 15), float64], Tensor[(12, 6, 3), uint32], Tensor[(?, 5, 15), int64]) {
  %1024 = fn (%var_4395: Tensor[(12, 6, 3), float64]) -> (Tensor[(?, 5, 15), float64], Tensor[(12, 6, 3), uint32], Tensor[(?, 5, 15), int64]) {
    %1013 = @func_1406() /* ty=(Tensor[(?, 5, 15), float64],) */;
    %1014 = @func_1894() /* ty=(Tensor[(?, 5, 15), float64], Tensor[(?, 5, 15), int64], Tensor[(12, 6, 3), float64], Tensor[(?, 5, 15), float32]) */;
    %1015 = %1014.2;
    %1016 = cast(%var_4395, dtype="uint32") /* ty=Tensor[(12, 6, 3), uint32] */;
    %1017 = shape_of(%1015, dtype="int32") /* ty=Tensor[(3), int32] */;
    %1018 = cast(%1015, dtype="uint32") /* ty=Tensor[(12, 6, 3), uint32] */;
    %1019 = dyn.reshape(%1016, %1017, newshape=[]) /* ty=Tensor[(?, ?, ?), uint32] */;
    %1020 = @func_1133() /* ty=(Tensor[(?, 5, 15), float32], Tensor[(?, 5, 15), int64]) */;
    %1021 = %1013.0;
    %1022 = minimum(%1018, %1019) /* ty=Tensor[(12, 6, 3), uint32] */;
    %1023 = %1020.1;
    (%1021, %1022, %1023)
  };
  %1024(%var_4407) /* ty=(Tensor[(?, 5, 15), float64], Tensor[(12, 6, 3), uint32], Tensor[(?, 5, 15), int64]) */
}

def @func_4756() -> (Tensor[(?, 5, 15), float64],) {
  %1025 = @func_3931() /* ty=Tensor[(?, 5, 15), float64] */;
  (%1025,)
}

def @func_10266() -> (Tensor[(?, 5, 15), float32], Tensor[(?, 5, 15), float32], Tensor[(?, 5, 15), int64]) {
  @func_10264() /* ty=(Tensor[(?, 5, 15), float32], Tensor[(?, 5, 15), float32], Tensor[(?, 5, 15), int64]) */
}

def @func_5668() -> (Tensor[(?, 5, 15), float32],) {
  @func_5666() /* ty=(Tensor[(?, 5, 15), float32],) */
}

def @func_12433() -> (Tensor[(?, 5, 15), float64], Tensor[(?, 5, 15), float64], Tensor[(?, 5, 15), float32]) {
  %1026 = @func_10101() /* ty=(Tensor[(?, 5, 15), float32], Tensor[(?, 5, 15), float64], Tensor[(8, 16, 16), bool], Tensor[(?, 5, 15), float64], Tensor[(?, 5, 15), float32]) */;
  %1027 = @func_740() /* ty=(Tensor[(?, 5, 15), float64],) */;
  %1028 = @func_10101() /* ty=(Tensor[(?, 5, 15), float32], Tensor[(?, 5, 15), float64], Tensor[(8, 16, 16), bool], Tensor[(?, 5, 15), float64], Tensor[(?, 5, 15), float32]) */;
  %1029 = %1026.1;
  %1030 = %1027.0;
  %1031 = %1028.4;
  (%1029, %1030, %1031)
}

def @func_4826() -> Tensor[(7, 5, 15), float64] {
  %1036 = fn () -> Tensor[(7, 5, 15), float64] {
    %1032 = @func_3852() /* ty=(Tensor[(9, 3, 14), float64], Tensor[(?, 5, 15), int64], Tensor[(?, 5, 15), float32]) */;
    %1033 = %1032.2;
    %1034 = cast(%1033, dtype="float64") /* ty=Tensor[(?, 5, 15), float64] */;
    %1035 = cast(meta[relay.Constant][22] /* ty=Tensor[(7, 5, 15), float32] */, dtype="float64") /* ty=Tensor[(7, 5, 15), float64] */;
    power(%1034, %1035) /* ty=Tensor[(7, 5, 15), float64] */
  };
  %1036() /* ty=Tensor[(7, 5, 15), float64] */
}

def @func_374() -> Tensor[(?, 5, 15), float32] {
  %1037 = cast(meta[relay.Constant][23] /* ty=Tensor[(1, 5, 15), float64] */, dtype="float64") /* ty=Tensor[(1, 5, 15), float64] */;
  %1038 = atan(%1037) /* ty=Tensor[(1, 5, 15), float64] */;
  %1039 = cast(meta[relay.Constant][23] /* ty=Tensor[(1, 5, 15), float64] */, dtype="int16") /* ty=Tensor[(1, 5, 15), int16] */;
  %1040 = shape_of(%1038, dtype="int32") /* ty=Tensor[(3), int32] */;
  %1041 = cast(%1038, dtype="int16") /* ty=Tensor[(1, 5, 15), int16] */;
  %1042 = dyn.reshape(%1039, %1040, newshape=[]) /* ty=Tensor[(?, ?, ?), int16] */;
  %1043 = logical_xor(%1041, %1042) /* ty=Tensor[(?, 5, 15), int16] */;
  %1044 = cast(%1043, dtype="float32") /* ty=Tensor[(?, 5, 15), float32] */;
  %1045 = shape_of(%1038, dtype="int32") /* ty=Tensor[(3), int32] */;
  %1046 = cast(%1038, dtype="float32") /* ty=Tensor[(1, 5, 15), float32] */;
  %1047 = dyn.reshape(%1044, %1045, newshape=[]) /* ty=Tensor[(?, ?, ?), float32] */;
  minimum(%1046, %1047) /* ty=Tensor[(?, 5, 15), float32] */
}

def @func_4620(%var_4609: Tensor[(300), float32]) -> (Tensor[(?, 5, 15), float64], Tensor[(4, 5, 15), uint64], Tensor[(300), float32], Tensor[(?, 5, 15), int64]) {
  %1048 = cast(%var_4609, dtype="float32") /* ty=Tensor[(300), float32] */;
  %1049 = reshape(%1048, newshape=[4, 5, 15]) /* ty=Tensor[(4, 5, 15), float32] */;
  %1050 = @func_2330(%1049) /* ty=(Tensor[(4, 5, 15), uint64], Tensor[(?, 5, 15), float32]) */;
  %1051 = @func_1894() /* ty=(Tensor[(?, 5, 15), float64], Tensor[(?, 5, 15), int64], Tensor[(12, 6, 3), float64], Tensor[(?, 5, 15), float32]) */;
  %1052 = @func_3435() /* ty=Tensor[(?, 5, 15), float64] */;
  %1053 = %1050.0;
  %1054 = %1051.1;
  (%1052, %1053, %var_4609, %1054)
}

def @func_8281() -> (Tensor[(?, 5, 15), float32], Tensor[(?, 5, 15), float32], Tensor[(?, 5, 15), float64]) {
  %1055 = @func_2034() /* ty=(Tensor[(?, 5, 15), float64], Tensor[(?, 5, 15), float32], Tensor[(?, 5, 15), float64]) */;
  %1056 = @func_3315() /* ty=(Tensor[(?, 5, 15), float32], Tensor[(12, 6, 3), bool]) */;
  %1057 = @func_2651() /* ty=(Tensor[(?, 5, 15), float32], Tensor[(?, 5, 15), uint16], Tensor[(?, 5, 15), float64], Tensor[(?, 5, 15), float32], Tensor[(?, 5, 15), float64], Tensor[(?, 5, 15), float32], Tensor[(?, 5, 15), float64]) */;
  %1058 = %1055.1;
  %1059 = %1056.0;
  %1060 = %1057.6;
  (%1058, %1059, %1060)
}

def @func_5439(%var_5426: Tensor[(9, 4, 2), float32]) -> (Tensor[(9, 4, 2), float32], Tensor[(5, 5, 15), bool]) {
  %1061 = cast(%var_5426, dtype="float32") /* ty=Tensor[(9, 4, 2), float32] */;
  %1062 = @func_5202() /* ty=(Tensor[(5, 5, 15), bool], Tensor[(?, 5, 15), int64]) */;
  %1063 = asinh(%1061) /* ty=Tensor[(9, 4, 2), float32] */;
  %1064 = %1062.0;
  (%1063, %1064)
}

def @func_5882() -> (Tensor[(?, 5, 15), float32], Tensor[(?, 5, 15), float32]) {
  @func_5880() /* ty=(Tensor[(?, 5, 15), float32], Tensor[(?, 5, 15), float32]) */
}

def @func_5269() -> Tensor[(?, 5, 15), float32] {
  %1066 = fn () -> Tensor[(?, 5, 15), float32] {
    %1065 = @func_944() /* ty=(Tensor[(?, 5, 15), float64], Tensor[(?, 5, 15), float32]) */;
    %1065.1
  };
  %1066() /* ty=Tensor[(?, 5, 15), float32] */
}

def @func_2569() -> Tensor[(?, 5, 15), int64] {
  @func_2567() /* ty=Tensor[(?, 5, 15), int64] */
}

def @func_10552() -> Tensor[(?, 5, 15), float32] {
  @func_10550() /* ty=Tensor[(?, 5, 15), float32] */
}

def @func_9138() -> Tensor[(?, 5, 15), float32] {
  %1067 = fn () -> Tensor[(?, 5, 15), float32] {
    @func_1549() /* ty=Tensor[(?, 5, 15), float32] */
  };
  %1067() /* ty=Tensor[(?, 5, 15), float32] */
}

def @func_12677() -> (Tensor[(?, 5, 15), float64],) {
  @func_12675() /* ty=(Tensor[(?, 5, 15), float64],) */
}

def @func_12724() -> Tensor[(?, 5, 15), float64] {
  @func_12722() /* ty=Tensor[(?, 5, 15), float64] */
}

def @func_944() -> (Tensor[(?, 5, 15), float64], Tensor[(?, 5, 15), float32]) {
  %1068 = @func_740() /* ty=(Tensor[(?, 5, 15), float64],) */;
  %1069 = @func_923() /* ty=(Tensor[(?, 5, 15), float32],) */;
  %1070 = %1068.0;
  %1071 = %1069.0;
  (%1070, %1071)
}

def @func_5618(%var_5599: Tensor[(8, 8, 8), float32], %var_5606: Tensor[(300, 1), float32]) -> (Tensor[(8, 8, 8), float32], Tensor[(?, 5, 15), int64], Tensor[(300, 1), float32], Tensor[(12, 3, ?), bool], Tensor[(36), float32]) {
  %1072 = cast(%var_5599, dtype="float32") /* ty=Tensor[(8, 8, 8), float32] */;
  %1073 = cast(%var_5606, dtype="float32") /* ty=Tensor[(300, 1), float32] */;
  %1074 = reshape(%1073, newshape=[300]) /* ty=Tensor[(300), float32] */;
  %1075 = @func_4620(%1074) /* ty=(Tensor[(?, 5, 15), float64], Tensor[(4, 5, 15), uint64], Tensor[(300), float32], Tensor[(?, 5, 15), int64]) */;
  %1076 = cast(meta[relay.Constant][24] /* ty=Tensor[(36), float32] */, dtype="float32") /* ty=Tensor[(36), float32] */;
  %1077 = reshape(%1076, newshape=[12, 3, 1]) /* ty=Tensor[(12, 3, 1), float32] */;
  %1078 = @func_2890(%1077) /* ty=(Tensor[(12, 3, ?), int16], Tensor[(12, 3, ?), bool]) */;
  %1079 = sigmoid(%1072) /* ty=Tensor[(8, 8, 8), float32] */;
  %1080 = %1075.3;
  %1081 = %1078.1;
  (%1079, %1080, %var_5606, %1081, meta[relay.Constant][24] /* ty=Tensor[(36), float32] */)
}

def @func_3536(%var_3535: Tensor[(6, 5, 15), float32]) -> (Tensor[(?, 5, 15), float64], Tensor[(6, 5, 15), float64], Tensor[(?, 5, 15), float64]) {
  %1091 = fn (%var_3512: Tensor[(6, 5, 15), float32]) -> (Tensor[(?, 5, 15), float64], Tensor[(6, 5, 15), float64], Tensor[(?, 5, 15), float64]) {
    %1082 = @func_740() /* ty=(Tensor[(?, 5, 15), float64],) */;
    %1083 = @func_923() /* ty=(Tensor[(?, 5, 15), float32],) */;
    %1084 = %1083.0;
    %1085 = cast(%1084, dtype="float64") /* ty=Tensor[(?, 5, 15), float64] */;
    %1086 = cast(%var_3512, dtype="float64") /* ty=Tensor[(6, 5, 15), float64] */;
    %1087 = @func_3086() /* ty=(Tensor[(?, 5, 15), float64], Tensor[(?, 5, 15), float64]) */;
    %1088 = %1082.0;
    %1089 = divide(%1085, %1086) /* ty=Tensor[(6, 5, 15), float64] */;
    %1090 = %1087.0;
    (%1088, %1089, %1090)
  };
  %1091(%var_3535) /* ty=(Tensor[(?, 5, 15), float64], Tensor[(6, 5, 15), float64], Tensor[(?, 5, 15), float64]) */
}

def @func_8901() -> Tensor[(?, 5, 15), float64] {
  %1092 = fn () -> Tensor[(?, 5, 15), float64] {
    @func_2810() /* ty=Tensor[(?, 5, 15), float64] */
  };
  %1092() /* ty=Tensor[(?, 5, 15), float64] */
}

def @func_1984() -> Tensor[(?, 5, 15), float64] {
  %1093 = @func_1529() /* ty=(Tensor[(?, 5, 15), float64],) */;
  %1093.0
}

def @func_6450() -> (Tensor[(?, 5, 15), float32],) {
  %1094 = @func_825() /* ty=(Tensor[(?, 5, 15), float32], Tensor[(?, 5, 15), float32]) */;
  %1095 = %1094.1;
  (%1095,)
}

def @func_6401() -> (Tensor[(?, 5, 15), float32],) {
  %1098 = fn () -> (Tensor[(?, 5, 15), float32],) {
    %1096 = @func_1109() /* ty=(Tensor[(?, 5, 15), float32], Tensor[(?, 5, 15), float32]) */;
    %1097 = %1096.0;
    (%1097,)
  };
  %1098() /* ty=(Tensor[(?, 5, 15), float32],) */
}

def @func_13279(%var_13272: Tensor[(8, 6, 8), float64]) -> Tensor[(8, 6, 8), float32] {
  %1099 = cast(%var_13272, dtype="float64") /* ty=Tensor[(8, 6, 8), float64] */;
  %1100 = tan(%1099) /* ty=Tensor[(8, 6, 8), float64] */;
  %1101 = cast(%1100, dtype="float32") /* ty=Tensor[(8, 6, 8), float32] */;
  log(%1101) /* ty=Tensor[(8, 6, 8), float32] */
}

def @func_6476() -> Tensor[(?, 5, 15), float32] {
  %1102 = @func_794() /* ty=(Tensor[(?, 5, 15), float32], Tensor[(?, 5, 15), int64]) */;
  %1102.0
}

def @func_4308() -> (Tensor[(?, 5, 15), float32], Tensor[(?, 5, 15), float64], Tensor[(?, 5, 15), float32]) {
  %1103 = @func_3315() /* ty=(Tensor[(?, 5, 15), float32], Tensor[(12, 6, 3), bool]) */;
  %1104 = @func_3086() /* ty=(Tensor[(?, 5, 15), float64], Tensor[(?, 5, 15), float64]) */;
  %1105 = @func_3315() /* ty=(Tensor[(?, 5, 15), float32], Tensor[(12, 6, 3), bool]) */;
  %1106 = %1103.0;
  %1107 = %1104.1;
  %1108 = %1105.0;
  (%1106, %1107, %1108)
}

def @func_2981() -> Tensor[(?, 5, 15), float64] {
  %1109 = @func_2275() /* ty=(Tensor[(?, 5, 15), float64],) */;
  %1109.0
}

def @func_5204() -> (Tensor[(5, 5, 15), bool], Tensor[(?, 5, 15), int64]) {
  @func_5202() /* ty=(Tensor[(5, 5, 15), bool], Tensor[(?, 5, 15), int64]) */
}

def @func_924() -> (Tensor[(?, 5, 15), float32],) {
  %1111 = fn () -> (Tensor[(?, 5, 15), float32],) {
    %1110 = @func_374() /* ty=Tensor[(?, 5, 15), float32] */;
    (%1110,)
  };
  %1111() /* ty=(Tensor[(?, 5, 15), float32],) */
}

def @func_11483() -> Tensor[(?, 5, 15), float32] {
  %1112 = @func_8333() /* ty=(Tensor[(?, 5, 15), float32],) */;
  %1112.0
}

def @func_3436() -> Tensor[(?, 5, 15), float64] {
  %1114 = fn () -> Tensor[(?, 5, 15), float64] {
    %1113 = @func_3256() /* ty=(Tensor[(?, 5, 15), float64],) */;
    %1113.0
  };
  %1114() /* ty=Tensor[(?, 5, 15), float64] */
}

def @func_3286() -> Tensor[(?, 5, 15), float64] {
  @func_3284() /* ty=Tensor[(?, 5, 15), float64] */
}

def @func_4073() -> (Tensor[(?, 5, 15), float64],) {
  @func_4071() /* ty=(Tensor[(?, 5, 15), float64],) */
}

def @func_12965() -> (Tensor[(?, 5, 15), float64], Tensor[(?, 5, 15), float32]) {
  @func_12963() /* ty=(Tensor[(?, 5, 15), float64], Tensor[(?, 5, 15), float32]) */
}

def @func_7443() -> Tensor[(13, 5, 15), float32] {
  %1118 = fn () -> Tensor[(13, 5, 15), float32] {
    %1115 = @func_2201() /* ty=Tensor[(?, 5, 15), int64] */;
    %1116 = cast(%1115, dtype="float32") /* ty=Tensor[(?, 5, 15), float32] */;
    %1117 = cast(meta[relay.Constant][25] /* ty=Tensor[(13, 5, 15), int64] */, dtype="float32") /* ty=Tensor[(13, 5, 15), float32] */;
    floor_divide(%1116, %1117) /* ty=Tensor[(13, 5, 15), float32] */
  };
  %1118() /* ty=Tensor[(13, 5, 15), float32] */
}

def @func_1678(%var_1677: Tensor[(12, 5, 15), float32]) -> (Tensor[(12, 5, 15), bool], Tensor[(?, 5, 15), float64]) {
  %1126 = fn (%var_1664: Tensor[(12, 5, 15), float32]) -> (Tensor[(12, 5, 15), bool], Tensor[(?, 5, 15), float64]) {
    %1119 = @func_923() /* ty=(Tensor[(?, 5, 15), float32],) */;
    %1120 = %1119.0;
    %1121 = cast(%1120, dtype="bool") /* ty=Tensor[(?, 5, 15), bool] */;
    %1122 = cast(%var_1664, dtype="bool") /* ty=Tensor[(12, 5, 15), bool] */;
    %1123 = @func_1529() /* ty=(Tensor[(?, 5, 15), float64],) */;
    %1124 = greater(%1121, %1122) /* ty=Tensor[(12, 5, 15), bool] */;
    %1125 = %1123.0;
    (%1124, %1125)
  };
  %1126(%var_1677) /* ty=(Tensor[(12, 5, 15), bool], Tensor[(?, 5, 15), float64]) */
}

def @func_827() -> (Tensor[(?, 5, 15), float32], Tensor[(?, 5, 15), float32]) {
  @func_825() /* ty=(Tensor[(?, 5, 15), float32], Tensor[(?, 5, 15), float32]) */
}

def @func_2719() -> (Tensor[(?, 5, 15), int64], Tensor[(?, 5, 15), float32], Tensor[(300), float32]) {
  %1127 = @func_1133() /* ty=(Tensor[(?, 5, 15), float32], Tensor[(?, 5, 15), int64]) */;
  %1128 = cast(meta[relay.Constant][26] /* ty=Tensor[(300), float32] */, dtype="float32") /* ty=Tensor[(300), float32] */;
  %1129 = reshape(%1128, newshape=[4, 5, 15]) /* ty=Tensor[(4, 5, 15), float32] */;
  %1130 = @func_2330(%1129) /* ty=(Tensor[(4, 5, 15), uint64], Tensor[(?, 5, 15), float32]) */;
  %1131 = %1127.1;
  %1132 = %1130.1;
  (%1131, %1132, meta[relay.Constant][26] /* ty=Tensor[(300), float32] */)
}

def @func_6660() -> (Tensor[(?, 5, 15), float32],) {
  %1134 = fn () -> (Tensor[(?, 5, 15), float32],) {
    %1133 = @func_443() /* ty=Tensor[(?, 5, 15), float32] */;
    (%1133,)
  };
  %1134() /* ty=(Tensor[(?, 5, 15), float32],) */
}

def @func_9372(%var_9370: Tensor[(1, 5, 15), float64]) -> (Tensor[(?, 5, 15), float64], Tensor[(?, 5, 15), float64], Tensor[(?, 5, 15), bool], Tensor[(?, 5, 15), float32]) {
  @func_9369(%var_9370) /* ty=(Tensor[(?, 5, 15), float64], Tensor[(?, 5, 15), float64], Tensor[(?, 5, 15), bool], Tensor[(?, 5, 15), float32]) */
}

def @func_10575() -> Tensor[(?, 5, 15), float64] {
  %1135 = fn () -> Tensor[(?, 5, 15), float64] {
    @func_8900() /* ty=Tensor[(?, 5, 15), float64] */
  };
  %1135() /* ty=Tensor[(?, 5, 15), float64] */
}

def @func_13141() -> (Tensor[(?, 5, 15), float32],) {
  %1136 = @func_7766() /* ty=(Tensor[(?, 5, 15), float32], Tensor[(?, 5, 15), float64], Tensor[(450), float32], Tensor[(?, 5, 15), float32]) */;
  %1137 = %1136.0;
  (%1137,)
}

def @func_3853() -> (Tensor[(9, 3, 14), float64], Tensor[(?, 5, 15), int64], Tensor[(?, 5, 15), float32]) {
  %1145 = fn () -> (Tensor[(9, 3, 14), float64], Tensor[(?, 5, 15), int64], Tensor[(?, 5, 15), float32]) {
    %1138 = cast(meta[relay.Constant][27] /* ty=Tensor[(9, 3, 14), float64] */, dtype="float64") /* ty=Tensor[(9, 3, 14), float64] */;
    %1139 = rsqrt(%1138) /* ty=Tensor[(9, 3, 14), float64] */;
    %1140 = cast(%1139, dtype="float64") /* ty=Tensor[(9, 3, 14), float64] */;
    %1141 = @func_1894() /* ty=(Tensor[(?, 5, 15), float64], Tensor[(?, 5, 15), int64], Tensor[(12, 6, 3), float64], Tensor[(?, 5, 15), float32]) */;
    %1142 = acos(%1140) /* ty=Tensor[(9, 3, 14), float64] */;
    %1143 = %1141.1;
    %1144 = @func_374() /* ty=Tensor[(?, 5, 15), float32] */;
    (%1142, %1143, %1144)
  };
  %1145() /* ty=(Tensor[(9, 3, 14), float64], Tensor[(?, 5, 15), int64], Tensor[(?, 5, 15), float32]) */
}

def @func_1110() -> (Tensor[(?, 5, 15), float32], Tensor[(?, 5, 15), float32]) {
  %1149 = fn () -> (Tensor[(?, 5, 15), float32], Tensor[(?, 5, 15), float32]) {
    %1146 = @func_923() /* ty=(Tensor[(?, 5, 15), float32],) */;
    %1147 = @func_374() /* ty=Tensor[(?, 5, 15), float32] */;
    %1148 = %1146.0;
    (%1147, %1148)
  };
  %1149() /* ty=(Tensor[(?, 5, 15), float32], Tensor[(?, 5, 15), float32]) */
}

def @func_10118() -> (Tensor[(?, 5, 15), float32],) {
  %1152 = fn () -> (Tensor[(?, 5, 15), float32],) {
    %1150 = @func_6450() /* ty=(Tensor[(?, 5, 15), float32],) */;
    %1151 = %1150.0;
    (%1151,)
  };
  %1152() /* ty=(Tensor[(?, 5, 15), float32],) */
}

def @func_3557() -> (Tensor[(?, 5, 15), float64],) {
  %1153 = @func_2810() /* ty=Tensor[(?, 5, 15), float64] */;
  (%1153,)
}

def @func_795() -> (Tensor[(?, 5, 15), float32], Tensor[(?, 5, 15), int64]) {
  %1157 = fn () -> (Tensor[(?, 5, 15), float32], Tensor[(?, 5, 15), int64]) {
    %1154 = @func_670() /* ty=(Tensor[(?, 5, 15), int64], Tensor[(?, 5, 15), float32]) */;
    %1155 = @func_443() /* ty=Tensor[(?, 5, 15), float32] */;
    %1156 = %1154.0;
    (%1155, %1156)
  };
  %1157() /* ty=(Tensor[(?, 5, 15), float32], Tensor[(?, 5, 15), int64]) */
}

def @func_7908() -> Tensor[(?, 5, 15), float32] {
  %1158 = fn () -> Tensor[(?, 5, 15), float32] {
    @func_7185() /* ty=Tensor[(?, 5, 15), float32] */
  };
  %1158() /* ty=Tensor[(?, 5, 15), float32] */
}

def @func_3219() -> (Tensor[(?, 5, 15), float64], Tensor[(?, 5, 15), float64]) {
  %1159 = @func_3086() /* ty=(Tensor[(?, 5, 15), float64], Tensor[(?, 5, 15), float64]) */;
  %1160 = @func_2810() /* ty=Tensor[(?, 5, 15), float64] */;
  %1161 = %1159.0;
  (%1160, %1161)
}

def @func_6478() -> Tensor[(?, 5, 15), float32] {
  @func_6476() /* ty=Tensor[(?, 5, 15), float32] */
}

def @func_7089() -> Tensor[(?, 5, 15), float32] {
  @func_7087() /* ty=Tensor[(?, 5, 15), float32] */
}

def @func_4159() -> (Tensor[(?, 5, 15), float32],) {
  %1164 = fn () -> (Tensor[(?, 5, 15), float32],) {
    %1162 = @func_923() /* ty=(Tensor[(?, 5, 15), float32],) */;
    %1163 = %1162.0;
    (%1163,)
  };
  %1164() /* ty=(Tensor[(?, 5, 15), float32],) */
}

def @func_5743(%var_5741: Tensor[(900), float32]) -> (Tensor[(?, 5, 15), float32], Tensor[(?, 5, 15), float64], Tensor[(900), float32]) {
  %1165 = cast(%var_5741, dtype="float32") /* ty=Tensor[(900), float32] */;
  %1166 = reshape(%1165, newshape=[12, 5, 15]) /* ty=Tensor[(12, 5, 15), float32] */;
  %1167 = @func_1676(%1166) /* ty=(Tensor[(12, 5, 15), bool], Tensor[(?, 5, 15), float64]) */;
  %1168 = @func_374() /* ty=Tensor[(?, 5, 15), float32] */;
  %1169 = %1167.1;
  (%1168, %1169, %var_5741)
}

def @func_9684(%var_9682: Tensor[(12, 6, 15), int16], %var_9683: Tensor[(12, 6, 15), int16]) -> (Tensor[(12, 6, 15), int16], Tensor[(8, 16, 16), bool], Tensor[(75), float32]) {
  @func_9680(%var_9682, %var_9683) /* ty=(Tensor[(12, 6, 15), int16], Tensor[(8, 16, 16), bool], Tensor[(75), float32]) */
}

def @func_4440() -> Tensor[(?, 5, 15), float64] {
  %1170 = @func_3557() /* ty=(Tensor[(?, 5, 15), float64],) */;
  %1170.0
}

def @func_5317() -> (Tensor[(?, 5, 15), float64],) {
  %1173 = fn () -> (Tensor[(?, 5, 15), float64],) {
    %1171 = @func_4227() /* ty=(Tensor[(5, 5, 15), bool], Tensor[(?, 5, 15), float64]) */;
    %1172 = %1171.1;
    (%1172,)
  };
  %1173() /* ty=(Tensor[(?, 5, 15), float64],) */
}

def @func_2914() -> (Tensor[(36, 6), uint8], Tensor[(5, 5, 15), bool]) {
  %1177 = fn () -> (Tensor[(36, 6), uint8], Tensor[(5, 5, 15), bool]) {
    %1174 = @func_1220() /* ty=(Tensor[(12, 6, 3), bool], Tensor[(36, 6), uint8], Tensor[(?, 5, 15), float32]) */;
    %1175 = %1174.1;
    %1176 = @func_1500() /* ty=Tensor[(5, 5, 15), bool] */;
    (%1175, %1176)
  };
  %1177() /* ty=(Tensor[(36, 6), uint8], Tensor[(5, 5, 15), bool]) */
}

def @func_1407() -> (Tensor[(?, 5, 15), float64],) {
  %1180 = fn () -> (Tensor[(?, 5, 15), float64],) {
    %1178 = @func_944() /* ty=(Tensor[(?, 5, 15), float64], Tensor[(?, 5, 15), float32]) */;
    %1179 = %1178.0;
    (%1179,)
  };
  %1180() /* ty=(Tensor[(?, 5, 15), float64],) */
}

def @func_2828() -> (Tensor[(?, 5, 15), float32], Tensor[(?, 5, 15), float32]) {
  %1181 = @func_1109() /* ty=(Tensor[(?, 5, 15), float32], Tensor[(?, 5, 15), float32]) */;
  %1182 = @func_944() /* ty=(Tensor[(?, 5, 15), float64], Tensor[(?, 5, 15), float32]) */;
  %1183 = %1181.0;
  %1184 = %1182.1;
  (%1183, %1184)
}

def @func_12120(%var_12096: Tensor[(512), float32]) -> (Tensor[(512), float32], Tensor[(?, 5, 15), bool], Tensor[(3, 6, ?), bool]) {
  %1185 = cast(%var_12096, dtype="float32") /* ty=Tensor[(512), float32] */;
  %1186 = reshape(%1185, newshape=[512]) /* ty=Tensor[(512), float32] */;
  %1187 = @func_7333(%1186) /* ty=(Tensor[(?, 5, 15), int64], Tensor[(?, 5, 15), float64], Tensor[(?, 5, 15), float64], Tensor[(9, 3, 14), float64], Tensor[(300), float32], Tensor[(?, 5, 15), float64], Tensor[(?, 5, 15), int64], Tensor[(8, 8, 8), float64]) */;
  %1188 = %1187.6;
  %1189 = @func_3557() /* ty=(Tensor[(?, 5, 15), float64],) */;
  %1190 = %1189.0;
  %1191 = cast(%1190, dtype="bool") /* ty=Tensor[(?, 5, 15), bool] */;
  %1192 = shape_of(%1188, dtype="int32") /* ty=Tensor[(3), int32] */;
  %1193 = cast(%1188, dtype="bool") /* ty=Tensor[(?, 5, 15), bool] */;
  %1194 = dyn.reshape(%1191, %1192, newshape=[]) /* ty=Tensor[(?, ?, ?), bool] */;
  %1195 = cast(meta[relay.Constant][28] /* ty=Tensor[(3, 6, 1), float32] */, dtype="float32") /* ty=Tensor[(3, 6, 1), float32] */;
  %1196 = log10(%1195) /* ty=Tensor[(3, 6, 1), float32] */;
  %1197 = cast(meta[relay.Constant][28] /* ty=Tensor[(3, 6, 1), float32] */, dtype="bool") /* ty=Tensor[(3, 6, 1), bool] */;
  %1198 = shape_of(%1196, dtype="int32") /* ty=Tensor[(3), int32] */;
  %1199 = cast(%1196, dtype="bool") /* ty=Tensor[(3, 6, 1), bool] */;
  %1200 = dyn.reshape(%1197, %1198, newshape=[]) /* ty=Tensor[(?, ?, ?), bool] */;
  %1201 = equal(%1193, %1194) /* ty=Tensor[(?, 5, 15), bool] */;
  %1202 = less_equal(%1199, %1200) /* ty=Tensor[(3, 6, ?), bool] */;
  (%var_12096, %1201, %1202)
}

def @func_6709() -> (Tensor[(300), float32], Tensor[(?, 5, 15), float32], Tensor[(?, 5, 15), float32]) {
  %1208 = fn () -> (Tensor[(300), float32], Tensor[(?, 5, 15), float32], Tensor[(?, 5, 15), float32]) {
    %1203 = @func_2719() /* ty=(Tensor[(?, 5, 15), int64], Tensor[(?, 5, 15), float32], Tensor[(300), float32]) */;
    %1204 = @func_3738() /* ty=(Tensor[(?, 5, 15), float32], Tensor[(?, 5, 15), int64]) */;
    %1205 = %1203.2;
    %1206 = %1204.0;
    %1207 = @func_6476() /* ty=Tensor[(?, 5, 15), float32] */;
    (%1205, %1206, %1207)
  };
  %1208() /* ty=(Tensor[(300), float32], Tensor[(?, 5, 15), float32], Tensor[(?, 5, 15), float32]) */
}

def @func_8228() -> Tensor[(9, 3, 14), float64] {
  @func_8226() /* ty=Tensor[(9, 3, 14), float64] */
}

def @func_12334() -> (Tensor[(?, 5, 15), float64],) {
  %1211 = fn () -> (Tensor[(?, 5, 15), float64],) {
    %1209 = @func_7852() /* ty=(Tensor[(?, 5, 15), float64], Tensor[(?, 5, 15), int64]) */;
    %1210 = %1209.0;
    (%1210,)
  };
  %1211() /* ty=(Tensor[(?, 5, 15), float64],) */
}

def @func_9776() -> Tensor[(?, 5, 15), bool] {
  %1212 = @func_7143() /* ty=(Tensor[(?, 5, 15), bool],) */;
  %1212.0
}

def @func_4580() -> Tensor[(?, 5, 15), float32] {
  @func_4578() /* ty=Tensor[(?, 5, 15), float32] */
}

def @main(%var_13916: Tensor[(10, 15, 11), float32]) -> Tensor[(10, 15, 11), float32] {
  %1213 = cast(%var_13916, dtype="float32") /* ty=Tensor[(10, 15, 11), float32] */;
  %1214 = cosh(%1213) /* ty=Tensor[(10, 15, 11), float32] */;
  %1215 = cast(%1214, dtype="float32") /* ty=Tensor[(10, 15, 11), float32] */;
  %1216 = shape_of(%var_13916, dtype="int32") /* ty=Tensor[(3), int32] */;
  %1217 = cast(%var_13916, dtype="float32") /* ty=Tensor[(10, 15, 11), float32] */;
  %1218 = dyn.reshape(%1215, %1216, newshape=[]) /* ty=Tensor[(?, ?, ?), float32] */;
  divide(%1217, %1218) /* ty=Tensor[(10, 15, 11), float32] */
}

/* For debugging purposes the metadata section has been omitted.
 * If you would like to see the full metadata section you can set the 
 * option to `True` when invoking `astext`. 
 *//home/yujunzhe/Hirgen_generated/tvm0.8_test/HirGen759/build/output.py:4574: DeprecationWarning: legacy graph executor behavior of producing json / lib / params will be removed in the next release. Please see documents of tvm.contrib.graph_executor.GraphModule for the  new recommended usage.
  graph, lib, params = relay.build(mod, target='llvm')
/home/yujunzhe/tvm/python/tvm/contrib/graph_runtime.py:25: UserWarning: This function has been moved to tvm.contrib.graph_executor and will be removed in the next TVM release
  warnings.warn(

===================================
Traceback (most recent call last):
  File "/home/yujunzhe/Hirgen_generated/tvm0.8_test/HirGen759/build/output.py", line 4579, in <module>
    graph, lib, params = relay.build(mod, target='cuda')
  File "/home/yujunzhe/tvm/python/tvm/relay/build_module.py", line 369, in build
    executor_config, runtime_mod, params = bld_mod.build(
  File "/home/yujunzhe/tvm/python/tvm/relay/build_module.py", line 177, in build
    self._build(mod, target, target_host, executor, mod_name)
  File "/home/yujunzhe/tvm/python/tvm/_ffi/_ctypes/packed_func.py", line 237, in __call__
    raise get_last_ffi_error()
tvm._ffi.base.TVMError: Traceback (most recent call last):
  7: TVMFuncCall
  6: std::_Function_handler<void (tvm::runtime::TVMArgs, tvm::runtime::TVMRetValue*), tvm::relay::backend::RelayBuildModule::GetFunction(std::__cxx11::basic_string<char, std::char_traits<char>, std::allocator<char> > const&, tvm::runtime::ObjectPtr<tvm::runtime::Object> const&)::{lambda(tvm::runtime::TVMArgs, tvm::runtime::TVMRetValue*)#3}>::_M_invoke(std::_Any_data const&, tvm::runtime::TVMArgs&&, tvm::runtime::TVMRetValue*&&)
  5: tvm::relay::backend::RelayBuildModule::BuildRelay(tvm::IRModule, std::unordered_map<std::__cxx11::basic_string<char, std::char_traits<char>, std::allocator<char> >, tvm::runtime::NDArray, std::hash<std::__cxx11::basic_string<char, std::char_traits<char>, std::allocator<char> > >, std::equal_to<std::__cxx11::basic_string<char, std::char_traits<char>, std::allocator<char> > >, std::allocator<std::pair<std::__cxx11::basic_string<char, std::char_traits<char>, std::allocator<char> > const, tvm::runtime::NDArray> > > const&, tvm::runtime::String)
  4: tvm::build(tvm::runtime::Map<tvm::Target, tvm::IRModule, void, void> const&, tvm::Target const&)
  3: tvm::codegen::Build(tvm::IRModule, tvm::Target)
  2: tvm::runtime::TypedPackedFunc<tvm::runtime::Module (tvm::IRModule, tvm::Target)>::AssignTypedLambda<tvm::runtime::Module (*)(tvm::IRModule, tvm::Target)>(tvm::runtime::Module (*)(tvm::IRModule, tvm::Target), std::__cxx11::basic_string<char, std::char_traits<char>, std::allocator<char> >)::{lambda(tvm::runtime::TVMArgs const&, tvm::runtime::TVMRetValue*)#1}::operator()(tvm::runtime::TVMArgs const&, tvm::runtime::TVMRetValue*) const
  1: tvm::codegen::BuildCUDA(tvm::IRModule, tvm::Target)
  0: std::_Function_handler<void (tvm::runtime::TVMArgs, tvm::runtime::TVMRetValue*), TVMFuncCreateFromCFunc::{lambda(tvm::runtime::TVMArgs, tvm::runtime::TVMRetValue*)#2}>::_M_invoke(std::_Any_data const&, tvm::runtime::TVMArgs&&, tvm::runtime::TVMRetValue*&&) [clone .cold]
  File "/home/yujunzhe/tvm/python/tvm/_ffi/_ctypes/packed_func.py", line 81, in cfun
    rv = local_pyfunc(*pyargs)
  File "/home/yujunzhe/tvm/python/tvm/autotvm/measure/measure_methods.py", line 789, in tvm_callback_cuda_compile
    ptx = nvcc.compile_cuda(code, target=target, arch=AutotvmGlobalScope.current.cuda_target_arch)
  File "/home/yujunzhe/tvm/python/tvm/contrib/nvcc.py", line 108, in compile_cuda
    raise RuntimeError(msg)
RuntimeError: 
#ifdef _WIN32
  using uint = unsigned int;
  using uchar = unsigned char;
  using ushort = unsigned short;
  using int64_t = long long;
  using uint64_t = unsigned long long;
#else
  #define uint unsigned int
  #define uchar unsigned char
  #define ushort unsigned short
  #define int64_t long long
  #define uint64_t unsigned long long
#endif
extern "C" __global__ void __launch_bounds__(1024) tvmgen_default_fused_cosh_reshape_divide_kernel0(float* __restrict__ T_divide, float* __restrict__ placeholder) {
  if (((((int)blockIdx.x) * 1024) + ((int)threadIdx.x)) < 1650) {
    T_divide[(((((int)blockIdx.x) * 1024) + ((int)threadIdx.x)))] = (placeholder[(((((int)blockIdx.x) * 1024) + ((int)threadIdx.x)))] / coshf(placeholder[(((((int)blockIdx.x) * 1024) + ((int)threadIdx.x)))]));
  }
}


Compilation error:
In file included from /usr/local/cuda/bin/../targets/x86_64-linux/include/cuda_runtime.h:82,
                 from <command-line>:
/usr/local/cuda/bin/../targets/x86_64-linux/include/crt/host_config.h:143:2: error: #error -- unsupported GNU version! gcc versions later than 12 are not supported! The nvcc flag '-allow-unsupported-compiler' can be used to override this version check; however, using an unsupported host compiler may cause compilation failure or incorrect run time execution. Use at your own risk.
  143 | #error -- unsupported GNU version! gcc versions later than 12 are not supported! The nvcc flag '-allow-unsupported-compiler' can be used to override this version check; however, using an unsupported host compiler may cause compilation failure or incorrect run time execution. Use at your own risk.
      |  ^~~~~

