==========mod==========
#[version = "0.0.5"]
def @func_4902(%var_4882: Tensor[(11, 3, 3), float64]) -> (Tensor[(11, 3, 3), bool],) {
  %0 = cast(meta[relay.Constant][0] /* ty=Tensor[(11, 3, 3), float64] */, dtype="bool") /* ty=Tensor[(11, 3, 3), bool] */;
  %1 = shape_of(%var_4882, dtype="int32") /* ty=Tensor[(3), int32] */;
  %2 = cast(%var_4882, dtype="bool") /* ty=Tensor[(11, 3, 3), bool] */;
  %3 = dyn.reshape(%0, %1, newshape=[]) /* ty=Tensor[(?, ?, ?), bool] */;
  %4 = less(%2, %3) /* ty=Tensor[(11, 3, 3), bool] */;
  (%4,)
}

def @func_4397(%var_4350: Tensor[(1386), int16], %var_4351: Tensor[(672), int32], %var_4376: uint64, %var_4377: Tensor[(7, 78), uint64]) -> (Tensor[(11, 9, 9), float64], Tensor[(11, 14, 9), bool], Tensor[(1386), int16], Tensor[(672), int32], Tensor[(11, 9, 9), float64], Tensor[(6, 13, 7), uint64], uint64, Tensor[(7, 78), uint64]) {
  %5 = @func_2942() /* ty=(Tensor[(11, 9, 9), float64],) */;
  %6 = cast(%var_4350, dtype="int16") /* ty=Tensor[(1386), int16] */;
  %7 = cast(%var_4351, dtype="int32") /* ty=Tensor[(672), int32] */;
  %8 = reshape(%6, newshape=[11, 14, 9]) /* ty=Tensor[(11, 14, 9), int16] */;
  %9 = reshape(%7, newshape=[672]) /* ty=Tensor[(672), int32] */;
  %10 = @func_3156(%8, %9) /* ty=(Tensor[(11, 14, 9), bool], Tensor[(11, 14, 9), float32], Tensor[(16, 7, 6), int16], Tensor[(672), int32], Tensor[(72), float32]) */;
  %11 = @func_3079() /* ty=(Tensor[(11, 9, 9), float64],) */;
  %12 = cast(%var_4376, dtype="uint64") /* ty=uint64 */;
  %13 = cast(%var_4377, dtype="uint64") /* ty=Tensor[(7, 78), uint64] */;
  %14 = reshape(%12, newshape=[]) /* ty=uint64 */;
  %15 = reshape(%13, newshape=[6, 13, 7]) /* ty=Tensor[(6, 13, 7), uint64] */;
  %16 = %5.0;
  %17 = %10.0;
  %18 = %11.0;
  %19 = @func_2857(%14, %15) /* ty=Tensor[(6, 13, 7), uint64] */;
  (%16, %17, %var_4350, %var_4351, %18, %19, %var_4376, %var_4377)
}

def @func_7457(%var_7425: Tensor[(1440), uint32], %var_7426: Tensor[(2160), float64], %var_7439: Tensor[(1584), float32], %var_7440: Tensor[(6, 2), float32]) -> (Tensor[(11, 9, 9), float64], Tensor[(672), int32], Tensor[(1440), uint32], Tensor[(2160), float64], Tensor[(12), float32], Tensor[(1584), float32], Tensor[(6, 2), float32]) {
  %20 = @func_6929() /* ty=(Tensor[(11, 9, 9), float64],) */;
  %21 = cast(%var_7425, dtype="uint32") /* ty=Tensor[(1440), uint32] */;
  %22 = cast(%var_7426, dtype="float64") /* ty=Tensor[(2160), float64] */;
  %23 = reshape(%21, newshape=[1440]) /* ty=Tensor[(1440), uint32] */;
  %24 = reshape(%22, newshape=[2160]) /* ty=Tensor[(2160), float64] */;
  %25 = @func_5573(%23, %24) /* ty=(Tensor[(11, 9, 9), float64], Tensor[(210, 1), float32], Tensor[(11, 9, 9), int16], Tensor[(468), int16], Tensor[(1440), uint32], Tensor[(132), float32], Tensor[(2160), float64], Tensor[(672), int32], Tensor[(1386), int16], Tensor[(672), int32], Tensor[(11, 9, 9), float64]) */;
  %26 = cast(%var_7439, dtype="float32") /* ty=Tensor[(1584), float32] */;
  %27 = cast(%var_7439, dtype="float32") /* ty=Tensor[(1584), float32] */;
  %28 = cast(%var_7440, dtype="float32") /* ty=Tensor[(6, 2), float32] */;
  %29 = reshape(%26, newshape=[9, 11, 16]) /* ty=Tensor[(9, 11, 16), float32] */;
  %30 = reshape(%27, newshape=[9, 11, 16]) /* ty=Tensor[(9, 11, 16), float32] */;
  %31 = reshape(%28, newshape=[12]) /* ty=Tensor[(12), float32] */;
  %32 = @func_2148(%29, %30, %31) /* ty=(Tensor[(9, 11, 16), float64], Tensor[(4, 1, 3), float64], Tensor[(12), float32]) */;
  %33 = %20.0;
  %34 = %25.7;
  %35 = %32.2;
  (%33, %34, %var_7425, %var_7426, %35, %var_7439, %var_7440)
}

def @func_2857(%var_2852: uint64, %var_2853: Tensor[(6, 13, 7), uint64]) -> Tensor[(6, 13, 7), uint64] {
  %36 = cast(%var_2852, dtype="uint64") /* ty=uint64 */;
  %37 = cast(%var_2853, dtype="uint64") /* ty=Tensor[(6, 13, 7), uint64] */;
  bitwise_and(%36, %37) /* ty=Tensor[(6, 13, 7), uint64] */
}

def @func_2637(%var_2531: Tensor[(8, 9, 11), float32], %var_2536: Tensor[(2160), float64], %var_2599: Tensor[(1, 12), float32], %var_2606: Tensor[(1274), bool]) -> (Tensor[(16, 9, 15), float64], Tensor[(1, 144), float64], Tensor[(2160), float64], Tensor[(8, 9, 11), uint32], Tensor[(8, 9, 11), float64], Tensor[(12), float32], Tensor[(1584), float32], Tensor[(1, 12), float32], Tensor[(11, 7, 2), float64], Tensor[(1274), bool], Tensor[(11, 7, 2), float64]) {
  %38 = cast(meta[relay.Constant][1] /* ty=Tensor[(1, 144), float64] */, dtype="float64") /* ty=Tensor[(1, 144), float64] */;
  %39 = cast(%var_2536, dtype="float64") /* ty=Tensor[(2160), float64] */;
  %40 = reshape(%38, newshape=[16, 9, 1]) /* ty=Tensor[(16, 9, 1), float64] */;
  %41 = reshape(%39, newshape=[16, 9, 15]) /* ty=Tensor[(16, 9, 15), float64] */;
  %42 = @func_789(%40, %41) /* ty=(Tensor[(16, 9, 15), float64], Tensor[(11, 7, 2), float64], Tensor[(154), int32]) */;
  %43 = cast(%var_2531, dtype="float32") /* ty=Tensor[(8, 9, 11), float32] */;
  %44 = cos(%43) /* ty=Tensor[(8, 9, 11), float32] */;
  %45 = cast(%var_2531, dtype="uint32") /* ty=Tensor[(8, 9, 11), uint32] */;
  %46 = shape_of(%44, dtype="int32") /* ty=Tensor[(3), int32] */;
  %47 = cast(%44, dtype="uint32") /* ty=Tensor[(8, 9, 11), uint32] */;
  %48 = dyn.reshape(%45, %46, newshape=[]) /* ty=Tensor[(?, ?, ?), uint32] */;
  %49 = cast(%var_2531, dtype="float64") /* ty=Tensor[(8, 9, 11), float64] */;
  %50 = cast(meta[relay.Constant][2] /* ty=Tensor[(1584), float32] */, dtype="float32") /* ty=Tensor[(1584), float32] */;
  %51 = cast(meta[relay.Constant][2] /* ty=Tensor[(1584), float32] */, dtype="float32") /* ty=Tensor[(1584), float32] */;
  %52 = cast(%var_2599, dtype="float32") /* ty=Tensor[(1, 12), float32] */;
  %53 = reshape(%50, newshape=[9, 11, 16]) /* ty=Tensor[(9, 11, 16), float32] */;
  %54 = reshape(%51, newshape=[9, 11, 16]) /* ty=Tensor[(9, 11, 16), float32] */;
  %55 = reshape(%52, newshape=[12]) /* ty=Tensor[(12), float32] */;
  %56 = @func_2148(%53, %54, %55) /* ty=(Tensor[(9, 11, 16), float64], Tensor[(4, 1, 3), float64], Tensor[(12), float32]) */;
  %57 = cast(%var_2606, dtype="bool") /* ty=Tensor[(1274), bool] */;
  %58 = cast(meta[relay.Constant][1] /* ty=Tensor[(1, 144), float64] */, dtype="float64") /* ty=Tensor[(1, 144), float64] */;
  %59 = reshape(%57, newshape=[1274]) /* ty=Tensor[(1274), bool] */;
  %60 = reshape(%58, newshape=[144]) /* ty=Tensor[(144), float64] */;
  %61 = @func_852(%59, %60) /* ty=(Tensor[(2, 1, 5), float64], Tensor[(7, 14, 13), bool], Tensor[(1274), bool], Tensor[(2, 1, 5), float64], Tensor[(11, 7, 2), float64], Tensor[(144), float64], Tensor[(60, 36), float64], Tensor[(11, 7, 2), float64]) */;
  %62 = cast(%var_2606, dtype="bool") /* ty=Tensor[(1274), bool] */;
  %63 = cast(meta[relay.Constant][1] /* ty=Tensor[(1, 144), float64] */, dtype="float64") /* ty=Tensor[(1, 144), float64] */;
  %64 = reshape(%62, newshape=[1274]) /* ty=Tensor[(1274), bool] */;
  %65 = reshape(%63, newshape=[144]) /* ty=Tensor[(144), float64] */;
  %66 = @func_852(%64, %65) /* ty=(Tensor[(2, 1, 5), float64], Tensor[(7, 14, 13), bool], Tensor[(1274), bool], Tensor[(2, 1, 5), float64], Tensor[(11, 7, 2), float64], Tensor[(144), float64], Tensor[(60, 36), float64], Tensor[(11, 7, 2), float64]) */;
  %67 = %42.0;
  %68 = left_shift(%47, %48) /* ty=Tensor[(8, 9, 11), uint32] */;
  %69 = log(%49) /* ty=Tensor[(8, 9, 11), float64] */;
  %70 = %56.2;
  %71 = %61.4;
  %72 = %66.7;
  (%67, meta[relay.Constant][1] /* ty=Tensor[(1, 144), float64] */, %var_2536, %68, %69, %70, meta[relay.Constant][2] /* ty=Tensor[(1584), float32] */, %var_2599, %71, %var_2606, %72)
}

def @func_3904(%var_3884: Tensor[(12), float32], %var_3901: Tensor[(52, 1), uint16], %var_3902: Tensor[(132), float32]) -> (Tensor[(11, 9, 9), float64], Tensor[(11, 9, 9), float64], Tensor[(12), float32], Tensor[(1584), float32], Tensor[(12), float32], Tensor[(11, 7, 2), float32], Tensor[(1274), bool], uint16, Tensor[(52, 1), uint16], Tensor[(132), float32]) {
  %73 = @func_3790() /* ty=(Tensor[(11, 9, 9), float64],) */;
  %74 = cast(meta[relay.Constant][3] /* ty=Tensor[(1584), float32] */, dtype="float32") /* ty=Tensor[(1584), float32] */;
  %75 = cast(meta[relay.Constant][3] /* ty=Tensor[(1584), float32] */, dtype="float32") /* ty=Tensor[(1584), float32] */;
  %76 = cast(%var_3884, dtype="float32") /* ty=Tensor[(12), float32] */;
  %77 = reshape(%74, newshape=[9, 11, 16]) /* ty=Tensor[(9, 11, 16), float32] */;
  %78 = reshape(%75, newshape=[9, 11, 16]) /* ty=Tensor[(9, 11, 16), float32] */;
  %79 = reshape(%76, newshape=[12]) /* ty=Tensor[(12), float32] */;
  %80 = @func_2148(%77, %78, %79) /* ty=(Tensor[(9, 11, 16), float64], Tensor[(4, 1, 3), float64], Tensor[(12), float32]) */;
  %81 = cast(meta[relay.Constant][4] /* ty=Tensor[(154), int32] */, dtype="int32") /* ty=Tensor[(154), int32] */;
  %82 = reshape(%81, newshape=[11, 7, 2]) /* ty=Tensor[(11, 7, 2), int32] */;
  %83 = @func_27(%82) /* ty=(Tensor[(11, 7, 2), float64],) */;
  %84 = %83.0;
  %85 = cast(meta[relay.Constant][4] /* ty=Tensor[(154), int32] */, dtype="float32") /* ty=Tensor[(154), float32] */;
  %86 = shape_of(%84, dtype="int32") /* ty=Tensor[(3), int32] */;
  %87 = cast(%84, dtype="float32") /* ty=Tensor[(11, 7, 2), float32] */;
  %88 = dyn.reshape(%85, %86, newshape=[]) /* ty=Tensor[(?, ?, ?), float32] */;
  %89 = cast(meta[relay.Constant][5] /* ty=uint16 */, dtype="uint16") /* ty=uint16 */;
  %90 = cast(%var_3901, dtype="uint16") /* ty=Tensor[(52, 1), uint16] */;
  %91 = cast(%var_3902, dtype="float32") /* ty=Tensor[(132), float32] */;
  %92 = reshape(%89, newshape=[]) /* ty=uint16 */;
  %93 = reshape(%90, newshape=[13, 4, 1]) /* ty=Tensor[(13, 4, 1), uint16] */;
  %94 = reshape(%91, newshape=[132]) /* ty=Tensor[(132), float32] */;
  %95 = @func_2285(%92, %93, %94) /* ty=(Tensor[(13, 4, 1), uint16], Tensor[(3, 4, 11), float64], Tensor[(132), float32], Tensor[(1274), bool]) */;
  %96 = @func_3611() /* ty=Tensor[(11, 9, 9), float64] */;
  %97 = %73.0;
  %98 = %80.2;
  %99 = power(%87, %88) /* ty=Tensor[(11, 7, 2), float32] */;
  %100 = %95.3;
  (%96, %97, %98, meta[relay.Constant][3] /* ty=Tensor[(1584), float32] */, %var_3884, %99, %100, meta[relay.Constant][5] /* ty=uint16 */, %var_3901, %var_3902)
}

def @func_6648() -> (Tensor[(9, 4, 9), float64],) {
  %101 = @func_4932() /* ty=(Tensor[(9, 4, 9), float64],) */;
  %102 = %101.0;
  (%102,)
}

def @func_27(%var_11: Tensor[(11, 7, 2), int32]) -> (Tensor[(11, 7, 2), float64],) {
  %103 = cast(meta[relay.Constant][6] /* ty=Tensor[(11, 7, 2), int32] */, dtype="bool") /* ty=Tensor[(11, 7, 2), bool] */;
  %104 = shape_of(%var_11, dtype="int32") /* ty=Tensor[(3), int32] */;
  %105 = cast(%var_11, dtype="bool") /* ty=Tensor[(11, 7, 2), bool] */;
  %106 = dyn.reshape(%103, %104, newshape=[]) /* ty=Tensor[(?, ?, ?), bool] */;
  %107 = greater_equal(%105, %106) /* ty=Tensor[(11, 7, 2), bool] */;
  %108 = cast(%107, dtype="float64") /* ty=Tensor[(11, 7, 2), float64] */;
  %109 = sigmoid(%108) /* ty=Tensor[(11, 7, 2), float64] */;
  %110 = cast(%109, dtype="float64") /* ty=Tensor[(11, 7, 2), float64] */;
  %111 = erf(%110) /* ty=Tensor[(11, 7, 2), float64] */;
  (%111,)
}

def @func_852(%var_827: Tensor[(1274), bool], %var_837: Tensor[(144), float64]) -> (Tensor[(2, 1, 5), float64], Tensor[(7, 14, 13), bool], Tensor[(1274), bool], Tensor[(2, 1, 5), float64], Tensor[(11, 7, 2), float64], Tensor[(144), float64], Tensor[(60, 36), float64], Tensor[(11, 7, 2), float64]) {
  %112 = cast(meta[relay.Constant][7] /* ty=Tensor[(2, 1, 5), float64] */, dtype="float64") /* ty=Tensor[(2, 1, 5), float64] */;
  %113 = cast(%var_827, dtype="bool") /* ty=Tensor[(1274), bool] */;
  %114 = cast(%var_827, dtype="bool") /* ty=Tensor[(1274), bool] */;
  %115 = reshape(%113, newshape=[7, 14, 13]) /* ty=Tensor[(7, 14, 13), bool] */;
  %116 = reshape(%114, newshape=[7, 14, 13]) /* ty=Tensor[(7, 14, 13), bool] */;
  %117 = cast(meta[relay.Constant][7] /* ty=Tensor[(2, 1, 5), float64] */, dtype="float64") /* ty=Tensor[(2, 1, 5), float64] */;
  %118 = asin(%117) /* ty=Tensor[(2, 1, 5), float64] */;
  %119 = cast(%118, dtype="float64") /* ty=Tensor[(2, 1, 5), float64] */;
  %120 = cast(%var_837, dtype="float64") /* ty=Tensor[(144), float64] */;
  %121 = cast(meta[relay.Constant][8] /* ty=Tensor[(60, 36), float64] */, dtype="float64") /* ty=Tensor[(60, 36), float64] */;
  %122 = reshape(%120, newshape=[16, 9, 1]) /* ty=Tensor[(16, 9, 1), float64] */;
  %123 = reshape(%121, newshape=[16, 9, 15]) /* ty=Tensor[(16, 9, 15), float64] */;
  %124 = @func_789(%122, %123) /* ty=(Tensor[(16, 9, 15), float64], Tensor[(11, 7, 2), float64], Tensor[(154), int32]) */;
  %125 = %124.1;
  %126 = cast(%125, dtype="int32") /* ty=Tensor[(11, 7, 2), int32] */;
  %127 = reshape(%126, newshape=[11, 7, 2]) /* ty=Tensor[(11, 7, 2), int32] */;
  %128 = @func_27(%127) /* ty=(Tensor[(11, 7, 2), float64],) */;
  %129 = sinh(%112) /* ty=Tensor[(2, 1, 5), float64] */;
  %130 = @func_169(%115, %116) /* ty=Tensor[(7, 14, 13), bool] */;
  %131 = atan(%119) /* ty=Tensor[(2, 1, 5), float64] */;
  %132 = %128.0;
  (%129, %130, %var_827, %131, %125, %var_837, meta[relay.Constant][8] /* ty=Tensor[(60, 36), float64] */, %132)
}

def @func_5186() -> (Tensor[(11, 9, 9), float64], Tensor[(4, 1, 3), float64], Tensor[(6, 2), float32]) {
  %133 = cast(meta[relay.Constant][9] /* ty=Tensor[(6, 2), float32] */, dtype="float32") /* ty=Tensor[(6, 2), float32] */;
  %134 = reshape(%133, newshape=[4, 1, 3]) /* ty=Tensor[(4, 1, 3), float32] */;
  %135 = @func_1232(%134) /* ty=(Tensor[(4, 1, 3), float64],) */;
  %136 = @func_3611() /* ty=Tensor[(11, 9, 9), float64] */;
  %137 = %135.0;
  (%136, %137, meta[relay.Constant][9] /* ty=Tensor[(6, 2), float32] */)
}

def @func_5417() -> (Tensor[(9, 4, 9), float64], Tensor[(1584), float32], Tensor[(12), float32], Tensor[(11, 9, 9), float64], Tensor[(9, 11, 16), bool]) {
  %138 = @func_3206() /* ty=(Tensor[(9, 4, 9), float64],) */;
  %139 = @func_3790() /* ty=(Tensor[(11, 9, 9), float64],) */;
  %140 = cast(meta[relay.Constant][10] /* ty=Tensor[(1584), float32] */, dtype="float32") /* ty=Tensor[(1584), float32] */;
  %141 = cast(meta[relay.Constant][10] /* ty=Tensor[(1584), float32] */, dtype="float32") /* ty=Tensor[(1584), float32] */;
  %142 = cast(meta[relay.Constant][11] /* ty=Tensor[(12), float32] */, dtype="float32") /* ty=Tensor[(12), float32] */;
  %143 = reshape(%140, newshape=[9, 11, 16]) /* ty=Tensor[(9, 11, 16), float32] */;
  %144 = reshape(%141, newshape=[9, 11, 16]) /* ty=Tensor[(9, 11, 16), float32] */;
  %145 = reshape(%142, newshape=[12]) /* ty=Tensor[(12), float32] */;
  %146 = @func_2148(%143, %144, %145) /* ty=(Tensor[(9, 11, 16), float64], Tensor[(4, 1, 3), float64], Tensor[(12), float32]) */;
  %147 = %146.0;
  %148 = cast(%147, dtype="float64") /* ty=Tensor[(9, 11, 16), float64] */;
  %149 = acos(%148) /* ty=Tensor[(9, 11, 16), float64] */;
  %150 = cast(%147, dtype="bool") /* ty=Tensor[(9, 11, 16), bool] */;
  %151 = shape_of(%149, dtype="int32") /* ty=Tensor[(3), int32] */;
  %152 = cast(%149, dtype="bool") /* ty=Tensor[(9, 11, 16), bool] */;
  %153 = dyn.reshape(%150, %151, newshape=[]) /* ty=Tensor[(?, ?, ?), bool] */;
  %154 = %138.0;
  %155 = %139.0;
  %156 = not_equal(%152, %153) /* ty=Tensor[(9, 11, 16), bool] */;
  (%154, meta[relay.Constant][10] /* ty=Tensor[(1584), float32] */, meta[relay.Constant][11] /* ty=Tensor[(12), float32] */, %155, %156)
}

def @func_3031(%var_2963: Tensor[(11, 9, 9), float64], %var_2974: Tensor[(60, 24), uint32], %var_2981: Tensor[(52), uint16], %var_2982: Tensor[(132), float32], %var_3026: Tensor[(2160), float64]) -> (Tensor[(16, 15, 6), bool], Tensor[(11, 9, 9), int64], Tensor[(60, 24), uint32], uint16, Tensor[(52), uint16], Tensor[(3, 4, 11), bool], Tensor[(3, 4, 11), bool], Tensor[(16, 9, 15), float64], Tensor[(24, 6), float64], Tensor[(2160), float64]) {
  %157 = cast(meta[relay.Constant][12] /* ty=Tensor[(60, 24), uint32] */, dtype="uint32") /* ty=Tensor[(60, 24), uint32] */;
  %158 = cast(meta[relay.Constant][12] /* ty=Tensor[(60, 24), uint32] */, dtype="uint32") /* ty=Tensor[(60, 24), uint32] */;
  %159 = reshape(%157, newshape=[16, 15, 6]) /* ty=Tensor[(16, 15, 6), uint32] */;
  %160 = reshape(%158, newshape=[16, 15, 6]) /* ty=Tensor[(16, 15, 6), uint32] */;
  %161 = @func_1341(%159, %160) /* ty=(Tensor[(16, 15, 6), bool],) */;
  %162 = @func_2942() /* ty=(Tensor[(11, 9, 9), float64],) */;
  %163 = %162.0;
  %164 = cast(%var_2963, dtype="int64") /* ty=Tensor[(11, 9, 9), int64] */;
  %165 = shape_of(%163, dtype="int32") /* ty=Tensor[(3), int32] */;
  %166 = cast(%163, dtype="int64") /* ty=Tensor[(11, 9, 9), int64] */;
  %167 = dyn.reshape(%164, %165, newshape=[]) /* ty=Tensor[(?, ?, ?), int64] */;
  %168 = cast(%var_2974, dtype="uint32") /* ty=Tensor[(60, 24), uint32] */;
  %169 = shape_of(meta[relay.Constant][12] /* ty=Tensor[(60, 24), uint32] */, dtype="int32") /* ty=Tensor[(2), int32] */;
  %170 = cast(meta[relay.Constant][12] /* ty=Tensor[(60, 24), uint32] */, dtype="uint32") /* ty=Tensor[(60, 24), uint32] */;
  %171 = dyn.reshape(%168, %169, newshape=[]) /* ty=Tensor[(?, ?), uint32] */;
  %172 = cast(meta[relay.Constant][13] /* ty=uint16 */, dtype="uint16") /* ty=uint16 */;
  %173 = cast(%var_2981, dtype="uint16") /* ty=Tensor[(52), uint16] */;
  %174 = cast(%var_2982, dtype="float32") /* ty=Tensor[(132), float32] */;
  %175 = reshape(%172, newshape=[]) /* ty=uint16 */;
  %176 = reshape(%173, newshape=[13, 4, 1]) /* ty=Tensor[(13, 4, 1), uint16] */;
  %177 = reshape(%174, newshape=[132]) /* ty=Tensor[(132), float32] */;
  %178 = @func_2285(%175, %176, %177) /* ty=(Tensor[(13, 4, 1), uint16], Tensor[(3, 4, 11), float64], Tensor[(132), float32], Tensor[(1274), bool]) */;
  %179 = %178.1;
  %180 = cast(%179, dtype="float32") /* ty=Tensor[(3, 4, 11), float32] */;
  %181 = exp(%180) /* ty=Tensor[(3, 4, 11), float32] */;
  %182 = cast(%179, dtype="bool") /* ty=Tensor[(3, 4, 11), bool] */;
  %183 = shape_of(%181, dtype="int32") /* ty=Tensor[(3), int32] */;
  %184 = cast(%181, dtype="bool") /* ty=Tensor[(3, 4, 11), bool] */;
  %185 = dyn.reshape(%182, %183, newshape=[]) /* ty=Tensor[(?, ?, ?), bool] */;
  %186 = cast(%181, dtype="float32") /* ty=Tensor[(3, 4, 11), float32] */;
  %187 = sinh(%186) /* ty=Tensor[(3, 4, 11), float32] */;
  %188 = cast(%var_2982, dtype="bool") /* ty=Tensor[(132), bool] */;
  %189 = shape_of(%187, dtype="int32") /* ty=Tensor[(3), int32] */;
  %190 = cast(%187, dtype="bool") /* ty=Tensor[(3, 4, 11), bool] */;
  %191 = dyn.reshape(%188, %189, newshape=[]) /* ty=Tensor[(?, ?, ?), bool] */;
  %192 = cast(meta[relay.Constant][14] /* ty=Tensor[(24, 6), float64] */, dtype="float64") /* ty=Tensor[(24, 6), float64] */;
  %193 = cast(%var_3026, dtype="float64") /* ty=Tensor[(2160), float64] */;
  %194 = reshape(%192, newshape=[16, 9, 1]) /* ty=Tensor[(16, 9, 1), float64] */;
  %195 = reshape(%193, newshape=[16, 9, 15]) /* ty=Tensor[(16, 9, 15), float64] */;
  %196 = @func_789(%194, %195) /* ty=(Tensor[(16, 9, 15), float64], Tensor[(11, 7, 2), float64], Tensor[(154), int32]) */;
  %197 = %161.0;
  %198 = add(%166, %167) /* ty=Tensor[(11, 9, 9), int64] */;
  %199 = add(%170, %171) /* ty=Tensor[(60, 24), uint32] */;
  %200 = equal(%184, %185) /* ty=Tensor[(3, 4, 11), bool] */;
  %201 = logical_and(%190, %191) /* ty=Tensor[(3, 4, 11), bool] */;
  %202 = %196.0;
  (%197, %198, %199, meta[relay.Constant][13] /* ty=uint16 */, %var_2981, %200, %201, %202, meta[relay.Constant][14] /* ty=Tensor[(24, 6), float64] */, %var_3026)
}

def @func_4672(%var_4653: Tensor[(144, 1), float64], %var_4667: Tensor[(132), float32]) -> (Tensor[(11, 9, 9), float64], Tensor[(11, 7, 2), float64], Tensor[(144, 1), float64], Tensor[(2160), float64], Tensor[(16, 9, 15), float64], Tensor[(1440), uint32], Tensor[(52), uint16], Tensor[(132), float32]) {
  %203 = @func_3079() /* ty=(Tensor[(11, 9, 9), float64],) */;
  %204 = cast(%var_4653, dtype="float64") /* ty=Tensor[(144, 1), float64] */;
  %205 = cast(meta[relay.Constant][15] /* ty=Tensor[(2160), float64] */, dtype="float64") /* ty=Tensor[(2160), float64] */;
  %206 = reshape(%204, newshape=[16, 9, 1]) /* ty=Tensor[(16, 9, 1), float64] */;
  %207 = reshape(%205, newshape=[16, 9, 15]) /* ty=Tensor[(16, 9, 15), float64] */;
  %208 = @func_789(%206, %207) /* ty=(Tensor[(16, 9, 15), float64], Tensor[(11, 7, 2), float64], Tensor[(154), int32]) */;
  %209 = %203.0;
  %210 = cast(%209, dtype="float64") /* ty=Tensor[(11, 9, 9), float64] */;
  %211 = cast(meta[relay.Constant][16] /* ty=Tensor[(1440), uint32] */, dtype="uint32") /* ty=Tensor[(1440), uint32] */;
  %212 = cast(meta[relay.Constant][17] /* ty=Tensor[(52), uint16] */, dtype="uint16") /* ty=Tensor[(52), uint16] */;
  %213 = cast(%var_4667, dtype="float32") /* ty=Tensor[(132), float32] */;
  %214 = cast(meta[relay.Constant][15] /* ty=Tensor[(2160), float64] */, dtype="float64") /* ty=Tensor[(2160), float64] */;
  %215 = reshape(%210, newshape=[11, 9, 9]) /* ty=Tensor[(11, 9, 9), float64] */;
  %216 = reshape(%211, newshape=[60, 24]) /* ty=Tensor[(60, 24), uint32] */;
  %217 = reshape(%212, newshape=[52]) /* ty=Tensor[(52), uint16] */;
  %218 = reshape(%213, newshape=[132]) /* ty=Tensor[(132), float32] */;
  %219 = reshape(%214, newshape=[2160]) /* ty=Tensor[(2160), float64] */;
  %220 = @func_3031(%215, %216, %217, %218, %219) /* ty=(Tensor[(16, 15, 6), bool], Tensor[(11, 9, 9), int64], Tensor[(60, 24), uint32], uint16, Tensor[(52), uint16], Tensor[(3, 4, 11), bool], Tensor[(3, 4, 11), bool], Tensor[(16, 9, 15), float64], Tensor[(24, 6), float64], Tensor[(2160), float64]) */;
  %221 = %208.1;
  %222 = %220.7;
  (%209, %221, %var_4653, meta[relay.Constant][15] /* ty=Tensor[(2160), float64] */, %222, meta[relay.Constant][16] /* ty=Tensor[(1440), uint32] */, meta[relay.Constant][17] /* ty=Tensor[(52), uint16] */, %var_4667)
}

def @func_7332(%var_7309: Tensor[(2, 336), int32], %var_7310: uint64, %var_7311: Tensor[(1, 546), uint64]) -> (Tensor[(1386), int16], Tensor[(11, 9, 9), float64], Tensor[(2, 336), int32], uint64, Tensor[(1, 546), uint64]) {
  %223 = @func_4018() /* ty=(Tensor[(11, 9, 9), float64], Tensor[(11, 14, 9), bool], Tensor[(1386), int16], Tensor[(672), int32], Tensor[(11, 9, 9), float64]) */;
  %224 = %223.2;
  %225 = cast(%224, dtype="int16") /* ty=Tensor[(1386), int16] */;
  %226 = cast(%var_7309, dtype="int32") /* ty=Tensor[(2, 336), int32] */;
  %227 = cast(%var_7310, dtype="uint64") /* ty=uint64 */;
  %228 = cast(%var_7311, dtype="uint64") /* ty=Tensor[(1, 546), uint64] */;
  %229 = reshape(%225, newshape=[1386]) /* ty=Tensor[(1386), int16] */;
  %230 = reshape(%226, newshape=[672]) /* ty=Tensor[(672), int32] */;
  %231 = reshape(%227, newshape=[]) /* ty=uint64 */;
  %232 = reshape(%228, newshape=[7, 78]) /* ty=Tensor[(7, 78), uint64] */;
  %233 = @func_4397(%229, %230, %231, %232) /* ty=(Tensor[(11, 9, 9), float64], Tensor[(11, 14, 9), bool], Tensor[(1386), int16], Tensor[(672), int32], Tensor[(11, 9, 9), float64], Tensor[(6, 13, 7), uint64], uint64, Tensor[(7, 78), uint64]) */;
  %234 = %233.4;
  (%224, %234, %var_7309, %var_7310, %var_7311)
}

def @func_6913(%var_6880: Tensor[(6, 2, 13), float64]) -> (Tensor[(6, 2, 13), float64],) {
  %235 = cast(%var_6880, dtype="float64") /* ty=Tensor[(6, 2, 13), float64] */;
  %236 = sinh(%235) /* ty=Tensor[(6, 2, 13), float64] */;
  (%236,)
}

def @func_7380() -> (Tensor[(11, 9, 9), float64],) {
  %237 = @func_4534() /* ty=(Tensor[(11, 9, 9), float64],) */;
  %238 = %237.0;
  (%238,)
}

def @func_4123(%var_4110: Tensor[(3, 8, 3), int32]) -> Tensor[(3, 8, 3), bool] {
  %239 = cast(meta[relay.Constant][18] /* ty=Tensor[(3, 8, 3), int32] */, dtype="bool") /* ty=Tensor[(3, 8, 3), bool] */;
  %240 = shape_of(%var_4110, dtype="int32") /* ty=Tensor[(3), int32] */;
  %241 = cast(%var_4110, dtype="bool") /* ty=Tensor[(3, 8, 3), bool] */;
  %242 = dyn.reshape(%239, %240, newshape=[]) /* ty=Tensor[(?, ?, ?), bool] */;
  less(%241, %242) /* ty=Tensor[(3, 8, 3), bool] */
}

def @func_3206() -> (Tensor[(9, 4, 9), float64],) {
  %243 = @func_2844() /* ty=(Tensor[(9, 4, 9), float64], Tensor[(11, 9, 9), int64], Tensor[(891), int64]) */;
  %244 = %243.0;
  (%244,)
}

def @func_4473() -> (Tensor[(11, 9, 9), float64],) {
  %245 = @func_4027() /* ty=(Tensor[(11, 9, 9), float64],) */;
  %246 = %245.0;
  (%246,)
}

def @func_4932() -> (Tensor[(9, 4, 9), float64],) {
  %247 = @func_3206() /* ty=(Tensor[(9, 4, 9), float64],) */;
  %248 = %247.0;
  (%248,)
}

def @func_3711() -> (Tensor[(11, 9, 9), float64], Tensor[(1, 15, 14), float32], Tensor[(210, 1), float32]) {
  %249 = @func_3583() /* ty=(Tensor[(11, 9, 9), float64],) */;
  %250 = cast(meta[relay.Constant][19] /* ty=Tensor[(210, 1), float32] */, dtype="float32") /* ty=Tensor[(210, 1), float32] */;
  %251 = reshape(%250, newshape=[1, 15, 14]) /* ty=Tensor[(1, 15, 14), float32] */;
  %252 = %249.0;
  %253 = @func_1501(%251) /* ty=Tensor[(1, 15, 14), float32] */;
  (%252, %253, meta[relay.Constant][19] /* ty=Tensor[(210, 1), float32] */)
}

def @func_2285(%var_2267: uint16, %var_2268: Tensor[(13, 4, 1), uint16], %var_2280: Tensor[(132), float32]) -> (Tensor[(13, 4, 1), uint16], Tensor[(3, 4, 11), float64], Tensor[(132), float32], Tensor[(1274), bool]) {
  %254 = cast(%var_2267, dtype="uint16") /* ty=uint16 */;
  %255 = cast(%var_2268, dtype="uint16") /* ty=Tensor[(13, 4, 1), uint16] */;
  %256 = cast(%var_2280, dtype="float32") /* ty=Tensor[(132), float32] */;
  %257 = cast(meta[relay.Constant][20] /* ty=Tensor[(1274), bool] */, dtype="bool") /* ty=Tensor[(1274), bool] */;
  %258 = reshape(%256, newshape=[3, 4, 11]) /* ty=Tensor[(3, 4, 11), float32] */;
  %259 = reshape(%257, newshape=[1274]) /* ty=Tensor[(1274), bool] */;
  %260 = @func_292(%258, %259) /* ty=(Tensor[(3, 4, 11), float64], Tensor[(3, 4, 11), float64], Tensor[(7, 14, 13), bool], Tensor[(1274), bool]) */;
  %261 = maximum(%254, %255) /* ty=Tensor[(13, 4, 1), uint16] */;
  %262 = %260.1;
  (%261, %262, %var_2280, meta[relay.Constant][20] /* ty=Tensor[(1274), bool] */)
}

def @func_4155() -> (Tensor[(11, 9, 9), float64], Tensor[(11, 9, 9), bool]) {
  %263 = @func_3790() /* ty=(Tensor[(11, 9, 9), float64],) */;
  %264 = %263.0;
  %265 = @func_2906() /* ty=(Tensor[(11, 9, 9), float64],) */;
  %266 = %265.0;
  %267 = cast(%266, dtype="bool") /* ty=Tensor[(11, 9, 9), bool] */;
  %268 = shape_of(%264, dtype="int32") /* ty=Tensor[(3), int32] */;
  %269 = cast(%264, dtype="bool") /* ty=Tensor[(11, 9, 9), bool] */;
  %270 = dyn.reshape(%267, %268, newshape=[]) /* ty=Tensor[(?, ?, ?), bool] */;
  %271 = @func_3611() /* ty=Tensor[(11, 9, 9), float64] */;
  %272 = logical_or(%269, %270) /* ty=Tensor[(11, 9, 9), bool] */;
  (%271, %272)
}

def @func_4175() -> Tensor[(11, 9, 9), float64] {
  %273 = @func_3583() /* ty=(Tensor[(11, 9, 9), float64],) */;
  %273.0
}

def @func_6243() -> Tensor[(11, 9, 9), float64] {
  %274 = @func_6030() /* ty=(Tensor[(11, 9, 9), float64], Tensor[(11, 9, 9), float64], Tensor[(11, 9, 9), float64]) */;
  %274.2
}

def @func_3750(%var_3742: Tensor[(15, 14, 2), float32]) -> (Tensor[(15, 14, 2), float32], Tensor[(15, 14, 2), float32]) {
  %275 = cast(meta[relay.Constant][21] /* ty=Tensor[(15, 14, 2), float32] */, dtype="float32") /* ty=Tensor[(15, 14, 2), float32] */;
  %276 = asinh(%275) /* ty=Tensor[(15, 14, 2), float32] */;
  %277 = cast(meta[relay.Constant][21] /* ty=Tensor[(15, 14, 2), float32] */, dtype="float32") /* ty=Tensor[(15, 14, 2), float32] */;
  %278 = shape_of(%276, dtype="int32") /* ty=Tensor[(3), int32] */;
  %279 = cast(%276, dtype="float32") /* ty=Tensor[(15, 14, 2), float32] */;
  %280 = dyn.reshape(%277, %278, newshape=[]) /* ty=Tensor[(?, ?, ?), float32] */;
  %281 = cast(%var_3742, dtype="float32") /* ty=Tensor[(15, 14, 2), float32] */;
  %282 = shape_of(meta[relay.Constant][21] /* ty=Tensor[(15, 14, 2), float32] */, dtype="int32") /* ty=Tensor[(3), int32] */;
  %283 = cast(meta[relay.Constant][21] /* ty=Tensor[(15, 14, 2), float32] */, dtype="float32") /* ty=Tensor[(15, 14, 2), float32] */;
  %284 = dyn.reshape(%281, %282, newshape=[]) /* ty=Tensor[(?, ?, ?), float32] */;
  %285 = add(%279, %280) /* ty=Tensor[(15, 14, 2), float32] */;
  %286 = power(%283, %284) /* ty=Tensor[(15, 14, 2), float32] */;
  (%285, %286)
}

def @func_5630(%var_5613: Tensor[(1, 12), float32], %var_5619: Tensor[(546), uint64], %var_5624: Tensor[(7, 182), bool]) -> (Tensor[(11, 9, 9), float64], Tensor[(11, 9, 9), float64], Tensor[(1, 12), float32], Tensor[(11, 9, 9), float64], Tensor[(1386), int16], Tensor[(672), int32], uint64, Tensor[(546), uint64], Tensor[(7, 14, 13), bool], Tensor[(7, 182), bool]) {
  %287 = cast(%var_5613, dtype="float32") /* ty=Tensor[(1, 12), float32] */;
  %288 = reshape(%287, newshape=[12]) /* ty=Tensor[(12), float32] */;
  %289 = @func_5038(%288) /* ty=(Tensor[(11, 9, 9), float64], Tensor[(4, 1, 3), float64], Tensor[(12), float32]) */;
  %290 = cast(meta[relay.Constant][22] /* ty=Tensor[(1386), int16] */, dtype="int16") /* ty=Tensor[(1386), int16] */;
  %291 = cast(meta[relay.Constant][23] /* ty=Tensor[(672), int32] */, dtype="int32") /* ty=Tensor[(672), int32] */;
  %292 = cast(meta[relay.Constant][24] /* ty=uint64 */, dtype="uint64") /* ty=uint64 */;
  %293 = cast(%var_5619, dtype="uint64") /* ty=Tensor[(546), uint64] */;
  %294 = reshape(%290, newshape=[1386]) /* ty=Tensor[(1386), int16] */;
  %295 = reshape(%291, newshape=[672]) /* ty=Tensor[(672), int32] */;
  %296 = reshape(%292, newshape=[]) /* ty=uint64 */;
  %297 = reshape(%293, newshape=[7, 78]) /* ty=Tensor[(7, 78), uint64] */;
  %298 = @func_4397(%294, %295, %296, %297) /* ty=(Tensor[(11, 9, 9), float64], Tensor[(11, 14, 9), bool], Tensor[(1386), int16], Tensor[(672), int32], Tensor[(11, 9, 9), float64], Tensor[(6, 13, 7), uint64], uint64, Tensor[(7, 78), uint64]) */;
  %299 = cast(%var_5624, dtype="bool") /* ty=Tensor[(7, 182), bool] */;
  %300 = cast(%var_5624, dtype="bool") /* ty=Tensor[(7, 182), bool] */;
  %301 = reshape(%299, newshape=[7, 14, 13]) /* ty=Tensor[(7, 14, 13), bool] */;
  %302 = reshape(%300, newshape=[7, 14, 13]) /* ty=Tensor[(7, 14, 13), bool] */;
  %303 = @func_4175() /* ty=Tensor[(11, 9, 9), float64] */;
  %304 = %289.0;
  %305 = %298.0;
  %306 = @func_169(%301, %302) /* ty=Tensor[(7, 14, 13), bool] */;
  (%303, %304, %var_5613, %305, meta[relay.Constant][22] /* ty=Tensor[(1386), int16] */, meta[relay.Constant][23] /* ty=Tensor[(672), int32] */, meta[relay.Constant][24] /* ty=uint64 */, %var_5619, %306, %var_5624)
}

def @func_2754(%var_2747: Tensor[(3, 13, 12), int16], %var_2748: Tensor[(3, 13, 12), int16]) -> Tensor[(3, 13, 12), int16] {
  %307 = cast(%var_2748, dtype="int16") /* ty=Tensor[(3, 13, 12), int16] */;
  %308 = shape_of(%var_2747, dtype="int32") /* ty=Tensor[(3), int32] */;
  %309 = cast(%var_2747, dtype="int16") /* ty=Tensor[(3, 13, 12), int16] */;
  %310 = dyn.reshape(%307, %308, newshape=[]) /* ty=Tensor[(?, ?, ?), int16] */;
  add(%309, %310) /* ty=Tensor[(3, 13, 12), int16] */
}

def @func_6513(%var_6487: Tensor[(1274), bool]) -> (Tensor[(11, 9, 9), float64], Tensor[(132), float32], Tensor[(132), float32], Tensor[(1274), bool]) {
  %311 = cast(meta[relay.Constant][25] /* ty=Tensor[(132), float32] */, dtype="float32") /* ty=Tensor[(132), float32] */;
  %312 = cast(%var_6487, dtype="bool") /* ty=Tensor[(1274), bool] */;
  %313 = reshape(%311, newshape=[132]) /* ty=Tensor[(132), float32] */;
  %314 = reshape(%312, newshape=[1274]) /* ty=Tensor[(1274), bool] */;
  %315 = @func_5456(%313, %314) /* ty=(Tensor[(210, 1), float32], Tensor[(1274), bool], Tensor[(132), float32], Tensor[(1274), bool]) */;
  %316 = @func_5225() /* ty=Tensor[(11, 9, 9), float64] */;
  %317 = %315.2;
  (%316, %317, meta[relay.Constant][25] /* ty=Tensor[(132), float32] */, %var_6487)
}

def @func_7140(%var_7129: Tensor[(1920), float32]) -> (Tensor[(9, 4, 9), float64], Tensor[(11, 9, 9), float64], Tensor[(1920), float32], Tensor[(9, 4, 9), float64]) {
  %318 = @func_6648() /* ty=(Tensor[(9, 4, 9), float64],) */;
  %319 = cast(%var_7129, dtype="float32") /* ty=Tensor[(1920), float32] */;
  %320 = reshape(%319, newshape=[16, 12, 10]) /* ty=Tensor[(16, 12, 10), float32] */;
  %321 = @func_5703(%320) /* ty=(Tensor[(16, 12, 10), float32], Tensor[(11, 9, 9), float64]) */;
  %322 = @func_4932() /* ty=(Tensor[(9, 4, 9), float64],) */;
  %323 = %322.0;
  %324 = cast(%323, dtype="float32") /* ty=Tensor[(9, 4, 9), float32] */;
  %325 = rsqrt(%324) /* ty=Tensor[(9, 4, 9), float32] */;
  %326 = cast(%325, dtype="float64") /* ty=Tensor[(9, 4, 9), float64] */;
  %327 = %318.0;
  %328 = %321.1;
  %329 = erf(%326) /* ty=Tensor[(9, 4, 9), float64] */;
  (%327, %328, %var_7129, %329)
}

def @func_1769(%var_1757: Tensor[(11, 9, 9), int64], %var_1758: Tensor[(11, 9, 9), int64]) -> (Tensor[(11, 9, 9), int64],) {
  %330 = cast(%var_1758, dtype="int64") /* ty=Tensor[(11, 9, 9), int64] */;
  %331 = shape_of(%var_1757, dtype="int32") /* ty=Tensor[(3), int32] */;
  %332 = cast(%var_1757, dtype="int64") /* ty=Tensor[(11, 9, 9), int64] */;
  %333 = dyn.reshape(%330, %331, newshape=[]) /* ty=Tensor[(?, ?, ?), int64] */;
  %334 = bitwise_xor(%332, %333) /* ty=Tensor[(11, 9, 9), int64] */;
  (%334,)
}

def @func_3583() -> (Tensor[(11, 9, 9), float64],) {
  %335 = @func_2942() /* ty=(Tensor[(11, 9, 9), float64],) */;
  %336 = %335.0;
  (%336,)
}

def @func_6353() -> (Tensor[(11, 9, 9), float64],) {
  %337 = @func_5225() /* ty=Tensor[(11, 9, 9), float64] */;
  (%337,)
}

def @func_5746() -> (Tensor[(210, 1), float32], Tensor[(11, 9, 9), float64]) {
  %338 = @func_3711() /* ty=(Tensor[(11, 9, 9), float64], Tensor[(1, 15, 14), float32], Tensor[(210, 1), float32]) */;
  %339 = %338.2;
  %340 = @func_3611() /* ty=Tensor[(11, 9, 9), float64] */;
  (%339, %340)
}

def @func_3512(%var_3480: Tensor[(1274), bool]) -> (Tensor[(11, 9, 9), float64], Tensor[(132), float32], Tensor[(3, 4, 11), float64], Tensor[(1274), bool], Tensor[(9, 4, 9), float64], Tensor[(7, 14, 13), bool]) {
  %341 = @func_3195() /* ty=(Tensor[(11, 9, 9), float64],) */;
  %342 = cast(meta[relay.Constant][26] /* ty=Tensor[(132), float32] */, dtype="float32") /* ty=Tensor[(132), float32] */;
  %343 = cast(meta[relay.Constant][27] /* ty=Tensor[(1274), bool] */, dtype="bool") /* ty=Tensor[(1274), bool] */;
  %344 = reshape(%342, newshape=[3, 4, 11]) /* ty=Tensor[(3, 4, 11), float32] */;
  %345 = reshape(%343, newshape=[1274]) /* ty=Tensor[(1274), bool] */;
  %346 = @func_292(%344, %345) /* ty=(Tensor[(3, 4, 11), float64], Tensor[(3, 4, 11), float64], Tensor[(7, 14, 13), bool], Tensor[(1274), bool]) */;
  %347 = %346.1;
  %348 = cast(%347, dtype="float64") /* ty=Tensor[(3, 4, 11), float64] */;
  %349 = cast(%var_3480, dtype="bool") /* ty=Tensor[(1274), bool] */;
  %350 = shape_of(meta[relay.Constant][27] /* ty=Tensor[(1274), bool] */, dtype="int32") /* ty=Tensor[(1), int32] */;
  %351 = cast(meta[relay.Constant][27] /* ty=Tensor[(1274), bool] */, dtype="bool") /* ty=Tensor[(1274), bool] */;
  %352 = dyn.reshape(%349, %350, newshape=[]) /* ty=Tensor[(?), bool] */;
  %353 = @func_2844() /* ty=(Tensor[(9, 4, 9), float64], Tensor[(11, 9, 9), int64], Tensor[(891), int64]) */;
  %354 = cast(meta[relay.Constant][27] /* ty=Tensor[(1274), bool] */, dtype="bool") /* ty=Tensor[(1274), bool] */;
  %355 = cast(meta[relay.Constant][27] /* ty=Tensor[(1274), bool] */, dtype="bool") /* ty=Tensor[(1274), bool] */;
  %356 = reshape(%354, newshape=[7, 14, 13]) /* ty=Tensor[(7, 14, 13), bool] */;
  %357 = reshape(%355, newshape=[7, 14, 13]) /* ty=Tensor[(7, 14, 13), bool] */;
  %358 = %341.0;
  %359 = atanh(%348) /* ty=Tensor[(3, 4, 11), float64] */;
  %360 = greater_equal(%351, %352) /* ty=Tensor[(1274), bool] */;
  %361 = %353.0;
  %362 = @func_169(%356, %357) /* ty=Tensor[(7, 14, 13), bool] */;
  (%358, meta[relay.Constant][26] /* ty=Tensor[(132), float32] */, %359, %360, %361, %362)
}

def @func_6187() -> (Tensor[(11, 9, 9), float64], Tensor[(11, 9, 9), float64]) {
  %363 = @func_5312() /* ty=(Tensor[(11, 9, 9), float64], Tensor[(15, 14, 2), float32], Tensor[(420), float32]) */;
  %364 = @func_4534() /* ty=(Tensor[(11, 9, 9), float64],) */;
  %365 = %363.0;
  %366 = %364.0;
  (%365, %366)
}

def @func_4989() -> (Tensor[(11, 9, 9), float64],) {
  %367 = @func_4175() /* ty=Tensor[(11, 9, 9), float64] */;
  (%367,)
}

def @func_6624(%var_6532: Tensor[(12, 1), float32], %var_6533: Tensor[(546), uint64], %var_6534: Tensor[(1274), bool], %var_6575: Tensor[(210, 7), uint8]) -> (Tensor[(12, 1), float32], Tensor[(546), uint64], Tensor[(1274), bool], Tensor[(11, 9, 9), float64], Tensor[(210, 7), float32], Tensor[(210, 7), float64], Tensor[(210, 1), float64], Tensor[(11, 9, 9), float64], Tensor[(52), uint16], Tensor[(132), float32]) {
  %368 = cast(%var_6532, dtype="float32") /* ty=Tensor[(12, 1), float32] */;
  %369 = cast(%var_6533, dtype="uint64") /* ty=Tensor[(546), uint64] */;
  %370 = cast(%var_6534, dtype="bool") /* ty=Tensor[(1274), bool] */;
  %371 = reshape(%368, newshape=[1, 12]) /* ty=Tensor[(1, 12), float32] */;
  %372 = reshape(%369, newshape=[546]) /* ty=Tensor[(546), uint64] */;
  %373 = reshape(%370, newshape=[7, 182]) /* ty=Tensor[(7, 182), bool] */;
  %374 = @func_5630(%371, %372, %373) /* ty=(Tensor[(11, 9, 9), float64], Tensor[(11, 9, 9), float64], Tensor[(1, 12), float32], Tensor[(11, 9, 9), float64], Tensor[(1386), int16], Tensor[(672), int32], uint64, Tensor[(546), uint64], Tensor[(7, 14, 13), bool], Tensor[(7, 182), bool]) */;
  %375 = %374.1;
  %376 = cast(%375, dtype="float64") /* ty=Tensor[(11, 9, 9), float64] */;
  %377 = @func_3711() /* ty=(Tensor[(11, 9, 9), float64], Tensor[(1, 15, 14), float32], Tensor[(210, 1), float32]) */;
  %378 = %377.2;
  %379 = cast(%378, dtype="float64") /* ty=Tensor[(210, 1), float64] */;
  %380 = exp(%379) /* ty=Tensor[(210, 1), float64] */;
  %381 = cast(%378, dtype="uint8") /* ty=Tensor[(210, 1), uint8] */;
  %382 = shape_of(%380, dtype="int32") /* ty=Tensor[(2), int32] */;
  %383 = cast(%380, dtype="uint8") /* ty=Tensor[(210, 1), uint8] */;
  %384 = dyn.reshape(%381, %382, newshape=[]) /* ty=Tensor[(?, ?), uint8] */;
  %385 = minimum(%383, %384) /* ty=Tensor[(210, ?), uint8] */;
  %386 = cast(%385, dtype="float32") /* ty=Tensor[(210, ?), float32] */;
  %387 = cast(%var_6575, dtype="float32") /* ty=Tensor[(210, 7), float32] */;
  %388 = cast(%var_6575, dtype="float64") /* ty=Tensor[(210, 7), float64] */;
  %389 = cast(%380, dtype="float32") /* ty=Tensor[(210, 1), float32] */;
  %390 = log2(%389) /* ty=Tensor[(210, 1), float32] */;
  %391 = cast(%390, dtype="float64") /* ty=Tensor[(210, 1), float64] */;
  %392 = cast(%var_6532, dtype="float32") /* ty=Tensor[(12, 1), float32] */;
  %393 = cast(meta[relay.Constant][28] /* ty=Tensor[(52), uint16] */, dtype="uint16") /* ty=Tensor[(52), uint16] */;
  %394 = cast(meta[relay.Constant][29] /* ty=Tensor[(132), float32] */, dtype="float32") /* ty=Tensor[(132), float32] */;
  %395 = reshape(%392, newshape=[12]) /* ty=Tensor[(12), float32] */;
  %396 = reshape(%393, newshape=[52, 1]) /* ty=Tensor[(52, 1), uint16] */;
  %397 = reshape(%394, newshape=[132]) /* ty=Tensor[(132), float32] */;
  %398 = @func_3904(%395, %396, %397) /* ty=(Tensor[(11, 9, 9), float64], Tensor[(11, 9, 9), float64], Tensor[(12), float32], Tensor[(1584), float32], Tensor[(12), float32], Tensor[(11, 7, 2), float32], Tensor[(1274), bool], uint16, Tensor[(52, 1), uint16], Tensor[(132), float32]) */;
  %399 = log(%376) /* ty=Tensor[(11, 9, 9), float64] */;
  %400 = floor_divide(%386, %387) /* ty=Tensor[(210, 7), float32] */;
  %401 = sqrt(%388) /* ty=Tensor[(210, 7), float64] */;
  %402 = asinh(%391) /* ty=Tensor[(210, 1), float64] */;
  %403 = %398.1;
  (%var_6532, %var_6533, %var_6534, %399, %400, %401, %402, %403, meta[relay.Constant][28] /* ty=Tensor[(52), uint16] */, meta[relay.Constant][29] /* ty=Tensor[(132), float32] */)
}

def @func_7358() -> (Tensor[(11, 9, 9), float64],) {
  %404 = @func_4534() /* ty=(Tensor[(11, 9, 9), float64],) */;
  %405 = %404.0;
  (%405,)
}

def @func_3195() -> (Tensor[(11, 9, 9), float64],) {
  %406 = @func_2942() /* ty=(Tensor[(11, 9, 9), float64],) */;
  %407 = %406.0;
  (%407,)
}

def @func_4018() -> (Tensor[(11, 9, 9), float64], Tensor[(11, 14, 9), bool], Tensor[(1386), int16], Tensor[(672), int32], Tensor[(11, 9, 9), float64]) {
  %408 = cast(meta[relay.Constant][30] /* ty=Tensor[(1386), int16] */, dtype="int16") /* ty=Tensor[(1386), int16] */;
  %409 = cast(meta[relay.Constant][31] /* ty=Tensor[(672), int32] */, dtype="int32") /* ty=Tensor[(672), int32] */;
  %410 = reshape(%408, newshape=[11, 14, 9]) /* ty=Tensor[(11, 14, 9), int16] */;
  %411 = reshape(%409, newshape=[672]) /* ty=Tensor[(672), int32] */;
  %412 = @func_3156(%410, %411) /* ty=(Tensor[(11, 14, 9), bool], Tensor[(11, 14, 9), float32], Tensor[(16, 7, 6), int16], Tensor[(672), int32], Tensor[(72), float32]) */;
  %413 = @func_3079() /* ty=(Tensor[(11, 9, 9), float64],) */;
  %414 = @func_3548() /* ty=Tensor[(11, 9, 9), float64] */;
  %415 = %412.0;
  %416 = %413.0;
  (%414, %415, meta[relay.Constant][30] /* ty=Tensor[(1386), int16] */, meta[relay.Constant][31] /* ty=Tensor[(672), int32] */, %416)
}

def @func_5882() -> (Tensor[(11, 9, 9), float64], Tensor[(11, 9, 9), int64]) {
  %417 = @func_5806() /* ty=(Tensor[(11, 9, 9), float64], Tensor[(11, 9, 9), float64]) */;
  %418 = %417.0;
  %419 = cast(%418, dtype="int64") /* ty=Tensor[(11, 9, 9), int64] */;
  %420 = cast(%418, dtype="int64") /* ty=Tensor[(11, 9, 9), int64] */;
  %421 = reshape(%419, newshape=[11, 9, 9]) /* ty=Tensor[(11, 9, 9), int64] */;
  %422 = reshape(%420, newshape=[11, 9, 9]) /* ty=Tensor[(11, 9, 9), int64] */;
  %423 = @func_1769(%421, %422) /* ty=(Tensor[(11, 9, 9), int64],) */;
  %424 = %423.0;
  (%418, %424)
}

def @func_5038(%var_5032: Tensor[(12), float32]) -> (Tensor[(11, 9, 9), float64], Tensor[(4, 1, 3), float64], Tensor[(12), float32]) {
  %425 = @func_3548() /* ty=Tensor[(11, 9, 9), float64] */;
  %426 = cast(%425, dtype="float64") /* ty=Tensor[(11, 9, 9), float64] */;
  %427 = cast(%var_5032, dtype="float32") /* ty=Tensor[(12), float32] */;
  %428 = reshape(%427, newshape=[4, 1, 3]) /* ty=Tensor[(4, 1, 3), float32] */;
  %429 = @func_1232(%428) /* ty=(Tensor[(4, 1, 3), float64],) */;
  %430 = asin(%426) /* ty=Tensor[(11, 9, 9), float64] */;
  %431 = %429.0;
  (%430, %431, %var_5032)
}

def @func_4333() -> (Tensor[(11, 9, 9), float64],) {
  %432 = @func_4155() /* ty=(Tensor[(11, 9, 9), float64], Tensor[(11, 9, 9), bool]) */;
  %433 = %432.0;
  (%433,)
}

def @func_5573(%var_5552: Tensor[(1440), uint32], %var_5554: Tensor[(2160), float64]) -> (Tensor[(11, 9, 9), float64], Tensor[(210, 1), float32], Tensor[(11, 9, 9), int16], Tensor[(468), int16], Tensor[(1440), uint32], Tensor[(132), float32], Tensor[(2160), float64], Tensor[(672), int32], Tensor[(1386), int16], Tensor[(672), int32], Tensor[(11, 9, 9), float64]) {
  %434 = @func_4786() /* ty=(Tensor[(11, 9, 9), float64],) */;
  %435 = @func_3711() /* ty=(Tensor[(11, 9, 9), float64], Tensor[(1, 15, 14), float32], Tensor[(210, 1), float32]) */;
  %436 = cast(meta[relay.Constant][32] /* ty=Tensor[(468), int16] */, dtype="int16") /* ty=Tensor[(468), int16] */;
  %437 = %434.0;
  %438 = cast(%437, dtype="float64") /* ty=Tensor[(11, 9, 9), float64] */;
  %439 = cast(%var_5552, dtype="uint32") /* ty=Tensor[(1440), uint32] */;
  %440 = cast(meta[relay.Constant][33] /* ty=Tensor[(132), float32] */, dtype="float32") /* ty=Tensor[(132), float32] */;
  %441 = cast(%var_5554, dtype="float64") /* ty=Tensor[(2160), float64] */;
  %442 = reshape(%436, newshape=[468]) /* ty=Tensor[(468), int16] */;
  %443 = reshape(%438, newshape=[11, 9, 9]) /* ty=Tensor[(11, 9, 9), float64] */;
  %444 = reshape(%439, newshape=[1440]) /* ty=Tensor[(1440), uint32] */;
  %445 = reshape(%440, newshape=[132]) /* ty=Tensor[(132), float32] */;
  %446 = reshape(%441, newshape=[60, 36]) /* ty=Tensor[(60, 36), float64] */;
  %447 = @func_4277(%442, %443, %444, %445, %446) /* ty=(Tensor[(11, 9, 9), int16], Tensor[(3, 4, 11), bool], Tensor[(1440), uint32], Tensor[(52), uint16], Tensor[(60, 36), float64], Tensor[(210, 132), int64], Tensor[(3, 4, 11), float64], Tensor[(1274, 1), bool], Tensor[(468), int64]) */;
  %448 = cast(meta[relay.Constant][34] /* ty=Tensor[(1386), int16] */, dtype="int16") /* ty=Tensor[(1386), int16] */;
  %449 = cast(meta[relay.Constant][35] /* ty=Tensor[(672), int32] */, dtype="int32") /* ty=Tensor[(672), int32] */;
  %450 = reshape(%448, newshape=[11, 14, 9]) /* ty=Tensor[(11, 14, 9), int16] */;
  %451 = reshape(%449, newshape=[672]) /* ty=Tensor[(672), int32] */;
  %452 = @func_3156(%450, %451) /* ty=(Tensor[(11, 14, 9), bool], Tensor[(11, 14, 9), float32], Tensor[(16, 7, 6), int16], Tensor[(672), int32], Tensor[(72), float32]) */;
  %453 = %435.2;
  %454 = %447.0;
  %455 = %452.3;
  %456 = @func_3611() /* ty=Tensor[(11, 9, 9), float64] */;
  (%437, %453, %454, meta[relay.Constant][32] /* ty=Tensor[(468), int16] */, %var_5552, meta[relay.Constant][33] /* ty=Tensor[(132), float32] */, %var_5554, %455, meta[relay.Constant][34] /* ty=Tensor[(1386), int16] */, meta[relay.Constant][35] /* ty=Tensor[(672), int32] */, %456)
}

def @func_789(%var_765: Tensor[(16, 9, 1), float64], %var_766: Tensor[(16, 9, 15), float64]) -> (Tensor[(16, 9, 15), float64], Tensor[(11, 7, 2), float64], Tensor[(154), int32]) {
  %457 = cast(%var_765, dtype="float64") /* ty=Tensor[(16, 9, 1), float64] */;
  %458 = cast(%var_766, dtype="float64") /* ty=Tensor[(16, 9, 15), float64] */;
  %459 = cast(meta[relay.Constant][36] /* ty=Tensor[(154), int32] */, dtype="int32") /* ty=Tensor[(154), int32] */;
  %460 = reshape(%459, newshape=[11, 7, 2]) /* ty=Tensor[(11, 7, 2), int32] */;
  %461 = @func_27(%460) /* ty=(Tensor[(11, 7, 2), float64],) */;
  %462 = power(%457, %458) /* ty=Tensor[(16, 9, 15), float64] */;
  %463 = %461.0;
  (%462, %463, meta[relay.Constant][36] /* ty=Tensor[(154), int32] */)
}

def @func_5225() -> Tensor[(11, 9, 9), float64] {
  %464 = @func_3790() /* ty=(Tensor[(11, 9, 9), float64],) */;
  %464.0
}

def @func_5358() -> (Tensor[(11, 9, 9), float64], Tensor[(9, 4, 9), float64]) {
  %465 = @func_3206() /* ty=(Tensor[(9, 4, 9), float64],) */;
  %466 = @func_3548() /* ty=Tensor[(11, 9, 9), float64] */;
  %467 = %465.0;
  (%466, %467)
}

def @func_5439(%var_5433: Tensor[(132), float32]) -> (Tensor[(11, 9, 9), float64], Tensor[(11, 9, 9), float64], Tensor[(11, 9, 9), float64], Tensor[(3, 4), float32], Tensor[(52, 1), uint16], Tensor[(132), float32]) {
  %468 = @func_4786() /* ty=(Tensor[(11, 9, 9), float64],) */;
  %469 = @func_4333() /* ty=(Tensor[(11, 9, 9), float64],) */;
  %470 = cast(meta[relay.Constant][37] /* ty=Tensor[(3, 4), float32] */, dtype="float32") /* ty=Tensor[(3, 4), float32] */;
  %471 = cast(meta[relay.Constant][38] /* ty=Tensor[(52, 1), uint16] */, dtype="uint16") /* ty=Tensor[(52, 1), uint16] */;
  %472 = cast(%var_5433, dtype="float32") /* ty=Tensor[(132), float32] */;
  %473 = reshape(%470, newshape=[12]) /* ty=Tensor[(12), float32] */;
  %474 = reshape(%471, newshape=[52, 1]) /* ty=Tensor[(52, 1), uint16] */;
  %475 = reshape(%472, newshape=[132]) /* ty=Tensor[(132), float32] */;
  %476 = @func_3904(%473, %474, %475) /* ty=(Tensor[(11, 9, 9), float64], Tensor[(11, 9, 9), float64], Tensor[(12), float32], Tensor[(1584), float32], Tensor[(12), float32], Tensor[(11, 7, 2), float32], Tensor[(1274), bool], uint16, Tensor[(52, 1), uint16], Tensor[(132), float32]) */;
  %477 = %468.0;
  %478 = %469.0;
  %479 = %476.1;
  (%477, %478, %479, meta[relay.Constant][37] /* ty=Tensor[(3, 4), float32] */, meta[relay.Constant][38] /* ty=Tensor[(52, 1), uint16] */, %var_5433)
}

def @func_5851() -> Tensor[(11, 14, 9), bool] {
  %480 = @func_4018() /* ty=(Tensor[(11, 9, 9), float64], Tensor[(11, 14, 9), bool], Tensor[(1386), int16], Tensor[(672), int32], Tensor[(11, 9, 9), float64]) */;
  %481 = %480.1;
  %482 = cast(meta[relay.Constant][39] /* ty=Tensor[(11, 14, 9), bool] */, dtype="bool") /* ty=Tensor[(11, 14, 9), bool] */;
  %483 = shape_of(%481, dtype="int32") /* ty=Tensor[(3), int32] */;
  %484 = cast(%481, dtype="bool") /* ty=Tensor[(11, 14, 9), bool] */;
  %485 = dyn.reshape(%482, %483, newshape=[]) /* ty=Tensor[(?, ?, ?), bool] */;
  less(%484, %485) /* ty=Tensor[(11, 14, 9), bool] */
}

def @func_7557(%var_7536: Tensor[(132), float32], %var_7544: Tensor[(1, 156), float64]) -> (Tensor[(420), float32], Tensor[(11, 9, 9), float64], Tensor[(11, 9, 9), float64], Tensor[(12), float32], Tensor[(52), uint16], Tensor[(132), float32], Tensor[(6, 2, 13), float64], Tensor[(1, 156), float64]) {
  %486 = @func_5312() /* ty=(Tensor[(11, 9, 9), float64], Tensor[(15, 14, 2), float32], Tensor[(420), float32]) */;
  %487 = cast(meta[relay.Constant][40] /* ty=Tensor[(12), float32] */, dtype="float32") /* ty=Tensor[(12), float32] */;
  %488 = cast(meta[relay.Constant][41] /* ty=Tensor[(52), uint16] */, dtype="uint16") /* ty=Tensor[(52), uint16] */;
  %489 = cast(%var_7536, dtype="float32") /* ty=Tensor[(132), float32] */;
  %490 = reshape(%487, newshape=[12]) /* ty=Tensor[(12), float32] */;
  %491 = reshape(%488, newshape=[52, 1]) /* ty=Tensor[(52, 1), uint16] */;
  %492 = reshape(%489, newshape=[132]) /* ty=Tensor[(132), float32] */;
  %493 = @func_3904(%490, %491, %492) /* ty=(Tensor[(11, 9, 9), float64], Tensor[(11, 9, 9), float64], Tensor[(12), float32], Tensor[(1584), float32], Tensor[(12), float32], Tensor[(11, 7, 2), float32], Tensor[(1274), bool], uint16, Tensor[(52, 1), uint16], Tensor[(132), float32]) */;
  %494 = cast(%var_7544, dtype="float64") /* ty=Tensor[(1, 156), float64] */;
  %495 = reshape(%494, newshape=[6, 2, 13]) /* ty=Tensor[(6, 2, 13), float64] */;
  %496 = @func_6913(%495) /* ty=(Tensor[(6, 2, 13), float64],) */;
  %497 = %486.2;
  %498 = @func_3548() /* ty=Tensor[(11, 9, 9), float64] */;
  %499 = %493.0;
  %500 = %496.0;
  (%497, %498, %499, meta[relay.Constant][40] /* ty=Tensor[(12), float32] */, meta[relay.Constant][41] /* ty=Tensor[(52), uint16] */, %var_7536, %500, %var_7544)
}

def @func_1232(%var_1225: Tensor[(4, 1, 3), float32]) -> (Tensor[(4, 1, 3), float64],) {
  %501 = cast(%var_1225, dtype="float32") /* ty=Tensor[(4, 1, 3), float32] */;
  %502 = asinh(%501) /* ty=Tensor[(4, 1, 3), float32] */;
  %503 = cast(%502, dtype="float64") /* ty=Tensor[(4, 1, 3), float64] */;
  %504 = sqrt(%503) /* ty=Tensor[(4, 1, 3), float64] */;
  (%504,)
}

def @func_5208() -> (Tensor[(11, 9, 9), float64],) {
  %505 = @func_3583() /* ty=(Tensor[(11, 9, 9), float64],) */;
  %506 = %505.0;
  (%506,)
}

def @func_7266(%var_7235: Tensor[(11, 3, 7), uint8], %var_7257: Tensor[(448), int32]) -> (Tensor[(11, 3, 7), bool], Tensor[(11, 3, 7), float32], Tensor[(11, 3, 7), float32], Tensor[(4, 14, 8), uint16], int32, Tensor[(448), int32]) {
  %507 = cast(%var_7235, dtype="bool") /* ty=Tensor[(11, 3, 7), bool] */;
  %508 = shape_of(meta[relay.Constant][42] /* ty=Tensor[(11, 3, 7), uint8] */, dtype="int32") /* ty=Tensor[(3), int32] */;
  %509 = cast(meta[relay.Constant][42] /* ty=Tensor[(11, 3, 7), uint8] */, dtype="bool") /* ty=Tensor[(11, 3, 7), bool] */;
  %510 = dyn.reshape(%507, %508, newshape=[]) /* ty=Tensor[(?, ?, ?), bool] */;
  %511 = cast(meta[relay.Constant][43] /* ty=Tensor[(11, 3, 7), uint8] */, dtype="float32") /* ty=Tensor[(11, 3, 7), float32] */;
  %512 = shape_of(meta[relay.Constant][42] /* ty=Tensor[(11, 3, 7), uint8] */, dtype="int32") /* ty=Tensor[(3), int32] */;
  %513 = cast(meta[relay.Constant][42] /* ty=Tensor[(11, 3, 7), uint8] */, dtype="float32") /* ty=Tensor[(11, 3, 7), float32] */;
  %514 = dyn.reshape(%511, %512, newshape=[]) /* ty=Tensor[(?, ?, ?), float32] */;
  %515 = cast(meta[relay.Constant][42] /* ty=Tensor[(11, 3, 7), uint8] */, dtype="float32") /* ty=Tensor[(11, 3, 7), float32] */;
  %516 = cast(3 /* ty=int32 */, dtype="int32") /* ty=int32 */;
  %517 = cast(%var_7257, dtype="int32") /* ty=Tensor[(448), int32] */;
  %518 = reshape(%516, newshape=[]) /* ty=int32 */;
  %519 = reshape(%517, newshape=[4, 14, 8]) /* ty=Tensor[(4, 14, 8), int32] */;
  %520 = @func_5129(%518, %519) /* ty=(Tensor[(4, 14, 8), float32], Tensor[(9, 4, 9), float64], Tensor[(4, 14, 8), uint16]) */;
  %521 = greater(%509, %510) /* ty=Tensor[(11, 3, 7), bool] */;
  %522 = divide(%513, %514) /* ty=Tensor[(11, 3, 7), float32] */;
  %523 = erf(%515) /* ty=Tensor[(11, 3, 7), float32] */;
  %524 = %520.2;
  (%521, %522, %523, %524, 3 /* ty=int32 */, %var_7257)
}

def @func_3855(%var_3846: Tensor[(1440), uint32]) -> (Tensor[(210, 1), float32], Tensor[(16, 15, 6), bool], Tensor[(1440), uint32], Tensor[(11, 9, 9), float64]) {
  %525 = @func_3711() /* ty=(Tensor[(11, 9, 9), float64], Tensor[(1, 15, 14), float32], Tensor[(210, 1), float32]) */;
  %526 = cast(%var_3846, dtype="uint32") /* ty=Tensor[(1440), uint32] */;
  %527 = cast(%var_3846, dtype="uint32") /* ty=Tensor[(1440), uint32] */;
  %528 = reshape(%526, newshape=[16, 15, 6]) /* ty=Tensor[(16, 15, 6), uint32] */;
  %529 = reshape(%527, newshape=[16, 15, 6]) /* ty=Tensor[(16, 15, 6), uint32] */;
  %530 = @func_1341(%528, %529) /* ty=(Tensor[(16, 15, 6), bool],) */;
  %531 = %525.2;
  %532 = %530.0;
  %533 = @func_3548() /* ty=Tensor[(11, 9, 9), float64] */;
  (%531, %532, %var_3846, %533)
}

def @func_6270() -> Tensor[(11, 9, 9), float64] {
  %534 = @func_4473() /* ty=(Tensor[(11, 9, 9), float64],) */;
  %534.0
}

def @func_2844() -> (Tensor[(9, 4, 9), float64], Tensor[(11, 9, 9), int64], Tensor[(891), int64]) {
  %535 = cast(meta[relay.Constant][44] /* ty=Tensor[(9, 4, 9), float64] */, dtype="float64") /* ty=Tensor[(9, 4, 9), float64] */;
  %536 = cast(meta[relay.Constant][45] /* ty=Tensor[(891), int64] */, dtype="int64") /* ty=Tensor[(891), int64] */;
  %537 = cast(meta[relay.Constant][45] /* ty=Tensor[(891), int64] */, dtype="int64") /* ty=Tensor[(891), int64] */;
  %538 = reshape(%536, newshape=[11, 9, 9]) /* ty=Tensor[(11, 9, 9), int64] */;
  %539 = reshape(%537, newshape=[11, 9, 9]) /* ty=Tensor[(11, 9, 9), int64] */;
  %540 = @func_1769(%538, %539) /* ty=(Tensor[(11, 9, 9), int64],) */;
  %541 = atanh(%535) /* ty=Tensor[(9, 4, 9), float64] */;
  %542 = %540.0;
  (%541, %542, meta[relay.Constant][45] /* ty=Tensor[(891), int64] */)
}

def @func_7700() -> (Tensor[(11, 9, 9), float64],) {
  %543 = @func_6187() /* ty=(Tensor[(11, 9, 9), float64], Tensor[(11, 9, 9), float64]) */;
  %544 = %543.1;
  (%544,)
}

def @func_3156(%var_3087: Tensor[(11, 14, 9), int16], %var_3150: Tensor[(672), int32]) -> (Tensor[(11, 14, 9), bool], Tensor[(11, 14, 9), float32], Tensor[(16, 7, 6), int16], Tensor[(672), int32], Tensor[(72), float32]) {
  %545 = cast(meta[relay.Constant][46] /* ty=Tensor[(11, 14, 9), int16] */, dtype="int16") /* ty=Tensor[(11, 14, 9), int16] */;
  %546 = shape_of(%var_3087, dtype="int32") /* ty=Tensor[(3), int32] */;
  %547 = cast(%var_3087, dtype="int16") /* ty=Tensor[(11, 14, 9), int16] */;
  %548 = dyn.reshape(%545, %546, newshape=[]) /* ty=Tensor[(?, ?, ?), int16] */;
  %549 = logical_xor(%547, %548) /* ty=Tensor[(11, 14, 9), int16] */;
  %550 = cast(%549, dtype="float32") /* ty=Tensor[(11, 14, 9), float32] */;
  %551 = atanh(%550) /* ty=Tensor[(11, 14, 9), float32] */;
  %552 = cast(%549, dtype="float64") /* ty=Tensor[(11, 14, 9), float64] */;
  %553 = shape_of(meta[relay.Constant][46] /* ty=Tensor[(11, 14, 9), int16] */, dtype="int32") /* ty=Tensor[(3), int32] */;
  %554 = cast(meta[relay.Constant][46] /* ty=Tensor[(11, 14, 9), int16] */, dtype="float64") /* ty=Tensor[(11, 14, 9), float64] */;
  %555 = dyn.reshape(%552, %553, newshape=[]) /* ty=Tensor[(?, ?, ?), float64] */;
  %556 = mod(%554, %555) /* ty=Tensor[(11, 14, 9), float64] */;
  %557 = cast(%556, dtype="bool") /* ty=Tensor[(11, 14, 9), bool] */;
  %558 = shape_of(%551, dtype="int32") /* ty=Tensor[(3), int32] */;
  %559 = cast(%551, dtype="bool") /* ty=Tensor[(11, 14, 9), bool] */;
  %560 = dyn.reshape(%557, %558, newshape=[]) /* ty=Tensor[(?, ?, ?), bool] */;
  %561 = cast(%549, dtype="uint64") /* ty=Tensor[(11, 14, 9), uint64] */;
  %562 = shape_of(%551, dtype="int32") /* ty=Tensor[(3), int32] */;
  %563 = cast(%551, dtype="uint64") /* ty=Tensor[(11, 14, 9), uint64] */;
  %564 = dyn.reshape(%561, %562, newshape=[]) /* ty=Tensor[(?, ?, ?), uint64] */;
  %565 = multiply(%563, %564) /* ty=Tensor[(11, 14, 9), uint64] */;
  %566 = cast(%565, dtype="float32") /* ty=Tensor[(11, 14, 9), float32] */;
  %567 = cast(%var_3150, dtype="int32") /* ty=Tensor[(672), int32] */;
  %568 = cast(meta[relay.Constant][47] /* ty=Tensor[(72), float32] */, dtype="float32") /* ty=Tensor[(72), float32] */;
  %569 = reshape(%567, newshape=[16, 7, 6]) /* ty=Tensor[(16, 7, 6), int32] */;
  %570 = reshape(%568, newshape=[1, 72]) /* ty=Tensor[(1, 72), float32] */;
  %571 = @func_1473(%569, %570) /* ty=(Tensor[(16, 7, 6), int16], Tensor[(?, 72), bool]) */;
  %572 = not_equal(%559, %560) /* ty=Tensor[(11, 14, 9), bool] */;
  %573 = asinh(%566) /* ty=Tensor[(11, 14, 9), float32] */;
  %574 = %571.0;
  (%572, %573, %574, %var_3150, meta[relay.Constant][47] /* ty=Tensor[(72), float32] */)
}

def @func_3548() -> Tensor[(11, 9, 9), float64] {
  %575 = @func_3195() /* ty=(Tensor[(11, 9, 9), float64],) */;
  %575.0
}

def @func_3385(%var_3355: Tensor[(1274), bool], %var_3360: Tensor[(1386), int16], %var_3361: Tensor[(672), int32]) -> (Tensor[(11, 9, 9), float64], Tensor[(7, 14, 13), bool], Tensor[(1274), bool], Tensor[(72), float32], Tensor[(1386), int16], Tensor[(672), int32], Tensor[(4, 1, 3), float64], Tensor[(12), float32]) {
  %576 = @func_2906() /* ty=(Tensor[(11, 9, 9), float64],) */;
  %577 = cast(%var_3355, dtype="bool") /* ty=Tensor[(1274), bool] */;
  %578 = cast(%var_3355, dtype="bool") /* ty=Tensor[(1274), bool] */;
  %579 = reshape(%577, newshape=[7, 14, 13]) /* ty=Tensor[(7, 14, 13), bool] */;
  %580 = reshape(%578, newshape=[7, 14, 13]) /* ty=Tensor[(7, 14, 13), bool] */;
  %581 = cast(%var_3360, dtype="int16") /* ty=Tensor[(1386), int16] */;
  %582 = cast(%var_3361, dtype="int32") /* ty=Tensor[(672), int32] */;
  %583 = reshape(%581, newshape=[11, 14, 9]) /* ty=Tensor[(11, 14, 9), int16] */;
  %584 = reshape(%582, newshape=[672]) /* ty=Tensor[(672), int32] */;
  %585 = @func_3156(%583, %584) /* ty=(Tensor[(11, 14, 9), bool], Tensor[(11, 14, 9), float32], Tensor[(16, 7, 6), int16], Tensor[(672), int32], Tensor[(72), float32]) */;
  %586 = cast(meta[relay.Constant][48] /* ty=Tensor[(12), float32] */, dtype="float32") /* ty=Tensor[(12), float32] */;
  %587 = reshape(%586, newshape=[4, 1, 3]) /* ty=Tensor[(4, 1, 3), float32] */;
  %588 = @func_1232(%587) /* ty=(Tensor[(4, 1, 3), float64],) */;
  %589 = %576.0;
  %590 = @func_169(%579, %580) /* ty=Tensor[(7, 14, 13), bool] */;
  %591 = %585.4;
  %592 = %588.0;
  (%589, %590, %var_3355, %591, %var_3360, %var_3361, %592, meta[relay.Constant][48] /* ty=Tensor[(12), float32] */)
}

def @func_7762(%var_7745: Tensor[(1, 10, 11), uint16], %var_7746: Tensor[(8, 10, 11), uint16]) -> (Tensor[(8, 10, 11), uint16], Tensor[(4, 10, 11), bool]) {
  %593 = cast(%var_7745, dtype="uint16") /* ty=Tensor[(1, 10, 11), uint16] */;
  %594 = cast(%var_7746, dtype="uint16") /* ty=Tensor[(8, 10, 11), uint16] */;
  %595 = cast(%var_7745, dtype="bool") /* ty=Tensor[(1, 10, 11), bool] */;
  %596 = cast(meta[relay.Constant][49] /* ty=Tensor[(4, 10, 11), uint16] */, dtype="bool") /* ty=Tensor[(4, 10, 11), bool] */;
  %597 = add(%593, %594) /* ty=Tensor[(8, 10, 11), uint16] */;
  %598 = not_equal(%595, %596) /* ty=Tensor[(4, 10, 11), bool] */;
  (%597, %598)
}

def @func_5312() -> (Tensor[(11, 9, 9), float64], Tensor[(15, 14, 2), float32], Tensor[(420), float32]) {
  %599 = @func_3790() /* ty=(Tensor[(11, 9, 9), float64],) */;
  %600 = cast(meta[relay.Constant][50] /* ty=Tensor[(420), float32] */, dtype="float32") /* ty=Tensor[(420), float32] */;
  %601 = reshape(%600, newshape=[15, 14, 2]) /* ty=Tensor[(15, 14, 2), float32] */;
  %602 = @func_3750(%601) /* ty=(Tensor[(15, 14, 2), float32], Tensor[(15, 14, 2), float32]) */;
  %603 = %599.0;
  %604 = %602.1;
  (%603, %604, meta[relay.Constant][50] /* ty=Tensor[(420), float32] */)
}

def @func_6718(%var_6680: Tensor[(4, 12, 1), float64], %var_6705: Tensor[(672), int32]) -> (Tensor[(4, 12, ?), bool], Tensor[(4, 12, ?), float64], Tensor[(16, 7, 6), int16], Tensor[(672), int32], Tensor[(72), float32], Tensor[(11, 9, 9), float64], Tensor[(11, 9, 9), float64], Tensor[(11, 9, 9), float64]) {
  %605 = cast(%var_6680, dtype="float32") /* ty=Tensor[(4, 12, 1), float32] */;
  %606 = tan(%605) /* ty=Tensor[(4, 12, 1), float32] */;
  %607 = cast(%606, dtype="float32") /* ty=Tensor[(4, 12, 1), float32] */;
  %608 = log(%607) /* ty=Tensor[(4, 12, 1), float32] */;
  %609 = cast(%608, dtype="bool") /* ty=Tensor[(4, 12, 1), bool] */;
  %610 = shape_of(%606, dtype="int32") /* ty=Tensor[(3), int32] */;
  %611 = cast(%606, dtype="bool") /* ty=Tensor[(4, 12, 1), bool] */;
  %612 = dyn.reshape(%609, %610, newshape=[]) /* ty=Tensor[(?, ?, ?), bool] */;
  %613 = cast(%var_6680, dtype="float64") /* ty=Tensor[(4, 12, 1), float64] */;
  %614 = sqrt(%613) /* ty=Tensor[(4, 12, 1), float64] */;
  %615 = cast(%606, dtype="float64") /* ty=Tensor[(4, 12, 1), float64] */;
  %616 = shape_of(%614, dtype="int32") /* ty=Tensor[(3), int32] */;
  %617 = cast(%614, dtype="float64") /* ty=Tensor[(4, 12, 1), float64] */;
  %618 = dyn.reshape(%615, %616, newshape=[]) /* ty=Tensor[(?, ?, ?), float64] */;
  %619 = cast(%var_6705, dtype="int32") /* ty=Tensor[(672), int32] */;
  %620 = cast(meta[relay.Constant][51] /* ty=Tensor[(72), float32] */, dtype="float32") /* ty=Tensor[(72), float32] */;
  %621 = reshape(%619, newshape=[16, 7, 6]) /* ty=Tensor[(16, 7, 6), int32] */;
  %622 = reshape(%620, newshape=[1, 72]) /* ty=Tensor[(1, 72), float32] */;
  %623 = @func_1473(%621, %622) /* ty=(Tensor[(16, 7, 6), int16], Tensor[(?, 72), bool]) */;
  %624 = @func_2906() /* ty=(Tensor[(11, 9, 9), float64],) */;
  %625 = @func_6030() /* ty=(Tensor[(11, 9, 9), float64], Tensor[(11, 9, 9), float64], Tensor[(11, 9, 9), float64]) */;
  %626 = @func_6353() /* ty=(Tensor[(11, 9, 9), float64],) */;
  %627 = equal(%611, %612) /* ty=Tensor[(4, 12, ?), bool] */;
  %628 = power(%617, %618) /* ty=Tensor[(4, 12, ?), float64] */;
  %629 = %623.0;
  %630 = %624.0;
  %631 = %625.1;
  %632 = %626.0;
  (%627, %628, %629, %var_6705, meta[relay.Constant][51] /* ty=Tensor[(72), float32] */, %630, %631, %632)
}

def @main(%var_7787: Tensor[(15, 16, 7), float64]) -> (Tensor[(15, 16, 7), float64],) {
  %633 = cast(%var_7787, dtype="float64") /* ty=Tensor[(15, 16, 7), float64] */;
  %634 = asin(%633) /* ty=Tensor[(15, 16, 7), float64] */;
  (%634,)
}

def @func_1194(%var_1165: Tensor[(1274), bool], %var_1174: Tensor[(72), float32]) -> (Tensor[(13, 9, 11), float32], Tensor[(11, 7, 2), float64], Tensor[(1274), bool], Tensor[(144), float64], Tensor[(4, 6, 3), int8], Tensor[(72), float32], Tensor[(4, 6, 3), float32], Tensor[(11, 7, 2), float64], Tensor[(2160), float64]) {
  %635 = cast(meta[relay.Constant][52] /* ty=Tensor[(13, 9, 11), float32] */, dtype="float32") /* ty=Tensor[(13, 9, 11), float32] */;
  %636 = cast(%var_1165, dtype="bool") /* ty=Tensor[(1274), bool] */;
  %637 = cast(meta[relay.Constant][53] /* ty=Tensor[(144), float64] */, dtype="float64") /* ty=Tensor[(144), float64] */;
  %638 = reshape(%636, newshape=[1274]) /* ty=Tensor[(1274), bool] */;
  %639 = reshape(%637, newshape=[144]) /* ty=Tensor[(144), float64] */;
  %640 = @func_852(%638, %639) /* ty=(Tensor[(2, 1, 5), float64], Tensor[(7, 14, 13), bool], Tensor[(1274), bool], Tensor[(2, 1, 5), float64], Tensor[(11, 7, 2), float64], Tensor[(144), float64], Tensor[(60, 36), float64], Tensor[(11, 7, 2), float64]) */;
  %641 = cast(%var_1174, dtype="float32") /* ty=Tensor[(72), float32] */;
  %642 = reshape(%641, newshape=[4, 6, 3]) /* ty=Tensor[(4, 6, 3), float32] */;
  %643 = @func_735(%642) /* ty=(Tensor[(4, 6, 3), int8], Tensor[(4, 6, 3), float32]) */;
  %644 = %643.0;
  %645 = cast(%644, dtype="float32") /* ty=Tensor[(4, 6, 3), float32] */;
  %646 = reshape(%645, newshape=[4, 6, 3]) /* ty=Tensor[(4, 6, 3), float32] */;
  %647 = @func_735(%646) /* ty=(Tensor[(4, 6, 3), int8], Tensor[(4, 6, 3), float32]) */;
  %648 = cast(meta[relay.Constant][53] /* ty=Tensor[(144), float64] */, dtype="float64") /* ty=Tensor[(144), float64] */;
  %649 = cast(meta[relay.Constant][54] /* ty=Tensor[(2160), float64] */, dtype="float64") /* ty=Tensor[(2160), float64] */;
  %650 = reshape(%648, newshape=[16, 9, 1]) /* ty=Tensor[(16, 9, 1), float64] */;
  %651 = reshape(%649, newshape=[16, 9, 15]) /* ty=Tensor[(16, 9, 15), float64] */;
  %652 = @func_789(%650, %651) /* ty=(Tensor[(16, 9, 15), float64], Tensor[(11, 7, 2), float64], Tensor[(154), int32]) */;
  %653 = atan(%635) /* ty=Tensor[(13, 9, 11), float32] */;
  %654 = %640.7;
  %655 = %647.1;
  %656 = %652.1;
  (%653, %654, %var_1165, meta[relay.Constant][53] /* ty=Tensor[(144), float64] */, %644, %var_1174, %655, %656, meta[relay.Constant][54] /* ty=Tensor[(2160), float64] */)
}

def @func_7583() -> Tensor[(11, 9, 9), float64] {
  %657 = @func_7380() /* ty=(Tensor[(11, 9, 9), float64],) */;
  %657.0
}

def @func_1501(%var_1491: Tensor[(1, 15, 14), float32]) -> Tensor[(1, 15, 14), float32] {
  %658 = cast(%var_1491, dtype="float32") /* ty=Tensor[(1, 15, 14), float32] */;
  sigmoid(%658) /* ty=Tensor[(1, 15, 14), float32] */
}

def @func_5806() -> (Tensor[(11, 9, 9), float64], Tensor[(11, 9, 9), float64]) {
  %659 = @func_4786() /* ty=(Tensor[(11, 9, 9), float64],) */;
  %660 = @func_3195() /* ty=(Tensor[(11, 9, 9), float64],) */;
  %661 = %659.0;
  %662 = %660.0;
  (%661, %662)
}

def @func_6030() -> (Tensor[(11, 9, 9), float64], Tensor[(11, 9, 9), float64], Tensor[(11, 9, 9), float64]) {
  %663 = @func_5882() /* ty=(Tensor[(11, 9, 9), float64], Tensor[(11, 9, 9), int64]) */;
  %664 = %663.0;
  %665 = cast(%664, dtype="float64") /* ty=Tensor[(11, 9, 9), float64] */;
  %666 = @func_3790() /* ty=(Tensor[(11, 9, 9), float64],) */;
  %667 = cast(%664, dtype="float64") /* ty=Tensor[(11, 9, 9), float64] */;
  %668 = sqrt(%665) /* ty=Tensor[(11, 9, 9), float64] */;
  %669 = %666.0;
  %670 = cosh(%667) /* ty=Tensor[(11, 9, 9), float64] */;
  (%668, %669, %670)
}

def @func_4277(%var_4212: Tensor[(468), int16], %var_4216: Tensor[(11, 9, 9), float64], %var_4236: Tensor[(1440), uint32], %var_4238: Tensor[(132), float32], %var_4239: Tensor[(60, 36), float64]) -> (Tensor[(11, 9, 9), int16], Tensor[(3, 4, 11), bool], Tensor[(1440), uint32], Tensor[(52), uint16], Tensor[(60, 36), float64], Tensor[(210, 132), int64], Tensor[(3, 4, 11), float64], Tensor[(1274, 1), bool], Tensor[(468), int64]) {
  %671 = @func_3079() /* ty=(Tensor[(11, 9, 9), float64],) */;
  %672 = %671.0;
  %673 = cast(%var_4216, dtype="int16") /* ty=Tensor[(11, 9, 9), int16] */;
  %674 = shape_of(%672, dtype="int32") /* ty=Tensor[(3), int32] */;
  %675 = cast(%672, dtype="int16") /* ty=Tensor[(11, 9, 9), int16] */;
  %676 = dyn.reshape(%673, %674, newshape=[]) /* ty=Tensor[(?, ?, ?), int16] */;
  %677 = bitwise_or(%675, %676) /* ty=Tensor[(11, 9, 9), int16] */;
  %678 = cast(%677, dtype="float64") /* ty=Tensor[(11, 9, 9), float64] */;
  %679 = cast(%var_4236, dtype="uint32") /* ty=Tensor[(1440), uint32] */;
  %680 = cast(meta[relay.Constant][55] /* ty=Tensor[(52), uint16] */, dtype="uint16") /* ty=Tensor[(52), uint16] */;
  %681 = cast(%var_4238, dtype="float32") /* ty=Tensor[(132), float32] */;
  %682 = cast(%var_4239, dtype="float64") /* ty=Tensor[(60, 36), float64] */;
  %683 = reshape(%678, newshape=[11, 9, 9]) /* ty=Tensor[(11, 9, 9), float64] */;
  %684 = reshape(%679, newshape=[60, 24]) /* ty=Tensor[(60, 24), uint32] */;
  %685 = reshape(%680, newshape=[52]) /* ty=Tensor[(52), uint16] */;
  %686 = reshape(%681, newshape=[132]) /* ty=Tensor[(132), float32] */;
  %687 = reshape(%682, newshape=[2160]) /* ty=Tensor[(2160), float64] */;
  %688 = @func_3031(%683, %684, %685, %686, %687) /* ty=(Tensor[(16, 15, 6), bool], Tensor[(11, 9, 9), int64], Tensor[(60, 24), uint32], uint16, Tensor[(52), uint16], Tensor[(3, 4, 11), bool], Tensor[(3, 4, 11), bool], Tensor[(16, 9, 15), float64], Tensor[(24, 6), float64], Tensor[(2160), float64]) */;
  %689 = @func_3711() /* ty=(Tensor[(11, 9, 9), float64], Tensor[(1, 15, 14), float32], Tensor[(210, 1), float32]) */;
  %690 = %689.2;
  %691 = cast(%var_4238, dtype="int64") /* ty=Tensor[(132), int64] */;
  %692 = cast(%690, dtype="int64") /* ty=Tensor[(210, 1), int64] */;
  %693 = cast(%var_4238, dtype="float32") /* ty=Tensor[(132), float32] */;
  %694 = cast(meta[relay.Constant][56] /* ty=Tensor[(1274, 1), bool] */, dtype="bool") /* ty=Tensor[(1274, 1), bool] */;
  %695 = reshape(%693, newshape=[3, 4, 11]) /* ty=Tensor[(3, 4, 11), float32] */;
  %696 = reshape(%694, newshape=[1274]) /* ty=Tensor[(1274), bool] */;
  %697 = @func_292(%695, %696) /* ty=(Tensor[(3, 4, 11), float64], Tensor[(3, 4, 11), float64], Tensor[(7, 14, 13), bool], Tensor[(1274), bool]) */;
  %698 = cast(%var_4212, dtype="int16") /* ty=Tensor[(468), int16] */;
  %699 = cast(%var_4212, dtype="int16") /* ty=Tensor[(468), int16] */;
  %700 = reshape(%698, newshape=[3, 13, 12]) /* ty=Tensor[(3, 13, 12), int16] */;
  %701 = reshape(%699, newshape=[3, 13, 12]) /* ty=Tensor[(3, 13, 12), int16] */;
  %702 = @func_2754(%700, %701) /* ty=Tensor[(3, 13, 12), int16] */;
  %703 = cast(%702, dtype="int64") /* ty=Tensor[(3, 13, 12), int64] */;
  %704 = shape_of(%var_4212, dtype="int32") /* ty=Tensor[(1), int32] */;
  %705 = cast(%var_4212, dtype="int64") /* ty=Tensor[(468), int64] */;
  %706 = dyn.reshape(%703, %704, newshape=[]) /* ty=Tensor[(?), int64] */;
  %707 = %688.6;
  %708 = bitwise_and(%691, %692) /* ty=Tensor[(210, 132), int64] */;
  %709 = %697.1;
  %710 = left_shift(%705, %706) /* ty=Tensor[(468), int64] */;
  (%677, %707, %var_4236, meta[relay.Constant][55] /* ty=Tensor[(52), uint16] */, %var_4239, %708, %709, meta[relay.Constant][56] /* ty=Tensor[(1274, 1), bool] */, %710)
}

def @func_6875(%var_6837: Tensor[(1274), bool]) -> (Tensor[(891), int64], Tensor[(132), float32], Tensor[(1274), bool]) {
  %711 = @func_2844() /* ty=(Tensor[(9, 4, 9), float64], Tensor[(11, 9, 9), int64], Tensor[(891), int64]) */;
  %712 = cast(%var_6837, dtype="bool") /* ty=Tensor[(1274), bool] */;
  %713 = reshape(%712, newshape=[1274]) /* ty=Tensor[(1274), bool] */;
  %714 = @func_6513(%713) /* ty=(Tensor[(11, 9, 9), float64], Tensor[(132), float32], Tensor[(132), float32], Tensor[(1274), bool]) */;
  %715 = %711.2;
  %716 = %714.2;
  (%715, %716, %var_6837)
}

def @func_4534() -> (Tensor[(11, 9, 9), float64],) {
  %717 = @func_2906() /* ty=(Tensor[(11, 9, 9), float64],) */;
  %718 = %717.0;
  (%718,)
}

def @func_6346() -> (Tensor[(11, 9, 9), float64], Tensor[(11, 9, 9), float64]) {
  %719 = @func_4018() /* ty=(Tensor[(11, 9, 9), float64], Tensor[(11, 14, 9), bool], Tensor[(1386), int16], Tensor[(672), int32], Tensor[(11, 9, 9), float64]) */;
  %720 = %719.4;
  %721 = @func_3548() /* ty=Tensor[(11, 9, 9), float64] */;
  (%720, %721)
}

def @func_5521(%var_5506: Tensor[(1274), bool], %var_5507: Tensor[(1, 1386), int16], %var_5508: Tensor[(672), int32]) -> (Tensor[(11, 9, 9), float64], Tensor[(11, 9, 9), float64], Tensor[(11, 9, 9), float64], Tensor[(4, 1, 3), float64], Tensor[(1274), bool], Tensor[(1, 1386), int16], Tensor[(672), int32]) {
  %722 = @func_4786() /* ty=(Tensor[(11, 9, 9), float64],) */;
  %723 = @func_3583() /* ty=(Tensor[(11, 9, 9), float64],) */;
  %724 = @func_2906() /* ty=(Tensor[(11, 9, 9), float64],) */;
  %725 = cast(%var_5506, dtype="bool") /* ty=Tensor[(1274), bool] */;
  %726 = cast(%var_5507, dtype="int16") /* ty=Tensor[(1, 1386), int16] */;
  %727 = cast(%var_5508, dtype="int32") /* ty=Tensor[(672), int32] */;
  %728 = reshape(%725, newshape=[1274]) /* ty=Tensor[(1274), bool] */;
  %729 = reshape(%726, newshape=[1386]) /* ty=Tensor[(1386), int16] */;
  %730 = reshape(%727, newshape=[672]) /* ty=Tensor[(672), int32] */;
  %731 = @func_3385(%728, %729, %730) /* ty=(Tensor[(11, 9, 9), float64], Tensor[(7, 14, 13), bool], Tensor[(1274), bool], Tensor[(72), float32], Tensor[(1386), int16], Tensor[(672), int32], Tensor[(4, 1, 3), float64], Tensor[(12), float32]) */;
  %732 = %722.0;
  %733 = %723.0;
  %734 = %724.0;
  %735 = %731.6;
  (%732, %733, %734, %735, %var_5506, %var_5507, %var_5508)
}

def @func_1341(%var_1311: Tensor[(16, 15, 6), uint32], %var_1312: Tensor[(16, 15, 6), uint32]) -> (Tensor[(16, 15, 6), bool],) {
  %736 = cast(%var_1312, dtype="bool") /* ty=Tensor[(16, 15, 6), bool] */;
  %737 = shape_of(%var_1311, dtype="int32") /* ty=Tensor[(3), int32] */;
  %738 = cast(%var_1311, dtype="bool") /* ty=Tensor[(16, 15, 6), bool] */;
  %739 = dyn.reshape(%736, %737, newshape=[]) /* ty=Tensor[(?, ?, ?), bool] */;
  %740 = not_equal(%738, %739) /* ty=Tensor[(16, 15, 6), bool] */;
  (%740,)
}

def @func_5937(%var_5927: Tensor[(1, 1274), bool]) -> (Tensor[(11, 9, 9), float64], Tensor[(144), float64], Tensor[(1, 1274), bool], Tensor[(18, 4), float32]) {
  %741 = @func_4473() /* ty=(Tensor[(11, 9, 9), float64],) */;
  %742 = cast(%var_5927, dtype="bool") /* ty=Tensor[(1, 1274), bool] */;
  %743 = cast(meta[relay.Constant][57] /* ty=Tensor[(18, 4), float32] */, dtype="float32") /* ty=Tensor[(18, 4), float32] */;
  %744 = reshape(%742, newshape=[1274]) /* ty=Tensor[(1274), bool] */;
  %745 = reshape(%743, newshape=[72]) /* ty=Tensor[(72), float32] */;
  %746 = @func_1194(%744, %745) /* ty=(Tensor[(13, 9, 11), float32], Tensor[(11, 7, 2), float64], Tensor[(1274), bool], Tensor[(144), float64], Tensor[(4, 6, 3), int8], Tensor[(72), float32], Tensor[(4, 6, 3), float32], Tensor[(11, 7, 2), float64], Tensor[(2160), float64]) */;
  %747 = %741.0;
  %748 = %746.3;
  (%747, %748, %var_5927, meta[relay.Constant][57] /* ty=Tensor[(18, 4), float32] */)
}

def @func_735(%var_717: Tensor[(4, 6, 3), float32]) -> (Tensor[(4, 6, 3), int8], Tensor[(4, 6, 3), float32]) {
  %749 = cast(%var_717, dtype="float32") /* ty=Tensor[(4, 6, 3), float32] */;
  %750 = sinh(%749) /* ty=Tensor[(4, 6, 3), float32] */;
  %751 = cast(%750, dtype="int8") /* ty=Tensor[(4, 6, 3), int8] */;
  %752 = shape_of(%var_717, dtype="int32") /* ty=Tensor[(3), int32] */;
  %753 = cast(%var_717, dtype="int8") /* ty=Tensor[(4, 6, 3), int8] */;
  %754 = dyn.reshape(%751, %752, newshape=[]) /* ty=Tensor[(?, ?, ?), int8] */;
  %755 = cast(%750, dtype="float32") /* ty=Tensor[(4, 6, 3), float32] */;
  %756 = bitwise_xor(%753, %754) /* ty=Tensor[(4, 6, 3), int8] */;
  %757 = acos(%755) /* ty=Tensor[(4, 6, 3), float32] */;
  (%756, %757)
}

def @func_4637(%var_4620: Tensor[(8, 8, 1), int32], %var_4633: Tensor[(8, 8, 5), float64]) -> (Tensor[(8, 8, 5), bool], Tensor[(8, 8, 5), bool]) {
  %758 = cast(%var_4620, dtype="bool") /* ty=Tensor[(8, 8, 1), bool] */;
  %759 = cast(meta[relay.Constant][58] /* ty=Tensor[(8, 8, 5), int32] */, dtype="bool") /* ty=Tensor[(8, 8, 5), bool] */;
  %760 = cast(meta[relay.Constant][58] /* ty=Tensor[(8, 8, 5), int32] */, dtype="float64") /* ty=Tensor[(8, 8, 5), float64] */;
  %761 = log(%760) /* ty=Tensor[(8, 8, 5), float64] */;
  %762 = cast(%var_4633, dtype="bool") /* ty=Tensor[(8, 8, 5), bool] */;
  %763 = shape_of(%761, dtype="int32") /* ty=Tensor[(3), int32] */;
  %764 = cast(%761, dtype="bool") /* ty=Tensor[(8, 8, 5), bool] */;
  %765 = dyn.reshape(%762, %763, newshape=[]) /* ty=Tensor[(?, ?, ?), bool] */;
  %766 = equal(%758, %759) /* ty=Tensor[(8, 8, 5), bool] */;
  %767 = logical_and(%764, %765) /* ty=Tensor[(8, 8, 5), bool] */;
  (%766, %767)
}

def @func_7494() -> (Tensor[(11, 9, 9), float64],) {
  %768 = @func_7358() /* ty=(Tensor[(11, 9, 9), float64],) */;
  %769 = %768.0;
  (%769,)
}

def @func_3611() -> Tensor[(11, 9, 9), float64] {
  @func_3548() /* ty=Tensor[(11, 9, 9), float64] */
}

def @func_4027() -> (Tensor[(11, 9, 9), float64],) {
  %770 = @func_3195() /* ty=(Tensor[(11, 9, 9), float64],) */;
  %771 = %770.0;
  (%771,)
}

def @func_5456(%var_5451: Tensor[(132), float32], %var_5452: Tensor[(1274), bool]) -> (Tensor[(210, 1), float32], Tensor[(1274), bool], Tensor[(132), float32], Tensor[(1274), bool]) {
  %772 = @func_3711() /* ty=(Tensor[(11, 9, 9), float64], Tensor[(1, 15, 14), float32], Tensor[(210, 1), float32]) */;
  %773 = cast(%var_5451, dtype="float32") /* ty=Tensor[(132), float32] */;
  %774 = cast(%var_5452, dtype="bool") /* ty=Tensor[(1274), bool] */;
  %775 = reshape(%773, newshape=[3, 4, 11]) /* ty=Tensor[(3, 4, 11), float32] */;
  %776 = reshape(%774, newshape=[1274]) /* ty=Tensor[(1274), bool] */;
  %777 = @func_292(%775, %776) /* ty=(Tensor[(3, 4, 11), float64], Tensor[(3, 4, 11), float64], Tensor[(7, 14, 13), bool], Tensor[(1274), bool]) */;
  %778 = %772.2;
  %779 = %777.3;
  (%778, %779, %var_5451, %var_5452)
}

def @func_2942() -> (Tensor[(11, 9, 9), float64],) {
  %780 = @func_2906() /* ty=(Tensor[(11, 9, 9), float64],) */;
  %781 = %780.0;
  %782 = cast(%781, dtype="float64") /* ty=Tensor[(11, 9, 9), float64] */;
  %783 = log10(%782) /* ty=Tensor[(11, 9, 9), float64] */;
  (%783,)
}

def @func_5129(%var_5092: int32, %var_5093: Tensor[(4, 14, 8), int32]) -> (Tensor[(4, 14, 8), float32], Tensor[(9, 4, 9), float64], Tensor[(4, 14, 8), uint16]) {
  %784 = cast(%var_5092, dtype="float32") /* ty=float32 */;
  %785 = cast(%var_5093, dtype="float32") /* ty=Tensor[(4, 14, 8), float32] */;
  %786 = cast(%var_5092, dtype="int32") /* ty=int32 */;
  %787 = cast(%var_5093, dtype="int32") /* ty=Tensor[(4, 14, 8), int32] */;
  %788 = bitwise_or(%786, %787) /* ty=Tensor[(4, 14, 8), int32] */;
  %789 = cast(%var_5093, dtype="uint16") /* ty=Tensor[(4, 14, 8), uint16] */;
  %790 = shape_of(%788, dtype="int32") /* ty=Tensor[(3), int32] */;
  %791 = cast(%788, dtype="uint16") /* ty=Tensor[(4, 14, 8), uint16] */;
  %792 = dyn.reshape(%789, %790, newshape=[]) /* ty=Tensor[(?, ?, ?), uint16] */;
  %793 = divide(%784, %785) /* ty=Tensor[(4, 14, 8), float32] */;
  %794 = @func_4960() /* ty=Tensor[(9, 4, 9), float64] */;
  %795 = bitwise_xor(%791, %792) /* ty=Tensor[(4, 14, 8), uint16] */;
  (%793, %794, %795)
}

def @func_2906() -> (Tensor[(11, 9, 9), float64],) {
  %796 = @func_2844() /* ty=(Tensor[(9, 4, 9), float64], Tensor[(11, 9, 9), int64], Tensor[(891), int64]) */;
  %797 = %796.1;
  %798 = cast(meta[relay.Constant][59] /* ty=Tensor[(11, 9, 9), int64] */, dtype="float64") /* ty=Tensor[(11, 9, 9), float64] */;
  %799 = shape_of(%797, dtype="int32") /* ty=Tensor[(3), int32] */;
  %800 = cast(%797, dtype="float64") /* ty=Tensor[(11, 9, 9), float64] */;
  %801 = dyn.reshape(%798, %799, newshape=[]) /* ty=Tensor[(?, ?, ?), float64] */;
  %802 = multiply(%800, %801) /* ty=Tensor[(11, 9, 9), float64] */;
  (%802,)
}

def @func_292(%var_251: Tensor[(3, 4, 11), float32], %var_289: Tensor[(1274), bool]) -> (Tensor[(3, 4, 11), float64], Tensor[(3, 4, 11), float64], Tensor[(7, 14, 13), bool], Tensor[(1274), bool]) {
  %803 = cast(%var_251, dtype="float32") /* ty=Tensor[(3, 4, 11), float32] */;
  %804 = tan(%803) /* ty=Tensor[(3, 4, 11), float32] */;
  %805 = cast(%804, dtype="float64") /* ty=Tensor[(3, 4, 11), float64] */;
  %806 = cast(%var_251, dtype="float64") /* ty=Tensor[(3, 4, 11), float64] */;
  %807 = cast(%var_289, dtype="bool") /* ty=Tensor[(1274), bool] */;
  %808 = cast(%var_289, dtype="bool") /* ty=Tensor[(1274), bool] */;
  %809 = reshape(%807, newshape=[7, 14, 13]) /* ty=Tensor[(7, 14, 13), bool] */;
  %810 = reshape(%808, newshape=[7, 14, 13]) /* ty=Tensor[(7, 14, 13), bool] */;
  %811 = erf(%805) /* ty=Tensor[(3, 4, 11), float64] */;
  %812 = asinh(%806) /* ty=Tensor[(3, 4, 11), float64] */;
  %813 = @func_169(%809, %810) /* ty=Tensor[(7, 14, 13), bool] */;
  (%811, %812, %813, %var_289)
}

def @func_5703(%var_5686: Tensor[(16, 12, 10), float32]) -> (Tensor[(16, 12, 10), float32], Tensor[(11, 9, 9), float64]) {
  %814 = cast(%var_5686, dtype="float32") /* ty=Tensor[(16, 12, 10), float32] */;
  %815 = acos(%814) /* ty=Tensor[(16, 12, 10), float32] */;
  %816 = @func_3548() /* ty=Tensor[(11, 9, 9), float64] */;
  (%815, %816)
}

def @func_7003() -> (Tensor[(420), float32], Tensor[(11, 9, 9), float64], Tensor[(11, 7, 2), float64], Tensor[(154), int32]) {
  %817 = @func_5312() /* ty=(Tensor[(11, 9, 9), float64], Tensor[(15, 14, 2), float32], Tensor[(420), float32]) */;
  %818 = cast(meta[relay.Constant][60] /* ty=Tensor[(154), int32] */, dtype="int32") /* ty=Tensor[(154), int32] */;
  %819 = reshape(%818, newshape=[11, 7, 2]) /* ty=Tensor[(11, 7, 2), int32] */;
  %820 = @func_27(%819) /* ty=(Tensor[(11, 7, 2), float64],) */;
  %821 = %817.2;
  %822 = @func_6270() /* ty=Tensor[(11, 9, 9), float64] */;
  %823 = %820.0;
  (%821, %822, %823, meta[relay.Constant][60] /* ty=Tensor[(154), int32] */)
}

def @func_3790() -> (Tensor[(11, 9, 9), float64],) {
  %824 = @func_3079() /* ty=(Tensor[(11, 9, 9), float64],) */;
  %825 = %824.0;
  (%825,)
}

def @func_4786() -> (Tensor[(11, 9, 9), float64],) {
  %826 = @func_3611() /* ty=Tensor[(11, 9, 9), float64] */;
  (%826,)
}

def @func_3434(%var_3420: Tensor[(792), float32], %var_3421: Tensor[(6, 2), float32], %var_3422: Tensor[(1274), bool]) -> (Tensor[(11, 9, 9), float64], Tensor[(11, 7, 2), float64], Tensor[(144), float64], Tensor[(2160), float64], Tensor[(1, 12), float32], Tensor[(792), float32], Tensor[(6, 2), float32], Tensor[(1274), bool]) {
  %827 = @func_3079() /* ty=(Tensor[(11, 9, 9), float64],) */;
  %828 = cast(meta[relay.Constant][61] /* ty=Tensor[(144), float64] */, dtype="float64") /* ty=Tensor[(144), float64] */;
  %829 = cast(meta[relay.Constant][62] /* ty=Tensor[(2160), float64] */, dtype="float64") /* ty=Tensor[(2160), float64] */;
  %830 = reshape(%828, newshape=[16, 9, 1]) /* ty=Tensor[(16, 9, 1), float64] */;
  %831 = reshape(%829, newshape=[16, 9, 15]) /* ty=Tensor[(16, 9, 15), float64] */;
  %832 = @func_789(%830, %831) /* ty=(Tensor[(16, 9, 15), float64], Tensor[(11, 7, 2), float64], Tensor[(154), int32]) */;
  %833 = cast(%var_3420, dtype="float32") /* ty=Tensor[(792), float32] */;
  %834 = cast(meta[relay.Constant][62] /* ty=Tensor[(2160), float64] */, dtype="float64") /* ty=Tensor[(2160), float64] */;
  %835 = cast(%var_3421, dtype="float32") /* ty=Tensor[(6, 2), float32] */;
  %836 = cast(%var_3422, dtype="bool") /* ty=Tensor[(1274), bool] */;
  %837 = reshape(%833, newshape=[8, 9, 11]) /* ty=Tensor[(8, 9, 11), float32] */;
  %838 = reshape(%834, newshape=[2160]) /* ty=Tensor[(2160), float64] */;
  %839 = reshape(%835, newshape=[1, 12]) /* ty=Tensor[(1, 12), float32] */;
  %840 = reshape(%836, newshape=[1274]) /* ty=Tensor[(1274), bool] */;
  %841 = @func_2637(%837, %838, %839, %840) /* ty=(Tensor[(16, 9, 15), float64], Tensor[(1, 144), float64], Tensor[(2160), float64], Tensor[(8, 9, 11), uint32], Tensor[(8, 9, 11), float64], Tensor[(12), float32], Tensor[(1584), float32], Tensor[(1, 12), float32], Tensor[(11, 7, 2), float64], Tensor[(1274), bool], Tensor[(11, 7, 2), float64]) */;
  %842 = %827.0;
  %843 = %832.1;
  %844 = %841.7;
  (%842, %843, meta[relay.Constant][61] /* ty=Tensor[(144), float64] */, meta[relay.Constant][62] /* ty=Tensor[(2160), float64] */, %844, %var_3420, %var_3421, %var_3422)
}

def @func_6821(%var_6773: Tensor[(8, 1, 10), float64]) -> (Tensor[(8, ?, 10), float32], Tensor[(8, ?, 10), bool], Tensor[(11, 9, 9), float64]) {
  %845 = cast(%var_6773, dtype="float64") /* ty=Tensor[(8, 1, 10), float64] */;
  %846 = cos(%845) /* ty=Tensor[(8, 1, 10), float64] */;
  %847 = cast(%846, dtype="float32") /* ty=Tensor[(8, 1, 10), float32] */;
  %848 = shape_of(%var_6773, dtype="int32") /* ty=Tensor[(3), int32] */;
  %849 = cast(%var_6773, dtype="float32") /* ty=Tensor[(8, 1, 10), float32] */;
  %850 = dyn.reshape(%847, %848, newshape=[]) /* ty=Tensor[(?, ?, ?), float32] */;
  %851 = cast(%var_6773, dtype="float32") /* ty=Tensor[(8, 1, 10), float32] */;
  %852 = rsqrt(%851) /* ty=Tensor[(8, 1, 10), float32] */;
  %853 = cast(%852, dtype="bool") /* ty=Tensor[(8, 1, 10), bool] */;
  %854 = shape_of(%846, dtype="int32") /* ty=Tensor[(3), int32] */;
  %855 = cast(%846, dtype="bool") /* ty=Tensor[(8, 1, 10), bool] */;
  %856 = dyn.reshape(%853, %854, newshape=[]) /* ty=Tensor[(?, ?, ?), bool] */;
  %857 = @func_4027() /* ty=(Tensor[(11, 9, 9), float64],) */;
  %858 = divide(%849, %850) /* ty=Tensor[(8, ?, 10), float32] */;
  %859 = greater(%855, %856) /* ty=Tensor[(8, ?, 10), bool] */;
  %860 = %857.0;
  (%858, %859, %860)
}

def @func_6086() -> (Tensor[(9, 4, 9), float64], Tensor[(210, 1), float32]) {
  %861 = @func_5417() /* ty=(Tensor[(9, 4, 9), float64], Tensor[(1584), float32], Tensor[(12), float32], Tensor[(11, 9, 9), float64], Tensor[(9, 11, 16), bool]) */;
  %862 = @func_3711() /* ty=(Tensor[(11, 9, 9), float64], Tensor[(1, 15, 14), float32], Tensor[(210, 1), float32]) */;
  %863 = %861.0;
  %864 = %862.2;
  (%863, %864)
}

def @func_169(%var_160: Tensor[(7, 14, 13), bool], %var_161: Tensor[(7, 14, 13), bool]) -> Tensor[(7, 14, 13), bool] {
  %865 = cast(%var_161, dtype="bool") /* ty=Tensor[(7, 14, 13), bool] */;
  %866 = shape_of(%var_160, dtype="int32") /* ty=Tensor[(3), int32] */;
  %867 = cast(%var_160, dtype="bool") /* ty=Tensor[(7, 14, 13), bool] */;
  %868 = dyn.reshape(%865, %866, newshape=[]) /* ty=Tensor[(?, ?, ?), bool] */;
  logical_and(%867, %868) /* ty=Tensor[(7, 14, 13), bool] */
}

def @func_7725() -> (Tensor[(11, 9, 9), float64],) {
  %869 = @func_7219() /* ty=Tensor[(11, 9, 9), float64] */;
  (%869,)
}

def @func_6929() -> (Tensor[(11, 9, 9), float64],) {
  %870 = @func_3583() /* ty=(Tensor[(11, 9, 9), float64],) */;
  %871 = %870.0;
  (%871,)
}

def @func_7219() -> Tensor[(11, 9, 9), float64] {
  @func_3611() /* ty=Tensor[(11, 9, 9), float64] */
}

def @func_3079() -> (Tensor[(11, 9, 9), float64],) {
  %872 = @func_2906() /* ty=(Tensor[(11, 9, 9), float64],) */;
  %873 = %872.0;
  %874 = cast(%873, dtype="float64") /* ty=Tensor[(11, 9, 9), float64] */;
  %875 = acos(%874) /* ty=Tensor[(11, 9, 9), float64] */;
  (%875,)
}

def @func_4960() -> Tensor[(9, 4, 9), float64] {
  %876 = @func_3206() /* ty=(Tensor[(9, 4, 9), float64],) */;
  %876.0
}

def @func_1473(%var_1447: Tensor[(16, 7, 6), int32], %var_1465: Tensor[(1, 72), float32]) -> (Tensor[(16, 7, 6), int16], Tensor[(?, 72), bool]) {
  %877 = cast(%var_1447, dtype="int32") /* ty=Tensor[(16, 7, 6), int32] */;
  %878 = shape_of(meta[relay.Constant][63] /* ty=Tensor[(16, 7, 6), int32] */, dtype="int32") /* ty=Tensor[(3), int32] */;
  %879 = cast(meta[relay.Constant][63] /* ty=Tensor[(16, 7, 6), int32] */, dtype="int32") /* ty=Tensor[(16, 7, 6), int32] */;
  %880 = dyn.reshape(%877, %878, newshape=[]) /* ty=Tensor[(?, ?, ?), int32] */;
  %881 = minimum(%879, %880) /* ty=Tensor[(16, 7, 6), int32] */;
  %882 = cast(meta[relay.Constant][63] /* ty=Tensor[(16, 7, 6), int32] */, dtype="int16") /* ty=Tensor[(16, 7, 6), int16] */;
  %883 = shape_of(%881, dtype="int32") /* ty=Tensor[(3), int32] */;
  %884 = cast(%881, dtype="int16") /* ty=Tensor[(16, 7, 6), int16] */;
  %885 = dyn.reshape(%882, %883, newshape=[]) /* ty=Tensor[(?, ?, ?), int16] */;
  %886 = cast(%var_1465, dtype="float32") /* ty=Tensor[(1, 72), float32] */;
  %887 = reshape(%886, newshape=[4, 6, 3]) /* ty=Tensor[(4, 6, 3), float32] */;
  %888 = @func_735(%887) /* ty=(Tensor[(4, 6, 3), int8], Tensor[(4, 6, 3), float32]) */;
  %889 = %888.0;
  %890 = cast(%889, dtype="bool") /* ty=Tensor[(4, 6, 3), bool] */;
  %891 = shape_of(%var_1465, dtype="int32") /* ty=Tensor[(2), int32] */;
  %892 = cast(%var_1465, dtype="bool") /* ty=Tensor[(1, 72), bool] */;
  %893 = dyn.reshape(%890, %891, newshape=[]) /* ty=Tensor[(?, ?), bool] */;
  %894 = right_shift(%884, %885) /* ty=Tensor[(16, 7, 6), int16] */;
  %895 = logical_and(%892, %893) /* ty=Tensor[(?, 72), bool] */;
  (%894, %895)
}

def @func_6760(%var_6751: Tensor[(3, 10, 14), float32]) -> (Tensor[(3, 10, 14), float32],) {
  %896 = cast(%var_6751, dtype="float32") /* ty=Tensor[(3, 10, 14), float32] */;
  %897 = acos(%896) /* ty=Tensor[(3, 10, 14), float32] */;
  (%897,)
}

def @func_2148(%var_2110: Tensor[(9, 11, 16), float32], %var_2111: Tensor[(9, 11, 16), float32], %var_2139: Tensor[(12), float32]) -> (Tensor[(9, 11, 16), float64], Tensor[(4, 1, 3), float64], Tensor[(12), float32]) {
  %898 = cast(%var_2111, dtype="float32") /* ty=Tensor[(9, 11, 16), float32] */;
  %899 = shape_of(%var_2110, dtype="int32") /* ty=Tensor[(3), int32] */;
  %900 = cast(%var_2110, dtype="float32") /* ty=Tensor[(9, 11, 16), float32] */;
  %901 = dyn.reshape(%898, %899, newshape=[]) /* ty=Tensor[(?, ?, ?), float32] */;
  %902 = minimum(%900, %901) /* ty=Tensor[(9, 11, 16), float32] */;
  %903 = cast(%902, dtype="float64") /* ty=Tensor[(9, 11, 16), float64] */;
  %904 = cast(%var_2139, dtype="float32") /* ty=Tensor[(12), float32] */;
  %905 = reshape(%904, newshape=[4, 1, 3]) /* ty=Tensor[(4, 1, 3), float32] */;
  %906 = @func_1232(%905) /* ty=(Tensor[(4, 1, 3), float64],) */;
  %907 = asinh(%903) /* ty=Tensor[(9, 11, 16), float64] */;
  %908 = %906.0;
  (%907, %908, %var_2139)
}

def @func_7110() -> (Tensor[(2, 9, 1), bool], Tensor[(9, 4, 9), bool], Tensor[(8, 8, 5), bool], Tensor[(64), int32], Tensor[(8, 40), float64]) {
  %909 = cast(1.56748f /* ty=float32 */, dtype="bool") /* ty=bool */;
  %910 = cast(meta[relay.Constant][64] /* ty=Tensor[(2, 9, 1), float32] */, dtype="bool") /* ty=Tensor[(2, 9, 1), bool] */;
  %911 = @func_5358() /* ty=(Tensor[(11, 9, 9), float64], Tensor[(9, 4, 9), float64]) */;
  %912 = %911.1;
  %913 = cast(meta[relay.Constant][65] /* ty=Tensor[(9, 4, 9), float64] */, dtype="bool") /* ty=Tensor[(9, 4, 9), bool] */;
  %914 = shape_of(%912, dtype="int32") /* ty=Tensor[(3), int32] */;
  %915 = cast(%912, dtype="bool") /* ty=Tensor[(9, 4, 9), bool] */;
  %916 = dyn.reshape(%913, %914, newshape=[]) /* ty=Tensor[(?, ?, ?), bool] */;
  %917 = cast(meta[relay.Constant][66] /* ty=Tensor[(64), int32] */, dtype="int32") /* ty=Tensor[(64), int32] */;
  %918 = cast(meta[relay.Constant][67] /* ty=Tensor[(8, 40), float64] */, dtype="float64") /* ty=Tensor[(8, 40), float64] */;
  %919 = reshape(%917, newshape=[8, 8, 1]) /* ty=Tensor[(8, 8, 1), int32] */;
  %920 = reshape(%918, newshape=[8, 8, 5]) /* ty=Tensor[(8, 8, 5), float64] */;
  %921 = @func_4637(%919, %920) /* ty=(Tensor[(8, 8, 5), bool], Tensor[(8, 8, 5), bool]) */;
  %922 = greater_equal(%909, %910) /* ty=Tensor[(2, 9, 1), bool] */;
  %923 = logical_and(%915, %916) /* ty=Tensor[(9, 4, 9), bool] */;
  %924 = %921.1;
  (%922, %923, %924, meta[relay.Constant][66] /* ty=Tensor[(64), int32] */, meta[relay.Constant][67] /* ty=Tensor[(8, 40), float64] */)
}

/* For debugging purposes the metadata section has been omitted.
 * If you would like to see the full metadata section you can set the 
 * option to `True` when invoking `astext`. 
 */
===================================
==========mutated_mod==========
#[version = "0.0.5"]
def @func_5038(%var_5032: Tensor[(12), float32]) -> (Tensor[(11, 9, 9), float64], Tensor[(4, 1, 3), float64], Tensor[(12), float32]) {
  %0 = @func_3548() /* ty=Tensor[(11, 9, 9), float64] */;
  %1 = cast(%0, dtype="float64") /* ty=Tensor[(11, 9, 9), float64] */;
  %2 = cast(%var_5032, dtype="float32") /* ty=Tensor[(12), float32] */;
  %3 = reshape(%2, newshape=[4, 1, 3]) /* ty=Tensor[(4, 1, 3), float32] */;
  %4 = @func_1232(%3) /* ty=(Tensor[(4, 1, 3), float64],) */;
  %5 = asin(%1) /* ty=Tensor[(11, 9, 9), float64] */;
  %6 = %4.0;
  (%5, %6, %var_5032)
}

def @func_1235(%var_1233: Tensor[(4, 1, 3), float32]) -> (Tensor[(4, 1, 3), float64],) {
  @func_1232(%var_1233) /* ty=(Tensor[(4, 1, 3), float64],) */
}

def @func_7726() -> (Tensor[(11, 9, 9), float64],) {
  %8 = fn () -> (Tensor[(11, 9, 9), float64],) {
    %7 = @func_7219() /* ty=Tensor[(11, 9, 9), float64] */;
    (%7,)
  };
  %8() /* ty=(Tensor[(11, 9, 9), float64],) */
}

def @func_735(%var_717: Tensor[(4, 6, 3), float32]) -> (Tensor[(4, 6, 3), int8], Tensor[(4, 6, 3), float32]) {
  %9 = cast(%var_717, dtype="float32") /* ty=Tensor[(4, 6, 3), float32] */;
  %10 = sinh(%9) /* ty=Tensor[(4, 6, 3), float32] */;
  %11 = cast(%10, dtype="int8") /* ty=Tensor[(4, 6, 3), int8] */;
  %12 = shape_of(%var_717, dtype="int32") /* ty=Tensor[(3), int32] */;
  %13 = cast(%var_717, dtype="int8") /* ty=Tensor[(4, 6, 3), int8] */;
  %14 = dyn.reshape(%11, %12, newshape=[]) /* ty=Tensor[(?, ?, ?), int8] */;
  %15 = cast(%10, dtype="float32") /* ty=Tensor[(4, 6, 3), float32] */;
  %16 = bitwise_xor(%13, %14) /* ty=Tensor[(4, 6, 3), int8] */;
  %17 = acos(%15) /* ty=Tensor[(4, 6, 3), float32] */;
  (%16, %17)
}

def @func_2152(%var_2149: Tensor[(9, 11, 16), float32], %var_2150: Tensor[(9, 11, 16), float32], %var_2151: Tensor[(12), float32]) -> (Tensor[(9, 11, 16), float64], Tensor[(4, 1, 3), float64], Tensor[(12), float32]) {
  %29 = fn (%var_2110: Tensor[(9, 11, 16), float32], %var_2111: Tensor[(9, 11, 16), float32], %var_2139: Tensor[(12), float32]) -> (Tensor[(9, 11, 16), float64], Tensor[(4, 1, 3), float64], Tensor[(12), float32]) {
    %18 = cast(%var_2111, dtype="float32") /* ty=Tensor[(9, 11, 16), float32] */;
    %19 = shape_of(%var_2110, dtype="int32") /* ty=Tensor[(3), int32] */;
    %20 = cast(%var_2110, dtype="float32") /* ty=Tensor[(9, 11, 16), float32] */;
    %21 = dyn.reshape(%18, %19, newshape=[]) /* ty=Tensor[(?, ?, ?), float32] */;
    %22 = minimum(%20, %21) /* ty=Tensor[(9, 11, 16), float32] */;
    %23 = cast(%22, dtype="float64") /* ty=Tensor[(9, 11, 16), float64] */;
    %24 = cast(%var_2139, dtype="float32") /* ty=Tensor[(12), float32] */;
    %25 = reshape(%24, newshape=[4, 1, 3]) /* ty=Tensor[(4, 1, 3), float32] */;
    %26 = @func_1232(%25) /* ty=(Tensor[(4, 1, 3), float64],) */;
    %27 = asinh(%23) /* ty=Tensor[(9, 11, 16), float64] */;
    %28 = %26.0;
    (%27, %28, %var_2139)
  };
  %29(%var_2149, %var_2150, %var_2151) /* ty=(Tensor[(9, 11, 16), float64], Tensor[(4, 1, 3), float64], Tensor[(12), float32]) */
}

def @func_3434(%var_3420: Tensor[(792), float32], %var_3421: Tensor[(6, 2), float32], %var_3422: Tensor[(1274), bool]) -> (Tensor[(11, 9, 9), float64], Tensor[(11, 7, 2), float64], Tensor[(144), float64], Tensor[(2160), float64], Tensor[(1, 12), float32], Tensor[(792), float32], Tensor[(6, 2), float32], Tensor[(1274), bool]) {
  %30 = @func_3079() /* ty=(Tensor[(11, 9, 9), float64],) */;
  %31 = cast(meta[relay.Constant][0] /* ty=Tensor[(144), float64] */, dtype="float64") /* ty=Tensor[(144), float64] */;
  %32 = cast(meta[relay.Constant][1] /* ty=Tensor[(2160), float64] */, dtype="float64") /* ty=Tensor[(2160), float64] */;
  %33 = reshape(%31, newshape=[16, 9, 1]) /* ty=Tensor[(16, 9, 1), float64] */;
  %34 = reshape(%32, newshape=[16, 9, 15]) /* ty=Tensor[(16, 9, 15), float64] */;
  %35 = @func_789(%33, %34) /* ty=(Tensor[(16, 9, 15), float64], Tensor[(11, 7, 2), float64], Tensor[(154), int32]) */;
  %36 = cast(%var_3420, dtype="float32") /* ty=Tensor[(792), float32] */;
  %37 = cast(meta[relay.Constant][1] /* ty=Tensor[(2160), float64] */, dtype="float64") /* ty=Tensor[(2160), float64] */;
  %38 = cast(%var_3421, dtype="float32") /* ty=Tensor[(6, 2), float32] */;
  %39 = cast(%var_3422, dtype="bool") /* ty=Tensor[(1274), bool] */;
  %40 = reshape(%36, newshape=[8, 9, 11]) /* ty=Tensor[(8, 9, 11), float32] */;
  %41 = reshape(%37, newshape=[2160]) /* ty=Tensor[(2160), float64] */;
  %42 = reshape(%38, newshape=[1, 12]) /* ty=Tensor[(1, 12), float32] */;
  %43 = reshape(%39, newshape=[1274]) /* ty=Tensor[(1274), bool] */;
  %44 = @func_2637(%40, %41, %42, %43) /* ty=(Tensor[(16, 9, 15), float64], Tensor[(1, 144), float64], Tensor[(2160), float64], Tensor[(8, 9, 11), uint32], Tensor[(8, 9, 11), float64], Tensor[(12), float32], Tensor[(1584), float32], Tensor[(1, 12), float32], Tensor[(11, 7, 2), float64], Tensor[(1274), bool], Tensor[(11, 7, 2), float64]) */;
  %45 = %30.0;
  %46 = %35.1;
  %47 = %44.7;
  (%45, %46, meta[relay.Constant][0] /* ty=Tensor[(144), float64] */, meta[relay.Constant][1] /* ty=Tensor[(2160), float64] */, %47, %var_3420, %var_3421, %var_3422)
}

def @func_5439(%var_5433: Tensor[(132), float32]) -> (Tensor[(11, 9, 9), float64], Tensor[(11, 9, 9), float64], Tensor[(11, 9, 9), float64], Tensor[(3, 4), float32], Tensor[(52, 1), uint16], Tensor[(132), float32]) {
  %48 = @func_4786() /* ty=(Tensor[(11, 9, 9), float64],) */;
  %49 = @func_4333() /* ty=(Tensor[(11, 9, 9), float64],) */;
  %50 = cast(meta[relay.Constant][2] /* ty=Tensor[(3, 4), float32] */, dtype="float32") /* ty=Tensor[(3, 4), float32] */;
  %51 = cast(meta[relay.Constant][3] /* ty=Tensor[(52, 1), uint16] */, dtype="uint16") /* ty=Tensor[(52, 1), uint16] */;
  %52 = cast(%var_5433, dtype="float32") /* ty=Tensor[(132), float32] */;
  %53 = reshape(%50, newshape=[12]) /* ty=Tensor[(12), float32] */;
  %54 = reshape(%51, newshape=[52, 1]) /* ty=Tensor[(52, 1), uint16] */;
  %55 = reshape(%52, newshape=[132]) /* ty=Tensor[(132), float32] */;
  %56 = @func_3904(%53, %54, %55) /* ty=(Tensor[(11, 9, 9), float64], Tensor[(11, 9, 9), float64], Tensor[(12), float32], Tensor[(1584), float32], Tensor[(12), float32], Tensor[(11, 7, 2), float32], Tensor[(1274), bool], uint16, Tensor[(52, 1), uint16], Tensor[(132), float32]) */;
  %57 = %48.0;
  %58 = %49.0;
  %59 = %56.1;
  (%57, %58, %59, meta[relay.Constant][2] /* ty=Tensor[(3, 4), float32] */, meta[relay.Constant][3] /* ty=Tensor[(52, 1), uint16] */, %var_5433)
}

def @func_6355() -> (Tensor[(11, 9, 9), float64],) {
  @func_6353() /* ty=(Tensor[(11, 9, 9), float64],) */
}

def @func_4991() -> (Tensor[(11, 9, 9), float64],) {
  @func_4989() /* ty=(Tensor[(11, 9, 9), float64],) */
}

def @func_4283(%var_4278: Tensor[(468), int16], %var_4279: Tensor[(11, 9, 9), float64], %var_4280: Tensor[(1440), uint32], %var_4281: Tensor[(132), float32], %var_4282: Tensor[(60, 36), float64]) -> (Tensor[(11, 9, 9), int16], Tensor[(3, 4, 11), bool], Tensor[(1440), uint32], Tensor[(52), uint16], Tensor[(60, 36), float64], Tensor[(210, 132), int64], Tensor[(3, 4, 11), float64], Tensor[(1274, 1), bool], Tensor[(468), int64]) {
  %100 = fn (%var_4212: Tensor[(468), int16], %var_4216: Tensor[(11, 9, 9), float64], %var_4236: Tensor[(1440), uint32], %var_4238: Tensor[(132), float32], %var_4239: Tensor[(60, 36), float64]) -> (Tensor[(11, 9, 9), int16], Tensor[(3, 4, 11), bool], Tensor[(1440), uint32], Tensor[(52), uint16], Tensor[(60, 36), float64], Tensor[(210, 132), int64], Tensor[(3, 4, 11), float64], Tensor[(1274, 1), bool], Tensor[(468), int64]) {
    %60 = @func_3079() /* ty=(Tensor[(11, 9, 9), float64],) */;
    %61 = %60.0;
    %62 = cast(%var_4216, dtype="int16") /* ty=Tensor[(11, 9, 9), int16] */;
    %63 = shape_of(%61, dtype="int32") /* ty=Tensor[(3), int32] */;
    %64 = cast(%61, dtype="int16") /* ty=Tensor[(11, 9, 9), int16] */;
    %65 = dyn.reshape(%62, %63, newshape=[]) /* ty=Tensor[(?, ?, ?), int16] */;
    %66 = bitwise_or(%64, %65) /* ty=Tensor[(11, 9, 9), int16] */;
    %67 = cast(%66, dtype="float64") /* ty=Tensor[(11, 9, 9), float64] */;
    %68 = cast(%var_4236, dtype="uint32") /* ty=Tensor[(1440), uint32] */;
    %69 = cast(meta[relay.Constant][4] /* ty=Tensor[(52), uint16] */, dtype="uint16") /* ty=Tensor[(52), uint16] */;
    %70 = cast(%var_4238, dtype="float32") /* ty=Tensor[(132), float32] */;
    %71 = cast(%var_4239, dtype="float64") /* ty=Tensor[(60, 36), float64] */;
    %72 = reshape(%67, newshape=[11, 9, 9]) /* ty=Tensor[(11, 9, 9), float64] */;
    %73 = reshape(%68, newshape=[60, 24]) /* ty=Tensor[(60, 24), uint32] */;
    %74 = reshape(%69, newshape=[52]) /* ty=Tensor[(52), uint16] */;
    %75 = reshape(%70, newshape=[132]) /* ty=Tensor[(132), float32] */;
    %76 = reshape(%71, newshape=[2160]) /* ty=Tensor[(2160), float64] */;
    %77 = @func_3031(%72, %73, %74, %75, %76) /* ty=(Tensor[(16, 15, 6), bool], Tensor[(11, 9, 9), int64], Tensor[(60, 24), uint32], uint16, Tensor[(52), uint16], Tensor[(3, 4, 11), bool], Tensor[(3, 4, 11), bool], Tensor[(16, 9, 15), float64], Tensor[(24, 6), float64], Tensor[(2160), float64]) */;
    %78 = @func_3711() /* ty=(Tensor[(11, 9, 9), float64], Tensor[(1, 15, 14), float32], Tensor[(210, 1), float32]) */;
    %79 = %78.2;
    %80 = cast(%var_4238, dtype="int64") /* ty=Tensor[(132), int64] */;
    %81 = cast(%79, dtype="int64") /* ty=Tensor[(210, 1), int64] */;
    %82 = cast(%var_4238, dtype="float32") /* ty=Tensor[(132), float32] */;
    %83 = cast(meta[relay.Constant][5] /* ty=Tensor[(1274, 1), bool] */, dtype="bool") /* ty=Tensor[(1274, 1), bool] */;
    %84 = reshape(%82, newshape=[3, 4, 11]) /* ty=Tensor[(3, 4, 11), float32] */;
    %85 = reshape(%83, newshape=[1274]) /* ty=Tensor[(1274), bool] */;
    %86 = @func_292(%84, %85) /* ty=(Tensor[(3, 4, 11), float64], Tensor[(3, 4, 11), float64], Tensor[(7, 14, 13), bool], Tensor[(1274), bool]) */;
    %87 = cast(%var_4212, dtype="int16") /* ty=Tensor[(468), int16] */;
    %88 = cast(%var_4212, dtype="int16") /* ty=Tensor[(468), int16] */;
    %89 = reshape(%87, newshape=[3, 13, 12]) /* ty=Tensor[(3, 13, 12), int16] */;
    %90 = reshape(%88, newshape=[3, 13, 12]) /* ty=Tensor[(3, 13, 12), int16] */;
    %91 = @func_2754(%89, %90) /* ty=Tensor[(3, 13, 12), int16] */;
    %92 = cast(%91, dtype="int64") /* ty=Tensor[(3, 13, 12), int64] */;
    %93 = shape_of(%var_4212, dtype="int32") /* ty=Tensor[(1), int32] */;
    %94 = cast(%var_4212, dtype="int64") /* ty=Tensor[(468), int64] */;
    %95 = dyn.reshape(%92, %93, newshape=[]) /* ty=Tensor[(?), int64] */;
    %96 = %77.6;
    %97 = bitwise_and(%80, %81) /* ty=Tensor[(210, 132), int64] */;
    %98 = %86.1;
    %99 = left_shift(%94, %95) /* ty=Tensor[(468), int64] */;
    (%66, %96, %var_4236, meta[relay.Constant][4] /* ty=Tensor[(52), uint16] */, %var_4239, %97, %98, meta[relay.Constant][5] /* ty=Tensor[(1274, 1), bool] */, %99)
  };
  %100(%var_4278, %var_4279, %var_4280, %var_4281, %var_4282) /* ty=(Tensor[(11, 9, 9), int16], Tensor[(3, 4, 11), bool], Tensor[(1440), uint32], Tensor[(52), uint16], Tensor[(60, 36), float64], Tensor[(210, 132), int64], Tensor[(3, 4, 11), float64], Tensor[(1274, 1), bool], Tensor[(468), int64]) */
}

def @func_4397(%var_4350: Tensor[(1386), int16], %var_4351: Tensor[(672), int32], %var_4376: uint64, %var_4377: Tensor[(7, 78), uint64]) -> (Tensor[(11, 9, 9), float64], Tensor[(11, 14, 9), bool], Tensor[(1386), int16], Tensor[(672), int32], Tensor[(11, 9, 9), float64], Tensor[(6, 13, 7), uint64], uint64, Tensor[(7, 78), uint64]) {
  %101 = @func_2942() /* ty=(Tensor[(11, 9, 9), float64],) */;
  %102 = cast(%var_4350, dtype="int16") /* ty=Tensor[(1386), int16] */;
  %103 = cast(%var_4351, dtype="int32") /* ty=Tensor[(672), int32] */;
  %104 = reshape(%102, newshape=[11, 14, 9]) /* ty=Tensor[(11, 14, 9), int16] */;
  %105 = reshape(%103, newshape=[672]) /* ty=Tensor[(672), int32] */;
  %106 = @func_3156(%104, %105) /* ty=(Tensor[(11, 14, 9), bool], Tensor[(11, 14, 9), float32], Tensor[(16, 7, 6), int16], Tensor[(672), int32], Tensor[(72), float32]) */;
  %107 = @func_3079() /* ty=(Tensor[(11, 9, 9), float64],) */;
  %108 = cast(%var_4376, dtype="uint64") /* ty=uint64 */;
  %109 = cast(%var_4377, dtype="uint64") /* ty=Tensor[(7, 78), uint64] */;
  %110 = reshape(%108, newshape=[]) /* ty=uint64 */;
  %111 = reshape(%109, newshape=[6, 13, 7]) /* ty=Tensor[(6, 13, 7), uint64] */;
  %112 = %101.0;
  %113 = %106.0;
  %114 = %107.0;
  %115 = @func_2857(%110, %111) /* ty=Tensor[(6, 13, 7), uint64] */;
  (%112, %113, %var_4350, %var_4351, %114, %115, %var_4376, %var_4377)
}

def @func_1198(%var_1196: Tensor[(1274), bool], %var_1197: Tensor[(72), float32]) -> (Tensor[(13, 9, 11), float32], Tensor[(11, 7, 2), float64], Tensor[(1274), bool], Tensor[(144), float64], Tensor[(4, 6, 3), int8], Tensor[(72), float32], Tensor[(4, 6, 3), float32], Tensor[(11, 7, 2), float64], Tensor[(2160), float64]) {
  @func_1194(%var_1196, %var_1197) /* ty=(Tensor[(13, 9, 11), float32], Tensor[(11, 7, 2), float64], Tensor[(1274), bool], Tensor[(144), float64], Tensor[(4, 6, 3), int8], Tensor[(72), float32], Tensor[(4, 6, 3), float32], Tensor[(11, 7, 2), float64], Tensor[(2160), float64]) */
}

def @func_792(%var_790: Tensor[(16, 9, 1), float64], %var_791: Tensor[(16, 9, 15), float64]) -> (Tensor[(16, 9, 15), float64], Tensor[(11, 7, 2), float64], Tensor[(154), int32]) {
  %123 = fn (%var_765: Tensor[(16, 9, 1), float64], %var_766: Tensor[(16, 9, 15), float64]) -> (Tensor[(16, 9, 15), float64], Tensor[(11, 7, 2), float64], Tensor[(154), int32]) {
    %116 = cast(%var_765, dtype="float64") /* ty=Tensor[(16, 9, 1), float64] */;
    %117 = cast(%var_766, dtype="float64") /* ty=Tensor[(16, 9, 15), float64] */;
    %118 = cast(meta[relay.Constant][6] /* ty=Tensor[(154), int32] */, dtype="int32") /* ty=Tensor[(154), int32] */;
    %119 = reshape(%118, newshape=[11, 7, 2]) /* ty=Tensor[(11, 7, 2), int32] */;
    %120 = @func_27(%119) /* ty=(Tensor[(11, 7, 2), float64],) */;
    %121 = power(%116, %117) /* ty=Tensor[(16, 9, 15), float64] */;
    %122 = %120.0;
    (%121, %122, meta[relay.Constant][6] /* ty=Tensor[(154), int32] */)
  };
  %123(%var_790, %var_791) /* ty=(Tensor[(16, 9, 15), float64], Tensor[(11, 7, 2), float64], Tensor[(154), int32]) */
}

def @func_3197() -> (Tensor[(11, 9, 9), float64],) {
  @func_3195() /* ty=(Tensor[(11, 9, 9), float64],) */
}

def @func_7766(%var_7764: Tensor[(1, 10, 11), uint16], %var_7765: Tensor[(8, 10, 11), uint16]) -> (Tensor[(8, 10, 11), uint16], Tensor[(4, 10, 11), bool]) {
  @func_7762(%var_7764, %var_7765) /* ty=(Tensor[(8, 10, 11), uint16], Tensor[(4, 10, 11), bool]) */
}

def @func_3712() -> (Tensor[(11, 9, 9), float64], Tensor[(1, 15, 14), float32], Tensor[(210, 1), float32]) {
  %129 = fn () -> (Tensor[(11, 9, 9), float64], Tensor[(1, 15, 14), float32], Tensor[(210, 1), float32]) {
    %124 = @func_3583() /* ty=(Tensor[(11, 9, 9), float64],) */;
    %125 = cast(meta[relay.Constant][7] /* ty=Tensor[(210, 1), float32] */, dtype="float32") /* ty=Tensor[(210, 1), float32] */;
    %126 = reshape(%125, newshape=[1, 15, 14]) /* ty=Tensor[(1, 15, 14), float32] */;
    %127 = %124.0;
    %128 = @func_1501(%126) /* ty=Tensor[(1, 15, 14), float32] */;
    (%127, %128, meta[relay.Constant][7] /* ty=Tensor[(210, 1), float32] */)
  };
  %129() /* ty=(Tensor[(11, 9, 9), float64], Tensor[(1, 15, 14), float32], Tensor[(210, 1), float32]) */
}

def @func_6878(%var_6876: Tensor[(1274), bool]) -> (Tensor[(891), int64], Tensor[(132), float32], Tensor[(1274), bool]) {
  @func_6875(%var_6876) /* ty=(Tensor[(891), int64], Tensor[(132), float32], Tensor[(1274), bool]) */
}

def @func_6721(%var_6719: Tensor[(4, 12, 1), float64], %var_6720: Tensor[(672), int32]) -> (Tensor[(4, 12, ?), bool], Tensor[(4, 12, ?), float64], Tensor[(16, 7, 6), int16], Tensor[(672), int32], Tensor[(72), float32], Tensor[(11, 9, 9), float64], Tensor[(11, 9, 9), float64], Tensor[(11, 9, 9), float64]) {
  %158 = fn (%var_6680: Tensor[(4, 12, 1), float64], %var_6705: Tensor[(672), int32]) -> (Tensor[(4, 12, ?), bool], Tensor[(4, 12, ?), float64], Tensor[(16, 7, 6), int16], Tensor[(672), int32], Tensor[(72), float32], Tensor[(11, 9, 9), float64], Tensor[(11, 9, 9), float64], Tensor[(11, 9, 9), float64]) {
    %130 = cast(%var_6680, dtype="float32") /* ty=Tensor[(4, 12, 1), float32] */;
    %131 = tan(%130) /* ty=Tensor[(4, 12, 1), float32] */;
    %132 = cast(%131, dtype="float32") /* ty=Tensor[(4, 12, 1), float32] */;
    %133 = log(%132) /* ty=Tensor[(4, 12, 1), float32] */;
    %134 = cast(%133, dtype="bool") /* ty=Tensor[(4, 12, 1), bool] */;
    %135 = shape_of(%131, dtype="int32") /* ty=Tensor[(3), int32] */;
    %136 = cast(%131, dtype="bool") /* ty=Tensor[(4, 12, 1), bool] */;
    %137 = dyn.reshape(%134, %135, newshape=[]) /* ty=Tensor[(?, ?, ?), bool] */;
    %138 = cast(%var_6680, dtype="float64") /* ty=Tensor[(4, 12, 1), float64] */;
    %139 = sqrt(%138) /* ty=Tensor[(4, 12, 1), float64] */;
    %140 = cast(%131, dtype="float64") /* ty=Tensor[(4, 12, 1), float64] */;
    %141 = shape_of(%139, dtype="int32") /* ty=Tensor[(3), int32] */;
    %142 = cast(%139, dtype="float64") /* ty=Tensor[(4, 12, 1), float64] */;
    %143 = dyn.reshape(%140, %141, newshape=[]) /* ty=Tensor[(?, ?, ?), float64] */;
    %144 = cast(%var_6705, dtype="int32") /* ty=Tensor[(672), int32] */;
    %145 = cast(meta[relay.Constant][8] /* ty=Tensor[(72), float32] */, dtype="float32") /* ty=Tensor[(72), float32] */;
    %146 = reshape(%144, newshape=[16, 7, 6]) /* ty=Tensor[(16, 7, 6), int32] */;
    %147 = reshape(%145, newshape=[1, 72]) /* ty=Tensor[(1, 72), float32] */;
    %148 = @func_1473(%146, %147) /* ty=(Tensor[(16, 7, 6), int16], Tensor[(?, 72), bool]) */;
    %149 = @func_2906() /* ty=(Tensor[(11, 9, 9), float64],) */;
    %150 = @func_6030() /* ty=(Tensor[(11, 9, 9), float64], Tensor[(11, 9, 9), float64], Tensor[(11, 9, 9), float64]) */;
    %151 = @func_6353() /* ty=(Tensor[(11, 9, 9), float64],) */;
    %152 = equal(%136, %137) /* ty=Tensor[(4, 12, ?), bool] */;
    %153 = power(%142, %143) /* ty=Tensor[(4, 12, ?), float64] */;
    %154 = %148.0;
    %155 = %149.0;
    %156 = %150.1;
    %157 = %151.0;
    (%152, %153, %154, %var_6705, meta[relay.Constant][8] /* ty=Tensor[(72), float32] */, %155, %156, %157)
  };
  %158(%var_6719, %var_6720) /* ty=(Tensor[(4, 12, ?), bool], Tensor[(4, 12, ?), float64], Tensor[(16, 7, 6), int16], Tensor[(672), int32], Tensor[(72), float32], Tensor[(11, 9, 9), float64], Tensor[(11, 9, 9), float64], Tensor[(11, 9, 9), float64]) */
}

def @func_5635(%var_5632: Tensor[(1, 12), float32], %var_5633: Tensor[(546), uint64], %var_5634: Tensor[(7, 182), bool]) -> (Tensor[(11, 9, 9), float64], Tensor[(11, 9, 9), float64], Tensor[(1, 12), float32], Tensor[(11, 9, 9), float64], Tensor[(1386), int16], Tensor[(672), int32], uint64, Tensor[(546), uint64], Tensor[(7, 14, 13), bool], Tensor[(7, 182), bool]) {
  @func_5630(%var_5632, %var_5633, %var_5634) /* ty=(Tensor[(11, 9, 9), float64], Tensor[(11, 9, 9), float64], Tensor[(1, 12), float32], Tensor[(11, 9, 9), float64], Tensor[(1386), int16], Tensor[(672), int32], uint64, Tensor[(546), uint64], Tensor[(7, 14, 13), bool], Tensor[(7, 182), bool]) */
}

def @func_7003() -> (Tensor[(420), float32], Tensor[(11, 9, 9), float64], Tensor[(11, 7, 2), float64], Tensor[(154), int32]) {
  %159 = @func_5312() /* ty=(Tensor[(11, 9, 9), float64], Tensor[(15, 14, 2), float32], Tensor[(420), float32]) */;
  %160 = cast(meta[relay.Constant][9] /* ty=Tensor[(154), int32] */, dtype="int32") /* ty=Tensor[(154), int32] */;
  %161 = reshape(%160, newshape=[11, 7, 2]) /* ty=Tensor[(11, 7, 2), int32] */;
  %162 = @func_27(%161) /* ty=(Tensor[(11, 7, 2), float64],) */;
  %163 = %159.2;
  %164 = @func_6270() /* ty=Tensor[(11, 9, 9), float64] */;
  %165 = %162.0;
  (%163, %164, %165, meta[relay.Constant][9] /* ty=Tensor[(154), int32] */)
}

def @func_7462(%var_7458: Tensor[(1440), uint32], %var_7459: Tensor[(2160), float64], %var_7460: Tensor[(1584), float32], %var_7461: Tensor[(6, 2), float32]) -> (Tensor[(11, 9, 9), float64], Tensor[(672), int32], Tensor[(1440), uint32], Tensor[(2160), float64], Tensor[(12), float32], Tensor[(1584), float32], Tensor[(6, 2), float32]) {
  %182 = fn (%var_7425: Tensor[(1440), uint32], %var_7426: Tensor[(2160), float64], %var_7439: Tensor[(1584), float32], %var_7440: Tensor[(6, 2), float32]) -> (Tensor[(11, 9, 9), float64], Tensor[(672), int32], Tensor[(1440), uint32], Tensor[(2160), float64], Tensor[(12), float32], Tensor[(1584), float32], Tensor[(6, 2), float32]) {
    %166 = @func_6929() /* ty=(Tensor[(11, 9, 9), float64],) */;
    %167 = cast(%var_7425, dtype="uint32") /* ty=Tensor[(1440), uint32] */;
    %168 = cast(%var_7426, dtype="float64") /* ty=Tensor[(2160), float64] */;
    %169 = reshape(%167, newshape=[1440]) /* ty=Tensor[(1440), uint32] */;
    %170 = reshape(%168, newshape=[2160]) /* ty=Tensor[(2160), float64] */;
    %171 = @func_5573(%169, %170) /* ty=(Tensor[(11, 9, 9), float64], Tensor[(210, 1), float32], Tensor[(11, 9, 9), int16], Tensor[(468), int16], Tensor[(1440), uint32], Tensor[(132), float32], Tensor[(2160), float64], Tensor[(672), int32], Tensor[(1386), int16], Tensor[(672), int32], Tensor[(11, 9, 9), float64]) */;
    %172 = cast(%var_7439, dtype="float32") /* ty=Tensor[(1584), float32] */;
    %173 = cast(%var_7439, dtype="float32") /* ty=Tensor[(1584), float32] */;
    %174 = cast(%var_7440, dtype="float32") /* ty=Tensor[(6, 2), float32] */;
    %175 = reshape(%172, newshape=[9, 11, 16]) /* ty=Tensor[(9, 11, 16), float32] */;
    %176 = reshape(%173, newshape=[9, 11, 16]) /* ty=Tensor[(9, 11, 16), float32] */;
    %177 = reshape(%174, newshape=[12]) /* ty=Tensor[(12), float32] */;
    %178 = @func_2148(%175, %176, %177) /* ty=(Tensor[(9, 11, 16), float64], Tensor[(4, 1, 3), float64], Tensor[(12), float32]) */;
    %179 = %166.0;
    %180 = %171.7;
    %181 = %178.2;
    (%179, %180, %var_7425, %var_7426, %181, %var_7439, %var_7440)
  };
  %182(%var_7458, %var_7459, %var_7460, %var_7461) /* ty=(Tensor[(11, 9, 9), float64], Tensor[(672), int32], Tensor[(1440), uint32], Tensor[(2160), float64], Tensor[(12), float32], Tensor[(1584), float32], Tensor[(6, 2), float32]) */
}

def @func_7560(%var_7558: Tensor[(132), float32], %var_7559: Tensor[(1, 156), float64]) -> (Tensor[(420), float32], Tensor[(11, 9, 9), float64], Tensor[(11, 9, 9), float64], Tensor[(12), float32], Tensor[(52), uint16], Tensor[(132), float32], Tensor[(6, 2, 13), float64], Tensor[(1, 156), float64]) {
  %198 = fn (%var_7536: Tensor[(132), float32], %var_7544: Tensor[(1, 156), float64]) -> (Tensor[(420), float32], Tensor[(11, 9, 9), float64], Tensor[(11, 9, 9), float64], Tensor[(12), float32], Tensor[(52), uint16], Tensor[(132), float32], Tensor[(6, 2, 13), float64], Tensor[(1, 156), float64]) {
    %183 = @func_5312() /* ty=(Tensor[(11, 9, 9), float64], Tensor[(15, 14, 2), float32], Tensor[(420), float32]) */;
    %184 = cast(meta[relay.Constant][10] /* ty=Tensor[(12), float32] */, dtype="float32") /* ty=Tensor[(12), float32] */;
    %185 = cast(meta[relay.Constant][11] /* ty=Tensor[(52), uint16] */, dtype="uint16") /* ty=Tensor[(52), uint16] */;
    %186 = cast(%var_7536, dtype="float32") /* ty=Tensor[(132), float32] */;
    %187 = reshape(%184, newshape=[12]) /* ty=Tensor[(12), float32] */;
    %188 = reshape(%185, newshape=[52, 1]) /* ty=Tensor[(52, 1), uint16] */;
    %189 = reshape(%186, newshape=[132]) /* ty=Tensor[(132), float32] */;
    %190 = @func_3904(%187, %188, %189) /* ty=(Tensor[(11, 9, 9), float64], Tensor[(11, 9, 9), float64], Tensor[(12), float32], Tensor[(1584), float32], Tensor[(12), float32], Tensor[(11, 7, 2), float32], Tensor[(1274), bool], uint16, Tensor[(52, 1), uint16], Tensor[(132), float32]) */;
    %191 = cast(%var_7544, dtype="float64") /* ty=Tensor[(1, 156), float64] */;
    %192 = reshape(%191, newshape=[6, 2, 13]) /* ty=Tensor[(6, 2, 13), float64] */;
    %193 = @func_6913(%192) /* ty=(Tensor[(6, 2, 13), float64],) */;
    %194 = %183.2;
    %195 = @func_3548() /* ty=Tensor[(11, 9, 9), float64] */;
    %196 = %190.0;
    %197 = %193.0;
    (%194, %195, %196, meta[relay.Constant][10] /* ty=Tensor[(12), float32] */, meta[relay.Constant][11] /* ty=Tensor[(52), uint16] */, %var_7536, %197, %var_7544)
  };
  %198(%var_7558, %var_7559) /* ty=(Tensor[(420), float32], Tensor[(11, 9, 9), float64], Tensor[(11, 9, 9), float64], Tensor[(12), float32], Tensor[(52), uint16], Tensor[(132), float32], Tensor[(6, 2, 13), float64], Tensor[(1, 156), float64]) */
}

def @func_3160(%var_3158: Tensor[(11, 14, 9), int16], %var_3159: Tensor[(672), int32]) -> (Tensor[(11, 14, 9), bool], Tensor[(11, 14, 9), float32], Tensor[(16, 7, 6), int16], Tensor[(672), int32], Tensor[(72), float32]) {
  @func_3156(%var_3158, %var_3159) /* ty=(Tensor[(11, 14, 9), bool], Tensor[(11, 14, 9), float32], Tensor[(16, 7, 6), int16], Tensor[(672), int32], Tensor[(72), float32]) */
}

def @func_4019() -> (Tensor[(11, 9, 9), float64], Tensor[(11, 14, 9), bool], Tensor[(1386), int16], Tensor[(672), int32], Tensor[(11, 9, 9), float64]) {
  %208 = fn () -> (Tensor[(11, 9, 9), float64], Tensor[(11, 14, 9), bool], Tensor[(1386), int16], Tensor[(672), int32], Tensor[(11, 9, 9), float64]) {
    %199 = cast(meta[relay.Constant][12] /* ty=Tensor[(1386), int16] */, dtype="int16") /* ty=Tensor[(1386), int16] */;
    %200 = cast(meta[relay.Constant][13] /* ty=Tensor[(672), int32] */, dtype="int32") /* ty=Tensor[(672), int32] */;
    %201 = reshape(%199, newshape=[11, 14, 9]) /* ty=Tensor[(11, 14, 9), int16] */;
    %202 = reshape(%200, newshape=[672]) /* ty=Tensor[(672), int32] */;
    %203 = @func_3156(%201, %202) /* ty=(Tensor[(11, 14, 9), bool], Tensor[(11, 14, 9), float32], Tensor[(16, 7, 6), int16], Tensor[(672), int32], Tensor[(72), float32]) */;
    %204 = @func_3079() /* ty=(Tensor[(11, 9, 9), float64],) */;
    %205 = @func_3548() /* ty=Tensor[(11, 9, 9), float64] */;
    %206 = %203.0;
    %207 = %204.0;
    (%205, %206, meta[relay.Constant][12] /* ty=Tensor[(1386), int16] */, meta[relay.Constant][13] /* ty=Tensor[(672), int32] */, %207)
  };
  %208() /* ty=(Tensor[(11, 9, 9), float64], Tensor[(11, 14, 9), bool], Tensor[(1386), int16], Tensor[(672), int32], Tensor[(11, 9, 9), float64]) */
}

def @func_3195() -> (Tensor[(11, 9, 9), float64],) {
  %209 = @func_2942() /* ty=(Tensor[(11, 9, 9), float64],) */;
  %210 = %209.0;
  (%210,)
}

def @func_738(%var_736: Tensor[(4, 6, 3), float32]) -> (Tensor[(4, 6, 3), int8], Tensor[(4, 6, 3), float32]) {
  @func_735(%var_736) /* ty=(Tensor[(4, 6, 3), int8], Tensor[(4, 6, 3), float32]) */
}

def @func_292(%var_251: Tensor[(3, 4, 11), float32], %var_289: Tensor[(1274), bool]) -> (Tensor[(3, 4, 11), float64], Tensor[(3, 4, 11), float64], Tensor[(7, 14, 13), bool], Tensor[(1274), bool]) {
  %211 = cast(%var_251, dtype="float32") /* ty=Tensor[(3, 4, 11), float32] */;
  %212 = tan(%211) /* ty=Tensor[(3, 4, 11), float32] */;
  %213 = cast(%212, dtype="float64") /* ty=Tensor[(3, 4, 11), float64] */;
  %214 = cast(%var_251, dtype="float64") /* ty=Tensor[(3, 4, 11), float64] */;
  %215 = cast(%var_289, dtype="bool") /* ty=Tensor[(1274), bool] */;
  %216 = cast(%var_289, dtype="bool") /* ty=Tensor[(1274), bool] */;
  %217 = reshape(%215, newshape=[7, 14, 13]) /* ty=Tensor[(7, 14, 13), bool] */;
  %218 = reshape(%216, newshape=[7, 14, 13]) /* ty=Tensor[(7, 14, 13), bool] */;
  %219 = erf(%213) /* ty=Tensor[(3, 4, 11), float64] */;
  %220 = asinh(%214) /* ty=Tensor[(3, 4, 11), float64] */;
  %221 = @func_169(%217, %218) /* ty=Tensor[(7, 14, 13), bool] */;
  (%219, %220, %221, %var_289)
}

def @func_2844() -> (Tensor[(9, 4, 9), float64], Tensor[(11, 9, 9), int64], Tensor[(891), int64]) {
  %222 = cast(meta[relay.Constant][14] /* ty=Tensor[(9, 4, 9), float64] */, dtype="float64") /* ty=Tensor[(9, 4, 9), float64] */;
  %223 = cast(meta[relay.Constant][15] /* ty=Tensor[(891), int64] */, dtype="int64") /* ty=Tensor[(891), int64] */;
  %224 = cast(meta[relay.Constant][15] /* ty=Tensor[(891), int64] */, dtype="int64") /* ty=Tensor[(891), int64] */;
  %225 = reshape(%223, newshape=[11, 9, 9]) /* ty=Tensor[(11, 9, 9), int64] */;
  %226 = reshape(%224, newshape=[11, 9, 9]) /* ty=Tensor[(11, 9, 9), int64] */;
  %227 = @func_1769(%225, %226) /* ty=(Tensor[(11, 9, 9), int64],) */;
  %228 = atanh(%222) /* ty=Tensor[(9, 4, 9), float64] */;
  %229 = %227.0;
  (%228, %229, meta[relay.Constant][15] /* ty=Tensor[(891), int64] */)
}

def @func_1501(%var_1491: Tensor[(1, 15, 14), float32]) -> Tensor[(1, 15, 14), float32] {
  %230 = cast(%var_1491, dtype="float32") /* ty=Tensor[(1, 15, 14), float32] */;
  sigmoid(%230) /* ty=Tensor[(1, 15, 14), float32] */
}

def @func_4534() -> (Tensor[(11, 9, 9), float64],) {
  %231 = @func_2906() /* ty=(Tensor[(11, 9, 9), float64],) */;
  %232 = %231.0;
  (%232,)
}

def @func_6624(%var_6532: Tensor[(12, 1), float32], %var_6533: Tensor[(546), uint64], %var_6534: Tensor[(1274), bool], %var_6575: Tensor[(210, 7), uint8]) -> (Tensor[(12, 1), float32], Tensor[(546), uint64], Tensor[(1274), bool], Tensor[(11, 9, 9), float64], Tensor[(210, 7), float32], Tensor[(210, 7), float64], Tensor[(210, 1), float64], Tensor[(11, 9, 9), float64], Tensor[(52), uint16], Tensor[(132), float32]) {
  %233 = cast(%var_6532, dtype="float32") /* ty=Tensor[(12, 1), float32] */;
  %234 = cast(%var_6533, dtype="uint64") /* ty=Tensor[(546), uint64] */;
  %235 = cast(%var_6534, dtype="bool") /* ty=Tensor[(1274), bool] */;
  %236 = reshape(%233, newshape=[1, 12]) /* ty=Tensor[(1, 12), float32] */;
  %237 = reshape(%234, newshape=[546]) /* ty=Tensor[(546), uint64] */;
  %238 = reshape(%235, newshape=[7, 182]) /* ty=Tensor[(7, 182), bool] */;
  %239 = @func_5630(%236, %237, %238) /* ty=(Tensor[(11, 9, 9), float64], Tensor[(11, 9, 9), float64], Tensor[(1, 12), float32], Tensor[(11, 9, 9), float64], Tensor[(1386), int16], Tensor[(672), int32], uint64, Tensor[(546), uint64], Tensor[(7, 14, 13), bool], Tensor[(7, 182), bool]) */;
  %240 = %239.1;
  %241 = cast(%240, dtype="float64") /* ty=Tensor[(11, 9, 9), float64] */;
  %242 = @func_3711() /* ty=(Tensor[(11, 9, 9), float64], Tensor[(1, 15, 14), float32], Tensor[(210, 1), float32]) */;
  %243 = %242.2;
  %244 = cast(%243, dtype="float64") /* ty=Tensor[(210, 1), float64] */;
  %245 = exp(%244) /* ty=Tensor[(210, 1), float64] */;
  %246 = cast(%243, dtype="uint8") /* ty=Tensor[(210, 1), uint8] */;
  %247 = shape_of(%245, dtype="int32") /* ty=Tensor[(2), int32] */;
  %248 = cast(%245, dtype="uint8") /* ty=Tensor[(210, 1), uint8] */;
  %249 = dyn.reshape(%246, %247, newshape=[]) /* ty=Tensor[(?, ?), uint8] */;
  %250 = minimum(%248, %249) /* ty=Tensor[(210, ?), uint8] */;
  %251 = cast(%250, dtype="float32") /* ty=Tensor[(210, ?), float32] */;
  %252 = cast(%var_6575, dtype="float32") /* ty=Tensor[(210, 7), float32] */;
  %253 = cast(%var_6575, dtype="float64") /* ty=Tensor[(210, 7), float64] */;
  %254 = cast(%245, dtype="float32") /* ty=Tensor[(210, 1), float32] */;
  %255 = log2(%254) /* ty=Tensor[(210, 1), float32] */;
  %256 = cast(%255, dtype="float64") /* ty=Tensor[(210, 1), float64] */;
  %257 = cast(%var_6532, dtype="float32") /* ty=Tensor[(12, 1), float32] */;
  %258 = cast(meta[relay.Constant][16] /* ty=Tensor[(52), uint16] */, dtype="uint16") /* ty=Tensor[(52), uint16] */;
  %259 = cast(meta[relay.Constant][17] /* ty=Tensor[(132), float32] */, dtype="float32") /* ty=Tensor[(132), float32] */;
  %260 = reshape(%257, newshape=[12]) /* ty=Tensor[(12), float32] */;
  %261 = reshape(%258, newshape=[52, 1]) /* ty=Tensor[(52, 1), uint16] */;
  %262 = reshape(%259, newshape=[132]) /* ty=Tensor[(132), float32] */;
  %263 = @func_3904(%260, %261, %262) /* ty=(Tensor[(11, 9, 9), float64], Tensor[(11, 9, 9), float64], Tensor[(12), float32], Tensor[(1584), float32], Tensor[(12), float32], Tensor[(11, 7, 2), float32], Tensor[(1274), bool], uint16, Tensor[(52, 1), uint16], Tensor[(132), float32]) */;
  %264 = log(%241) /* ty=Tensor[(11, 9, 9), float64] */;
  %265 = floor_divide(%251, %252) /* ty=Tensor[(210, 7), float32] */;
  %266 = sqrt(%253) /* ty=Tensor[(210, 7), float64] */;
  %267 = asinh(%256) /* ty=Tensor[(210, 1), float64] */;
  %268 = %263.1;
  (%var_6532, %var_6533, %var_6534, %264, %265, %266, %267, %268, meta[relay.Constant][16] /* ty=Tensor[(52), uint16] */, meta[relay.Constant][17] /* ty=Tensor[(132), float32] */)
}

def @func_296(%var_294: Tensor[(3, 4, 11), float32], %var_295: Tensor[(1274), bool]) -> (Tensor[(3, 4, 11), float64], Tensor[(3, 4, 11), float64], Tensor[(7, 14, 13), bool], Tensor[(1274), bool]) {
  @func_292(%var_294, %var_295) /* ty=(Tensor[(3, 4, 11), float64], Tensor[(3, 4, 11), float64], Tensor[(7, 14, 13), bool], Tensor[(1274), bool]) */
}

def @func_2857(%var_2852: uint64, %var_2853: Tensor[(6, 13, 7), uint64]) -> Tensor[(6, 13, 7), uint64] {
  %269 = cast(%var_2852, dtype="uint64") /* ty=uint64 */;
  %270 = cast(%var_2853, dtype="uint64") /* ty=Tensor[(6, 13, 7), uint64] */;
  bitwise_and(%269, %270) /* ty=Tensor[(6, 13, 7), uint64] */
}

def @func_6348() -> (Tensor[(11, 9, 9), float64], Tensor[(11, 9, 9), float64]) {
  @func_6346() /* ty=(Tensor[(11, 9, 9), float64], Tensor[(11, 9, 9), float64]) */
}

def @func_4904(%var_4903: Tensor[(11, 3, 3), float64]) -> (Tensor[(11, 3, 3), bool],) {
  %276 = fn (%var_4882: Tensor[(11, 3, 3), float64]) -> (Tensor[(11, 3, 3), bool],) {
    %271 = cast(meta[relay.Constant][18] /* ty=Tensor[(11, 3, 3), float64] */, dtype="bool") /* ty=Tensor[(11, 3, 3), bool] */;
    %272 = shape_of(%var_4882, dtype="int32") /* ty=Tensor[(3), int32] */;
    %273 = cast(%var_4882, dtype="bool") /* ty=Tensor[(11, 3, 3), bool] */;
    %274 = dyn.reshape(%271, %272, newshape=[]) /* ty=Tensor[(?, ?, ?), bool] */;
    %275 = less(%273, %274) /* ty=Tensor[(11, 3, 3), bool] */;
    (%275,)
  };
  %276(%var_4903) /* ty=(Tensor[(11, 3, 3), bool],) */
}

def @func_6916(%var_6914: Tensor[(6, 2, 13), float64]) -> (Tensor[(6, 2, 13), float64],) {
  @func_6913(%var_6914) /* ty=(Tensor[(6, 2, 13), float64],) */
}

def @func_856(%var_854: Tensor[(1274), bool], %var_855: Tensor[(144), float64]) -> (Tensor[(2, 1, 5), float64], Tensor[(7, 14, 13), bool], Tensor[(1274), bool], Tensor[(2, 1, 5), float64], Tensor[(11, 7, 2), float64], Tensor[(144), float64], Tensor[(60, 36), float64], Tensor[(11, 7, 2), float64]) {
  @func_852(%var_854, %var_855) /* ty=(Tensor[(2, 1, 5), float64], Tensor[(7, 14, 13), bool], Tensor[(1274), bool], Tensor[(2, 1, 5), float64], Tensor[(11, 7, 2), float64], Tensor[(144), float64], Tensor[(60, 36), float64], Tensor[(11, 7, 2), float64]) */
}

def @func_5459(%var_5457: Tensor[(132), float32], %var_5458: Tensor[(1274), bool]) -> (Tensor[(210, 1), float32], Tensor[(1274), bool], Tensor[(132), float32], Tensor[(1274), bool]) {
  %285 = fn (%var_5451: Tensor[(132), float32], %var_5452: Tensor[(1274), bool]) -> (Tensor[(210, 1), float32], Tensor[(1274), bool], Tensor[(132), float32], Tensor[(1274), bool]) {
    %277 = @func_3711() /* ty=(Tensor[(11, 9, 9), float64], Tensor[(1, 15, 14), float32], Tensor[(210, 1), float32]) */;
    %278 = cast(%var_5451, dtype="float32") /* ty=Tensor[(132), float32] */;
    %279 = cast(%var_5452, dtype="bool") /* ty=Tensor[(1274), bool] */;
    %280 = reshape(%278, newshape=[3, 4, 11]) /* ty=Tensor[(3, 4, 11), float32] */;
    %281 = reshape(%279, newshape=[1274]) /* ty=Tensor[(1274), bool] */;
    %282 = @func_292(%280, %281) /* ty=(Tensor[(3, 4, 11), float64], Tensor[(3, 4, 11), float64], Tensor[(7, 14, 13), bool], Tensor[(1274), bool]) */;
    %283 = %277.2;
    %284 = %282.3;
    (%283, %284, %var_5451, %var_5452)
  };
  %285(%var_5457, %var_5458) /* ty=(Tensor[(210, 1), float32], Tensor[(1274), bool], Tensor[(132), float32], Tensor[(1274), bool]) */
}

def @func_3439(%var_3436: Tensor[(792), float32], %var_3437: Tensor[(6, 2), float32], %var_3438: Tensor[(1274), bool]) -> (Tensor[(11, 9, 9), float64], Tensor[(11, 7, 2), float64], Tensor[(144), float64], Tensor[(2160), float64], Tensor[(1, 12), float32], Tensor[(792), float32], Tensor[(6, 2), float32], Tensor[(1274), bool]) {
  @func_3434(%var_3436, %var_3437, %var_3438) /* ty=(Tensor[(11, 9, 9), float64], Tensor[(11, 7, 2), float64], Tensor[(144), float64], Tensor[(2160), float64], Tensor[(1, 12), float32], Tensor[(792), float32], Tensor[(6, 2), float32], Tensor[(1274), bool]) */
}

def @func_1194(%var_1165: Tensor[(1274), bool], %var_1174: Tensor[(72), float32]) -> (Tensor[(13, 9, 11), float32], Tensor[(11, 7, 2), float64], Tensor[(1274), bool], Tensor[(144), float64], Tensor[(4, 6, 3), int8], Tensor[(72), float32], Tensor[(4, 6, 3), float32], Tensor[(11, 7, 2), float64], Tensor[(2160), float64]) {
  %286 = cast(meta[relay.Constant][19] /* ty=Tensor[(13, 9, 11), float32] */, dtype="float32") /* ty=Tensor[(13, 9, 11), float32] */;
  %287 = cast(%var_1165, dtype="bool") /* ty=Tensor[(1274), bool] */;
  %288 = cast(meta[relay.Constant][20] /* ty=Tensor[(144), float64] */, dtype="float64") /* ty=Tensor[(144), float64] */;
  %289 = reshape(%287, newshape=[1274]) /* ty=Tensor[(1274), bool] */;
  %290 = reshape(%288, newshape=[144]) /* ty=Tensor[(144), float64] */;
  %291 = @func_852(%289, %290) /* ty=(Tensor[(2, 1, 5), float64], Tensor[(7, 14, 13), bool], Tensor[(1274), bool], Tensor[(2, 1, 5), float64], Tensor[(11, 7, 2), float64], Tensor[(144), float64], Tensor[(60, 36), float64], Tensor[(11, 7, 2), float64]) */;
  %292 = cast(%var_1174, dtype="float32") /* ty=Tensor[(72), float32] */;
  %293 = reshape(%292, newshape=[4, 6, 3]) /* ty=Tensor[(4, 6, 3), float32] */;
  %294 = @func_735(%293) /* ty=(Tensor[(4, 6, 3), int8], Tensor[(4, 6, 3), float32]) */;
  %295 = %294.0;
  %296 = cast(%295, dtype="float32") /* ty=Tensor[(4, 6, 3), float32] */;
  %297 = reshape(%296, newshape=[4, 6, 3]) /* ty=Tensor[(4, 6, 3), float32] */;
  %298 = @func_735(%297) /* ty=(Tensor[(4, 6, 3), int8], Tensor[(4, 6, 3), float32]) */;
  %299 = cast(meta[relay.Constant][20] /* ty=Tensor[(144), float64] */, dtype="float64") /* ty=Tensor[(144), float64] */;
  %300 = cast(meta[relay.Constant][21] /* ty=Tensor[(2160), float64] */, dtype="float64") /* ty=Tensor[(2160), float64] */;
  %301 = reshape(%299, newshape=[16, 9, 1]) /* ty=Tensor[(16, 9, 1), float64] */;
  %302 = reshape(%300, newshape=[16, 9, 15]) /* ty=Tensor[(16, 9, 15), float64] */;
  %303 = @func_789(%301, %302) /* ty=(Tensor[(16, 9, 15), float64], Tensor[(11, 7, 2), float64], Tensor[(154), int32]) */;
  %304 = atan(%286) /* ty=Tensor[(13, 9, 11), float32] */;
  %305 = %291.7;
  %306 = %298.1;
  %307 = %303.1;
  (%304, %305, %var_1165, meta[relay.Constant][20] /* ty=Tensor[(144), float64] */, %295, %var_1174, %306, %307, meta[relay.Constant][21] /* ty=Tensor[(2160), float64] */)
}

def @func_5630(%var_5613: Tensor[(1, 12), float32], %var_5619: Tensor[(546), uint64], %var_5624: Tensor[(7, 182), bool]) -> (Tensor[(11, 9, 9), float64], Tensor[(11, 9, 9), float64], Tensor[(1, 12), float32], Tensor[(11, 9, 9), float64], Tensor[(1386), int16], Tensor[(672), int32], uint64, Tensor[(546), uint64], Tensor[(7, 14, 13), bool], Tensor[(7, 182), bool]) {
  %308 = cast(%var_5613, dtype="float32") /* ty=Tensor[(1, 12), float32] */;
  %309 = reshape(%308, newshape=[12]) /* ty=Tensor[(12), float32] */;
  %310 = @func_5038(%309) /* ty=(Tensor[(11, 9, 9), float64], Tensor[(4, 1, 3), float64], Tensor[(12), float32]) */;
  %311 = cast(meta[relay.Constant][22] /* ty=Tensor[(1386), int16] */, dtype="int16") /* ty=Tensor[(1386), int16] */;
  %312 = cast(meta[relay.Constant][23] /* ty=Tensor[(672), int32] */, dtype="int32") /* ty=Tensor[(672), int32] */;
  %313 = cast(meta[relay.Constant][24] /* ty=uint64 */, dtype="uint64") /* ty=uint64 */;
  %314 = cast(%var_5619, dtype="uint64") /* ty=Tensor[(546), uint64] */;
  %315 = reshape(%311, newshape=[1386]) /* ty=Tensor[(1386), int16] */;
  %316 = reshape(%312, newshape=[672]) /* ty=Tensor[(672), int32] */;
  %317 = reshape(%313, newshape=[]) /* ty=uint64 */;
  %318 = reshape(%314, newshape=[7, 78]) /* ty=Tensor[(7, 78), uint64] */;
  %319 = @func_4397(%315, %316, %317, %318) /* ty=(Tensor[(11, 9, 9), float64], Tensor[(11, 14, 9), bool], Tensor[(1386), int16], Tensor[(672), int32], Tensor[(11, 9, 9), float64], Tensor[(6, 13, 7), uint64], uint64, Tensor[(7, 78), uint64]) */;
  %320 = cast(%var_5624, dtype="bool") /* ty=Tensor[(7, 182), bool] */;
  %321 = cast(%var_5624, dtype="bool") /* ty=Tensor[(7, 182), bool] */;
  %322 = reshape(%320, newshape=[7, 14, 13]) /* ty=Tensor[(7, 14, 13), bool] */;
  %323 = reshape(%321, newshape=[7, 14, 13]) /* ty=Tensor[(7, 14, 13), bool] */;
  %324 = @func_4175() /* ty=Tensor[(11, 9, 9), float64] */;
  %325 = %310.0;
  %326 = %319.0;
  %327 = @func_169(%322, %323) /* ty=Tensor[(7, 14, 13), bool] */;
  (%324, %325, %var_5613, %326, meta[relay.Constant][22] /* ty=Tensor[(1386), int16] */, meta[relay.Constant][23] /* ty=Tensor[(672), int32] */, meta[relay.Constant][24] /* ty=uint64 */, %var_5619, %327, %var_5624)
}

def @func_7701() -> (Tensor[(11, 9, 9), float64],) {
  %330 = fn () -> (Tensor[(11, 9, 9), float64],) {
    %328 = @func_6187() /* ty=(Tensor[(11, 9, 9), float64], Tensor[(11, 9, 9), float64]) */;
    %329 = %328.1;
    (%329,)
  };
  %330() /* ty=(Tensor[(11, 9, 9), float64],) */
}

def @func_6630(%var_6626: Tensor[(12, 1), float32], %var_6627: Tensor[(546), uint64], %var_6628: Tensor[(1274), bool], %var_6629: Tensor[(210, 7), uint8]) -> (Tensor[(12, 1), float32], Tensor[(546), uint64], Tensor[(1274), bool], Tensor[(11, 9, 9), float64], Tensor[(210, 7), float32], Tensor[(210, 7), float64], Tensor[(210, 1), float64], Tensor[(11, 9, 9), float64], Tensor[(52), uint16], Tensor[(132), float32]) {
  @func_6624(%var_6626, %var_6627, %var_6628, %var_6629) /* ty=(Tensor[(12, 1), float32], Tensor[(546), uint64], Tensor[(1274), bool], Tensor[(11, 9, 9), float64], Tensor[(210, 7), float32], Tensor[(210, 7), float64], Tensor[(210, 1), float64], Tensor[(11, 9, 9), float64], Tensor[(52), uint16], Tensor[(132), float32]) */
}

def @func_6272() -> Tensor[(11, 9, 9), float64] {
  @func_6270() /* ty=Tensor[(11, 9, 9), float64] */
}

def @func_7583() -> Tensor[(11, 9, 9), float64] {
  %331 = @func_7380() /* ty=(Tensor[(11, 9, 9), float64],) */;
  %331.0
}

def @func_7358() -> (Tensor[(11, 9, 9), float64],) {
  %332 = @func_4534() /* ty=(Tensor[(11, 9, 9), float64],) */;
  %333 = %332.0;
  (%333,)
}

def @func_4787() -> (Tensor[(11, 9, 9), float64],) {
  %335 = fn () -> (Tensor[(11, 9, 9), float64],) {
    %334 = @func_3611() /* ty=Tensor[(11, 9, 9), float64] */;
    (%334,)
  };
  %335() /* ty=(Tensor[(11, 9, 9), float64],) */
}

def @func_3857(%var_3856: Tensor[(1440), uint32]) -> (Tensor[(210, 1), float32], Tensor[(16, 15, 6), bool], Tensor[(1440), uint32], Tensor[(11, 9, 9), float64]) {
  %345 = fn (%var_3846: Tensor[(1440), uint32]) -> (Tensor[(210, 1), float32], Tensor[(16, 15, 6), bool], Tensor[(1440), uint32], Tensor[(11, 9, 9), float64]) {
    %336 = @func_3711() /* ty=(Tensor[(11, 9, 9), float64], Tensor[(1, 15, 14), float32], Tensor[(210, 1), float32]) */;
    %337 = cast(%var_3846, dtype="uint32") /* ty=Tensor[(1440), uint32] */;
    %338 = cast(%var_3846, dtype="uint32") /* ty=Tensor[(1440), uint32] */;
    %339 = reshape(%337, newshape=[16, 15, 6]) /* ty=Tensor[(16, 15, 6), uint32] */;
    %340 = reshape(%338, newshape=[16, 15, 6]) /* ty=Tensor[(16, 15, 6), uint32] */;
    %341 = @func_1341(%339, %340) /* ty=(Tensor[(16, 15, 6), bool],) */;
    %342 = %336.2;
    %343 = %341.0;
    %344 = @func_3548() /* ty=Tensor[(11, 9, 9), float64] */;
    (%342, %343, %var_3846, %344)
  };
  %345(%var_3856) /* ty=(Tensor[(210, 1), float32], Tensor[(16, 15, 6), bool], Tensor[(1440), uint32], Tensor[(11, 9, 9), float64]) */
}

def @func_173(%var_171: Tensor[(7, 14, 13), bool], %var_172: Tensor[(7, 14, 13), bool]) -> Tensor[(7, 14, 13), bool] {
  @func_169(%var_171, %var_172) /* ty=Tensor[(7, 14, 13), bool] */
}

def @func_3081() -> (Tensor[(11, 9, 9), float64],) {
  @func_3079() /* ty=(Tensor[(11, 9, 9), float64],) */
}

def @func_5313() -> (Tensor[(11, 9, 9), float64], Tensor[(15, 14, 2), float32], Tensor[(420), float32]) {
  %352 = fn () -> (Tensor[(11, 9, 9), float64], Tensor[(15, 14, 2), float32], Tensor[(420), float32]) {
    %346 = @func_3790() /* ty=(Tensor[(11, 9, 9), float64],) */;
    %347 = cast(meta[relay.Constant][25] /* ty=Tensor[(420), float32] */, dtype="float32") /* ty=Tensor[(420), float32] */;
    %348 = reshape(%347, newshape=[15, 14, 2]) /* ty=Tensor[(15, 14, 2), float32] */;
    %349 = @func_3750(%348) /* ty=(Tensor[(15, 14, 2), float32], Tensor[(15, 14, 2), float32]) */;
    %350 = %346.0;
    %351 = %349.1;
    (%350, %351, meta[relay.Constant][25] /* ty=Tensor[(420), float32] */)
  };
  %352() /* ty=(Tensor[(11, 9, 9), float64], Tensor[(15, 14, 2), float32], Tensor[(420), float32]) */
}

def @func_3909(%var_3906: Tensor[(12), float32], %var_3907: Tensor[(52, 1), uint16], %var_3908: Tensor[(132), float32]) -> (Tensor[(11, 9, 9), float64], Tensor[(11, 9, 9), float64], Tensor[(12), float32], Tensor[(1584), float32], Tensor[(12), float32], Tensor[(11, 7, 2), float32], Tensor[(1274), bool], uint16, Tensor[(52, 1), uint16], Tensor[(132), float32]) {
  @func_3904(%var_3906, %var_3907, %var_3908) /* ty=(Tensor[(11, 9, 9), float64], Tensor[(11, 9, 9), float64], Tensor[(12), float32], Tensor[(1584), float32], Tensor[(12), float32], Tensor[(11, 7, 2), float32], Tensor[(1274), bool], uint16, Tensor[(52, 1), uint16], Tensor[(132), float32]) */
}

def @func_3613() -> Tensor[(11, 9, 9), float64] {
  @func_3611() /* ty=Tensor[(11, 9, 9), float64] */
}

def @func_5525(%var_5522: Tensor[(1274), bool], %var_5523: Tensor[(1, 1386), int16], %var_5524: Tensor[(672), int32]) -> (Tensor[(11, 9, 9), float64], Tensor[(11, 9, 9), float64], Tensor[(11, 9, 9), float64], Tensor[(4, 1, 3), float64], Tensor[(1274), bool], Tensor[(1, 1386), int16], Tensor[(672), int32]) {
  %367 = fn (%var_5506: Tensor[(1274), bool], %var_5507: Tensor[(1, 1386), int16], %var_5508: Tensor[(672), int32]) -> (Tensor[(11, 9, 9), float64], Tensor[(11, 9, 9), float64], Tensor[(11, 9, 9), float64], Tensor[(4, 1, 3), float64], Tensor[(1274), bool], Tensor[(1, 1386), int16], Tensor[(672), int32]) {
    %353 = @func_4786() /* ty=(Tensor[(11, 9, 9), float64],) */;
    %354 = @func_3583() /* ty=(Tensor[(11, 9, 9), float64],) */;
    %355 = @func_2906() /* ty=(Tensor[(11, 9, 9), float64],) */;
    %356 = cast(%var_5506, dtype="bool") /* ty=Tensor[(1274), bool] */;
    %357 = cast(%var_5507, dtype="int16") /* ty=Tensor[(1, 1386), int16] */;
    %358 = cast(%var_5508, dtype="int32") /* ty=Tensor[(672), int32] */;
    %359 = reshape(%356, newshape=[1274]) /* ty=Tensor[(1274), bool] */;
    %360 = reshape(%357, newshape=[1386]) /* ty=Tensor[(1386), int16] */;
    %361 = reshape(%358, newshape=[672]) /* ty=Tensor[(672), int32] */;
    %362 = @func_3385(%359, %360, %361) /* ty=(Tensor[(11, 9, 9), float64], Tensor[(7, 14, 13), bool], Tensor[(1274), bool], Tensor[(72), float32], Tensor[(1386), int16], Tensor[(672), int32], Tensor[(4, 1, 3), float64], Tensor[(12), float32]) */;
    %363 = %353.0;
    %364 = %354.0;
    %365 = %355.0;
    %366 = %362.6;
    (%363, %364, %365, %366, %var_5506, %var_5507, %var_5508)
  };
  %367(%var_5522, %var_5523, %var_5524) /* ty=(Tensor[(11, 9, 9), float64], Tensor[(11, 9, 9), float64], Tensor[(11, 9, 9), float64], Tensor[(4, 1, 3), float64], Tensor[(1274), bool], Tensor[(1, 1386), int16], Tensor[(672), int32]) */
}

def @func_6930() -> (Tensor[(11, 9, 9), float64],) {
  %370 = fn () -> (Tensor[(11, 9, 9), float64],) {
    %368 = @func_3583() /* ty=(Tensor[(11, 9, 9), float64],) */;
    %369 = %368.0;
    (%369,)
  };
  %370() /* ty=(Tensor[(11, 9, 9), float64],) */
}

def @func_6031() -> (Tensor[(11, 9, 9), float64], Tensor[(11, 9, 9), float64], Tensor[(11, 9, 9), float64]) {
  %379 = fn () -> (Tensor[(11, 9, 9), float64], Tensor[(11, 9, 9), float64], Tensor[(11, 9, 9), float64]) {
    %371 = @func_5882() /* ty=(Tensor[(11, 9, 9), float64], Tensor[(11, 9, 9), int64]) */;
    %372 = %371.0;
    %373 = cast(%372, dtype="float64") /* ty=Tensor[(11, 9, 9), float64] */;
    %374 = @func_3790() /* ty=(Tensor[(11, 9, 9), float64],) */;
    %375 = cast(%372, dtype="float64") /* ty=Tensor[(11, 9, 9), float64] */;
    %376 = sqrt(%373) /* ty=Tensor[(11, 9, 9), float64] */;
    %377 = %374.0;
    %378 = cosh(%375) /* ty=Tensor[(11, 9, 9), float64] */;
    (%376, %377, %378)
  };
  %379() /* ty=(Tensor[(11, 9, 9), float64], Tensor[(11, 9, 9), float64], Tensor[(11, 9, 9), float64]) */
}

def @func_7360() -> (Tensor[(11, 9, 9), float64],) {
  @func_7358() /* ty=(Tensor[(11, 9, 9), float64],) */
}

def @func_3031(%var_2963: Tensor[(11, 9, 9), float64], %var_2974: Tensor[(60, 24), uint32], %var_2981: Tensor[(52), uint16], %var_2982: Tensor[(132), float32], %var_3026: Tensor[(2160), float64]) -> (Tensor[(16, 15, 6), bool], Tensor[(11, 9, 9), int64], Tensor[(60, 24), uint32], uint16, Tensor[(52), uint16], Tensor[(3, 4, 11), bool], Tensor[(3, 4, 11), bool], Tensor[(16, 9, 15), float64], Tensor[(24, 6), float64], Tensor[(2160), float64]) {
  %380 = cast(meta[relay.Constant][26] /* ty=Tensor[(60, 24), uint32] */, dtype="uint32") /* ty=Tensor[(60, 24), uint32] */;
  %381 = cast(meta[relay.Constant][26] /* ty=Tensor[(60, 24), uint32] */, dtype="uint32") /* ty=Tensor[(60, 24), uint32] */;
  %382 = reshape(%380, newshape=[16, 15, 6]) /* ty=Tensor[(16, 15, 6), uint32] */;
  %383 = reshape(%381, newshape=[16, 15, 6]) /* ty=Tensor[(16, 15, 6), uint32] */;
  %384 = @func_1341(%382, %383) /* ty=(Tensor[(16, 15, 6), bool],) */;
  %385 = @func_2942() /* ty=(Tensor[(11, 9, 9), float64],) */;
  %386 = %385.0;
  %387 = cast(%var_2963, dtype="int64") /* ty=Tensor[(11, 9, 9), int64] */;
  %388 = shape_of(%386, dtype="int32") /* ty=Tensor[(3), int32] */;
  %389 = cast(%386, dtype="int64") /* ty=Tensor[(11, 9, 9), int64] */;
  %390 = dyn.reshape(%387, %388, newshape=[]) /* ty=Tensor[(?, ?, ?), int64] */;
  %391 = cast(%var_2974, dtype="uint32") /* ty=Tensor[(60, 24), uint32] */;
  %392 = shape_of(meta[relay.Constant][26] /* ty=Tensor[(60, 24), uint32] */, dtype="int32") /* ty=Tensor[(2), int32] */;
  %393 = cast(meta[relay.Constant][26] /* ty=Tensor[(60, 24), uint32] */, dtype="uint32") /* ty=Tensor[(60, 24), uint32] */;
  %394 = dyn.reshape(%391, %392, newshape=[]) /* ty=Tensor[(?, ?), uint32] */;
  %395 = cast(meta[relay.Constant][27] /* ty=uint16 */, dtype="uint16") /* ty=uint16 */;
  %396 = cast(%var_2981, dtype="uint16") /* ty=Tensor[(52), uint16] */;
  %397 = cast(%var_2982, dtype="float32") /* ty=Tensor[(132), float32] */;
  %398 = reshape(%395, newshape=[]) /* ty=uint16 */;
  %399 = reshape(%396, newshape=[13, 4, 1]) /* ty=Tensor[(13, 4, 1), uint16] */;
  %400 = reshape(%397, newshape=[132]) /* ty=Tensor[(132), float32] */;
  %401 = @func_2285(%398, %399, %400) /* ty=(Tensor[(13, 4, 1), uint16], Tensor[(3, 4, 11), float64], Tensor[(132), float32], Tensor[(1274), bool]) */;
  %402 = %401.1;
  %403 = cast(%402, dtype="float32") /* ty=Tensor[(3, 4, 11), float32] */;
  %404 = exp(%403) /* ty=Tensor[(3, 4, 11), float32] */;
  %405 = cast(%402, dtype="bool") /* ty=Tensor[(3, 4, 11), bool] */;
  %406 = shape_of(%404, dtype="int32") /* ty=Tensor[(3), int32] */;
  %407 = cast(%404, dtype="bool") /* ty=Tensor[(3, 4, 11), bool] */;
  %408 = dyn.reshape(%405, %406, newshape=[]) /* ty=Tensor[(?, ?, ?), bool] */;
  %409 = cast(%404, dtype="float32") /* ty=Tensor[(3, 4, 11), float32] */;
  %410 = sinh(%409) /* ty=Tensor[(3, 4, 11), float32] */;
  %411 = cast(%var_2982, dtype="bool") /* ty=Tensor[(132), bool] */;
  %412 = shape_of(%410, dtype="int32") /* ty=Tensor[(3), int32] */;
  %413 = cast(%410, dtype="bool") /* ty=Tensor[(3, 4, 11), bool] */;
  %414 = dyn.reshape(%411, %412, newshape=[]) /* ty=Tensor[(?, ?, ?), bool] */;
  %415 = cast(meta[relay.Constant][28] /* ty=Tensor[(24, 6), float64] */, dtype="float64") /* ty=Tensor[(24, 6), float64] */;
  %416 = cast(%var_3026, dtype="float64") /* ty=Tensor[(2160), float64] */;
  %417 = reshape(%415, newshape=[16, 9, 1]) /* ty=Tensor[(16, 9, 1), float64] */;
  %418 = reshape(%416, newshape=[16, 9, 15]) /* ty=Tensor[(16, 9, 15), float64] */;
  %419 = @func_789(%417, %418) /* ty=(Tensor[(16, 9, 15), float64], Tensor[(11, 7, 2), float64], Tensor[(154), int32]) */;
  %420 = %384.0;
  %421 = add(%389, %390) /* ty=Tensor[(11, 9, 9), int64] */;
  %422 = add(%393, %394) /* ty=Tensor[(60, 24), uint32] */;
  %423 = equal(%407, %408) /* ty=Tensor[(3, 4, 11), bool] */;
  %424 = logical_and(%413, %414) /* ty=Tensor[(3, 4, 11), bool] */;
  %425 = %419.0;
  (%420, %421, %422, meta[relay.Constant][27] /* ty=uint16 */, %var_2981, %423, %424, %425, meta[relay.Constant][28] /* ty=Tensor[(24, 6), float64] */, %var_3026)
}

def @func_4403(%var_4399: Tensor[(1386), int16], %var_4400: Tensor[(672), int32], %var_4401: uint64, %var_4402: Tensor[(7, 78), uint64]) -> (Tensor[(11, 9, 9), float64], Tensor[(11, 14, 9), bool], Tensor[(1386), int16], Tensor[(672), int32], Tensor[(11, 9, 9), float64], Tensor[(6, 13, 7), uint64], uint64, Tensor[(7, 78), uint64]) {
  @func_4397(%var_4399, %var_4400, %var_4401, %var_4402) /* ty=(Tensor[(11, 9, 9), float64], Tensor[(11, 14, 9), bool], Tensor[(1386), int16], Tensor[(672), int32], Tensor[(11, 9, 9), float64], Tensor[(6, 13, 7), uint64], uint64, Tensor[(7, 78), uint64]) */
}

def @func_5419() -> (Tensor[(9, 4, 9), float64], Tensor[(1584), float32], Tensor[(12), float32], Tensor[(11, 9, 9), float64], Tensor[(9, 11, 16), bool]) {
  @func_5417() /* ty=(Tensor[(9, 4, 9), float64], Tensor[(1584), float32], Tensor[(12), float32], Tensor[(11, 9, 9), float64], Tensor[(9, 11, 16), bool]) */
}

def @func_6650() -> (Tensor[(9, 4, 9), float64],) {
  @func_6648() /* ty=(Tensor[(9, 4, 9), float64],) */
}

def @func_1476(%var_1474: Tensor[(16, 7, 6), int32], %var_1475: Tensor[(1, 72), float32]) -> (Tensor[(16, 7, 6), int16], Tensor[(?, 72), bool]) {
  %445 = fn (%var_1447: Tensor[(16, 7, 6), int32], %var_1465: Tensor[(1, 72), float32]) -> (Tensor[(16, 7, 6), int16], Tensor[(?, 72), bool]) {
    %426 = cast(%var_1447, dtype="int32") /* ty=Tensor[(16, 7, 6), int32] */;
    %427 = shape_of(meta[relay.Constant][29] /* ty=Tensor[(16, 7, 6), int32] */, dtype="int32") /* ty=Tensor[(3), int32] */;
    %428 = cast(meta[relay.Constant][29] /* ty=Tensor[(16, 7, 6), int32] */, dtype="int32") /* ty=Tensor[(16, 7, 6), int32] */;
    %429 = dyn.reshape(%426, %427, newshape=[]) /* ty=Tensor[(?, ?, ?), int32] */;
    %430 = minimum(%428, %429) /* ty=Tensor[(16, 7, 6), int32] */;
    %431 = cast(meta[relay.Constant][29] /* ty=Tensor[(16, 7, 6), int32] */, dtype="int16") /* ty=Tensor[(16, 7, 6), int16] */;
    %432 = shape_of(%430, dtype="int32") /* ty=Tensor[(3), int32] */;
    %433 = cast(%430, dtype="int16") /* ty=Tensor[(16, 7, 6), int16] */;
    %434 = dyn.reshape(%431, %432, newshape=[]) /* ty=Tensor[(?, ?, ?), int16] */;
    %435 = cast(%var_1465, dtype="float32") /* ty=Tensor[(1, 72), float32] */;
    %436 = reshape(%435, newshape=[4, 6, 3]) /* ty=Tensor[(4, 6, 3), float32] */;
    %437 = @func_735(%436) /* ty=(Tensor[(4, 6, 3), int8], Tensor[(4, 6, 3), float32]) */;
    %438 = %437.0;
    %439 = cast(%438, dtype="bool") /* ty=Tensor[(4, 6, 3), bool] */;
    %440 = shape_of(%var_1465, dtype="int32") /* ty=Tensor[(2), int32] */;
    %441 = cast(%var_1465, dtype="bool") /* ty=Tensor[(1, 72), bool] */;
    %442 = dyn.reshape(%439, %440, newshape=[]) /* ty=Tensor[(?, ?), bool] */;
    %443 = right_shift(%433, %434) /* ty=Tensor[(16, 7, 6), int16] */;
    %444 = logical_and(%441, %442) /* ty=Tensor[(?, 72), bool] */;
    (%443, %444)
  };
  %445(%var_1474, %var_1475) /* ty=(Tensor[(16, 7, 6), int16], Tensor[(?, 72), bool]) */
}

def @func_5884() -> (Tensor[(11, 9, 9), float64], Tensor[(11, 9, 9), int64]) {
  @func_5882() /* ty=(Tensor[(11, 9, 9), float64], Tensor[(11, 9, 9), int64]) */
}

def @func_3038(%var_3033: Tensor[(11, 9, 9), float64], %var_3034: Tensor[(60, 24), uint32], %var_3035: Tensor[(52), uint16], %var_3036: Tensor[(132), float32], %var_3037: Tensor[(2160), float64]) -> (Tensor[(16, 15, 6), bool], Tensor[(11, 9, 9), int64], Tensor[(60, 24), uint32], uint16, Tensor[(52), uint16], Tensor[(3, 4, 11), bool], Tensor[(3, 4, 11), bool], Tensor[(16, 9, 15), float64], Tensor[(24, 6), float64], Tensor[(2160), float64]) {
  @func_3031(%var_3033, %var_3034, %var_3035, %var_3036, %var_3037) /* ty=(Tensor[(16, 15, 6), bool], Tensor[(11, 9, 9), int64], Tensor[(60, 24), uint32], uint16, Tensor[(52), uint16], Tensor[(3, 4, 11), bool], Tensor[(3, 4, 11), bool], Tensor[(16, 9, 15), float64], Tensor[(24, 6), float64], Tensor[(2160), float64]) */
}

def @func_4960() -> Tensor[(9, 4, 9), float64] {
  %446 = @func_3206() /* ty=(Tensor[(9, 4, 9), float64],) */;
  %446.0
}

def @func_5187() -> (Tensor[(11, 9, 9), float64], Tensor[(4, 1, 3), float64], Tensor[(6, 2), float32]) {
  %452 = fn () -> (Tensor[(11, 9, 9), float64], Tensor[(4, 1, 3), float64], Tensor[(6, 2), float32]) {
    %447 = cast(meta[relay.Constant][30] /* ty=Tensor[(6, 2), float32] */, dtype="float32") /* ty=Tensor[(6, 2), float32] */;
    %448 = reshape(%447, newshape=[4, 1, 3]) /* ty=Tensor[(4, 1, 3), float32] */;
    %449 = @func_1232(%448) /* ty=(Tensor[(4, 1, 3), float64],) */;
    %450 = @func_3611() /* ty=Tensor[(11, 9, 9), float64] */;
    %451 = %449.0;
    (%450, %451, meta[relay.Constant][30] /* ty=Tensor[(6, 2), float32] */)
  };
  %452() /* ty=(Tensor[(11, 9, 9), float64], Tensor[(4, 1, 3), float64], Tensor[(6, 2), float32]) */
}

def @func_7381() -> (Tensor[(11, 9, 9), float64],) {
  %455 = fn () -> (Tensor[(11, 9, 9), float64],) {
    %453 = @func_4534() /* ty=(Tensor[(11, 9, 9), float64],) */;
    %454 = %453.0;
    (%454,)
  };
  %455() /* ty=(Tensor[(11, 9, 9), float64],) */
}

def @func_7585() -> Tensor[(11, 9, 9), float64] {
  @func_7583() /* ty=Tensor[(11, 9, 9), float64] */
}

def @func_5225() -> Tensor[(11, 9, 9), float64] {
  %456 = @func_3790() /* ty=(Tensor[(11, 9, 9), float64],) */;
  %456.0
}

def @func_3611() -> Tensor[(11, 9, 9), float64] {
  @func_3548() /* ty=Tensor[(11, 9, 9), float64] */
}

def @func_4125(%var_4124: Tensor[(3, 8, 3), int32]) -> Tensor[(3, 8, 3), bool] {
  %461 = fn (%var_4110: Tensor[(3, 8, 3), int32]) -> Tensor[(3, 8, 3), bool] {
    %457 = cast(meta[relay.Constant][31] /* ty=Tensor[(3, 8, 3), int32] */, dtype="bool") /* ty=Tensor[(3, 8, 3), bool] */;
    %458 = shape_of(%var_4110, dtype="int32") /* ty=Tensor[(3), int32] */;
    %459 = cast(%var_4110, dtype="bool") /* ty=Tensor[(3, 8, 3), bool] */;
    %460 = dyn.reshape(%457, %458, newshape=[]) /* ty=Tensor[(?, ?, ?), bool] */;
    less(%459, %460) /* ty=Tensor[(3, 8, 3), bool] */
  };
  %461(%var_4124) /* ty=Tensor[(3, 8, 3), bool] */
}

def @func_6875(%var_6837: Tensor[(1274), bool]) -> (Tensor[(891), int64], Tensor[(132), float32], Tensor[(1274), bool]) {
  %462 = @func_2844() /* ty=(Tensor[(9, 4, 9), float64], Tensor[(11, 9, 9), int64], Tensor[(891), int64]) */;
  %463 = cast(%var_6837, dtype="bool") /* ty=Tensor[(1274), bool] */;
  %464 = reshape(%463, newshape=[1274]) /* ty=Tensor[(1274), bool] */;
  %465 = @func_6513(%464) /* ty=(Tensor[(11, 9, 9), float64], Tensor[(132), float32], Tensor[(132), float32], Tensor[(1274), bool]) */;
  %466 = %462.2;
  %467 = %465.2;
  (%466, %467, %var_6837)
}

…
  %597 = @func_789(%595, %596) /* ty=(Tensor[(16, 9, 15), float64], Tensor[(11, 7, 2), float64], Tensor[(154), int32]) */;
  %598 = %597.1;
  %599 = cast(%598, dtype="int32") /* ty=Tensor[(11, 7, 2), int32] */;
  %600 = reshape(%599, newshape=[11, 7, 2]) /* ty=Tensor[(11, 7, 2), int32] */;
  %601 = @func_27(%600) /* ty=(Tensor[(11, 7, 2), float64],) */;
  %602 = sinh(%585) /* ty=Tensor[(2, 1, 5), float64] */;
  %603 = @func_169(%588, %589) /* ty=Tensor[(7, 14, 13), bool] */;
  %604 = atan(%592) /* ty=Tensor[(2, 1, 5), float64] */;
  %605 = %601.0;
  (%602, %603, %var_827, %604, %598, %var_837, meta[relay.Constant][44] /* ty=Tensor[(60, 36), float64] */, %605)
}

def @func_4933() -> (Tensor[(9, 4, 9), float64],) {
  %608 = fn () -> (Tensor[(9, 4, 9), float64],) {
    %606 = @func_3206() /* ty=(Tensor[(9, 4, 9), float64],) */;
    %607 = %606.0;
    (%607,)
  };
  %608() /* ty=(Tensor[(9, 4, 9), float64],) */
}

def @func_3390(%var_3387: Tensor[(1274), bool], %var_3388: Tensor[(1386), int16], %var_3389: Tensor[(672), int32]) -> (Tensor[(11, 9, 9), float64], Tensor[(7, 14, 13), bool], Tensor[(1274), bool], Tensor[(72), float32], Tensor[(1386), int16], Tensor[(672), int32], Tensor[(4, 1, 3), float64], Tensor[(12), float32]) {
  @func_3385(%var_3387, %var_3388, %var_3389) /* ty=(Tensor[(11, 9, 9), float64], Tensor[(7, 14, 13), bool], Tensor[(1274), bool], Tensor[(72), float32], Tensor[(1386), int16], Tensor[(672), int32], Tensor[(4, 1, 3), float64], Tensor[(12), float32]) */
}

def @func_7005() -> (Tensor[(420), float32], Tensor[(11, 9, 9), float64], Tensor[(11, 7, 2), float64], Tensor[(154), int32]) {
  @func_7003() /* ty=(Tensor[(420), float32], Tensor[(11, 9, 9), float64], Tensor[(11, 7, 2), float64], Tensor[(154), int32]) */
}

def @func_7494() -> (Tensor[(11, 9, 9), float64],) {
  %609 = @func_7358() /* ty=(Tensor[(11, 9, 9), float64],) */;
  %610 = %609.0;
  (%610,)
}

def @func_6270() -> Tensor[(11, 9, 9), float64] {
  %611 = @func_4473() /* ty=(Tensor[(11, 9, 9), float64],) */;
  %611.0
}

def @func_2846() -> (Tensor[(9, 4, 9), float64], Tensor[(11, 9, 9), int64], Tensor[(891), int64]) {
  @func_2844() /* ty=(Tensor[(9, 4, 9), float64], Tensor[(11, 9, 9), int64], Tensor[(891), int64]) */
}

def @func_6346() -> (Tensor[(11, 9, 9), float64], Tensor[(11, 9, 9), float64]) {
  %612 = @func_4018() /* ty=(Tensor[(11, 9, 9), float64], Tensor[(11, 14, 9), bool], Tensor[(1386), int16], Tensor[(672), int32], Tensor[(11, 9, 9), float64]) */;
  %613 = %612.4;
  %614 = @func_3548() /* ty=Tensor[(11, 9, 9), float64] */;
  (%613, %614)
}

def @func_7110() -> (Tensor[(2, 9, 1), bool], Tensor[(9, 4, 9), bool], Tensor[(8, 8, 5), bool], Tensor[(64), int32], Tensor[(8, 40), float64]) {
  %615 = cast(1.56748f /* ty=float32 */, dtype="bool") /* ty=bool */;
  %616 = cast(meta[relay.Constant][45] /* ty=Tensor[(2, 9, 1), float32] */, dtype="bool") /* ty=Tensor[(2, 9, 1), bool] */;
  %617 = @func_5358() /* ty=(Tensor[(11, 9, 9), float64], Tensor[(9, 4, 9), float64]) */;
  %618 = %617.1;
  %619 = cast(meta[relay.Constant][46] /* ty=Tensor[(9, 4, 9), float64] */, dtype="bool") /* ty=Tensor[(9, 4, 9), bool] */;
  %620 = shape_of(%618, dtype="int32") /* ty=Tensor[(3), int32] */;
  %621 = cast(%618, dtype="bool") /* ty=Tensor[(9, 4, 9), bool] */;
  %622 = dyn.reshape(%619, %620, newshape=[]) /* ty=Tensor[(?, ?, ?), bool] */;
  %623 = cast(meta[relay.Constant][47] /* ty=Tensor[(64), int32] */, dtype="int32") /* ty=Tensor[(64), int32] */;
  %624 = cast(meta[relay.Constant][48] /* ty=Tensor[(8, 40), float64] */, dtype="float64") /* ty=Tensor[(8, 40), float64] */;
  %625 = reshape(%623, newshape=[8, 8, 1]) /* ty=Tensor[(8, 8, 1), int32] */;
  %626 = reshape(%624, newshape=[8, 8, 5]) /* ty=Tensor[(8, 8, 5), float64] */;
  %627 = @func_4637(%625, %626) /* ty=(Tensor[(8, 8, 5), bool], Tensor[(8, 8, 5), bool]) */;
  %628 = greater_equal(%615, %616) /* ty=Tensor[(2, 9, 1), bool] */;
  %629 = logical_and(%621, %622) /* ty=Tensor[(9, 4, 9), bool] */;
  %630 = %627.1;
  (%628, %629, %630, meta[relay.Constant][47] /* ty=Tensor[(64), int32] */, meta[relay.Constant][48] /* ty=Tensor[(8, 40), float64] */)
}

def @func_2637(%var_2531: Tensor[(8, 9, 11), float32], %var_2536: Tensor[(2160), float64], %var_2599: Tensor[(1, 12), float32], %var_2606: Tensor[(1274), bool]) -> (Tensor[(16, 9, 15), float64], Tensor[(1, 144), float64], Tensor[(2160), float64], Tensor[(8, 9, 11), uint32], Tensor[(8, 9, 11), float64], Tensor[(12), float32], Tensor[(1584), float32], Tensor[(1, 12), float32], Tensor[(11, 7, 2), float64], Tensor[(1274), bool], Tensor[(11, 7, 2), float64]) {
  %631 = cast(meta[relay.Constant][49] /* ty=Tensor[(1, 144), float64] */, dtype="float64") /* ty=Tensor[(1, 144), float64] */;
  %632 = cast(%var_2536, dtype="float64") /* ty=Tensor[(2160), float64] */;
  %633 = reshape(%631, newshape=[16, 9, 1]) /* ty=Tensor[(16, 9, 1), float64] */;
  %634 = reshape(%632, newshape=[16, 9, 15]) /* ty=Tensor[(16, 9, 15), float64] */;
  %635 = @func_789(%633, %634) /* ty=(Tensor[(16, 9, 15), float64], Tensor[(11, 7, 2), float64], Tensor[(154), int32]) */;
  %636 = cast(%var_2531, dtype="float32") /* ty=Tensor[(8, 9, 11), float32] */;
  %637 = cos(%636) /* ty=Tensor[(8, 9, 11), float32] */;
  %638 = cast(%var_2531, dtype="uint32") /* ty=Tensor[(8, 9, 11), uint32] */;
  %639 = shape_of(%637, dtype="int32") /* ty=Tensor[(3), int32] */;
  %640 = cast(%637, dtype="uint32") /* ty=Tensor[(8, 9, 11), uint32] */;
  %641 = dyn.reshape(%638, %639, newshape=[]) /* ty=Tensor[(?, ?, ?), uint32] */;
  %642 = cast(%var_2531, dtype="float64") /* ty=Tensor[(8, 9, 11), float64] */;
  %643 = cast(meta[relay.Constant][50] /* ty=Tensor[(1584), float32] */, dtype="float32") /* ty=Tensor[(1584), float32] */;
  %644 = cast(meta[relay.Constant][50] /* ty=Tensor[(1584), float32] */, dtype="float32") /* ty=Tensor[(1584), float32] */;
  %645 = cast(%var_2599, dtype="float32") /* ty=Tensor[(1, 12), float32] */;
  %646 = reshape(%643, newshape=[9, 11, 16]) /* ty=Tensor[(9, 11, 16), float32] */;
  %647 = reshape(%644, newshape=[9, 11, 16]) /* ty=Tensor[(9, 11, 16), float32] */;
  %648 = reshape(%645, newshape=[12]) /* ty=Tensor[(12), float32] */;
  %649 = @func_2148(%646, %647, %648) /* ty=(Tensor[(9, 11, 16), float64], Tensor[(4, 1, 3), float64], Tensor[(12), float32]) */;
  %650 = cast(%var_2606, dtype="bool") /* ty=Tensor[(1274), bool] */;
  %651 = cast(meta[relay.Constant][49] /* ty=Tensor[(1, 144), float64] */, dtype="float64") /* ty=Tensor[(1, 144), float64] */;
  %652 = reshape(%650, newshape=[1274]) /* ty=Tensor[(1274), bool] */;
  %653 = reshape(%651, newshape=[144]) /* ty=Tensor[(144), float64] */;
  %654 = @func_852(%652, %653) /* ty=(Tensor[(2, 1, 5), float64], Tensor[(7, 14, 13), bool], Tensor[(1274), bool], Tensor[(2, 1, 5), float64], Tensor[(11, 7, 2), float64], Tensor[(144), float64], Tensor[(60, 36), float64], Tensor[(11, 7, 2), float64]) */;
  %655 = cast(%var_2606, dtype="bool") /* ty=Tensor[(1274), bool] */;
  %656 = cast(meta[relay.Constant][49] /* ty=Tensor[(1, 144), float64] */, dtype="float64") /* ty=Tensor[(1, 144), float64] */;
  %657 = reshape(%655, newshape=[1274]) /* ty=Tensor[(1274), bool] */;
  %658 = reshape(%656, newshape=[144]) /* ty=Tensor[(144), float64] */;
  %659 = @func_852(%657, %658) /* ty=(Tensor[(2, 1, 5), float64], Tensor[(7, 14, 13), bool], Tensor[(1274), bool], Tensor[(2, 1, 5), float64], Tensor[(11, 7, 2), float64], Tensor[(144), float64], Tensor[(60, 36), float64], Tensor[(11, 7, 2), float64]) */;
  %660 = %635.0;
  %661 = left_shift(%640, %641) /* ty=Tensor[(8, 9, 11), uint32] */;
  %662 = log(%642) /* ty=Tensor[(8, 9, 11), float64] */;
  %663 = %649.2;
  %664 = %654.4;
  %665 = %659.7;
  (%660, meta[relay.Constant][49] /* ty=Tensor[(1, 144), float64] */, %var_2536, %661, %662, %663, meta[relay.Constant][50] /* ty=Tensor[(1584), float32] */, %var_2599, %664, %var_2606, %665)
}

def @func_6823(%var_6822: Tensor[(8, 1, 10), float64]) -> (Tensor[(8, ?, 10), float32], Tensor[(8, ?, 10), bool], Tensor[(11, 9, 9), float64]) {
  %682 = fn (%var_6773: Tensor[(8, 1, 10), float64]) -> (Tensor[(8, ?, 10), float32], Tensor[(8, ?, 10), bool], Tensor[(11, 9, 9), float64]) {
    %666 = cast(%var_6773, dtype="float64") /* ty=Tensor[(8, 1, 10), float64] */;
    %667 = cos(%666) /* ty=Tensor[(8, 1, 10), float64] */;
    %668 = cast(%667, dtype="float32") /* ty=Tensor[(8, 1, 10), float32] */;
    %669 = shape_of(%var_6773, dtype="int32") /* ty=Tensor[(3), int32] */;
    %670 = cast(%var_6773, dtype="float32") /* ty=Tensor[(8, 1, 10), float32] */;
    %671 = dyn.reshape(%668, %669, newshape=[]) /* ty=Tensor[(?, ?, ?), float32] */;
    %672 = cast(%var_6773, dtype="float32") /* ty=Tensor[(8, 1, 10), float32] */;
    %673 = rsqrt(%672) /* ty=Tensor[(8, 1, 10), float32] */;
    %674 = cast(%673, dtype="bool") /* ty=Tensor[(8, 1, 10), bool] */;
    %675 = shape_of(%667, dtype="int32") /* ty=Tensor[(3), int32] */;
    %676 = cast(%667, dtype="bool") /* ty=Tensor[(8, 1, 10), bool] */;
    %677 = dyn.reshape(%674, %675, newshape=[]) /* ty=Tensor[(?, ?, ?), bool] */;
    %678 = @func_4027() /* ty=(Tensor[(11, 9, 9), float64],) */;
    %679 = divide(%670, %671) /* ty=Tensor[(8, ?, 10), float32] */;
    %680 = greater(%676, %677) /* ty=Tensor[(8, ?, 10), bool] */;
    %681 = %678.0;
    (%679, %680, %681)
  };
  %682(%var_6822) /* ty=(Tensor[(8, ?, 10), float32], Tensor[(8, ?, 10), bool], Tensor[(11, 9, 9), float64]) */
}

def @func_4962() -> Tensor[(9, 4, 9), float64] {
  @func_4960() /* ty=Tensor[(9, 4, 9), float64] */
}

def @func_3752(%var_3751: Tensor[(15, 14, 2), float32]) -> (Tensor[(15, 14, 2), float32], Tensor[(15, 14, 2), float32]) {
  %695 = fn (%var_3742: Tensor[(15, 14, 2), float32]) -> (Tensor[(15, 14, 2), float32], Tensor[(15, 14, 2), float32]) {
    %683 = cast(meta[relay.Constant][51] /* ty=Tensor[(15, 14, 2), float32] */, dtype="float32") /* ty=Tensor[(15, 14, 2), float32] */;
    %684 = asinh(%683) /* ty=Tensor[(15, 14, 2), float32] */;
    %685 = cast(meta[relay.Constant][51] /* ty=Tensor[(15, 14, 2), float32] */, dtype="float32") /* ty=Tensor[(15, 14, 2), float32] */;
    %686 = shape_of(%684, dtype="int32") /* ty=Tensor[(3), int32] */;
    %687 = cast(%684, dtype="float32") /* ty=Tensor[(15, 14, 2), float32] */;
    %688 = dyn.reshape(%685, %686, newshape=[]) /* ty=Tensor[(?, ?, ?), float32] */;
    %689 = cast(%var_3742, dtype="float32") /* ty=Tensor[(15, 14, 2), float32] */;
    %690 = shape_of(meta[relay.Constant][51] /* ty=Tensor[(15, 14, 2), float32] */, dtype="int32") /* ty=Tensor[(3), int32] */;
    %691 = cast(meta[relay.Constant][51] /* ty=Tensor[(15, 14, 2), float32] */, dtype="float32") /* ty=Tensor[(15, 14, 2), float32] */;
    %692 = dyn.reshape(%689, %690, newshape=[]) /* ty=Tensor[(?, ?, ?), float32] */;
    %693 = add(%687, %688) /* ty=Tensor[(15, 14, 2), float32] */;
    %694 = power(%691, %692) /* ty=Tensor[(15, 14, 2), float32] */;
    (%693, %694)
  };
  %695(%var_3751) /* ty=(Tensor[(15, 14, 2), float32], Tensor[(15, 14, 2), float32]) */
}

def @func_5132(%var_5130: int32, %var_5131: Tensor[(4, 14, 8), int32]) -> (Tensor[(4, 14, 8), float32], Tensor[(9, 4, 9), float64], Tensor[(4, 14, 8), uint16]) {
  %708 = fn (%var_5092: int32, %var_5093: Tensor[(4, 14, 8), int32]) -> (Tensor[(4, 14, 8), float32], Tensor[(9, 4, 9), float64], Tensor[(4, 14, 8), uint16]) {
    %696 = cast(%var_5092, dtype="float32") /* ty=float32 */;
    %697 = cast(%var_5093, dtype="float32") /* ty=Tensor[(4, 14, 8), float32] */;
    %698 = cast(%var_5092, dtype="int32") /* ty=int32 */;
    %699 = cast(%var_5093, dtype="int32") /* ty=Tensor[(4, 14, 8), int32] */;
    %700 = bitwise_or(%698, %699) /* ty=Tensor[(4, 14, 8), int32] */;
    %701 = cast(%var_5093, dtype="uint16") /* ty=Tensor[(4, 14, 8), uint16] */;
    %702 = shape_of(%700, dtype="int32") /* ty=Tensor[(3), int32] */;
    %703 = cast(%700, dtype="uint16") /* ty=Tensor[(4, 14, 8), uint16] */;
    %704 = dyn.reshape(%701, %702, newshape=[]) /* ty=Tensor[(?, ?, ?), uint16] */;
    %705 = divide(%696, %697) /* ty=Tensor[(4, 14, 8), float32] */;
    %706 = @func_4960() /* ty=Tensor[(9, 4, 9), float64] */;
    %707 = bitwise_xor(%703, %704) /* ty=Tensor[(4, 14, 8), uint16] */;
    (%705, %706, %707)
  };
  %708(%var_5130, %var_5131) /* ty=(Tensor[(4, 14, 8), float32], Tensor[(9, 4, 9), float64], Tensor[(4, 14, 8), uint16]) */
}

def @func_5807() -> (Tensor[(11, 9, 9), float64], Tensor[(11, 9, 9), float64]) {
  %713 = fn () -> (Tensor[(11, 9, 9), float64], Tensor[(11, 9, 9), float64]) {
    %709 = @func_4786() /* ty=(Tensor[(11, 9, 9), float64],) */;
    %710 = @func_3195() /* ty=(Tensor[(11, 9, 9), float64],) */;
    %711 = %709.0;
    %712 = %710.0;
    (%711, %712)
  };
  %713() /* ty=(Tensor[(11, 9, 9), float64], Tensor[(11, 9, 9), float64]) */
}

def @func_3584() -> (Tensor[(11, 9, 9), float64],) {
  %716 = fn () -> (Tensor[(11, 9, 9), float64],) {
    %714 = @func_2942() /* ty=(Tensor[(11, 9, 9), float64],) */;
    %715 = %714.0;
    (%715,)
  };
  %716() /* ty=(Tensor[(11, 9, 9), float64],) */
}

def @func_4675(%var_4673: Tensor[(144, 1), float64], %var_4674: Tensor[(132), float32]) -> (Tensor[(11, 9, 9), float64], Tensor[(11, 7, 2), float64], Tensor[(144, 1), float64], Tensor[(2160), float64], Tensor[(16, 9, 15), float64], Tensor[(1440), uint32], Tensor[(52), uint16], Tensor[(132), float32]) {
  %737 = fn (%var_4653: Tensor[(144, 1), float64], %var_4667: Tensor[(132), float32]) -> (Tensor[(11, 9, 9), float64], Tensor[(11, 7, 2), float64], Tensor[(144, 1), float64], Tensor[(2160), float64], Tensor[(16, 9, 15), float64], Tensor[(1440), uint32], Tensor[(52), uint16], Tensor[(132), float32]) {
    %717 = @func_3079() /* ty=(Tensor[(11, 9, 9), float64],) */;
    %718 = cast(%var_4653, dtype="float64") /* ty=Tensor[(144, 1), float64] */;
    %719 = cast(meta[relay.Constant][52] /* ty=Tensor[(2160), float64] */, dtype="float64") /* ty=Tensor[(2160), float64] */;
    %720 = reshape(%718, newshape=[16, 9, 1]) /* ty=Tensor[(16, 9, 1), float64] */;
    %721 = reshape(%719, newshape=[16, 9, 15]) /* ty=Tensor[(16, 9, 15), float64] */;
    %722 = @func_789(%720, %721) /* ty=(Tensor[(16, 9, 15), float64], Tensor[(11, 7, 2), float64], Tensor[(154), int32]) */;
    %723 = %717.0;
    %724 = cast(%723, dtype="float64") /* ty=Tensor[(11, 9, 9), float64] */;
    %725 = cast(meta[relay.Constant][53] /* ty=Tensor[(1440), uint32] */, dtype="uint32") /* ty=Tensor[(1440), uint32] */;
    %726 = cast(meta[relay.Constant][54] /* ty=Tensor[(52), uint16] */, dtype="uint16") /* ty=Tensor[(52), uint16] */;
    %727 = cast(%var_4667, dtype="float32") /* ty=Tensor[(132), float32] */;
    %728 = cast(meta[relay.Constant][52] /* ty=Tensor[(2160), float64] */, dtype="float64") /* ty=Tensor[(2160), float64] */;
    %729 = reshape(%724, newshape=[11, 9, 9]) /* ty=Tensor[(11, 9, 9), float64] */;
    %730 = reshape(%725, newshape=[60, 24]) /* ty=Tensor[(60, 24), uint32] */;
    %731 = reshape(%726, newshape=[52]) /* ty=Tensor[(52), uint16] */;
    %732 = reshape(%727, newshape=[132]) /* ty=Tensor[(132), float32] */;
    %733 = reshape(%728, newshape=[2160]) /* ty=Tensor[(2160), float64] */;
    %734 = @func_3031(%729, %730, %731, %732, %733) /* ty=(Tensor[(16, 15, 6), bool], Tensor[(11, 9, 9), int64], Tensor[(60, 24), uint32], uint16, Tensor[(52), uint16], Tensor[(3, 4, 11), bool], Tensor[(3, 4, 11), bool], Tensor[(16, 9, 15), float64], Tensor[(24, 6), float64], Tensor[(2160), float64]) */;
    %735 = %722.1;
    %736 = %734.7;
    (%723, %735, %var_4653, meta[relay.Constant][52] /* ty=Tensor[(2160), float64] */, %736, meta[relay.Constant][53] /* ty=Tensor[(1440), uint32] */, meta[relay.Constant][54] /* ty=Tensor[(52), uint16] */, %var_4667)
  };
  %737(%var_4673, %var_4674) /* ty=(Tensor[(11, 9, 9), float64], Tensor[(11, 7, 2), float64], Tensor[(144, 1), float64], Tensor[(2160), float64], Tensor[(16, 9, 15), float64], Tensor[(1440), uint32], Tensor[(52), uint16], Tensor[(132), float32]) */
}

def @func_1769(%var_1757: Tensor[(11, 9, 9), int64], %var_1758: Tensor[(11, 9, 9), int64]) -> (Tensor[(11, 9, 9), int64],) {
  %738 = cast(%var_1758, dtype="int64") /* ty=Tensor[(11, 9, 9), int64] */;
  %739 = shape_of(%var_1757, dtype="int32") /* ty=Tensor[(3), int32] */;
  %740 = cast(%var_1757, dtype="int64") /* ty=Tensor[(11, 9, 9), int64] */;
  %741 = dyn.reshape(%738, %739, newshape=[]) /* ty=Tensor[(?, ?, ?), int64] */;
  %742 = bitwise_xor(%740, %741) /* ty=Tensor[(11, 9, 9), int64] */;
  (%742,)
}

def @func_5703(%var_5686: Tensor[(16, 12, 10), float32]) -> (Tensor[(16, 12, 10), float32], Tensor[(11, 9, 9), float64]) {
  %743 = cast(%var_5686, dtype="float32") /* ty=Tensor[(16, 12, 10), float32] */;
  %744 = acos(%743) /* ty=Tensor[(16, 12, 10), float32] */;
  %745 = @func_3548() /* ty=Tensor[(11, 9, 9), float64] */;
  (%744, %745)
}

def @func_6763(%var_6761: Tensor[(3, 10, 14), float32]) -> (Tensor[(3, 10, 14), float32],) {
  @func_6760(%var_6761) /* ty=(Tensor[(3, 10, 14), float32],) */
}

def @func_7112() -> (Tensor[(2, 9, 1), bool], Tensor[(9, 4, 9), bool], Tensor[(8, 8, 5), bool], Tensor[(64), int32], Tensor[(8, 40), float64]) {
  @func_7110() /* ty=(Tensor[(2, 9, 1), bool], Tensor[(9, 4, 9), bool], Tensor[(8, 8, 5), bool], Tensor[(64), int32], Tensor[(8, 40), float64]) */
}

def @func_6913(%var_6880: Tensor[(6, 2, 13), float64]) -> (Tensor[(6, 2, 13), float64],) {
  %746 = cast(%var_6880, dtype="float64") /* ty=Tensor[(6, 2, 13), float64] */;
  %747 = sinh(%746) /* ty=Tensor[(6, 2, 13), float64] */;
  (%747,)
}

def @func_4989() -> (Tensor[(11, 9, 9), float64],) {
  %748 = @func_4175() /* ty=Tensor[(11, 9, 9), float64] */;
  (%748,)
}

def @func_3207() -> (Tensor[(9, 4, 9), float64],) {
  %751 = fn () -> (Tensor[(9, 4, 9), float64],) {
    %749 = @func_2844() /* ty=(Tensor[(9, 4, 9), float64], Tensor[(11, 9, 9), int64], Tensor[(891), int64]) */;
    %750 = %749.0;
    (%750,)
  };
  %751() /* ty=(Tensor[(9, 4, 9), float64],) */
}

def @func_169(%var_160: Tensor[(7, 14, 13), bool], %var_161: Tensor[(7, 14, 13), bool]) -> Tensor[(7, 14, 13), bool] {
  %752 = cast(%var_161, dtype="bool") /* ty=Tensor[(7, 14, 13), bool] */;
  %753 = shape_of(%var_160, dtype="int32") /* ty=Tensor[(3), int32] */;
  %754 = cast(%var_160, dtype="bool") /* ty=Tensor[(7, 14, 13), bool] */;
  %755 = dyn.reshape(%752, %753, newshape=[]) /* ty=Tensor[(?, ?, ?), bool] */;
  logical_and(%754, %755) /* ty=Tensor[(7, 14, 13), bool] */
}

def @func_4028() -> (Tensor[(11, 9, 9), float64],) {
  %758 = fn () -> (Tensor[(11, 9, 9), float64],) {
    %756 = @func_3195() /* ty=(Tensor[(11, 9, 9), float64],) */;
    %757 = %756.0;
    (%757,)
  };
  %758() /* ty=(Tensor[(11, 9, 9), float64],) */
}

def @func_4156() -> (Tensor[(11, 9, 9), float64], Tensor[(11, 9, 9), bool]) {
  %769 = fn () -> (Tensor[(11, 9, 9), float64], Tensor[(11, 9, 9), bool]) {
    %759 = @func_3790() /* ty=(Tensor[(11, 9, 9), float64],) */;
    %760 = %759.0;
    %761 = @func_2906() /* ty=(Tensor[(11, 9, 9), float64],) */;
    %762 = %761.0;
    %763 = cast(%762, dtype="bool") /* ty=Tensor[(11, 9, 9), bool] */;
    %764 = shape_of(%760, dtype="int32") /* ty=Tensor[(3), int32] */;
    %765 = cast(%760, dtype="bool") /* ty=Tensor[(11, 9, 9), bool] */;
    %766 = dyn.reshape(%763, %764, newshape=[]) /* ty=Tensor[(?, ?, ?), bool] */;
    %767 = @func_3611() /* ty=Tensor[(11, 9, 9), float64] */;
    %768 = logical_or(%765, %766) /* ty=Tensor[(11, 9, 9), bool] */;
    (%767, %768)
  };
  %769() /* ty=(Tensor[(11, 9, 9), float64], Tensor[(11, 9, 9), bool]) */
}

def @func_5851() -> Tensor[(11, 14, 9), bool] {
  %770 = @func_4018() /* ty=(Tensor[(11, 9, 9), float64], Tensor[(11, 14, 9), bool], Tensor[(1386), int16], Tensor[(672), int32], Tensor[(11, 9, 9), float64]) */;
  %771 = %770.1;
  %772 = cast(meta[relay.Constant][55] /* ty=Tensor[(11, 14, 9), bool] */, dtype="bool") /* ty=Tensor[(11, 14, 9), bool] */;
  %773 = shape_of(%771, dtype="int32") /* ty=Tensor[(3), int32] */;
  %774 = cast(%771, dtype="bool") /* ty=Tensor[(11, 14, 9), bool] */;
  %775 = dyn.reshape(%772, %773, newshape=[]) /* ty=Tensor[(?, ?, ?), bool] */;
  less(%774, %775) /* ty=Tensor[(11, 14, 9), bool] */
}

def @func_2907() -> (Tensor[(11, 9, 9), float64],) {
  %783 = fn () -> (Tensor[(11, 9, 9), float64],) {
    %776 = @func_2844() /* ty=(Tensor[(9, 4, 9), float64], Tensor[(11, 9, 9), int64], Tensor[(891), int64]) */;
    %777 = %776.1;
    %778 = cast(meta[relay.Constant][56] /* ty=Tensor[(11, 9, 9), int64] */, dtype="float64") /* ty=Tensor[(11, 9, 9), float64] */;
    %779 = shape_of(%777, dtype="int32") /* ty=Tensor[(3), int32] */;
    %780 = cast(%777, dtype="float64") /* ty=Tensor[(11, 9, 9), float64] */;
    %781 = dyn.reshape(%778, %779, newshape=[]) /* ty=Tensor[(?, ?, ?), float64] */;
    %782 = multiply(%780, %781) /* ty=Tensor[(11, 9, 9), float64] */;
    (%782,)
  };
  %783() /* ty=(Tensor[(11, 9, 9), float64],) */
}

def @func_5417() -> (Tensor[(9, 4, 9), float64], Tensor[(1584), float32], Tensor[(12), float32], Tensor[(11, 9, 9), float64], Tensor[(9, 11, 16), bool]) {
  %784 = @func_3206() /* ty=(Tensor[(9, 4, 9), float64],) */;
  %785 = @func_3790() /* ty=(Tensor[(11, 9, 9), float64],) */;
  %786 = cast(meta[relay.Constant][57] /* ty=Tensor[(1584), float32] */, dtype="float32") /* ty=Tensor[(1584), float32] */;
  %787 = cast(meta[relay.Constant][57] /* ty=Tensor[(1584), float32] */, dtype="float32") /* ty=Tensor[(1584), float32] */;
  %788 = cast(meta[relay.Constant][58] /* ty=Tensor[(12), float32] */, dtype="float32") /* ty=Tensor[(12), float32] */;
  %789 = reshape(%786, newshape=[9, 11, 16]) /* ty=Tensor[(9, 11, 16), float32] */;
  %790 = reshape(%787, newshape=[9, 11, 16]) /* ty=Tensor[(9, 11, 16), float32] */;
  %791 = reshape(%788, newshape=[12]) /* ty=Tensor[(12), float32] */;
  %792 = @func_2148(%789, %790, %791) /* ty=(Tensor[(9, 11, 16), float64], Tensor[(4, 1, 3), float64], Tensor[(12), float32]) */;
  %793 = %792.0;
  %794 = cast(%793, dtype="float64") /* ty=Tensor[(9, 11, 16), float64] */;
  %795 = acos(%794) /* ty=Tensor[(9, 11, 16), float64] */;
  %796 = cast(%793, dtype="bool") /* ty=Tensor[(9, 11, 16), bool] */;
  %797 = shape_of(%795, dtype="int32") /* ty=Tensor[(3), int32] */;
  %798 = cast(%795, dtype="bool") /* ty=Tensor[(9, 11, 16), bool] */;
  %799 = dyn.reshape(%796, %797, newshape=[]) /* ty=Tensor[(?, ?, ?), bool] */;
  %800 = %784.0;
  %801 = %785.0;
  %802 = not_equal(%798, %799) /* ty=Tensor[(9, 11, 16), bool] */;
  (%800, meta[relay.Constant][57] /* ty=Tensor[(1584), float32] */, meta[relay.Constant][58] /* ty=Tensor[(12), float32] */, %801, %802)
}

def @func_6515(%var_6514: Tensor[(1274), bool]) -> (Tensor[(11, 9, 9), float64], Tensor[(132), float32], Tensor[(132), float32], Tensor[(1274), bool]) {
  %810 = fn (%var_6487: Tensor[(1274), bool]) -> (Tensor[(11, 9, 9), float64], Tensor[(132), float32], Tensor[(132), float32], Tensor[(1274), bool]) {
    %803 = cast(meta[relay.Constant][59] /* ty=Tensor[(132), float32] */, dtype="float32") /* ty=Tensor[(132), float32] */;
    %804 = cast(%var_6487, dtype="bool") /* ty=Tensor[(1274), bool] */;
    %805 = reshape(%803, newshape=[132]) /* ty=Tensor[(132), float32] */;
    %806 = reshape(%804, newshape=[1274]) /* ty=Tensor[(1274), bool] */;
    %807 = @func_5456(%805, %806) /* ty=(Tensor[(210, 1), float32], Tensor[(1274), bool], Tensor[(132), float32], Tensor[(1274), bool]) */;
    %808 = @func_5225() /* ty=Tensor[(11, 9, 9), float64] */;
    %809 = %807.2;
    (%808, %809, meta[relay.Constant][59] /* ty=Tensor[(132), float32] */, %var_6487)
  };
  %810(%var_6514) /* ty=(Tensor[(11, 9, 9), float64], Tensor[(132), float32], Tensor[(132), float32], Tensor[(1274), bool]) */
}

def @func_5209() -> (Tensor[(11, 9, 9), float64],) {
  %813 = fn () -> (Tensor[(11, 9, 9), float64],) {
    %811 = @func_3583() /* ty=(Tensor[(11, 9, 9), float64],) */;
    %812 = %811.0;
    (%812,)
  };
  %813() /* ty=(Tensor[(11, 9, 9), float64],) */
}

def @func_3791() -> (Tensor[(11, 9, 9), float64],) {
  %816 = fn () -> (Tensor[(11, 9, 9), float64],) {
    %814 = @func_3079() /* ty=(Tensor[(11, 9, 9), float64],) */;
    %815 = %814.0;
    (%815,)
  };
  %816() /* ty=(Tensor[(11, 9, 9), float64],) */
}

def @func_7219() -> Tensor[(11, 9, 9), float64] {
  @func_3611() /* ty=Tensor[(11, 9, 9), float64] */
}

def @func_6353() -> (Tensor[(11, 9, 9), float64],) {
  %817 = @func_5225() /* ty=Tensor[(11, 9, 9), float64] */;
  (%817,)
}

def @func_7496() -> (Tensor[(11, 9, 9), float64],) {
  @func_7494() /* ty=(Tensor[(11, 9, 9), float64],) */
}

def @func_5746() -> (Tensor[(210, 1), float32], Tensor[(11, 9, 9), float64]) {
  %818 = @func_3711() /* ty=(Tensor[(11, 9, 9), float64], Tensor[(1, 15, 14), float32], Tensor[(210, 1), float32]) */;
  %819 = %818.2;
  %820 = @func_3611() /* ty=Tensor[(11, 9, 9), float64] */;
  (%819, %820)
}

def @func_3515(%var_3513: Tensor[(1274), bool]) -> (Tensor[(11, 9, 9), float64], Tensor[(132), float32], Tensor[(3, 4, 11), float64], Tensor[(1274), bool], Tensor[(9, 4, 9), float64], Tensor[(7, 14, 13), bool]) {
  @func_3512(%var_3513) /* ty=(Tensor[(11, 9, 9), float64], Tensor[(132), float32], Tensor[(3, 4, 11), float64], Tensor[(1274), bool], Tensor[(9, 4, 9), float64], Tensor[(7, 14, 13), bool]) */
}

def @func_4335() -> (Tensor[(11, 9, 9), float64],) {
  @func_4333() /* ty=(Tensor[(11, 9, 9), float64],) */
}

def @func_5853() -> Tensor[(11, 14, 9), bool] {
  @func_5851() /* ty=Tensor[(11, 14, 9), bool] */
}

def @func_3156(%var_3087: Tensor[(11, 14, 9), int16], %var_3150: Tensor[(672), int32]) -> (Tensor[(11, 14, 9), bool], Tensor[(11, 14, 9), float32], Tensor[(16, 7, 6), int16], Tensor[(672), int32], Tensor[(72), float32]) {
  %821 = cast(meta[relay.Constant][60] /* ty=Tensor[(11, 14, 9), int16] */, dtype="int16") /* ty=Tensor[(11, 14, 9), int16] */;
  %822 = shape_of(%var_3087, dtype="int32") /* ty=Tensor[(3), int32] */;
  %823 = cast(%var_3087, dtype="int16") /* ty=Tensor[(11, 14, 9), int16] */;
  %824 = dyn.reshape(%821, %822, newshape=[]) /* ty=Tensor[(?, ?, ?), int16] */;
  %825 = logical_xor(%823, %824) /* ty=Tensor[(11, 14, 9), int16] */;
  %826 = cast(%825, dtype="float32") /* ty=Tensor[(11, 14, 9), float32] */;
  %827 = atanh(%826) /* ty=Tensor[(11, 14, 9), float32] */;
  %828 = cast(%825, dtype="float64") /* ty=Tensor[(11, 14, 9), float64] */;
  %829 = shape_of(meta[relay.Constant][60] /* ty=Tensor[(11, 14, 9), int16] */, dtype="int32") /* ty=Tensor[(3), int32] */;
  %830 = cast(meta[relay.Constant][60] /* ty=Tensor[(11, 14, 9), int16] */, dtype="float64") /* ty=Tensor[(11, 14, 9), float64] */;
  %831 = dyn.reshape(%828, %829, newshape=[]) /* ty=Tensor[(?, ?, ?), float64] */;
  %832 = mod(%830, %831) /* ty=Tensor[(11, 14, 9), float64] */;
  %833 = cast(%832, dtype="bool") /* ty=Tensor[(11, 14, 9), bool] */;
  %834 = shape_of(%827, dtype="int32") /* ty=Tensor[(3), int32] */;
  %835 = cast(%827, dtype="bool") /* ty=Tensor[(11, 14, 9), bool] */;
  %836 = dyn.reshape(%833, %834, newshape=[]) /* ty=Tensor[(?, ?, ?), bool] */;
  %837 = cast(%825, dtype="uint64") /* ty=Tensor[(11, 14, 9), uint64] */;
  %838 = shape_of(%827, dtype="int32") /* ty=Tensor[(3), int32] */;
  %839 = cast(%827, dtype="uint64") /* ty=Tensor[(11, 14, 9), uint64] */;
  %840 = dyn.reshape(%837, %838, newshape=[]) /* ty=Tensor[(?, ?, ?), uint64] */;
  %841 = multiply(%839, %840) /* ty=Tensor[(11, 14, 9), uint64] */;
  %842 = cast(%841, dtype="float32") /* ty=Tensor[(11, 14, 9), float32] */;
  %843 = cast(%var_3150, dtype="int32") /* ty=Tensor[(672), int32] */;
  %844 = cast(meta[relay.Constant][61] /* ty=Tensor[(72), float32] */, dtype="float32") /* ty=Tensor[(72), float32] */;
  %845 = reshape(%843, newshape=[16, 7, 6]) /* ty=Tensor[(16, 7, 6), int32] */;
  %846 = reshape(%844, newshape=[1, 72]) /* ty=Tensor[(1, 72), float32] */;
  %847 = @func_1473(%845, %846) /* ty=(Tensor[(16, 7, 6), int16], Tensor[(?, 72), bool]) */;
  %848 = not_equal(%835, %836) /* ty=Tensor[(11, 14, 9), bool] */;
  %849 = asinh(%842) /* ty=Tensor[(11, 14, 9), float32] */;
  %850 = %847.0;
  (%848, %849, %850, %var_3150, meta[relay.Constant][61] /* ty=Tensor[(72), float32] */)
}

def @func_5041(%var_5039: Tensor[(12), float32]) -> (Tensor[(11, 9, 9), float64], Tensor[(4, 1, 3), float64], Tensor[(12), float32]) {
  @func_5038(%var_5039) /* ty=(Tensor[(11, 9, 9), float64], Tensor[(4, 1, 3), float64], Tensor[(12), float32]) */
}

def @func_4333() -> (Tensor[(11, 9, 9), float64],) {
  %851 = @func_4155() /* ty=(Tensor[(11, 9, 9), float64], Tensor[(11, 9, 9), bool]) */;
  %852 = %851.0;
  (%852,)
}

def @func_5939(%var_5938: Tensor[(1, 1274), bool]) -> (Tensor[(11, 9, 9), float64], Tensor[(144), float64], Tensor[(1, 1274), bool], Tensor[(18, 4), float32]) {
  %861 = fn (%var_5927: Tensor[(1, 1274), bool]) -> (Tensor[(11, 9, 9), float64], Tensor[(144), float64], Tensor[(1, 1274), bool], Tensor[(18, 4), float32]) {
    %853 = @func_4473() /* ty=(Tensor[(11, 9, 9), float64],) */;
    %854 = cast(%var_5927, dtype="bool") /* ty=Tensor[(1, 1274), bool] */;
    %855 = cast(meta[relay.Constant][62] /* ty=Tensor[(18, 4), float32] */, dtype="float32") /* ty=Tensor[(18, 4), float32] */;
    %856 = reshape(%854, newshape=[1274]) /* ty=Tensor[(1274), bool] */;
    %857 = reshape(%855, newshape=[72]) /* ty=Tensor[(72), float32] */;
    %858 = @func_1194(%856, %857) /* ty=(Tensor[(13, 9, 11), float32], Tensor[(11, 7, 2), float64], Tensor[(1274), bool], Tensor[(144), float64], Tensor[(4, 6, 3), int8], Tensor[(72), float32], Tensor[(4, 6, 3), float32], Tensor[(11, 7, 2), float64], Tensor[(2160), float64]) */;
    %859 = %853.0;
    %860 = %858.3;
    (%859, %860, %var_5927, meta[relay.Constant][62] /* ty=Tensor[(18, 4), float32] */)
  };
  %861(%var_5938) /* ty=(Tensor[(11, 9, 9), float64], Tensor[(144), float64], Tensor[(1, 1274), bool], Tensor[(18, 4), float32]) */
}

def @func_7762(%var_7745: Tensor[(1, 10, 11), uint16], %var_7746: Tensor[(8, 10, 11), uint16]) -> (Tensor[(8, 10, 11), uint16], Tensor[(4, 10, 11), bool]) {
  %862 = cast(%var_7745, dtype="uint16") /* ty=Tensor[(1, 10, 11), uint16] */;
  %863 = cast(%var_7746, dtype="uint16") /* ty=Tensor[(8, 10, 11), uint16] */;
  %864 = cast(%var_7745, dtype="bool") /* ty=Tensor[(1, 10, 11), bool] */;
  %865 = cast(meta[relay.Constant][63] /* ty=Tensor[(4, 10, 11), uint16] */, dtype="bool") /* ty=Tensor[(4, 10, 11), bool] */;
  %866 = add(%862, %863) /* ty=Tensor[(8, 10, 11), uint16] */;
  %867 = not_equal(%864, %865) /* ty=Tensor[(4, 10, 11), bool] */;
  (%866, %867)
}

def @main(%var_7787: Tensor[(15, 16, 7), float64]) -> (Tensor[(15, 16, 7), float64],) {
  %868 = cast(%var_7787, dtype="float64") /* ty=Tensor[(15, 16, 7), float64] */;
  %869 = asin(%868) /* ty=Tensor[(15, 16, 7), float64] */;
  (%869,)
}

def @func_2643(%var_2639: Tensor[(8, 9, 11), float32], %var_2640: Tensor[(2160), float64], %var_2641: Tensor[(1, 12), float32], %var_2642: Tensor[(1274), bool]) -> (Tensor[(16, 9, 15), float64], Tensor[(1, 144), float64], Tensor[(2160), float64], Tensor[(8, 9, 11), uint32], Tensor[(8, 9, 11), float64], Tensor[(12), float32], Tensor[(1584), float32], Tensor[(1, 12), float32], Tensor[(11, 7, 2), float64], Tensor[(1274), bool], Tensor[(11, 7, 2), float64]) {
  @func_2637(%var_2639, %var_2640, %var_2641, %var_2642) /* ty=(Tensor[(16, 9, 15), float64], Tensor[(1, 144), float64], Tensor[(2160), float64], Tensor[(8, 9, 11), uint32], Tensor[(8, 9, 11), float64], Tensor[(12), float32], Tensor[(1584), float32], Tensor[(1, 12), float32], Tensor[(11, 7, 2), float64], Tensor[(1274), bool], Tensor[(11, 7, 2), float64]) */
}

def @func_4473() -> (Tensor[(11, 9, 9), float64],) {
  %870 = @func_4027() /* ty=(Tensor[(11, 9, 9), float64],) */;
  %871 = %870.0;
  (%871,)
}

def @func_5358() -> (Tensor[(11, 9, 9), float64], Tensor[(9, 4, 9), float64]) {
  %872 = @func_3206() /* ty=(Tensor[(9, 4, 9), float64],) */;
  %873 = @func_3548() /* ty=Tensor[(11, 9, 9), float64] */;
  %874 = %872.0;
  (%873, %874)
}

def @func_4640(%var_4638: Tensor[(8, 8, 1), int32], %var_4639: Tensor[(8, 8, 5), float64]) -> (Tensor[(8, 8, 5), bool], Tensor[(8, 8, 5), bool]) {
  %885 = fn (%var_4620: Tensor[(8, 8, 1), int32], %var_4633: Tensor[(8, 8, 5), float64]) -> (Tensor[(8, 8, 5), bool], Tensor[(8, 8, 5), bool]) {
    %875 = cast(%var_4620, dtype="bool") /* ty=Tensor[(8, 8, 1), bool] */;
    %876 = cast(meta[relay.Constant][64] /* ty=Tensor[(8, 8, 5), int32] */, dtype="bool") /* ty=Tensor[(8, 8, 5), bool] */;
    %877 = cast(meta[relay.Constant][64] /* ty=Tensor[(8, 8, 5), int32] */, dtype="float64") /* ty=Tensor[(8, 8, 5), float64] */;
    %878 = log(%877) /* ty=Tensor[(8, 8, 5), float64] */;
    %879 = cast(%var_4633, dtype="bool") /* ty=Tensor[(8, 8, 5), bool] */;
    %880 = shape_of(%878, dtype="int32") /* ty=Tensor[(3), int32] */;
    %881 = cast(%878, dtype="bool") /* ty=Tensor[(8, 8, 5), bool] */;
    %882 = dyn.reshape(%879, %880, newshape=[]) /* ty=Tensor[(?, ?, ?), bool] */;
    %883 = equal(%875, %876) /* ty=Tensor[(8, 8, 5), bool] */;
    %884 = logical_and(%881, %882) /* ty=Tensor[(8, 8, 5), bool] */;
    (%883, %884)
  };
  %885(%var_4638, %var_4639) /* ty=(Tensor[(8, 8, 5), bool], Tensor[(8, 8, 5), bool]) */
}

def @func_5227() -> Tensor[(11, 9, 9), float64] {
  @func_5225() /* ty=Tensor[(11, 9, 9), float64] */
}

def @func_4176() -> Tensor[(11, 9, 9), float64] {
  %887 = fn () -> Tensor[(11, 9, 9), float64] {
    %886 = @func_3583() /* ty=(Tensor[(11, 9, 9), float64],) */;
    %886.0
  };
  %887() /* ty=Tensor[(11, 9, 9), float64] */
}

def @func_5442(%var_5440: Tensor[(132), float32]) -> (Tensor[(11, 9, 9), float64], Tensor[(11, 9, 9), float64], Tensor[(11, 9, 9), float64], Tensor[(3, 4), float32], Tensor[(52, 1), uint16], Tensor[(132), float32]) {
  @func_5439(%var_5440) /* ty=(Tensor[(11, 9, 9), float64], Tensor[(11, 9, 9), float64], Tensor[(11, 9, 9), float64], Tensor[(3, 4), float32], Tensor[(52, 1), uint16], Tensor[(132), float32]) */
}

def @func_2943() -> (Tensor[(11, 9, 9), float64],) {
  %892 = fn () -> (Tensor[(11, 9, 9), float64],) {
    %888 = @func_2906() /* ty=(Tensor[(11, 9, 9), float64],) */;
    %889 = %888.0;
    %890 = cast(%889, dtype="float64") /* ty=Tensor[(11, 9, 9), float64] */;
    %891 = log10(%890) /* ty=Tensor[(11, 9, 9), float64] */;
    (%891,)
  };
  %892() /* ty=(Tensor[(11, 9, 9), float64],) */
}

def @func_6188() -> (Tensor[(11, 9, 9), float64], Tensor[(11, 9, 9), float64]) {
  %897 = fn () -> (Tensor[(11, 9, 9), float64], Tensor[(11, 9, 9), float64]) {
    %893 = @func_5312() /* ty=(Tensor[(11, 9, 9), float64], Tensor[(15, 14, 2), float32], Tensor[(420), float32]) */;
    %894 = @func_4534() /* ty=(Tensor[(11, 9, 9), float64],) */;
    %895 = %893.0;
    %896 = %894.0;
    (%895, %896)
  };
  %897() /* ty=(Tensor[(11, 9, 9), float64], Tensor[(11, 9, 9), float64]) */
}

def @func_1773(%var_1771: Tensor[(11, 9, 9), int64], %var_1772: Tensor[(11, 9, 9), int64]) -> (Tensor[(11, 9, 9), int64],) {
  @func_1769(%var_1771, %var_1772) /* ty=(Tensor[(11, 9, 9), int64],) */
}

def @func_29(%var_28: Tensor[(11, 7, 2), int32]) -> (Tensor[(11, 7, 2), float64],) {
  %907 = fn (%var_11: Tensor[(11, 7, 2), int32]) -> (Tensor[(11, 7, 2), float64],) {
    %898 = cast(meta[relay.Constant][65] /* ty=Tensor[(11, 7, 2), int32] */, dtype="bool") /* ty=Tensor[(11, 7, 2), bool] */;
    %899 = shape_of(%var_11, dtype="int32") /* ty=Tensor[(3), int32] */;
    %900 = cast(%var_11, dtype="bool") /* ty=Tensor[(11, 7, 2), bool] */;
    %901 = dyn.reshape(%898, %899, newshape=[]) /* ty=Tensor[(?, ?, ?), bool] */;
    %902 = greater_equal(%900, %901) /* ty=Tensor[(11, 7, 2), bool] */;
    %903 = cast(%902, dtype="float64") /* ty=Tensor[(11, 7, 2), float64] */;
    %904 = sigmoid(%903) /* ty=Tensor[(11, 7, 2), float64] */;
    %905 = cast(%904, dtype="float64") /* ty=Tensor[(11, 7, 2), float64] */;
    %906 = erf(%905) /* ty=Tensor[(11, 7, 2), float64] */;
    (%906,)
  };
  %907(%var_28) /* ty=(Tensor[(11, 7, 2), float64],) */
}

def @func_6244() -> Tensor[(11, 9, 9), float64] {
  %909 = fn () -> Tensor[(11, 9, 9), float64] {
    %908 = @func_6030() /* ty=(Tensor[(11, 9, 9), float64], Tensor[(11, 9, 9), float64], Tensor[(11, 9, 9), float64]) */;
    %908.2
  };
  %909() /* ty=Tensor[(11, 9, 9), float64] */
}

def @func_7270(%var_7268: Tensor[(11, 3, 7), uint8], %var_7269: Tensor[(448), int32]) -> (Tensor[(11, 3, 7), bool], Tensor[(11, 3, 7), float32], Tensor[(11, 3, 7), float32], Tensor[(4, 14, 8), uint16], int32, Tensor[(448), int32]) {
  @func_7266(%var_7268, %var_7269) /* ty=(Tensor[(11, 3, 7), bool], Tensor[(11, 3, 7), float32], Tensor[(11, 3, 7), float32], Tensor[(4, 14, 8), uint16], int32, Tensor[(448), int32]) */
}

def @func_2757(%var_2755: Tensor[(3, 13, 12), int16], %var_2756: Tensor[(3, 13, 12), int16]) -> Tensor[(3, 13, 12), int16] {
  %914 = fn (%var_2747: Tensor[(3, 13, 12), int16], %var_2748: Tensor[(3, 13, 12), int16]) -> Tensor[(3, 13, 12), int16] {
    %910 = cast(%var_2748, dtype="int16") /* ty=Tensor[(3, 13, 12), int16] */;
    %911 = shape_of(%var_2747, dtype="int32") /* ty=Tensor[(3), int32] */;
    %912 = cast(%var_2747, dtype="int16") /* ty=Tensor[(3, 13, 12), int16] */;
    %913 = dyn.reshape(%910, %911, newshape=[]) /* ty=Tensor[(?, ?, ?), int16] */;
    add(%912, %913) /* ty=Tensor[(3, 13, 12), int16] */
  };
  %914(%var_2755, %var_2756) /* ty=Tensor[(3, 13, 12), int16] */
}

def @func_5748() -> (Tensor[(210, 1), float32], Tensor[(11, 9, 9), float64]) {
  @func_5746() /* ty=(Tensor[(210, 1), float32], Tensor[(11, 9, 9), float64]) */
}

def @func_1344(%var_1342: Tensor[(16, 15, 6), uint32], %var_1343: Tensor[(16, 15, 6), uint32]) -> (Tensor[(16, 15, 6), bool],) {
  %920 = fn (%var_1311: Tensor[(16, 15, 6), uint32], %var_1312: Tensor[(16, 15, 6), uint32]) -> (Tensor[(16, 15, 6), bool],) {
    %915 = cast(%var_1312, dtype="bool") /* ty=Tensor[(16, 15, 6), bool] */;
    %916 = shape_of(%var_1311, dtype="int32") /* ty=Tensor[(3), int32] */;
    %917 = cast(%var_1311, dtype="bool") /* ty=Tensor[(16, 15, 6), bool] */;
    %918 = dyn.reshape(%915, %916, newshape=[]) /* ty=Tensor[(?, ?, ?), bool] */;
    %919 = not_equal(%917, %918) /* ty=Tensor[(16, 15, 6), bool] */;
    (%919,)
  };
  %920(%var_1342, %var_1343) /* ty=(Tensor[(16, 15, 6), bool],) */
}

def @func_2289(%var_2286: uint16, %var_2287: Tensor[(13, 4, 1), uint16], %var_2288: Tensor[(132), float32]) -> (Tensor[(13, 4, 1), uint16], Tensor[(3, 4, 11), float64], Tensor[(132), float32], Tensor[(1274), bool]) {
  %930 = fn (%var_2267: uint16, %var_2268: Tensor[(13, 4, 1), uint16], %var_2280: Tensor[(132), float32]) -> (Tensor[(13, 4, 1), uint16], Tensor[(3, 4, 11), float64], Tensor[(132), float32], Tensor[(1274), bool]) {
    %921 = cast(%var_2267, dtype="uint16") /* ty=uint16 */;
    %922 = cast(%var_2268, dtype="uint16") /* ty=Tensor[(13, 4, 1), uint16] */;
    %923 = cast(%var_2280, dtype="float32") /* ty=Tensor[(132), float32] */;
    %924 = cast(meta[relay.Constant][66] /* ty=Tensor[(1274), bool] */, dtype="bool") /* ty=Tensor[(1274), bool] */;
    %925 = reshape(%923, newshape=[3, 4, 11]) /* ty=Tensor[(3, 4, 11), float32] */;
    %926 = reshape(%924, newshape=[1274]) /* ty=Tensor[(1274), bool] */;
    %927 = @func_292(%925, %926) /* ty=(Tensor[(3, 4, 11), float64], Tensor[(3, 4, 11), float64], Tensor[(7, 14, 13), bool], Tensor[(1274), bool]) */;
    %928 = maximum(%921, %922) /* ty=Tensor[(13, 4, 1), uint16] */;
    %929 = %927.1;
    (%928, %929, %var_2280, meta[relay.Constant][66] /* ty=Tensor[(1274), bool] */)
  };
  %930(%var_2286, %var_2287, %var_2288) /* ty=(Tensor[(13, 4, 1), uint16], Tensor[(3, 4, 11), float64], Tensor[(132), float32], Tensor[(1274), bool]) */
}

def @func_7142(%var_7141: Tensor[(1920), float32]) -> (Tensor[(9, 4, 9), float64], Tensor[(11, 9, 9), float64], Tensor[(1920), float32], Tensor[(9, 4, 9), float64]) {
  %943 = fn (%var_7129: Tensor[(1920), float32]) -> (Tensor[(9, 4, 9), float64], Tensor[(11, 9, 9), float64], Tensor[(1920), float32], Tensor[(9, 4, 9), float64]) {
    %931 = @func_6648() /* ty=(Tensor[(9, 4, 9), float64],) */;
    %932 = cast(%var_7129, dtype="float32") /* ty=Tensor[(1920), float32] */;
    %933 = reshape(%932, newshape=[16, 12, 10]) /* ty=Tensor[(16, 12, 10), float32] */;
    %934 = @func_5703(%933) /* ty=(Tensor[(16, 12, 10), float32], Tensor[(11, 9, 9), float64]) */;
    %935 = @func_4932() /* ty=(Tensor[(9, 4, 9), float64],) */;
    %936 = %935.0;
    %937 = cast(%936, dtype="float32") /* ty=Tensor[(9, 4, 9), float32] */;
    %938 = rsqrt(%937) /* ty=Tensor[(9, 4, 9), float32] */;
    %939 = cast(%938, dtype="float64") /* ty=Tensor[(9, 4, 9), float64] */;
    %940 = %931.0;
    %941 = %934.1;
    %942 = erf(%939) /* ty=Tensor[(9, 4, 9), float64] */;
    (%940, %941, %var_7129, %942)
  };
  %943(%var_7141) /* ty=(Tensor[(9, 4, 9), float64], Tensor[(11, 9, 9), float64], Tensor[(1920), float32], Tensor[(9, 4, 9), float64]) */
}

def @func_1504(%var_1502: Tensor[(1, 15, 14), float32]) -> Tensor[(1, 15, 14), float32] {
  @func_1501(%var_1502) /* ty=Tensor[(1, 15, 14), float32] */
}

def @func_2861(%var_2859: uint64, %var_2860: Tensor[(6, 13, 7), uint64]) -> Tensor[(6, 13, 7), uint64] {
  @func_2857(%var_2859, %var_2860) /* ty=Tensor[(6, 13, 7), uint64] */
}

def @func_7336(%var_7333: Tensor[(2, 336), int32], %var_7334: uint64, %var_7335: Tensor[(1, 546), uint64]) -> (Tensor[(1386), int16], Tensor[(11, 9, 9), float64], Tensor[(2, 336), int32], uint64, Tensor[(1, 546), uint64]) {
  %956 = fn (%var_7309: Tensor[(2, 336), int32], %var_7310: uint64, %var_7311: Tensor[(1, 546), uint64]) -> (Tensor[(1386), int16], Tensor[(11, 9, 9), float64], Tensor[(2, 336), int32], uint64, Tensor[(1, 546), uint64]) {
    %944 = @func_4018() /* ty=(Tensor[(11, 9, 9), float64], Tensor[(11, 14, 9), bool], Tensor[(1386), int16], Tensor[(672), int32], Tensor[(11, 9, 9), float64]) */;
    %945 = %944.2;
    %946 = cast(%945, dtype="int16") /* ty=Tensor[(1386), int16] */;
    %947 = cast(%var_7309, dtype="int32") /* ty=Tensor[(2, 336), int32] */;
    %948 = cast(%var_7310, dtype="uint64") /* ty=uint64 */;
    %949 = cast(%var_7311, dtype="uint64") /* ty=Tensor[(1, 546), uint64] */;
    %950 = reshape(%946, newshape=[1386]) /* ty=Tensor[(1386), int16] */;
    %951 = reshape(%947, newshape=[672]) /* ty=Tensor[(672), int32] */;
    %952 = reshape(%948, newshape=[]) /* ty=uint64 */;
    %953 = reshape(%949, newshape=[7, 78]) /* ty=Tensor[(7, 78), uint64] */;
    %954 = @func_4397(%950, %951, %952, %953) /* ty=(Tensor[(11, 9, 9), float64], Tensor[(11, 14, 9), bool], Tensor[(1386), int16], Tensor[(672), int32], Tensor[(11, 9, 9), float64], Tensor[(6, 13, 7), uint64], uint64, Tensor[(7, 78), uint64]) */;
    %955 = %954.4;
    (%945, %955, %var_7309, %var_7310, %var_7311)
  };
  %956(%var_7333, %var_7334, %var_7335) /* ty=(Tensor[(1386), int16], Tensor[(11, 9, 9), float64], Tensor[(2, 336), int32], uint64, Tensor[(1, 546), uint64]) */
}

def @func_3385(%var_3355: Tensor[(1274), bool], %var_3360: Tensor[(1386), int16], %var_3361: Tensor[(672), int32]) -> (Tensor[(11, 9, 9), float64], Tensor[(7, 14, 13), bool], Tensor[(1274), bool], Tensor[(72), float32], Tensor[(1386), int16], Tensor[(672), int32], Tensor[(4, 1, 3), float64], Tensor[(12), float32]) {
  %957 = @func_2906() /* ty=(Tensor[(11, 9, 9), float64],) */;
  %958 = cast(%var_3355, dtype="bool") /* ty=Tensor[(1274), bool] */;
  %959 = cast(%var_3355, dtype="bool") /* ty=Tensor[(1274), bool] */;
  %960 = reshape(%958, newshape=[7, 14, 13]) /* ty=Tensor[(7, 14, 13), bool] */;
  %961 = reshape(%959, newshape=[7, 14, 13]) /* ty=Tensor[(7, 14, 13), bool] */;
  %962 = cast(%var_3360, dtype="int16") /* ty=Tensor[(1386), int16] */;
  %963 = cast(%var_3361, dtype="int32") /* ty=Tensor[(672), int32] */;
  %964 = reshape(%962, newshape=[11, 14, 9]) /* ty=Tensor[(11, 14, 9), int16] */;
  %965 = reshape(%963, newshape=[672]) /* ty=Tensor[(672), int32] */;
  %966 = @func_3156(%964, %965) /* ty=(Tensor[(11, 14, 9), bool], Tensor[(11, 14, 9), float32], Tensor[(16, 7, 6), int16], Tensor[(672), int32], Tensor[(72), float32]) */;
  %967 = cast(meta[relay.Constant][67] /* ty=Tensor[(12), float32] */, dtype="float32") /* ty=Tensor[(12), float32] */;
  %968 = reshape(%967, newshape=[4, 1, 3]) /* ty=Tensor[(4, 1, 3), float32] */;
  %969 = @func_1232(%968) /* ty=(Tensor[(4, 1, 3), float64],) */;
  %970 = %957.0;
  %971 = @func_169(%960, %961) /* ty=Tensor[(7, 14, 13), bool] */;
  %972 = %966.4;
  %973 = %969.0;
  (%970, %971, %var_3355, %972, %var_3360, %var_3361, %973, meta[relay.Constant][67] /* ty=Tensor[(12), float32] */)
}

def @func_5360() -> (Tensor[(11, 9, 9), float64], Tensor[(9, 4, 9), float64]) {
  @func_5358() /* ty=(Tensor[(11, 9, 9), float64], Tensor[(9, 4, 9), float64]) */
}

/* For debugging purposes the metadata section has been omitted.
 * If you would like to see the full metadata section you can set the 
 * option to `True` when invoking `astext`. 
 *//home/yujunzhe/Hirgen_generated/tvm0.8_test/HirGen285/build/output.py:2268: DeprecationWarning: legacy graph executor behavior of producing json / lib / params will be removed in the next release. Please see documents of tvm.contrib.graph_executor.GraphModule for the  new recommended usage.
  graph, lib, params = relay.build(mod, target='llvm')
/home/yujunzhe/tvm/python/tvm/contrib/graph_runtime.py:25: UserWarning: This function has been moved to tvm.contrib.graph_executor and will be removed in the next TVM release
  warnings.warn(

===================================
Traceback (most recent call last):
  File "/home/yujunzhe/Hirgen_generated/tvm0.8_test/HirGen285/build/output.py", line 2273, in <module>
    graph, lib, params = relay.build(mod, target='cuda')
  File "/home/yujunzhe/tvm/python/tvm/relay/build_module.py", line 369, in build
    executor_config, runtime_mod, params = bld_mod.build(
  File "/home/yujunzhe/tvm/python/tvm/relay/build_module.py", line 177, in build
    self._build(mod, target, target_host, executor, mod_name)
  File "/home/yujunzhe/tvm/python/tvm/_ffi/_ctypes/packed_func.py", line 237, in __call__
    raise get_last_ffi_error()
tvm._ffi.base.TVMError: Traceback (most recent call last):
  7: TVMFuncCall
  6: std::_Function_handler<void (tvm::runtime::TVMArgs, tvm::runtime::TVMRetValue*), tvm::relay::backend::RelayBuildModule::GetFunction(std::__cxx11::basic_string<char, std::char_traits<char>, std::allocator<char> > const&, tvm::runtime::ObjectPtr<tvm::runtime::Object> const&)::{lambda(tvm::runtime::TVMArgs, tvm::runtime::TVMRetValue*)#3}>::_M_invoke(std::_Any_data const&, tvm::runtime::TVMArgs&&, tvm::runtime::TVMRetValue*&&)
  5: tvm::relay::backend::RelayBuildModule::BuildRelay(tvm::IRModule, std::unordered_map<std::__cxx11::basic_string<char, std::char_traits<char>, std::allocator<char> >, tvm::runtime::NDArray, std::hash<std::__cxx11::basic_string<char, std::char_traits<char>, std::allocator<char> > >, std::equal_to<std::__cxx11::basic_string<char, std::char_traits<char>, std::allocator<char> > >, std::allocator<std::pair<std::__cxx11::basic_string<char, std::char_traits<char>, std::allocator<char> > const, tvm::runtime::NDArray> > > const&, tvm::runtime::String)
  4: tvm::build(tvm::runtime::Map<tvm::Target, tvm::IRModule, void, void> const&, tvm::Target const&)
  3: tvm::codegen::Build(tvm::IRModule, tvm::Target)
  2: tvm::runtime::TypedPackedFunc<tvm::runtime::Module (tvm::IRModule, tvm::Target)>::AssignTypedLambda<tvm::runtime::Module (*)(tvm::IRModule, tvm::Target)>(tvm::runtime::Module (*)(tvm::IRModule, tvm::Target), std::__cxx11::basic_string<char, std::char_traits<char>, std::allocator<char> >)::{lambda(tvm::runtime::TVMArgs const&, tvm::runtime::TVMRetValue*)#1}::operator()(tvm::runtime::TVMArgs const&, tvm::runtime::TVMRetValue*) const
  1: tvm::codegen::BuildCUDA(tvm::IRModule, tvm::Target)
  0: std::_Function_handler<void (tvm::runtime::TVMArgs, tvm::runtime::TVMRetValue*), TVMFuncCreateFromCFunc::{lambda(tvm::runtime::TVMArgs, tvm::runtime::TVMRetValue*)#2}>::_M_invoke(std::_Any_data const&, tvm::runtime::TVMArgs&&, tvm::runtime::TVMRetValue*&&) [clone .cold]
  File "/home/yujunzhe/tvm/python/tvm/_ffi/_ctypes/packed_func.py", line 81, in cfun
    rv = local_pyfunc(*pyargs)
  File "/home/yujunzhe/tvm/python/tvm/autotvm/measure/measure_methods.py", line 789, in tvm_callback_cuda_compile
    ptx = nvcc.compile_cuda(code, target=target, arch=AutotvmGlobalScope.current.cuda_target_arch)
  File "/home/yujunzhe/tvm/python/tvm/contrib/nvcc.py", line 108, in compile_cuda
    raise RuntimeError(msg)
RuntimeError: 
#ifdef _WIN32
  using uint = unsigned int;
  using uchar = unsigned char;
  using ushort = unsigned short;
  using int64_t = long long;
  using uint64_t = unsigned long long;
#else
  #define uint unsigned int
  #define uchar unsigned char
  #define ushort unsigned short
  #define int64_t long long
  #define uint64_t unsigned long long
#endif
extern "C" __global__ void __launch_bounds__(1024) tvmgen_default_fused_asin_kernel0(double* __restrict__ T_asin, double* __restrict__ placeholder) {
  if (((((int)blockIdx.x) * 1024) + ((int)threadIdx.x)) < 1680) {
    T_asin[(((((int)blockIdx.x) * 1024) + ((int)threadIdx.x)))] = asin(placeholder[(((((int)blockIdx.x) * 1024) + ((int)threadIdx.x)))]);
  }
}


Compilation error:
In file included from /usr/local/cuda/bin/../targets/x86_64-linux/include/cuda_runtime.h:82,
                 from <command-line>:
/usr/local/cuda/bin/../targets/x86_64-linux/include/crt/host_config.h:143:2: error: #error -- unsupported GNU version! gcc versions later than 12 are not supported! The nvcc flag '-allow-unsupported-compiler' can be used to override this version check; however, using an unsupported host compiler may cause compilation failure or incorrect run time execution. Use at your own risk.
  143 | #error -- unsupported GNU version! gcc versions later than 12 are not supported! The nvcc flag '-allow-unsupported-compiler' can be used to override this version check; however, using an unsupported host compiler may cause compilation failure or incorrect run time execution. Use at your own risk.
      |  ^~~~~

